results/hallway2/Hallway/Hallway-500053.pt (torch, 442271 bytes, 36 tensors)

network_body._body_endoder.seq_layers.0.weight f4 [128, 7]
0	0xbdd7f9a5	-0.10545663
1	0xbe081234	-0.13288194
2	0xbeec7b26	-0.46187705
3	0xbd950276	-0.0727586
4	0x3f47a610	0.77987766
5	0x3da83a0f	0.08214199
6	0xbe1edf56	-0.15514883
7	0x3eb648ad	0.35602322
8	0xbd798af2	-0.060923524
9	0x3ed827c7	0.42217848
10	0x3e5c4b59	0.21513118
11	0xbef7be7d	-0.4838752
12	0xbea07d80	-0.3134575
13	0x3e049b4a	0.12949863
14	0x3def2ad4	0.11678091
15	0xbd3cd357	-0.046099987
16	0xbd72d7e4	-0.05928792
17	0xbeaa9241	-0.33314708
18	0xbe3b9b84	-0.18321043
19	0x3e1291d4	0.14313442
20	0x3f304e77	0.6886973
21	0x3e0a62b9	0.13514222
22	0xbeba5e88	-0.36400247
23	0x3e92e30c	0.28688848
24	0xbe220158	-0.15820825
25	0x3eae1a18	0.34004283
26	0x3e7ac9ee	0.24491093
27	0x3d74c9cb	0.059762757
28	0xbd8b3ea8	-0.0679906
29	0x3d963ce7	0.07335835
30	0xbedfd5a3	-0.4371768
31	0xbe1c0096	-0.15234599
32	0x3e49ecbd	0.19719215
33	0x3ea0cbd7	0.31405517
34	0xbe3d474b	-0.18484227
35	0xbde62414	-0.1123735
36	0x3ecceff9	0.40026835
37	0x3e0c3f09	0.13695921
38	0xbecc6b5e	-0.39925665
39	0x3e056ad8	0.13029039
40	0x3e5882ce	0.21143648
41	0xbe1a1deb	-0.15050475
42	0x3f229490	0.6350794
43	0xbeacda6b	-0.3376039
44	0xbed39dfe	-0.41331476
45	0xbea60cb7	-0.32431576
46	0xbeecf7b1	-0.46282724
47	0xbddce0fb	-0.10785099
48	0x3eb6bace	0.35689396
49	0x3f302a03	0.68814105
50	0xbe8bb30c	-0.2728504
51	0x3e190add	0.1494555
52	0x3ebcaa9e	0.3684892
53	0x3f22119f	0.6330814
54	0x3d8d4ddf	0.06899618
55	0xbe69752f	-0.22798608
56	0xbe87d9a2	-0.26533228
57	0xbea1a850	-0.31573725
58	0x3e09dba3	0.13462691
59	0x3de6394a	0.11241396
60	0x3e050b42	0.12992576
61	0x3ccf2796	0.02528743
62	0xbe28b70c	-0.16476077
63	0xbf54977a	-0.83043635
64	0xbe0672bc	-0.13129705
65	0x3e15312c	0.14569539
66	0xbe51246b	-0.20424049
67	0xbefd52ad	-0.4947714
68	0x3cdd3b3b	0.027005782
69	0xbf61a573	-0.8814308
70	0x3df4f62b	0.11961015
71	0x3e808809	0.25103787
72	0xbe571ec9	-0.21007837
73	0x3ec0d8e5	0.37665477
74	0xbe03916a	-0.1284844
75	0xbeb533e2	-0.35391146
76	0xbf01759c	-0.5057008
77	0x3e1cf305	0.1532708
78	0xbeebd6aa	-0.46062213
79	0xbf4214cd	-0.7581299
80	0x3e382d70	0.17986083
81	0xbbc49041	-0.0059986417
82	0x3e92f368	0.2870133
83	0x3baf0b5f	0.0053419317
84	0x3d26403f	0.040588614
85	0xbe82a221	-0.2551432
86	0xbe427508	-0.18989956
87	0x3f0ee5bf	0.55819315
88	0x3f44ee1d	0.7692583
89	0xbd35f118	-0.044419378
90	0x3ed2369a	0.41057283
91	0xbecddc94	-0.4020735
92	0x3f657b75	0.89641505
93	0x3ed49ef6	0.41527528
94	0xbe6dd820	-0.23226976
95	0xbec31293	-0.38100109
96	0xbe72d180	-0.2371273
97	0x3e1d4ba0	0.1536088
98	0x3e59b670	0.21261
99	0xbe5a2bba	-0.21305743
100	0x3cf6a125	0.030106137
101	0x3f2191b1	0.6311293
102	0x3e0e864d	0.13918419
103	0xbe2733c4	-0.16328341
104	0xbe19908f	-0.14996551
105	0xbebd5e87	-0.3698618
106	0xbf063ed6	-0.5243963
107	0x3e266f00	0.1625328
108	0xbe30e860	-0.17276144
109	0xbeef227c	-0.46705997
110	0xbd551162	-0.05201853
111	0x3f338ffb	0.7014157
112	0x3e8e8830	0.27838278
113	0xbeadf8b4	-0.33978808
114	0xbe3b1890	-0.18271089
115	0x3f55e326	0.83549726
116	0x3efc26c8	0.49248338
117	0x3e3d830b	0.1850702
118	0x3e211572	0.15730837
119	0xbed2b6d4	-0.41155112
120	0x3e445c37	0.19175802
121	0x3f1f2f3f	0.62181467
122	0x3e8a8a75	0.2705876
123	0x3e38a838	0.1803292
124	0x3e881ae9	0.2658303
125	0xbd81f10b	-0.063448034
126	0x3f0455fb	0.51693696
127	0xbf1df0c6	-0.61695516
128	0xbe4cf9af	-0.20017122
129	0xbeb1ca39	-0.34724596
130	0x3d7413b4	0.059589103
131	0xbdcdcb8d	-0.1004859
132	0x3eae136b	0.3399919
133	0x3e019234	0.12653428
134	0x3d9378af	0.07200753
135	0x3d02cc1b	0.03193293
136	0x3ea00043	0.312502
137	0xbe158c29	-0.14604248
138	0xbe25247f	-0.16127203
139	0xbf243f95	-0.6415952
140	0x3ec8d166	0.39222258
141	0x3e973fc9	0.29540852
142	0x3f3248d1	0.6964236
143	0x3ce17bc5	0.027524838
144	0xbd8676c5	-0.06565622
145	0x3ec1cc56	0.37851208
146	0x3e21b34b	0.15791051
147	0xbde24beb	-0.110496365
148	0xbd5fcffd	-0.054641712
149	0x3a6afd43	0.00089641305
150	0x3ed594ed	0.41715184
151	0x3e94efd6	0.2908923
152	0xbf36e608	-0.7144475
153	0xbe7d5463	-0.24739222
154	0xbde580b0	-0.11206186
155	0xbe2ac140	-0.16675282
156	0xbe8a2c40	-0.26986885
157	0xbd3962c9	-0.045260224
158	0xbe1db0c6	-0.15399465
159	0x3ea37ea7	0.31932566
160	0x3cffb86d	0.03121587
161	0x3d348574	0.044072583
162	0x3df3286c	0.11872944
163	0xbdc28b19	-0.09499187
164	0xbf542634	-0.82870793
165	0x3e0b49a5	0.13602312
166	0xbd81d20f	-0.063388936
167	0x3d4fa5d0	0.05069524
168	0xbe2fee4a	-0.17180744
169	0xbe836816	-0.2566535
170	0xbebea7a7	-0.37237284
171	0xbe073760	-0.13204718
172	0x3ccf8124	0.025330134
173	0x3e6e7d89	0.23290075
174	0xbf3c221d	-0.7348955
175	0xbe91285c	-0.28351104
176	0x3f066882	0.52503216
177	0x3eac673e	0.33672518
178	0x3f4af9cd	0.79287416
179	0x3effc6e0	0.49956417
180	0x3efcc722	0.49370676
181	0xbe9636c4	-0.29338658
182	0x3b04b543	0.0020249642
183	0xbee84d62	-0.45371538
184	0x3ee3ca9d	0.4449052
185	0xbf1f0960	-0.6212368
186	0x3eebc5ee	0.46049446
187	0xbeb84c59	-0.3599575
188	0xbee3f1a4	-0.44520295
189	0x3f019715	0.5062116
190	0x3e29b6f1	0.16573693
191	0x3eb6ce55	0.35704294
192	0x3e9c5d02	0.3053971
193	0x3e10444f	0.14088558
194	0xbeab731d	-0.33486262
195	0x3f3f1380	0.7463913
196	0x3d7b2193	0.061311316
197	0x3d819562	0.06327321
198	0x3e2ef43a	0.17085353
199	0xbf10aea6	-0.5651649
200	0x3703fc1d	7.866908e-06
201	0xbf6f265b	-0.934179
202	0xbf169c12	-0.58831894
203	0xbed4f46c	-0.4159273
204	0xbf119813	-0.5687267
205	0xbe8ccf51	-0.2750192
206	0xbefda05b	-0.49536404
207	0x3eb87699	0.36027983
208	0x3d524709	0.051337276
209	0x3ed1d665	0.40983883
210	0x3ea0410d	0.3129963
211	0x3e4bc1d0	0.19898152
212	0x3d86368e	0.06553374
213	0xbef1cdd0	-0.47227335
214	0x3eafb0c6	0.34314555
215	0xbe98de23	-0.29856977
216	0x3f0c862d	0.54892236
217	0xbe32bf65	-0.17455824
218	0xbf1295d7	-0.5725989
219	0xbf8ad1c2	-1.0845263
220	0x3ddfb815	0.10923783
221	0xbecc4258	-0.39894366
222	0x3f219627	0.6311974
223	0x3e9393f5	0.2882382
224	0x3e7b5df0	0.24547553
225	0x3e01d6cd	0.12679596
226	0x3c7ed4f4	0.015553702
227	0x3f8cbf24	1.0995831
228	0xbe7dbb4f	-0.24778484
229	0x3e8455b3	0.25846633
230	0xbe75ddb6	-0.24010357
231	0x3e0281ce	0.12744829
232	0xbe87ec79	-0.26547602
233	0x3ea2d993	0.3180662
234	0x3ea73167	0.32654878
235	0xbde7323c	-0.11288878
236	0x3f45a45a	0.77203906
237	0xbd538cd7	-0.051647987
238	0xbf3554e3	-0.7083265
239	0x3ee71247	0.45131132
240	0xbe149aa5	-0.14512117
241	0x3efecc8f	0.4976544
242	0xbe3a3a4c	-0.18186301
243	0xbf38be9b	-0.7216584
244	0xbf32e9f1	-0.69888216
245	0xbe803cff	-0.25046536
246	0xbeae831d	-0.34084406
247	0x3e974cd5	0.29550806
248	0x3d80b618	0.062847316
249	0xbe5989b5	-0.21243937
250	0x3f12df81	0.5737229
251	0x3e917868	0.28412175
252	0xbd570b06	-0.052500747
253	0xbf1e393d	-0.6180609
254	0x3f2ae4e8	0.66755533
255	0xbc72c969	-0.014818528

network_body._body_endoder.seq_layers.0.bias f4 [128]
0	0x3c8169ed	0.01579758
1	0xbb8e7370	-0.0043472573
2	0x3c20f41d	0.009823826
3	0x3bb3a5a0	0.0054823905
4	0x3c09dd97	0.008414648
5	0x3cb745ce	0.022372153
6	0x3ac3e6f7	0.0014946152
7	0xbd007be4	-0.03136815
8	0x3bea7a15	0.0071556666
9	0x3c441779	0.011968487
10	0xbc7b615b	-0.015343036
11	0x3c98ab4c	0.018636368
12	0xbaf14b9a	-0.0018409372
13	0x3c755152	0.014973002
14	0xbb990a14	-0.004670391
15	0x3b3906e8	0.0028232876
16	0xbbac6e0d	-0.0052621425
17	0x3c8f632f	0.01750335
18	0xbb1fc57c	-0.0024379184
19	0x399dd609	0.00030104842
20	0x3bcca5a9	0.006245334
21	0xbbb902f9	-0.0056461063
22	0x3c99e952	0.018788014
23	0x3c30a566	0.010781622
24	0x3c07b525	0.008282934
25	0xbaa8b408	-0.0012871036
26	0x3d08bc85	0.03338291
27	0xbcd6fea6	-0.026244473
28	0xb906b176	-0.00012845345
29	0x3bdb2c8c	0.00668866
30	0xbb9a61e7	-0.004711378
31	0x3d532f33	0.051558685
32	0xbd10f25d	-0.035387386
33	0x3c0cc527	0.008591927
34	0x3bcbbd83	0.00621766
35	0x3c9b2b5d	0.018941576
36	0x3ceb48e4	0.02872128
37	0x3cda8608	0.02667524
38	0xbb907ba2	-0.0044092694
39	0xbca1b590	-0.019739896
40	0x3cce595e	0.025189098
41	0x3c3f6721	0.011682303
42	0x3b33fd1a	0.0027464093
43	0x3cb47bb3	0.02203164
44	0x3c638dd6	0.013888797
45	0xbbf57660	-0.007490918
46	0x3b720d3e	0.0036934162
47	0xbc365cab	-0.011130492
48	0x3c85aa58	0.016316578
49	0x3c728dbe	0.014804302
50	0x3cac725c	0.021050625
51	0x3c4c4c6f	0.012469395
52	0xbbce197b	-0.0062896586
53	0xbbb0c3c4	-0.005394431
54	0x3bdaa896	0.006672929
55	0x3be8e735	0.00710764
56	0x3bd48f86	0.006486836
57	0x3d2c9384	0.04213287
58	0x3b9f52d8	0.0048621707
59	0xbc8b015c	-0.016968422
60	0x3b7201e5	0.0036927399
61	0xbbdb4184	-0.0066911597
62	0xbbc44063	-0.005989121
63	0x3be928b5	0.0071154484
64	0x3a74e4d9	0.0009341962
65	0xbc071bfc	-0.008246418
66	0xbb854a4c	-0.004067695
67	0x3b1ceaed	0.0023943738
68	0xbb6cd9a5	-0.0036140468
69	0x3a1dc545	0.000601847
70	0x3caa9206	0.020821583
71	0x3c9615e1	0.01832098
72	0x3c7551da	0.014973128
73	0x3bf312e5	0.007418024
74	0x3c72478c	0.014787566
75	0x3a14da33	0.0005678266
76	0xbba6e333	-0.005093002
77	0xbc2a9a3f	-0.010412752
78	0x3c169e80	0.009193063
79	0x3b892e66	0.0041864393
80	0x3a1577f3	0.0005701773
81	0x3bf2baec	0.0074075367
82	0x3cc0e9b3	0.023548936
83	0xbc2b8daf	-0.010470792
84	0xb9b79815	-0.0003501779
85	0x3ba3356a	0.0049807327
86	0x3c91a311	0.017777951
87	0x3bf696de	0.007525309
88	0x3b1c4ef8	0.002385078
89	0xbc109d11	-0.00882651
90	0xbb5c1731	-0.003358316
91	0x3c719771	0.014745579
92	0x3c43a2ab	0.011940639
93	0xbc91301c	-0.017723136
94	0x3c47d809	0.012197503
95	0xbcec9a26	-0.028882097
96	0x3cb00fa0	0.021491826
97	0xbbfbd927	-0.0076857987
98	0xbd2d33aa	-0.0422856
99	0xbb8d731b	-0.0043167
100	0xbbb467f8	-0.005505558
101	0x3b7838d7	0.0037875676
102	0xbc8127f2	-0.015766118
103	0xbb3fadb1	-0.0029247815
104	0xbc83a540	-0.016070008
105	0x3cc2c254	0.023774303
106	0x3c2812eb	0.010258417
107	0xbabbf37b	-0.0014339531
108	0xbc532321	-0.012886793
109	0x3b9f0802	0.0048532495
110	0x3cea6abe	0.028615352
111	0xbb699cb3	-0.0035646379
112	0xbb9987bf	-0.0046853716
113	0xbc8dcfc5	-0.017310986
114	0x3b0ab030	0.0021162145
115	0x3d381bbd	0.04494833
116	0x3b05e4ee	0.0020430642
117	0xbb2b34f3	-0.002612409
118	0x3c33d4b8	0.010976009
119	0x3b9d8ff0	0.0048084185
120	0xbc6248de	-0.013811318
121	0x3c3e894b	0.011629413
122	0x3cd68644	0.02618707
123	0x3c97d419	0.018533753
124	0xb9cea86f	-0.00039416875
125	0x3c11b3a7	0.00889293
126	0x3c1cda30	0.009573504
127	0xbbf09a2b	-0.007342597

network_body._body_endoder.seq_layers.2.weight f4 [128, 128]
0	0xbe1a48a4	-0.15066773
1	0xbd62445b	-0.05524097
2	0x3da8a33a	0.08234258
3	0xbe4e418a	-0.20142189
4	0x3d51b175	0.051194627
5	0xbd504a01	-0.050851826
6	0x3d050bd6	0.03248199
7	0x3d9605bb	0.07325312
8	0x3d52432d	0.051333595
9	0xbdbc0e0b	-0.09182366
10	0x3d2b494a	0.04181794
11	0x3e2fcc9b	0.17167895
12	0x3d2b9183	0.041886818
13	0x3e162cd8	0.14665544
14	0x3da40488	0.08008677
15	0x3dd975e8	0.10618192
16	0x3ccf1dfa	0.025282849
17	0xbc06594f	-0.008200004
18	0xbd6c1d10	-0.057644904
19	0xbc358837	-0.011079839
20	0xbe24e4a3	-0.16102843
21	0x3dc1afdb	0.0945737
22	0xbe153e39	-0.14574517
23	0xb923ecc7	-0.00015633098
24	0x3d92819d	0.07153628
25	0x3bf2b7b3	0.0074071526
26	0xbd862c35	-0.065514006
27	0xbe3bbf23	-0.18334632
28	0xbc59aa7c	-0.013285276
29	0x3d8c50bd	0.06851337
30	0xbe74a020	-0.23889208
31	0xbdcb2d9b	-0.09920808
32	0x3cd30a97	0.025761886
33	0x3e03855a	0.12843838
34	0xbd6afff5	-0.057373006
35	0xbe02479d	-0.12722631
36	0xbd59dcab	-0.05318896
37	0xbd2bfb89	-0.04198793
38	0xbd2dbcbc	-0.04241632
39	0xbdc62328	-0.09674674
40	0xbd04fe02	-0.032468803
41	0xbd439938	-0.047753543
42	0x3cbdbc46	0.023161065
43	0x3dca7043	0.098846935
44	0x3d5bae0a	0.053632773
45	0x3e010b6b	0.12602012
46	0xbc9f04eb	-0.019411525
47	0x3e00fb8d	0.12595959
48	0xbe49f539	-0.19722451
49	0x3da02237	0.07819026
50	0x3b925f5c	0.004466934
51	0x3dce80fb	0.10083195
52	0xbcd2bb80	-0.025724173
53	0x3e109e22	0.14122823
54	0xbd42ec10	-0.047588408
55	0x3dd1401c	0.10217306
56	0x3d85ea43	0.065388225
57	0x3e132225	0.14368494
58	0x3dd5cd35	0.10439531
59	0x3c47b6a7	0.012189544
60	0xbd564d2b	-0.052319687
61	0xbdc49b58	-0.09599942
62	0xbd96c051	-0.073609
63	0xbe0a71f3	-0.1352003
64	0x3da935e3	0.08262231
65	0x3e138c39	0.1440896
66	0xbd9aafc6	-0.075530574
67	0xbd12d82a	-0.03585068
68	0x3d0c33e8	0.03422919
69	0xbd955204	-0.07291034
70	0x3cd1398a	0.025540132
71	0x3d885882	0.066575065
72	0x3da385ae	0.07984482
73	0xbcb3b4f9	-0.02193688
74	0xbe7cec08	-0.24699414
75	0x3cde9fa3	0.02717573
76	0xbd1ebb61	-0.038752917
77	0xbdb6d786	-0.089278266
78	0xbc13ae02	-0.009013655
79	0xbd797b16	-0.0609084
80	0xbd183b77	-0.037166085
81	0xbd819396	-0.06326978
82	0xbdb31fb5	-0.08746282
83	0xbe589602	-0.21150973
84	0xbd55ff3e	-0.05224537
85	0xbdc7419d	-0.097293116
86	0xbcb191d5	-0.021675983
87	0x3db974e7	0.090555005
88	0x3c33ab98	0.010966204
89	0x3df62947	0.12019592
90	0xbe0aae97	-0.13543163
91	0x3d91f776	0.071272776
92	0x3e148e5f	0.14507435
93	0xbdaab7cb	-0.08335837
94	0xbd4369ac	-0.0477082
95	0x3d3e5a41	0.04647279
96	0x3d76f78e	0.06029468
97	0x3d81819c	0.06323549
98	0xbad0535f	-0.0015893987
99	0xbde54b5b	-0.111960135
100	0xbe4e32d2	-0.20136574
101	0xbe099bf1	-0.13438393
102	0x3dc13ba4	0.09435204
103	0x3d8e30ee	0.06942926
104	0xbd85252a	-0.06501229
105	0x3d0635d5	0.032766182
106	0x3de5ba8c	0.112172216
107	0xbc851892	-0.016247068
108	0xbdb078fb	-0.08616825
109	0xbccb8da5	-0.024847815
110	0x3c402389	0.011727222
111	0xbdda45b9	-0.1065783
112	0x3e341d1b	0.17589228
113	0x3b1e0984	0.0024114558
114	0x3dd53a87	0.10411554
115	0x3e1d2d7c	0.15349382
116	0x3bd76b3b	0.006574062
117	0x3df84a8d	0.121235944
118	0xbe11ac9f	-0.14226006
119	0xbdc3efe4	-0.0956724
120	0xbcf0634d	-0.029344225
121	0xbe45868b	-0.19289605
122	0x3da7b756	0.081892654
123	0x3c89096d	0.016728127
124	0xbe279229	-0.1636435
125	0x3cb3cd59	0.021948503
126	0xbe2d2d42	-0.16911796
127	0x3b3ab488	0.0028488953
128	0xbc1610dc	-0.009159293
129	0x3da40862	0.080094114
130	0xbccb06c5	-0.024783501
131	0x3c958db9	0.018256055
132	0x3e046b23	0.12931494
133	0x3e28a251	0.16468169
134	0xbd881460	-0.06644511
135	0xbd858aca	-0.065206125
136	0x3d35ef0e	0.044417433
137	0xbdda57b5	-0.1066126
138	0xbd884092	-0.06652941
139	0x3d2ea5a6	0.042638443
140	0xbe3ff6a1	-0.18746425
141	0x3cbd470d	0.023105169
142	0xbdcdc54e	-0.100473985
143	0xbce6cab2	-0.028172825
144	0xbd94ffa2	-0.072753206
145	0x3dd24990	0.10267937
146	0xbd2bc699	-0.041937444
147	0xbe203bf8	-0.15647876
148	0x3da36e96	0.07980077
149	0xbce3a51e	-0.027788695
150	0xbdf51abf	-0.11967992
151	0x3de1e663	0.11030271
152	0xbcac651d	-0.021044308
153	0x3e7e1199	0.248114
154	0x3e09d65a	0.13460675
155	0xbd9241ea	-0.07141478
156	0xbc425065	-0.011859988
157	0xbe1548ab	-0.14578502
158	0xbd9381fa	-0.072025254
159	0x3d006a4d	0.031351376
160	0xbdf49edc	-0.119443625
161	0x3e9685d0	0.29398966
162	0xbd88ea01	-0.06685258
163	0x3d6af606	0.057363532
164	0x3e3c0cd3	0.18364267
165	0xbbc28ef0	-0.0059374496
166	0xbdc35d4c	-0.09539279
167	0xbca591e8	-0.020211175
168	0x3e2b3f15	0.16723283
169	0xbc3b3d07	-0.011428124
170	0x3c227b67	0.009917117
171	0x3d878cb5	0.066186346
172	0x3e05538a	0.13020149
173	0x3c7021d7	0.014656506
174	0x3d32002a	0.043457188
175	0x3dae0523	0.084970735
176	0x3d69ecf9	0.05711076
177	0x3d3ed082	0.046585567
178	0x3c5e0546	0.013551062
179	0x3cff80b5	0.031189302
180	0xbdc490c5	-0.09597925
181	0x3b7f6649	0.0038970879
182	0x3c9970af	0.01873049
183	0xbe47c846	-0.19509992
184	0x3e01f036	0.1268929
185	0x3cd925fe	0.026507374
186	0x3c4cb427	0.012494124
187	0x3d19f153	0.03758366
188	0x3dd7051f	0.10499024
189	0xbe066984	-0.13126189
190	0xbe181c23	-0.14854483
191	0x3d902433	0.070381545
192	0xbcee706a	-0.029106338
193	0xbd76dfb8	-0.06027195
194	0xbd7d16a1	-0.06178916
195	0x3debab42	0.11507274
196	0xbc9b56c1	-0.018962266
197	0x3d1771ec	0.03697388
198	0xbe344f3d	-0.17608352
199	0xbda3a8bf	-0.0799117
200	0x3de6aab1	0.112630256
201	0xbd009565	-0.031392474
202	0x3d5f6323	0.054537904
203	0xbd977806	-0.073959395
204	0xbdbea11a	-0.093080714
205	0x3d9423b2	0.07233371
206	0xbdaa2e63	-0.08309629
207	0x3e866985	0.2625238
208	0x3e1a310e	0.15057775
209	0xbda9e904	-0.08296397
210	0x3db09287	0.08621698
211	0xbd063432	-0.03276462
212	0xbd20a26a	-0.03921739
213	0xbe5d4f6d	-0.2161233
214	0xbc3329e5	-0.010935281
215	0xbddfed1b	-0.10933896
216	0x3de68cce	0.11257325
217	0x3e1dfb7b	0.15427963
218	0x3c57285b	0.01313218
219	0xbdc686bc	-0.09693667
220	0xbe51b70e	-0.20479986
221	0x3d54586e	0.051842146
222	0xbd47a693	-0.048742842
223	0xbc155922	-0.009115489
224	0xbca770b5	-0.020439485
225	0x3dd2dfcf	0.10296594
226	0x3d88c523	0.06678226
227	0x3e26830f	0.16260932
228	0x3dc0a701	0.094068535
229	0xbcc251c7	-0.023720635
230	0xbc6c70cf	-0.014431193
231	0xbd16f347	-0.0368531
232	0x3e762edc	0.24041313
233	0xbd50393a	-0.050835826
234	0xbe06af81	-0.13152887
235	0xbc9c55f7	-0.01908396
236	0xbcc13dbf	-0.023589013
237	0xbdc9d46e	-0.09854971
238	0xbc9f0a63	-0.019414132
239	0xbd45f595	-0.04832991
240	0xbd717937	-0.05895349
241	0x3dcf151f	0.101114504
242	0x3ddd66eb	0.10810646
243	0xbd63a156	-0.055573784
244	0x3d3c1261	0.045915965
245	0xbd84d6bb	-0.06486269
246	0x3d03b792	0.03215749
247	0x3e7594e8	0.23982584
248	0x3b4836a9	0.0030550158
249	0xbd814706	-0.06312375
250	0x3ca2a525	0.019854138
251	0xbdabcff2	-0.08389272
252	0x3c9775c2	0.018488768
253	0x3beadc53	0.007167378
254	0xbd1544a5	-0.036442418
255	0x3cbc48b6	0.02298389

network_body._body_endoder.seq_layers.2.bias f4 [128]
0	0x3b5d888f	0.003380332
1	0x3bc8e51d	0.006130828
2	0x3bdb3a40	0.0066902936
3	0x3bfc4f1d	0.0076998607
4	0x3c0024bd	0.007821259
5	0x3a8bebae	0.0010675096
6	0xbb2c9ce8	-0.002633864
7	0xbb9ae5dd	-0.004727109
8	0x3bd7550d	0.006571418
9	0xba7e3594	-0.0009697315
10	0xbb209937	-0.0024505386
11	0x3b09e12c	0.0021038754
12	0xbabe52c2	-0.0014520513
13	0x3ba4c1cb	0.0050279847
14	0xbbd532c0	-0.006506294
15	0x3860c73c	5.3591313e-05
16	0xbc46a076	-0.012123218
17	0x3c3b6b74	0.011439193
18	0x3b5e938c	0.0033962457
19	0xbbbbea29	-0.005734701
20	0x3be725ec	0.007054081
21	0x3bf0d734	0.007349873
22	0xbc47e9b5	-0.012201716
23	0xbb37c2ea	-0.0028039762
24	0xbac0a199	-0.0014696597
25	0xbb57158f	-0.0032819246
26	0x3c0cba5c	0.008589353
27	0xb9ec0598	-0.00045017595
28	0xbbf208bc	-0.007386295
29	0xbbc787c2	-0.0060891816
30	0x3bcdc880	0.006280005
31	0x3b284ded	0.0025681213
32	0x3b2db0b5	0.002650303
33	0x3c41891f	0.011812477
34	0x3b7dbf2e	0.0038718688
35	0x3c9cd798	0.019145772
36	0x3ba852d9	0.0051368293
37	0x397acdfd	0.00023918595
38	0x3b44b684	0.0030016014
39	0x3b5de2e1	0.0033857154
40	0x3b6b5135	0.0035906557
41	0x3c98b3c7	0.018640412
42	0xbc0c1d74	-0.008551944
43	0x3b01500d	0.0019731552
44	0x3c20a306	0.009804493
45	0x3c2934e1	0.010327549
46	0x3bbb76f2	0.0057209665
47	0x3c3bb9cd	0.011457873
48	0x3c0e9ce0	0.008704394
49	0x3c967ef9	0.018371092
50	0x3c3a11ed	0.011356813
51	0xb91749bf	-0.00014427955
52	0xb93fc2ac	-0.000182877
53	0xba5d6146	-0.0008444976
54	0x3bfb6d51	0.0076729436
55	0x3af43a53	0.0018633105
56	0xba91fafb	-0.001113742
57	0xba572ea5	-0.00082085497
58	0x3a23ae5b	0.00062439375
59	0x3b205a17	0.002446776
60	0x3c178620	0.0092482865
61	0xbc1bc1a6	-0.009506619
62	0x3c20d28b	0.009815822
63	0x3ac154bb	0.0014749983
64	0xb9d95ef7	-0.0004146022
65	0x3b610fa1	0.003434159
66	0x3b851b1d	0.00406207
67	0x3b9da152	0.0048104906
68	0x3af64902	0.0018790069
69	0x3c6486f2	0.013948189
70	0x3b8e1f89	0.0043372554
71	0xbb45d274	-0.0030185254
72	0x3b4d8edb	0.0031365666
73	0xbb9cfce4	-0.004790889
74	0xbb95e658	-0.0045745783
75	0x3c8f5e51	0.017501028
76	0xbafeeb8a	-0.0019448858
77	0xb9bb49a4	-0.00035722286
78	0x3ad28118	0.0016060201
79	0x3c44454f	0.011979415
80	0x3af53815	0.001870873
81	0xba9c6007	-0.0011930474
82	0x3b8acd60	0.0042359084
83	0x3c2c4160	0.0105136335
84	0xbb2a6492	-0.0025999886
85	0x3b926b61	0.004468367
86	0xbb6599cc	-0.0035034297
87	0xba6b7892	-0.0008982505
88	0x3c215985	0.009848003
89	0x3b355c54	0.002767344
90	0xbaff8008	-0.0019493112
91	0xbb7347ba	-0.003712161
92	0x3c84cde5	0.01621146
93	0x3bf116aa	0.007357438
94	0x3c9a9a03	0.018872267
95	0x3be80ccd	0.007081604
96	0xbc22e655	-0.009942611
97	0xbae25ce9	-0.0017270121
98	0x3bcd2d7c	0.0062615257
99	0x3bd62302	0.006534935
100	0x3b8e2031	0.0043373336
101	0xbb02891a	-0.0019918145
102	0x3bc0a124	0.0058785845
103	0x3b665cb3	0.0035150468
104	0x3a6f3308	0.0009124731
105	0xbb5746ca	-0.003284859
106	0x3b9a5804	0.0047101993
107	0x3a92ab7e	0.0011190025
108	0x3bf2e557	0.0074125933
109	0x3b135642	0.0022481834
110	0x3c6893b4	0.014195371
111	0xbbdab608	-0.006674532
112	0x3c1468a0	0.009058148
113	0xbaf274a9	-0.0018497902
114	0x3b15014c	0.0022736369
115	0x3acb82b9	0.0015526629
116	0xbbaeb334	-0.0053314213
117	0xbbac0dc5	-0.005250665
118	0x3c4ddcec	0.012564879
119	0x3bbc2a4b	0.0057423464
120	0x3bdba60f	0.0067031453
121	0x3c7c78c3	0.015409651
122	0xbb2de562	-0.0026534428
123	0x3a62d8d7	0.00086535275
124	0xbbb32903	-0.0054675355
125	0x389ecc73	7.572109e-05
126	0x3b9ddeaa	0.0048178034
127	0x3c38929c	0.011265423

action_model._continuous_distribution.log_sigma f4 [1, 2]
0	0xbc4eb4f3	-0.012616384
1	0xbd8ba0a8	-0.06817752

action_model._continuous_distribution.mu.weight f4 [2, 128]
0	0x3cca916d	0.024727548
1	0xbd909c6f	-0.07061087
2	0x3b8ce759	0.0043000397
3	0x3d0cf919	0.034417246
4	0xbcc82f72	-0.024436686
5	0x3d4f11f7	0.050554242
6	0x3d306022	0.04306043
7	0xbc843298	-0.016137406
8	0xbc131764	-0.008977745
9	0xbd523cc9	-0.0513275
10	0xbc15fbda	-0.009154284
11	0xbcbee9c1	-0.023304822
12	0xbbf69ab4	-0.0075257663
13	0xbd2b9a58	-0.04189524
14	0x3c65396b	0.01399074
15	0x3d032d69	0.03202573
16	0x3bc36d66	0.005963969
17	0x3c6af3f9	0.014340394
18	0x3b7ff86d	0.0039057985
19	0x3ca0dad7	0.019635601
20	0x3d58fd7f	0.052976128
21	0xb9f41f49	-0.00046562616
22	0xbb2f10ae	-0.0026712823
23	0xba2308ea	-0.0006219285
24	0xbbc8e248	-0.0061304905
25	0x3c9177be	0.017757293
26	0xbcbf1bd6	-0.023328703
27	0xbcb92c3c	-0.0226041
28	0x3bd4bef4	0.00649249
29	0xbc1e311a	-0.009655261
30	0x3d5cf875	0.053947885
31	0x3ce4d988	0.027935758
32	0xbd2b547a	-0.04182861
33	0xbce897e0	-0.028392732
34	0x3d8e6a84	0.0695391
35	0xbc8d6d9d	-0.017264182
36	0x3d081b3e	0.033229105
37	0xbcdfb587	-0.027308239
38	0xbcace290	-0.021104127
39	0x3da11606	0.07865529
40	0x3d22bcbe	0.03973078
41	0xbc1c9b04	-0.009558443
42	0xbb895a84	-0.0041916985
43	0x3d1f5586	0.03889992
44	0x3d7cc948	0.061715394
45	0xbb44dfca	-0.0030040615
46	0xbc552fef	-0.013011917
47	0x3cabff58	0.02099578
48	0xbcd11360	-0.025521934
49	0xbd5767c9	-0.05258921
50	0xbd79bf73	-0.060973596
51	0xbccf080e	-0.025272395
52	0x3cebbcb3	0.028776502
53	0xbd51a69b	-0.051184278
54	0xbc67f077	-0.014156452
55	0xbd153b3d	-0.036433447
56	0x3c52fae3	0.012877199
57	0xbcd4302b	-0.025901875
58	0xbb668faf	-0.0035180857
59	0xbc9f14b9	-0.019419061
60	0xbb8c5a5b	-0.004283232
61	0xb93a86b6	-0.00017788526
62	0xbb044b54	-0.00201865
63	0x3d1c6a9b	0.038187604
64	0x3c60d30f	0.013722195
65	0x3c7f59df	0.015585392
66	0x3d7d8de7	0.061902907
67	0xbbd5ae0b	-0.0065209917
68	0xbc91cf97	-0.017799182
69	0xbcbdf759	-0.023189234
70	0xbc914733	-0.017734146
71	0xbc9377d5	-0.018001476
72	0x3d6a9e4b	0.057279866
73	0x3c7e4ebb	0.0155217005
74	0xbc2f7a76	-0.010710349
75	0xbcbbd48f	-0.022928504
76	0x3cbec2c5	0.023286233
77	0x3cac1ac0	0.02100885
78	0xbc913baa	-0.017728645
79	0xbcbbc443	-0.022920733
80	0x3c469bd7	0.012122116
81	0xbd1efa37	-0.038812842
82	0x3d399521	0.045308236
83	0xbc39f90e	-0.011350883
84	0x3b8f66f0	0.004376285
85	0xbcfa88f7	-0.030582888
86	0xbd401ab8	-0.04690048
87	0x3cc630f1	0.024193259
88	0x3ba8ce98	0.005151581
89	0x3d308941	0.043099646
90	0x3b8724d5	0.0041242638
91	0x3afcb525	0.001928006
92	0xbc8376e6	-0.016047906
93	0xbd50a5b3	-0.050939273
94	0x3b1d005e	0.0023956518
95	0xbd1acf05	-0.037795085
96	0xbb1c15e4	-0.0023816759
97	0xbd0ca86d	-0.03434031
98	0x3d8b5c5c	0.068047255
99	0x3c0f6ea5	0.008754407
100	0x3d0c79d4	0.03429587
101	0xbd07f8c8	-0.03319624
102	0xbb91a514	-0.0044447277
103	0xbd5803e7	-0.052738097
104	0xbc9df5d4	-0.019282259
105	0x3cececb2	0.028921459
106	0xbc8dca1e	-0.017308291
107	0x3d061dca	0.032743253
108	0xbd0fd82d	-0.03511827
109	0x3c59e4ba	0.013299162
110	0x3c71de85	0.014762525
111	0x3c9db681	0.019252064
112	0xbcc9de16	-0.024642032
113	0x3ca505b0	0.020144314
114	0x3d3db973	0.046319436
115	0xbc1963e6	-0.009362197
116	0x3ce09a19	0.02741723
117	0x3bf88677	0.007584389
118	0x3cda90cf	0.026680378
119	0x3cdf3f15	0.02725176
120	0xbc6f8d1f	-0.014621048
121	0xbd41dd1e	-0.047330014
122	0xbc96d1b1	-0.018410536
123	0xbd4af72a	-0.04955212
124	0xbc7fd884	-0.015615586
125	0x3c524694	0.01283421
126	0x3d35aa06	0.0443516
127	0xbd817702	-0.06321527
128	0x3d27705d	0.040878642
129	0x3c9e1b54	0.01930014
130	0xbb9744d9	-0.0046163616
131	0x3ced1732	0.028941724
132	0x3c1ca61a	0.009561086
133	0xbc8f8ab7	-0.0175222
134	0xbc4e0a72	-0.012575733
135	0xbc49cb5d	-0.012316552
136	0x385bb09f	5.237816e-05
137	0xbc34cf52	-0.011035757
138	0x3d21949a	0.039448358
139	0x3d9f88ae	0.077897415
140	0xbd0bd810	-0.0341416
141	0xbd2a743c	-0.041614756
142	0x3cac1bd6	0.021009367
143	0x3be55cfe	0.006999611
144	0x3b22d09d	0.0024843581
145	0xbb7ea4b3	-0.0038855493
146	0x3d1349a0	0.035958886
147	0xbc3ec3a0	-0.01164332
148	0xbc0c777f	-0.008573412
149	0xbc481ed2	-0.012214379
150	0xbb6fa5f7	-0.0036567429
151	0x3d314781	0.043281082
152	0xbcd5142a	-0.026010592
153	0x3d31dc34	0.043422893
154	0x3b1f2f66	0.0024289726
155	0x3cbe433a	0.023225415
156	0xbb3731bd	-0.002795323
157	0xbab8a7b5	-0.0014088067
158	0x3cd8dbed	0.026472056
159	0x3cd11626	0.025523257
160	0xbd142c15	-0.036174852
161	0x3bca425d	0.006172462
162	0x3d0c4e50	0.034254372
163	0xbc474a4c	-0.01216371
164	0xbc837c77	-0.01605056
165	0xba53590d	-0.0008062281
166	0x3d426041	0.047455076
167	0x3d0649ae	0.03278511
168	0xbc910c4c	-0.017706059
169	0x3c4a9e37	0.012366823
170	0x3c84f2e0	0.016229093
171	0x3bd2a86e	0.00642877
172	0xbce16894	-0.027515687
173	0xbcbec73b	-0.02328836
174	0x3ca45c65	0.020063588
175	0xbabd2d28	-0.0014433013
176	0x3d42c30d	0.047549296
177	0x3c965f91	0.018356116
178	0x3d32949f	0.043598767
179	0xbca1e6d1	-0.019763382
180	0xbcfc4b15	-0.03079752
181	0x3d22c800	0.039741516
182	0xbd2c9563	-0.042134654
183	0xbd38195c	-0.04494606
184	0x3ccfdeeb	0.02537485
185	0xbc078684	-0.008271817
186	0x3cac212c	0.021011911
187	0xbd2ff885	-0.042961616
188	0x3cb638fd	0.022243971
189	0x3c2dd5b4	0.010610033
190	0x3d13453f	0.03595471
191	0xbcfaa432	-0.030595873
192	0xbccf4dcd	-0.025305653
193	0x3d9d4a90	0.07680237
194	0x39633376	0.00021667578
195	0x3ca9d2b2	0.02073035
196	0xbd281da6	-0.0410439
197	0x3ca58414	0.020204581
198	0x3da6e46a	0.08149035
199	0x3cd188a0	0.025577843
200	0x3d806a80	0.06270313
201	0x3c3b69b1	0.011438773
202	0xbb8d7d81	-0.0043179397
203	0xbb0117e3	-0.0019698075
204	0xbc801ec2	-0.015639666
205	0x3d3fc5ad	0.046819378
206	0xbcd0a377	-0.025468571
207	0x3d2df1a1	0.042466763
208	0x3c9c0c72	0.019048903
209	0xbca8e87d	-0.020618672
210	0xbaf695bf	-0.0018812938
211	0x3c53885a	0.012910927
212	0xbc999fda	-0.018752981
213	0xbd4364a8	-0.047703415
214	0x3c1f5d23	0.009726795
215	0xbaae1011	-0.0013279935
216	0x3d835b4a	0.064138964
217	0xbcb197c6	-0.021678817
218	0x3c1ad43c	0.009450015
219	0xbc993044	-0.018699773
220	0x3c16f6ef	0.009214147
221	0xbc53503b	-0.012897546
222	0xbcbaad6a	-0.022787768
223	0xbd8730d8	-0.06601113
224	0x3b9cbaf6	0.0047830297
225	0x3ad572a1	0.0016284772
226	0xbcf9bb93	-0.03048495
227	0x3c9274d5	0.017877975
228	0xbcecdcf1	-0.028913947
229	0xbc9a08fd	-0.018803114
230	0x3c9e977c	0.019359343
231	0x3b20b411	0.002452139
232	0xbcaaacb0	-0.020834297
233	0x3af918f2	0.0019004627
234	0xbd18d9be	-0.03731703
235	0xbcdcbd94	-0.026945867
236	0x3d496194	0.049165323
237	0x3d4ef602	0.05052758
238	0x3d4e66f2	0.050391145
239	0x3c333a54	0.0109391995
240	0x3c3d80d2	0.011566358
241	0x3d326eab	0.043562572
242	0x3bc3474e	0.005959428
243	0x3d1f29a6	0.03885808
244	0xbaa67280	-0.0012698919
245	0x3ce3238b	0.02772691
246	0xbd1c0134	-0.038087085
247	0x3bd4a000	0.0064888
248	0xbc82f1b8	-0.015984401
249	0x3d59fc32	0.053219028
250	0x3d314968	0.043282896
251	0xbc642617	-0.013925097
252	0xba1e78be	-0.00060452137
253	0xbb5f1743	-0.0034040965
254	0x3bbd69f6	0.005780454
255	0x3c8820ee	0.016617265

action_model._continuous_distribution.mu.bias f4 [2]
0	0xba30313b	-0.0006721203
1	0xbb4f6445	-0.0031645459

exp_avg f4 [128, 7]
0	0x38edd7ca	0.000113412345
1	0x36d7c433	6.43034e-06
2	0x37dcd64a	2.632583e-05
3	0x38e650b2	0.00010982285
4	0x36d124b3	6.2329577e-06
5	0xb822960e	-3.876356e-05
6	0xb6af3d00	-5.2225078e-06
7	0xba087c60	-0.00052065216
8	0xb8076c08	-3.228712e-05
9	0xb916427f	-0.00014329886
10	0xba0490b3	-0.0005056962
11	0xb8039f92	-3.1381445e-05
12	0x39411fae	0.00018417716
13	0x386508bd	5.4605993e-05
14	0x3877b502	5.9057966e-05
15	0x36af7fea	5.2302976e-06
16	0x37efd6db	2.859107e-05
17	0x387341d7	5.7997033e-05
18	0x36aba158	5.11498e-06
19	0xb7cf1091	-2.4684037e-05
20	0xb7fa8c09	-2.9867531e-05
21	0xb95a6497	-0.00020827573
22	0xb72bcd50	-1.0240197e-05
23	0xb816246f	-3.579672e-05
24	0xb9528435	-0.00020076412
25	0xb725920f	-9.868773e-06
26	0x388d9ed8	6.752991e-05
27	0x34c876c3	3.7339314e-07
28	0x38f6265f	0.00011737341
29	0x36cb2b96	6.0549455e-06
30	0x37b9a079	2.2128444e-05
31	0x38ed2a6e	0.00011308944
32	0x36c3bf26	5.8337055e-06
33	0xb82337e6	-3.8914288e-05
34	0xb695b84a	-4.462e-06
35	0xb7ffa67f	-3.04759e-05
36	0xb60ead8f	-2.1260673e-06
37	0xb72808eb	-1.0015657e-05
38	0xb7f8243c	-2.9580777e-05
39	0xb60a969a	-2.0651264e-06
40	0x3741a60f	1.154236e-05
41	0x369aaa8d	4.6094124e-06
42	0x39f23936	0.00046200462
43	0x38003a5b	3.0571926e-05
44	0x390efa83	0.00013635498
45	0x39ea2ff2	0.0004466768
46	0x37f8541e	2.9603074e-05
47	0xb93554c5	-0.00017293084
48	0xb896a3e7	-7.1830866e-05
49	0xb8c099ba	-9.183907e-05
50	0xb6b13e0a	-5.2822334e-06
51	0xb7bae4a9	-2.2279406e-05
52	0xb8bafb8d	-8.916026e-05
53	0xb6ac3c8f	-5.1330494e-06
54	0x38032152	3.1263866e-05
55	0x362a24b7	2.5353345e-06
56	0xb93c1d15	-0.00017939911
57	0xb73d3ca5	-1.1279398e-05
58	0xb856054f	-5.102652e-05
59	0xb9370f5d	-0.00017457963
60	0xb738435f	-1.0982941e-05
61	0x38852be2	6.350108e-05
62	0x378deb9e	1.6918228e-05
63	0x3613c91f	2.2021775e-06
64	0x33e6de91	1.0750694e-07
65	0x34b810cf	3.42849e-07
66	0x360e41e3	2.1198e-06
67	0x33defb84	1.0383431e-07
68	0xb545cd25	-7.3686743e-07
69	0x35a99248	1.2634055e-06
70	0x387499a4	5.8317222e-05
71	0x35d58b37	1.5910254e-06
72	0xb541ea08	-7.2238663e-07
73	0x3867ef8b	5.5297784e-05
74	0x35c5e7ce	1.4745108e-06
75	0xb78954f4	-1.6371232e-05
76	0x372d6fc6	1.0337628e-05
77	0x3abc0f6b	0.0014347857
78	0x38d39191	0.00010088378
79	0x39f81a8b	0.00047322022
80	0x3ab67ab2	0.0013922064
81	0x38cd88e3	9.800659e-05
82	0xba100da8	-0.0005495199
83	0xb98395b4	-0.00025097805
84	0x39a0f947	0.00030703304
85	0x3794a3bf	1.7719225e-05
86	0x389ab8fd	7.377749e-05
87	0x399be69a	0.00029735715
88	0x37900e81	1.7172892e-05
89	0xb8dd7f08	-0.000105617626
90	0xb7d9d4b6	-2.5967467e-05
91	0xb9100f0c	-0.00013738516
92	0xb70b009b	-8.285187e-06
93	0xb818ce0c	-3.643152e-05
94	0xb90bfbfb	-0.00013349943
95	0xb7071f45	-8.053908e-06
96	0x3847b448	4.7613197e-05
97	0x3761d0b3	1.3459637e-05
98	0x37eb84cd	2.8076023e-05
99	0x351e89e3	5.906024e-07
100	0xb64d344a	-3.0577817e-06
101	0x37d8e124	2.5854046e-05
102	0x350584d8	4.9739674e-07
103	0xb70fc611	-8.56958e-06
104	0x360765c1	2.0175796e-06
105	0x36eab7e1	6.9951498e-06
106	0x35d36249	1.574933e-06
107	0x37323819	1.0622688e-05
108	0x36ee9cec	7.111221e-06
109	0x35cf773c	1.5457404e-06
110	0xb6b70fc0	-5.4556585e-06
111	0xb794a946	-1.7721799e-05
112	0xb8cba560	-9.710598e-05
113	0xb720559b	-9.556675e-06
114	0xb85ef9a1	-5.316141e-05
115	0xb8c7c27b	-9.525284e-05
116	0xb71caeaf	-9.338996e-06
117	0x3838ed76	4.409017e-05
118	0x384378be	4.6604073e-05
119	0xba46e323	-0.00075869466
120	0xb840a324	-4.5928304e-05
121	0xb955b213	-0.00020379601
122	0xba41958a	-0.0007384649
123	0xb83b9eef	-4.4732293e-05
124	0x3989ba3f	0.0002626944
125	0x38688cdd	5.54443e-05
126	0x3992a1fd	0.0002796798
127	0x378a0221	1.6451873e-05
128	0x3891db70	6.955012e-05
129	0x398e0c07	0.00027093312
130	0x3785c869	1.5948159e-05
131	0xb8cb7418	-9.7014185e-05
132	0xb7d2a013	-2.5108491e-05
133	0xb82bdbae	-4.097417e-05
134	0xb689e6ff	-4.1098097e-06
135	0xb7d54c1b	-2.5427018e-05
136	0xb82df7f3	-4.1477335e-05
137	0xb689225e	-4.086919e-06
138	0x378dbedd	1.6897387e-05
139	0x375f3b29	1.330561e-05
140	0xba0bb3ca	-0.000532922
141	0xb7e00fe2	-2.6710277e-05
142	0xb8cae3ec	-9.674564e-05
143	0xba06d07d	-0.00051427615
144	0xb7d82cfc	-2.5770154e-05
145	0x39356c0e	0.00017301759
146	0x370a6a80	8.250237e-06
147	0xba016cec	-0.000493719
148	0xb8198c21	-3.6608548e-05
149	0xb93f1f92	-0.0001822694
150	0xb9fcd621	-0.00048224724
151	0xb815e6f2	-3.5739453e-05
152	0x39473bd0	0.00019000401
153	0x38b050bb	8.407371e-05
154	0x39233814	0.00015565782
155	0x374a67c2	1.2064296e-05
156	0x387e91d1	6.069412e-05
157	0x391f430b	0.00015188397
158	0x37457000	1.1768192e-05
159	0xb881eb95	-6.19508e-05
160	0xb81796a6	-3.6141508e-05
161	0x38280d2e	4.0066596e-05
162	0x35d908e4	1.6170347e-06
163	0x36871c10	4.0265804e-06
164	0x3820fd55	3.8382906e-05
165	0x35cedbe1	1.5412189e-06
166	0xb74be7c0	-1.2153701e-05
167	0x362d4206	2.581744e-06
168	0x3886a9d4	6.421251e-05
169	0x36b98f26	5.5300943e-06
170	0x37f4c8ad	2.9180514e-05
171	0x38842e09	6.302825e-05
172	0x36b5dab1	5.4196794e-06
173	0xb7e3fdeb	-2.7178748e-05
174	0xb6600267	-3.338e-06
175	0x38176924	3.6099125e-05
176	0x3709954e	8.200599e-06
177	0x38788139	5.9248156e-05
178	0x3824fedd	3.9338007e-05
179	0x3709c098	8.210678e-06
180	0xb7d57368	-2.5445319e-05
181	0xb827b513	-3.998454e-05
182	0xb8f0313b	-0.00011453262
183	0xb6f6e342	-7.3578276e-06
184	0xb80cbe8a	-3.3556054e-05
185	0xb8e9bc74	-0.00011145408
186	0xb6f07274	-7.1658815e-06
187	0x382c7b5d	4.1122887e-05
188	0x36af1753	5.2181217e-06
189	0xb9a12ccf	-0.00030741698
190	0xb7a5ad41	-1.975021e-05
191	0xb8bb4b41	-8.930872e-05
192	0xb99c8078	-0.00029850355
193	0xb7a0facd	-1.9190275e-05
194	0x38e892ab	0.00011089941
195	0x381d7ac6	3.754606e-05
196	0xb9a06da8	-0.00030599278
197	0xb79a6e09	-1.840947e-05
198	0xb8a1e964	-7.720551e-05
199	0xb99b12c0	-0.00029577874
200	0xb7957dbd	-1.7820736e-05
201	0x38e45354	0.00010887408
202	0x372a557d	1.0152694e-05
203	0x37f559b6	2.924805e-05
204	0x3613ab39	2.2004372e-06
205	0x3735eaf5	1.0843146e-05
206	0x37ee1b44	2.8384507e-05
207	0x360f3ed9	2.1345243e-06
208	0xb7405790	-1.1464479e-05
209	0xb750045c	-1.2398781e-05
210	0xb9225ec6	-0.0001548483
211	0xb74ea3c5	-1.2316687e-05
212	0xb885076f	-6.343319e-05
213	0xb91e9e3f	-0.00015127005
214	0xb749937b	-1.2014872e-05
215	0x38819404	6.1787694e-05
216	0x3857fb4a	5.1494026e-05
217	0x398d2146	0.00026918406
218	0x37cd08ee	2.4442063e-05
219	0x3904c991	0.0001266359
220	0x3988d154	0.00026095903
221	0x37c71536	2.3732526e-05
222	0xb8fe3a67	-0.00012122542
223	0xb9079233	-0.00012929067
224	0xb9029b02	-0.00012455511
225	0xb70bcdc0	-8.3329505e-06
226	0xb81b914c	-3.7090198e-05
227	0xb8fc88ee	-0.000120418015
228	0xb70773a0	-8.073548e-06
229	0x38461f48	4.723601e-05
230	0x37915ee9	1.7329543e-05
231	0xb99e8bfe	-0.0003024041
232	0xb739c7f7	-1.1073417e-05
233	0xb7c79b1b	-2.3794875e-05
234	0xb99831ff	-0.0002902895
235	0xb7314d67	-1.0568044e-05
236	0x38b72258	8.732517e-05
237	0xb80143c6	-3.0819116e-05
238	0xb8bffbc1	-9.1544825e-05
239	0xb7109a3c	-8.618979e-06
240	0xb84a12c5	-4.8178033e-05
241	0xb8bddb06	-9.0530186e-05
242	0xb70e31e2	-8.475474e-06
243	0x38271f45	3.9845025e-05
244	0x37491f3e	1.1987808e-05
245	0xb8c44f24	-9.3607494e-05
246	0xb661832b	-3.3603962e-06
247	0xb6d0c1a2	-6.221425e-06
248	0xb8bbc35b	-8.953243e-05
249	0xb655f9e4	-3.1884929e-06
250	0x37e5e31c	2.7404683e-05
251	0xb753d03e	-1.2625065e-05
252	0xb976933c	-0.00023515237
253	0xb709b0ee	-8.207031e-06
254	0xb7756c89	-1.4628408e-05
255	0xb96c1b5a	-0.00022516903

exp_avg_sq f4 [128, 7]
0	0x321f3413	9.266858e-09
1	0x2d8ef603	1.6252782e-11
2	0x2feda9d7	4.3230727e-10
3	0x321b4502	9.037878e-09
4	0x2d89edf4	1.568077e-11
5	0x3035329f	6.5919353e-10
6	0x315aecc8	3.185777e-09
7	0x34af989d	3.270733e-07
8	0x30290143	6.1483635e-10
9	0x3289ce25	1.6042643e-08
10	0x34aba49a	3.1970995e-07
11	0x3022d1f6	5.923363e-10
12	0x32c48d62	2.2881697e-08
13	0x343af14e	1.7410386e-07
14	0x330f896b	3.3419763e-08
15	0x2e83184c	5.961506e-11
16	0x30f574c6	1.7859285e-09
17	0x330f83f2	3.3414786e-08
18	0x2e8316fd	5.961274e-11
19	0x30fb4c83	1.82844e-09
20	0x32d3aa44	2.464106e-08
21	0x341b7f46	1.4481802e-07
22	0x2f82796b	2.3733135e-10
23	0x32164978	8.747854e-09
24	0x341c6626	1.4565794e-07
25	0x2f82dd2e	2.380402e-10
26	0x320858b0	7.936407e-09
27	0x33b589d6	8.4535415e-08
28	0x32bb810e	2.1828352e-08
29	0x2e1be768	3.544845e-11
30	0x30916e72	1.0581529e-09
31	0x32b79b5f	2.1374658e-08
32	0x2e1675ee	3.4210794e-11
33	0x30cb5120	1.4793251e-09
34	0x321c252b	9.088846e-09
35	0x3122d2ea	2.3693993e-09
36	0x2cb8ee2e	5.256038e-12
37	0x2f18eba4	1.3908036e-10
38	0x312086b3	2.3359632e-09
39	0x2caa7a17	4.8452453e-12
40	0x2f39a2b2	1.6883453e-10
41	0x3081da34	9.448002e-10
42	0x34b14d85	3.3025222e-07
43	0x30255409	6.014607e-10
44	0x327bcdbb	1.4656901e-08
45	0x34ac78a7	3.2125283e-07
46	0x301e87ef	5.767324e-10
47	0x32c86d4f	2.3332772e-08
48	0x344764eb	1.8570033e-07
49	0x31e37eea	6.620998e-09
50	0x2d68cdcb	1.3233368e-11
51	0x2fcace95	3.689037e-10
52	0x31de42cd	6.4686447e-09
53	0x2d5c1518	1.2510236e-11
54	0x300da2cb	5.1526844e-10
55	0x3109b15a	2.0036937e-09
56	0x33115eaa	3.384654e-08
57	0x2e8efc91	6.502277e-11
58	0x3102682a	1.89767e-09
59	0x330fdd34	3.3495965e-08
60	0x2e8c5844	6.382142e-11
61	0x3115450b	2.17216e-09
62	0x326fddac	1.3962033e-08
63	0x2e743aa9	5.5531277e-11
64	0x29ea333b	1.04005746e-13
65	0x2ca1acee	4.5950943e-12
66	0x2e7cda0b	5.7491827e-11
67	0x29f2ad09	1.0776976e-13
68	0x2c393f8e	2.6325361e-12
69	0x2e37bf16	4.17791e-11
70	0x334089a8	4.482868e-08
71	0x2e9ee2d7	7.225303e-11
72	0x31454636	2.8707183e-09
73	0x33436dec	4.550195e-08
74	0x2ea11988	7.3259676e-11
75	0x31182b3e	2.2143491e-09
76	0x3281c73c	1.5108178e-08
77	0x36335a69	2.6725704e-06
78	0x31a27692	4.7283004e-09
79	0x33e48dd8	1.06428786e-07
80	0x362e8ed0	2.6011148e-06
81	0x319caae2	4.5596247e-09
82	0x343e459d	1.7720454e-07
83	0x3596dd75	1.1240323e-06
84	0x34660581	2.1422422e-07
85	0x2fd5f486	3.891822e-10
86	0x324e4563	1.2006555e-08
87	0x3462fbc4	2.1139482e-07
88	0x2fcfb407	3.7780998e-10
89	0x327848f5	1.4452088e-08
90	0x340fbf35	1.3387474e-07
91	0x32b8c9fe	2.1512275e-08
92	0x2e41ef10	4.409545e-11
93	0x30af98ed	1.277639e-09
94	0x32b69acc	2.1257982e-08
95	0x2e3aa2a3	4.2435954e-11
96	0x30d0ae96	1.5183612e-09
97	0x326a3a1a	1.3633803e-08
98	0x3361a466	5.2536414e-08
99	0x2ec4c04f	8.947209e-11
100	0x31830f46	3.814338e-09
101	0x3366e4fc	5.3759308e-08
102	0x2ec6353e	9.013455e-11
103	0x3138ae03	2.6874438e-09
104	0x32c209d3	2.258904e-08
105	0x32a9991e	1.9743819e-08
106	0x2e1f6b8e	3.6247942e-11
107	0x30abb249	1.2492559e-09
108	0x32ab6507	1.9952962e-08
109	0x2e1da87e	3.5847318e-11
110	0x30939960	1.073925e-09
111	0x3286bb20	1.5684748e-08
112	0x346f59a2	2.2291218e-07
113	0x2fe16a89	4.100296e-10
114	0x3262896f	1.318618e-08
115	0x347071b4	2.2393107e-07
116	0x2fddbaba	4.0332343e-10
117	0x32590f03	1.2634476e-08
118	0x33fda9ed	1.181214e-07
119	0x3519cf84	5.7298917e-07
120	0x30917bbb	1.0585305e-09
121	0x3316cd24	3.511117e-08
122	0x3519da3b	5.731451e-07
123	0x3090519b	1.0500573e-09
124	0x3313b26f	3.438839e-08
125	0x34939339	2.7488002e-07
126	0x340c0cdd	1.3043196e-07
127	0x2f83aca2	2.3951424e-10
128	0x31e2bf99	6.599248e-09
129	0x34093244	1.2777406e-07
130	0x2f7f6536	2.3228072e-10
131	0x321c1027	9.084068e-09
132	0x33b43f0a	8.39337e-08
133	0x33005ece	2.9888547e-08
134	0x2e5e6eac	5.0575252e-11
135	0x30f0f39d	1.7531537e-09
136	0x330161ca	3.012409e-08
137	0x2e5dd92a	5.0442463e-11
138	0x30d70e00	1.5647288e-09
139	0x32253501	9.616316e-09
140	0x356c6451	8.806283e-07
141	0x30cd63ac	1.4944042e-09
142	0x336de171	5.53859e-08
143	0x356dcec6	8.8590275e-07
144	0x30cc5920	1.4868284e-09
145	0x3355a6fe	4.9744806e-08
146	0x350ab15e	5.166711e-07
147	0x34eb2dcf	4.380549e-07
148	0x305632bb	7.792484e-10
149	0x32ae169b	2.0266546e-08
150	0x34e7fd73	4.3211512e-07
151	0x3052c7af	7.668132e-10
152	0x32e40bcf	2.6548063e-08
153	0x3426e967	1.5544866e-07
154	0x3355595d	4.9674203e-08
155	0x2eb64fe1	8.290591e-11
156	0x310b933a	2.031085e-09
157	0x3351ab1e	4.8817235e-08
158	0x2eb225ac	8.101195e-11
159	0x3148b073	2.920413e-09
160	0x32b393ed	2.0905611e-08
161	0x31dc0c63	6.404251e-09
162	0x2d528333	1.196625e-11
163	0x2fa29c48	2.9578673e-10
164	0x31d5b091	6.219189e-09
165	0x2d39b8cf	1.0557068e-11
166	0x3004c1de	4.829682e-10
167	0x318013be	3.7275347e-09
168	0x328ce706	1.6403202e-08
169	0x2dd80f52	2.456316e-11
170	0x304712dd	7.2422585e-10
171	0x328b1f80	1.6196054e-08
172	0x2dd512c2	2.4223627e-11
173	0x3081ee70	9.453753e-10
174	0x2f3f9d6b	1.7427275e-10
175	0x34c3b7ba	3.645526e-07
176	0x30265776	6.051474e-10
177	0x32bd3d32	2.2030324e-08
178	0x34c5cefa	3.6844705e-07
179	0x302855e9	6.124013e-10
180	0x32a01d58	1.8639795e-08
181	0x341b798a	1.4479716e-07
182	0x31ed3743	6.9038903e-09
183	0x2d7ee39a	1.4488766e-11
184	0x2fb9cc3c	3.379642e-10
185	0x31e736b1	6.7292025e-09
186	0x2d74e276	1.3920079e-11
187	0x300c9eae	5.11572e-10
188	0x30700218	8.7314467e-10
189	0x33c81121	9.3163415e-08
190	0x2f46bcbc	1.8075047e-10
191	0x318b8ba7	4.061309e-09
192	0x33c27af0	9.056191e-08
193	0x2f3dafd4	1.7251917e-10
194	0x31e471bd	6.648604e-09
195	0x332450c0	3.8257667e-08
196	0x32f10ef4	2.8062892e-08
197	0x2e92932f	6.6654564e-11
198	0x30a466a7	1.1961746e-09
199	0x32e4c12b	2.6630536e-08
200	0x2e820198	5.911999e-11
201	0x31345ed2	2.6247347e-09
202	0x31302a28	2.5635334e-09
203	0x31c71d1e	5.7949725e-09
204	0x2d403bad	1.0927187e-11
205	0x2f8b5034	2.534094e-10
206	0x31c15d80	5.627669e-09
207	0x2d34a687	1.0268792e-11
208	0x2fe4a566	4.159048e-10
209	0x31a5828e	4.8169744e-09
210	0x33e7d99a	1.0796357e-07
211	0x2f567c77	1.9507405e-10
212	0x31b58881	5.283312e-09
213	0x33e59c9f	1.0692133e-07
214	0x2f51d250	1.9083157e-10
215	0x31dedf70	6.4864523e-09
216	0x3393ddeb	6.8855876e-08
217	0x34dab2a4	4.0735642e-07
218	0x302e6964	6.34506e-10
219	0x327a2a4a	1.4561531e-08
220	0x34d5c4d2	3.9817547e-07
221	0x30293bf0	6.156702e-10
222	0x32cbf4bf	2.3743608e-08
223	0x347859e4	2.3129502e-07
224	0x330b1d6a	3.239021e-08
225	0x2e646e02	5.1938905e-11
226	0x30a99c66	1.234082e-09
227	0x3306f46d	3.142161e-08
228	0x2e5b2b59	4.9833335e-11
229	0x31150b56	2.1688797e-09
230	0x32635737	1.3232969e-08
231	0x3533b01b	6.6938964e-07
232	0x3090d8ab	1.053896e-09
233	0x3338ee4e	4.3057575e-08
234	0x35367471	6.796973e-07
235	0x30936614	1.072467e-09
236	0x330b7810	3.2472656e-08
237	0x34be507a	3.5448812e-07
238	0x334d3b57	4.778425e-08
239	0x2ead41c3	7.878811e-11
240	0x3117928e	2.2056699e-09
241	0x334a4a11	4.7099153e-08
242	0x2eab1469	7.779805e-11
243	0x3146c207	2.8923084e-09
244	0x3195b2cf	4.356799e-09
245	0x340afcfc	1.2944287e-07
246	0x2f5f2460	2.0294655e-10
247	0x32196647	8.929027e-09
248	0x340e62a0	1.326066e-07
249	0x2f65605d	2.0861664e-10
250	0x31c693da	5.779367e-09
251	0x33c7f109	9.310504e-08
252	0x351f6285	5.937548e-07
253	0x30805e66	9.340055e-10
254	0x333bb12c	4.3700467e-08
255	0x3524b08b	6.1351665e-07

exp_avg f4 [128]
0	0x38f50315	0.000116830844
1	0xba0d7d4d	-0.00053973944
2	0x38843e5f	6.305868e-05
3	0xb95edb6c	-0.00021253311
4	0x38fbbf4a	0.00012004243
5	0xb8056e07	-3.1812142e-05
6	0x39fba438	0.00047996803
7	0xb8c6c895	-9.478737e-05
8	0xb94356ab	-0.00018628936
9	0x3616f499	2.2494116e-06
10	0x38729d2a	5.7843667e-05
11	0x3ac47740	0.0014989153
12	0x39a5f9de	0.00031657418
13	0xb9151bed	-0.0001422015
14	0x37e51707	2.730965e-05
15	0x370efab0	8.522227e-06
16	0xb8db67ed	-0.000104620914
17	0xba4e11a2	-0.0007860904
18	0x39975e7f	0.0002887137
19	0xb83bdde7	-4.4790937e-05
20	0xba0ebc45	-0.00054449245
21	0xba0813d6	-0.0005190944
22	0x392c16d3	0.00016411701
23	0x382993a7	4.0430252e-05
24	0x388f95a4	6.846644e-05
25	0x383e59c6	4.5383138e-05
26	0xb8f9c901	-0.00011910685
27	0xb9a76e63	-0.00031934967
28	0xb9a5b8a3	-0.00031608818
29	0x3800ac3a	3.0677977e-05
30	0xb92b8e24	-0.00016360782
31	0x3996421f	0.00028659494
32	0xb907d170	-0.00012952625
33	0xb99f75a7	-0.000304145
34	0xb8ced6cb	-9.862854e-05
35	0xb8c4f2e9	-9.391254e-05
36	0xb9773e66	-0.00023579001
37	0x38339413	4.281483e-05
38	0xb9cd09ff	-0.00039108095
39	0xb99c7a9e	-0.00029845996
40	0xb95143cb	-0.00019957048
41	0xb9227e34	-0.00015496538
42	0xb8228715	-3.8749615e-05
43	0xb8742a3b	-5.8213463e-05
44	0x3a65f47b	0.0008772087
45	0x392231a7	0.00015468021
46	0x39099328	0.00013120158
47	0x39531ba0	0.00020132819
48	0xba892273	-0.0010462537
49	0x396be574	0.00022496824
50	0xb8fd856e	-0.00012088833
51	0x3a3785fe	0.00070008624
52	0x391297a9	0.00013980143
53	0xb9f0ebff	-0.00045952198
54	0xba7ba503	-0.0009599479
55	0x39f791cd	0.0004722014
56	0xb88f7848	-6.8411755e-05
57	0x3a0be0c4	0.0005335922
58	0x3901c33c	0.00012375129
59	0xba223634	-0.00061878865
60	0x3945cdbb	0.00018864025
61	0xb9c1554f	-0.00036875388
62	0xb97d5e30	-0.00024163048
63	0xb885463b	-6.355016e-05
64	0xb9bfc7df	-0.00036579274
65	0x3682cabe	3.897904e-06
66	0x3a1fd9a1	0.0006097798
67	0x3a66f035	0.00088095973
68	0x38c888b2	9.562205e-05
69	0xb9e5460b	-0.0004373047
70	0xb8c26f3b	-9.271359e-05
71	0x385fe378	5.337919e-05
72	0x39ba2914	0.0003550729
73	0x3a2eb0cf	0.000666392
74	0xbacb6574	-0.0015517906
75	0x3a37759d	0.0006998422
76	0xb80b891f	-3.3267886e-05
77	0x395e180b	0.00021180527
78	0x38c3d821	9.338582e-05
79	0x39047781	0.0001263302
80	0x39d9a655	0.00041513392
81	0xb99bfb4b	-0.00029751132
82	0x3772d82a	1.4474654e-05
83	0xb942041e	-0.00018502816
84	0x3a24311e	0.00062634225
85	0xb78d560a	-1.6848575e-05
86	0xb80452f3	-3.1548505e-05
87	0xb84b7664	-4.850923e-05
88	0xba6a5c82	-0.00089401763
89	0x3930288d	0.00016799774
90	0x39a82b13	0.0003207555
91	0x37485399	1.1940393e-05
92	0x3710fc56	8.64182e-06
93	0x3895d8fa	7.145289e-05
94	0xb9738e7b	-0.00023227364
95	0x38babc8a	8.904289e-05
96	0xb9331cb5	-0.00017081464
97	0x39c89591	0.00038258408
98	0xb79fe7df	-1.906225e-05
99	0xb9331ba0	-0.00017081061
100	0x3680df54	3.840696e-06
101	0xba58e247	-0.0008273464
102	0x376654a3	1.3728774e-05
103	0xb926afc8	-0.00015896477
104	0x38ce2c2e	9.8310746e-05
105	0x39134d19	0.00014047734
106	0xb94fde1a	-0.00019823798
107	0x3891eb8d	6.9580135e-05
108	0x38cb3eb3	9.691473e-05
109	0xb711ed2d	-8.697895e-06
110	0x3a4d4d39	0.00078316365
111	0xb9bb9255	-0.00035776445
112	0x39b32291	0.00034167295
113	0xb983f3c0	-0.00025167875
114	0x39b679f3	0.00034804604
115	0x38d7746e	0.000102736856
116	0xba8974c3	-0.0010487068
117	0xb8f823ff	-0.00011832266
118	0xb8d1f800	-0.0001001209
119	0x38f88ce8	0.00011851807
120	0xb843832c	-4.6613786e-05
121	0xba062037	-0.0005116495
122	0x395eb0b2	0.00021237394
123	0x39c37a97	0.00037284635
124	0xb9af551c	-0.00033442013
125	0xb83cd1fb	-4.5018252e-05
126	0xb99c1d95	-0.0002977668
127	0xb937158b	-0.00017460265

exp_avg_sq f4 [128]
0	0x3226b3b1	9.703329e-09
1	0x34b84652	3.4323836e-07
2	0x33178625	3.527943e-08
3	0x342522c8	1.5379476e-07
4	0x32c4833d	2.2877083e-08
5	0x312cc1f3	2.5139542e-09
6	0x34b961fc	3.4530228e-07
7	0x31f01c0d	6.9881083e-09
8	0x3319926d	3.5756262e-08
9	0x2e848151	6.025636e-11
10	0x334d3361	4.777701e-08
11	0x363ab5a2	2.7821884e-06
12	0x3472ec6e	2.2624019e-07
13	0x32c40f2c	2.2824302e-08
14	0x337259c3	5.6426654e-08
15	0x32b4b60b	2.1037541e-08
16	0x347e255c	2.3669185e-07
17	0x3523683d	6.087392e-07
18	0x3413495d	1.3717131e-07
19	0x3308337a	3.1711785e-08
20	0x357b6c85	9.3662703e-07
21	0x34f67791	4.5908067e-07
22	0x335e534c	5.176416e-08
23	0x31e65d7b	6.7045085e-09
24	0x32935ba3	1.7154724e-08
25	0x34cfe687	3.8724485e-07
26	0x31f95dde	7.2575252e-09
27	0x33d109ee	9.734127e-08
28	0x32fbeeef	2.93289e-08
29	0x31d01225	6.0556595e-09
30	0x33f3a345	1.1345268e-07
31	0x34e2bffc	4.2235467e-07
32	0x33108599	3.364912e-08
33	0x353f6583	7.1300764e-07
34	0x3356f3c8	5.0047475e-08
35	0x3414c375	1.3854681e-07
36	0x352b6203	6.384509e-07
37	0x3099f73a	1.1202481e-09
38	0x34337fce	1.6717169e-07
39	0x349e8709	2.9528044e-07
40	0x329c57fb	1.8200799e-08
41	0x32734b81	1.4161629e-08
42	0x34ba6235	3.4716655e-07
43	0x31eb816d	6.854114e-09
44	0x35df31ad	1.6629252e-06
45	0x34b7db6a	3.424605e-07
46	0x340c27e9	1.3053035e-07
47	0x3373b484	5.6742024e-08
48	0x35324314	6.640778e-07
49	0x33171fb5	3.5186265e-08
50	0x31e40f23	6.637394e-09
51	0x34e059d7	4.1788618e-07
52	0x34128346	1.3645067e-07
53	0x34857b87	2.4863058e-07
54	0x35682e83	8.649442e-07
55	0x344b4365	1.8930366e-07
56	0x3436f31f	1.7038518e-07
57	0x34d6e969	4.0030434e-07
58	0x3483873e	2.4499053e-07
59	0x34d17823	3.9016695e-07
60	0x34ea53cb	4.3646864e-07
61	0x34a4e9a1	3.0717368e-07
62	0x3413f904	1.3781033e-07
63	0x32074aa9	7.87501e-09
64	0x342026e9	1.4915317e-07
65	0x33d9f8ba	1.0150093e-07
66	0x34cf8896	3.8656134e-07
67	0x359c68f4	1.1653451e-06
68	0x3336eead	4.259225e-08
69	0x347433ff	2.2743187e-07
70	0x318b708c	4.0582275e-09
71	0x313b7008	2.7275764e-09
72	0x33daaa19	1.0182357e-07
73	0x3513d5c9	5.5072866e-07
74	0x36170a81	2.2506867e-06
75	0x357de0ba	9.4576865e-07
76	0x3487a811	2.5267994e-07
77	0x33a44a0b	7.6503134e-08
78	0x32eebfc1	2.7794046e-08
79	0x33cfc300	9.674659e-08
80	0x34a8766c	3.1378602e-07
81	0x33e3b7e9	1.0603964e-07
82	0x332a2902	3.9618506e-08
83	0x33771e76	5.7536873e-08
84	0x3559ad5d	8.1091076e-07
85	0x306f258f	8.700107e-10
86	0x31270f41	2.431037e-09
87	0x34b22081	3.3178733e-07
88	0x351d2c6f	5.8551717e-07
89	0x34c2dcc1	3.6295936e-07
90	0x340af069	1.2939712e-07
91	0x31be4409	5.5374625e-09
92	0x30f2d26f	1.7667626e-09
93	0x33c4f99e	9.172366e-08
94	0x351cc8fb	5.8406994e-07
95	0x335814ff	5.0310515e-08
96	0x348b78e4	2.5978727e-07
97	0x344a6c50	1.885212e-07
98	0x2f91053f	2.6379074e-10
99	0x33073d26	3.148775e-08
100	0x2f607dd5	2.0417386e-10
101	0x34c7995c	3.7178222e-07
102	0x33b5fc4b	8.474361e-08
103	0x347349f3	2.2658041e-07
104	0x33412356	4.4968452e-08
105	0x32c0c400	2.2440872e-08
106	0x34c35a2b	3.6387186e-07
107	0x31625e23	3.294084e-09
108	0x346e6f89	2.2206054e-07
109	0x3047d640	7.2700246e-10
110	0x34eaff28	4.3771547e-07
111	0x34832b2c	2.4432063e-07
112	0x346b0206	2.1886817e-07
113	0x338f7e73	6.6819574e-08
114	0x34a78745	3.1204596e-07
115	0x31f92d71	7.25202e-09
116	0x358b30ca	1.0370507e-06
117	0x337fffe3	5.960454e-08
118	0x353c6988	7.0189026e-07
119	0x339303f6	6.8459414e-08
120	0x32dd2709	2.5745537e-08
121	0x3593843a	1.0990836e-06
122	0x33ebb43e	1.0975826e-07
123	0x341a907e	1.4394934e-07
124	0x3473368c	2.2650983e-07
125	0x32b2da44	2.0821183e-08
126	0x33e1204f	1.0483256e-07
127	0x33c53daa	9.184744e-08
