results/hallway4/Hallway.onnx (onnx, 272191 bytes, 10 tensors)

96 f4 [1, 256, 128]
000000 75 70 0d be 04 37 66 bd d9 7c 00 bd d3 e4 80 3d
       -0.1381243 -0.05620481 -0.031369064 0.06293645
000010 bd 0b a3 3d 4e a3 09 be ce a8 ac bd b8 e3 35 bd
       0.07961223 -0.13441202 -0.084306344 -0.044406623
000020 b3 3f 9c 3c fd 7c 23 be 3e ef 18 be e4 bf 6f bd
       0.019073343 -0.15965648 -0.14935014 -0.05853261
000030 4a b1 89 bd 37 ad 40 be 4e a9 a7 3d 1d 0b 0d 3e
       -0.06723268 -0.18816076 0.08186589 0.1377377
000040 aa 5e e5 3d 6f 2c e6 3c de 39 7e 3d 61 93 9a ba
       0.11199696 0.02809736 0.062066905 -0.001179319
000050 46 70 72 3d c8 75 e7 3d 1b 33 29 be c8 30 fd bd
       0.059189104 0.11301762 -0.16523401 -0.1236282
000060 85 de 8c bd 67 55 18 be e5 55 12 3e a4 ac c4 3d
       -0.0687838 -0.14876328 0.14290579 0.09603241
000070 41 1b 94 bd c8 e1 c1 3d 8d 2e 7c 3c d2 35 bc bd
       -0.07231761 0.094668925 0.015391958 -0.09189953
000080 48 58 0c 3e eb 21 44 3e 63 ca 47 3d 4c 4f db 3d
       0.13705552 0.19153564 0.048776995 0.10708484
000090 46 bf 9a bd de 9d 23 be 46 72 78 bd 2f dd 3f bd
       -0.07556014 -0.1597819 -0.060655855 -0.046841796
0000a0 e1 69 40 3e 22 a6 18 3e e8 28 94 3d 3d b1 10 bd
       0.1879039 0.14907125 0.07234365 -0.035325278
0000b0 f9 0c f1 bd dd 89 d5 bc 7a 78 1e be 36 9d 10 3d
       -0.117700525 -0.026066715 -0.15475646 0.035306178
0000c0 4c 94 37 3c 8d be 18 be 9d 67 c8 3c fb a2 03 bd
       0.01120479 -0.1491644 0.02446347 -0.032137852
0000d0 f0 cc 09 3e 8d 6f da bd 45 63 76 3d e4 6e a2 bd
       0.13457084 -0.10665808 0.060153265 -0.07931307
0000e0 be ee da 3d 22 04 0d bd 80 9a 85 bd fb 28 b2 bd
       0.10690068 -0.03442777 -0.06523609 -0.08699223
0000f0 a4 41 1f 3d 5b 3c ba 3c a6 97 0b 3e c3 39 16 3d
       0.03888096 0.022733858 0.13632068 0.03667618
000100 2b b9 0a bd e4 43 28 3e 36 a0 5a bc 9c 51 5c 3c
       -0.033867996 0.16432148 -0.013343861 0.013447192
000110 a5 12 e2 3d 20 3e 9b bc 33 e3 b5 bd 4f 76 15 be
       0.110387124 -0.018950522 -0.088812254 -0.14595912
000120 e5 e0 a2 bd 95 2b 05 3d e7 74 c4 bd c9 39 12 3d
       -0.079530515 0.032512266 -0.0959261 0.03569964
000130 e0 10 40 bd 85 64 f5 3d 32 83 1f be fe 8a 02 3d
       -0.046891093 0.11982063 -0.15577391 0.031870835
000140 2a 79 04 3e 18 5b 93 bd 86 8c 08 be bb 3f 98 3d
       0.12936845 -0.07195109 -0.13334855 0.074340306
000150 ba 46 85 3d 09 75 c2 bd 25 3b d8 3d fb 4c 08 3c
       0.06507631 -0.09494979 0.10558156 0.008319135
000160 93 2b 0b 3e 09 06 c3 3b 6b 4e 71 bb 70 19 cf bd
       0.13590841 0.005951647 -0.0036820422 -0.10112274
000170 06 74 c0 3d 5b b2 38 bc a8 af 2d 3e 2b 14 06 3e
       0.0939713 -0.011272992 0.16961539 0.13093631
000180 7a 50 e6 bd 0b 08 2f be c1 1f e6 3d b7 8b c0 bd
       -0.112458184 -0.17092912 0.11236525 -0.094016485
000190 0b 77 3b 3e 7e cb b7 bc 41 91 fa bb cf b9 ef bc
       0.1830713 -0.0224359 -0.00764671 -0.029263405
0001a0 a1 07 92 3d f3 3f 12 3d 1a 5b 33 3e 71 7b 2a be
       0.07130361 0.035705518 0.17515221 -0.16648652
0001b0 c9 0d 03 be c2 0a 37 be 8d e2 e1 bc e8 b0 a6 3d
       -0.12798227 -0.17875198 -0.027573848 0.08139211
0001c0 81 94 9e bc e6 ec c2 3c 6f bb c3 3d e0 f9 fd bd
       -0.019357922 0.023794603 0.095572345 -0.124011755
0001d0 39 82 cb 3d 97 51 ce bd 4f 80 23 3d 18 fd 11 3d
       0.099369474 -0.10074156 0.039917286 0.03564176
0001e0 95 b2 95 bd 56 83 37 3e 27 d0 01 3e 08 74 95 bd
       -0.073094524 0.17921194 0.1267706 -0.07297522
0001f0 cf 7d 00 3e de 68 bd 3d bf 55 11 3d 08 46 58 bd
       0.12547992 0.092485175 0.035482164 -0.052801162
000200 c2 e0 29 3e b1 29 cc bd 85 b2 21 be 1e 5f a8 3b
       0.16589645 -0.099688895 -0.15790756 0.005138292
000210 35 db ce bd 9b 75 6e 3d 23 e9 c5 bd df aa 08 be
       -0.10100404 0.058217626 -0.09663608 -0.13346432
000220 f5 63 8b 3d e0 ec 19 bd ff d7 b8 bd 8c c0 b2 3d
       0.06806175 -0.037579417 -0.09025573 0.08728132
000230 74 58 fd bd 59 ff b3 bc bd b0 44 be 58 cd a5 3c
       -0.12370387 -0.021972345 -0.19208045 0.020239517
000240 d8 67 02 be eb 29 41 bd cb 08 93 3d 71 6d 78 bd
       -0.12734926 -0.047159117 0.071794115 -0.060651246
000250 4c a0 b6 3c 3f 4c d1 bd 66 f4 85 3d 38 12 a2 bd
       0.022293232 -0.10219621 0.06540756 -0.07913631
000260 3f 1e 0d be 8c 52 69 bc 70 93 6a bc f2 c2 3d be
       -0.13781069 -0.014240872 -0.014317378 -0.18531397
000270 d9 05 cb 3d 7f b5 11 be 23 08 cf 3c 7d c2 11 3e
       0.09913225 -0.14229392 0.025272435 0.14234348
000280 6a 4f e1 3c 59 28 f5 3d ae 4d 20 bc 6d ff 00 3e
       0.027503688 0.11970586 -0.009784145 0.12597437
000290 75 f2 06 3e f8 27 85 bc 2d 97 04 3e 20 fa 75 bd
       0.13178428 -0.01625441 0.12948294 -0.06005299
0002a0 61 ac 80 bd 4b 05 c7 3d 8d 22 1c be 9f 66 68 3d
       -0.06282879 0.097178064 -0.15247555 0.056738492
0002b0 e6 03 82 bd d5 88 55 3e 54 c8 9e bb bd 63 c3 bd
       -0.063484 0.20852979 -0.0048456583 -0.09540508
0002c0 92 6f 26 3d d6 0d 83 3b 6e 66 02 3e 01 e4 83 bd
       0.040633745 0.003999452 0.12734386 -0.06439973
0002d0 e5 a9 ad 3d ff 9a a2 3d 61 c1 0c 3e 12 f0 79 bd
       0.084796704 0.079397194 0.13745643 -0.061019965
0002e0 7b 49 3e 3e b9 08 15 be cc ef 19 be 1c f7 93 3b
       0.18582718 -0.14554109 -0.15032881 0.0045155417
0002f0 2f 7d e6 bd 95 84 3f 3b 77 7e 41 be 65 d1 b9 3d
       -0.112543456 0.0029223312 -0.18895899 0.09073142
000300 b5 6a 8b 3d 53 6e 04 bd f6 ba 05 3e 16 03 b3 3d
       0.06807462 -0.032331776 0.13059601 0.08740823
000310 93 a9 03 3e 29 5d e4 bc 20 d0 1d 3e 50 3d 0a bd
       0.12857656 -0.027876453 0.15411425 -0.03374988
000320 db 07 c7 3d 74 0c 5d 39 60 ba 43 be 62 fe 6b 3d
       0.09718295 0.00021080842 -0.19114065 0.057615645
000330 b3 d8 03 be 50 da bd 3b 64 f6 2f 3e ab 9d 17 3e
       -0.12875633 0.005793847 0.17183834 0.1480624
000340 e9 9b 1c be 9d e1 27 be 39 cf 8e bc b2 3b 26 3d
       -0.1529385 -0.16394658 -0.017432796 0.040584274
000350 da 79 2f 3e 53 17 2c bd 40 01 f5 3d 6a 21 cb bd
       0.17136326 -0.04201443 0.11963129 -0.099184826
000360 55 b6 0c 3e f4 36 a5 bd 1c 5f c6 bd b5 43 84 bd
       0.13741429 -0.08067122 -0.096861094 -0.064582266
000370 b6 93 ce bd f2 2b ef 3d d5 25 d0 bc 84 9c ad bd
       -0.100867674 0.11678304 -0.025408665 -0.084771186
000380 90 58 f5 3d bf 53 92 bd b0 97 62 bd f7 4f d1 bd
       0.119797826 -0.071448795 -0.05532044 -0.1022033
000390 e5 44 fe bd 43 d8 e7 bd ed 5f 97 3d f3 20 43 3e
       -0.12415484 -0.113205455 0.07391343 0.19055538
0003a0 8b d2 78 bd ac b2 54 3c 6c e8 23 be 43 5e 04 3d
       -0.060747664 0.012982052 -0.1600663 0.032316457
0003b0 48 55 e9 3c e9 7c 82 bd de 2b 90 bc a8 75 28 3e
       0.028483048 -0.06371481 -0.017599043 0.16451132
0003c0 f7 18 f4 3c 65 5d 08 3e bf 82 57 bd 40 bb 01 3e
       0.02979706 0.13316877 -0.052614924 0.12669086
0003d0 7a 9e 93 bd ff 51 10 3e b4 77 d9 bd 5a 2a 28 be
       -0.072079614 0.14093779 -0.10618535 -0.16422406
0003e0 4c a1 a0 3c 8e 03 0d 3d e9 5e e3 3c b0 d6 03 be
       0.019608162 0.03442722 0.027755218 -0.12874866
0003f0 9c 2c 11 bd 57 6f 2f 3e a6 4c 20 be 62 38 e1 3d
       -0.035442933 0.17132317 -0.15654239 0.10997082

97 f4 [1, 256, 64]
000000 a6 23 b3 bc 20 82 3f bd 0b 35 c0 3d c7 e4 18 be
       -0.021867584 -0.046754956 0.09385117 -0.14931022
000010 8d 7e b4 3c fa ef 9a bd a4 4e 2a 3e 18 d2 19 3c
       0.022033 -0.07565303 0.16631562 0.009388469
000020 07 84 2e be ed 0e 12 3e 0a 35 8f 3d 3b 4e c7 3d
       -0.17042552 0.14263506 0.06992538 0.09731718
000030 1a 1e 32 be b6 ab 65 be 5b 89 b1 3c 84 cf ef bd
       -0.17394295 -0.22428784 0.021671942 -0.11709502
000040 28 d2 50 bd 91 fa e2 3d f8 f3 0e 3c 2c 88 4b 3e
       -0.05098167 0.11082948 0.008725159 0.19876164
000050 c3 e9 34 3e ca 8f d3 3d f5 13 25 3e 5c 97 78 be
       0.17667298 0.1033016 0.16120894 -0.24276489
000060 10 b5 86 ba c9 8a 44 3c 4f 05 a4 3d 35 5c ac bd
       -0.001027735 0.01199598 0.08008825 -0.084160246
000070 69 9d 08 bd 75 8d 5a 3e 50 0a 32 be 6a 58 03 3e
       -0.033353243 0.21343024 -0.17386746 0.12826696
000080 38 7c 5d 3d 46 93 42 bd fa 6d b5 3d 54 5b 2f bd
       0.054073542 -0.047503732 0.08858867 -0.042811707
000090 6f 75 49 bd 4e f2 3b 3d f6 eb 43 3e 97 9a 7e 3b
       -0.04918426 0.045885377 0.1913298 0.0038849467
0000a0 95 50 84 3c 7f 6b 06 3b 86 3a fb 3d bf b2 06 3e
       0.016151706 0.002051085 0.12267022 0.13154124
0000b0 cf 34 24 be 21 3d 1a bd 7b 6b 85 3c d5 0f 27 3e
       -0.1603577 -0.037655953 0.016286602 0.16314633
0000c0 0b f2 33 3e 4f cf 89 bd 14 b4 f0 bd 67 bf 1b 3d
       0.17572801 -0.06728994 -0.11753097 0.038024332
0000d0 9a f7 a0 3d 31 8e bf bd 41 5d 47 3e fc f0 eb 3d
       0.07859726 -0.09353293 0.19469167 0.115205735
0000e0 68 4b 84 bc 47 b6 19 be 36 94 c0 3b 3f bb ac 3c
       -0.016149238 -0.1501094 0.005877043 0.02108538
0000f0 88 35 48 3d 53 fc d8 3d 19 2d 45 be c7 f2 8b bd
       0.048879176 0.10595002 -0.19255485 -0.068334155
000100 e2 f6 62 be 44 5e 06 3d ff ee 31 3e 51 df 09 be
       -0.22164491 0.032804742 0.17376326 -0.13464095
000110 1a c5 9e 3d bb af 86 bd e8 2c 18 3e 43 78 32 bd
       0.07752438 -0.06576487 0.1486088 -0.04357172
000120 db d0 b6 3d a8 59 01 be 73 c9 59 3e 4d 9e 5b be
       0.08926555 -0.12631857 0.21268253 -0.21447106
000130 2d 5c 1c bd 6f 03 09 3e 59 83 12 bd 8f cf c9 3b
       -0.038173843 0.13380216 -0.035769794 0.006158776
000140 32 f0 49 bd 57 f1 41 be 94 1f 05 bd 5d db 69 3d
       -0.049301334 -0.1893972 -0.03250082 0.057093967
000150 30 dd 0c bd e0 e7 55 be e0 df 82 3a 64 98 2b 3e
       -0.03439063 -0.20889235 0.0009984933 0.16757351
000160 b6 31 5c 3d 3c 5a 52 be 48 fd ff 3d bc 90 21 be
       0.053758346 -0.20542234 0.124994814 -0.15777868
000170 ec 0d 68 bd cb 21 ad bd 61 c7 4a 3e 16 6f 30 bd
       -0.056653902 -0.08453711 0.1980262 -0.04307469
000180 a7 6e 40 3e 01 bc 25 3e 67 33 df ba 67 75 4a 3e
       0.1879221 0.16184999 -0.0017028869 0.19771348
000190 b9 3e 1f bc 17 2e b9 3c ab 65 f1 bd 4f 27 36 be
       -0.009719544 0.022604985 -0.1178697 -0.17788433
0001a0 3a cc 6b bc 76 5e 96 3c 43 10 14 be 1c 31 37 3e
       -0.014391953 0.01835559 -0.14459328 0.17889827
0001b0 d6 c2 4e 3d 2e f3 37 be 4e b2 eb 3d cc 0a 00 be
       0.05047878 -0.1796386 0.11508618 -0.12504119
0001c0 c8 a9 33 3e a1 a9 06 3e 9c 3e 42 be 3d 6b 4d be
       0.17545235 0.13150646 -0.18969196 -0.2006044
0001d0 7c b7 00 be 28 84 90 3d c4 01 9e 3d 32 71 ba 3d
       -0.12569994 0.07056457 0.077151805 0.091036215
0001e0 20 ce 32 3e 6a 41 ba 3d 8a c4 06 be 92 46 dc 3d
       0.17461443 0.09094508 -0.13160911 0.10755648
0001f0 4d 1f 0b 3e a4 1d 84 3c 53 16 28 be 96 17 ce bc
       0.13586159 0.016127415 -0.16414766 -0.025157731
000200 1b e1 26 3e e5 e8 a9 3d c9 26 4b 3e cf 0c 07 be
       0.16296808 0.08296374 0.19839014 -0.1318848
000210 98 fa dc bd 55 1a 40 be 33 47 73 3d f8 8c 53 bd
       -0.107899845 -0.18760045 0.059394073 -0.05164811
000220 7b 93 81 bc 21 cd f9 3d 6d 0a fd 3d fc 1b 0c be
       -0.015817394 0.12197328 0.12355504 -0.1368255
000230 c5 ac 4a be 0d 7f 4e be 65 83 be bb 84 75 e0 3d
       -0.19792469 -0.20165654 -0.0058140033 0.10959914
000240 f5 0d 5c 3e 8a b6 39 be 98 84 2b be ff 2f 0a be
       0.21489699 -0.1813604 -0.16749799 -0.13494872
000250 ac ca 02 bd 17 f8 99 bd e7 11 73 3d f5 9d 13 3d
       -0.031931564 -0.075180225 0.059343245 0.03603931
000260 8f fa a5 bc cf 89 58 3e c3 e6 31 3e 5b fb 37 be
       -0.020261077 0.2114632 0.17373185 -0.17966978
000270 00 3e df 3d 53 ef 52 3d fb 29 49 be 9f 08 69 be
       0.109004974 0.05149777 -0.1964492 -0.22757195
000280 94 1d 3e be e2 ce f6 3c af 7b 06 3e cb a0 73 bd
       -0.1856597 0.030127946 0.13133119 -0.059479516
000290 be 8d 21 3d 08 c8 0b 3e dc 41 a5 bd 89 75 aa 3d
       0.039441817 0.13650525 -0.08069202 0.08323199
0002a0 9d fc 40 be b3 14 40 3e 7c c3 03 3e 3b 27 ae 3c
       -0.18846364 0.18757896 0.1286754 0.02125894
0002b0 33 17 0f be 4e fe 11 3c 28 aa 87 bd 1b 3c 1c 3d
       -0.13973694 0.008910729 -0.066242516 0.03814326
0002c0 4f 97 d8 bb ea da 2e be e8 87 90 3c 5a 3b e7 bb
       -0.0066098343 -0.17075697 0.01764293 -0.007056636
0002d0 d9 2b c1 bd 02 ad 60 3e 6e 80 9c bc 44 a0 9e 3c
       -0.094321914 0.21940997 -0.019104209 0.01936353
0002e0 a4 5f 65 3d 5a fd d8 bd dd 83 fb 3d cf b5 b3 3d
       0.055999413 -0.10595198 0.1228101 0.087749116
0002f0 93 75 44 3e 02 e1 a6 3d 5c d6 db 3d e6 41 32 3e
       0.19185476 0.081483856 0.10734245 0.17407951
000300 2f 43 38 bc f6 fb df bd 1d bb a6 3d 66 c8 00 be
       -0.011246487 -0.109367296 0.08141158 -0.12576446
000310 2d e2 b5 bc 0c 6c dd 3b 8c 39 77 3e 0c 4f 3b 3e
       -0.022202576 0.006757265 0.24143046 0.18291873
000320 d4 45 25 3e d1 97 f6 3c 40 8e 07 be 78 96 b3 bd
       0.16139919 0.030101689 -0.13237858 -0.08768934
000330 f1 b9 52 3d ee 8d 0c 3e 72 a3 3b 3e 24 8e 91 bd
       0.05144686 0.13726017 0.18324068 -0.07107189
000340 90 04 b3 bd 03 c8 01 3b d5 71 3c be 65 94 d6 ba
       -0.087411046 0.0019803054 -0.18402798 -0.0016371129
000350 ca c1 8a bd 58 0f 76 be 0c 59 3f be 53 2b 60 be
       -0.067752436 -0.2402929 -0.18686312 -0.21891527
000360 bf 34 04 be 41 a0 20 3e cc 49 b9 3d 4c 68 ae bc
       -0.12910746 0.15686132 0.09047279 -0.021289967
000370 df f1 40 3c 65 6e 22 be e6 20 d4 3d 47 84 c2 bd
       0.011776417 -0.15862425 0.103578374 -0.09497886
000380 ac d3 5c be 56 b2 b8 bc e9 0c d3 3d b1 b6 3e 3d
       -0.21565121 -0.022545975 0.10305197 0.046560947
000390 16 63 0f 3e 3d 9a 0f 3e 1d 9a 19 be ae b8 20 3e
       0.14002642 0.14023681 -0.15000196 0.1569545
0003a0 9a 60 6e be 52 1f b5 bd 49 7d cb 3d 5f 4d fb 3d
       -0.23279038 -0.088438645 0.099360056 0.12270617
0003b0 21 75 18 be 0f c1 97 3d b5 5b bb bd e4 1b 08 bd
       -0.14888431 0.0740987 -0.09148351 -0.033229724
0003c0 79 0f 31 3e c0 32 42 3d eb fc df bd 54 80 55 3e
       0.17291059 0.04741168 -0.10936912 0.20849735
0003d0 e5 78 4a be bb 5b 56 3d 59 1f 6e bd 31 f2 15 3d
       -0.1977268 0.052333575 -0.058135364 0.036607925
0003e0 ee 20 05 bd 9d 94 f3 3d d3 35 d6 3d c2 c0 2c be
       -0.032502107 0.1189358 0.10459485 -0.16870406
0003f0 ab c2 3f 3e 4a 53 e4 bd 3b 0e 6d 3d cf dd 1b 3e
       0.18726604 -0.11148699 0.0578749 0.15221332

98 f4 [1, 512]
000000 8b 24 07 bc a4 5a 16 bb f6 00 e0 bb 7e 93 8b 3b
       -0.008248459 -0.002294221 -0.006836052 0.004259526
000010 c6 08 a9 3c 4c 79 9c 3c 79 1b dd 3c ff 65 b0 3c
       0.020634066 0.019100808 0.026990639 0.02153301
000020 16 5b 9d 3c af e0 a8 3c 3f 4c 3f 3d be fb 04 3d
       0.019208472 0.02061495 0.046703573 0.032466643
000030 95 04 f9 3c 91 8f 1f 3d c1 61 90 3c 6b c4 10 3d
       0.030397693 0.038955275 0.017624738 0.03534357
000040 ab 71 8f bc 6f 92 b0 3c 34 c4 74 3c 65 df 36 3c
       -0.017510256 0.0215542 0.014939357 0.01116166
000050 f2 c3 26 3d b5 60 ab 3c 9d 2d d2 3c 26 ab 2d 3d
       0.04071421 0.020920137 0.025656516 0.042399548
000060 e8 30 86 3c e3 3e f3 3c 0b fb ed 3c 50 1b 92 3c
       0.016380742 0.029693073 0.02905037 0.01783529
000070 b2 3d 3e 3d c7 75 2f 3d 4c 93 02 3d 85 c4 42 3c
       0.046445556 0.04283693 0.031878754 0.011887674
000080 77 67 2e 3c 48 86 bc bb 37 fb b5 3c 80 87 72 3c
       0.010644785 -0.0057533123 0.022214515 0.0148028135
000090 8f 38 34 bd 58 45 25 3d 0c d0 b4 3a d3 23 4e 3c
       -0.04399925 0.040349334 0.0013794913 0.012581783
0000a0 79 ea 30 3d be f4 85 3c 5a 62 de 3c 1d cf 1b bd
       0.04319236 0.016352054 0.027146507 -0.038039315
0000b0 a4 a8 2f 3b a8 ed 6d 3b 1b 5d a0 3c f0 e1 4f 3d
       0.0026803399 0.0036304984 0.019575646 0.05075258
0000c0 51 a8 2d 3d 25 b0 77 3d 2d 00 cd 3c f8 e3 a9 bc
       0.042396847 0.06047072 0.025024498 -0.020738587
0000d0 73 b3 46 3c 5e 97 44 3c 1b f4 b0 bc 6b 3d 43 3d
       0.012127745 0.011998979 -0.021600774 0.047665995
0000e0 a9 cb 11 bb 1e 07 cd 3c 15 55 e1 3c 5c 7b 1d 3d
       -0.0022246635 0.025027808 0.02750639 0.038447723
0000f0 05 be 07 3d fb 19 c2 3c 77 5a ae 3c f3 00 2a 3c
       0.0331402 0.02369403 0.021283371 0.010376203
000100 a3 8b e8 3c 65 b2 25 3c 48 98 9f ba 37 f6 ec 3c
       0.028386896 0.010113333 -0.0012176121 0.028925998
000110 6c e2 dd 3c e3 7f f2 3c ee 99 14 3d f2 eb f8 3c
       0.027085505 0.029601997 0.03627961 0.030385945
000120 4e 62 0e 3d a1 7a 39 3d 6d 61 1a 3d c9 b9 29 3d
       0.03476172 0.045282964 0.03769057 0.041436944
000130 01 1d 1a 3d 48 42 57 3d 29 79 7d 3c e4 c7 af 3c
       0.037625317 0.052553445 0.015470781 0.02145762
000140 91 ba 02 3d 03 4c 01 3d 06 f6 85 3c 12 00 c3 3c
       0.031916205 0.03156663 0.016352665 0.023803744
000150 d7 69 de 3c 25 fd e3 3c 73 a5 27 39 6a c0 16 3d
       0.027150078 0.02783067 0.00015987996 0.036804594
000160 e2 8b 1a 3c ea 11 23 3c 96 94 a7 3c b6 9f 96 3c
       0.009432765 0.0099530015 0.020456593 0.018386703
000170 c4 ec fc 3c 00 9b e9 3c b3 9e a0 3c 81 91 14 3d
       0.030874617 0.028516293 0.019606924 0.036271576
000180 5a 04 61 3c 2b 99 67 3c ed 1a ba 3c 41 7e 7a 3c
       0.013733948 0.014135639 0.022717917 0.01528889
000190 51 8e 12 3d e9 8d b6 3c f8 0e 51 3c f9 71 33 bb
       0.035780255 0.022284465 0.0127599165 -0.0027381165
0001a0 01 a4 c1 3c b6 6d 0b 3d 94 a3 8a 3c 9c 32 29 3b
       0.023637773 0.034040175 0.016923703 0.002581752
0001b0 cb 67 17 3d 04 29 95 3c cd 6b ba 3c ee fd 0f 3d
       0.03696422 0.018208034 0.022756482 0.035154276
0001c0 6c 13 cf 3c 56 f5 3f 3d 65 ea 8f 3c 90 9d 75 3c
       0.025277816 0.04686483 0.017567823 0.014991179
0001d0 21 ca 05 3d 74 2f 51 3c 03 9c ed bb 1f c8 07 3d
       0.03266347 0.012767661 -0.007251264 0.033149835
0001e0 2b 47 ef 3b 17 46 e2 3c c9 f7 1b 3d 8a 66 d7 3c
       0.007302185 0.027621312 0.038078103 0.026294012
0001f0 96 6e 7b 3c 8e 7a 22 3d 31 d9 fb 3c c0 c5 80 3c
       0.01534619 0.03966766 0.030743213 0.015719295
000200 53 34 81 3f 68 d2 80 3f 85 d0 7e 3f 02 bc 83 3f
       1.0094093 1.0064211 0.99536926 1.029175
000210 ae ed 81 3f 57 25 82 3f 79 ad 81 3f c5 55 81 3f
       1.0150659 1.0167645 1.0131065 1.01043
000220 75 fd 80 3f f4 13 81 3f 80 73 7f 3f 47 5a 83 3f
       1.0077349 1.0084214 0.99785614 1.0261925
000230 d9 74 81 3f 7e 94 7f 3f e9 30 81 3f a9 bc 83 3f
       1.0113784 0.99835956 1.0093051 1.029195
000240 92 21 84 3f 80 0a 83 3f 3b 4f 7a 3f ab b9 82 3f
       1.0322745 1.0237579 0.97777146 1.0212911
000250 e4 c5 81 3f 70 df 7f 3f cf 3e 81 3f 59 cc 7f 3f
       1.0138516 0.99950314 1.0097293 0.99921185
000260 29 e3 80 3f c7 7d 82 3f d0 12 81 3f 76 b2 80 3f
       1.0069324 1.0194634 1.0083866 1.0054462
000270 e9 b3 81 3f 18 1e 83 3f 22 25 81 3f bf 48 80 3f
       1.0133029 1.0243559 1.0089457 1.00222
000280 78 d4 80 3f bd c7 7f 3f 55 2a 7e 3f de 0e 80 3f
       1.006484 0.9991415 0.99283344 1.0004537
000290 3c 41 81 3f 8c 9f 81 3f a0 b6 7e 3f 83 f5 81 3f
       1.0098033 1.0126815 0.99497414 1.0153049
0002a0 3e 08 81 3f 43 8a 81 3f 8b e2 7c 3f ac b8 7d 3f
       1.008064 1.0120319 0.9878318 0.9910991
0002b0 e0 d1 7d 3f 9c 72 7e 3f 1f d8 7c 3f f6 52 82 3f
       0.9914837 0.9939363 0.98767275 1.0181568
0002c0 94 1c 7e 3f 60 aa 7c 3f 4e 67 82 3f 44 96 79 3f
       0.99262357 0.9869747 1.0187776 0.9749491
0002d0 5f 86 82 3f cd bc 81 3f f8 e0 7a 3f f9 75 82 3f
       1.0197257 1.0135742 0.97999525 1.0192252
0002e0 a5 f5 80 3f be 5f 81 3f 5d 91 7c 3f 14 60 82 3f
       1.0074965 1.0107343 0.98659307 1.0185571
0002f0 61 c5 7f 3f 2f 47 81 3f 91 95 81 3f f5 df 7f 3f
       0.9991055 1.0099849 1.0123769 0.99951106
000300 64 2e 55 3c 85 f4 f2 3b a8 94 5f ba 81 d0 8e bc
       0.013011549 0.007414403 -0.00085289264 -0.017433407
000310 d7 c8 90 bc 33 ba 10 bb ef 1a 8d 3c 60 bd 1a 3c
       -0.017673893 -0.002208364 0.017224757 0.009444565
000320 93 28 e1 3b 34 a9 a6 3c 80 ae f5 bb ec cd db bc
       0.006871292 0.020344354 -0.0074976087 -0.02683159
000330 fe 19 66 3c 3a 9c 90 3c 88 78 c2 3c 9e 29 d2 bc
       0.014044283 0.01765262 0.023739114 -0.02565461
000340 45 14 08 bb 27 fd a8 bc ab e1 4e bc c3 85 8f 3c
       -0.0020764035 -0.020628525 -0.012627046 0.017519837
000350 85 ca aa bc 65 e8 89 3a 65 ad a4 bc 34 1f a7 ba
       -0.020848522 0.001052153 -0.020102212 -0.0012750388
000360 92 1e 2b bc f4 6e ad bc 70 fc af bc 6b 11 17 3d
       -0.0104443 -0.02117107 -0.021482676 0.036881845
000370 00 4d f3 3c 47 c6 89 3c ca 02 d4 bc 55 62 17 bc
       0.029699802 0.016818179 -0.025880236 -0.009239753
000380 37 00 9a 3a ad 9f 6d 3b 6d 58 88 bc 2b 48 4f 3b
       0.0011749332 0.0036258504 -0.016643727 0.0031628709
000390 af 08 be 3b e8 f2 8e bc b2 6a bb 3b cc dd 4d ba
       0.005799375 -0.017449811 0.005719506 -0.00078531797
0003a0 63 1c eb bc 80 1d 5f bc 31 fa 96 bc fe 15 06 3c
       -0.02870006 -0.013617873 -0.018429847 0.008183954
0003b0 e9 b1 54 bc 09 e6 d2 bb f6 01 98 bc 43 b2 ec bc
       -0.01298187 -0.0064361137 -0.018555623 -0.028893596
0003c0 38 ac 9a bb e9 d2 5a 3b 08 92 81 3c d9 89 92 3b
       -0.004720237 0.0033389872 0.015816703 0.004471999
0003d0 88 96 40 bc dc 29 8d 3c 6e 67 90 bb 63 2d 9a bc
       -0.011754639 0.017231874 -0.004406861 -0.01882047
0003e0 21 f9 75 bc b9 51 20 bd 2b 1a 10 3c 61 3b cb bc
       -0.01501301 -0.039140437 0.008795301 -0.024808588
0003f0 27 f8 07 3a e7 a2 4f bc 16 fd a3 bc bc 78 bd bc
       0.0005186819 -0.012673116 -0.020018142 -0.02312886

action_model._continuous_distribution.log_sigma f4 [1, 2]
000000 29 53 80 3c 16 cb 97 3d
       0.015664654 0.074117824

action_model._continuous_distribution.mu.bias f4 [2]
000000 98 b8 60 3c 51 38 81 3d
       0.013715886 0.063095696

action_model._continuous_distribution.mu.weight f4 [2, 64]
000000 7b ff 7d bd 82 13 1e bd 32 e7 7d bd b1 43 72 3d
       -0.062011223 -0.038592823 -0.061988063 0.059146587
000010 f3 b0 2b 3b be eb 9e 3d 14 53 1e 3c c4 7c d5 3d
       0.0026198 0.07759808 0.009663362 0.10424188
000020 a7 e5 eb bc 1a 4c f6 3d 8c c4 60 3c 98 89 4b 3c
       -0.02879603 0.12026234 0.013718735 0.012422942
000030 c4 18 47 3c 82 f2 30 3e e9 d6 e9 3c 69 a0 82 bc
       0.012151901 0.1728001 0.02854486 -0.01594563
000040 96 da cc bd 35 6f b9 bb 3f 00 89 bd e8 92 af 3d
       -0.100026295 -0.005659009 -0.066895 0.08572942
000050 b6 37 1b bd ed 1d 9d 3d 94 ae f9 bc f6 2f 15 3e
       -0.037894927 0.076717235 -0.030478753 0.14569077
000060 2d 32 c2 3b 3d aa 43 bd 45 81 4d 3c 84 a2 0d 3d
       0.0059263916 -0.047769774 0.012543027 0.034578815
000070 4d 65 7b 3d 30 04 87 bb a1 2a bc bc b2 67 45 bd
       0.061375905 -0.0041203722 -0.022969546 -0.048194595
000080 e2 e3 6e 3c de c1 87 bd 70 1b e1 bd 9e 34 81 3d
       0.014580699 -0.06628774 -0.109915614 0.06308864
000090 39 6f a5 bd 39 2b 9c bd b1 7c 28 bd f4 db 64 bd
       -0.08077855 -0.076254316 -0.04113454 -0.055873826
0000a0 81 7c db bc 26 fd a6 3c 99 8a a3 bd d3 ab db 3d
       -0.026792767 0.020384382 -0.0798542 0.10726132
0000b0 13 e1 3c 3c 15 73 90 3c 51 05 81 3c c3 fd 4d 3c
       0.011528271 0.017633 0.015749605 0.012572709
0000c0 f9 50 bd bd c3 1d 09 3e 26 18 bd 3c f0 bb 80 bd
       -0.0924396 0.1339026 0.023082804 -0.06285846
0000d0 18 2d c2 3c b8 5a 04 bd 70 1a 8d 3c 58 d9 b2 bc
       0.023703143 -0.03231308 0.01722452 -0.021832153
0000e0 25 eb 5c bd 31 87 af 3a 8f 49 6d bd c3 8e dc bb
       -0.05393519 0.0013391731 -0.05793148 -0.0067308857
0000f0 41 6b 1a bd 98 65 e1 bd 95 08 8c 3c 13 d6 32 bd
       -0.03769994 -0.110057056 0.017093936 -0.04366119
000100 ae 47 74 3d 72 45 c7 3d 51 b9 3d 3c ba 66 d2 bd
       0.05963867 0.097300425 0.011579827 -0.102735
000110 4c 90 09 be d1 3f 08 3d 1a 61 8e 3d e7 cc 63 3d
       -0.13433951 0.033263985 0.069521144 0.055615332
000120 08 50 c2 3d 2f 2f 87 3d 4e 17 01 be 01 49 e7 bd
       0.09487921 0.066007964 -0.12606546 -0.11293221
000130 75 0a d4 3d c5 be b0 bc 0d 1b c9 3d af 64 8e bd
       0.10353557 -0.021575341 0.09819613 -0.069527976
000140 d3 43 3a bd a6 56 ae bd fc df 07 bd ac 23 81 3b
       -0.04547484 -0.08512621 -0.033172593 0.00394102
000150 8e 3a 9f bd b4 a1 af bd 6f a9 a6 bc 9e 82 ac bb
       -0.0777484 -0.08575764 -0.020344464 -0.005264594
000160 eb ba 99 bd 6b cd 9c bd 7f 61 c4 bd 0e 57 c0 3d
       -0.07506355 -0.07656368 -0.095889084 0.09391604
000170 15 a5 b6 3d 67 53 d3 3d f7 e8 92 bd 2f 09 ae bd
       0.08918206 0.10318642 -0.07173341 -0.084978454
000180 eb 84 b1 bd 6b c9 5a 3d 2b 5d f6 3b 79 72 2e 3d
       -0.0866793 0.053414743 0.0075184307 0.04258964
000190 ef f9 69 3c c2 af 80 bd 94 81 b0 3d 72 63 18 bc
       0.01428078 -0.06283523 0.08618465 -0.009301053
0001a0 50 91 ba bd 63 97 aa bd 00 2b 82 bd a2 dc 89 bd
       -0.091097474 -0.08329656 -0.06355858 -0.067315355
0001b0 5b 5e be bd 4d d1 c9 bd 1b 88 ea bd a5 fe f7 bd
       -0.092953406 -0.09854374 -0.11451741 -0.121091165
0001c0 a2 e0 6f bc b7 e9 f8 bc bc cd bb 3d c2 cf 86 3d
       -0.014640959 -0.030384881 0.091701 0.065825954
0001d0 78 a0 f4 bd 91 5b 5f 3d 22 93 a6 bb 2a 1b 9e bd
       -0.119446695 0.054530684 -0.0050834576 -0.07720025
0001e0 18 8d 64 bd c7 d4 d6 bd f9 75 0f 3e ef da dc bd
       -0.05579862 -0.10489803 0.14009847 -0.10783946
0001f0 2e db b7 3d 77 07 ae bd 16 de 0c be 52 1c 60 bc
       0.08977352 -0.084975176 -0.13756594 -0.013678627

network_body._body_endoder.seq_layers.0.bias f4 [128]
000000 b1 72 87 bb 57 69 dc 3c 2e c3 88 3c cd e5 12 3d
       -0.0041335453 0.026905699 0.016694631 0.035863686
000010 56 24 3a 3c 95 9d c7 3c 61 e1 5f 3c 5c 53 bd 3b
       0.011361202 0.024367133 0.013664574 0.0057777595
000020 9c 70 a9 3c 49 60 5b bc c3 9d aa 3b 19 36 ea b9
       0.02068358 -0.013389655 0.005206795 -0.00044672264
000030 4c 83 cb 3c 17 68 82 3c 75 8c f2 3b 89 01 af 3b
       0.02484288 0.015918775 0.0074019977 0.005340759
000040 c5 0f d0 bc 80 28 9a 3a 7c 5c 72 3c cb 35 89 3c
       -0.025398144 0.0011761338 0.014792558 0.016749283
000050 2c 3f af 3b be c8 3e 3c 66 6a a1 bc 29 f2 ea bc
       0.005348107 0.01164454 -0.019704055 -0.028679924
000060 43 e1 9e 3c d2 cc 2c 3b 20 67 35 bb d4 54 62 3c
       0.019394523 0.00263672 -0.0027679875 0.01381417
000070 ce 4c 32 bd 4f 4b 16 3d 7f fb e4 3c 07 e8 23 3b
       -0.043530278 0.036692914 0.027951954 0.0025010125
000080 ae 65 aa 3b b2 70 9b 3c 7f f8 32 bd 0c 23 07 3c
       0.0052001094 0.018974636 -0.043694016 0.008248102
000090 ad e7 82 3c 31 5d 3b 3c e9 3d fa 3c 5d 67 73 3c
       0.015979612 0.011435793 0.0305471 0.014856187
0000a0 a2 bd 7e 3c 00 0f 9d 3b 59 c2 c1 3c dd b5 15 3c
       0.015548142 0.004793048 0.023652242 0.009137598
0000b0 19 f6 80 3d 7d 8b cc 3b 85 55 28 3c 07 33 5a 3c
       0.062969394 0.0062422142 0.010274296 0.01331783
0000c0 ca 2f a4 3c 37 d7 8a bc f3 3f a7 3c 79 ca 2e 3c
       0.020042319 -0.016948326 0.020416236 0.01066839
0000d0 48 c7 58 3c b4 a1 cb 3b 3a 3a f9 3b 04 11 97 bc
       0.013231106 0.006214345 0.007605818 -0.01844073
0000e0 52 43 30 3c 93 f2 34 ba d2 82 a2 3c 34 37 18 3c
       0.010758238 -0.00069026015 0.01983777 0.009290505
0000f0 dd 7d a6 ba 07 ca d1 3c 55 fd b8 3c 1d fa b4 3b
       -0.0012702305 0.02560903 0.022581736 0.00552298
000100 0b 5c f0 3c 78 21 77 bc 95 fa 48 3c 7b 1c 72 3c
       0.029340765 -0.015083663 0.012266775 0.014777298
000110 c9 ea fb bb 74 38 c5 3c ae 74 85 3b 11 9b 55 3c
       -0.0076879007 0.02407477 0.004072747 0.013037459
000120 d5 10 b4 3c 9c 2a cb 3c de 91 4c 3c cc d6 38 bc
       0.021980682 0.024800591 0.012485949 -0.01128168
000130 12 1b 65 3c 1a e6 cd 3c e6 69 22 3c 89 2a 4f 3c
       0.013983505 0.025134135 0.0099129435 0.0126444185
000140 cb 74 b2 3c c3 56 3c 3c 39 dd 4d 3a 69 9d 9d 3c
       0.021784207 0.011495295 0.0007853094 0.019240098
000150 e2 eb 91 3c 8c 35 59 bd e5 d7 13 3c b8 d8 47 3c
       0.017812673 -0.053029582 0.009023641 0.012197666
000160 38 2a ab 3c 5c 30 31 3c 9a a4 2e 3d d7 80 a2 3c
       0.020894155 0.010814752 0.042637445 0.019836826
000170 9e e1 88 bc 0c fc 70 3d 71 40 98 bc 26 4f 24 3d
       -0.016709145 0.05883412 -0.018585416 0.040114544
000180 f5 1d fe 3b e5 ed 91 bc b5 ed c6 3b c1 db 47 bb
       0.007755036 -0.017813632 0.0060708174 -0.0030495974
000190 d7 aa 90 3c 63 89 f1 3b 43 22 b0 3c 5f 29 03 3c
       0.017659588 0.007371114 0.021500712 0.008005469
0001a0 74 29 01 3d 4e 3c 5a ba 60 70 e5 3b 43 70 7b 3c
       0.031533673 -0.0008325026 0.0070019215 0.0153465895
0001b0 77 89 c5 3b 8b cb 48 bd 14 59 6d bb 65 aa 08 3a
       0.00602835 -0.04902224 -0.0036216425 0.0005213379
0001c0 6f 4c 8e bb 29 87 d4 ba 55 c5 fb 3c fb 10 d6 bc
       -0.0043426077 -0.0016214597 0.030733744 -0.026131144
0001d0 34 5e 56 3c 49 96 c2 bc 8c 5c b2 3c 81 9f 95 3c
       0.013083983 -0.023753302 0.021772645 0.018264534
0001e0 95 d2 14 bb 5b 15 ce 3c da fa 0a 3c 2f f4 90 3c
       -0.0022708524 0.025156667 0.008482659 0.01769456
0001f0 19 2e 37 3b c9 55 fd 3b bf 58 b1 3c cd 8e 34 bb
       0.002795106 0.0077311737 0.021648763 -0.0027550936

network_body._body_endoder.seq_layers.0.weight f4 [128, 7]
000000 cf 04 91 3e b7 7b 07 3f a1 4d e9 3e 25 18 46 3f
       0.2832398 0.5292315 0.4556704 0.7738059
000010 73 fb c6 3d 1b d1 d3 be 02 db e8 3e db 88 41 be
       0.09715929 -0.41370472 0.4547959 -0.18899862
000020 cc 9c 38 3f 01 d0 ad be c3 9b d1 be 44 ad 1f 3f
       0.72114253 -0.33947757 -0.4093915 0.6237376
000030 c8 40 a4 3e c1 cf 20 3f 10 14 6f 3f 3d 6c 09 3f
       0.32080674 0.6281701 0.9338999 0.53680784
000040 6e cf 99 3d 90 ea 28 be 31 25 99 3c 89 d3 99 3e
       0.07510267 -0.16495728 0.018694492 0.300442
000050 30 04 51 3f 50 67 29 bc 20 cb 71 be a6 ee 17 bf
       0.81647015 -0.010339573 -0.23612642 -0.59348524
000060 f5 ae 53 3e 09 f6 2d bf 67 72 80 be a9 93 8f bd
       0.2067221 -0.67953545 -0.25087282 -0.07010586
000070 bb 80 c9 3e 81 c8 fb 3e 88 eb 27 3e 94 b6 04 bf
       0.39356026 0.4917641 0.16398442 -0.5184109
000080 ba 8e f8 3e 05 ef 08 be 0e 06 cc be 03 bf 45 be
       0.48546392 -0.13372429 -0.3984837 -0.19311146
000090 15 ee 35 be 6b af 12 bf c8 43 b9 bd f8 64 a7 3d
       -0.17766602 -0.57298917 -0.09046131 0.08173555
0000a0 bf ce 6d bf d1 fb 8e 3e 7c 8e f8 bc 1b d4 09 be
       -0.92893595 0.27926496 -0.03034138 -0.13459818
0000b0 22 11 fa be f9 d9 04 3e 3e cd 40 bf fe 04 ee be
       -0.48841196 0.12973775 -0.75313175 -0.46488184
0000c0 df e8 7e 3e ec ee 35 3f 81 90 ad 3e 9b 4d 5e be
       0.24893521 0.7106769 0.3389931 -0.21709292
0000d0 86 cb 13 3f 9f 88 a6 3e c6 a4 b4 bd 92 24 15 3e
       0.5773243 0.3252611 -0.088204905 0.14564732
0000e0 61 9c 63 be c8 63 db be 8a 94 68 be 5c d8 e2 3d
       -0.22227623 -0.42849565 -0.22712913 0.110764235
0000f0 3c eb 8a be b3 86 8f 3e fc c8 fd 3d 0d b4 4f be
       -0.27132595 0.28032455 0.1239185 -0.20283528
000100 05 53 ff 3c 47 3b 13 3d a3 e4 02 3e 50 18 c6 be
       0.031167516 0.035945203 0.1278253 -0.38690424
000110 e9 d6 ce 3d 2a 8f 8c 3e bd 45 8f 3e 40 a1 9e be
       0.100995846 0.27452976 0.27982894 -0.309824
000120 58 c9 be 3e 34 a1 81 3d c4 33 43 3d a2 67 fb 3c
       0.37262988 0.06329575 0.04765679 0.030689064
000130 bf 3f 5e 3f 86 4f f7 bd 9a ed 9c 3e 56 f5 aa 3e
       0.8681602 -0.12075715 0.30650026 0.333903
000140 a0 0c f1 be 84 f4 0b 3f 45 2d 94 3e 4c c4 61 be
       -0.47079945 0.54669976 0.28940788 -0.22047538
000150 e8 81 cd be 00 cc 2e 3f b0 4c 7d 3c 2e 56 c3 3e
       -0.40138173 0.6828003 0.015460178 0.38151687
000160 33 3f 23 3e 59 c1 4e 3f f7 e6 28 be 36 f7 cb 3e
       0.15942077 0.80763775 -0.16494356 0.39837044
000170 f2 10 c7 be 05 5c 6b 3d 14 93 0b 3f 5b 19 34 bf
       -0.38880116 0.057460804 0.545213 -0.7035119
000180 c7 09 13 3f fa c8 eb bd ec 69 89 3e ce 8f 4e 3f
       0.57436794 -0.115129426 0.26838624 0.8068818
000190 ec 31 a4 bd a2 14 a3 be 15 e3 69 be d6 14 b4 be
       -0.08017334 -0.3185168 -0.22840531 -0.35172147
0001a0 d1 b7 c8 be 9a 4f 5b 3f 55 49 86 3b 5d fc b5 bc
       -0.3920274 0.8566834 0.0040980973 -0.022215063
0001b0 21 80 a5 3e 91 93 cb 3e ac 06 f8 be 0b 0b 2a bd
       0.32324317 0.39761022 -0.4844259 -0.041514438
0001c0 e1 c9 0f bf 04 88 67 3f 8f 8b a3 bd 44 32 36 bc
       -0.5616742 0.9044192 -0.07985603 -0.011120383
0001d0 84 43 13 bf 4a 95 16 bc 9c a5 2e bf 36 4d cf 3d
       -0.57524896 -0.009190867 -0.6822145 0.10122149
0001e0 cf f2 a9 3e 39 54 cd 3e 73 cb a6 3c 1d 15 2f be
       0.3319306 0.4010332 0.020360684 -0.17097898
0001f0 18 36 98 be be 1d 6d 3e d3 e1 5c 3c a4 6d 89 be
       -0.2972877 0.23155877 0.013481575 -0.26841462
000200 b9 8a dc 3e b9 4a 88 3d 6f d0 53 3e e4 e7 01 3e
       0.43074587 0.06654877 0.2068498 0.12686116
000210 da 5b 1e 3e f2 bf 08 3f 85 8b fa be 60 c2 ba 3e
       0.15464726 0.53417885 -0.4893457 0.3647642
000220 08 1f 08 bf 24 5c 4e 3e 0a a6 9b be 3b 4c 52 bf
       -0.5317235 0.20152336 -0.30400115 -0.8214757
000230 29 c6 ad bd 3c 96 aa be 0f 6b 74 3e 62 69 38 be
       -0.08485062 -0.33317745 0.23868965 -0.1800895
000240 cf 41 8f bd 09 cb c8 be 6f 13 a5 be 7b 45 39 3e
       -0.06994974 -0.39217404 -0.3224139 0.18092911
000250 bd eb 8d be fa 2a ae be 5e 9d a0 be a9 f7 05 3f
       -0.27718917 -0.34017164 -0.31370062 0.52331024
000260 7d ef 09 bf 82 c0 14 3f e2 63 64 3e e2 a2 c6 be
       -0.53881055 0.58106244 0.22303727 -0.38796145
000270 69 9b 00 3e 6d 6d ac bc b8 64 b1 be 6b d2 ae 3e
       0.12559284 -0.021048272 -0.34647155 0.3414491
000280 fa a0 89 be 24 be ab 3e e9 8a f3 3d c3 38 59 bd
       -0.26880628 0.33543503 0.118917294 -0.053032648
000290 96 ad b8 3e cb 9d fa be e4 8c f0 3e b2 51 0e bf
       0.36069936 -0.4894851 0.4698249 -0.5559341
0002a0 4e ae a1 3e 70 8d a3 bd 25 96 94 bd 03 22 9e 3e
       0.31578296 -0.079859614 -0.072552 0.30885324
0002b0 a2 e2 09 bf 69 19 9f 3f 44 06 90 bc db 44 dc be
       -0.5386144 1.242963 -0.017581113 -0.43021283
0002c0 87 07 1e 3e 6e 6e a3 be 1e 30 94 be 1a 70 0d 3d
       0.15432559 -0.3192019 -0.2894296 0.034530737
0002d0 0f 08 c5 3e bb 2d 47 3e 74 0e 14 3f d8 4f f7 be
       0.3848271 0.19451039 0.57834554 -0.48303103
0002e0 34 51 a0 3e f9 04 33 3f 1e 50 2c 3e dd 1e 8a 3e
       0.31311953 0.6992946 0.16827437 0.26976672
0002f0 9a 7d 29 be 2f fc 13 3f 71 37 ea be ce ce 5b 3d
       -0.1655182 0.57806677 -0.45745423 0.05366402
000300 cc 6a 29 3f 5f 44 b0 be 7d 18 9e bd b4 6f d8 be
       0.66178584 -0.34427163 -0.077195145 -0.42272723
000310 b6 1e 39 3e d1 ad 0b 3f 8a 61 01 3f 89 6b a2 bd
       0.18078122 0.545621 0.5053946 -0.07930667
000320 91 0f 41 be 0c 75 dc be 44 9b 40 3e 9d 3c 82 be
       -0.18853594 -0.4305805 0.18809229 -0.2543687
000330 f3 be 86 be 75 da f8 3d 8d ca 11 be eb 86 26 bf
       -0.26317558 0.12151042 -0.14237423 -0.6504962
000340 0c f3 a7 3e 91 e3 8f be 95 1c 15 be d5 43 c1 bd
       0.32802618 -0.28103307 -0.14561684 -0.09436766
000350 0e 1b c0 3e c7 c8 61 bd 1a 92 28 3e ef 52 e9 3e
       0.3752064 -0.055123117 0.16461983 0.45571086
000360 86 6d 06 3f ab 51 1f 3e 5d 5a 95 be d0 93 7d 3e
       0.5251087 0.15558498 -0.29170504 0.24763417
000370 e5 1a 62 3e 53 bb dc bd 79 cf ed be f9 e4 21 3f
       0.22080572 -0.10777917 -0.46447352 0.6324001
000380 2f b3 0d bf d6 b9 96 3e f2 ec b0 3e 39 5a b6 3e
       -0.5535154 0.29438657 0.34555775 0.3561571
000390 5e 1e 8a bb f3 55 10 bf bb 56 1e bf 07 2e 5f be
       -0.004215046 -0.5638115 -0.6185109 -0.21794902
0003a0 b9 55 bb 3e a9 a2 d4 3d a3 5b 1e be 34 0b cf 3e
       0.3658884 0.103825875 -0.15464644 0.40438235
0003b0 be 82 45 3f 63 79 b2 3d ee f3 96 be 23 36 2a be
       0.7715262 0.08714559 -0.2948298 -0.16622214
0003c0 92 f3 8b bf f6 d7 e3 be d2 7b f9 be f8 f1 3c 3e
       -1.0933707 -0.44500703 -0.4872728 0.18451679
0003d0 c1 08 22 bf c5 b7 cb 3d b7 40 5f bd 93 f9 1e be
       -0.6329461 0.09947161 -0.054505076 -0.15524893
0003e0 95 03 39 be 17 07 06 3f 7a cd d7 3e a7 99 11 bf
       -0.18067773 0.5235457 0.42148954 -0.5687508
0003f0 d1 6b 97 be 01 a0 12 be 63 eb 9f be fc ce ce bd
       -0.29574445 -0.14318849 -0.31234273 -0.10098073

network_body._body_endoder.seq_layers.2.bias f4 [128]
000000 64 b6 35 3c 93 f0 ec bc f5 64 72 bc 1f d0 85 bc
       0.011090849 -0.028923308 -0.014794578 -0.016334591
000010 db cd 0f 3d 26 cf b2 3c 98 db 18 ba f0 8d 28 3b
       0.03510843 0.021827292 -0.0005831062 0.0025719367
000020 e4 6d d3 3a c2 03 39 3c 65 67 f4 3b 0a 6f 09 3b
       0.0016130772 0.0112924 0.0074586147 0.0020970725
000030 76 73 88 3b aa ff e8 3c cc dd fc bb 3b 22 20 3d
       0.0041641546 0.028442223 -0.00771687 0.039095145
000040 f1 56 ec 3b 6d 97 d7 ba d0 6c e1 3b 34 1c fb 3c
       0.0072125127 -0.0016448327 0.0068794265 0.030653097
000050 63 87 12 bc 99 28 00 bc ab 2e c1 ba b8 ec 29 bc
       -0.0089434115 -0.007822179 -0.001473864 -0.01037138
000060 a0 05 00 3d f1 4f 3d 3c 73 fc 6e bc a9 aa 60 3b
       0.031255364 0.011554704 -0.014586556 0.003428141
000070 35 29 95 3b 6b dd d4 3c c9 c5 7f bc bd 7c 94 3c
       0.0045520314 0.025984487 -0.0156111205 0.018125886
000080 67 c9 fb 3c 8a 78 30 bb a8 0a 80 3c 44 fb 68 3b
       0.030735685 -0.0026927316 0.015630081 0.0035550157
000090 c2 1e 30 3b 7c 24 9a bb 45 20 a0 bc 37 fc 9b bb
       0.0026873802 -0.0047040563 -0.019546637 -0.004760291
0000a0 9b dc 19 39 3e a1 a3 3b 5d fd 18 bc 76 5d ad 3b
       0.00014673399 0.004993587 -0.00933775 0.0052906824
0000b0 f8 48 22 3b db 8b 07 3d 19 e0 5c 3c 95 21 12 3b
       0.002476273 0.03309236 0.013481163 0.0022297848
0000c0 1c c2 52 bb 8d f3 1c 3d 6d 1e c8 3c fd bd 06 3c
       -0.0032159155 0.038318206 0.02442857 0.008224008
0000d0 fa c7 45 3b e6 d3 0e 3c 0a 23 74 39 89 b8 91 bc
       0.003017901 0.008717513 0.00023282706 -0.017788189
0000e0 e3 1b 23 3c 34 35 9c 3c c7 02 9e 3c 69 16 08 3c
       0.009955379 0.019068338 0.019288434 0.008306124
0000f0 6c 76 20 3c 75 8a 83 b9 4d 1b 01 3c e2 dd 10 3c
       0.009793859 -0.00025089426 0.007880044 0.0088419635
000100 4d 57 9d bb 0b d9 7f 3b 2b dd f0 3b a3 79 25 bc
       -0.004801667 0.003903928 0.007350584 -0.010099801
000110 7a d4 8b bc 2f db 85 3c d4 c3 d9 3c 81 aa 99 bb
       -0.01706909 0.016339866 0.026582636 -0.004689515
000120 ff 1c fa 3b d7 ac 86 3b 94 df 16 bc 80 93 7d 3c
       0.007632851 0.0041099596 -0.009208579 0.015477061
000130 3a dd da bb d7 be 8e 3c 3a f3 90 bc 32 c2 c5 3b
       -0.0066792043 0.017424984 -0.017694104 0.006035113
000140 b7 a3 5b bc a6 a1 b4 3c 2c ff a4 bc 59 08 37 ba
       -0.013405732 0.022049736 -0.020141207 -0.000698214
000150 d9 05 e0 bc 7c 52 48 bc c3 81 16 3c be b8 26 bc
       -0.027346538 -0.012226697 0.009186211 -0.010175882
000160 5a 57 c5 bc 9b f6 c2 3c f6 97 10 3c dc 0c 2f 3b
       -0.024089504 0.023799231 0.008825293 0.0026710546
000170 a1 df ae ba 7e 85 b1 3b 86 12 cb 3c a4 81 80 bb
       -0.0013341793 0.005417525 0.024789106 -0.0039217044
000180 27 9f 46 3a 31 53 a3 3c 7b 58 67 3b d3 d5 3d 39
       0.0007576816 0.01993713 0.0035300541 0.000181041
000190 28 0e 74 bb 61 27 0b 3c 38 e7 13 bc e8 9a 9e bb
       -0.0037239883 0.008493275 -0.009027295 -0.0048402436
0001a0 a8 73 0c 3b d5 86 d3 3c 15 c8 10 3c 74 a4 61 ba
       0.0021431241 0.025821129 0.008836766 -0.0008607574
0001b0 a4 63 1b 3a 9e ea 56 3c 71 f4 df bc 7d 77 59 3b
       0.00059276284 0.0131174605 -0.027338238 0.0033182793
0001c0 e7 83 93 3b 36 00 3c 3d f8 fa 15 bc f7 7a 62 3c
       0.004501808 0.04589864 -0.009154074 0.013823262
0001d0 ca 0e cb 3c f1 e6 23 3c d6 d6 d7 bc 32 05 4a 3c
       0.024787325 0.010003791 -0.026347559 0.01233034
0001e0 ca 72 4c bc 51 5b ee 3c 4e 57 0e bd 97 37 26 3d
       -0.01247854 0.029096277 -0.03475123 0.04058036
0001f0 a3 35 c7 bc dd 1f f1 b9 e3 40 52 b9 54 69 45 3c
       -0.024317568 -0.00045990842 -0.00020051333 0.012049038

network_body._body_endoder.seq_layers.2.weight f4 [128, 128]
000000 41 3d a3 bc e8 9e c0 3d 9c be 46 be a7 28 13 3d
       -0.01992667 0.09405309 -0.19408649 0.03592744
000010 d0 37 3a be dc 26 07 3d c6 2b 02 be 3a b1 56 bd
       -0.18185353 0.032996044 -0.1271201 -0.05241511
000020 cd 94 31 3a 3a 67 d7 bd c0 9b 97 3d 4b c8 25 3d
       0.0006774187 -0.10517736 0.07402754 0.040474217
000030 13 0d ac 3e 60 42 9c 3e f0 ab c2 bd ef 54 02 3c
       0.33603725 0.3051939 -0.09505451 0.00795482
000040 b7 60 8e 3d 83 6e 02 3e 75 a0 22 bd 95 fb ad bd
       0.06952041 0.1273747 -0.039703805 -0.08495251
000050 5f 42 e3 bd 13 23 0f 3d 19 93 89 3d de 5f cc bc
       -0.11096644 0.03494556 0.0671751 -0.024948057
000060 e4 46 3f 3d 02 f7 89 3c 81 7a a9 3d 21 91 e3 3b
       0.046698466 0.016841415 0.08275319 0.006944791
000070 7c 7c c1 3d af be be bc de 56 ab 3d d2 2f 5f 3d
       0.09447572 -0.023284284 0.08366178 0.054488964
000080 6e c4 fe bc 2e e9 ae 3d 07 f4 28 3d b5 e6 c5 bd
       -0.031099524 0.08540569 0.041248348 -0.096631445
000090 7e 12 14 bd d8 b0 ba 3d 9d 45 ef bd 59 9c b0 3d
       -0.036150448 0.091157615 -0.116831996 0.08623571
0000a0 2d d6 98 3b c1 1d 24 be de fa b0 3d a8 65 b5 bd
       0.0046642036 -0.16026975 0.08641599 -0.0885728
0000b0 06 8c 92 3d 92 4b 9f bb 6e 81 13 3d 99 8b 01 3e
       0.071556136 -0.0048613036 0.036012106 0.12650909
0000c0 4b 09 f4 3d 77 50 b3 3c 84 c7 be 3d 52 ef 0e be
       0.11915835 0.021888955 0.09315398 -0.13958481
0000d0 f7 6e b3 bd 41 f2 fe 3d 81 7e 56 3d b2 b0 3b 3e
       -0.08761399 0.1244855 0.052366737 0.18329123
0000e0 3a d3 bd bd a9 6f 2d bd cb dc de bc d7 3e 7f be
       -0.09268804 -0.042342816 -0.027204892 -0.24926315
0000f0 44 e9 59 bd 48 11 02 be 5e ec f5 3d 38 cc 13 3c
       -0.053200975 -0.12701905 0.12007974 0.0090208575
000100 af dd b6 3d bf 8a 18 be 72 56 d1 bb c8 86 59 3d
       0.089290015 -0.14896677 -0.006388479 0.053107053
000110 01 fd 50 bd a4 43 90 be f8 31 ec 3d f2 4e 51 be
       -0.051022533 -0.28176606 0.11532968 -0.20440271
000120 85 2c 96 bd 33 e6 88 3d 99 f7 c1 bc 07 2f 0c 3e
       -0.0733271 0.06684532 -0.023677634 0.13689815
000130 27 8b 88 3e e0 e6 47 3d 3a a9 35 be 7c 23 45 bb
       0.26668665 0.048804164 -0.17740336 -0.0030080965
000140 f5 02 01 3d 4b 06 2b 3d 69 cb d5 bc 8d 37 93 39
       0.03149696 0.04175405 -0.02609797 0.00028079413
000150 99 5f ed bd d7 2d 9d bd 44 a3 16 3e d6 eb 4e bd
       -0.115904994 -0.07674759 0.14710718 -0.05051788
000160 e3 8d 3c be f6 35 36 be 7a da 92 3d 22 2d 0e 3d
       -0.184135 -0.17794022 0.07170577 0.03471101
000170 43 2e df bd 4c 99 5d bc d4 eb d8 bc d5 52 43 3d
       -0.108974956 -0.013525318 -0.02647964 0.047686417
000180 fb 5d 5d bd 26 3c ba bd 6b 36 82 bb a6 01 5a be
       -0.054044705 -0.09093504 -0.0039737723 -0.21289691
000190 d5 57 50 3e cd e9 54 bc ad 7a f1 3d 1a 41 fe 3c
       0.20346005 -0.012995196 0.11790977 0.031036902
0001a0 64 8b 26 3e ce d3 53 3b fa f2 53 3d f9 11 ac bb
       0.16264111 0.003232229 0.051745392 -0.005251166
0001b0 60 f7 65 3c 54 c9 84 bd d6 b0 9c bd 65 06 0b be
       0.01403603 -0.06483713 -0.07650916 -0.13576658
0001c0 60 44 9c bd a1 d1 58 bd 3b 8d 65 3c dd 2b a2 bd
       -0.07630229 -0.052934293 0.014010723 -0.079185225
0001d0 51 f9 40 3e 67 90 16 be 88 c5 ac 3d 9f 07 36 bd
       0.18845107 -0.14703523 0.084361136 -0.04444086
0001e0 6a e3 4e 3e b7 03 23 bd c9 76 b8 bd 2a f1 cf 3c
       0.20203939 -0.039798465 -0.090070315 0.02538355
0001f0 a4 0c ed 3c 62 ea cc 3d 93 87 e7 3b 6f 13 2d 3e
       0.028936692 0.100056425 0.0070657223 0.16901945
000200 86 d3 aa 3d 53 72 8f 3d 39 1c ab bd 69 41 bb 3c
       0.08341126 0.070042275 -0.083549924 0.022858338
000210 a8 db df bd 44 1c 4f 3e f4 a7 a9 bd f1 fb 0d be
       -0.10930568 0.20225626 -0.08283988 -0.1386564
000220 d0 23 8c 3c cd 48 00 3d ee bb 8d bd c5 4f 07 3e
       0.01710692 0.03131943 -0.0692061 0.13214023
000230 4f 3a 6e 3d 9e 0e f4 bc 9d 5d dd 3d d7 90 54 ba
       0.058161076 -0.029792126 0.10808871 -0.0008108741
000240 79 70 86 bd 6c 0a 4f bd bf 32 f8 bd 50 35 51 bd
       -0.06564421 -0.05054705 -0.12119054 -0.051076233
000250 6f cf 28 3e a9 ee 71 be 47 2d 75 3d 3c 9a 45 3e
       0.1648538 -0.23626198 0.059857633 0.19297117
000260 0b e8 ac bb 80 d7 58 3d c2 17 e0 bc 73 10 72 be
       -0.005276685 0.05293989 -0.027355079 -0.23639087
000270 8f a7 c0 bd f6 f0 1a bd ec 85 f8 bc f7 c0 df 3d
       -0.09406959 -0.037827455 -0.030337296 0.10925477
000280 d7 94 97 3c ff eb 12 be 4a 37 e3 3d 5b 60 e2 3d
       0.01850359 -0.14347838 0.1109453 0.110535346
000290 ab ef ea 3c 92 b8 16 be 07 17 a7 3d 46 ef 1b be
       0.028678736 -0.14718845 0.08158689 -0.15227994
0002a0 6c d8 86 bd d2 6d 3a bd 87 68 d7 3b 01 98 dd 3d
       -0.06584248 -0.04551489 0.00657374 0.10820008
0002b0 1b a9 b4 3d d9 c0 59 bd 8b 48 c2 3d 57 a8 95 3d
       0.08821317 -0.05316243 0.09486493 0.07307499
0002c0 7d b8 54 3b d3 26 07 3e e9 a0 5b 3e 2f fe 98 bd
       0.0032458596 0.13198404 0.21448101 -0.07470357
0002d0 18 f4 e3 bc a0 d3 e4 3d f3 4d e0 bd 13 aa 9d bc
       -0.027826354 0.11173177 -0.10952368 -0.019246137
0002e0 e0 a8 14 3d 3b bf 28 bd fa 5c 74 bc 6d 7f 92 bc
       0.036293864 -0.041197997 -0.014914745 -0.017883027
0002f0 3f 2e 39 be 78 e7 31 3d 27 b5 aa 3c 0d f5 df 3c
       -0.18084048 0.043433636 0.020838333 0.027338529
000300 e0 1e b5 bd 7a d5 a9 bd a1 93 d4 bd ca 86 a4 3d
       -0.088437796 -0.082926705 -0.103797205 0.080335215
000310 0b cf 36 3d b4 cf 03 3e f1 30 c2 3c b5 10 8f 3c
       0.044631045 0.12872201 0.023704978 0.017464021
000320 8a 37 b7 3d 4f ec 6c 3d 10 8e a1 3d 62 84 58 bc
       0.0894614 0.05784255 0.078884244 -0.013215156
000330 77 97 ac be 20 7d 52 3d d1 ce 7a bc 42 af ce bd
       -0.33709309 0.05138886 -0.015308098 -0.100920215
000340 5f 5a 49 3e 09 90 40 3d 6b bb 19 3e 09 5c 07 3e
       0.1966338 0.047012363 0.150129 0.13218702
000350 98 40 0e 3d b5 1c 87 bc d9 b8 8e 3d 2d bb 07 3e
       0.03472957 -0.01649318 0.06968851 0.13254996
000360 4c ce dc 3d 8a 79 6c 3e 3b 85 d4 bd 26 72 df 3d
       0.107815355 0.23093238 -0.10376974 0.10910444
000370 a4 c5 f6 bd 8e 2c 69 bc 07 32 c3 bd 59 5c 7f 3d
       -0.12049416 -0.014231814 -0.09531026 0.06234393
000380 cd e9 3e 3e 67 4a cb bd 83 0b f4 3c ec 72 94 bd
       0.18643875 -0.099263005 0.029790645 -0.07248482
000390 94 e7 b7 bd 3f 7b 92 bb 9e 78 a6 bd 75 29 fa bc
       -0.08979717 -0.0044702585 -0.08128475 -0.030537346
0003a0 1d 58 a2 bd 4b 0e 2b 3c 86 22 37 3d cc bb 4d 3e
       -0.079269625 0.010440419 0.04471066 0.2009117
0003b0 d8 f4 b0 bb 62 e9 d5 3c 88 42 81 bd 61 75 a1 3d
       -0.0054002814 0.026112262 -0.06311518 0.078837164
0003c0 48 7b 8e bd ad 44 95 3d 6a 84 da bd c5 9b ee bd
       -0.06957108 0.072884895 -0.10669787 -0.116508044
0003d0 8e d9 bc bd d6 83 da bc 0b 0b 62 bd 61 72 84 bd
       -0.09221183 -0.026674192 -0.055186313 -0.064671285
0003e0 b7 51 07 3d 68 81 9d bd 10 c6 35 3c 54 73 e8 3d
       0.033036914 -0.07690698 0.011094585 0.11350122
0003f0 e5 30 b6 3d d7 c0 48 be eb 66 86 bd c2 ba 3a 3e
       0.08896045 -0.19604813 -0.06562599 0.18235305
