results/ppo/Hallway.onnx (onnx, 73151 bytes, 7 tensors)

action_model._continuous_distribution.log_sigma f4 [1, 2]
00000000: 0000 0000 0000 0000
0.0 0.0

action_model._continuous_distribution.mu.bias f4 [2]
00000000: 0000 0000 0000 0000
0.0 0.0

action_model._continuous_distribution.mu.weight f4 [2, 128]
00000000: 0d64 413c 632c c7bc 4b1e 4b3c 2a4d e0bc
00000010: e67a 9e3c 5997 a539 0ebb 29bd a7e5 233b
00000020: 7606 3d3a 9f3f 94bb a045 283b 49a9 8a3b
00000030: e713 56bb edd7 d1bb 0c4f 933c b296 7cbc
00000040: b518 7f3c 8a6b 84bb 3f21 de3c ea90 e53c
00000050: c539 c13c eb6d f83c a110 0b39 4bf9 f03c
00000060: b5a4 f73c 826e 97bc 0364 1bbc 0429 a2bc
00000070: 87a4 96ba e39b ecbb 026f bfbb dd0b dd3a
00000080: 4c24 35bc 127e 23bc 5771 56bc 60d1 023d
00000090: 7cdb b6bb 4f24 9dbc 250d bdbc ba4a 37bc
000000a0: 7acb 59bc 18f6 e73c b7f9 333c 3347 da3b
000000b0: 8dd9 e6bc b61d 36bc 5b00 0cbc 9ad5 663b
000000c0: 0355 4a3c e3ab 49ba 9aab ab3c a3b2 ba3c
000000d0: d3fb 84bc ff16 bf3c 0cf8 21bc a011 573c
000000e0: 7359 86bc 4acd f63b 937f f6bc 85bc f53c
000000f0: c728 e23c 69a8 0abb 475b 473b 2a8b dfbb
00000100: 213d 223d 2577 5cbc 058f 653c 4db8 8ebc
00000110: eead cc3b ec22 abbb 2b7c 3b3d 1ba5 f63b
00000120: 4692 b6bb 8fd4 11bc 94ba 253c d77a ecbb
00000130: 93ca 69bc 866f 97bc deef 0fbb 1b8b 403c
00000140: 8b1a e13a 49c0 933c e3a2 a83c 5dcf 4fbc
00000150: 6de0 a73c 4298 453c a103 04bd b009 0a3c
00000160: fa66 f43c 10d6 e6bc c445 233d e7dd 943c
00000170: d360 a2bb 684e 2f3c 7bba 353c f80f b2bb
00000180: 4bfd 15bc b235 e7ba cf2b 06bc f5bd 5abb
00000190: ed65 7c3c 2020 663a 1c64 13bc 1ff5 0b3d
000001a0: 9b8f 4fbc 5dbe 9b3c 1b75 823c 03f4 923c
000001b0: ea40 a93c 7cdb 06bb db47 e6bb 299d 04bd
000001c0: d7b3 773c 9722 9dbc 988e 7abc 3fdd 73bb
000001d0: 20b1 febc 981f 7b3a fb48 7d3c 0201 f83c
000001e0: cd9c 4d3a 25f7 f13c 837a 6f3c cb2c 24bb
000001f0: e001 08bc d3a3 82bb 8aaa 7cbc 908c 7c3c
00000200: 23e0 1cbc 1073 1c3c edab 8a3c a49f 3bbb
00000210: 02af 9c3b 119b b73b 08a2 9bbb e23a 79bc
00000220: 0616 1fbc 059a 0ebc d404 1e3b dad0 54bc
00000230: 9325 383a 3669 1e3c 477c 8dbc 368a be3b
00000240: 62aa 7cbb 4f7b 5cbc 2002 1b3c b037 73bc
00000250: 1299 9e3c f917 a3bc 7bfc 72bc 8f36 9abc
00000260: 659c 9fb8 0f71 9cbb e841 643b 31f4 36bb
00000270: 7b2d 203c fc63 ba3b 3534 1cbc 0866 f93a
00000280: 5264 d6bc 1af3 e5bc 77c4 933c 97f3 08bd
00000290: 445a 94bb c370 1dbd df2e f53b ca4e ccbb
000002a0: 0a2d 4abc e10c 383a 84f2 093b 475c 5aba
000002b0: 15b3 8fbc cc0c a33b b806 d43c a228 d73c
000002c0: 5ddd a6bc 2942 c33c d62e 05bc 2347 323c
000002d0: 6b03 463c 1aa9 60bc d3fb a4bb fbcc b33b
000002e0: 505f 733b 8b87 56bc 653d 0a3c 37ea fb3b
000002f0: ab39 5d3c 1b79 1e3c 2031 763c 8f68 eabc
00000300: c842 fdbc 271b 513c 2f1a aa3c 1035 15bc
00000310: acb4 433b ea3e fa3c 8b7c 003b afb0 ad3c
00000320: bd47 d83b c470 8dbc 37a0 253c 4a9c 4e3c
00000330: 9ad7 9c3b 9bd1 8bbc cd16 cb3c 9d20 e03b
00000340: 4bf1 c63c 3b02 173d 37de e1bc 9dc7 56bc
00000350: a6dc 883b f4a9 963c 330b 0b3b 433f 4b3c
00000360: 4340 7d3c 45ee dcbb d5e1 773c 2f0a 80bc
00000370: ee7a 98bb 0984 b83c db3b 8b3c 5085 5c3c
00000380: 63f8 10bd dc63 3abc 6799 15ba 8574 57bc
00000390: faeb f43b 2300 2cbc 4d58 fbbc 5c96 373b
000003a0: e661 9e3b 9dce 563c f264 713c abbe 8dbb
000003b0: eb13 ecbc e25e c939 5b1b a23c de0b bfbb
000003c0: 93da 8d3c 808b bebc 7abe d53c 4b59 e239
000003d0: eaf7 28bc 4581 b3bc 9b4d dabc 0899 0c3d
000003e0: b7aa c03b db58 40bb 4967 b6bb da61 0c3d
000003f0: ddb4 1cbd 9340 a2bb 537b 5a3b 878a efbc
0.011803639 -0.024313157 0.012397359 -0.027380545 0.019345712 0.00031584015 -0.041438155 0.002500871
0.00072107406 -0.004524186 0.0025676265 0.004231606 -0.0032665671 -0.006403914 0.017982028 -0.015416788
0.015569855 -0.00404114 0.027115462 0.028023202 0.023587117 0.03032585 0.00013262268 0.029415747
0.030229906 -0.018485311 -0.009484294 -0.019794948 -0.0011493125 -0.0072207316 -0.0058420906 0.0016864497
-0.011056017 -0.009978788 -0.013088546 0.031937957 -0.005580364 -0.019182352 -0.023077557 -0.01118725
-0.0132931415 0.028315589 0.01098483 0.0066613196 -0.028179908 -0.011115482 -0.008545007 0.0035222531
0.01234937 -0.00076931546 0.02095585 0.022790259 -0.01623336 0.023326395 -0.009885799 0.013126761
-0.016400075 0.0075317966 -0.030090129 0.02999712 0.027607335 -0.002115751 0.0030419396 -0.0068220096
0.03960908 -0.013456141 0.014011149 -0.017421866 0.00624632 -0.005222669 0.045772713 0.0075270063
-0.0055716364 -0.008900776 0.0101152845 -0.007216792 -0.014269489 -0.018485796 -0.002196304 0.011751915
0.0017174048 0.018036025 0.020585483 -0.012683717 0.020492757 0.012060227 -0.032230023 0.008425161
0.02983426 -0.028178245 0.039861456 0.018172218 -0.00495539 0.010699846 0.011091824 -0.0054340325
-0.009154628 -0.0017639904 -0.008189156 -0.0033377383 0.01540516 0.0008778591 -0.008996036 0.034169313
-0.012668516 0.01901167 0.01592498 0.01793862 0.020660836 -0.00205776 -0.007027609 -0.032376442
0.015118561 -0.019181533 -0.015292786 -0.003721073 -0.03109032 0.0009579598 0.015459294 0.030273918
0.00078434945 0.029536793 0.014616611 -0.0025051113 -0.008301228 -0.0039868145 -0.015421519 0.015414372
-0.009574923 0.009548917 0.016927684 -0.0028629089 0.0047816047 0.005603202 -0.0047495402 -0.015211793
-0.009709841 -0.008703713 0.0024111765 -0.012989247 0.0007024642 0.009668639 -0.017271174 0.005814816
-0.0038553705 -0.013457133 0.009460956 -0.01484482 0.019360099 -0.019908892 -0.014830704 -0.018824844
-7.6108416e-05 -0.00477422 0.0034829322 -0.0027916546 0.009776468 0.0056881886 -0.0095339315 0.00190276
-0.026170883 -0.028070021 0.018038018 -0.03343543 -0.004527362 -0.038437616 0.007482394 -0.0062349783
-0.01233984 0.0007020962 0.0021049092 -0.00083297904 -0.017541448 0.0049758907 0.02588211 0.026264492
-0.020369226 0.023835259 -0.008128842 0.010881218 0.012085776 -0.013712192 -0.0050349026 0.005487082
0.0037135668 -0.013093839 0.008437489 0.0076878327 0.013502519 0.0096724285 0.015026361 -0.02861431
-0.030915633 0.012762821 0.020764438 -0.009106889 0.0029862328 0.030547578 0.0019605483 0.021202413
0.0066003487 -0.017265685 0.010108999 0.012610504 0.004786444 -0.017067721 0.024791146 0.0068398253
0.02428498 0.03686736 -0.02757178 -0.013109115 0.004176694 0.018391587 0.0021216392 0.0124052195
0.015457216 -0.006742271 0.015129526 -0.015629856 -0.0046533262 0.022523897 0.016996315 0.013459519
-0.03539313 -0.011376347 -0.00057067577 -0.013150339 0.0074744197 -0.0104980795 -0.030681754 0.0028013205
0.0048334477 0.013110784 0.01473354 -0.004325708 -0.028818091 0.000384084 0.019788435 -0.005830272
0.017316138 -0.023259878 0.026091803 0.00043172608 -0.010313014 -0.021912226 -0.026648333 0.03432563
0.005879726 -0.0029349837 -0.005566512 0.034273006 -0.038258422 -0.0049515455 0.0033337667 -0.02924086

network_body._body_endoder.seq_layers.0.bias f4 [128]
00000000: 0000 0000 0000 0000 0000 0000 0000 0000
00000010: 0000 0000 0000 0000 0000 0000 0000 0000
00000020: 0000 0000 0000 0000 0000 0000 0000 0000
00000030: 0000 0000 0000 0000 0000 0000 0000 0000
00000040: 0000 0000 0000 0000 0000 0000 0000 0000
00000050: 0000 0000 0000 0000 0000 0000 0000 0000
00000060: 0000 0000 0000 0000 0000 0000 0000 0000
00000070: 0000 0000 0000 0000 0000 0000 0000 0000
00000080: 0000 0000 0000 0000 0000 0000 0000 0000
00000090: 0000 0000 0000 0000 0000 0000 0000 0000
000000a0: 0000 0000 0000 0000 0000 0000 0000 0000
000000b0: 0000 0000 0000 0000 0000 0000 0000 0000
000000c0: 0000 0000 0000 0000 0000 0000 0000 0000
000000d0: 0000 0000 0000 0000 0000 0000 0000 0000
000000e0: 0000 0000 0000 0000 0000 0000 0000 0000
000000f0: 0000 0000 0000 0000 0000 0000 0000 0000
00000100: 0000 0000 0000 0000 0000 0000 0000 0000
00000110: 0000 0000 0000 0000 0000 0000 0000 0000
00000120: 0000 0000 0000 0000 0000 0000 0000 0000
00000130: 0000 0000 0000 0000 0000 0000 0000 0000
00000140: 0000 0000 0000 0000 0000 0000 0000 0000
00000150: 0000 0000 0000 0000 0000 0000 0000 0000
00000160: 0000 0000 0000 0000 0000 0000 0000 0000
00000170: 0000 0000 0000 0000 0000 0000 0000 0000
00000180: 0000 0000 0000 0000 0000 0000 0000 0000
00000190: 0000 0000 0000 0000 0000 0000 0000 0000
000001a0: 0000 0000 0000 0000 0000 0000 0000 0000
000001b0: 0000 0000 0000 0000 0000 0000 0000 0000
000001c0: 0000 0000 0000 0000 0000 0000 0000 0000
000001d0: 0000 0000 0000 0000 0000 0000 0000 0000
000001e0: 0000 0000 0000 0000 0000 0000 0000 0000
000001f0: 0000 0000 0000 0000 0000 0000 0000 0000
0.0 0.0 0.0 0.0 0.0 0.0 0.0 0.0
0.0 0.0 0.0 0.0 0.0 0.0 0.0 0.0
0.0 0.0 0.0 0.0 0.0 0.0 0.0 0.0
0.0 0.0 0.0 0.0 0.0 0.0 0.0 0.0
0.0 0.0 0.0 0.0 0.0 0.0 0.0 0.0
0.0 0.0 0.0 0.0 0.0 0.0 0.0 0.0
0.0 0.0 0.0 0.0 0.0 0.0 0.0 0.0
0.0 0.0 0.0 0.0 0.0 0.0 0.0 0.0
0.0 0.0 0.0 0.0 0.0 0.0 0.0 0.0
0.0 0.0 0.0 0.0 0.0 0.0 0.0 0.0
0.0 0.0 0.0 0.0 0.0 0.0 0.0 0.0
0.0 0.0 0.0 0.0 0.0 0.0 0.0 0.0
0.0 0.0 0.0 0.0 0.0 0.0 0.0 0.0
0.0 0.0 0.0 0.0 0.0 0.0 0.0 0.0
0.0 0.0 0.0 0.0 0.0 0.0 0.0 0.0
0.0 0.0 0.0 0.0 0.0 0.0 0.0 0.0

network_body._body_endoder.seq_layers.0.weight f4 [128, 7]
00000000: d233 91bd 2cb8 303e b254 233e 19aa f7be
00000010: eec3 f93e 5877 733e ac84 033f 1e07 c93e
00000020: a4a1 d73e c404 cbbe 078c 7bbd 2000 f93d
00000030: db71 babd 043c f2bc aae3 24be 8050 8b3e
00000040: a2d3 153e 65e2 33be a93f 2fbe 9386 75bf
00000050: d8eb 2b3f d357 b73d 6bd7 293f 81c7 92be
00000060: bee3 55be 6e57 d83e a9b9 2bbe 1758 5f3e
00000070: c763 cabe 45cd 16be 65af f63e abf9 cabe
00000080: 7319 eabe 2332 3c3f 962c 8c3c 1388 003f
00000090: 0d8f 013e ce46 e33e 272f 9a3e 9a2f dcbe
000000a0: 1249 9e3e f083 8dbe 044a b23e 3e4f 43bd
000000b0: 72dd 2cbf 5cce 8cbe 4cb1 f6bd a649 233f
000000c0: a730 5abf 4ba2 b3be 0922 0fbd 8aca bbbe
000000d0: 85f3 173d 9b67 86be d40f ddbe 1feb 053c
000000e0: 30af f1bd 8669 cbbe ae46 bdbe 706e fb3e
000000f0: 0802 4f3f 3ee8 633d cc0e 063e 6e12 c4be
00000100: ac32 693e 1c71 7c3f bcf0 10bf 1343 053f
00000110: 19a4 013e 1736 84be 15db 96bd 2993 e8bd
00000120: b11b e2bd 44e1 49bf 74b0 aabe a5c0 463f
00000130: 624a 58be 0c20 073f 14ec 2ebf 2d91 b33e
00000140: 5e01 a63e 0b94 893e 1568 e3be 2459 a73d
00000150: 31aa 20bf ee89 66be d574 803e f0cb 223f
00000160: 5cc6 46be c71e 1abc 6d70 4e3e 6bc9 8fbd
00000170: 683d 323e 3595 2cbf b0af 813e 4cd8 0fbd
00000180: d0e9 04bf ab04 21be aab3 783e bbbd 7dbd
00000190: e9d2 543e 5293 7c3e b6b5 9c3e c08d 73bd
000001a0: 365a dbbe 3bb4 ca3e 8892 aabe 0848 5abe
000001b0: 1cd6 ae3e 858a 1d3e 6c5e 683d 047d 91bd
000001c0: f2b7 c63e 2238 c43d 3057 283d d77d d23e
000001d0: 35e2 3ebe a306 c93d 6234 b73e aa57 27be
000001e0: 102a e63e 283f 693e 00b0 95be 0bcf f3be
000001f0: a3b9 b43e d055 8cbe 62c4 f7be 24b0 c0be
00000200: 9059 06bf 31cd 9a3d 0f28 243f 614c 8fbd
00000210: 0966 2abe a980 fdbe cd83 b63e 3a0a 053e
00000220: 8e97 74be 47fe 18bf b8c1 63be 35cc 493e
00000230: 62b0 9abe 587f 58be 6ca1 afbe 874e 01bf
00000240: 0976 fb3e c5b9 6a3f c7b2 2f3f de09 063f
00000250: b5cd db3d a439 d8be 7cf9 3a3f cc1f 86bd
00000260: 2a20 0c3f bb9f 25be 2e81 c1be 6141 613e
00000270: 212e 01bd 301e 7fbe 9d64 77bd c8f3 5a3f
00000280: 630a 933d d17a 13bb 6778 b6bd fe95 db3e
00000290: 5563 97be 5c9b 4dbf f1dd c0be ead7 ff3e
000002a0: eb07 b3be ce92 aebe b035 d2be 7aec 233f
000002b0: 617d bebe 3331 2dbf 24ee 183e 034d 97bd
000002c0: aaed d7bb e866 9b3e c7d4 ccbe 3dd8 60bf
000002d0: 95c7 c43e 6e3c 27bd de10 5bbe c7b4 7e3d
000002e0: 6cc8 40be 28b4 03bf 647f ce3d b88b febd
000002f0: d4d6 03bf d108 20be f0d9 dbbd 619d 8f3e
00000300: 9f71 ee3e e57f e0be 0413 113f e675 023f
00000310: 3e47 9f3d 9251 523f 0858 65bc 1bc7 a23d
00000320: 58f9 88be 8c12 a13e b18d cdbe b99b f03d
00000330: 0ebd 9b3e fdbd 06be 3205 a33e 74d1 3a3e
00000340: 927e 303f 7f6a 8d3d a8d3 21bf 448e 033e
00000350: 5396 223e 17b0 17bf 2c70 d7be 33be d43d
00000360: 07df a83d 46bf 613c c49c 423e 2095 3ebc
00000370: ad79 4fbe 3876 93bc 5b33 033f a396 2b3f
00000380: 8ea5 073f 7ddb e33d 7be4 09bc 7e6a 08be
00000390: feab 87be 8a62 edbd bcb0 903e b3fe 143d
000003a0: e72f 293f 2d1b ef3e 456a afbe d647 ba3e
000003b0: b121 613e 644f 55bd bcde 8b3e 0dd2 73be
000003c0: 4604 6e3e 3b8f 15bf b543 423e d016 193d
000003d0: 0ae1 6abe 04c5 243f 7178 13be 3df6 3e3f
000003e0: d0b5 e53e 536e 4f3f cf3e ff3e 45c5 bcbd
000003f0: f707 1a3e a7bd 353e 26ac 29be e8e7 1dbf
-0.07089962 0.17257756 0.15950277 -0.48371962 0.48782295 0.23775995 0.51374316 0.39263242
0.4211551 -0.39652073 -0.061412837 0.12158227 -0.091037475 -0.029569633 -0.16102472 0.27209854
0.14631513 -0.17566831 -0.17114128 -0.9590847 0.67156744 0.08952298 0.66344327 -0.28667834
-0.20887658 0.42254204 -0.16770042 0.21810947 -0.3952925 -0.14726742 0.4818069 -0.39643607
-0.4572254 0.73514 0.017111104 0.5020763 0.12652226 0.44389957 0.301141 -0.43005067
0.30915123 -0.27639723 0.34822094 -0.047682993 -0.675254 -0.2750119 -0.120455354 0.63784254
-0.8523049 -0.35084757 -0.034944568 -0.36677963 0.037097473 -0.2625092 -0.43176138 0.008173733
-0.118009925 -0.39728945 -0.36967987 0.49107695 0.80862474 0.055641405 0.13091582 -0.3829531
0.22773236 0.9861009 -0.5661733 0.5205547 0.12660255 -0.25822517 -0.07366005 -0.113561936
-0.11040438 -0.78859353 -0.33337748 0.776377 -0.21122125 0.52783275 -0.68328977 0.35071698
0.32422918 0.2687076 -0.44415346 0.08171299 -0.6275969 -0.22513554 0.25089136 0.63592434
-0.19411606 -0.009406752 0.20160075 -0.07020839 0.17406237 -0.6741517 0.2532935 -0.035118386
-0.5191927 -0.15724437 0.24287286 -0.06194852 0.20783581 0.24665573 0.30607384 -0.059461355
-0.42842263 0.3959063 -0.3331492 -0.2131654 0.34147727 0.15384872 0.056730673 -0.07103923
0.38812214 0.09581019 0.041098773 0.41111633 -0.18640979 0.09815719 0.35782152 -0.16342035
0.44953966 0.22777998 -0.2923584 -0.476189 0.3529788 -0.2740922 -0.48392016 -0.37634385
-0.5248041 0.075586684 0.64123625 -0.0699699 -0.16640486 -0.49512222 0.3564743 0.12992182
-0.23885939 -0.59762996 -0.22241867 0.19706805 -0.30212694 -0.21142328 -0.34302843 -0.5051045
0.4911349 0.9168971 0.6863217 0.52358806 0.10732595 -0.42231476 0.7303693 -0.065490335
0.5473658 -0.16174214 -0.3779387 0.21997596 -0.031538133 -0.2491386 -0.060398687 0.8552823
0.071797155 -0.0022503624 -0.08909684 0.42887872 -0.29567972 -0.80315185 -0.37669328 0.49969417
-0.34966978 -0.34096378 -0.41056585 0.6403271 -0.37205032 -0.676532 0.14934593 -0.07387736
-0.006589611 0.3035195 -0.40006086 -0.87829953 0.3843352 -0.040829115 -0.21393153 0.06218412
-0.18826455 -0.5144677 0.100828916 -0.12428993 -0.51499677 -0.15628363 -0.10734928 0.28049758
0.4657106 -0.43847576 0.5666964 0.5096115 0.0777726 0.82155716 -0.013998039 0.079481326
-0.26752734 0.31459463 -0.40147164 0.11748452 0.30417675 -0.13158412 0.318399 0.18243963
0.6894313 0.06905078 -0.63213587 0.12847239 0.15877657 -0.59253067 -0.42077768 0.1038784
0.08245664 0.013778513 0.19005114 -0.011632234 -0.2026126 -0.018000707 0.5125024 0.6702673
0.5298699 0.111258484 -0.00841629 -0.13321874 -0.26498407 -0.115910605 0.28259838 0.036375713
0.6608872 0.4670042 -0.34260765 0.3638293 0.21985509 -0.052077666 0.2731837 -0.23810597
0.23243818 -0.5842168 0.1897114 0.03737527 -0.22937408 0.6436312 -0.14401414 0.7459448
0.44865274 0.81027716 0.49852607 -0.09217314 0.15042101 0.17748128 -0.16569576 -0.61681986

network_body._body_endoder.seq_layers.2.bias f4 [128]
00000000: 0000 0000 0000 0000 0000 0000 0000 0000
00000010: 0000 0000 0000 0000 0000 0000 0000 0000
00000020: 0000 0000 0000 0000 0000 0000 0000 0000
00000030: 0000 0000 0000 0000 0000 0000 0000 0000
00000040: 0000 0000 0000 0000 0000 0000 0000 0000
00000050: 0000 0000 0000 0000 0000 0000 0000 0000
00000060: 0000 0000 0000 0000 0000 0000 0000 0000
00000070: 0000 0000 0000 0000 0000 0000 0000 0000
00000080: 0000 0000 0000 0000 0000 0000 0000 0000
00000090: 0000 0000 0000 0000 0000 0000 0000 0000
000000a0: 0000 0000 0000 0000 0000 0000 0000 0000
000000b0: 0000 0000 0000 0000 0000 0000 0000 0000
000000c0: 0000 0000 0000 0000 0000 0000 0000 0000
000000d0: 0000 0000 0000 0000 0000 0000 0000 0000
000000e0: 0000 0000 0000 0000 0000 0000 0000 0000
000000f0: 0000 0000 0000 0000 0000 0000 0000 0000
00000100: 0000 0000 0000 0000 0000 0000 0000 0000
00000110: 0000 0000 0000 0000 0000 0000 0000 0000
00000120: 0000 0000 0000 0000 0000 0000 0000 0000
00000130: 0000 0000 0000 0000 0000 0000 0000 0000
00000140: 0000 0000 0000 0000 0000 0000 0000 0000
00000150: 0000 0000 0000 0000 0000 0000 0000 0000
00000160: 0000 0000 0000 0000 0000 0000 0000 0000
00000170: 0000 0000 0000 0000 0000 0000 0000 0000
00000180: 0000 0000 0000 0000 0000 0000 0000 0000
00000190: 0000 0000 0000 0000 0000 0000 0000 0000
000001a0: 0000 0000 0000 0000 0000 0000 0000 0000
000001b0: 0000 0000 0000 0000 0000 0000 0000 0000
000001c0: 0000 0000 0000 0000 0000 0000 0000 0000
000001d0: 0000 0000 0000 0000 0000 0000 0000 0000
000001e0: 0000 0000 0000 0000 0000 0000 0000 0000
000001f0: 0000 0000 0000 0000 0000 0000 0000 0000
0.0 0.0 0.0 0.0 0.0 0.0 0.0 0.0
0.0 0.0 0.0 0.0 0.0 0.0 0.0 0.0
0.0 0.0 0.0 0.0 0.0 0.0 0.0 0.0
0.0 0.0 0.0 0.0 0.0 0.0 0.0 0.0
0.0 0.0 0.0 0.0 0.0 0.0 0.0 0.0
0.0 0.0 0.0 0.0 0.0 0.0 0.0 0.0
0.0 0.0 0.0 0.0 0.0 0.0 0.0 0.0
0.0 0.0 0.0 0.0 0.0 0.0 0.0 0.0
0.0 0.0 0.0 0.0 0.0 0.0 0.0 0.0
0.0 0.0 0.0 0.0 0.0 0.0 0.0 0.0
0.0 0.0 0.0 0.0 0.0 0.0 0.0 0.0
0.0 0.0 0.0 0.0 0.0 0.0 0.0 0.0
0.0 0.0 0.0 0.0 0.0 0.0 0.0 0.0
0.0 0.0 0.0 0.0 0.0 0.0 0.0 0.0
0.0 0.0 0.0 0.0 0.0 0.0 0.0 0.0
0.0 0.0 0.0 0.0 0.0 0.0 0.0 0.0

network_body._body_endoder.seq_layers.2.weight f4 [128, 128]
00000000: 2cde 463e dafa 95bd 8cb6 793c 2b22 27bd
00000010: 1c60 9a3d d5ba ae3d 518d 703c 2972 07be
00000020: 3980 1abe df1b 973d 8466 1cbe e913 033e
00000030: da51 8f3d 2b13 6cbb 2490 0cbd cd7d bebd
00000040: d098 523d 803e f33d 2f8f 5abd b587 333e
00000050: 03f4 4abd 0007 67bc de65 453d 917c 5e3d
00000060: d3a1 573d bb31 95bd 3741 d03d 5788 95bd
00000070: c285 9abd 6165 3b3d 1869 953d bf12 443d
00000080: f81b 5e3d 1042 3d3c 99c3 213e abe3 ecbd
00000090: 62d0 c4bd 05ab e1bb 69d6 ae3c 5aaa 243d
000000a0: 83fa 14bd 0146 463e 6f34 f8bc a46b 15bd
000000b0: 783c bdbd 70b9 04bc fbcc 09be d61e a4bb
000000c0: 8543 683d 99aa 923d 01e4 79bd 096b 52bd
000000d0: 793a 683b 6a4c d03d b113 9bbd 7cd5 60be
000000e0: 5265 61be 2212 6cbd 2dc2 1d3d 6bd3 a2bd
000000f0: 6f3c c33d ce47 86bd 594c 3abd 6b1d fe3d
00000100: f93d 0abe c1f1 abbb 9f43 003e fcaa 583b
00000110: 3e3b 26be 4d01 3ebe 3f72 11bd 35c5 03be
00000120: 29e2 e13d 5fbb b9bc c354 1abe bb0e bbbd
00000130: b265 1f3d 1e2c a4bb 907a 4e3d 2c09 d33d
00000140: 6fc0 0dbc 4dc1 aa3b 8c05 f63c 38ff c63c
00000150: 86f4 fa3b 9a56 fdbc 92c2 cebd 8b96 383b
00000160: ca5b 213e 4b9f 78be 416b 523d fbfb 7bbd
00000170: f1f5 953d 41a9 623d d750 3fbd f18f 76bd
00000180: 1e6e 40bd 4a3e 043d 670a 2c3d 7576 3cbd
00000190: b4af b4bd 11c6 d6bd c839 bebb f69c ccbd
000001a0: bba6 7f3d 653d 343d 4cb4 293e d58a 783c
000001b0: 4ca7 f4bd e990 0c3c 1ba2 f63d 1d2d b43d
000001c0: 4b39 cabd 808a f53d 2009 373e e7bd 793d
000001d0: e697 04bb 846b 18be 52aa 7d3d eaf6 363e
000001e0: bc23 0cbd 7f31 4b3d 8834 523d 8fbc e9bd
000001f0: 8cf6 05be 22df e93d 92c7 03bd 6ce8 a5bd
00000200: fd09 333d 6ab2 e43d 2496 07be 6f63 2f3d
00000210: 2a7d ccbd 56c3 a0bd b92a d63b c598 9cbc
00000220: f50e 573d f377 7cbd e544 8e3c dcfd 29be
00000230: b8ad 223d 5369 3f3c 07cc a53d cba9 abbd
00000240: 7ef9 cabd 5bd0 193d ccc9 8e3e a3f7 83bb
00000250: 43c8 9bbd 0ad7 d03c 837d 47bd 70fa 5bbd
00000260: c48a ce3d 70c0 1abe c610 08be 55e5 11bd
00000270: 3ea1 85bd 7004 04be 6c53 33bc 2f61 1b3b
00000280: 77c5 4cbd 45be 6d3d 55c7 2fbe 6355 e63d
00000290: 2a69 6fbe 831a c8bd 28fa f73d c86e e43c
000002a0: 25d1 e1bd d972 1ebe e946 033d b441 db3b
000002b0: d4ed 1cbe ba45 b53d e996 a2bd c9f6 4b3c
000002c0: b911 9f3d 5134 e2bd 935d adbd e4ed 833d
000002d0: 71ce 4ebd def8 a53d 4402 5cbd 0180 0abe
000002e0: 1c77 103e 9ee2 babc 2ff6 93bd 3735 18be
000002f0: d76e f03b 7484 9e3d 8173 53bc e9b6 41bc
00000300: 45a7 63bd c412 47bd 8c9b cabd 8ebe d4bd
00000310: 12cb 6b3e 16d7 c0bc bdb3 173c 3127 46bd
00000320: 8506 95bc f4ed f13c 0ff1 843d 557a 52bb
00000330: 4749 8d3d 06d3 39be fae3 4ebc 32cb 883d
00000340: 4978 afbd 2f66 873d 9818 e33d 5218 1e3e
00000350: f9b1 26bd ab8c 57bd 6ac1 913b bb72 303d
00000360: 22b2 85bc 7d1d 283d f8fe 6cbe 1ded 3f3d
00000370: ebe2 883d 557e 5c3d ef95 573d 6611 39bb
00000380: 259d 86bd 6209 e43d 8468 50bc e22b a83c
00000390: a07a fe3b 47ff 8d3d 2ccc 1e3d d4ba 273e
000003a0: c0d2 aebd 3d9f 09bc e458 62bd bdb5 a23d
000003b0: 26b8 a5bb 9c95 17be 9979 71bd 3c05 ff3d
000003c0: c3a4 cf3c 43bc 77bd db98 a2bd cd97 1bbe
000003d0: 3e0e 473d 3492 eabd 3b68 60bd 0601 c33d
000003e0: 2b39 54bd 5cde 14be ffd2 293d 2280 323e
000003f0: 5769 273d ce4c bfbd f344 0e3d 574b 70bd
0.1942069 -0.07323237 0.0152412765 -0.04080407 0.07537863 0.08531729 0.01468213 -0.13227142
-0.15087976 0.07378363 -0.15273482 0.12800564 0.06998034 -0.0036022167 -0.03431715 -0.09301338
0.051415265 0.11877155 -0.053359207 0.17532237 -0.049549114 -0.01410079 0.04819285 0.054318015
0.052644562 -0.07284876 0.10168689 -0.073013954 -0.075450435 0.04575098 0.07295436 0.04786944
0.05422589 0.011551395 0.15797271 -0.11566862 -0.09610058 -0.006886842 0.021342473 0.040201522
-0.03637172 0.19362642 -0.03029844 -0.036479607 -0.09240049 -0.008100852 -0.134571 -0.0050085587
0.056705017 0.07161445 -0.061008457 -0.051371608 0.0035435243 0.10170825 -0.07572115 -0.21956438
-0.22011307 -0.05763448 0.03851526 -0.07950481 0.09533011 -0.065566644 -0.045482967 0.12407955
-0.13500203 -0.005247325 0.12525795 0.00330609 -0.16233537 -0.18555184 -0.035509344 -0.12868197
0.11029465 -0.022672353 -0.15071397 -0.09133669 0.038915344 -0.005010142 0.050409853 0.10304484
-0.008651837 0.0052110315 0.030031942 0.02429162 0.007658544 -0.030925084 -0.10095705 0.0028165902
0.15757671 -0.24279515 0.051371817 -0.061519604 0.073223 0.055337194 -0.046707954 -0.060195867
-0.046980016 0.032285966 0.042002108 -0.046011407 -0.08822575 -0.10486997 -0.005805228 -0.099908754
0.062414866 0.044003863 0.16572684 0.015169819 -0.11945972 0.008579471 0.12042638 0.08797667
-0.09874209 0.119893074 0.17874575 0.06097212 -0.002023214 -0.14884764 0.06193001 0.17867628
-0.034213766 0.04960775 0.05131963 -0.11412918 -0.13082331 0.11419512 -0.032172747 -0.081009716
0.043710697 0.11166842 -0.13240868 0.042819437 -0.09984811 -0.078497574 0.0065358547 -0.019115815
0.0525045 -0.06163783 0.017366836 -0.16600746 0.039716452 0.011682826 0.08095556 -0.08381995
-0.09910868 0.03755222 0.27888334 -0.0040273233 -0.07606556 0.025493164 -0.04870368 -0.053705633
0.10085061 -0.15112472 -0.13287649 -0.0356191 -0.06524895 -0.12892318 -0.010945182 0.002370905
-0.049993005 0.058042783 -0.17165883 0.11246755 -0.2337996 -0.09770682 0.121082604 0.027884856
-0.11026219 -0.15473498 0.032050047 0.006691182 -0.15325099 0.0885119 -0.0793894 0.012448975
0.07767052 -0.11045135 -0.084651135 0.064418584 -0.050489847 0.08104108 -0.0537131 -0.13525392
0.14107937 -0.022813138 -0.0722469 -0.1486405 0.007337432 0.07740107 -0.012905956 -0.011823394
-0.055579443 -0.04860188 -0.098929495 -0.10387908 0.23026684 -0.023540061 0.009259162 -0.04837722
-0.018191585 0.02953241 0.06491291 -0.0032116373 0.06898742 -0.18146905 -0.012627596 0.066793814
-0.085678644 0.06611287 0.11088675 0.15438965 -0.04069707 -0.052624386 0.0044481056 0.043078166
-0.016320292 0.041043747 -0.23144138 0.04685699 0.06683906 0.053831417 0.052633222 -0.002823913
-0.06572942 0.11134602 -0.012720231 0.020528737 0.007766083 0.06933456 0.038768932 0.16379863
-0.08536291 -0.008399782 -0.055260554 0.0794482 -0.0050573526 -0.14803165 -0.058953855 0.1245217
0.02534712 -0.060482275 -0.07939311 -0.15194626 0.048597567 -0.11453667 -0.054786902 0.095216796
-0.051812332 -0.14537948 0.041460987 0.17431691 0.040871944 -0.09340821 0.034733724 -0.0586656
