results/SheepHallway1/Hallway/Hallway-499972.onnx (onnx, 272191 bytes, 10 tensors)

96 f4 [1, 256, 128]
0	0x3e462543	0.19350152
1	0x3df7e536	0.121042654
2	0x3d752823	0.05985273
3	0x3e326c16	0.17424044
4	0xbddf2de3	-0.10897424
5	0xbd4d3544	-0.050099626
6	0x3e02b1cc	0.12763137
7	0xbe4865a8	-0.19570029
8	0xbdf2526c	-0.11832127
9	0xbe519c23	-0.20469718
10	0x3de99fe5	0.114074506
11	0xbcb637a0	-0.022243321
12	0xbc5acf46	-0.013355082
13	0x3d587eac	0.05285518
14	0xbe3d59dc	-0.1849131
15	0x3dce8e1f	0.10085701
16	0x3e2115fe	0.15731046
17	0x3ddf0cb0	0.10891092
18	0xbdc3aa7e	-0.09554003
19	0x3e1a22c5	0.15052326
20	0x3cc7c7f2	0.024387334
21	0xbe3af750	-0.18258405
22	0xbdc5843f	-0.096443646
23	0x3e21ee62	0.15813592
24	0xbe469f6f	-0.19396757
25	0x3e02ea66	0.12784728
26	0x3dc078e7	0.0939806
27	0xbc4f145d	-0.012639132
28	0x3a97456a	0.0011541073
29	0x3c40a30d	0.011757624
30	0x3c8cb2ab	0.01717504
31	0xbe0e31ea	-0.13886228
32	0x3e152cda	0.14567891
33	0xbcf6144d	-0.030038977
34	0xbc88f8e4	-0.016720243
35	0x3e37ddd7	0.17955719
36	0xbe2db86a	-0.1696488
37	0xbd9ea3e0	-0.077461004
38	0x3dd0375e	0.101668105
39	0xbda4be68	-0.080441296
40	0xbde84db4	-0.11342946
41	0x3e017217	0.12641178
42	0x3d4f72cf	0.0506466
43	0x3e4c71e4	0.19965321
44	0xbd644c02	-0.05573655
45	0x3dea6028	0.114441216
46	0xbe21cf3d	-0.15801711
47	0x3caedf66	0.021346759
48	0x3e2db045	0.16961773
49	0xbcc18cb8	-0.02362667
50	0xbdb6cf54	-0.089262635
51	0x3d50f5b1	0.05101556
52	0x3e583c31	0.21116711
53	0xbdb471fe	-0.08810805
54	0x3d979a15	0.07402436
55	0x3d255698	0.040365785
56	0x3ce15176	0.027504664
57	0x3e06bb4e	0.13157389
58	0x3d0997d6	0.033592068
59	0x3b681362	0.0035411944
60	0x3e15bd9c	0.14623111
61	0x3dee1e69	0.11626894
62	0x3c17b033	0.009258318
63	0x3d5a1411	0.053241793
64	0xbe08ba95	-0.13352425
65	0x3e30cdcf	0.1726601
66	0xbe482d56	-0.19548544
67	0xbe0a8847	-0.13528548
68	0xbd0922ca	-0.033480443
69	0xbd4a38fc	-0.04937075
70	0xbe04bbf8	-0.1296233
71	0x3d604cc5	0.054760713
72	0xbd509c5e	-0.050930373
73	0xbcad03da	-0.02112
74	0x3dfa6825	0.12226895
75	0x3cae2c76	0.021261435
76	0x3e074d78	0.13213146
77	0xbe11ee7b	-0.1425113
78	0xbe71beff	-0.23608015
79	0x3d295fbd	0.04135107
80	0xbdf6b961	-0.12047077
81	0x3d982db9	0.07430596
82	0x3de71e40	0.112850666
83	0xbd39dd7a	-0.045377232
84	0xbdafa5c8	-0.08576542
85	0x3d7f5e3f	0.06234574
86	0xbdf31939	-0.11870045
87	0xbd3a898e	-0.04554134
88	0xbd636ebc	-0.055525526
89	0xbdd3c9f5	-0.103412546
90	0xbd85d007	-0.06533819
91	0x3d5ce084	0.053925052
92	0xbc512686	-0.012765532
93	0xbd6f299c	-0.05838929
94	0xbdca163b	-0.098675214
95	0xbd3477f2	-0.0440597
96	0x3d0fa1e7	0.03506651
97	0xbdba7e51	-0.09106124
98	0x3d8cb053	0.06869569
99	0xbe35f92e	-0.17770836
100	0x3e8057fc	0.25067127
101	0xbcc58f89	-0.024116294
102	0xbcc6f3bb	-0.024286142
103	0xbd885941	-0.06657649
104	0xbd4fdad3	-0.050745796
105	0x3dcd20c3	0.100160144
106	0x3d6d5aa5	0.057947773
107	0xbd4ca2d5	-0.049959976
108	0xbc9a20f8	-0.018814549
109	0xbd8c6e12	-0.06856932
110	0x3c46f573	0.012143481
111	0xbce3e974	-0.02782128
112	0xbe4e5455	-0.20149358
113	0x3d2ec7f7	0.04267117
114	0xbd261ef2	-0.040556855
115	0xbdb775a2	-0.089579836
116	0x3e823ac1	0.2543545
117	0xbe065b50	-0.1312077
118	0x3e594f3d	0.21221633
119	0x3e3661ef	0.17810796
120	0x3da4366d	0.080181934
121	0x3e1e8894	0.15481788
122	0x3e20cf0e	0.15703985
123	0xbd6fef93	-0.058578085
124	0x3ba8a9a6	0.005147177
125	0xbd81c454	-0.06336275
126	0xbdff3ec7	-0.12463146
127	0x3d9616b6	0.073285505
128	0x3deb9c44	0.11504415
129	0xbd3ee5d1	-0.04660589
130	0x3afba542	0.0019199031
131	0x3d3e2b5c	0.04642807
132	0x3e1dfabb	0.15427677
133	0xbdf298d9	-0.118455596
134	0x3d3adbb3	0.045619678
135	0xbe0de79c	-0.13857883
136	0xbdbb913c	-0.09158561
137	0xbc7b08e6	-0.015321946
138	0x3d827233	0.06369438
139	0x3c04186d	0.008062464
140	0xbd9e545a	-0.077309325
141	0x3c9438b8	0.018093452
142	0xbe371858	-0.1788038
143	0xbe2b125b	-0.16706221
144	0xbbad8584	-0.0052954573
145	0x3d23204f	0.039825734
146	0xbda13eaa	-0.0787328
147	0x3da82477	0.0821008
148	0xbc59ea3e	-0.013300477
149	0x3dd45a60	0.103688
150	0x3d23eddc	0.040021762
151	0xbcbe2f3f	-0.023215888
152	0x3db49fa9	0.08819515
153	0x3e3af36a	0.18256918
154	0x3e2d3340	0.16914082
155	0x3e31074c	0.1728794
156	0x3dd47b74	0.10375109
157	0xbc9ffbdb	-0.019529274
158	0xbd974492	-0.073861256
159	0x3d9d89da	0.07692309
160	0x3e1fe5a7	0.15614949
161	0x3baafc1d	0.0052180425
162	0x3e51ef15	0.20501359
163	0x3e30e308	0.17274106
164	0x3da2a3b5	0.07941381
165	0xbdcb767e	-0.0993471
166	0xbd7851a7	-0.060624745
167	0x3dc0cd97	0.09414213
168	0x3d257f0b	0.04040436
169	0xbdf1e780	-0.11811733
170	0x3d86ad6c	0.06576046
171	0x3e00a63f	0.12563418
172	0x3dfdbcc7	0.12389522
173	0x3e11a57d	0.14223285
174	0xbdc8ce1b	-0.098049365
175	0x3ca91f00	0.020644665
176	0x3d35e5a2	0.044408448
177	0x3cd24ae9	0.025670486
178	0x3e83be9d	0.25731364
179	0xbdc336b4	-0.09531918
180	0x3d3563f4	0.044284776
181	0x3d8edcd3	0.069757126
182	0xbd7b3a4e	-0.0613349
183	0x3e7580f2	0.2397497
184	0x3c64273f	0.013925373
185	0xbdaf6021	-0.08563257
186	0xbdb4a229	-0.08819992
187	0xbc7e9b40	-0.015539944
188	0xbc5f64fb	-0.013634915
189	0x3ddc7fba	0.107665494
190	0x3c1fc185	0.0097507285
191	0xbdf64cc0	-0.12026358
192	0xbdc20578	-0.09473699
193	0xbe08cfd5	-0.13360532
194	0xbe0e0fb0	-0.13873172
195	0xbe4faf49	-0.2028171
196	0x3e060c72	0.13090685
197	0x3d806c1e	0.06270622
198	0xbe0aaa5f	-0.13541554
199	0xbe43748e	-0.19087431
200	0xbd4436eb	-0.047903936
201	0x3df8c269	0.12146456
202	0x3e416644	0.18886667
203	0x3e4929a8	0.19644797
204	0x3d13642f	0.035984214
205	0xbe0e97ef	-0.13925146
206	0x3cf02326	0.029313635
207	0x3cacd064	0.021095462
208	0x3dc94a73	0.09828653
209	0x3e3dafe2	0.18524125
210	0x3d399a18	0.04531297
211	0x3db6f25b	0.089329444
212	0xbdbb35af	-0.09141099
213	0xbd0e914c	-0.034806535
214	0x3d2a0bbd	0.0415151
215	0xbd2d795b	-0.04235206
216	0xbe2e9780	-0.1704998
217	0x3e172184	0.14758879
218	0x3db10b44	0.08644727
219	0xbe050263	-0.12989192
220	0xbe3c96a2	-0.18416837
221	0x3c3b61ee	0.0114369225
222	0xbd259422	-0.040424474
223	0xbdd1e689	-0.10249049
224	0x3e162d19	0.14665641
225	0xbcebe475	-0.02879546
226	0xbdbea00a	-0.09307869
227	0x3da5b06a	0.08090289
228	0x3e49bc96	0.19700846
229	0x3e1bd887	0.15219317
230	0x3e3d1a85	0.18467148
231	0x3e0ad102	0.13556293
232	0xbd2e2499	-0.04251537
233	0x3d32fe3c	0.043699488
234	0x3de6fa0a	0.1127816
235	0x3d157612	0.036489554
236	0xbd9e25ce	-0.077220544
237	0xbe4daa89	-0.20084585
238	0x3d2d91cc	0.04237537
239	0xbdb9fb75	-0.09081165
240	0xbe6d1cba	-0.2315549
241	0x3e2e2657	0.17006813
242	0xbce3c8e2	-0.02780575
243	0x3dd4c9c7	0.103900485
244	0x3d1ab4ff	0.037770268
245	0x3d6f2151	0.058381382
246	0xbd2e9324	-0.042620793
247	0xbdb9c80c	-0.09071359
248	0xbb88a83b	-0.0041704453
249	0xbbc9fafc	-0.006163953
250	0xbe129d74	-0.14317876
251	0xbd975ba0	-0.07390523
252	0x3e26335e	0.16230533
253	0x3d17dca3	0.03707565
254	0x3d31c7b7	0.043403354
255	0xbcf67fe5	-0.030090282

97 f4 [1, 256, 64]
0	0x3b8730f1	0.0041257073
1	0x3e810923	0.25202283
2	0x3e26e4e4	0.16298252
3	0xbdd082d6	-0.10181205
4	0xbc9f8fc7	-0.019477738
5	0xbdf2ce0c	-0.118557066
6	0xbb8550b4	-0.0040684585
7	0x3e73aa3f	0.23795412
8	0xbdd0a5c7	-0.101878695
9	0x3e51ff7e	0.20507619
10	0xbde4dce9	-0.11174948
11	0xbbace904	-0.005276801
12	0xbd0c2d82	-0.034223087
13	0xbca47017	-0.02007298
14	0xbd3c9a70	-0.04604572
15	0x3e0ffad4	0.14060527
16	0xbd508123	-0.050904404
17	0xbde64860	-0.11244273
18	0x3db416ab	0.08793386
19	0xbe77886e	-0.24173138
20	0xbd94b3e5	-0.07260875
21	0x3c81678a	0.015796442
22	0xbdc08df8	-0.094020784
23	0x3ddc7585	0.107646026
24	0x3e1ad514	0.15120345
25	0x3d991648	0.07474953
26	0x3ce0e01b	0.027450612
27	0xbe0f6e57	-0.14006935
28	0x3dabd758	0.08390683
29	0x3e1264ae	0.14296219
30	0xbd3714f9	-0.044697735
31	0xbe161697	-0.14657055
32	0xbde42b60	-0.111410856
33	0x3e20abf2	0.15690592
34	0x3d942d62	0.072352186
35	0xbdddbbc3	-0.10826828
36	0x3e68614d	0.22693367
37	0xbc29480b	-0.010332118
38	0x3ac97c97	0.0015372214
39	0x3d9b868d	0.07594023
40	0xbdba7c37	-0.09105723
41	0x3c6364c8	0.013879009
42	0xbdc3807a	-0.09545989
43	0xbde16cf6	-0.11007111
44	0xbe374620	-0.17897844
45	0x3e6fc10a	0.23413482
46	0xbcad29c0	-0.021138072
47	0xbcd6e604	-0.026232727
48	0x3bfb3b6f	0.007666997
49	0x3ea663b1	0.32497934
50	0xbd7cd854	-0.061729744
51	0xbe08e77e	-0.13369557
52	0x3dc5ca74	0.096577555
53	0xbe381ad2	-0.17978981
54	0x3dfdb056	0.12387149
55	0x3d3a6648	0.0455077
56	0x3e8d9639	0.27653673
57	0xbe67ac75	-0.22624381
58	0xbdf579ed	-0.11986146
59	0x3d4418ce	0.047875218
60	0xbd8c2197	-0.06842344
61	0x3e14a38c	0.14515513
62	0xbda8611d	-0.08221648
63	0x3dcd1560	0.100138426
64	0x3eaeaf74	0.34118235
65	0xbd8818ed	-0.06645379
66	0x3e075b18	0.13218343
67	0x3d04a3f7	0.03238293
68	0xba95881d	-0.0011408363
69	0xbb054901	-0.0020337703
70	0x3e67542c	0.22590703
71	0x3d99d4ca	0.075112894
72	0xbe81dbc9	-0.25362995
73	0xbcae47a8	-0.021274403
74	0xbe12fc92	-0.1435416
75	0xbc1d4da6	-0.009601032
76	0xbb9e0a21	-0.004822985
77	0x3e0e3cc2	0.13890365
78	0x3d7657d9	0.06014237
79	0x3e498b8e	0.19682142
80	0x3e7746b2	0.24148062
81	0x3e4811e9	0.19538082
82	0xbe2b7236	-0.16742787
83	0xbdb3f682	-0.08787252
84	0xbbc00f0d	-0.005861169
85	0xbdc6f76b	-0.0971516
86	0x3dfa786d	0.12230001
87	0xbe5446a6	-0.20730075
88	0x3dc4214f	0.095766656
89	0xbc7cd95a	-0.01543268
90	0xbe4b31c9	-0.1984321
91	0x3e9a26d9	0.30107763
92	0xbcc9a358	-0.024614021
93	0x3dc86d64	0.097864896
94	0xbd5c2196	-0.053742968
95	0xbd8901c9	-0.066897936
96	0xbddbea73	-0.10738077
97	0xbe61520c	-0.22003955
98	0x3e614c02	0.22001651
99	0x3d92bee2	0.07165314
100	0x3e17d462	0.14827111
101	0x3d3aab33	0.045573425
102	0xbe0d9381	-0.138258
103	0xbe0b5e16	-0.1361011
104	0xbd6d8fb4	-0.057998374
105	0xbdbb2b93	-0.091391705
106	0xbe17618f	-0.1478331
107	0x3aed5b72	0.0018108918
108	0x3da5dd5a	0.0809886
109	0x3e928333	0.28615722
110	0x3d8e723e	0.06955384
111	0xbe94a6ce	-0.29033512
112	0xbdf52256	-0.1196944
113	0x3df1636a	0.1178654
114	0x3dac5cdb	0.08416148
115	0xbd9f07ce	-0.077651605
116	0xbe947a7d	-0.289997
117	0x3dbf8473	0.093514346
118	0x3cbab41e	0.022790965
119	0x3d0c10b3	0.034195613
120	0xbd8ef99e	-0.069812045
121	0x3d6ceec8	0.057844907
122	0xbd34ede6	-0.04417219
123	0x3da81f65	0.08209113
124	0xbcff02f2	-0.031129334
125	0x3e527d4c	0.2055561
126	0x3d3c9940	0.046044588
127	0x3dbe3818	0.09288043
128	0x3e635036	0.22198567
129	0xbdfa98eb	-0.12236198
130	0x3e3aaa77	0.1822909
131	0xbdd613f3	-0.10453024
132	0x3dd1c433	0.102425
133	0xbca435d8	-0.020045206
134	0xbb1ddf13	-0.0024089261
135	0x3e6bf60a	0.23043075
136	0xbe6eea8a	-0.23331657
137	0xbe264157	-0.16235863
138	0x3e12fe64	0.14354855
139	0xbdbfbf14	-0.09362617
140	0xbe6829ed	-0.22672243
141	0x3e36680f	0.17813133
142	0xbd2d555d	-0.042317737
143	0xbc54887a	-0.012971992
144	0xbe34b419	-0.17646827
145	0x3e74c45c	0.2390303
146	0xbdfa8aca	-0.12233503
147	0x3e594110	0.21216226
148	0xbd94614d	-0.07245121
149	0x3e1e4bf5	0.15458663
150	0x3e8373e8	0.25674367
151	0xbe625ea4	-0.22106415
152	0xbcc5e895	-0.024158755
153	0xbdfcef2b	-0.12350305
154	0x3d19c8d6	0.037545048
155	0x3e2fc41e	0.17164657
156	0xbd8d2178	-0.06891149
157	0xbd5a7b5f	-0.053340312
158	0x3d00f4ca	0.03148345
159	0x3e27527b	0.16340058
160	0xbe1a3040	-0.15057468
161	0x3e734a2a	0.2375876
162	0xbe1180fd	-0.14209361
163	0xbcef916b	-0.029244145
164	0x3d64f40c	0.055896804
165	0x3d8c16f9	0.06840319
166	0xbe295054	-0.16534549
167	0x3e108209	0.14112104
168	0x3d23f273	0.04002614
169	0xbe80e1cf	-0.25172278
170	0x3ddb3327	0.10703116
171	0x3d5b750c	0.05357842
172	0xbd4fcce0	-0.050732493
173	0xbe200c5c	-0.15629715
174	0x3dc220f8	0.094789445
175	0xbd6e98bd	-0.05825113
176	0x3bc8901f	0.006120696
177	0x3e7caa3e	0.24674317
178	0xbe328d52	-0.17436722
179	0xbdd9ce96	-0.10635106
180	0xbe205f45	-0.15661342
181	0xbe55165a	-0.20809308
182	0xbda6d7ad	-0.08146606
183	0x3dd94ee9	0.10610754
184	0xbd2180e4	-0.03942956
185	0xbaccd458	-0.0015627248
186	0xbdb3c47b	-0.0877771
187	0x3e31782a	0.17330995
188	0xbda47d71	-0.080317385
189	0xbe05e874	-0.13076955
190	0x3d634ea6	0.055494927
191	0xbcb3d7b1	-0.021953436
192	0xbe356527	-0.17714368
193	0x3cea42af	0.02859625
194	0xbe4ce56e	-0.20009395
195	0xbccd3768	-0.025050834
196	0x3c42fbcf	0.011900856
197	0x3dbcb778	0.092146814
198	0x3da1ee3f	0.0790677
199	0x3cfd4fa5	0.030921767
200	0x3e1cf76b	0.15328757
201	0xbd408b05	-0.04700758
202	0xbc10fc54	-0.008849222
203	0xbb60f0c4	-0.0034323195
204	0x3e3ba50e	0.18324682
205	0xbca55d6e	-0.020186152
206	0x3dccf82c	0.100082725
207	0x3e53cbab	0.20683162
208	0x3dad0fbe	0.08450268
209	0x3e6b6d04	0.22990805
210	0x3e040d0a	0.12895599
211	0x3d080703	0.033209812
212	0xbe54097b	-0.20706742
213	0x3e1d71a7	0.15375386
214	0x3e053053	0.13006715
215	0xbe517d46	-0.20457944
216	0xbd9b114b	-0.07571658
217	0x3c6d6849	0.014490196
218	0xbe1616f9	-0.14657201
219	0xbd0745a7	-0.03302541
220	0xbe4c6046	-0.199586
221	0xbd8a391f	-0.06749176
222	0x3e066b06	0.13126764
223	0x3e0eb38c	0.13935679
224	0xbd296d5b	-0.041364055
225	0xbd127e09	-0.035764728
226	0x3e846cae	0.25864166
227	0x3e1529cb	0.14566724
228	0xbe37ab2b	-0.17936389
229	0x3e7a9fb7	0.24474989
230	0x3d9e23d5	0.07721678
231	0xbd0ecaf1	-0.03486151
232	0x3dfe9083	0.12429907
233	0x3dc4ac93	0.096032284
234	0x3e132d5a	0.14372769
235	0x3e294c40	0.16532993
236	0xbd88fd52	-0.06688942
237	0x3cfe393c	0.03103315
238	0xbe8446ed	-0.25835362
239	0x3db7f5ea	0.08982451
240	0x3d2a4686	0.041571163
241	0xbe41415b	-0.18872587
242	0x3e548718	0.20754659
243	0xbc82397c	-0.015896551
244	0xbe40a979	-0.18814649
245	0x3d686adf	0.056742545
246	0xbe90b8fe	-0.28266138
247	0xbe7a2f86	-0.24432191
248	0x3c578b81	0.013155819
249	0xbe59f2ed	-0.21284075
250	0x3df8eecb	0.12154921
251	0x3e28ac5a	0.16471997
252	0xbd69c52b	-0.0570728
253	0xbe09b07f	-0.13446234
254	0x3e133cf7	0.14378725
255	0x3c9dd262	0.019265357

98 f4 [1, 512]
0	0x3d93c3c0	0.07215071
1	0x3c794167	0.015213347
2	0x3ca74e2b	0.020423016
3	0x3da9fc16	0.08300035
4	0x3d8e0752	0.0693499
5	0x3d4e1fb0	0.05032319
6	0x3d845aad	0.064626075
7	0x3bbe3707	0.0058048996
8	0x3df3cc91	0.11904252
9	0x3db024c1	0.0860076
10	0x3d9aa121	0.07550264
11	0x3d3112a6	0.043230675
12	0x3cfd6ec1	0.0309366
13	0x3d3a401b	0.045471292
14	0x3cd1fd44	0.025633462
15	0x3db2cb34	0.08730164
16	0x3de2dd03	0.11077311
17	0x3dd7c5cd	0.105357744
18	0xbc4eee35	-0.012630035
19	0x3d38fa6f	0.045160707
20	0x3db0dfef	0.08636462
21	0x3d2abe98	0.04168567
22	0x3d4462a9	0.047945652
23	0x3d9fadda	0.077968314
24	0x3da79e3f	0.0818448
25	0x3db438d0	0.087998986
26	0x3be59b23	0.007007019
27	0x3dbc8d58	0.09206647
28	0x3d7a2963	0.061074626
29	0x3d12330c	0.035693213
30	0x3d24fe82	0.04028178
31	0x3da94174	0.08264437
32	0x3d024774	0.031806424
33	0x3d8a754e	0.06760655
34	0x3d82f5fe	0.063945755
35	0x3d002e7b	0.031294327
36	0x3dda91a7	0.10672312
37	0x3da563fe	0.080757126
38	0x3dde8db0	0.108668685
39	0x3d05243a	0.03250525
40	0x3de8deee	0.113706455
41	0x3c8bb1ae	0.017052498
42	0x3d91aa29	0.071125336
43	0x3d9fd859	0.07804937
44	0x3d5f7aae	0.054560356
45	0x3c490379	0.012268894
46	0x3dd37051	0.10324157
47	0x3d9a1d3d	0.07525108
48	0x3d3d60c7	0.046234872
49	0x3daa5aa2	0.08318068
50	0x3dab3b3c	0.083609074
51	0x3da7e028	0.08197051
52	0x3dd778e4	0.10521105
53	0x3e1031ea	0.1408154
54	0x3d76b36d	0.060229708
55	0x3d7a7e23	0.06115545
56	0x3de3f1a8	0.11130077
57	0x3d57bb93	0.05266912
58	0x3d89f159	0.067354865
59	0x3c228dac	0.0099214725
60	0x3d1469bf	0.03623366
61	0x3d7fefa3	0.062484395
62	0x3df532ed	0.11972604
63	0x3d85182b	0.0649875
64	0x3e10e472	0.14149645
65	0x3d21a01e	0.03945934
66	0x3dd02207	0.1016274
67	0x3db0a16c	0.08624539
68	0x3d3e54f9	0.046467755
69	0x3e024790	0.12722611
70	0x3dc486a8	0.09595996
71	0x3d12e10f	0.035859164
72	0x3d86c37d	0.06580255
73	0x3e1c8a38	0.15287101
74	0xb9f80104	-0.00047303003
75	0x3da9716d	0.082735874
76	0x3d944d98	0.07241362
77	0x3d959372	0.073035136
78	0x3d2e424d	0.042543698
79	0x3e1a687d	0.15078922
80	0x3d0c1165	0.034196276
81	0x3ddad9c9	0.106860705
82	0x3de560c2	0.11200096
83	0x3d727151	0.0591901
84	0x3d90b794	0.07066265
85	0x3d96c2a7	0.07361346
86	0x3c921bd5	0.017835537
87	0x3dc47fbd	0.09594677
88	0x3df2ad46	0.118494555
89	0x3e1a5b42	0.15073875
90	0x3d81d312	0.063390866
91	0x3e1b1b25	0.15147074
92	0x3d807b14	0.06273475
93	0x3d22dbf1	0.039760534
94	0x3d7f9d21	0.06240571
95	0x3d8a01c3	0.06738617
96	0x3dd1147b	0.102089845
97	0x3de60557	0.11231487
98	0x3ddb82d8	0.10718316
99	0x3dd6b242	0.10483219
100	0x3e0c6fd5	0.13714536
101	0x3d8a0c48	0.06740624
102	0x3d0825e9	0.03323928
103	0x3e15d903	0.14633565
104	0x3df70342	0.12061168
105	0x3d90e27f	0.07074451
106	0x3d7a4cba	0.06110833
107	0x3de40eee	0.1113566
108	0x3d1acd28	0.03779331
109	0x3df51726	0.11967306
110	0x3dc4635f	0.09589266
111	0x3da67007	0.08126836
112	0x3d57a2ba	0.052645423
113	0x3dc017d9	0.093795486
114	0x3d5edad0	0.054407895
115	0x3d887575	0.06663028
116	0x3dfdd02f	0.123932235
117	0x3dcbb369	0.09946329
118	0x3d8d6140	0.069033146
119	0x3ddb9085	0.10720924
120	0x3dde1d70	0.108454585
121	0x3d343267	0.04399338
122	0xbd148a2d	-0.036264587
123	0x3c0385d5	0.0080275135
124	0x3d56861a	0.052373983
125	0x3d672d8a	0.056439914
126	0x3e1d6e7d	0.15374179
127	0x3de2a741	0.110670574
128	0x3f8331db	1.024959
129	0x3f896400	1.0733643
130	0x3f799533	0.97493285
131	0x3f86c1d9	1.0527908
132	0x3f7b1d1e	0.98091304
133	0x3f7e330a	0.9929663
134	0x3f767e13	0.96286124
135	0x3f85a4dd	1.0440937
136	0x3f7bec8d	0.9840782
137	0x3f6d1cbb	0.92621964
138	0x3f7e2939	0.9928165
139	0x3f84e5f1	1.0382673
140	0x3f79e2bf	0.9761161
141	0x3f7eb4f5	0.9949487
142	0x3f82e463	1.0225948
143	0x3f7bed94	0.9840939
144	0x3f8208a2	1.0158885
145	0x3f8061f3	1.0029892
146	0x3f823ec6	1.0175407
147	0x3f82dc67	1.0223511
148	0x3f7ab823	0.9793722
149	0x3f8ae713	1.0851768
150	0x3f7f5d78	0.99751997
151	0x3f826a6b	1.0188726
152	0x3f86e99e	1.0540044
153	0x3f77d120	0.96803474
154	0x3f81ea39	1.0149604
155	0x3f831352	1.0240271
156	0x3f807bb0	1.0037746
157	0x3f8194a6	1.0123489
158	0x3f82ab5b	1.0208544
159	0x3f82d33b	1.0220712
160	0x3f86a6d9	1.0519668
161	0x3f88c2e0	1.0684471
162	0x3f82b0bd	1.0210186
163	0x3f80b9ea	1.0056736
164	0x3f8019f4	1.000792
165	0x3f81c070	1.0136852
166	0x3f7550a1	0.95826155
167	0x3f88acbd	1.0677716
168	0x3f77f5e1	0.96859556
169	0x3f817eaf	1.0116786
170	0x3f81c271	1.0137464
171	0x3f7c400a	0.98535216
172	0x3f7ede77	0.99558204
173	0x3f847894	1.0349298
174	0x3f83127e	1.0240018
175	0x3f8615ab	1.0475363
176	0x3f82180e	1.0163591
177	0x3f84083c	1.0315013
178	0x3f834659	1.0255843
179	0x3f8718a5	1.0554396
180	0x3f84a437	1.0362614
181	0x3f811332	1.0083983
182	0x3f746ec6	0.95481527
183	0x3f6e3317	0.93046707
184	0x3f849637	1.0358342
185	0x3f86af19	1.0522186
186	0x3f805552	1.0026038
187	0x3f7ea91f	0.9947681
188	0x3f74257e	0.9536971
189	0x3f79acb3	0.97529143
190	0x3f840c8a	1.0316327
191	0x3f809ffc	1.0048823
192	0x3cc80099	0.024414347
193	0x3cf77928	0.030209139
194	0x3ce685c6	0.02813996
195	0x3d10b305	0.035326976
196	0x3cc78ca6	0.024359059
197	0x3cf35fce	0.02970877
198	0x3dbc778e	0.09202491
199	0x3d6b3a61	0.05742872
200	0xbd877be3	-0.066154264
201	0xbc54d36c	-0.01298986
202	0xbd1e7b56	-0.03869184
203	0x3d9187b8	0.071059644
204	0xbd239a72	-0.039942212
205	0x3d05cbad	0.032664943
206	0x3cdf6839	0.027271377
207	0xb8547dac	-5.066178e-05
208	0x3db15a2f	0.08659779
209	0x3d3d514f	0.04622012
210	0x38fba7dd	0.0001199988
211	0x3c03e166	0.008049345
212	0xbc4bcb06	-0.012438541
213	0x3d55cff2	0.052200265
214	0x3cbd916f	0.023140637
215	0xbd5ecce8	-0.054394633
216	0xbba42a0d	-0.0050098957
217	0xbb4cef7d	-0.0031270676
218	0x3cd1a9f1	0.02559373
219	0x3d8d0944	0.06886533
220	0x3dea8ad2	0.11452259
221	0xbd98b587	-0.074564986
222	0x3c90b9b6	0.017666679
223	0xbde1d559	-0.11027021
224	0xbd834cf4	-0.06411162
225	0xbc7540f1	-0.0149690965
226	0x3c4f248d	0.012642992
227	0xbd5cd477	-0.05391356
228	0x3d4d64d6	0.050144993
229	0x3d27daac	0.040980026
230	0x3c89a58a	0.016802568
231	0xbd6ea7c3	-0.05826546
232	0x3c7f9232	0.0155988205
233	0xbc2f0945	-0.010683362
234	0xbcf6ef63	-0.030143445
235	0x3dab92f0	0.083776355
236	0x3d515cc4	0.05111386
237	0x3d7c8487	0.061649825
238	0xbd977a38	-0.07396358
239	0xbd9611c3	-0.073276065
240	0xbdc86c9e	-0.09786342
241	0x3d5cde8a	0.053923167
242	0xbd0d7114	-0.034531668
243	0xbac52eef	-0.0015043895
244	0xbd5dc207	-0.054140117
245	0x3c2d9f5b	0.010597075
246	0xbca7a43b	-0.020464053
247	0x3cef6669	0.029223638
248	0x3d8568d7	0.06514137
249	0xbb051d38	-0.0020311605
250	0x3c788725	0.01516894
251	0xbcd4152d	-0.025889004
252	0xbc9fbef7	-0.019500239
253	0x3c045971	0.008077965
254	0xbd86b21a	-0.06576939
255	0x3d301a0d	0.042993594

action_model._continuous_distribution.log_sigma f4 [1, 2]
0	0x3ebc7572	0.36808354
1	0x3f0463d4	0.51714826

action_model._continuous_distribution.mu.bias f4 [2]
0	0x3ccce5a3	0.025011843
1	0x3e4db248	0.2008754

action_model._continuous_distribution.mu.weight f4 [2, 64]
0	0x3d1f518f	0.03889614
1	0x3e3c0889	0.18362631
2	0xbe2e3767	-0.17013322
3	0x3e5cd874	0.21566945
4	0x3e92497b	0.28571686
5	0x3e7893a9	0.24275078
6	0x3cf14861	0.029453458
7	0x3d7ac5ea	0.0612239
8	0xbe042530	-0.12904811
9	0xbe935bee	-0.28781074
10	0x3ca0de9d	0.0196374
11	0x3d42c59e	0.047551744
12	0x3c3c0086	0.011474734
13	0x3db017a6	0.085982606
14	0x3e63a12f	0.22229455
15	0x3e7d5a43	0.24741463
16	0x3dfcb559	0.12339277
17	0xbcfdd13b	-0.030983558
18	0x399b5fa3	0.0002963516
19	0xbe24e250	-0.16101956
20	0x3e7f61ed	0.249397
21	0x3e06fc7a	0.1318225
22	0xbd89900f	-0.0671693
23	0xbdd394aa	-0.1033109
24	0x3e3a6745	0.18203457
25	0x3d8ffcc5	0.07030634
26	0xbe62bb6d	-0.2214181
27	0x3cf60eff	0.030036448
28	0x3d3e0b32	0.046397395
29	0x3d9ccea9	0.07656605
30	0x3e8bd035	0.27307287
31	0x3ca210ee	0.019783463
32	0xbcabf0e0	-0.020988882
33	0xbe33519a	-0.17511597
34	0x3e253bfd	0.16136165
35	0xbdc6c35a	-0.09705229
36	0xbcc8aad5	-0.024495522
37	0xbe0938dd	-0.13400598
38	0x3eb11fd7	0.34594604
39	0xbd1327ec	-0.035926744
40	0xbe82bd59	-0.25535086
41	0x3e16613f	0.14685534
42	0x3df47daf	0.11938035
43	0xbce782a0	-0.028260529
44	0xbe277bb8	-0.16355789
45	0xbcb6c6d2	-0.022311602
46	0xbc30708f	-0.010769024
47	0xbd8878cd	-0.06663666
48	0x3d81f23f	0.06345033
49	0xbcb108a5	-0.021610567
50	0xbd469e9d	-0.04849111
51	0x3e21d6bb	0.1580457
52	0xbc914a2f	-0.017735569
53	0x3ec75be8	0.38937306
54	0x3e575846	0.21029767
55	0x3ea9e509	0.33182552
56	0x3d92b742	0.0716386
57	0xbd50cbd9	-0.050975654
58	0x3e30e9b9	0.17276658
59	0xbe37b8d6	-0.17941603
60	0xbe51d208	-0.20490277
61	0x3df05569	0.11735041
62	0xbd297767	-0.041373637
63	0x3a8f7ab1	0.0010946599
64	0x3e8bd76a	0.27312785
65	0x3d83b316	0.06430642
66	0x3e6cb3ba	0.23115435
67	0xbd8a5491	-0.06754411
68	0x3df591c8	0.11990696
69	0xbe18d7b3	-0.14926033
70	0x3e898f8f	0.2686734
71	0x3e38a93d	0.1803331
72	0xbe614c33	-0.22001724
73	0xbe825567	-0.25455782
74	0xbe68b2fa	-0.22724524
75	0x3e82fb2a	0.25582248
76	0xbe7f66b1	-0.24941517
77	0x3e544e37	0.20732962
78	0x3e4880ac	0.19580334
79	0xbe1d1af4	-0.15342313
80	0x3e783959	0.24240626
81	0x3e727e42	0.23680976
82	0xbe766ecd	-0.24065705
83	0xbd6ddf63	-0.058074366
84	0xbd793699	-0.060843084
85	0x3e6822d6	0.22669539
86	0xbdad4fe9	-0.08462507
87	0xbe8ef154	-0.27918494
88	0x3e105966	0.14096603
89	0xbe691cd4	-0.22764903
90	0x3e1ed8a3	0.15512328
91	0x3e7ba750	0.24575543
92	0x3e699d03	0.22813801
93	0xbe282369	-0.16419758
94	0x3e0a664d	0.13515587
95	0xbe879b8a	-0.26485854
96	0xbe8f5a58	-0.27998614
97	0xbdcd54ed	-0.10025964
98	0xbe2ece3b	-0.17070858
99	0xbe43536d	-0.19074793
100	0x3e6b0779	0.2295207
101	0x3dca27a1	0.0987084
102	0xbc9bb53a	-0.019007314
103	0xbe592427	-0.21205197
104	0x3be4b4be	0.006979554
105	0xbe575b70	-0.21030974
106	0x3e41910b	0.18902986
107	0x3e6dc23d	0.23218627
108	0x3db8de7e	0.09026812
109	0x3e64fb4c	0.22361487
110	0xbe501b4a	-0.2032291
111	0xbe873e2f	-0.2641463
112	0xbe50a70c	-0.20376223
113	0x3e548ddd	0.20757242
114	0xbe7c3584	-0.2462979
115	0x3e4c3cb0	0.19945025
116	0xbe76df77	-0.24108683
117	0x3dcc6ff5	0.099822916
118	0xbd6f73c1	-0.05846
119	0x3d507e98	0.05090198
120	0x3e918971	0.28425172
121	0xbdda411a	-0.106569484
122	0x3d89aa35	0.067219175
123	0xbd66f2ce	-0.0563839
124	0xbd2b016b	-0.0417494
125	0x3e5d789f	0.21628045
126	0xbe88a216	-0.26686162
127	0x3e529c44	0.20567423

network_body._body_endoder.seq_layers.0.bias f4 [128]
0	0xbaeb978d	-0.0017974243
1	0xbd0e03e0	-0.034671664
2	0xbb0d6677	-0.0021575966
3	0x3d709e1c	0.058744535
4	0x3d82e30c	0.06390962
5	0xbc2ad27d	-0.010426161
6	0x3cdee226	0.027207445
7	0x3c8d1cdf	0.01722568
8	0x3d55e80d	0.052223254
9	0x3c851b83	0.01624847
10	0xbcb47bb7	-0.022031648
11	0x3c919ebe	0.01777589
12	0x3d09d1a8	0.03364721
13	0x3d118720	0.035529256
14	0xbc5e330b	-0.013561974
15	0x3b99e337	0.0046962756
16	0x3d5af394	0.05345495
17	0xbbe256f8	-0.00690734
18	0x3d0e73bb	0.034778338
19	0x3c5d49b3	0.013506341
20	0xbc106c5f	-0.0088149
21	0x3c1d1d35	0.009589483
22	0x3b383cd6	0.0028112433
23	0x3cf1def4	0.029525258
24	0x3d9ce92b	0.07661661
25	0xbc53324c	-0.01289041
26	0xbc21cd61	-0.009875626
27	0x3d3fa24d	0.04678564
28	0xbd5b9171	-0.0536055
29	0xbbfc923d	-0.0077078626
30	0x3bd9ffa9	0.0066527915
31	0x3d97a100	0.07403755
32	0xbcbc1a70	-0.022961825
33	0x3b22e9fa	0.00248587
34	0x3dbf2470	0.09333122
35	0xbcac1476	-0.02100585
36	0x3d6db7d6	0.058036648
37	0x3b3d1bd1	0.0028855691
38	0x3d2f927b	0.042864304
39	0xbcb2359a	-0.021754075
40	0x3c936ca6	0.017996144
41	0xbca6658d	-0.020312095
42	0x3ce88b0f	0.02838662
43	0x3c758fb4	0.014987875
44	0x3d8689ae	0.06569229
45	0xbcad80df	-0.021179615
46	0x3d9d284e	0.07673703
47	0x3c8bdf0f	0.017074136
48	0x3c94837f	0.018129108
49	0xbda88cd1	-0.082299836
50	0x3d21e1f4	0.039522126
51	0x3da1ecfc	0.07906529
52	0x3c89387d	0.016750569
53	0x3c3cec12	0.011530893
54	0xbb316a45	-0.0027071398
55	0x3b73f219	0.003722316
56	0x3cf42120	0.029800951
57	0x3d82c57c	0.063853234
58	0xbca5ae42	-0.020224694
59	0x3d1fddcf	0.039029893
60	0x3d892c24	0.06697872
61	0xbca86906	-0.020557892
62	0x3d7168a7	0.058937695
63	0x3c85809c	0.016296677
64	0x3d21547d	0.039387215
65	0x3d9ff39c	0.07810137
66	0x3d76288d	0.060097266
67	0x3c3911b4	0.011295725
68	0x3d0b9595	0.0340782
69	0x3c8f0b12	0.017461333
70	0x3d182666	0.037145995
71	0x3cba13fb	0.022714606
72	0x3ca3ce45	0.019995818
73	0x3c30daee	0.010794384
74	0x3d0e517a	0.03474567
75	0xbdc35dd6	-0.09539382
76	0x3cbe6eaa	0.023246128
77	0xbd5fa97a	-0.054604985
78	0xbcd4d4fe	-0.025980469
79	0xbd4cacf2	-0.04996962
80	0x3d0312f3	0.032000493
81	0xbd2c092d	-0.04200094
82	0x3cdd7f76	0.027038317
83	0x3cce06e9	0.02514978
84	0xbda77994	-0.08177486
85	0x3ae2885b	0.0017283069
86	0x3ca63327	0.020288063
87	0x3ce37fe6	0.027770948
88	0xbabe1ad0	-0.001450384
89	0xbbdae047	-0.006679568
90	0x3c5b25ab	0.01337568
91	0xbd9f880c	-0.07789621
92	0x3cef3d39	0.029203998
93	0xbc50632c	-0.012718957
94	0x3d8c8bef	0.06862628
95	0xbbbeebbf	-0.005826443
96	0xbbeb4a1e	-0.0071804663
97	0x3c53458c	0.012894999
98	0xbcb6f7fb	-0.022335043
99	0x3d453874	0.04814954
100	0x3cd2438f	0.02566698
101	0x3dc3e9cd	0.09566078
102	0x3b8fd7f1	0.004389756
103	0x3cd997ff	0.026561735
104	0x3d0c3080	0.03422594
105	0xbc1bdb87	-0.009512789
106	0xbcbe2f42	-0.023215894
107	0x3c7e7e08	0.015532978
108	0x3c9c08bd	0.019047135
109	0x3d840044	0.06445363
110	0xbd188fca	-0.037246503
111	0xbc365829	-0.011129417
112	0x3ce15eeb	0.02751108
113	0x3d19ded1	0.03756601
114	0x3d5764d7	0.052586403
115	0xbd3a87fd	-0.045539845
116	0x3d06f914	0.032952383
117	0x3b0b18be	0.0021224464
118	0xbbb979df	-0.00566028
119	0x3d4a9393	0.049457144
120	0x3d3d8386	0.04626801
121	0x3b9b1740	0.004732996
122	0xbb39a5b8	-0.0028327536
123	0x3b9db3b5	0.0048126825
124	0xbcdd300e	-0.027000453
125	0xbcfc9b90	-0.030835897
126	0x3bc17441	0.005903751
127	0x3cb82d5a	0.022482563

network_body._body_endoder.seq_layers.0.weight f4 [128, 7]
0	0x3f0535cf	0.5203523
1	0x3e916f31	0.28405145
2	0x3c6d7e96	0.0144955125
3	0xbf3179a9	-0.69326264
4	0xbec60f62	-0.3868361
5	0x3ebda2c3	0.3703824
6	0xbf180f7d	-0.59398633
7	0x3f145e95	0.5795682
8	0x3efcca4b	0.49373087
9	0xbe525ffc	-0.20544428
10	0x3cc228f3	0.023701167
11	0xbdeec4d1	-0.116586335
12	0x3f12c0d4	0.5732548
13	0xbea44ea1	-0.3209124
14	0xbf07a6fc	-0.5298917
15	0x3db78353	0.08960595
16	0x3e525e03	0.20543675
17	0x3e03b962	0.12863687
18	0xbdb969b9	-0.09053368
19	0xbd9b1de0	-0.075740576
20	0x3f24285c	0.64124084
21	0xbef6f4d1	-0.48233655
22	0x3f82bece	1.0214479
23	0x3c08cd01	0.008349658
24	0xbf39592b	-0.72401685
25	0xbd8337ef	-0.06407153
26	0xbe6fb26b	-0.23407905
27	0xbcd5e81f	-0.02611166
28	0xbdc079fe	-0.09398268
29	0xbd51c808	-0.051216155
30	0x3e5bf46e	0.21479961
31	0xbdf37a49	-0.118885584
32	0x3f229975	0.63515407
33	0xbf1c7b37	-0.6112551
34	0xbf703f65	-0.9384673
35	0xbe5f7d16	-0.2182506
36	0xbd1e157f	-0.03859472
37	0x3e26bd49	0.16283144
38	0x3e748ba6	0.23881397
39	0x3d8a1e3f	0.0674405
40	0x3e4f534c	0.20246619
41	0x3d7d6a76	0.061869107
42	0x3d583b86	0.05279114
43	0xbd46da68	-0.048548132
44	0xbf0e108c	-0.55494
45	0x3d0364b3	0.032078456
46	0x3e8064b5	0.25076833
47	0xbed06f84	-0.4071008
48	0x3e1b9d3a	0.15196696
49	0x3effbced	0.49948826
50	0x3ebd0bc0	0.36923027
51	0xbf735652	-0.9505359
52	0xbe5bdeec	-0.21471757
53	0xbdf9520e	-0.12173854
54	0xbe3d5647	-0.18489943
55	0x3e399071	0.18121506
56	0xbcd270f3	-0.025688624
57	0x3ce05dac	0.027388416
58	0xbd8a929e	-0.06766246
59	0xbd756916	-0.05991467
60	0xbf21d864	-0.6322081
61	0x3ecd9adf	0.4015722
62	0x3e63ff47	0.2226535
63	0xbf13657f	-0.57576746
64	0xbf021ed2	-0.5082828
65	0xbe03e011	-0.12878443
66	0xbecd1ab8	-0.40059447
67	0x3de50e26	0.11184339
68	0xbd5bda31	-0.05367488
69	0xbf0a71a2	-0.5407964
70	0x3ec9f110	0.3944173
71	0xbf6845d7	-0.9073157
72	0xbf4b35f3	-0.79379195
73	0xbd97b9e8	-0.07408506
74	0xbebe4aeb	-0.37166533
75	0x3ec875ba	0.39152318
76	0x3ec76395	0.38943163
77	0xbd82691d	-0.06367705
78	0xbe1fe2f2	-0.15613917
79	0x3e3e059b	0.18556826
80	0x3e9755fb	0.29557785
81	0xbdeadfef	-0.11468493
82	0x3f82d6b5	1.0221773
83	0x3c9f5577	0.019449933
84	0x3f69fa18	0.9139724
85	0xbd895d79	-0.067072816
86	0x3ee8988b	0.4542888
87	0xbe8fc7d9	-0.2808216
88	0xbf3d5f49	-0.7397352
89	0x3f378c04	0.7169802
90	0xbf828c57	-1.0199078
91	0x3f105270	0.5637579
92	0x3da55931	0.080736525
93	0x3e718e14	0.23589355
94	0xbf0be873	-0.54651564
95	0xbf2524c3	-0.6450922
96	0x3f5bde1c	0.85885787
97	0x3f2209c8	0.63296175
98	0xbeb39d6b	-0.35081038
99	0x3f081129	0.53151184
100	0x3ed2dd1b	0.41184315
101	0x3e27285d	0.16323991
102	0xbcefbf45	-0.02926601
103	0xbf093474	-0.5359566
104	0x3e98e397	0.29861137
105	0xbddce04f	-0.10784971
106	0xbe93923d	-0.28822508
107	0x3f368019	0.7128921
108	0xbc93794b	-0.018002173
109	0xbe671837	-0.22567831
110	0xbe7cd27d	-0.2468967
111	0x3e43bf97	0.19116054
112	0xbf3ce395	-0.7378476
113	0xbee0f0d2	-0.4393373
114	0x3c474946	0.012163466
115	0xbe58afe0	-0.21160841
116	0x3f1037a3	0.56334895
117	0x3f163167	0.5866913
118	0x3996115d	0.00028623166
119	0x3f389c0c	0.7211311
120	0x3ec8fa8a	0.39253646
121	0x3f0279ab	0.509669
122	0x3f3f9c63	0.74848
123	0xbf22a0d8	-0.6352668
124	0x3d96f050	0.07370055
125	0x3ecc1dd8	0.3986652
126	0x3edfdc5e	0.43722814
127	0xbe2f2d23	-0.17107062
128	0xbf71898d	-0.9435051
129	0x3e4cb008	0.19989026
130	0xbe0d1a94	-0.1377967
131	0x3e087bfe	0.1332855
132	0xbe626a81	-0.2211094
133	0xbf1ba54d	-0.60799104
134	0x3e312ee5	0.17303045
135	0xbe003222	-0.12519124
136	0x3e754684	0.23952681
137	0xbd1f8e0d	-0.03895383
138	0xbe0c08da	-0.13675252
139	0xbdecae26	-0.11556654
140	0xbe02167c	-0.1270389
141	0xbd2ae035	-0.041717727
142	0x3e3b18f1	0.18271233
143	0x3f15d1da	0.58523333
144	0xbe97fe25	-0.29686084
145	0x3ef10467	0.4707367
146	0x3edec603	0.43510446
147	0x3f342792	0.7037288
148	0xbdec1eb4	-0.11529294
149	0x3e770a3d	0.24125
150	0x3e2ceee4	0.16888005
151	0x3e40e58f	0.1883757
152	0x3f28ae60	0.65891075
153	0x3f6608b0	0.89857006
154	0xbee875eb	-0.45402464
155	0x3f3d7fd6	0.7402319
156	0x3dab9de8	0.083797276
157	0xbd2b726c	-0.041857168
158	0x3d8b2b8d	0.06795416
159	0x3da19723	0.07890155
160	0x3f342e63	0.7038328
161	0xbc7b2514	-0.015328664
162	0xbeb4a594	-0.35282576
163	0xbf6ab334	-0.9167969
164	0x3f1d5af7	0.61466926
165	0x3e5637bc	0.20919698
166	0xbf545a18	-0.8294997
167	0x3e90f5a9	0.28312424
168	0xbcc6b733	-0.024257278
169	0xbe350342	-0.17677024
170	0xbef78d2b	-0.4834989
171	0xbe3e8593	-0.18605642
172	0x3e627fe0	0.22119093
173	0xbe92a4e5	-0.2864143
174	0xbea4c4c5	-0.32181373
175	0xbd1b2eca	-0.03788642
176	0xbf747897	-0.95496505
177	0x3ea6b876	0.32562608
178	0x3ed9242d	0.42410412
179	0x3e45380e	0.19259664
180	0x3f03ff1b	0.51561135
181	0x3ea95066	0.33069152
182	0x3f1c8f74	0.6115639
183	0xbefbe328	-0.49196744
184	0xbd80601a	-0.0626833
185	0x3f3fe82d	0.7496365
186	0xbe2769c4	-0.1634894
187	0xbe83f052	-0.25769287
188	0x3f0ec85c	0.55774474
189	0x3ead4bb8	0.3384683
190	0x3e8e7d48	0.27829957
191	0xbf1e44e7	-0.61823887
192	0xbeef9078	-0.46789908
193	0xbe1c98ea	-0.15292707
194	0xbe8db4a3	-0.27676877
195	0xbe452f2f	-0.1925628
196	0x3e478886	0.19485673
197	0x3e82d541	0.25553325
198	0xbe289fee	-0.16467258
199	0x3ea19c94	0.31564772
200	0xbe023b9e	-0.12718055
201	0x3e91102a	0.28332645
202	0xbe05fb78	-0.13084209
203	0x3f07a32b	0.5298335
204	0xbe65fad0	-0.22458959
205	0xbf38e7f9	-0.7222896
206	0x3eaaa1d1	0.3332658
207	0x3d384f43	0.044997465
208	0xbdd54289	-0.10413081
209	0x3f1fde72	0.624488
210	0xbeb2a1da	-0.34889108
211	0xbe47c2a1	-0.19507839
212	0xbe0547f2	-0.13015726
213	0xbef9fb36	-0.4882447
214	0x3e1e8562	0.15480569
215	0xbea1819a	-0.3154419
216	0xbe8c0c3d	-0.27353087
217	0xbe86d797	-0.26336357
218	0x3f73525e	0.9504756
219	0x3e135812	0.14389065
220	0xbf1a1bbf	-0.6019859
221	0xbe31e72a	-0.17373338
222	0x3ea4b70e	0.3217091
223	0x3ece3899	0.40277556
224	0xbf050a49	-0.5196882
225	0x3de418da	0.111375526
226	0x3d28b0af	0.041184124
227	0x3f186d87	0.59542125
228	0x3e467d5f	0.19383763
229	0xbe5e8002	-0.21728519
230	0xbd8514c5	-0.06498102
231	0x3e5c93e4	0.21540791
232	0xbe57a23a	-0.21057978
233	0x3ee10e58	0.43956256
234	0x3e81444e	0.25247425
235	0xbe10c20b	-0.14136522
236	0x3e0a97ea	0.13534513
237	0xbe92fa5c	-0.28706634
238	0x3ded2ce8	0.11580831
239	0xbcae730d	-0.021295095
240	0xbf6341e0	-0.8877239
241	0xbd785a19	-0.0606328
242	0x3f1bf271	0.6091681
243	0x3e4f3ee4	0.20238835
244	0xbeb62925	-0.35578266
245	0x3dd7d4d1	0.105386384
246	0x3e709dd3	0.23497705
247	0x3dbbe968	0.09175378
248	0xbec8e481	-0.39236835
249	0x3e2f4aeb	0.17118423
250	0xbf0ef196	-0.5583738
251	0x3ec15658	0.37761188
252	0x3e2c48e2	0.16824678
253	0xbe16129b	-0.14655535
254	0xbda7cc53	-0.081932686
255	0xbea0d425	-0.31411853

network_body._body_endoder.seq_layers.2.bias f4 [128]
0	0x3bfc8928	0.00770678
1	0x3d488f57	0.048964825
2	0x3c8bff28	0.017089441
3	0x3c122e7d	0.0089222165
4	0x3c073943	0.008253398
5	0xbb8f73a7	-0.0043778005
6	0x3ca2c862	0.01987094
7	0xbcef87a3	-0.029239481
8	0x3cd27e4c	0.025694989
9	0x3c0e41d4	0.008682687
10	0x3d7f7001	0.062362675
11	0x3d165d80	0.036710262
12	0x3d1d32b4	0.038378432
13	0x3cb4df2e	0.022079077
14	0xbd25c092	-0.040466852
15	0xbd47eeed	-0.04881184
16	0x3d82dc2d	0.063896514
17	0x3aaba39f	0.0013095028
18	0xbd4e57c0	-0.050376654
19	0x3d42a4e9	0.04752055
20	0x3cf9433a	0.030427564
21	0xbc750619	-0.014955067
22	0x3cc98f58	0.024604484
23	0x3cb5d561	0.022196474
24	0xbc21f682	-0.009885432
25	0x3d3a28f1	0.0454492
26	0x3d4fc489	0.05072454
27	0x3d3fe338	0.046847552
28	0x3d37e06a	0.044891752
29	0x3d18f506	0.037343048
30	0xbcedd132	-0.029030416
31	0xbae2f25b	-0.0017314659
32	0x3d0b9808	0.034080535
33	0xbb9eb476	-0.00484329
34	0x3cdc00f4	0.026855923
35	0x3cdfcb1e	0.027318534
36	0xbcc224dc	-0.023699217
37	0x3d239cf7	0.039944615
38	0x3cb70660	0.022341907
39	0x3d21a179	0.039460633
40	0x3cffb0ba	0.0312122
41	0x3cd3320b	0.025780698
42	0x3c772114	0.01508357
43	0x3d1bc9dc	0.038034305
44	0x3d2ade8d	0.041716147
45	0xbc206720	-0.009790212
46	0xbba3d45d	-0.004999681
47	0xbd40b163	-0.04704417
48	0xbc0f8ef4	-0.00876211
49	0xb99969f9	-0.0002926139
50	0x3c5fda90	0.013662949
51	0xba5a6464	-0.00083309994
52	0x3d356705	0.0442877
53	0xbc1928a0	-0.009348065
54	0x3cfac1b4	0.030609943
55	0x3c7a674c	0.015283417
56	0x3ccfb563	0.025355047
57	0x3c708a31	0.014681385
58	0x3c328b59	0.010897481
59	0x3d85d221	0.065342195
60	0x3c146172	0.009056436
61	0xbcae1cc6	-0.021253955
62	0x3d3c32ad	0.045946766
63	0x3b82e83d	0.00399497
64	0x3c51bf48	0.012801953
65	0x3bec56d0	0.0072124973
66	0x3c17c64d	0.009263587
67	0xbd2991e4	-0.041398898
68	0xbcb17bed	-0.021665538
69	0x3ac43b29	0.0014971244
70	0x3c9b4897	0.018955512
71	0xbd7f1ea2	-0.062285073
72	0x3d68067d	0.056646813
73	0x3b909f8f	0.004413552
74	0x3d16c5cc	0.036809728
75	0x3d332d7c	0.04374455
76	0x3c1fbf97	0.009750268
77	0x3ba9e747	0.005185041
78	0xbd1c783a	-0.038200594
79	0xbb1de581	-0.0024093094
80	0xbbfd1e34	-0.0077245478
81	0x3cd8fae7	0.026486827
82	0x3cbc489b	0.02298384
83	0x3ca033aa	0.019555885
84	0x3bdf074f	0.006806291
85	0x3d61717e	0.055039875
86	0xbcb83c88	-0.022489801
87	0x3cfc5a61	0.030804815
88	0xbb12d19f	-0.0022402776
89	0x3cd9525c	0.02652853
90	0x3b9b54e5	0.004740345
91	0x3b963cbc	0.004584877
92	0x3c8744ab	0.016512236
93	0x3cc13378	0.023584113
94	0xbc148ba6	-0.009066498
95	0x3ccbf47e	0.024896856
96	0x3be98512	0.007126459
97	0xbbc37fa4	-0.0059661437
98	0xbd7489f3	-0.05970187
99	0x3bd3874f	0.006455339
100	0x3d87d061	0.06631542
101	0xbd551860	-0.0520252
102	0x3d93e167	0.072207265
103	0x3ca3ee9c	0.020011239
104	0x3d094aa0	0.033518434
105	0x3d33bf88	0.04388383
106	0xbc041c1a	-0.008063341
107	0xbc6f0a30	-0.014589831
108	0x3d0a8b67	0.03382435
109	0xbcbef8ba	-0.023311961
110	0xbca62300	-0.020280361
111	0x3d008f4c	0.03138666
112	0xbd35a8e8	-0.044350535
113	0x3cc985f6	0.02460001
114	0x3d2db66a	0.04241029
115	0x3d392017	0.04519662
116	0x3d46eec9	0.048567567
117	0xbba2eb88	-0.004971925
118	0x3cd462e3	0.02592606
119	0x3cdd2087	0.02699305
120	0x3c3befb1	0.011470721
121	0x3d3dfa74	0.04638143
122	0x3d10231b	0.03518973
123	0x3d6e8528	0.058232456
124	0x3d2f6f57	0.04283079
125	0x3c93077f	0.01794791
126	0x3cd82afc	0.026387684
127	0xbd02f5f5	-0.031972844

network_body._body_endoder.seq_layers.2.weight f4 [128, 128]
0	0xbe1e1fb1	-0.15441777
1	0x3d5008fa	0.05078981
2	0xbdf06786	-0.117384955
3	0xbcb34edd	-0.02188819
4	0x3da2419c	0.0792267
5	0x3d56a786	0.052405857
6	0xbe4e7a88	-0.2016393
7	0xbc847f40	-0.016173959
8	0xbde4b570	-0.11167419
9	0x3d81a2fd	0.06329916
10	0xbd077f69	-0.033080492
11	0x3c53dea6	0.0129315015
12	0x3d959822	0.07304408
13	0xbe2526c7	-0.16128074
14	0x3c74c93c	0.014940556
15	0xbe36c21b	-0.17847483
16	0xbd06e900	-0.03293705
17	0xbcb7a5e4	-0.02241797
18	0x3d80e393	0.06293406
19	0xbc131b1e	-0.008978633
20	0xbdc2f946	-0.095202014
21	0xbde29272	-0.110630885
22	0xbced49a2	-0.028965775
23	0x3e3ab570	0.18233275
24	0x3c8cfbda	0.017209936
25	0xbc43a75f	-0.01194176
26	0xbdab527d	-0.08365343
27	0xbd4d2774	-0.050086454
28	0x3d2b60db	0.041840415
29	0x3def3606	0.11680226
30	0x3d294cb3	0.04133291
31	0xbd57c7a8	-0.05268064
32	0xbd5eab8a	-0.05436281
33	0x3c0e4432	0.008683251
34	0x3d9667d2	0.07344021
35	0xbe858dfb	-0.26084885
36	0x3d42f9f8	0.04760167
37	0xbdf0618a	-0.11737354
38	0xbde1bd50	-0.110224366
39	0xbd8db5bf	-0.06919431
40	0xbb828f0f	-0.003984339
41	0x3d7a391e	0.061089627
42	0xbd9f824a	-0.077885225
43	0x3c8149ed	0.01578232
44	0x3d574239	0.05255339
45	0xbd0af7eb	-0.03392784
46	0xbd11cabc	-0.035593733
47	0x3e69d711	0.22835948
48	0x3e168f25	0.14703043
49	0xbd8eafa2	-0.06967093
50	0x3ce4c0e7	0.027924014
51	0xbdb97760	-0.09055972
52	0xbdb7e1cc	-0.08978614
53	0x3d892588	0.06696612
54	0xbd4d7044	-0.050155893
55	0xbc363a36	-0.011122277
56	0x3d2bee1a	0.04197512
57	0xbe000b05	-0.12504204
58	0x3e41791c	0.18893856
59	0xbc68dfdc	-0.0142135285
60	0xbda413d3	-0.08011594
61	0xbe0569a4	-0.1302858
62	0xbdb7bbed	-0.08971391
63	0xbd877272	-0.066136256
64	0xbd178197	-0.03698882
65	0x3c14e098	0.00908675
66	0xbd65c2b5	-0.05609389
67	0xbd4a8aa9	-0.049448643
68	0xbd4a6020	-0.04940808
69	0xbdb5fe4e	-0.088863954
70	0x3ccaeca0	0.024771035
71	0x3dc1f436	0.09470408
72	0xbd9f41ce	-0.07776223
73	0xbdd83fe8	-0.10559064
74	0x3c812532	0.015764806
75	0xbca397af	-0.01996979
76	0xbe2f4028	-0.17114317
77	0x3c9612db	0.018319538
78	0x3e374760	0.17898321
79	0xbd73c417	-0.059513178
80	0xbd3c7f42	-0.0460198
81	0x3d28b268	0.041185766
82	0x3d58892c	0.052865192
83	0x3d7e3ef6	0.062071763
84	0xbde55b74	-0.11199084
85	0xbc51d321	-0.012806685
86	0xbdda6005	-0.106628455
87	0x3dc42f37	0.09579318
88	0x3e2ab926	0.16672191
89	0xbd005728	-0.03133312
90	0xbe275f4a	-0.16344944
91	0x3e1f60d4	0.15564281
92	0xbe085105	-0.13312156
93	0x3c8df407	0.017328275
94	0xbd9a97c7	-0.075484805
95	0x3c84f94a	0.016232152
96	0xbe2a1df1	-0.16612984
97	0x3d598b22	0.053111203
98	0xbda33cb0	-0.079705596
99	0x3d6721af	0.056428608
100	0xbdc556c6	-0.09635691
101	0x3d5eefb5	0.05442782
102	0x3cf4b92b	0.029873451
103	0xbc6c3d29	-0.014418879
104	0xbdd8b6ce	-0.10581742
105	0x3dfa5c35	0.12224618
106	0xbd560dfd	-0.052259434
107	0x3e3aa2f1	0.1822622
108	0x3d6014de	0.0547074
109	0x3d9c8b46	0.07643752
110	0x3c0b8749	0.008516141
111	0xbd725aee	-0.05916875
112	0xbda0014d	-0.07812748
113	0xbd9f2c16	-0.077720806
114	0xbca45d07	-0.02006389
115	0x3d6e1381	0.05812407
116	0xbe5d7687	-0.21627246
117	0x3d8d9163	0.06912496
118	0xbdc2a046	-0.09503226
119	0xbd8ee576	-0.0697736
120	0xbd9fbac6	-0.07799296
121	0xbd8c32b7	-0.068456106
122	0xbd811d29	-0.0630439
123	0xbd515aa3	-0.05111183
124	0x3d3761c9	0.04477099
125	0xbe779510	-0.24177957
126	0xbe2d6488	-0.16932881
127	0xbe6537aa	-0.22384515
128	0xbd7328a5	-0.059364934
129	0x3e862fd7	0.26208374
130	0xbde55f46	-0.111998126
131	0x3da41a6c	0.08012852
132	0xbcac277d	-0.021014923
133	0x3d85f5ad	0.065409996
134	0xbde247b9	-0.11048836
135	0xbde5eb59	-0.1122653
136	0xbe2e8dd2	-0.17046288
137	0xbdbc0c6d	-0.091820575
138	0xbd4f151f	-0.050557252
139	0x3da077cc	0.078353494
140	0x3e2e4463	0.17018275
141	0xbe20e7a2	-0.15713361
142	0x3e2ba780	0.16763115
143	0xbcb24f6d	-0.021766389
144	0xbd23616c	-0.03988783
145	0x3ca51c4b	0.020155093
146	0xbb56f5a1	-0.0032800215
147	0x3e3ec5da	0.18630162
148	0x3e0ff4cf	0.14058231
149	0xbd76d009	-0.06025699
150	0xbdd88622	-0.10572459
151	0xbd90fdd8	-0.07079667
152	0x3db80ce4	0.08986834
153	0xbd3e5b6b	-0.0464739
154	0x3d62acd6	0.05534061
155	0xbd3b4185	-0.04571678
156	0x3d2f608d	0.042816687
157	0xbe0f1590	-0.13973069
158	0xbe0e2a9d	-0.13883443
159	0x3c323e5c	0.010879125
160	0xbe3a3e6d	-0.18187876
161	0x3dc4d58b	0.096110426
162	0xbda5b301	-0.08090783
163	0xbd402d5a	-0.04691825
164	0xbd3b313f	-0.04570126
165	0xbe26d893	-0.16293554
166	0x3940769c	0.00018354732
167	0x3da7a062	0.081848875
168	0x3d9380ed	0.07202325
169	0x3d83a5e5	0.06428126
170	0xbe0ac2bb	-0.13550846
171	0x3dff2318	0.124578655
172	0x3e0fe92a	0.14053789
173	0x3d9df828	0.07713348
174	0x3e0e671d	0.13906522
175	0x3e6753fd	0.22590633
176	0x3d99a820	0.075027704
177	0xbe37218e	-0.17883894
178	0xbe2cc132	-0.16870573
179	0xbd900f3c	-0.07034156
180	0xbcec6530	-0.028856844
181	0x3d1030b6	0.035202704
182	0x3ca82110	0.020523578
183	0xbe2ad8fd	-0.16684337
184	0x3ce54e5c	0.027991466
185	0xbe18d1c1	-0.14923765
186	0x3d939c81	0.07207585
187	0x3d449438	0.047992915
188	0x3d69e7bb	0.05710576
189	0xbc9fd1c0	-0.019509196
190	0xbd3d0a1b	-0.046152215
191	0xbdeede99	-0.11663551
192	0x3c009296	0.007847449
193	0x3db5e79b	0.08882066
194	0x3cdfd9c8	0.027325526
195	0xbe72ec3b	-0.23722927
196	0x3e45edb0	0.19328952
197	0xbe2db7e4	-0.1696468
198	0x3e1a1869	0.15048374
199	0x3cc16919	0.023609685
200	0x3e6c48d1	0.23074652
201	0xbdd593ab	-0.10428556
202	0x3dc8fff4	0.09814444
203	0xbd9220e4	-0.0713518
204	0xbb6b060d	-0.003586176
205	0x3ba9e67e	0.0051849475
206	0xbd115633	-0.035482597
207	0xbcd3fe27	-0.025878025
208	0xbb3f12c1	-0.0029155465
209	0x3d72ff58	0.059325546
210	0x3e288434	0.16456681
211	0x3d5b923c	0.053606257
212	0x3d6e9110	0.05824381
213	0x3e086eeb	0.13323562
214	0x3e2ae660	0.16689444
215	0x3e28f3cf	0.16499256
216	0xbe624457	-0.22096382
217	0xbd0aba27	-0.033868935
218	0xbd11d1fd	-0.03560065
219	0xbd82406e	-0.06359945
220	0x3cd54d66	0.026037883
221	0xbe69ffee	-0.22851536
222	0xbd373da9	-0.044736538
223	0x3e22c0fa	0.15893927
224	0xbdf51bfb	-0.119682275
225	0x3df6eeed	0.1205729
226	0xbd823280	-0.06357288
227	0xbd218c26	-0.039440297
228	0xbdf102c0	-0.11768103
229	0xbdd0f876	-0.1020364
230	0xbd0fcb60	-0.035106063
231	0x3cbf0281	0.023316624
232	0x3d13bab9	0.036066744
233	0x3dece001	0.11566163
234	0x3deffcaa	0.11718114
235	0x3d2b1ea3	0.041777264
236	0xbe6a9c07	-0.22911082
237	0xbc636157	-0.013878188
238	0x3e29a5c1	0.16567136
239	0xbdb7443a	-0.0894856
240	0xbdc4a636	-0.09602015
241	0xbddf0f5a	-0.108916
242	0x3b2c5773	0.002629724
243	0x3cbc7f0c	0.0230098
244	0xbd9d27ae	-0.07673584
245	0x3e68d615	0.22737916
246	0xbb54a3a9	-0.0032446182
247	0xbe4b45af	-0.19850801
248	0xbdb66a70	-0.0890702
249	0xbe663c89	-0.2248403
250	0x3e3670b7	0.17816435
251	0xbe046e2f	-0.12932657
252	0x3dc509fd	0.09621046
253	0xbe7244b3	-0.23659019
254	0xbe083307	-0.13300715
255	0xbc813d3e	-0.015776273
