results/SheepHallway1/Hallway/Hallway-475.pt (torch, 548831 bytes, 20 tensors)

network_body._body_endoder.seq_layers.0.weight f4 [128, 7]
-0.1170623 -0.338235 0.75160646 -0.53246397 0.20409504 0.68269545 -0.023865808 0.37761068
-0.4643576 -0.100957625 -0.7968292 -0.22996989 0.4311946 -0.4303224 -0.50768995 -0.3357569
0.14389226 0.0359412 0.12560406 -0.15550624 0.57772654 0.12999575 -0.5729752 -0.3656503
-0.2485597 -0.56371516 0.21775493 0.25678694 -0.78888625 -0.16250485 -0.9818063 0.013351171
0.59053946 0.43608505 0.06738134 -0.65447885 0.15032849 -0.08899088 0.6966181 -0.43190876
-0.101097725 0.076925814 0.5791762 -0.044363778 0.2818715 0.6121917 -0.6963812 -0.34876162
0.38612697 0.09042643 0.6426413 0.26522598 0.13979757 -0.27272364 0.6262905 -0.50500715
-0.19499138 0.091326766 -0.14559652 0.5619433 -0.30151764 -0.09898235 0.022095444 -0.038350206
-0.035389822 0.31055245 -0.31137794 -0.68151534 -0.37662667 0.23019731 0.2161265 -0.32262456
0.6797318 -0.11722544 0.09534191 -0.26424596 0.6027703 0.23026367 -0.1564809 0.32587755
0.35159352 -0.33109206 0.6169746 0.058872864 -0.8711266 -0.4385452 -0.21512781 -0.63092077
0.17761159 0.09048664 0.031304482 0.6399255 -0.24144495 -0.71775466 -0.59676397 -0.031214606
0.58063936 -0.21850881 -0.8921797 -0.328597 0.78710854 0.28374997 -0.8475564 -0.3044795
-0.23105896 0.34458837 -0.5997346 0.5131496 -0.043585476 -0.04103341 -0.62280625 0.15666483
0.21895565 1.4837493 0.119947776 0.9647933 -0.30760267 0.15510935 -0.037004113 -0.124811634
-0.5093041 -0.3050762 -0.11644526 0.044691507 -0.59783864 -0.39761236 -0.24312605 0.41327763
0.06282526 0.4831989 -0.61035734 -0.22094007 -0.028411156 0.53014135 -0.10877 -0.25437242
-0.0018867706 -0.036044564 -0.10042401 0.03758789 0.01159071 0.20380297 -0.25236672 -0.15469787
-0.01926451 0.17163812 -0.66101485 -0.20446664 -0.045648877 0.28060403 -0.3358524 -0.52256024
-0.5290981 -0.10314669 0.53712493 0.26859382 -0.36096936 0.28079748 -0.67323995 -0.4883402
-0.055283744 0.08203762 -0.6408334 0.42187312 0.14921652 0.5492466 -0.65229803 0.5867005
-0.08213235 -0.19959384 0.17551053 0.22797635 -0.2893456 -0.36297175 0.03191042 -1.4858737
-0.17895432 -0.25420025 0.16979912 0.09847459 0.018757278 -0.28483257 -0.24912523 0.7413339
0.38804102 0.30477735 -0.6044766 0.31819397 -0.108538814 0.027335552 0.9986244 0.27472377
-0.09323893 -0.049685027 0.080658875 0.19778536 0.39932323 0.68312824 -0.1081693 -0.22147778
-0.23487516 0.1827294 0.42972788 0.6985586 -0.14007527 -0.29278666 -0.44999573 -0.032782078
-0.18205938 0.18566188 0.36479867 -0.3009365 -0.7562246 -0.051205635 0.11013112 0.13311681
0.21399954 -0.21669278 -0.40961805 0.5990025 -0.37659013 -0.39631113 0.26480967 0.14393443
-0.07892722 0.24755082 -0.7576983 -0.6019193 0.09859881 0.05233326 0.43460777 0.29114434
-0.36064297 0.22885764 -0.7205935 -0.42116398 -0.68453336 -0.5220249 -0.42199796 -0.047405005
-0.32599548 -0.8560655 0.2221969 1.2968783 -0.046023373 0.3002297 0.23377019 0.63734746
0.005946202 0.17267467 -0.26025328 -0.6119162 -0.23216952 -0.3488626 -0.14534879 -0.3060466
00000000: 5cbe efbd 232d adbe 4869 403f 8f4f 08bf
00000010: 4afe 503e 21c5 2e3f 3a82 c3bc 3056 c13e
00000020: 48c0 edbe dfc2 cebd 00fd 4bbf 3a7d 6bbe
00000030: 8ac5 dc3e 3853 dcbe f8f7 01bf 54e8 abbe
00000040: 7e58 133e 1437 133d 5a9e 003e 073d 1fbe
00000050: e3e5 133f 9b1d 053e 81ae 12bf 8436 bbbe
00000060: 6f86 7ebe a34f 10bf 26fb 5e3e 9479 833e
00000070: 73f4 49bf ac67 26be a857 7bbf dfbe 5a3c
00000080: 982d 173f 8a46 df3e 3aff 893d ed8b 27bf
00000090: b6ef 193e da40 b6bd 9055 323f 2523 ddbe
000000a0: 530c cfbd 488b 9d3d e444 143f cbb6 35bd
000000b0: 7651 903e 98b8 1c3f 0a46 32bf e290 b2be
000000c0: 6fb2 c53e 7e31 b93d 2484 243f b3cb 873e
000000d0: 1827 0f3e 6fa2 8bbe 9354 203f 2648 01bf
000000e0: d2ab 47be 8709 bb3d 4117 15be 84db 0f3f
000000f0: 8560 9abe 42b7 cabd 8101 b53c 1b15 1dbd
00000100: ebf4 10bd bb00 9f3e ee6c 9fbe ca77 2ebf
00000110: 36d5 c0be d8b8 6b3e 4450 5d3e 0c2f a5be
00000120: e702 2e3f e413 f0bd 9f42 c33d 3f4b 87be
00000130: 284f 1a3f 3dca 6b3e 873c 20be 6cd9 a63e
00000140: 1104 b43e e684 a9be 0cf2 1d3f ac24 713d
00000150: 2702 5fbf ff88 e0be 774a 5cbe 0684 21bf
00000160: d0df 353e 0f51 b93d 2139 003d 28d2 233f
00000170: 583d 77be c5be 37bf 86c5 18bf c6b5 ffbc
00000180: c8a4 143f c6c0 5fbe e465 64bf de3d a8be
00000190: f27f 493f ad47 913e 75f9 58bf bde4 9bbe
000001a0: b89a 6cbe e36d b03e 3588 19bf c65d 033f
000001b0: af86 32bd a612 28bd 3b70 1fbf bf6c 203e
000001c0: e935 603e 7feb bd3f 2ea7 f53d b2fc 763f
000001d0: 197e 9dbe fcd4 1e3e a091 17bd 3e9d ffbd
000001e0: c161 02bf f332 9cbe da7a eebd 710e 373d
000001f0: f40b 19bf d993 cbbe 09f6 78be 2099 d33e
00000200: 88aa 803d d965 f73e 6140 1cbf 1d3e 62be
00000210: 83be e8bc 58b7 073f cec2 debd 1a3d 82be
00000220: 844d f7ba 77a3 13bd 1aab cdbd c2f5 193d
00000230: f6e6 3d3c bab1 503e 3636 81be 1e69 1ebe
00000240: 9bd0 9dbc e7c1 2f3e 4538 29bf b45f 51be
00000250: 51fa 3abd 55ab 8f3e d9f4 abbe 82c6 05bf
00000260: f972 07bf 923e d3bd 0581 093f 2185 893e
00000270: fad0 b8be b0c4 8f3e 7459 2cbf ba07 fabe
00000280: 3571 62bd 5703 a83d a80d 24bf c1ff d73e
00000290: 37cc 183e 6d9b 0c3f 01fd 26bf 0132 163f
000002a0: 0135 a8bd 5462 4cbe 08b9 333e a272 693e
000002b0: 1b25 94be 6fd7 b9be 80b4 023d 1c31 bebf
000002c0: cd3f 37be 8926 82be d2df 2d3e 0cad c93d
000002d0: dda8 993c 93d5 91be af1a 7fbe 0fc8 3d3f
000002e0: 50ad c63e c70b 9c3e fabe 1abf 52ea a23e
000002f0: 9949 debd cfee df3c d9a5 7f3f 98a8 8c3e
00000300: 0df4 bebd 8782 4bbd 7b30 a53d 3f88 4a3e
00000310: 1874 cc3e 7ee1 2e3f de87 ddbd 12cb 62be
00000320: 1d83 70be 6a1d 3b3e 4b05 dc3e bdd4 323f
00000330: e46f 0fbe 22e8 95be d765 e6be 8046 06bd
00000340: c66d 3abe 261e 3e3e e4c6 ba3e 5914 9abe
00000350: ef97 41bf 00bd 51bd 6d8c e13d c64f 083e
00000360: b222 5b3e b6e4 5dbe 75b9 d1be 3a58 193f
00000370: 6cd0 c0be 4be9 cabe 2295 873e 8c63 133e
00000380: 98a4 a1bd f67d 7d3e 84f8 41bf 6217 1abf
00000390: 2cee c93d 675b 563d e984 de3e df10 953e
000003a0: 32a6 b8be a859 6a3e d178 38bf cea2 d7be
000003b0: 943d 2fbf 6da3 05bf 1e10 d8be c02b 42bd
000003c0: e1e8 a6be 1c27 5bbf 9687 633e 1c00 a63f
000003d0: 0183 3cbd b5b7 993e 7461 6f3e 3429 233f
000003e0: 5cd8 c23b a1d1 303e eb3f 85be 8aa6 1cbf
000003f0: d9bd 6dbe 1e9e b2be 50d6 14be 24b2 9cbe

network_body._body_endoder.seq_layers.0.bias f4 [128]
0.0 0.0 0.0 0.0 0.0 0.0 0.0 0.0
0.0 0.0 0.0 0.0 0.0 0.0 0.0 0.0
0.0 0.0 0.0 0.0 0.0 0.0 0.0 0.0
0.0 0.0 0.0 0.0 0.0 0.0 0.0 0.0
0.0 0.0 0.0 0.0 0.0 0.0 0.0 0.0
0.0 0.0 0.0 0.0 0.0 0.0 0.0 0.0
0.0 0.0 0.0 0.0 0.0 0.0 0.0 0.0
0.0 0.0 0.0 0.0 0.0 0.0 0.0 0.0
0.0 0.0 0.0 0.0 0.0 0.0 0.0 0.0
0.0 0.0 0.0 0.0 0.0 0.0 0.0 0.0
0.0 0.0 0.0 0.0 0.0 0.0 0.0 0.0
0.0 0.0 0.0 0.0 0.0 0.0 0.0 0.0
0.0 0.0 0.0 0.0 0.0 0.0 0.0 0.0
0.0 0.0 0.0 0.0 0.0 0.0 0.0 0.0
0.0 0.0 0.0 0.0 0.0 0.0 0.0 0.0
0.0 0.0 0.0 0.0 0.0 0.0 0.0 0.0
00000000: 0000 0000 0000 0000 0000 0000 0000 0000
00000010: 0000 0000 0000 0000 0000 0000 0000 0000
00000020: 0000 0000 0000 0000 0000 0000 0000 0000
00000030: 0000 0000 0000 0000 0000 0000 0000 0000
00000040: 0000 0000 0000 0000 0000 0000 0000 0000
00000050: 0000 0000 0000 0000 0000 0000 0000 0000
00000060: 0000 0000 0000 0000 0000 0000 0000 0000
00000070: 0000 0000 0000 0000 0000 0000 0000 0000
00000080: 0000 0000 0000 0000 0000 0000 0000 0000
00000090: 0000 0000 0000 0000 0000 0000 0000 0000
000000a0: 0000 0000 0000 0000 0000 0000 0000 0000
000000b0: 0000 0000 0000 0000 0000 0000 0000 0000
000000c0: 0000 0000 0000 0000 0000 0000 0000 0000
000000d0: 0000 0000 0000 0000 0000 0000 0000 0000
000000e0: 0000 0000 0000 0000 0000 0000 0000 0000
000000f0: 0000 0000 0000 0000 0000 0000 0000 0000
00000100: 0000 0000 0000 0000 0000 0000 0000 0000
00000110: 0000 0000 0000 0000 0000 0000 0000 0000
00000120: 0000 0000 0000 0000 0000 0000 0000 0000
00000130: 0000 0000 0000 0000 0000 0000 0000 0000
00000140: 0000 0000 0000 0000 0000 0000 0000 0000
00000150: 0000 0000 0000 0000 0000 0000 0000 0000
00000160: 0000 0000 0000 0000 0000 0000 0000 0000
00000170: 0000 0000 0000 0000 0000 0000 0000 0000
00000180: 0000 0000 0000 0000 0000 0000 0000 0000
00000190: 0000 0000 0000 0000 0000 0000 0000 0000
000001a0: 0000 0000 0000 0000 0000 0000 0000 0000
000001b0: 0000 0000 0000 0000 0000 0000 0000 0000
000001c0: 0000 0000 0000 0000 0000 0000 0000 0000
000001d0: 0000 0000 0000 0000 0000 0000 0000 0000
000001e0: 0000 0000 0000 0000 0000 0000 0000 0000
000001f0: 0000 0000 0000 0000 0000 0000 0000 0000

network_body._body_endoder.seq_layers.2.weight f4 [128, 128]
0.2322183 0.06663271 -0.066257305 0.034049254 0.08866732 0.07266277 0.058709905 -0.12485203
-0.0748948 0.15832394 -0.026636666 0.031090334 0.034059122 -0.12871161 0.032576717 0.11985001
-0.052108075 0.017445939 -0.14285156 0.03717811 0.06709919 -0.052362412 -0.15537721 -0.033728916
0.03020781 0.12588865 -0.07896287 0.02594538 -0.027245672 0.20206982 0.011954036 -0.019139232
-0.005821871 -0.0027629214 0.10507564 0.106871575 -0.16371228 -0.06756186 -0.04252436 -0.20752199
0.11524329 -0.08412208 0.0043175826 -0.1500576 -0.07928135 -0.018352123 0.07850228 -0.094991475
-0.0011395942 0.05745977 -0.025809292 -0.0073812385 -0.013388212 0.15726025 -0.07340138 -0.040524386
-0.11443665 0.06493301 0.06808806 0.00873484 -0.056949794 0.09133158 0.1442406 -0.11546607
0.058365155 0.06211452 -0.037276454 -0.04309697 -0.06596449 -0.11445818 -0.024147524 0.009395419
0.04353049 0.09351069 0.014199437 -0.097296186 0.06319089 0.08127907 0.016786318 -0.038047776
-0.012091007 -0.06285136 0.11422158 -0.05939534 -0.10324869 0.05408751 0.027310215 -0.023261987
0.033256814 -0.060965475 -0.16360031 0.02274977 -0.0464365 0.057330202 0.057122104 -0.050004747
0.040625155 0.018180266 -0.11017949 -0.05479542 0.013798815 -0.014437714 0.11838393 -0.057473138
-0.011636 -0.00829136 -0.07558355 -0.06103193 -0.09695284 -0.0100923935 -0.052218508 -0.063639276
0.18136522 -0.08806427 0.17031874 -0.050881475 -0.07885451 0.08950605 -0.13754545 -0.07863161
-0.1261212 0.011390603 0.04842576 -0.084911376 -0.035773173 -0.063976966 -0.081011795 0.069509156
-0.035926986 -0.07075125 0.035159692 -0.014688437 0.04997284 0.08615126 0.02677969 0.021925755
0.07955268 -0.06072588 0.13422576 -0.045357723 -0.13329199 -0.030585876 0.024937447 0.11053916
-0.03268018 -0.042794548 -0.037204698 0.13397144 -0.107134305 -0.06592254 0.026491053 0.0685646
-0.017345993 -0.15687026 0.03382663 -0.021828467 -0.0865735 0.054154262 0.016611466 -0.09630494
-0.21461086 -0.08452903 0.0297928 -0.13347404 -0.1039696 -0.009833431 0.0007243119 0.17929392
0.14182967 -0.052963916 -0.09190748 0.10558816 0.03733011 0.10971251 -0.02145538 -0.051058725
-0.11908286 -0.13984773 0.050525937 -0.007400849 0.11187872 -0.062177423 0.020857241 0.1730663
0.13138595 -0.047851175 0.03421647 0.004241722 0.105856605 -0.08417778 0.056258533 -0.049112484
0.06482375 -0.06249938 0.012660712 -0.026995065 -0.011104177 0.14429595 0.12170288 -0.033926517
0.06546967 0.07337465 -0.040735334 0.02397673 0.10279353 0.008254271 0.099574395 0.030052904
-0.09651412 0.036806498 -0.009149767 0.047276467 -0.12977062 -0.15915483 -0.056755584 -0.10212892
-0.0033639967 -0.09522976 -0.0022174157 0.06523627 0.067146495 -0.06882409 -0.04055768 -0.046158534
-0.11721264 -0.056795057 0.11651721 -0.04652059 0.0304931 0.023453932 0.2227839 0.008581709
0.050492693 0.12122628 -0.07977575 -0.12749259 0.024754837 -0.087687336 -0.17461829 0.10629618
0.18384637 0.08145489 -0.13378118 -0.009736475 -0.074514255 -0.026196262 0.037132595 -0.12925367
0.12800533 -0.058724377 -0.020830391 -0.13416198 0.026834916 0.057209194 -0.050085925 0.013160436
00000000: a2ca 6d3e bb76 883d e9b1 87bd 3b77 0b3d
00000010: 3697 b53d 38d0 943d cc79 703d 6cb2 ffbd
00000020: 7262 99bd ac1f 223e 2335 dabc 28b1 fe3c
00000030: 9481 0b3d facc 03be 2a6f 053d ec73 f53d
00000040: 476f 55bd c9ea 8e3c ae47 12be 1348 183d
00000050: 4d6b 893d f879 56bd 341b 1fbe 5527 0abd
00000060: 5f76 f73c f4e8 003e 49b7 a1bd 688b d43c
00000070: 5132 dfbc 64eb 4e3e dcda 433c e1c9 9cbc
00000080: 65c5 bebb 2112 35bb e631 d73d 7cdf da3d
00000090: 31a4 27be df5d 8abd 062e 2ebd a580 54be
000000a0: ad04 ec3d 3248 acbd 827a 8d3b b3a8 19be
000000b0: 435e a2bd 3157 96bc cec5 a03d e48a c2bd
000000c0: 705e 95ba f05a 6b3d 026e d3bc 51de f1bb
000000d0: 3b5a 5bbc d508 213e 7653 96bd e6fc 25bd
000000e0: c35d eabd 99fb 843d c171 8b3d 931c 0f3c
000000f0: 3044 69bd 0d0c bb3d cfb3 133e 7a79 ecbd
00000100: 4d10 6f3d cc6b 7e3d 32af 18bd 7386 30bd
00000110: 6418 87bd 0d69 eabd 07d1 c5bc 3eef 193c
00000120: 074d 323d 8882 bf3d c1a4 683c 3943 c7bd
00000130: 3a6a 813d a475 a63d 7683 893c fcd7 1bbd
00000140: 5c19 46bc 37b8 80bd 01ed e93d 8748 73bd
00000150: 0d74 d3bd dd8a 5d3d acb9 df3c ec8f bebc
00000160: 4c38 083d efb6 79bd d786 27be ba5d ba3c
00000170: 3334 3ebd 13d3 6a3d def8 693d c7d1 4cbd
00000180: 9066 263d c8ee 943c c9a5 e1bd 2a71 60bd
00000190: 6d14 623c 298c 6cbc 4673 f23d f468 6bbd
000001a0: eca4 3ebc 7cd8 07bc 8ccb 9abd 9efc 79bd
000001b0: 368f c6bd 915a 25bc 13e3 55bd 4f55 82bd
000001c0: ceb7 393e 0a5b b4bd 0968 2e3e 1869 50bd
000001d0: 797e a1bd f34e b73d b7d8 0cbe 9c09 a1bd
000001e0: ea25 01be a79f 3a3c 175a 463d 04e6 adbd
000001f0: e486 12bd 5b06 83bd 83e9 a5bd d15a 8e3d
00000200: 2d28 13bd 08e6 90bd 9c03 103d c5a7 70bc
00000210: 52b0 4c3d 1270 b03d 1561 db3c a49d b33c
00000220: 84ec a23d b3bb 78bd 7a72 093e 05c9 39bd
00000230: b27d 08be 3b8f fabc 9e49 cc3c 5b62 e23d
00000240: a7db 05bd 5649 2fbd f463 18bd cf2f 093e
00000250: 3b69 dbbd 6602 87bd c403 d93c 996b 8c3d
00000260: 2f19 8ebc 99a2 20be cb8d 0a3d 9dd1 b2bc
00000270: 724d b1bd dcd0 5d3d c514 883c 863b c5bd
00000280: f3c2 5bbe 8e1d adbd 0810 f43c 6bad 08be
00000290: 03ee d4bd 661c 21bc c0df 3d3a d398 373e
000002a0: cc3b 113e b1f0 58bd fd39 bcbd 9b3e d83d
000002b0: 75e7 183d f4b0 e03d 31c3 afbc f422 51bd
000002c0: b7e1 f3bd 3e34 0fbe 49f4 4e3d d282 f2bb
000002d0: ac20 e53d c1ad 7ebd cedc aa3c 4b38 313e
000002e0: 0a8a 063e 98ff 43bd 9226 0c3d 25fe 8a3b
000002f0: 59cb d83d 6665 acbd 596f 663d 2c2a 49bd
00000300: 50c2 843d 5aff 7fbd e06e 4f3c c124 ddbc
00000310: 4bee 35bc 51c2 133e 5c3f f93d 88f6 0abd
00000320: f614 863d 7345 963d 18da 26bd d96a c43c
00000330: 6a85 d23d ec3c 073c a9ed cb3d 8231 f63c
00000340: 32a9 c5bd 69c2 163d e8e8 15bc f8a4 413d
00000350: 97e2 04be 7cf9 22be 8b78 68bd f828 d1bd
00000360: 8076 5cbb d207 c3bd 1052 11bb 989a 853d
00000370: 1a84 893d a5f3 8cbd cf1f 26bd bb10 3dbd
00000380: 2e0d f0bd efa1 68bd 93a0 ee3d 608c 3ebd
00000390: aacc f93c 7622 c03c 7621 643e 4c9a 0c3c
000003a0: 6dd1 4e3d 7c45 f83d 7861 a3bd 6b8d 02be
000003b0: a8ca ca3c 6b95 b3bd 23cf 32be d0b1 d93d
000003c0: 3942 3c3e d2d1 a63d effd 08be bc85 1fbc
000003d0: ee9a 98bd 8b99 d6bc 5918 183d 135b 04be
000003e0: d413 033e f988 70bd 7fa4 aabc c261 09be
000003f0: e6d4 db3c 3054 6a3d e626 4dbd df9e 573c

network_body._body_endoder.seq_layers.2.bias f4 [128]
0.0 0.0 0.0 0.0 0.0 0.0 0.0 0.0
0.0 0.0 0.0 0.0 0.0 0.0 0.0 0.0
0.0 0.0 0.0 0.0 0.0 0.0 0.0 0.0
0.0 0.0 0.0 0.0 0.0 0.0 0.0 0.0
0.0 0.0 0.0 0.0 0.0 0.0 0.0 0.0
0.0 0.0 0.0 0.0 0.0 0.0 0.0 0.0
0.0 0.0 0.0 0.0 0.0 0.0 0.0 0.0
0.0 0.0 0.0 0.0 0.0 0.0 0.0 0.0
0.0 0.0 0.0 0.0 0.0 0.0 0.0 0.0
0.0 0.0 0.0 0.0 0.0 0.0 0.0 0.0
0.0 0.0 0.0 0.0 0.0 0.0 0.0 0.0
0.0 0.0 0.0 0.0 0.0 0.0 0.0 0.0
0.0 0.0 0.0 0.0 0.0 0.0 0.0 0.0
0.0 0.0 0.0 0.0 0.0 0.0 0.0 0.0
0.0 0.0 0.0 0.0 0.0 0.0 0.0 0.0
0.0 0.0 0.0 0.0 0.0 0.0 0.0 0.0
00000000: 0000 0000 0000 0000 0000 0000 0000 0000
00000010: 0000 0000 0000 0000 0000 0000 0000 0000
00000020: 0000 0000 0000 0000 0000 0000 0000 0000
00000030: 0000 0000 0000 0000 0000 0000 0000 0000
00000040: 0000 0000 0000 0000 0000 0000 0000 0000
00000050: 0000 0000 0000 0000 0000 0000 0000 0000
00000060: 0000 0000 0000 0000 0000 0000 0000 0000
00000070: 0000 0000 0000 0000 0000 0000 0000 0000
00000080: 0000 0000 0000 0000 0000 0000 0000 0000
00000090: 0000 0000 0000 0000 0000 0000 0000 0000
000000a0: 0000 0000 0000 0000 0000 0000 0000 0000
000000b0: 0000 0000 0000 0000 0000 0000 0000 0000
000000c0: 0000 0000 0000 0000 0000 0000 0000 0000
000000d0: 0000 0000 0000 0000 0000 0000 0000 0000
000000e0: 0000 0000 0000 0000 0000 0000 0000 0000
000000f0: 0000 0000 0000 0000 0000 0000 0000 0000
00000100: 0000 0000 0000 0000 0000 0000 0000 0000
00000110: 0000 0000 0000 0000 0000 0000 0000 0000
00000120: 0000 0000 0000 0000 0000 0000 0000 0000
00000130: 0000 0000 0000 0000 0000 0000 0000 0000
00000140: 0000 0000 0000 0000 0000 0000 0000 0000
00000150: 0000 0000 0000 0000 0000 0000 0000 0000
00000160: 0000 0000 0000 0000 0000 0000 0000 0000
00000170: 0000 0000 0000 0000 0000 0000 0000 0000
00000180: 0000 0000 0000 0000 0000 0000 0000 0000
00000190: 0000 0000 0000 0000 0000 0000 0000 0000
000001a0: 0000 0000 0000 0000 0000 0000 0000 0000
000001b0: 0000 0000 0000 0000 0000 0000 0000 0000
000001c0: 0000 0000 0000 0000 0000 0000 0000 0000
000001d0: 0000 0000 0000 0000 0000 0000 0000 0000
000001e0: 0000 0000 0000 0000 0000 0000 0000 0000
000001f0: 0000 0000 0000 0000 0000 0000 0000 0000

network_body.lstm.lstm.weight_ih_l0 f4 [256, 128]
0.12621005 -0.0055035353 -0.048460077 0.022246877 0.006483555 -0.16660348 0.06946692 -0.13740845
-0.16412866 -0.031381417 0.06925189 0.07656515 0.024482746 0.028425774 0.11227115 0.026162298
-0.1422636 -0.017173018 0.113480516 -0.029727446 0.08446344 -0.14696425 -0.1601597 -0.0018231989
-0.068043746 -0.09461895 0.0692711 0.0914783 0.14553933 0.1626815 0.11349059 -0.14945851
-0.06111943 0.15063861 0.09536818 -0.10803627 -0.024676189 -0.10946683 0.060465384 0.029698586
-0.07345265 0.008060142 -0.13747644 -0.0036438268 0.16907743 -0.09943095 0.019082723 0.09073837
0.03566536 -0.050412025 -0.057960186 0.13660271 -0.058498833 0.018694699 -0.010219346 -0.09257886
-0.07056143 0.020584099 0.0147334 -0.111889 -0.030741079 0.0061107874 0.071057454 -0.04333147
0.1273952 0.15459327 0.17463589 0.033682667 0.16007912 0.111907676 0.16773777 0.011172603
0.13662358 -0.03938335 -0.16850239 0.02280214 0.1031722 -0.13338965 0.029449183 -0.0077871885
0.17149344 0.09343303 -0.13265045 0.12900233 0.066306956 -0.037618663 -0.09565889 0.01009495
0.15292065 -0.052856203 0.098036416 0.067802265 -0.15227379 0.11401312 0.046279114 -0.15726198
-0.06989943 0.15329184 -0.048799023 0.02521806 -0.08004653 -0.054367788 -0.059260827 -0.0894224
0.11923096 0.14789453 -0.1654253 -0.1279544 0.062965706 -0.12930676 -0.12727773 0.07382237
0.16297488 0.012972568 0.079884335 0.049919423 0.017323935 0.10427259 -0.11458018 -0.14719795
-0.10392345 -0.02998922 0.019785522 -0.017159604 0.09164912 -0.15397085 -0.01599258 0.13642298
-0.10519545 -0.15027742 -0.04183752 0.14526431 0.12300861 -0.16566008 0.054463632 -0.018965228
0.084715396 -0.06788618 0.12362667 -0.1499349 -0.017158655 -0.12664466 -0.13053922 0.0126473205
-0.0119559225 -0.112245776 -0.08516921 -0.09908684 -0.0070396406 -0.07346239 0.14275126 0.066316165
-0.16292599 -0.12878604 0.094222225 -0.08042608 -0.13646351 0.044320192 -0.04392577 0.1532275
-0.112841375 0.033165902 -0.061665516 0.09545629 -0.14517668 0.13974275 -0.14533484 0.08160763
0.12132573 0.1365069 -0.12887557 -0.16818792 -0.118711226 -0.09349306 -0.14936052 -0.056770686
0.1480762 0.077055566 0.11935789 0.15939574 0.06101479 -0.025872895 0.123489425 -0.15724045
-0.025534784 -0.1123709 -0.08478738 -0.15024658 0.06811561 0.03753691 -0.093823805 -0.17520541
-0.011617852 0.16023938 -0.009929955 -0.10771334 -0.15300953 0.054660436 -0.053571224 -0.10152978
-0.07132786 0.019429507 -0.005987908 0.07172498 0.13613409 0.027645908 -0.10713798 0.0583415
-0.08895707 -0.10811815 -0.14749631 0.007049798 0.1363731 0.02914229 0.024632115 0.0061017047
-0.1675177 -0.17467298 0.1640053 -0.08995027 0.021240767 -0.04337978 0.15459542 0.03823012
0.061410632 0.17388244 -0.08760044 -0.05751815 -0.10777648 -0.12757988 -0.0678369 0.12913236
0.027204884 0.16863443 -0.076416716 0.09297095 0.022303332 -0.018915812 0.031959765 -0.050092235
-0.095341615 -0.14901243 -0.14055659 0.14748238 0.1182214 -0.03871737 0.10928117 0.13066094
0.14135309 0.09565646 0.03207295 0.17217329 -0.10566131 -0.073128656 -0.005248199 0.17417297
00000000: 353d 013e 0057 b4bb 137e 46bd 153f b63c
00000010: 0074 d43b 1a9a 2abe ac44 8e3d cdb4 0cbe
00000020: 5811 28be cd89 00bd efd3 8d3d 30ce 9c3d
00000030: 0a90 c83c 2bdd e83c 6bee e53d 5152 d63c
00000040: 8dad 11be 6eae 8cbc 7968 e83d f986 f3bc
00000050: 2bfb ac3d cc7d 16be e800 24be 67f8 eeba
00000060: 855a 8bbd 94c7 c1bd 02de 8d3d fa58 bb3d
00000070: 4308 153e fb95 263e c16d e83d a70b 19be
00000080: 5e58 7abd 0241 1a3e 6450 c33d 1f42 ddbd
00000090: b825 cabc 2530 e0bd 8daa 773d 734a f33c
000000a0: 586e 96bd b00e 043c a0c6 0cbe 45cd 6ebb
000000b0: a222 2d3e 74a2 cbbd 5f53 9c3c 0ad5 b93d
000000c0: d715 123d d77c 4ebd a967 6dbd 95e1 0b3e
000000d0: 799c 6fbd a025 993c 0b6f 27bc fc99 bdbd
000000e0: 8382 90bd fc9f a83c 5c64 713c 0f26 e5bd
000000f0: b7d4 fbbc 003d c83b 9286 913d 577c 31bd
00000100: e373 023e b34d 1e3e c0d3 323e d6f6 093d
00000110: c8eb 233e da2f e53d 73c3 2b3e 4b0d 373c
00000120: 0de7 0b3e 7050 21bd e48b 2cbe 8ecb ba3c
00000130: f24b d33d 4c97 08be 6a3f f13c ac2b ffbb
00000140: fa9b 2f3e d159 bf3d 85d5 07be 3019 043e
00000150: f1cb 873d 0716 1abd cfe8 c3bd 4a65 253c
00000160: 3b97 1c3e bf7f 58bd 51c7 c83d eadb 8a3d
00000170: a9ed 1bbe b67f e93d 2b8f 3d3d 4909 21be
00000180: 6f27 8fbd 89f8 1c3e 7ce1 47bd 1b96 ce3c
00000190: 6fef a3bd c2b0 5ebd 7bbb 72bd 1723 b7bd
000001a0: 5d2f f43d aa71 173e 4065 29be 7a06 03be
000001b0: 2af4 803d fe68 04be 1855 02be 2f30 973d
000001c0: e3e2 263e e58a 543c 669a a33d 4f78 4c3d
000001d0: edea 8d3c de8c d53d 03a9 eabd 0fbb 16be
000001e0: d1d5 d4bd f4ab f5bc 3f15 a23c 4c92 8cbc
000001f0: 89b2 bb3d 89aa 1dbe df02 83bc 77b2 0b3e
00000200: b670 d7bd 53e2 19be d25d 2bbd 2bc0 143e
00000210: f0eb fb3d cca2 29be 4215 5f3d f75c 9bbc
00000220: 447f ad3d e907 8bbd fb2f fd3d 8988 19be
00000230: 4f90 8cbc 23af 01be 13ac 05be b536 4f3c
00000240: c6e2 43bc 1de1 e5bd 326d aebd 0bee cabd
00000250: c9ac e6bb 7373 96bd 632d 123e c5d0 873d
00000260: 12d6 26be 7de0 03be 95f7 c03d 6eb6 a4bd
00000270: 17bd 0bbe 1789 353d 82eb 33bd abe7 1c3e
00000280: 6119 e7bd f8d8 073d fb94 7cbd 967e c33d
00000290: 32a9 14be b918 0f3e a8d2 14be e721 a73d
000002a0: a079 f83d 77c8 0b3e f5f7 03be 7439 2cbe
000002b0: df1e f3bd 4a79 bfbd f7f1 18be 6188 68bd
000002c0: 4aa1 173e 4fcf 9d3d e971 f43d a338 233e
000002d0: a5ea 793d 65f3 d3bc 06e8 fc3d a403 21be
000002e0: 532e d1bc b722 e6bd 02a5 adbd 3dda 19be
000002f0: 3280 8b3d 4ec0 193d b226 c0bd 0c69 33be
00000300: ce58 3ebc cb15 243e 40b1 22bc d098 dcbd
00000310: 88ae 1cbe 9fe3 5f3d 806d 5bbd d8ee cfbd
00000320: 5714 92bd a12a 9f3c 3736 c4bb 8ce4 923d
00000330: bc66 0b3e ac79 e23c 286b dbbd 7ff7 6e3d
00000340: 202f b6bd 0c6d ddbd 4609 17be fe01 e73b
00000350: 64a5 0b3e d0bb ee3c 4ac9 c93c cff0 c73b
00000360: c389 2bbe 79dd 32be 01f1 273e d937 b8bd
00000370: 1e01 ae3c ffae 31bd 434e 1e3e 3097 1c3d
00000380: b789 7b3d 3d0e 323e dc67 b3bd 2798 6bbd
00000390: eab9 dcbd 4da4 02be 13ee 8abd 463b 043e
000003a0: c7dc de3c 81ae 2c3e 5e80 9cbd 8e67 be3d
000003b0: 7ab5 b63c 55f5 9abc 3ee8 023d 842d 4dbd
000003c0: 7742 c3bd b796 18be 11ee 0fbe 9f05 173e
000003d0: 101e f23d 1b96 1ebd cece df3d fbcb 053e
000003e0: ddbe 103e 89e7 c33d ed5e 033d 324e 303e
000003f0: f564 d8bd 7ac4 95bd 16f9 abbb 665a 323e

network_body.lstm.lstm.weight_hh_l0 f4 [256, 64]
-0.14727308 0.13630858 0.16018718 -0.030981664 0.017510837 0.06660012 -0.08251085 0.15514754
-0.0033875704 -0.026737694 -0.071376115 0.19864579 -0.054475673 0.04718588 0.027066546 0.09797152
-0.005040686 0.15211232 0.05362717 -0.09040041 -0.13302906 0.20974943 0.084001265 -0.026687171
-0.10100075 -0.19699734 0.014642362 0.028585102 -0.10398088 -0.19824222 -0.16302122 0.0911691
0.17448011 -0.124305554 -0.19472846 -0.1370871 -0.16080219 0.102567896 -0.004893313 0.016531855
0.20911632 0.093167014 -0.057483133 -0.21092698 -0.0033197429 -0.13992704 -0.21375972 0.1390032
0.11075797 0.15275764 -0.086134076 0.20705561 0.20809911 -0.14254826 0.19193695 -0.023679774
-0.14879572 0.16905664 0.06061906 0.09304295 0.01805214 -0.007177602 0.14770482 0.024620676
0.16002831 -0.0143758645 0.069263 0.032404814 -0.014271968 0.20365937 -0.076070175 0.05532766
-0.21502668 -0.20366666 -0.15698701 -0.21316814 -0.12943684 -0.17752698 -0.049393795 -0.052133378
-0.21039987 0.103504345 -0.059847884 -0.01915661 0.01107246 -0.13156009 -0.1508465 -0.06909724
0.05646532 0.095545836 0.076485 0.011301855 -0.0021540278 0.026097035 0.17901117 0.1671947
-0.07420923 0.16187981 0.103631325 0.042953756 -0.20398028 0.115375295 0.1867871 0.1705608
0.13474272 0.1776075 0.14811552 -0.1850001 -0.2144038 0.16341414 -0.1786008 -0.025192436
0.10888695 -0.05181837 -0.14946172 0.17297821 -0.21120745 -0.06981076 0.005926057 0.17796306
-0.2042653 0.07815292 -0.0174467 0.10851615 0.0970401 -0.05033214 0.12298566 0.04434649
-0.0680182 0.12556577 -0.03616531 0.13487232 0.18750326 0.17636912 0.15679689 0.17743391
0.20329614 -0.20324636 0.16901548 -0.19551592 -0.029474953 0.012038021 -0.10257508 0.013195709
0.19735518 -0.1131252 0.004855012 -0.12203993 0.021368284 0.036019936 0.1589978 0.17001466
-0.15415025 0.17161515 0.13173199 -0.15389574 0.08750256 0.014853407 -0.08133388 0.018775739
-0.06742707 -0.08511104 -0.16632572 0.12623064 -0.13202155 -0.050159592 -0.13173959 0.18151002
0.048773993 0.014643781 0.07143394 -0.038086623 -0.15804552 -0.101277195 0.18581808 -0.076689005
-0.033518188 0.028380716 0.017436996 -0.005216462 -0.11704701 0.017269904 -0.20897567 0.17288901
-0.14488275 -0.040247478 0.1671453 0.01620193 -0.14570735 -0.026320778 -0.12175936 -0.06462065
0.10478837 0.11147292 -0.14373687 -0.0118742725 0.17744166 -0.09499876 0.09400895 -0.055077255
-0.055366866 -0.12262838 0.07916019 0.14661667 0.19639187 -0.009170837 -0.13220231 0.0943837
0.007769093 -0.12571102 -0.18573086 -0.20630015 0.044835735 -0.119441785 -0.059374485 0.21224034
-0.00965212 0.09449172 0.12479039 0.11675257 -0.18774672 0.0452936 -0.114610106 -0.11790101
0.2153483 0.13305785 -0.017605312 0.18778148 0.09327441 0.20995674 0.04138843 0.20692335
0.16686709 0.1606575 0.20692867 0.10409809 -0.1957068 0.1776679 -0.08962824 0.18914382
-0.011324542 0.2014351 -0.17062703 0.11080236 -0.057664834 -0.14536366 -0.093905844 -0.09179224
0.014403597 -0.16996041 0.17422627 -0.1066514 -0.06776745 0.20336057 -0.21187623 0.088772476
00000000: c1ce 16be 7a94 0b3e 1c08 243e 42cd fdbc
00000010: e372 8f3c a565 883d 73fb a8bd ffde 1e3e
00000020: 0002 5ebb 0209 dbbc a42d 92bd cd69 4b3e
00000030: e221 5fbd fb45 413d a9ba dd3c 4ba5 c83d
00000040: 572c a5bb 55c3 1b3e 2aa8 5b3d da23 b9bd
00000050: c538 08be 8ec8 563e db08 ac3d 0e9f dabc
00000060: 7bd9 cebd acb9 49be 84e6 6f3c 4e2b ea3c
00000070: edf3 d4bd 0200 4bbe 09ef 26be ddb6 ba3d
00000080: eaaa 323e e993 febd e666 47be 9060 0cbe
00000090: 54a9 24be 1e0f d23d 1658 a0bb d06d 873c
000000a0: 9722 563e 59ce be3d 6f73 6bbd 3efd 57be
000000b0: 0b90 59bb 0949 0fbe d4e3 5abe db56 0e3e
000000c0: 13d5 e23d 806c 1c3e 1067 b0bd 6306 543e
000000d0: ef17 553e 2cf8 11be 1f8b 443e 16fc c1bc
000000e0: e85d 18be 2f1d 2d3e b14b 783d 4d8d be3d
000000f0: 15e2 933c 1732 ebbb ef3f 173e 4db1 c93c
00000100: 76de 233e bf88 6bbc c2d9 8d3d e9ba 043d
00000110: f9d4 69bc 158c 503e aeca 9bbd 429f 623d
00000120: f42f 5cbe fe8d 50be 34c1 20be c048 5abe
00000130: 178b 04be a2c9 35be 2651 4abd cf89 55bd
00000140: 1073 57be 16fa d33d 0e23 75bd 53ee 9cbc
00000150: 4369 353c b0b7 06be 8177 1abe db82 8dbd
00000160: 2e48 673d 89ad c33d 2ba4 9c3d 6a2b 393c
00000170: 972a 0dbb 73c9 d53c b44e 373e 1635 2b3e
00000180: 02fb 97bd d2c3 253e a93c d43d 47f0 2f3d
00000190: 35e0 50be e249 ec3d 1e45 3f3e 7ea7 2e3e
000001a0: fff9 093e bede 353e 98ab 173e ab70 3dbe
000001b0: ab8c 5bbe 0956 273e 21e3 36be 5e60 cebc
000001c0: 1f00 df3d 803f 54bd 7e0c 19be 3321 313e
000001d0: c446 58be f2f8 8ebd 5f2f c23b f33b 363e
000001e0: ec2a 51be a30e a03d 62ec 8ebc b73d de3d
000001f0: f6bc c63d 1329 4ebd e8df fb3d aaa4 353d
00000200: 204d 8bbd 5094 003e 1322 14bd f81b 0a3e
00000210: db00 403e 1b9a 343e 5d8f 203e 3cb1 353e
00000220: dd2c 503e d01f 50be 6512 2d3e 5335 48be
00000230: 7575 f1bc 1f3b 453c e212 d2bd d132 583c
00000240: 7a17 4a3e 2fae e7bd cb16 9f3b 12f0 f9bd
00000250: 8a0c af3c a489 133d 52d0 223e 5318 2e3e
00000260: 90d9 1dbe e2bb 2f3e c0e4 063e d896 1dbe
00000270: 8b34 b33d b45b 733c 6192 a6bd 94cf 993c
00000280: 3417 8abd b24e aebd 4a51 2abe 9b42 013e
00000290: a830 07be 2574 4dbd bee6 06be c3dd 393e
000002a0: 3dc7 473d 78ec 6f3c f54b 923d b800 1cbd
000002b0: afd6 21be 6b6a cfbd 1847 3e3e 200f 9dbd
000002c0: 5e4a 09bd ad7e e83c 08d8 8e3c dbee aabb
000002d0: 58b6 efbd 9d79 8d3c b8fd 55be d109 313e
000002e0: 255c 14be 8ada 24bd 2328 2b3e e9b9 843c
000002f0: 4f34 15be ac9e d7bc f95c f9bd d557 84bd
00000300: 499b d63d ea4b e43d c22f 13be 4f8c 42bc
00000310: 44b3 353e b68e c2bd c487 c03d b098 61bd
00000320: 5ec8 62bd 9724 fbbd bd1e a23d ae22 163e
00000330: f31a 493e 4741 16bc 0b60 07be 3e4c c13d
00000340: e093 fe3b 64ba 00be 3b30 3ebe 5940 53be
00000350: ada5 373d e59d f4bd a932 73bd 8855 593e
00000360: ed23 1ebc e084 c13d 1b92 ff3d f91b ef3d
00000370: ad40 40be c885 393d b4b8 eabd 1676 f1bd
00000380: 4484 5c3e 5140 083e 0439 90bc ca49 403e
00000390: a706 bf3d e6fe 563e ea86 293d b7e3 533e
000003a0: 35df 2a3e 6683 243e 1ce5 533e 6131 d53d
000003b0: 5d67 48be 93ee 353e 038f b7bd ebae 413e
000003c0: 928a 39bc 0145 4e3e dab8 2ebe 59ec e23d
000003d0: f631 6cbd 36da 14be b551 c0bd 92fd bbbd
000003e0: 11fd 6b3c 1a0a 2ebe 5f68 323e 0d6c dabd
000003f0: a9c9 8abd c13d 503e 15f6 58be 58ce b53d

network_body.lstm.lstm.bias_ih_l0 f4 [256]
0.0 0.0 0.0 0.0 0.0 0.0 0.0 0.0
0.0 0.0 0.0 0.0 0.0 0.0 0.0 0.0
0.0 0.0 0.0 0.0 0.0 0.0 0.0 0.0
0.0 0.0 0.0 0.0 0.0 0.0 0.0 0.0
0.0 0.0 0.0 0.0 0.0 0.0 0.0 0.0
0.0 0.0 0.0 0.0 0.0 0.0 0.0 0.0
0.0 0.0 0.0 0.0 0.0 0.0 0.0 0.0
0.0 0.0 0.0 0.0 0.0 0.0 0.0 0.0
1.0 1.0 1.0 1.0 1.0 1.0 1.0 1.0
1.0 1.0 1.0 1.0 1.0 1.0 1.0 1.0
1.0 1.0 1.0 1.0 1.0 1.0 1.0 1.0
1.0 1.0 1.0 1.0 1.0 1.0 1.0 1.0
1.0 1.0 1.0 1.0 1.0 1.0 1.0 1.0
1.0 1.0 1.0 1.0 1.0 1.0 1.0 1.0
1.0 1.0 1.0 1.0 1.0 1.0 1.0 1.0
1.0 1.0 1.0 1.0 1.0 1.0 1.0 1.0
0.0 0.0 0.0 0.0 0.0 0.0 0.0 0.0
0.0 0.0 0.0 0.0 0.0 0.0 0.0 0.0
0.0 0.0 0.0 0.0 0.0 0.0 0.0 0.0
0.0 0.0 0.0 0.0 0.0 0.0 0.0 0.0
0.0 0.0 0.0 0.0 0.0 0.0 0.0 0.0
0.0 0.0 0.0 0.0 0.0 0.0 0.0 0.0
0.0 0.0 0.0 0.0 0.0 0.0 0.0 0.0
0.0 0.0 0.0 0.0 0.0 0.0 0.0 0.0
0.0 0.0 0.0 0.0 0.0 0.0 0.0 0.0
0.0 0.0 0.0 0.0 0.0 0.0 0.0 0.0
0.0 0.0 0.0 0.0 0.0 0.0 0.0 0.0
0.0 0.0 0.0 0.0 0.0 0.0 0.0 0.0
0.0 0.0 0.0 0.0 0.0 0.0 0.0 0.0
0.0 0.0 0.0 0.0 0.0 0.0 0.0 0.0
0.0 0.0 0.0 0.0 0.0 0.0 0.0 0.0
0.0 0.0 0.0 0.0 0.0 0.0 0.0 0.0
00000000: 0000 0000 0000 0000 0000 0000 0000 0000
00000010: 0000 0000 0000 0000 0000 0000 0000 0000
00000020: 0000 0000 0000 0000 0000 0000 0000 0000
00000030: 0000 0000 0000 0000 0000 0000 0000 0000
00000040: 0000 0000 0000 0000 0000 0000 0000 0000
00000050: 0000 0000 0000 0000 0000 0000 0000 0000
00000060: 0000 0000 0000 0000 0000 0000 0000 0000
00000070: 0000 0000 0000 0000 0000 0000 0000 0000
00000080: 0000 0000 0000 0000 0000 0000 0000 0000
00000090: 0000 0000 0000 0000 0000 0000 0000 0000
000000a0: 0000 0000 0000 0000 0000 0000 0000 0000
000000b0: 0000 0000 0000 0000 0000 0000 0000 0000
000000c0: 0000 0000 0000 0000 0000 0000 0000 0000
000000d0: 0000 0000 0000 0000 0000 0000 0000 0000
000000e0: 0000 0000 0000 0000 0000 0000 0000 0000
000000f0: 0000 0000 0000 0000 0000 0000 0000 0000
00000100: 0000 803f 0000 803f 0000 803f 0000 803f
00000110: 0000 803f 0000 803f 0000 803f 0000 803f
00000120: 0000 803f 0000 803f 0000 803f 0000 803f
00000130: 0000 803f 0000 803f 0000 803f 0000 803f
00000140: 0000 803f 0000 803f 0000 803f 0000 803f
00000150: 0000 803f 0000 803f 0000 803f 0000 803f
00000160: 0000 803f 0000 803f 0000 803f 0000 803f
00000170: 0000 803f 0000 803f 0000 803f 0000 803f
00000180: 0000 803f 0000 803f 0000 803f 0000 803f
00000190: 0000 803f 0000 803f 0000 803f 0000 803f
000001a0: 0000 803f 0000 803f 0000 803f 0000 803f
000001b0: 0000 803f 0000 803f 0000 803f 0000 803f
000001c0: 0000 803f 0000 803f 0000 803f 0000 803f
000001d0: 0000 803f 0000 803f 0000 803f 0000 803f
000001e0: 0000 803f 0000 803f 0000 803f 0000 803f
000001f0: 0000 803f 0000 803f 0000 803f 0000 803f
00000200: 0000 0000 0000 0000 0000 0000 0000 0000
00000210: 0000 0000 0000 0000 0000 0000 0000 0000
00000220: 0000 0000 0000 0000 0000 0000 0000 0000
00000230: 0000 0000 0000 0000 0000 0000 0000 0000
00000240: 0000 0000 0000 0000 0000 0000 0000 0000
00000250: 0000 0000 0000 0000 0000 0000 0000 0000
00000260: 0000 0000 0000 0000 0000 0000 0000 0000
00000270: 0000 0000 0000 0000 0000 0000 0000 0000
00000280: 0000 0000 0000 0000 0000 0000 0000 0000
00000290: 0000 0000 0000 0000 0000 0000 0000 0000
000002a0: 0000 0000 0000 0000 0000 0000 0000 0000
000002b0: 0000 0000 0000 0000 0000 0000 0000 0000
000002c0: 0000 0000 0000 0000 0000 0000 0000 0000
000002d0: 0000 0000 0000 0000 0000 0000 0000 0000
000002e0: 0000 0000 0000 0000 0000 0000 0000 0000
000002f0: 0000 0000 0000 0000 0000 0000 0000 0000
00000300: 0000 0000 0000 0000 0000 0000 0000 0000
00000310: 0000 0000 0000 0000 0000 0000 0000 0000
00000320: 0000 0000 0000 0000 0000 0000 0000 0000
00000330: 0000 0000 0000 0000 0000 0000 0000 0000
00000340: 0000 0000 0000 0000 0000 0000 0000 0000
00000350: 0000 0000 0000 0000 0000 0000 0000 0000
00000360: 0000 0000 0000 0000 0000 0000 0000 0000
00000370: 0000 0000 0000 0000 0000 0000 0000 0000
00000380: 0000 0000 0000 0000 0000 0000 0000 0000
00000390: 0000 0000 0000 0000 0000 0000 0000 0000
000003a0: 0000 0000 0000 0000 0000 0000 0000 0000
000003b0: 0000 0000 0000 0000 0000 0000 0000 0000
000003c0: 0000 0000 0000 0000 0000 0000 0000 0000
000003d0: 0000 0000 0000 0000 0000 0000 0000 0000
000003e0: 0000 0000 0000 0000 0000 0000 0000 0000
000003f0: 0000 0000 0000 0000 0000 0000 0000 0000

network_body.lstm.lstm.bias_hh_l0 f4 [256]
0.0 0.0 0.0 0.0 0.0 0.0 0.0 0.0
0.0 0.0 0.0 0.0 0.0 0.0 0.0 0.0
0.0 0.0 0.0 0.0 0.0 0.0 0.0 0.0
0.0 0.0 0.0 0.0 0.0 0.0 0.0 0.0
0.0 0.0 0.0 0.0 0.0 0.0 0.0 0.0
0.0 0.0 0.0 0.0 0.0 0.0 0.0 0.0
0.0 0.0 0.0 0.0 0.0 0.0 0.0 0.0
0.0 0.0 0.0 0.0 0.0 0.0 0.0 0.0
1.0 1.0 1.0 1.0 1.0 1.0 1.0 1.0
1.0 1.0 1.0 1.0 1.0 1.0 1.0 1.0
1.0 1.0 1.0 1.0 1.0 1.0 1.0 1.0
1.0 1.0 1.0 1.0 1.0 1.0 1.0 1.0
1.0 1.0 1.0 1.0 1.0 1.0 1.0 1.0
1.0 1.0 1.0 1.0 1.0 1.0 1.0 1.0
1.0 1.0 1.0 1.0 1.0 1.0 1.0 1.0
1.0 1.0 1.0 1.0 1.0 1.0 1.0 1.0
0.0 0.0 0.0 0.0 0.0 0.0 0.0 0.0
0.0 0.0 0.0 0.0 0.0 0.0 0.0 0.0
0.0 0.0 0.0 0.0 0.0 0.0 0.0 0.0
0.0 0.0 0.0 0.0 0.0 0.0 0.0 0.0
0.0 0.0 0.0 0.0 0.0 0.0 0.0 0.0
0.0 0.0 0.0 0.0 0.0 0.0 0.0 0.0
0.0 0.0 0.0 0.0 0.0 0.0 0.0 0.0
0.0 0.0 0.0 0.0 0.0 0.0 0.0 0.0
0.0 0.0 0.0 0.0 0.0 0.0 0.0 0.0
0.0 0.0 0.0 0.0 0.0 0.0 0.0 0.0
0.0 0.0 0.0 0.0 0.0 0.0 0.0 0.0
0.0 0.0 0.0 0.0 0.0 0.0 0.0 0.0
0.0 0.0 0.0 0.0 0.0 0.0 0.0 0.0
0.0 0.0 0.0 0.0 0.0 0.0 0.0 0.0
0.0 0.0 0.0 0.0 0.0 0.0 0.0 0.0
0.0 0.0 0.0 0.0 0.0 0.0 0.0 0.0
00000000: 0000 0000 0000 0000 0000 0000 0000 0000
00000010: 0000 0000 0000 0000 0000 0000 0000 0000
00000020: 0000 0000 0000 0000 0000 0000 0000 0000
00000030: 0000 0000 0000 0000 0000 0000 0000 0000
00000040: 0000 0000 0000 0000 0000 0000 0000 0000
00000050: 0000 0000 0000 0000 0000 0000 0000 0000
00000060: 0000 0000 0000 0000 0000 0000 0000 0000
00000070: 0000 0000 0000 0000 0000 0000 0000 0000
00000080: 0000 0000 0000 0000 0000 0000 0000 0000
00000090: 0000 0000 0000 0000 0000 0000 0000 0000
000000a0: 0000 0000 0000 0000 0000 0000 0000 0000
000000b0: 0000 0000 0000 0000 0000 0000 0000 0000
000000c0: 0000 0000 0000 0000 0000 0000 0000 0000
000000d0: 0000 0000 0000 0000 0000 0000 0000 0000
000000e0: 0000 0000 0000 0000 0000 0000 0000 0000
000000f0: 0000 0000 0000 0000 0000 0000 0000 0000
00000100: 0000 803f 0000 803f 0000 803f 0000 803f
00000110: 0000 803f 0000 803f 0000 803f 0000 803f
00000120: 0000 803f 0000 803f 0000 803f 0000 803f
00000130: 0000 803f 0000 803f 0000 803f 0000 803f
00000140: 0000 803f 0000 803f 0000 803f 0000 803f
00000150: 0000 803f 0000 803f 0000 803f 0000 803f
00000160: 0000 803f 0000 803f 0000 803f 0000 803f
00000170: 0000 803f 0000 803f 0000 803f 0000 803f
00000180: 0000 803f 0000 803f 0000 803f 0000 803f
00000190: 0000 803f 0000 803f 0000 803f 0000 803f
000001a0: 0000 803f 0000 803f 0000 803f 0000 803f
000001b0: 0000 803f 0000 803f 0000 803f 0000 803f
000001c0: 0000 803f 0000 803f 0000 803f 0000 803f
000001d0: 0000 803f 0000 803f 0000 803f 0000 803f
000001e0: 0000 803f 0000 803f 0000 803f 0000 803f
000001f0: 0000 803f 0000 803f 0000 803f 0000 803f
00000200: 0000 0000 0000 0000 0000 0000 0000 0000
00000210: 0000 0000 0000 0000 0000 0000 0000 0000
00000220: 0000 0000 0000 0000 0000 0000 0000 0000
00000230: 0000 0000 0000 0000 0000 0000 0000 0000
00000240: 0000 0000 0000 0000 0000 0000 0000 0000
00000250: 0000 0000 0000 0000 0000 0000 0000 0000
00000260: 0000 0000 0000 0000 0000 0000 0000 0000
00000270: 0000 0000 0000 0000 0000 0000 0000 0000
00000280: 0000 0000 0000 0000 0000 0000 0000 0000
00000290: 0000 0000 0000 0000 0000 0000 0000 0000
000002a0: 0000 0000 0000 0000 0000 0000 0000 0000
000002b0: 0000 0000 0000 0000 0000 0000 0000 0000
000002c0: 0000 0000 0000 0000 0000 0000 0000 0000
000002d0: 0000 0000 0000 0000 0000 0000 0000 0000
000002e0: 0000 0000 0000 0000 0000 0000 0000 0000
000002f0: 0000 0000 0000 0000 0000 0000 0000 0000
00000300: 0000 0000 0000 0000 0000 0000 0000 0000
00000310: 0000 0000 0000 0000 0000 0000 0000 0000
00000320: 0000 0000 0000 0000 0000 0000 0000 0000
00000330: 0000 0000 0000 0000 0000 0000 0000 0000
00000340: 0000 0000 0000 0000 0000 0000 0000 0000
00000350: 0000 0000 0000 0000 0000 0000 0000 0000
00000360: 0000 0000 0000 0000 0000 0000 0000 0000
00000370: 0000 0000 0000 0000 0000 0000 0000 0000
00000380: 0000 0000 0000 0000 0000 0000 0000 0000
00000390: 0000 0000 0000 0000 0000 0000 0000 0000
000003a0: 0000 0000 0000 0000 0000 0000 0000 0000
000003b0: 0000 0000 0000 0000 0000 0000 0000 0000
000003c0: 0000 0000 0000 0000 0000 0000 0000 0000
000003d0: 0000 0000 0000 0000 0000 0000 0000 0000
000003e0: 0000 0000 0000 0000 0000 0000 0000 0000
000003f0: 0000 0000 0000 0000 0000 0000 0000 0000

action_model._continuous_distribution.log_sigma f4 [1, 2]
0.0 0.0
00000000: 0000 0000 0000 0000

action_model._continuous_distribution.mu.weight f4 [2, 64]
0.07952804 -0.006302453 -0.023894457 -0.0043275193 -0.04853138 0.0044915136 0.0006792384 -0.00783741
-0.00146032 0.04050122 0.024018554 0.00951971 0.018676328 0.027036374 -0.00075767486 0.007202769
0.04265655 0.0041433075 0.012398308 -6.157469e-05 -0.00902335 0.009477843 -0.0116723105 0.020488497
-0.04280472 0.016878573 -0.0038234596 -0.022123335 0.021102777 0.009263071 -0.012815743 -0.0117015345
-0.006698932 0.014091538 -0.0057868855 -0.001714101 0.018449143 -0.001533583 -0.027921481 0.010794438
0.04582953 -0.023132466 0.011309403 0.0022754509 0.04473092 -0.026745785 -0.042746138 0.0035008544
0.014718006 0.014940773 0.010821595 -0.01244027 -0.04722173 0.00044106832 -0.023347735 -0.037466146
-0.016261157 -0.013505548 0.005877467 0.010995747 0.009837533 0.015730876 -0.0139264045 0.057305004
0.024716446 -0.004713691 0.007309425 -0.024413822 0.009970276 0.019769104 0.009579386 -0.019095084
0.051739912 -0.009988627 -0.036069438 -0.005636192 -0.016114255 -0.017838186 0.022309972 -0.004284892
0.026844038 -0.040443864 0.005670132 -0.019165028 -0.01709346 -0.03356077 0.034942582 -0.010793605
-0.06949831 0.015848165 -0.02854521 -0.005317545 0.0012467804 -0.006346993 0.034431007 -1.3665938e-05
-0.016126005 -0.007337108 0.0685834 0.044408914 -0.017041184 0.028505424 -0.061632045 0.038466036
0.033941187 -0.017914541 -0.023470622 -0.02962609 -0.021616688 0.015763152 -0.0066012503 -0.021088872
0.00043650717 0.01897378 -0.030518634 -0.014599065 0.017497312 -0.030947238 -0.004071263 0.0014758841
0.004430165 0.011008928 -0.057807904 0.026658198 0.023175253 0.021302149 -0.015073374 -0.06435015
00000000: 99df a23d cf84 cebb 4fbe c3bc ddcd 8dbb
00000010: d7c8 46bd 8c2d 933b eb0e 323a 7b68 00bc
00000020: 3568 bfba 9be4 253d 8fc2 c43c 8ff8 1b3c
00000030: 19ff 983c 637b dd3c b39e 46ba 3505 ec3b
00000040: a2b8 2e3d 95c4 873b 4622 4b3c a921 81b8
00000050: acd6 13bc f448 1b3c 383d 3fbc 7ed7 a73c
00000060: 0154 2fbd ef44 8a3c 0293 7abb ff3b b5bc
00000070: bbdf ac3c 23c4 173c 1ff9 51bc cbb7 3fbc
00000080: b782 dbbb 32e0 663c ea9f bdbb afab e0ba
00000090: a822 973c 8202 c9ba 97bb e4bc 28db 303c
000000a0: bfb7 3b3d 4c80 bdbc 134b 393c bb1f 153b
000000b0: c537 373d fa19 dbbc 9316 2fbd 976e 653b
000000c0: cb23 713c 25ca 743c 0f4d 313c 46d2 4bbc
000000d0: 936b 41bd 303f e739 c043 bfbc 1a76 19bd
000000e0: 1e36 85bc 6046 5dbc c497 c03b 8127 343c
000000f0: 9b2d 213c 0ade 803c 932b 64bc a7b8 6a3d
00000100: 257a ca3c 4e75 9abb e783 ef3b 7fff c7bc
00000110: 5e5a 233c d1f2 a13c dbf2 1c3c 4b6d 9cbc
00000120: 3bed 533d 57a7 23bc 8cbd 13bd ceaf b8bb
00000130: 0b02 84bc 6321 92bc 67c3 b63c 4868 8cbb
00000140: 07e8 db3c 77a8 25bd 84cc b93b faff 9cbc
00000150: 9507 8cbc 0577 09bd f41f 0f3d a9d7 30bc
00000160: 2155 8ebd 03d4 813c a5d7 e9bc cd3e aebb
00000170: 026b a33a 70fa cfbb 8707 0d3d c246 65b7
00000180: af1a 84bc 1f6c f0bb 7475 8c3d 1fe6 353d
00000190: f499 8bbc 3584 e93c e271 7cbd 908e 1d3d
000001a0: ea05 0b3d 84c1 92bc 7645 c0bc 6ab2 f2bc
000001b0: 7b15 b1bc ba21 813c 4d4f d8bb 92c2 acbc
000001c0: 00db e439 e76e 9b3c 3702 fabc eb30 6fbc
000001d0: 8656 8f3c 1085 fdbc 3b68 85bb 7472 c13a
000001e0: eb2a 913b ca5e 343c fbc7 6cbd 4b62 da3c
000001f0: 07da bd3c d881 ae3c 50f6 76bc 03ca 83bd

action_model._continuous_distribution.mu.bias f4 [2]
0.0 0.0
00000000: 0000 0000 0000 0000

network_body._body_endoder.seq_layers.0.weight f4 [128, 7]
0.5467779 0.16060342 -0.25662646 0.15672038 -0.3768685 -0.4048644 -0.39083928 0.3289364
0.35639215 0.41909483 0.23961233 -0.33711872 0.40530986 -0.50490963 0.49938545 0.16897164
0.18806045 -0.39134425 -0.11880781 0.27722976 -0.21477668 -0.6037013 -0.09136297 0.12745862
-0.20705177 -0.26880175 -0.07911104 -0.3831714 0.12920406 -0.42213097 0.8684051 0.8403362
-0.3125931 -0.9244066 0.056437697 -0.039973903 -0.12369169 1.1235193 0.26934987 0.0355158
-0.54128164 0.11742126 0.06762142 -0.6272805 0.517333 0.001284738 0.6159854 0.291326
0.48784107 -0.16012105 -0.29604554 -0.47997606 -0.6312543 0.26708782 -0.23584594 -0.25561598
-0.34552523 -0.19173181 0.45259875 0.45144445 0.08453798 0.12635042 -0.58990806 0.7413832
-0.2535388 0.34362566 -0.38318714 -0.16752623 0.05871367 -0.009589272 -0.13242441 0.50535285
0.22043698 -0.048170473 0.3887536 0.3152745 -0.32299626 -0.41447333 0.057070024 -0.06631247
-0.477087 0.29054162 0.26769856 0.37130097 0.5028334 -0.67922133 0.21427831 0.61483294
0.1934852 0.32786897 -0.46763742 0.11791928 -0.3090218 0.11824464 0.38082337 -0.36946136
-0.55743587 -0.14598268 -0.56602216 0.29156512 -0.11133992 0.62016106 -0.036648035 0.4854831
-0.42551604 -0.034532715 0.6918639 -0.1433708 0.046990268 -0.21064244 -0.5916855 -0.27809697
-0.4068388 0.093191534 0.46169037 -0.2425961 -0.07955236 0.16491084 -0.16478461 0.57244086
-0.48936537 0.16736531 0.16498671 -0.634487 0.50194913 -0.7209771 -0.2241587 -0.030663313
-0.3905009 0.0777382 -0.06483184 0.12786219 0.51334757 0.5529071 0.3764221 -0.07079435
0.18695943 0.14042586 0.17908853 0.21306308 -0.35167065 0.14571385 -0.06513479 -0.083993904
0.0710602 0.08442543 0.00438677 -0.116606385 -0.59116733 0.070185214 0.16141236 -0.45926577
0.53322643 0.07443253 -0.4088801 -0.1177341 -0.50276965 0.21183564 -0.28930274 -0.25379252
-0.039526846 -0.5171382 0.6289122 0.17762883 0.12968743 0.14189285 -0.21529506 -0.09762853
0.6212437 0.08255378 0.13325705 0.28326273 0.3631356 -0.026169585 0.07154658 0.061707266
-0.27350992 0.19284157 -0.2320708 -0.693349 0.2544304 -0.57718325 -0.03878786 -0.27549273
0.17389743 0.99214494 0.030952876 -0.4915285 -0.35708842 0.37089494 0.5759582 0.54877126
-0.36888477 -0.023561414 -0.29011726 0.24571285 0.17080826 0.22399361 0.17081042 0.29465333
0.13629146 0.24785717 -0.11997052 0.0049922857 0.89882404 0.3181441 0.24222101 -0.3941215
-0.24882473 0.50537187 0.18413053 0.31432468 -0.1274356 -0.40497196 0.01484026 -0.47065336
-0.32030076 1.037365 0.40713713 -0.5354866 -0.08410215 0.003934671 0.08378673 0.34746727
-0.24953413 -0.056986544 0.59011316 -0.35694677 0.4057141 0.0712043 0.5779423 0.16112788
0.49728745 -0.55041873 0.26776102 -0.028784158 -0.076819874 -0.06456825 0.3981162 0.08719107
-0.7249437 -0.94854 -0.16839321 0.046356212 0.6209441 -0.4267387 -0.120719284 0.28436005
-0.14228162 0.0060928175 0.28920463 -0.9426553 -0.09731836 0.006801274 -0.46000654 0.10431466
00000000: a3f9 0b3f 3975 243e 8b64 83be 4f7b 203e
00000010: e8f4 c0be 634a cfbe 161c c8be 5a6a a83e
00000020: 0879 b63e 9993 d63e ef5c 753e d39a acbe
00000030: c684 cf3e c241 01bf 73af ff3e e706 2d3e
00000040: eb92 403e 465e c8be 8251 f3bd 0ff1 8d3e
00000050: 6bee 5bbe 2b8c 1abf 821c bbbd 8384 023e
00000060: 6105 54be 62a0 89be f804 a2bd 0b2f c4be
00000070: 124e 043e 8d21 d8be cc4f 5e3f 4620 573f
00000080: 340c a0be e9a5 6cbf 372b 673d adbb 23bd
00000090: 1252 fdbd 7bcf 8f3f 3ae8 893e 0479 113d
000000a0: 6f91 0abf 8f7a f03d 197d 8a3d 7495 20bf
000000b0: ef6f 043f a764 a83a 38b1 1d3f ae28 953e
000000c0: 4ec6 f93e c6f6 23be 4893 97be 6cbf f5be
000000d0: e299 21bf bcbf 883e 9981 71be 19e0 82be
000000e0: afe8 b0be 5855 44be 06bb e73e ba23 e73e
000000f0: 4022 ad3d 0162 013e 3704 17bf 4acb 3d3f
00000100: d6cf 81be b4ef af3e 1b31 c4be ff8b 2bbe
00000110: bf7d 703d 521c 1dbc 449a 07be ce5e 013f
00000120: 3bba 613e 674e 45bd b60a c73e a96b a13e
00000130: c45f a5be d935 d4be 42c2 693d d5ce 87bd
00000140: bf44 f4be dfc1 943e c90f 893e 291b be3e
00000150: b1b9 003f 73e1 2dbf c66b 5b3e b165 1d3f
00000160: fc20 463e 71de a73e 2c6e efbe aa7f f13d
00000170: 1b38 9ebe 3f2a f23d 48fb c23e 0a2a bdbe
00000180: 1eb4 0ebf 7c7c 15be d4e6 10bf 0648 953e
00000190: 2f06 e4bd e0c2 1e3f 401c 16bd 3e91 f83e
000001a0: 3ddd d9be 2d72 0dbd fe1d 313f cccf 12be
000001b0: de78 403d a7b2 57be b378 17bf ba62 8ebe
000001c0: 2d4d d0be 34db be3d ae62 ec3e 1d6b 78be
000001d0: 59ec a2bd 63de 283e 4cbd 28be 7c8b 123f
000001e0: 198e fabe d061 2b3e 47f2 283e bd6d 22bf
000001f0: bd7f 003f f591 38bf dc89 65be a131 fbbc
00000200: bcef c7be 3535 9f3d 8ec6 84bd 4eee 023e
00000210: bf6a 033f 528b 0d3f 66ba c03e a1fc 90bd
00000220: 4b72 3f3e cccb 0f3e fc62 373e 352d 5a3e
00000230: 2d0e b4be 0336 153e 6465 85bd ff04 acbd
00000240: 0388 913d 3de7 ac3d e5be 8f3b 54cf eebd
00000250: be56 17bf 44bd 8f3d 4849 253e e224 ebbe
00000260: 8781 083f 1570 983d bc58 d1be 931e f1bd
00000270: 83b5 00bf 71eb 583e 7d1f 94be 18f1 81be
00000280: e7e6 21bd 2b63 04bf 6400 213f 55e4 353e
00000290: c8cc 043e 5c4c 113e 4f76 5cbe 77f1 c7bd
000002a0: d409 1f3f f511 a93d 8974 083e d007 913e
000002b0: e9ec b93e 9961 d6bc 0387 923d c2c0 7c3d
000002c0: 7e09 8cbe 4378 453e f8a3 6dbe 527f 31bf
000002d0: b444 823e 48c2 13bf 05e0 1ebd 620d 8dbe
000002e0: 2b12 323e 36fd 7d3f e390 fd3c a0a9 fbbe
000002f0: 4bd4 b6be f1e5 bd3e ff71 133f 467c 0c3f
00000300: 77de bcbe de03 c1bc 408a 94be 269c 7b3e
00000310: 5ce8 2e3e 955e 653e ede8 2e3e cddc 963e
00000320: fd8f 0b3e 45ce 7d3e 1bb3 f5bd 5496 a33b
00000330: 5519 663f c9e3 a23e c908 783e 4bca c9be
00000340: e9cb 7ebe 0d60 013f b78c 3c3e 2aef a03e
00000350: 7a7e 02be 7c58 cfbe 9024 733c 7af9 f0be
00000360: 76fe a3be 60c8 843f 4774 d03e a615 09bf
00000370: bf3d acbd 6aee 803b 6198 ab3d 3be7 b13e
00000380: e085 7fbe b96a 69bd a811 173f bac1 b6be
00000390: c2b9 cf3e 8fd3 913d 07f4 133f b5fe 243e
000003a0: 769c fe3e 3ee8 0cbf f917 893e c1cc ebbc
000003b0: bd53 9dbd 5c3c 84bd e3d5 cb3e 3b91 b23d
000003c0: e995 39bf 84d3 72bf 456f 2cbe 03e0 3d3d
000003d0: 31f6 1e3f 7f7d dabe ac3b f7bd a497 913e
000003e0: 46b2 11be 42a6 c73b a112 943e dc51 71bf
000003f0: d94e c7bd 39dd de3b fa85 ebbe eda2 d53d

network_body._body_endoder.seq_layers.0.bias f4 [128]
0.0 0.0 0.0 0.0 0.0 0.0 0.0 0.0
0.0 0.0 0.0 0.0 0.0 0.0 0.0 0.0
0.0 0.0 0.0 0.0 0.0 0.0 0.0 0.0
0.0 0.0 0.0 0.0 0.0 0.0 0.0 0.0
0.0 0.0 0.0 0.0 0.0 0.0 0.0 0.0
0.0 0.0 0.0 0.0 0.0 0.0 0.0 0.0
0.0 0.0 0.0 0.0 0.0 0.0 0.0 0.0
0.0 0.0 0.0 0.0 0.0 0.0 0.0 0.0
0.0 0.0 0.0 0.0 0.0 0.0 0.0 0.0
0.0 0.0 0.0 0.0 0.0 0.0 0.0 0.0
0.0 0.0 0.0 0.0 0.0 0.0 0.0 0.0
0.0 0.0 0.0 0.0 0.0 0.0 0.0 0.0
0.0 0.0 0.0 0.0 0.0 0.0 0.0 0.0
0.0 0.0 0.0 0.0 0.0 0.0 0.0 0.0
0.0 0.0 0.0 0.0 0.0 0.0 0.0 0.0
0.0 0.0 0.0 0.0 0.0 0.0 0.0 0.0
00000000: 0000 0000 0000 0000 0000 0000 0000 0000
00000010: 0000 0000 0000 0000 0000 0000 0000 0000
00000020: 0000 0000 0000 0000 0000 0000 0000 0000
00000030: 0000 0000 0000 0000 0000 0000 0000 0000
00000040: 0000 0000 0000 0000 0000 0000 0000 0000
00000050: 0000 0000 0000 0000 0000 0000 0000 0000
00000060: 0000 0000 0000 0000 0000 0000 0000 0000
00000070: 0000 0000 0000 0000 0000 0000 0000 0000
00000080: 0000 0000 0000 0000 0000 0000 0000 0000
00000090: 0000 0000 0000 0000 0000 0000 0000 0000
000000a0: 0000 0000 0000 0000 0000 0000 0000 0000
000000b0: 0000 0000 0000 0000 0000 0000 0000 0000
000000c0: 0000 0000 0000 0000 0000 0000 0000 0000
000000d0: 0000 0000 0000 0000 0000 0000 0000 0000
000000e0: 0000 0000 0000 0000 0000 0000 0000 0000
000000f0: 0000 0000 0000 0000 0000 0000 0000 0000
00000100: 0000 0000 0000 0000 0000 0000 0000 0000
00000110: 0000 0000 0000 0000 0000 0000 0000 0000
00000120: 0000 0000 0000 0000 0000 0000 0000 0000
00000130: 0000 0000 0000 0000 0000 0000 0000 0000
00000140: 0000 0000 0000 0000 0000 0000 0000 0000
00000150: 0000 0000 0000 0000 0000 0000 0000 0000
00000160: 0000 0000 0000 0000 0000 0000 0000 0000
00000170: 0000 0000 0000 0000 0000 0000 0000 0000
00000180: 0000 0000 0000 0000 0000 0000 0000 0000
00000190: 0000 0000 0000 0000 0000 0000 0000 0000
000001a0: 0000 0000 0000 0000 0000 0000 0000 0000
000001b0: 0000 0000 0000 0000 0000 0000 0000 0000
000001c0: 0000 0000 0000 0000 0000 0000 0000 0000
000001d0: 0000 0000 0000 0000 0000 0000 0000 0000
000001e0: 0000 0000 0000 0000 0000 0000 0000 0000
000001f0: 0000 0000 0000 0000 0000 0000 0000 0000
