Assets/Results/1.onnx (onnx, 70591 bytes, 7 tensors)

action_model._continuous_distribution.log_sigma f4 [1, 2]
0	0x00000000	0.0
1	0x00000000	0.0

action_model._continuous_distribution.mu.bias f4 [2]
0	0x00000000	0.0
1	0x00000000	0.0

action_model._continuous_distribution.mu.weight f4 [2, 128]
0	0x3bbf1cfb	0.005832312
1	0xbcc5b2a4	-0.024133034
2	0x3b73d953	0.0037208393
3	0x3c850aa5	0.016240427
4	0xbd10abbe	-0.035320036
5	0x3b97526a	0.004617979
6	0x3cc9424c	0.024567746
7	0x3ce5ae20	0.02803713
8	0xbb6142fb	-0.00343722
9	0x3cc2ba3b	0.023770442
10	0x3cfc1caa	0.030775387
11	0xbc952e73	-0.018210625
12	0x3c950ef5	0.018195609
13	0x3b472344	0.003038601
14	0x3be94c40	0.0071196854
15	0x3c7cd9e0	0.015432805
16	0x3cd356ba	0.02579819
17	0xbc175600	-0.009236813
18	0x3a9f4759	0.0012152
19	0xbcfe326b	-0.0310299
20	0x3b6e86e0	0.003639631
21	0x3c83afc4	0.016075023
22	0x3ba472d3	0.005018571
23	0x3adab07a	0.0016684674
24	0xbca948ab	-0.020664534
25	0xbc853e79	-0.01626514
26	0xbcd3ac2a	-0.02583893
27	0xbb4e9037	-0.0031519064
28	0x3cb75945	0.022381434
29	0xbc050d6b	-0.008120875
30	0xbcb03e4a	-0.021514077
31	0x3c99e0f3	0.018784022
32	0xbc791450	-0.015202597
33	0x3c0c19ef	0.008551105
34	0x3ceaebf2	0.02867696
35	0xbc54d1af	-0.012989446
36	0xbc10bec4	-0.008834545
37	0x3b7ec63a	0.0038875476
38	0xbcb41b2d	-0.021985615
39	0xbc568580	-0.013093352
40	0xbc257594	-0.010098834
41	0x3bca60b0	0.006176077
42	0xbc1053b4	-0.008809019
43	0x3c9c371e	0.01906925
44	0x3c438a59	0.01193484
45	0x3c1c2f9a	0.0095328335
46	0x3c2aa024	0.010414157
47	0xbcb15a20	-0.02164942
48	0xbc4f3817	-0.01264765
49	0x3cdf419f	0.02725297
50	0x3cf1a3ea	0.029497106
51	0xbc6008a2	-0.013673933
52	0xbc309e28	-0.010779895
53	0xbcc19d81	-0.023634674
54	0x3cd7ac07	0.026327146
55	0xbce0aaf5	-0.027425269
56	0xbbba46e1	-0.005684719
57	0x3b927e97	0.004470657
58	0xbbc53414	-0.006018171
59	0xbced42ff	-0.02896261
60	0xbc7b81cd	-0.015350771
61	0xbc6d4113	-0.014480847
62	0x3bca8337	0.006180193
63	0xbc8a4594	-0.01687888
64	0x3c5de6d7	0.013543806
65	0xbc13e42a	-0.0090265665
66	0xbbcf3c73	-0.006324345
67	0x3be3542a	0.0069375234
68	0x3cddf4fb	0.027094355
69	0xbb7cb08f	-0.0038557386
70	0x3baf7957	0.005355041
71	0x3c786bbd	0.015162406
72	0xbc2772f6	-0.01022028
73	0x3c73dc5f	0.0148840835
74	0xbb54cdaf	-0.003247123
75	0x3ca84bb2	0.020543907
76	0x3c9d293e	0.019184705
77	0xbd250f4d	-0.040297795
78	0xbb3679fb	-0.0027843702
79	0x3cf6e4a0	0.030138314
80	0x3cbc9ce8	0.023024037
81	0xbad3097b	-0.0016100848
82	0xbb60eae8	-0.0034319703
83	0xbc5a41cf	-0.013321354
84	0xbcd16a2b	-0.02556332
85	0xbc358985	-0.0110801505
86	0x3b8d0e7c	0.004304705
87	0x3bbf00a3	0.0058289333
88	0xbca2618a	-0.0198219
89	0xbbf3c31a	-0.0074390294
90	0x3d02ab15	0.031901438
91	0x3c59c52a	0.0132916365
92	0xbb421258	-0.0029612985
93	0x3c95a6f7	0.018268092
94	0x3c179355	0.009251435
95	0x3ca0a536	0.019610029
96	0xbb94f53f	-0.004545837
97	0x3adf944d	0.0017057747
98	0x3d0a9601	0.03383446
99	0x3adbf22f	0.001678055
100	0xbbae2a55	-0.005315105
101	0xbcc8efcd	-0.024528408
102	0xbc66e10b	-0.01409174
103	0x3c82e40f	0.015977887
104	0x3c376a39	0.011194759
105	0x3cb91ffa	0.022598255
106	0xbc4cc501	-0.012498141
107	0xbc8691c8	-0.016426936
108	0x3cb9ae8f	0.022666244
109	0xbd3a5cc0	-0.04549861
110	0xbc67351f	-0.014111786
111	0xb99a1cf6	-0.00029394747
112	0x3c90cf2a	0.017676909
113	0x3b6a1950	0.0035720654
114	0xbc2a85b9	-0.0104078585
115	0xbce2ab73	-0.027669644
116	0x3bc5782e	0.0060262894
117	0x3ce84ea3	0.02835781
118	0x3be18e98	0.0068834536
119	0x3c1eed5d	0.0097001465
120	0x3acbfa19	0.0015562206
121	0x3cc12847	0.023578776
122	0xbc9efa73	-0.019406533
123	0x3c4b2db4	0.012401033
124	0xbb941824	-0.0045194793
125	0xbcaaeddb	-0.020865371
126	0xbb34db65	-0.002759659
127	0x3cc767cd	0.024341488
128	0x3b45a6e5	0.0030159291
129	0x3c28d523	0.010304722
130	0xbbfdd67f	-0.007746517
131	0xbd286dcf	-0.041120347
132	0x3cf6b438	0.030115232
133	0x3cee9c83	0.029127365
134	0x3c073a85	0.008253698
135	0x3c46c23e	0.012131272
136	0x3ad9036f	0.001655681
137	0x3c6343ab	0.013871114
138	0x3bceb277	0.0063078958
139	0x3b8e6a13	0.004346141
140	0x3c7b89cb	0.015352677
141	0x3b6a2f98	0.0035733934
142	0xbcdf07f5	-0.027225474
143	0xbb8c2ab1	-0.00427755
144	0xbca52626	-0.020159792
145	0x3c3b2e70	0.011424646
146	0x3c5ad535	0.013356497
147	0x3beb8af0	0.0071881935
148	0xbcbd2b46	-0.023091923
149	0x3c75c5f8	0.015000813
150	0x3c3cae33	0.011516142
151	0x3bbfbfd8	0.005851727
152	0xbb50d550	-0.0031865425
153	0x3ce3cd6d	0.027807916
154	0xbcedca5b	-0.029027155
155	0x3c2cc43c	0.010544833
156	0x3ab6c19d	0.0013943199
157	0x3cab8cc4	0.020941146
158	0x3c1f481b	0.009721781
159	0x3c2254c9	0.00990791
160	0xbb85047d	-0.004059373
161	0xbb34a2a6	-0.0027562766
162	0x3c81d258	0.01584737
163	0x3b53c14b	0.0032311257
164	0x3b256ec3	0.002524302
165	0xbc916341	-0.017747523
166	0xbc8deee9	-0.017325835
167	0xbcae9595	-0.02131156
168	0xbc33735f	-0.0109528
169	0x3d072cb4	0.033001617
170	0xb8d9f770	-0.00010393455
171	0x3c838c01	0.01605797
172	0x3b97a7cb	0.004628157
173	0xbd27505c	-0.04084812
174	0xb925a0a2	-0.00015795467
175	0x3c03ca9b	0.00804391
176	0x3aebba20	0.0017984547
177	0x39a2b78a	0.00031035795
178	0x3c418213	0.011810797
179	0xbba283fb	-0.004959581
180	0x3d27137a	0.04079006
181	0x3bc043f0	0.005867474
182	0x3c563413	0.013073939
183	0xbccfe923	-0.025379723
184	0x3c04ce26	0.00810579
185	0x3b461e93	0.0030230626
186	0x3a93f86f	0.0011289249
187	0x3cde5a8b	0.027142784
188	0x3ce03102	0.027367119
189	0x3c7b143d	0.015324649
190	0xbcdd317d	-0.027001137
191	0x3b993c2f	0.004676364
192	0xbcbdf06a	-0.023185927
193	0x3ca04d33	0.019568061
194	0xbc0fb458	-0.008771025
195	0x3a2c4bcf	0.00065725757
196	0xbc88960a	-0.016673107
197	0x3c844796	0.016147416
198	0x3ae0564d	0.0017115563
199	0x3c1f13c8	0.009709306
200	0xbb815dad	-0.0039479346
201	0xbba3beb6	-0.0049970997
202	0x3b948da8	0.0045334883
203	0x3c3b6edf	0.011440008
204	0x3c2cb1e1	0.0105404565
205	0xbc8877a9	-0.01665862
206	0x3d7df488	0.06200078
207	0x3d3aed94	0.04563673
208	0x3ba9ef94	0.0051860306
209	0xbc8ab97b	-0.016934147
210	0x3c1c539a	0.009541417
211	0x3b9742ab	0.0046161017
212	0x3cf43b33	0.029813385
213	0x3bbe0527	0.005798954
214	0x3c25e35c	0.0101250075
215	0xba6ebfda	-0.00091075676
216	0xbba1b555	-0.0049349465
217	0x3b4139bc	0.0029483875
218	0x3bf4466a	0.007454683
219	0x3c28ae0f	0.010295405
220	0x3cf5ef77	0.030021412
221	0x3b8a9f15	0.00423039
222	0xbce1e920	-0.027576983
223	0xbcecbc5f	-0.028898416
224	0x3c13c8fa	0.0090200845
225	0x3a02d21f	0.0004990417
226	0xbc4509d7	-0.012026272
227	0xbca16e5a	-0.01970594
228	0xbc2db086	-0.0106011685
229	0xbc925245	-0.017861495
230	0x3ca29331	0.019845577
231	0xbca87e57	-0.020568056
232	0x3d13f1d2	0.03611929
233	0x3ca201a0	0.019776165
234	0xbc0d749b	-0.008633758
235	0x3c806932	0.015675161
236	0xbaa6f66c	-0.0012738234
237	0x3d08f23f	0.03343415
238	0x3c02fd48	0.007994957
239	0xbc863d9b	-0.016386798
240	0xbcaabcfa	-0.020842064
241	0xbac99ebb	-0.0015382388
242	0x38d94ed5	0.0001036205
243	0x3b92ce89	0.0044801873
244	0xbc143b9a	-0.009047413
245	0xbd26adf7	-0.04069325
246	0x3b8a68b3	0.004223907
247	0x3d02e198	0.031953424
248	0xbc8f2de3	-0.017477935
249	0xbba64ce3	-0.0050750836
250	0x3d34fb89	0.044185195
251	0x3b20282f	0.0024438014
252	0xbd06f859	-0.032951687
253	0xbd07e630	-0.03317851
254	0xbc1e8053	-0.00967415
255	0xbc39ec37	-0.011347822

network_body._body_endoder.seq_layers.0.bias f4 [128]
0	0x00000000	0.0
1	0x00000000	0.0
2	0x00000000	0.0
3	0x00000000	0.0
4	0x00000000	0.0
5	0x00000000	0.0
6	0x00000000	0.0
7	0x00000000	0.0
8	0x00000000	0.0
9	0x00000000	0.0
10	0x00000000	0.0
11	0x00000000	0.0
12	0x00000000	0.0
13	0x00000000	0.0
14	0x00000000	0.0
15	0x00000000	0.0
16	0x00000000	0.0
17	0x00000000	0.0
18	0x00000000	0.0
19	0x00000000	0.0
20	0x00000000	0.0
21	0x00000000	0.0
22	0x00000000	0.0
23	0x00000000	0.0
24	0x00000000	0.0
25	0x00000000	0.0
26	0x00000000	0.0
27	0x00000000	0.0
28	0x00000000	0.0
29	0x00000000	0.0
30	0x00000000	0.0
31	0x00000000	0.0
32	0x00000000	0.0
33	0x00000000	0.0
34	0x00000000	0.0
35	0x00000000	0.0
36	0x00000000	0.0
37	0x00000000	0.0
38	0x00000000	0.0
39	0x00000000	0.0
40	0x00000000	0.0
41	0x00000000	0.0
42	0x00000000	0.0
43	0x00000000	0.0
44	0x00000000	0.0
45	0x00000000	0.0
46	0x00000000	0.0
47	0x00000000	0.0
48	0x00000000	0.0
49	0x00000000	0.0
50	0x00000000	0.0
51	0x00000000	0.0
52	0x00000000	0.0
53	0x00000000	0.0
54	0x00000000	0.0
55	0x00000000	0.0
56	0x00000000	0.0
57	0x00000000	0.0
58	0x00000000	0.0
59	0x00000000	0.0
60	0x00000000	0.0
61	0x00000000	0.0
62	0x00000000	0.0
63	0x00000000	0.0
64	0x00000000	0.0
65	0x00000000	0.0
66	0x00000000	0.0
67	0x00000000	0.0
68	0x00000000	0.0
69	0x00000000	0.0
70	0x00000000	0.0
71	0x00000000	0.0
72	0x00000000	0.0
73	0x00000000	0.0
74	0x00000000	0.0
75	0x00000000	0.0
76	0x00000000	0.0
77	0x00000000	0.0
78	0x00000000	0.0
79	0x00000000	0.0
80	0x00000000	0.0
81	0x00000000	0.0
82	0x00000000	0.0
83	0x00000000	0.0
84	0x00000000	0.0
85	0x00000000	0.0
86	0x00000000	0.0
87	0x00000000	0.0
88	0x00000000	0.0
89	0x00000000	0.0
90	0x00000000	0.0
91	0x00000000	0.0
92	0x00000000	0.0
93	0x00000000	0.0
94	0x00000000	0.0
95	0x00000000	0.0
96	0x00000000	0.0
97	0x00000000	0.0
98	0x00000000	0.0
99	0x00000000	0.0
100	0x00000000	0.0
101	0x00000000	0.0
102	0x00000000	0.0
103	0x00000000	0.0
104	0x00000000	0.0
105	0x00000000	0.0
106	0x00000000	0.0
107	0x00000000	0.0
108	0x00000000	0.0
109	0x00000000	0.0
110	0x00000000	0.0
111	0x00000000	0.0
112	0x00000000	0.0
113	0x00000000	0.0
114	0x00000000	0.0
115	0x00000000	0.0
116	0x00000000	0.0
117	0x00000000	0.0
118	0x00000000	0.0
119	0x00000000	0.0
120	0x00000000	0.0
121	0x00000000	0.0
122	0x00000000	0.0
123	0x00000000	0.0
124	0x00000000	0.0
125	0x00000000	0.0
126	0x00000000	0.0
127	0x00000000	0.0

network_body._body_endoder.seq_layers.0.weight f4 [128, 2]
0	0xbe2a6472	-0.1663988
1	0xbf95bff2	-1.1699202
2	0x3d5f3cc9	0.05450133
3	0xbee5bf0e	-0.44872326
4	0x3f86904d	1.0512787
5	0x3e8a8b5e	0.27059454
6	0x3f7a1b67	0.9769806
7	0xbf6330b4	-0.8874619
8	0xbe85a383	-0.26101312
9	0xbf51ac4c	-0.8190353
10	0xbf8141d7	-1.0098218
11	0x3e45e5ea	0.19325987
12	0x3ed4b3d7	0.41543457
13	0xbe8d0441	-0.27542308
14	0xbf83a852	-1.0285742
15	0xbfafc44c	-1.373178
16	0xbeebdcb4	-0.4606682
17	0x3eea8f6e	0.45812553
18	0xbe07e72e	-0.13271782
19	0xbe575ef4	-0.21032315
20	0xbe05f76c	-0.13082665
21	0xbf10c5e0	-0.56551933
22	0xbea2d964	-0.3180648
23	0x3eb5839f	0.3545198
24	0xbe1f6793	-0.15566854
25	0xbef06ffe	-0.46960443
26	0x3f5f081d	0.87121755
27	0x3f2440da	0.64161456
28	0xbf0346bb	-0.512798
29	0x3eb63f22	0.35595042
30	0x3f6a3017	0.9147963
31	0xbf6ad4b6	-0.9173082
32	0xbf030869	-0.5118471
33	0x3f0234b3	0.5086166
34	0xbf1844ad	-0.5947979
35	0xbea50845	-0.32232872
36	0x3ed7f19e	0.42176527
37	0x3de1a4bf	0.11017751
38	0xbe8642e8	-0.2622292
39	0xbf45b4d4	-0.77229047
40	0x3e7c981d	0.24667402
41	0x3f1b8e04	0.60763574
42	0xc01d3add	-2.4567177
43	0x3f01a6a8	0.5064492
44	0x3f2f942a	0.68585455
45	0x3f02128f	0.5080957
46	0x3fc6cc26	1.5531051
47	0x3f2d5abb	0.6771657
48	0x3f842f1d	1.0326878
49	0xbe8acaef	-0.2710795
50	0x3f4bb3b7	0.795711
51	0xbe0d546a	-0.13801733
52	0x3f70c5a0	0.9405155
53	0x3fac909f	1.3481635
54	0xbf903707	-1.1266793
55	0xbea6a601	-0.32548526
56	0xbeb28f31	-0.3487487
57	0xbf684fa5	-0.9074653
58	0x3f1032d9	0.5632759
59	0x3f03d8c9	0.5150266
60	0xbe8ea2a7	-0.2785847
61	0x3fecf459	1.8512069
62	0x3fb763cd	1.4327332
63	0x3e223147	0.1583911
64	0xbf6361e7	-0.8882126
65	0x3e40104e	0.1875622
66	0xbedd89c8	-0.4326918
67	0xbd2f8555	-0.042851765
68	0x3f910d8a	1.1332257
69	0xbf2697a2	-0.65075123
70	0x3f55bb66	0.8348907
71	0xbed8bcb8	-0.4233148
72	0xbe1c044b	-0.15236013
73	0xbfb6c44f	-1.4278659
74	0x3dd47ceb	0.10375389
75	0x3d25ac69	0.040447626
76	0x3e0906d8	0.13381517
77	0x3eeb4d4b	0.45957407
78	0x3eef33d9	0.46719244
79	0x3e97df48	0.29662538
80	0x3f66bb37	0.9012942
81	0xbd924eba	-0.07143922
82	0xbe401d1f	-0.18761109
83	0x3ee4b4fa	0.44669324
84	0xbf2e63ca	-0.68121016
85	0xbe319bb2	-0.1734455
86	0x3f2a80fd	0.6660307
87	0xbe3ce0df	-0.18445157
88	0xbec816ac	-0.39079797
89	0xbe071052	-0.1318982
90	0xbe8145fd	-0.2524871
91	0xbc5299d6	-0.01285406
92	0xbf4125ea	-0.7544848
93	0xbe9ed8cc	-0.31024778
94	0x3f180dae	0.59395874
95	0x3e292572	0.1651819
96	0xbf5f1468	-0.8714051
97	0xbf7a5285	-0.97782165
98	0xbed73b7c	-0.4203757
99	0xbedfe0f7	-0.43726322
100	0x3ed47815	0.41497865
101	0x3d6f9b63	0.058497798
102	0xbf726e71	-0.9469977
103	0xbf4fdd71	-0.8119727
104	0x3f350cd6	0.7072271
105	0x3e65cd02	0.22441486
106	0xbf007723	-0.5018179
107	0xbe332f3a	-0.17498484
108	0x3fa2e4a1	1.2726022
109	0x3e003889	0.12521566
110	0xbf537c94	-0.82611966
111	0x3e19fe46	0.15038404
112	0x3fce7f91	1.613268
113	0xbf9761e0	-1.1826744
114	0x3fb6bd63	1.4276546
115	0xbe648b76	-0.22318825
116	0xbe1664f0	-0.14686942
117	0xbf0a39c5	-0.539944
118	0xbfc19728	-1.5124254
119	0x3f01ad76	0.50655305
120	0x3eac1934	0.33612978
121	0x3e305a03	0.17221837
122	0x3ef8b7be	0.48577684
123	0xbf82a892	-1.0207694
124	0xbe94382b	-0.28949103
125	0x3e124dae	0.14287445
126	0xbeb7553d	-0.3580722
127	0xbf8daba2	-1.1068003
128	0xbd2dd7ab	-0.042442005
129	0x3f2c13ce	0.6721772
130	0x3ea38d1d	0.31943598
131	0xbf2f827a	-0.68558466
132	0xbe4cb9be	-0.1999273
133	0xbeb9b16e	-0.3626818
134	0x3f9d9a92	1.2312796
135	0xbd98e68d	-0.07465849
136	0xbed7a979	-0.42121485
137	0xbfa64da0	-1.2992439
138	0xbea35d8c	-0.31907308
139	0x3f38f2fc	0.72245765
140	0x3ee77a74	0.45210612
141	0xbeb352d2	-0.35024124
142	0xbf1f93b9	-0.6233478
143	0x3fa623f0	1.2979717
144	0xbfccf92f	-1.6013545
145	0x3f4354fc	0.7630155
146	0x3ec809dc	0.39070022
147	0x3d077012	0.033065863
148	0x3ee57d99	0.44822386
149	0xbf3790c6	-0.7170528
150	0xbf9f1f6e	-1.2431467
151	0x3f0395a3	0.514002
152	0xbc7bffaa	-0.015380779
153	0x3e9c0103	0.30469522
154	0xbea56921	-0.3230677
155	0xbf93e158	-1.1553144
156	0xbf854f5d	-1.0414845
157	0x3e4bef38	0.19915473
158	0xbe5e107c	-0.21685976
159	0x3f0e0dff	0.55490106
160	0xbfb00672	-1.3751967
161	0x3f6ddd9c	0.92916274
162	0x3f3da634	0.7408173
163	0x3e76711e	0.24066588
164	0x3e2c3044	0.16815287
165	0xbe497be3	-0.19676165
166	0xbf6b5bdf	-0.9193706
167	0xba38cdd0	-0.00070497114
168	0xbf7624a7	-0.9614968
169	0xbf9cc802	-1.2248538
170	0x3f6eb541	0.9324532
171	0x3f0e1f1c	0.5551622
172	0x3e3e841d	0.18605085
173	0x3c50fdc9	0.01275582
174	0xbbe9b27b	-0.0071318722
175	0x3f3fb63f	0.7488746
176	0x3f669da9	0.9008432
177	0xbe719663	-0.23592524
178	0x3f99f4ed	1.202787
179	0xbf024d44	-0.5089915
180	0x3f78bef7	0.9716639
181	0x3fd155bd	1.635429
182	0x3c863279	0.01638149
183	0x3d220905	0.039559383
184	0x3e8cf5ea	0.27531368
185	0x3db87211	0.090061314
186	0x3e2c8672	0.16848162
187	0x3fc793fd	1.5592037
188	0x3fba5e80	1.4560089
189	0xbf7592f4	-0.9592736
190	0xbe91882d	-0.28424206
191	0xbf129472	-0.5725776
192	0xbede80a6	-0.43457526
193	0x3f3f8e68	0.7482667
194	0x3f1cb753	0.6121723
195	0x3ea1ef04	0.31627667
196	0x3f3963dd	0.72418004
197	0xbf95421b	-1.1660799
198	0xbf5450af	-0.82935613
199	0xbd433d9b	-0.047666173
200	0x3f018ee9	0.5060869
201	0x3e0d3d33	0.13792877
202	0xbcfe63dc	-0.031053476
203	0xbf9b8eff	-1.2153014
204	0x3eeb0b3d	0.45907012
205	0x3e101dea	0.14073911
206	0xbd33110b	-0.043717425
207	0x3f578a8d	0.84195787
208	0x3f4db4b3	0.8035385
209	0xbe08b15b	-0.13348906
210	0xbf94eb35	-1.163428
211	0x3e2f2d08	0.17107022
212	0xbf0bb2bf	-0.5456962
213	0xbe884de4	-0.26621926
214	0x3e130147	0.14355956
215	0xbf0e1fc4	-0.5551722
216	0xbfa63545	-1.2985007
217	0xbf91f45d	-1.1402699
218	0xbf8c0ed5	-1.0942026
219	0xbf9bd19c	-1.2173343
220	0x3e871226	0.26381034
221	0xbf96d0f9	-1.1782523
222	0x3eb92c07	0.36166403
223	0x3e59a601	0.21254732
224	0x3f1a1da2	0.60201466
225	0x3ef928d1	0.48663953
226	0x3e828281	0.25490192
227	0xbf95ddbb	-1.1708292
228	0x3f2d33cf	0.6765718
229	0x3ec61743	0.38689622
230	0xbdea05cf	-0.11426889
231	0x3e4c6922	0.1996198
232	0xbf87caf8	-1.0608816
233	0x3e3197ed	0.17343111
234	0xbf9dff1b	-1.2343477
235	0x3e800823	0.25006208
236	0xbf114072	-0.5673896
237	0xbf4a2ea3	-0.7897741
238	0xbf56aaed	-0.8385456
239	0x3f17e704	0.59336877
240	0xbf41f3e9	-0.757628
241	0xbea3ea94	-0.32014906
242	0xbeb526eb	-0.35381255
243	0x3f082477	0.5318064
244	0xbfca5977	-1.5808553
245	0x3f5ee608	0.8706975
246	0xbdd4a3e1	-0.1038282
247	0xbe6f3975	-0.23361762
248	0x3f68ea82	0.9098283
249	0x3fb4f428	1.413701
250	0x3f1f1295	0.6213773
251	0x3ebec48a	0.37259322
252	0x3fa2c532	1.2716429
253	0x3f08003a	0.53125346
254	0xbe79766a	-0.24361578
255	0xbf039e89	-0.5141378

network_body._body_endoder.seq_layers.2.bias f4 [128]
0	0x00000000	0.0
1	0x00000000	0.0
2	0x00000000	0.0
3	0x00000000	0.0
4	0x00000000	0.0
5	0x00000000	0.0
6	0x00000000	0.0
7	0x00000000	0.0
8	0x00000000	0.0
9	0x00000000	0.0
10	0x00000000	0.0
11	0x00000000	0.0
12	0x00000000	0.0
13	0x00000000	0.0
14	0x00000000	0.0
15	0x00000000	0.0
16	0x00000000	0.0
17	0x00000000	0.0
18	0x00000000	0.0
19	0x00000000	0.0
20	0x00000000	0.0
21	0x00000000	0.0
22	0x00000000	0.0
23	0x00000000	0.0
24	0x00000000	0.0
25	0x00000000	0.0
26	0x00000000	0.0
27	0x00000000	0.0
28	0x00000000	0.0
29	0x00000000	0.0
30	0x00000000	0.0
31	0x00000000	0.0
32	0x00000000	0.0
33	0x00000000	0.0
34	0x00000000	0.0
35	0x00000000	0.0
36	0x00000000	0.0
37	0x00000000	0.0
38	0x00000000	0.0
39	0x00000000	0.0
40	0x00000000	0.0
41	0x00000000	0.0
42	0x00000000	0.0
43	0x00000000	0.0
44	0x00000000	0.0
45	0x00000000	0.0
46	0x00000000	0.0
47	0x00000000	0.0
48	0x00000000	0.0
49	0x00000000	0.0
50	0x00000000	0.0
51	0x00000000	0.0
52	0x00000000	0.0
53	0x00000000	0.0
54	0x00000000	0.0
55	0x00000000	0.0
56	0x00000000	0.0
57	0x00000000	0.0
58	0x00000000	0.0
59	0x00000000	0.0
60	0x00000000	0.0
61	0x00000000	0.0
62	0x00000000	0.0
63	0x00000000	0.0
64	0x00000000	0.0
65	0x00000000	0.0
66	0x00000000	0.0
67	0x00000000	0.0
68	0x00000000	0.0
69	0x00000000	0.0
70	0x00000000	0.0
71	0x00000000	0.0
72	0x00000000	0.0
73	0x00000000	0.0
74	0x00000000	0.0
75	0x00000000	0.0
76	0x00000000	0.0
77	0x00000000	0.0
78	0x00000000	0.0
79	0x00000000	0.0
80	0x00000000	0.0
81	0x00000000	0.0
82	0x00000000	0.0
83	0x00000000	0.0
84	0x00000000	0.0
85	0x00000000	0.0
86	0x00000000	0.0
87	0x00000000	0.0
88	0x00000000	0.0
89	0x00000000	0.0
90	0x00000000	0.0
91	0x00000000	0.0
92	0x00000000	0.0
93	0x00000000	0.0
94	0x00000000	0.0
95	0x00000000	0.0
96	0x00000000	0.0
97	0x00000000	0.0
98	0x00000000	0.0
99	0x00000000	0.0
100	0x00000000	0.0
101	0x00000000	0.0
102	0x00000000	0.0
103	0x00000000	0.0
104	0x00000000	0.0
105	0x00000000	0.0
106	0x00000000	0.0
107	0x00000000	0.0
108	0x00000000	0.0
109	0x00000000	0.0
110	0x00000000	0.0
111	0x00000000	0.0
112	0x00000000	0.0
113	0x00000000	0.0
114	0x00000000	0.0
115	0x00000000	0.0
116	0x00000000	0.0
117	0x00000000	0.0
118	0x00000000	0.0
119	0x00000000	0.0
120	0x00000000	0.0
121	0x00000000	0.0
122	0x00000000	0.0
123	0x00000000	0.0
124	0x00000000	0.0
125	0x00000000	0.0
126	0x00000000	0.0
127	0x00000000	0.0

network_body._body_endoder.seq_layers.2.weight f4 [128, 128]
0	0xbca593c1	-0.020212056
1	0x3d8ac5c2	0.067760006
2	0x3e04ac93	0.12956457
3	0xbafda3bf	-0.0019351168
4	0xbdb4ff4b	-0.08837756
5	0xbda4f3e2	-0.080543295
6	0xbd6a5742	-0.05721212
7	0xbdc05aec	-0.09392342
8	0x3deae5d3	0.11469617
9	0x3d05ba45	0.032648344
10	0xbd808c03	-0.06276705
11	0xbd479616	-0.048727117
12	0xbaad7932	-0.0013234972
13	0xbd83548e	-0.06412612
14	0xbdbe58b2	-0.09294261
15	0xbd3c0df2	-0.045911737
16	0xbdd9f95d	-0.106432654
17	0x3d33a4a1	0.043858174
18	0xbda5f701	-0.08103753
19	0x3d40d958	0.047082275
20	0xbdb5b31a	-0.088720515
21	0x3aacef7c	0.001319393
22	0x3e129170	0.14313293
23	0xbda973b3	-0.08274021
24	0x3dae2c23	0.08504512
25	0xbd32bb93	-0.043635916
26	0x3d05323c	0.03251861
27	0x3c5f4107	0.013626344
28	0x3a000f43	0.00048850867
29	0xbc932bb1	-0.01796517
30	0xbb28d81d	-0.002576358
31	0x3cb82f63	0.022483533
32	0x3dbc4a9e	0.091939196
33	0x3cd45835	0.025920967
34	0x3b881f7d	0.0041541443
35	0xbdc69fef	-0.09698474
36	0xbd7ce066	-0.06173744
37	0x3da0d616	0.07853334
38	0x3c7e519b	0.015522386
39	0x3d321507	0.043477084
40	0x3de17848	0.1100927
41	0xbd615fc2	-0.055022962
42	0xbb3fee37	-0.0029286274
43	0x3d2019c8	0.039087087
44	0xbe2b2fd9	-0.16717471
45	0xbb41eced	-0.0029590682
46	0xbdec2bc7	-0.11531787
47	0xbdd21b61	-0.10259128
48	0xbd7e5285	-0.062090416
49	0x3e00d38a	0.12580696
50	0x3aba5636	0.0014216367
51	0xbda20a08	-0.079120696
52	0x3cca2b84	0.024678953
53	0x3e0d7752	0.13815048
54	0xbc9c88e9	-0.019108253
55	0x3ca2ba68	0.019864276
56	0xbcea7128	-0.02861841
57	0x3decd6e2	0.11564423
58	0x3e2e7131	0.17035367
59	0xbdbc000e	-0.09179698
60	0xbe037362	-0.12836984
61	0xbd1d0d11	-0.03834254
62	0xbd231e38	-0.03982374
63	0x3c09f35d	0.008419839
64	0xbca6fe63	-0.020384973
65	0xbc434ec5	-0.011920636
66	0xbbfc4fb3	-0.0076999306
67	0xbd1036d7	-0.03520855
68	0x3d8fc361	0.070196874
69	0xbdb0a2be	-0.086247906
70	0x3e071bc6	0.13194188
71	0x3d6566cc	0.056006238
72	0xbe0ace35	-0.13555224
73	0xbd9f794a	-0.07786806
74	0xbc0fcc69	-0.0087767625
75	0xbc83e22a	-0.016099054
76	0xbd1f308b	-0.038864654
77	0xbdd08641	-0.10181857
78	0x3d6baffc	0.05754088
79	0x3cd9cf08	0.026587978
80	0xbd392ce1	-0.045208815
81	0x3b64d8ad	0.0034919188
82	0x3c3ab961	0.011396737
83	0xbe08d6fe	-0.13363263
84	0xbd9a1762	-0.07523991
85	0x3c477ca0	0.012175709
86	0xbd052949	-0.032510076
87	0xbd347478	-0.044056386
88	0x3d8f5646	0.06998877
89	0xbe1f99ee	-0.15586063
90	0x3d16b077	0.036789384
91	0xbb122d25	-0.002230474
92	0x3d1e5345	0.03865363
93	0x3d8daac9	0.0691734
94	0x3d3d72cf	0.046252068
95	0x3d0b505e	0.03401219
96	0x3bb2ea6f	0.0054600756
97	0x3dc723c8	0.097236216
98	0xbd929e45	-0.07159094
99	0x3d6ec49b	0.058292966
100	0x3c085c27	0.008322752
101	0x3d8464fb	0.06464573
102	0x3e10d399	0.14143218
103	0x3e13796e	0.1440179
104	0x3dc34673	0.095349215
105	0x3caf599b	0.021405032
106	0x3cf77594	0.030207433
107	0x3b5221fe	0.0032063718
108	0xbc4eb60c	-0.012616646
109	0x3da75022	0.08169581
110	0x3d492e64	0.049116507
111	0x3c734304	0.014847521
112	0x3d4d3f3f	0.050109144
113	0xbe041b93	-0.12901144
114	0x3df0da7f	0.11760425
115	0x3de7821b	0.113041125
116	0x3cd37b39	0.025815593
117	0xbb89e910	-0.0042086914
118	0x3b08e61a	0.0020889104
119	0xbc0ae3a7	-0.008477128
120	0x3d9b2e37	0.07577174
121	0xbd954e2b	-0.072903
122	0xbd319b95	-0.043361265
123	0x3c30097c	0.010744449
124	0xbdc660ab	-0.09686407
125	0x3ce17607	0.0275221
126	0xbcbe6336	-0.023240667
127	0x3de362ae	0.11102806
128	0xbcfcf9b2	-0.030880783
129	0x3d9d6937	0.07686084
130	0x3d9156ed	0.07096658
131	0xbd3f8323	-0.04675592
132	0x3b249ada	0.0025116713
133	0xbd8bec78	-0.06832212
134	0xbe57b226	-0.21064052
135	0x3aef0f65	0.0018238841
136	0xbd0788eb	-0.03308956
137	0xbd8b36d4	-0.06797567
138	0xbd1ca73c	-0.038245425
139	0xbb9b1206	-0.004732373
140	0x3d941183	0.072299026
141	0x3ca4e1fd	0.02012729
142	0xbc9931f9	-0.018700587
143	0xbca654fa	-0.020304192
144	0x3e0c8d4a	0.13725773
145	0xbc8faf19	-0.017539548
146	0x3ddf52a6	0.10904436
147	0xbdaa698b	-0.08320912
148	0xbd86b33c	-0.06577155
149	0xbcaa398c	-0.020779394
150	0x3d5b403f	0.053528067
151	0xbe17b580	-0.1481533
152	0xbd3798b4	-0.044823363
153	0x3d93c1f3	0.07214727
154	0xbce892e5	-0.028390357
155	0x3d4087b3	0.047004413
156	0x3c1bdebf	0.009513556
157	0x3def3ae0	0.116811514
158	0xbce600f7	-0.028076632
159	0x3e0af69a	0.13570634
160	0x3d72ea25	0.05930533
161	0x3d3b42e4	0.04571809
162	0xbccb983e	-0.024852868
163	0xbd617c18	-0.055049986
164	0xbd1965e2	-0.03745068
165	0x3d9353a8	0.071936905
166	0x3c8175e7	0.01580329
167	0x3d798f16	0.060927473
168	0xbd1b22e2	-0.037875064
169	0x3e1c9ba9	0.15293755
170	0xbd88bc76	-0.06676571
171	0xbaeb74b3	-0.0017963856
172	0xbe1f7e3b	-0.15575497
173	0x3dc0b7c0	0.094100475
174	0xbcd5e096	-0.026108067
175	0xbde97158	-0.11398572
176	0xbd619806	-0.05507662
177	0xbdb2514d	-0.08706913
178	0xbb8b99a6	-0.0042602597
179	0xbca9ebfe	-0.020742413
180	0x3c9010f5	0.01758621
181	0xbdea10ba	-0.114289716
182	0xbe065b46	-0.13120756
183	0x3dadcb5b	0.084860526
184	0x3e093a07	0.13401042
185	0xbd0308f2	-0.031990953
186	0x3cb7334b	0.022363326
187	0xbdbaa245	-0.09112982
188	0x3e77b118	0.2418865
189	0xbd37f6b3	-0.044913005
190	0xbcbd40d1	-0.023102196
191	0x3d0c3fc6	0.034240507
192	0xbdc5f15d	-0.09665177
193	0x3df962da	0.121770576
194	0x3d83ca67	0.064350896
195	0xbdb46286	-0.08807854
196	0xbdb53f37	-0.08849948
197	0x3d2cc8da	0.042183734
198	0x3de15f40	0.110044956
199	0x3c9f47b8	0.019443378
200	0x3dc03e52	0.09386887
201	0xbe21cbe9	-0.15800442
202	0xbb9b2c49	-0.004735504
203	0xbcf43eca	-0.029815096
204	0x3c2f1dbd	0.0106882425
205	0x3e18eb3a	0.14933482
206	0x3ca13433	0.01967821
207	0xbd6d445c	-0.05792652
208	0xbe86398d	-0.26215783
209	0xbc0dbb04	-0.008650545
210	0xbd0fc652	-0.035101242
211	0xbe222b4a	-0.15836826
212	0xbdd6d0aa	-0.10489018
213	0x3dfbd32c	0.12296137
214	0xbcea6328	-0.028611735
215	0xbc98840a	-0.018617649
216	0x3dbb2e51	0.091396935
217	0xbca2db80	-0.019880056
218	0x3b7ddf02	0.003873766
219	0x3da76da3	0.081752084
220	0xbdb13a7b	-0.086537324
221	0x3d3b3481	0.04570437
222	0xbd1cc49f	-0.03827345
223	0x3e210f7b	0.15728562
224	0x3c041c0b	0.008063327
225	0x3dcba6cd	0.09943924
226	0x3d50e994	0.051004007
227	0xbd7e97ca	-0.062156476
228	0xbdd4c4f4	-0.10389128
229	0xbd6fd368	-0.058551222
230	0x3db2ec7e	0.087365136
231	0x3c8d338d	0.017236495
232	0xbd6dd657	-0.05806574
233	0x3dd08429	0.101814575
234	0xbd1a8d23	-0.037732255
235	0x3de82346	0.11334853
236	0x3d9d608a	0.07684429
237	0x3d3061c7	0.043061998
238	0x3c005e27	0.007834948
239	0x3cc3777a	0.023860682
240	0xbd58be12	-0.05291564
241	0xbdc47fe1	-0.095947035
242	0xbe0a7927	-0.13522778
243	0xbd35b725	-0.044364113
244	0x3d70f5c0	0.058828115
245	0x3d67ccd5	0.056591827
246	0xbd66318b	-0.05619959
247	0xbe37d66d	-0.1795289
248	0xbb8e5e26	-0.0043447195
249	0xbc3ad4e7	-0.011403299
250	0xbd3776b2	-0.04479093
251	0x3c9267b7	0.01787172
252	0xbda3e38b	-0.08002385
253	0x3da1d498	0.07901877
254	0x3cd16394	0.025560178
255	0x3c8d7202	0.017266277
