results/ppo/EatFood/EatFood-20350.onnx (onnx, 70591 bytes, 7 tensors)

action_model._continuous_distribution.log_sigma f4 [1, 2]
000000 00 69 17 ba 68 b7 4c bb
       -0.0005775839 -0.0031237248

action_model._continuous_distribution.mu.bias f4 [2]
000000 04 af b1 3b 7e ff d5 bb
       0.005422475 -0.006530701

action_model._continuous_distribution.mu.weight f4 [2, 128]
000000 9b a5 18 bb 1a 28 46 ba 3a cb aa bb 40 46 42 bc
       -0.0023292068 -0.0007559076 -0.005212215 -0.011857569
000010 a1 e2 d6 3b 04 77 c8 bc 04 2b ce 3b 9b 41 a5 bb
       0.006557778 -0.024470814 0.006291749 -0.005043221
000020 ac 3c 38 3c 92 d7 04 bd cf a8 a6 3c 7b 31 86 3c
       0.011244934 -0.032432146 0.020344166 0.016381016
000030 2b 6b 80 3c 00 49 e5 bb 63 d9 b8 bb 11 a5 d5 3b
       0.015676102 -0.0069972277 -0.005641149 0.0065199216
000040 f8 de 8c 3c 13 c6 ce ba 53 ec e0 bc 9c a8 2b 3c
       0.017196164 -0.0015775583 -0.027456438 0.010477211
000050 8f 96 66 bc ec ce be bc ed b8 0d bd 7f b8 12 3a
       -0.014073982 -0.023292027 -0.034600187 0.000559695
000060 0b b2 2d 3c f9 69 8f bc 15 4e 7e bc da ee 05 bc
       0.010601531 -0.017506586 -0.015521546 -0.008174622
000070 f6 4e 8b bb ec 31 8a bc b9 a6 db 3c 3f 99 50 3c
       -0.0042513562 -0.016869508 0.026812898 0.012731849
000080 18 85 4e bc de 95 86 3c e5 f3 c6 bc c2 5e 5e bc
       -0.012604974 0.016428884 -0.02428622 -0.013572397
000090 0d 02 bd 3b fe 2b 2e bd 52 6f ae bb af 8f 84 3c
       0.0057680667 -0.042522423 -0.005323329 0.016181795
0000a0 81 aa 08 bd 86 f6 f6 bc 02 a0 0d bc 8f 69 51 bc
       -0.03336573 -0.030146848 -0.008644106 -0.012781515
0000b0 08 85 62 3c 1d 5b 4e 3c bc 44 8c bc 34 26 54 3c
       0.013825662 0.012594965 -0.017122619 0.012948561
0000c0 6d fe aa bb 13 17 a4 ba 60 05 ea b9 98 9b 50 3b
       -0.005218318 -0.0012519084 -0.00044635963 0.0031831022
0000d0 93 62 23 3b 61 b2 59 bc c8 a5 60 bc be 5b cf 3c
       0.002493058 -0.013287158 -0.0137114 0.0253123
0000e0 c8 f5 b2 bc e7 48 9b bb 61 1f a0 3c 84 44 8d 3b
       -0.021845713 -0.0047389152 0.019546213 0.004311146
0000f0 e9 73 3f bd 98 d6 d4 3c f7 30 ff 3b 6a 65 29 3c
       -0.0467414 0.025981233 0.0077878195 0.01033912
000100 ad 92 cd bc b2 ed 00 bd 2d 8f 17 bd 88 c3 7d bc
       -0.025094355 -0.031476684 -0.037001777 -0.015488513
000110 7f 5d 1f 3c 64 55 42 3c 12 dc f7 3b fa 7a 5d 3c
       0.009726881 0.011861179 0.007564076 0.013518089
000120 33 43 89 bb 67 e5 13 bc 3c 07 a7 bc 4f cd 93 bb
       -0.004188919 -0.009026862 -0.020389192 -0.0045105587
000130 cf 41 16 ba 4d 4f 8d bc 06 45 8b 3b 06 d1 0f bd
       -0.0005731852 -0.017249728 0.0042501716 -0.03511145
000140 ab c0 79 3b 1f 2a 46 3c ae 99 a0 3a 22 4e 84 3c
       0.0038109224 0.012095003 0.0012252831 0.016150538
000150 73 e8 62 3b 62 a3 bb 3c 78 9c 69 bc 9b 19 cf 3b
       0.0034623414 0.022905055 -0.014258496 0.006320191
000160 77 05 d0 3a 18 c5 a8 3c d2 a8 73 bc f9 6f 2e bc
       0.0015870769 0.020601794 -0.014871793 -0.010646814
000170 2d f3 c8 3c f2 d5 98 bc ea 27 e2 3c a3 36 9b ba
       0.024530018 -0.018656705 0.027606923 -0.0011841845
000180 ab 12 f5 3a 51 02 d9 bb bf 8a a0 3c 63 91 62 3c
       0.001869758 -0.0066225906 0.01959741 0.013828608
000190 c2 49 7d 3c b7 08 c1 3c 54 6b a6 3c b2 13 44 3c
       0.01545948 0.023563726 0.02031485 0.011967586
0001a0 5b e5 0a bc 03 bc 80 3b 95 13 d8 bb de 9d 81 bb
       -0.008477534 0.0039286627 -0.0065941312 -0.003955587
0001b0 33 25 82 bb e0 df ed bc d1 d5 b2 3a 3a f6 88 3c
       -0.0039717196 -0.029037416 0.0013644045 0.016718972
0001c0 77 36 d4 3c 80 37 21 3c a0 67 1f bd 71 e8 6f 37
       0.025904877 0.009839892 -0.038917184 1.429963e-05
0001d0 48 c7 b3 3c 88 82 89 3b f9 1a b5 bb a6 75 d9 3a
       0.02194561 0.0041964687 -0.005526897 0.0016590848
0001e0 72 21 87 ba a4 06 1a bb 13 ff 43 bc 12 6c 28 3d
       -0.001030965 -0.0023502493 -0.01196267 0.04111869
0001f0 6e c6 85 3c 27 5c 14 3b 6e a8 b5 bc 66 1b 86 bb
       0.01632997 0.0022637935 -0.02217504 -0.0040926216
000200 18 dd dc bb c9 4c 2f 3c 17 fd 7b 3c 00 a8 b6 bc
       -0.0067402236 0.010699459 0.015380166 -0.022296906
000210 8a bc 7b bc 65 f5 bb 3c 11 ae dd ba f2 fb b1 3c
       -0.015364775 0.022944162 -0.0016912838 0.021726582
000220 4e ee 0e 3a de e7 24 3c 13 26 88 3c 75 54 87 3c
       0.000545238 0.010065047 0.016619718 0.016519764
000230 9f bf 7f 3c 9b a5 b5 3c 46 65 27 3d 56 39 e7 3c
       0.015609651 0.022173693 0.040868066 0.028225582
000240 68 24 c2 bc e0 e4 35 bc 4d 27 a4 3c 5b 5a 5a bc
       -0.023699 -0.011101931 0.020038271 -0.0133272065
000250 38 df 16 bd ae 98 db 3c 79 5d 10 bc ad 16 95 3c
       -0.03683397 0.026806202 -0.008811348 0.01819929
000260 d6 4d f7 3c 85 08 7d 3d 83 2a 68 3c 14 2c 23 3c
       0.030188482 0.061775703 0.014170292 0.0099592395
000270 00 c9 0f 3c 86 f4 19 3c 96 0b b4 3c 08 46 c5 bc
       0.0087759495 0.009396678 0.02197818 -0.024081245
000280 b6 a0 99 3c 7f 78 12 3c d5 f0 df bc c3 7b a1 3c
       0.01875339 0.008939861 -0.027336517 0.019712334
000290 a2 69 16 3d 90 67 ca bb 24 72 a6 3c 14 04 e5 bc
       0.036721833 -0.0061768964 0.020318098 -0.027956046
0002a0 5e af a0 bb 24 a4 84 bc be 4d a6 3c fb cd 81 bc
       -0.004903718 -0.01619155 0.020300742 -0.01584529
0002b0 f7 72 7b 3b 9b cb 98 bc e1 73 01 3d 97 16 02 bb
       0.0038368085 -0.018651774 0.03160465 -0.001984989
0002c0 54 a5 d6 3b 70 22 f3 bc 22 0d 8f bc 2c 1b 37 3c
       0.0065504704 -0.029679507 -0.017462317 0.011175912
0002d0 37 43 0f bc c5 11 7e bc 0b 31 06 3b 85 13 a0 bc
       -0.008744053 -0.015507166 0.002047601 -0.019540558
0002e0 37 36 c4 3b 1e cf 9c bc 59 11 1c bb b2 41 b1 bc
       0.005987908 -0.01914173 -0.002381405 -0.021637771
0002f0 b9 d8 4f bb 2b 97 69 b8 bc 86 8c ba 56 b6 cd bc
       -0.003171487 -5.5692315e-05 -0.0010721306 -0.025111359
000300 00 e3 bc 3c c0 d6 cd bc a1 ad 6d bb 7e e2 38 3b
       0.02305746 -0.025126815 -0.003626682 0.0028211172
000310 02 67 ab b9 d7 58 92 3c 7e 8e 14 3d ee 93 04 bc
       -0.00032692408 0.017864628 0.036268704 -0.00809191
000320 d7 66 41 bc 20 b2 7d 3c c3 e2 42 bc 83 bd b1 3c
       -0.011804304 0.015484363 -0.0118948845 0.021696812
000330 1a 37 a5 3b 0e f9 d5 3c 1d fc 32 3b 12 e3 64 bb
       0.005041969 0.026119735 0.0027310916 -0.0034925384
000340 ae 9d f9 3c 10 2a 01 bd 12 e4 6a ba 51 8f 06 3b
       0.030470695 -0.031534255 -0.0008960377 0.00205322
000350 6e 7d c7 3c e9 66 d3 3c 51 f6 95 3c af 76 32 3c
       0.024351802 0.025805907 0.01830593 0.010892554
000360 3b 8b 80 bc 7a 5d 92 b8 ea 89 0b bc 3b c8 00 3d
       -0.01569139 -6.979234e-05 -0.008516768 0.031440955
000370 97 3c ee bc 64 98 3b bc 2d f4 76 bb 2e 6f d3 3c
       -0.029081626 -0.011449907 -0.0037682161 0.02580985
000380 22 32 9c bc 94 9e 69 bc 33 77 1e bc 7e 73 42 3b
       -0.019066874 -0.014258999 -0.009671974 0.002967089
000390 22 5f 9c bc 81 4e c6 bb 19 63 07 3c 5b af a8 bb
       -0.019088332 -0.006051839 0.008263373 -0.005147857
0003a0 14 61 cf ba df 52 55 3c 5b 80 c1 3c 5b 97 d3 bc
       -0.0015821778 0.013020246 0.023620775 -0.025829008
0003b0 df 16 8f bc ce 80 62 ba b4 1f e2 bc 4c c1 eb bc
       -0.01746696 -0.0008640409 -0.027603008 -0.028778695
0003c0 99 d0 99 bc 13 75 da ba ab e9 3c 3d e7 7e c3 3a
       -0.018776225 -0.0016666971 0.04612128 0.0014915139
0003d0 ca 01 45 bc 17 91 70 bc 3d 81 98 ba a1 c6 be bc
       -0.012024352 -0.01468303 -0.0011635196 -0.023288073
0003e0 23 c9 ae bb 32 3b 48 bc 02 bd 93 3a 66 78 de 3c
       -0.005334036 -0.0122211445 0.0011271539 0.02715702
0003f0 86 28 63 bb 07 86 fe bb cb 7f ca 3c f9 28 63 3c
       -0.0034661605 -0.007767442 0.02471914 0.013864749

network_body._body_endoder.seq_layers.0.bias f4 [128]
000000 87 ae 98 b9 8b d4 be bb cf 34 b6 3b 2a 86 de bb
       -0.00029121732 -0.005823677 0.0055604945 -0.006790896
000010 df 8c 55 bb 9b 87 88 bb 09 67 03 3c 05 da b3 3b
       -0.0032585186 -0.004166556 0.008020171 0.0054886364
000020 33 cb 05 3c 9d f6 05 3b 05 f3 88 3b 9f ab 5f 3a
       0.008166122 0.0020441182 0.004179361 0.00085323484
000030 18 cf 0e bc 2a 26 89 bb f1 33 8a 3b b2 52 31 3b
       -0.008716367 -0.0041854577 0.0042176177 0.0027057347
000040 12 7e bb 3b aa e0 40 bb 06 64 da bb 01 dd d2 bb
       0.005721816 -0.0029430785 -0.0066647558 -0.006435037
000050 bd 66 97 bb ab 22 9c 3b da 3f 67 bb 95 8a 4a bb
       -0.0046204017 0.004764875 -0.0035285861 -0.0030905355
000060 78 3e a0 3a 78 8c 4f 3b 8c 99 7c ba a9 12 19 3b
       0.0012225648 0.003166942 -0.00096359174 0.002335707
000070 02 22 00 bc 4e 2a 30 3b ff 6b 87 3b 05 f1 e5 bb
       -0.007820608 0.0026880684 0.004132747 -0.007017257
000080 1d a4 ac 3b 01 e7 77 bb 91 53 bf bb 72 c7 d5 3b
       0.0052685873 -0.0037826898 -0.0058388193 0.00652402
000090 d9 32 8e 3b 5d cd 18 bb eb 9b 2e bb 71 c0 20 bb
       0.0043395576 -0.0023315765 -0.0026643227 -0.0024528767
0000a0 f7 29 5f 39 b2 c2 85 3a d1 4b c1 3b ae 2a ab 3b
       0.0002128257 0.0010205118 0.0058989306 0.0052235937
0000b0 42 91 c8 bb d0 37 02 3c 2f 88 b2 bb 7a e5 88 bb
       -0.0061208317 0.007947877 -0.0054483633 -0.0041777464
0000c0 14 61 fb bb 0c 57 0b bc bd ad fb 3b 78 db 00 3c
       -0.0076714847 -0.00850464 0.0076806233 0.007864825
0000d0 a8 33 84 bb cb 0b 04 3c 5f 32 88 3b a6 6f cb bb
       -0.004034478 0.008059452 0.0041563953 -0.006208378
0000e0 4f 9a 80 3b 08 6c 2d bb 9d 06 77 3b 9e a3 a7 bb
       0.003924645 -0.0026462097 0.003769315 -0.0051159402
0000f0 15 27 97 bb e4 b7 b0 bb 6d ec 0e 3b d4 fd d1 b8
       -0.0046128132 -0.005393015 0.0021808401 -0.00010013176
000100 6f 29 9d 3b 74 c0 f6 3a 95 c3 01 bb be 2e 8b 3b
       0.004796199 0.0018825666 -0.0019800414 0.0042475155
000110 a8 b2 89 3b 38 0a 85 3b 07 59 02 3b a4 6f 52 3b
       0.0042022057 0.004060056 0.001988949 0.003211
000120 99 bc 7f bb f6 0c cc bb 52 62 cb 3b 9a 38 b3 3b
       -0.0039022325 -0.006227131 0.006206789 0.005469394
000130 54 1f e0 3b 94 10 e2 3b 2e 42 24 3a 4c 91 75 ba
       0.006839672 0.006898949 0.0006265965 -0.0009367659
000140 fa 14 98 3b 7d 09 c3 3b 1c 25 fe ba 4c 46 c6 bb
       0.0046411725 0.005952059 -0.0019389722 -0.0060508605
000150 d8 90 d5 3a 55 af b7 bb 3a 49 b2 3a 10 a4 d8 3b
       0.0016293777 -0.005605618 0.0013602145 0.0066113546
000160 6a 38 17 3b 0b 45 90 3b 45 f6 1c 39 98 35 93 bb
       0.0023074397 0.004402762 0.00014969062 -0.004492473
000170 7d 4a 1b 3b 5f 6e 66 bb 7c f9 56 bb de 42 b7 ba
       0.0023695522 -0.0035161 -0.0032802513 -0.001398172
000180 27 86 2e ba 55 95 50 bb f1 64 84 3b 48 b8 e4 bb
       -0.00066575635 -0.003182729 0.0040403535 -0.006979976
000190 14 06 38 b9 32 12 a8 ba 6a 4c 0b 3c 5e 5c f5 ba
       -0.00017549872 -0.0012822805 0.008502105 -0.0018719544
0001a0 97 43 84 bb c7 84 c1 3a 0c ba b8 bb d7 e1 c0 ba
       -0.0040363776 0.0014764302 -0.005637413 -0.0014715743
0001b0 13 c0 4a bb a5 91 12 3b 84 e4 e0 3b c8 44 39 3a
       -0.003093724 0.0022364643 0.0068631787 0.0007067439
0001c0 b6 b3 86 bb d2 46 8a 3b 5b 9f b1 39 9b fa a6 3b
       -0.0041107787 0.004219868 0.000338788 0.0050957925
0001d0 87 cf 8e bb 5d 87 08 bc 41 42 f8 3b 67 2e 54 3a
       -0.0043582353 -0.008333054 0.0075762575 0.00080940727
0001e0 9b f9 07 bc e7 c3 d3 bb 26 95 59 3b 95 be 80 3a
       -0.008299257 -0.0064625624 0.0033200472 0.0009822423
0001f0 d3 e1 43 3b cb 02 90 ba 30 01 e6 ba fb fb 72 39
       0.002988924 -0.001098716 -0.0017547961 0.00023172788

network_body._body_endoder.seq_layers.0.weight f4 [128, 2]
000000 0e e1 e7 be b4 6a a8 3e 1b 2f 88 3f 2e a5 82 bf
       -0.4528889 0.32893908 1.0639375 -1.0206659
000010 19 a4 fb be 1a 92 8a bd ca af 2a bf d0 96 a7 3b
       -0.49148634 -0.06766148 -0.6667448 0.005114414
000020 79 e2 0a bf 29 52 68 3e b5 6a c8 be 84 d0 61 3f
       -0.5425182 0.22687592 -0.3914391 0.88208795
000030 05 36 d7 bf 10 2d 22 be 29 f8 84 3f e4 85 f5 3e
       -1.681336 -0.15837502 1.0388232 0.47953713
000040 18 a5 aa bf 36 82 1b bf 60 b0 87 3d 2b d1 30 3f
       -1.3331633 -0.6074556 0.06625438 0.69069165
000050 7a f1 94 bf c4 61 6c 3e b6 d9 83 3e 04 78 55 bd
       -1.1636193 0.2308417 0.25752038 -0.05211641
000060 92 20 05 bf 3e eb d2 be 54 01 9d 3f df 66 0f c0
       -0.52002823 -0.411951 1.226603 -2.2406538
000070 53 0a 22 bf b7 7b 24 3e 70 38 92 3e 51 90 93 3e
       -0.63297004 0.16062818 0.28558683 0.28821042
000080 f7 2e 28 3f f1 27 68 bf b4 c4 52 3f 28 a4 46 3e
       0.6569666 -0.90685946 0.82331395 0.19398558
000090 09 e9 b2 bc cd 9d 0f 3f 40 16 10 3d 26 04 af bd
       -0.021839635 0.5610016 0.03517747 -0.08545713
0000a0 8b 81 ed bf 4a 05 4b 3f 87 74 e7 be 7c a4 8f 3c
       -1.8555158 0.79304945 -0.4520609 0.017534487
0000b0 97 14 05 bf ff 16 a3 3f 1d 85 be bf 4d a0 9d 3f
       -0.5198454 1.2741393 -1.4884373 1.2314545
0000c0 88 c0 95 bd d1 7e 8d bf af a1 22 be 64 ef 91 3e
       -0.07312113 -1.1054326 -0.1588199 0.28502953
0000d0 ed 6b 69 3f c8 65 ce 3e cf 4d 1b 3e fa 38 dc be
       0.91180307 0.40312028 0.151664 -0.4301222
0000e0 11 c8 58 3f 01 27 ba bf d5 a6 4e 3f a2 69 62 3f
       0.8468028 -1.4543153 0.80723315 0.8844243
0000f0 6b 24 02 3f eb 15 8c be 05 e5 b3 3f 79 22 43 3e
       0.5083682 -0.27360472 1.4054266 0.19056119
000100 b5 eb 9d 3e 96 3e 81 3e 60 0f 8d bb a1 6c 6a 3f
       0.30843893 0.25243062 -0.0043048114 0.91572005
000110 ab 53 2f bf dc 9a 13 bf c8 32 29 3e e2 70 5f bd
       -0.6848704 -0.5765817 0.16523278 -0.054551013
000120 77 56 95 3f 86 b4 3a 3f 78 43 bc 3f 41 6d 41 3f
       1.1667012 0.72931707 1.470809 0.75557333
000130 37 9a cb 3d 37 05 15 bf ae b7 3c 3d 3f be a2 bf
       0.099415235 -0.5821108 0.046073608 -1.2714309
000140 99 cb 5a bf a2 67 8c 3e 75 28 0a 3f 0f 7f 22 3e
       -0.85466915 0.27422816 0.5396798 0.15868782
000150 49 9a 32 be 0c 94 74 3d ee 62 ca bd 0e 19 bf 3f
       -0.17441668 0.0597115 -0.098821506 1.4929521
000160 43 f0 ed 3e 43 ac 29 bf 44 f2 53 be 41 01 0f be
       0.46472368 -0.66278476 -0.20697886 -0.13965322
000170 90 c9 97 3f a9 2c ef be 95 7b 48 3e 55 db fc 3e
       1.1858387 -0.4671376 0.19578393 0.49386087
000180 b0 91 65 bf 6e c7 54 bf f7 a6 fc be 4d ba e8 bd
       -0.89675426 -0.83116806 -0.49346134 -0.11363659
000190 37 16 53 bf 7d d5 01 bf bd c5 04 bf aa 4b d5 be
       -0.8245577 -0.5071638 -0.51864225 -0.4165929
0001a0 fd c5 81 bf 67 a7 a7 bf 90 71 8b bf b2 17 47 bf
       -1.0138546 -1.3097962 -1.0894032 -0.7777053
0001b0 a2 c8 77 3f 09 0c 43 be 64 5e c1 3e b7 ad b2 bf
       0.96790516 -0.1904756 0.37767327 -1.3959264
0001c0 c7 0e ab 3e b2 fa 35 bf 1e 70 4f bf 78 8c e3 be
       0.33409712 -0.71085656 -0.8103045 -0.44443107
0001d0 6b 99 49 3d a0 dd 57 3d 91 85 cd 3e 48 2d 2c be
       0.049218576 0.052701592 0.40140966 -0.16814148
0001e0 63 4f 97 3f fd d9 9b 3d 29 f1 3c bf 47 e8 79 bf
       1.1821102 0.07609937 -0.7380548 -0.9762005
0001f0 68 d3 71 bf 4b e0 a1 3f e7 21 13 bf a1 c4 33 bf
       -0.94463205 1.2646574 -0.57473606 -0.70221907
000200 76 38 9a 3f fb fa 2c 3f 6d 9d ec 3e d8 5d 6a bf
       1.204848 0.67570466 0.46213856 -0.91549444
000210 c4 9d 62 bf 3d c7 82 3f 4e 70 78 bf 60 94 f3 3e
       -0.8852198 1.0217053 -0.97046363 0.4757414
000220 b5 1f 08 bf 13 2d 83 3e 63 97 09 bf 83 91 45 bf
       -0.5317338 0.25620326 -0.5374662 -0.7717516
000230 fa 67 10 3d a9 5c 09 bf 8b 3e b6 3e af b6 5b bf
       0.03525541 -0.53657013 0.35594591 -0.8582563
000240 d5 10 b3 bd 6c b4 2d 3f 45 76 84 be 5b 76 dc be
       -0.08743445 0.67853427 -0.25871482 -0.43059048
000250 ea 19 c1 be eb ef 37 3e 13 dd c9 bb 37 8e b3 3e
       -0.37715083 0.17962615 -0.0061603873 0.3506944
000260 7f e6 1f 3f c1 9a db bf 1a 9e 92 3b f7 36 c6 bd
       0.62461084 -1.7156602 0.0044744136 -0.096784525
000270 07 e7 88 be 19 b7 87 3e e1 6a 4b bd 65 61 b7 be
       -0.2673876 0.2650688 -0.049662475 -0.35816494
000280 3a 59 18 be 81 34 16 bf 5c 67 3f 3e 61 30 12 3f
       -0.14877787 -0.58673865 0.18691772 0.5710507
000290 78 77 85 3f 80 9b 3f 3e e6 ad 99 be 3e 6a 21 3f
       1.0427084 0.18711662 -0.30015486 0.6305274
0002a0 fd dd d6 3e c9 d8 97 3f 1e 4e d0 bf ac b2 ee bd
       0.4196624 1.1863033 -1.627384 -0.11655173
0002b0 d6 b8 2e 3f bb 0f d4 3e 00 74 98 3e fc f2 c6 bd
       0.6825079 0.4141825 0.29776 -0.09714314
0002c0 f9 a6 5c be 0b b1 1f bf ef a7 73 be 8b 54 bf bc
       -0.2154807 -0.6237952 -0.2379453 -0.023355743
0002d0 c2 68 00 40 f3 05 91 3f 04 c0 4a be ba 2a c0 3e
       2.006394 1.132994 -0.1979981 0.37532598
0002e0 df 32 21 3f 0a 86 e9 3e 63 ef f1 3e 7b 80 0f bf
       0.6296825 0.45610076 0.4725295 -0.5605542
0002f0 3e d4 9e 3f 1f 95 ac 3f 18 ae e0 be d5 5e 99 bf
       1.2408521 1.3483008 -0.43882823 -1.1982065
000300 18 a4 4f be ea 99 70 bf 7b c9 a3 3f 0f b3 3b bb
       -0.2027744 -0.93984854 1.2795862 -0.0028640663
000310 f4 6a 9d 3e 5f 25 c4 3d d1 bd 90 bf 1e 0a 8b bf
       0.3074566 0.095774405 -1.1307927 -1.0862463
000320 ff f1 7f be 8f b1 3a 3e a2 93 c5 bc f5 a0 96 bf
       -0.24994658 0.18231796 -0.024118248 -1.176787
000330 e2 b4 9a bf 72 28 49 bf ab f0 d7 be af a3 3d bf
       -1.2086451 -0.7857734 -0.42175803 -0.74077886
000340 0b 64 00 3d 61 ed 63 be df 16 96 bf a6 8a 27 3d
       0.03134541 -0.22258522 -1.172573 0.04090371
000350 05 9d 92 3e ec 05 43 3f 8e 7b 25 3c 16 13 a4 bc
       0.2863542 0.7618091 0.0101002585 -0.020028632
000360 b4 a8 14 3f da 34 70 be d6 18 04 be b2 e7 d8 3e
       0.5806992 -0.23457661 -0.12900099 0.4236427
000370 2f 95 26 3f ca 30 46 3f 09 d2 e3 be 9b 49 11 3f
       0.65071386 0.77418196 -0.44496182 0.5675294
000380 39 7f 1f 3e d4 4c ee bd b6 03 f5 3e ac 7f 2c 3f
       0.15575875 -0.116357476 0.47854394 0.6738231
000390 0f 67 40 bd e4 28 13 3f 90 46 8d bf 15 b9 27 bf
       -0.046973284 0.5748427 -1.1037159 -0.6551679
0003a0 9a 21 82 be 17 fc 84 3e ac 3c 49 be a3 68 4e be
       -0.2541626 0.2597358 -0.1965205 -0.20157103
0003b0 f8 60 8e bf f8 f5 9c be 2d 1f c1 3e 3b e7 33 3f
       -1.1123343 -0.3065641 0.37719098 0.70274705
0003c0 81 0f 2f bf 38 ef 23 bf b5 80 cc bf a1 18 3d bf
       -0.6838303 -0.64036894 -1.5976778 -0.73865706
0003d0 32 3e 65 3f 33 63 a3 3e e3 b7 06 3f ed da 0f bd
       0.8954803 0.3191162 0.5262434 -0.035120893
0003e0 9a b7 4e 3f 5b ea d6 3f 18 75 88 bf 9b d2 95 be
       0.80748904 1.679027 -1.0660734 -0.29262242
0003f0 78 44 88 be 06 a1 a6 be de dc 19 be c1 41 df 3f
       -0.26614738 -0.32544726 -0.1502566 1.7441941

network_body._body_endoder.seq_layers.2.bias f4 [128]
000000 d1 68 bc 3b 70 8a ba bb fc 12 c9 bb 84 94 90 3b
       0.0057498 -0.0056927726 -0.0061362963 0.0044122357
000010 c0 4d 0b 3c d6 a1 e2 bb d6 d0 d5 3b 27 2d 87 bb
       0.008502424 -0.006916265 0.0065251393 -0.0041252556
000020 6c ab da 3b ad aa be bb fa bd 79 bb f8 53 50 bb
       0.006673267 -0.005818686 -0.003810762 -0.003178833
000030 ba 7f 67 bb 29 c1 10 bc 84 dc d5 bb b4 d9 f0 bb
       -0.0035323934 -0.0088351155 -0.0065265317 -0.007350171
000040 49 2d c5 3b 96 b0 a3 3b 7b 67 d2 bb c4 5a e6 3b
       0.0060173613 0.004995416 -0.0064210272 0.007029863
000050 c5 74 b4 3b 94 34 9f bb ed fa e6 3a 37 41 c7 bb
       0.005507084 -0.0048585627 0.0017622389 -0.0060807723
000060 51 56 92 bb 84 49 c8 bb 56 03 cf bb 1e 13 bf bb
       -0.004465856 -0.0061122794 -0.0063175363 -0.0058311364
000070 90 56 cb bb 1e 23 c0 bb 61 8d 7c bb 3f 1d ca 3b
       -0.0062053874 -0.0058635613 -0.0038536417 0.006168037
000080 f2 10 c6 bb 60 51 9b ba 55 92 8c 3b 39 57 0e bc
       -0.0060445005 -0.0011849813 0.004289905 -0.008687788
000090 c3 bc a7 bb 16 e9 e6 ba d8 0a d8 bb 0f 41 ac 3b
       -0.0051189377 -0.0017617072 -0.0065930896 0.005256779
0000a0 9c 54 7b 3b 31 31 e9 3b 7a 1a d8 bb cd b8 ed 3b
       0.0038349992 0.00711646 -0.006594953 0.007254696
0000b0 c6 45 96 39 68 16 0a 3c 4b 10 c5 bb 5b fe 00 3c
       0.00028662215 0.008428194 -0.006013905 0.007873143
0000c0 76 7b 8f bb 41 9d c5 3b 9f 63 a6 3b b7 c1 0c bc
       -0.0043787314 0.006030709 0.0050777937 -0.008591107
0000d0 3b 47 d5 3b 64 e0 9e 3b 3b c9 ab bb 21 74 ff 3b
       0.0065087355 0.004848527 -0.0052424944 0.007795826
0000e0 16 d4 f8 bb 02 08 0b 3c bf e9 9f 3b 70 ef 08 3c
       -0.007593642 0.008485796 0.0048801596 0.008357868
0000f0 69 bf 5e bb 8f 06 20 3b 7a 88 c4 3b 8a 1c cf 3b
       -0.00339886 0.0024417972 0.0059977146 0.006320541
000100 a8 2d 09 bc 20 36 75 3b ca a6 72 bb ab df d1 bb
       -0.008372702 0.0037416294 -0.0037025684 -0.006404837
000110 c2 bd 78 3b a0 21 f3 bb 28 36 c1 bb 99 a8 e2 3b
       0.0037954901 -0.00741978 -0.0058963485 0.006917071
000120 db 13 b7 3b 16 bc a7 bb 5c 67 95 3a 88 00 b5 bb
       0.0055870838 -0.005118857 0.0011398601 -0.005523745
000130 9a 29 c7 bb 56 06 d8 bb 84 e5 bc 3b a9 f0 b2 b9
       -0.0060779573 -0.006592552 0.005764665 -0.0003413011
000140 ad 4d 0d bc 21 3b d9 3b ac 8d b6 3b 8c 05 1a 3b
       -0.008624476 0.006629363 0.005571088 0.0023501841
000150 34 64 be bb e6 14 7a bb e8 e6 d6 bb 92 68 93 bb
       -0.005810285 -0.003815943 -0.006558288 -0.0044985497
000160 5a 1c c4 3b 01 d2 5a 3b 13 5c bd 3a 13 54 e2 bb
       0.005984825 0.0033389332 0.0014446996 -0.006906995
000170 d8 8b cd 3b 29 b3 87 3a 5f 68 ac 3b 3f f5 09 bc
       0.006272774 0.0010353077 0.0052614654 -0.008420288
000180 4a 86 02 3c 77 1a b6 3b 67 3f 01 3c f8 a5 d1 3a
       0.007966587 0.005557354 0.007888651 0.0015994897
000190 12 91 07 3c c7 df 48 3b e5 bd bc 3a 19 36 c6 3b
       0.008274334 0.003065096 0.0014399855 0.0060489294
0001a0 b7 31 ef 3a 8a ee 10 bc fb a4 bf bb 2e 59 fe 3b
       0.0018249069 -0.008845935 -0.0058485246 0.007762096
0001b0 48 a3 b7 3b 31 d5 80 bb 80 a6 b2 3b da d8 c6 3b
       0.0056041814 -0.0039316644 0.0054519773 0.006068331
0001c0 58 8a d2 3b 15 81 ed 3b a8 0e 0d bc 6c 58 a6 bb
       0.0064251833 0.007248054 -0.008609451 -0.0050764587
0001d0 4b 94 d1 3b 91 4f 05 3c a6 0a 0e bb bc ee 06 3c
       0.0063958517 0.008136646 -0.0021673827 0.00823563
0001e0 54 76 b7 3b 7b 7b ba 3b 4d 0d 94 bb 05 8d f5 ba
       0.0055988226 0.0056909896 -0.004518187 -0.0018734044
0001f0 33 b7 d0 3b e3 53 e1 3b 19 48 e9 bb 7f 4f 0e bc
       0.0063694953 0.006876455 -0.0071191904 -0.0086859455

network_body._body_endoder.seq_layers.2.weight f4 [128, 128]
000000 7f 0f ea 3a 02 a3 01 3d d3 67 a3 bc 21 f1 23 bc
       0.0017857401 0.031649597 -0.019946968 -0.01000622
000010 8f 57 8b bd c2 a0 89 3d 85 55 2d bd bd 06 4a 3e
       -0.0680381 0.06720115 -0.042317886 0.19729133
000020 63 fb 88 3d 5b c1 e5 bd 16 7c 0d bc 97 1e 54 3d
       0.06688573 -0.1121852 -0.008635541 0.051786985
000030 de eb 05 3d b0 18 6e 3b 95 72 a4 bc 0c 8b b5 3d
       0.032695644 0.0036330633 -0.020074168 0.08864412
000040 ae 8a 67 3c 1c 68 23 be cd 86 a7 3d f9 df 13 3e
       0.014132185 -0.15957683 0.08180008 0.14440908
000050 10 98 93 3c e8 f7 ac 3d d5 64 67 3d a4 0a 9f 3d
       0.018016845 0.08445722 0.056492645 0.077657014
000060 41 59 92 3d 27 c9 20 be 22 56 92 3d 8f 26 57 3e
       0.0714593 -0.15701734 0.07145335 0.21010803
000070 32 d4 ee bc fa 64 cd 3d c2 c1 bd 3d dc bd 1f 3c
       -0.029153917 0.100290254 0.09265472 0.009749856
000080 da 7c 04 3e 73 61 8a 3d f2 7e 89 bd 57 03 b1 3c
       0.12938252 0.06756868 -0.06713666 0.021608038
000090 4d 77 bd 3d 53 9b 64 bc c9 5f f4 bd 55 af 79 3c
       0.092512704 -0.013953048 -0.11932332 0.015239556
0000a0 8c 5a b2 3d fb f2 b2 bc a6 cc 1c be 2c dc 18 be
       0.08708677 -0.021844378 -0.15312442 -0.14927739
0000b0 67 40 e4 3d a8 45 1d be ab 99 5d bc 6b 38 15 be
       0.11145096 -0.15358603 -0.013525407 -0.14572303
0000c0 7a de 28 bd a7 10 c9 3d 13 b4 9e 3d ff c4 af 3d
       -0.041227795 0.09817629 0.0774919 0.08582496
0000d0 f6 00 80 3c ea a6 42 3d a7 b0 11 bd 88 c0 4f bd
       0.015625458 0.047522463 -0.03556886 -0.05072072
0000e0 ff 31 dc 3d 42 4f fc 3d 48 b5 ff 3d 69 5c d4 bc
       0.107517235 0.12319805 0.124857485 -0.02592297
0000f0 eb 6d 7f 3d 06 26 fb bd 32 67 a0 3d 75 a7 e7 3c
       0.062360685 -0.12263112 0.07832183 0.028278092
000100 ac 89 07 be 36 fd 9c bd 2d 77 17 3e 3a 48 5b 3d
       -0.13236111 -0.07665484 0.14791556 0.053535677
000110 e2 db 3f 3d fb db 70 bd db 55 d6 bd d3 3d 59 bd
       0.046840556 -0.05880354 -0.104655944 -0.053037476
000120 35 16 58 3c c7 e8 81 bd 4d 1b c0 3d f9 27 4c bd
       0.013188888 -0.06343227 0.09380207 -0.04984281
000130 d0 97 21 be 12 49 55 bd c2 9a fb 3d 48 0a 9f 3d
       -0.15780568 -0.05207164 0.12285377 0.07765633
000140 57 2e 71 bb a8 00 87 3d 15 db 91 3c de d2 be bd
       -0.0036801302 0.06591922 0.017804662 -0.093175635
000150 4b 66 be 3d 9a b3 6d 3c 79 87 11 be 18 c6 9b bd
       0.092968546 0.014508152 -0.14211835 -0.07606143
000160 d8 85 f6 ba 3d a4 1e be bd 0b 25 bd f0 ec 0f be
       -0.0018808199 -0.1549234 -0.040294398 -0.14055228
000170 06 dd 16 be 14 8b 7a 3d 6d 44 6e bd 30 04 23 3d
       -0.14732751 0.06116779 -0.058170725 0.039798915
000180 02 f2 ef bd 64 01 f4 3c b6 21 92 bd 0a 45 9c 3d
       -0.11716081 0.02978582 -0.07135336 0.07630356
000190 1c cb f8 3c a1 8d 20 3e e1 e7 4e 3a 89 d5 45 3d
       0.030370288 0.15679027 0.0007892829 0.048299346
0001a0 fe 08 08 3d 6c 45 e0 bb d4 cd 4c 3d 38 14 30 3c
       0.0332117 -0.006844213 0.05000098 0.010747008
0001b0 23 e9 c5 3d 67 02 3c 3d db 6c b8 bd c5 76 8d 3d
       0.09663608 0.04590073 -0.090051375 0.06907419
0001c0 49 fc c1 bd b3 39 d3 bd 43 d4 16 3e a2 65 5c 3d
       -0.09471948 -0.1031374 0.14729409 0.053807862
0001d0 63 4d 46 bd cc d2 8c 3c f7 10 60 3d 47 b6 03 bd
       -0.048413645 0.01719036 0.05470368 -0.032156255
0001e0 c7 2c 49 3e fe ef 99 bd 34 bd 32 3d 6d e2 20 bd
       0.19645987 -0.07516478 0.04363747 -0.039278436
0001f0 e8 7f 68 3d 55 a2 ba bb f7 1e cc 3d 12 65 f5 3d
       0.056762606 -0.005695621 0.099668436 0.11982168
000200 16 b4 87 3b 27 ff 75 3d ca ac 35 3e e0 ac 74 3e
       0.004141341 0.060057785 0.17741695 0.23894072
000210 2b f5 bb 3b ec 3d ae be 69 59 ab 3c 38 ba 39 3e
       0.0057360134 -0.34031618 0.020916658 0.18137443
000220 1b c4 74 3d fc b1 ec bc ea 89 17 be ac d8 54 3c
       0.059757333 -0.028893463 -0.14798704 0.012991112
000230 3a b9 82 3d 11 fe c1 bc 89 ef 97 3d b2 05 b8 3d
       0.063829854 -0.023680719 0.074187346 0.08985461
000240 96 82 c4 3d 1c 46 91 3d 93 da 73 3e d4 1f 17 3b
       0.0959522 0.070934504 0.23813848 0.0023059743
000250 04 ee 73 3d be 9e ba 3c 96 b1 5e bc 12 42 57 bd
       0.05955316 0.022780772 -0.0135921445 -0.052553244
000260 c9 5e 1f be f6 f8 32 bc ba ee db 3c e0 37 36 bc
       -0.15563501 -0.010923615 0.026847232 -0.01112172
000270 26 87 bd 3d dc 69 8e 3d f6 b9 17 3e a3 64 db bd
       0.09254293 0.06953785 0.14817032 -0.10712554
000280 70 d0 85 bd da 51 9a 3d 93 38 17 3d 3a d9 fc ba
       -0.06533897 0.07535143 0.036919188 -0.0019290813
000290 1a 6d 05 3e c7 1c d6 bd ab c3 15 3e 98 83 a1 bb
       0.130299 -0.104547076 0.14625423 -0.0049290173
0002a0 42 af 8b 3c 94 20 59 3b 81 f1 0f 3e 1c b2 55 3d
       0.017051343 0.003313099 0.1405697 0.05217181
0002b0 2d ec 19 be 0a 62 4c 3d 05 8f 1f bc 63 17 50 3d
       -0.150315 0.049898185 -0.009738688 0.050803553
0002c0 fb c9 24 be a1 ad 76 bd e3 de d1 bd c0 45 c2 bc
       -0.16092674 -0.06022418 -0.102475904 -0.0237149
0002d0 b2 bb 97 bc 64 d8 0e bd 8f 85 9f bc f0 83 8a bc
       -0.018522117 -0.034874335 -0.019472865 -0.016908616
0002e0 7e bf 1a 3d 46 b1 87 3c 6e a0 0f bc 04 26 74 bb
       0.037780277 0.016564023 -0.008766277 -0.0037254104
0002f0 96 b8 65 3d b5 97 87 bd bb 48 58 3c 4b 3f d1 3d
       0.056084238 -0.06620733 0.013200934 0.1021715
000300 94 b1 cd bc 04 16 19 3e 29 d8 07 3e 64 ca cd bc
       -0.02510909 0.14949805 0.13266052 -0.025120921
000310 9a 76 94 3d 5a 09 b2 3d fb 5c f2 3c 8d e3 88 3d
       0.07249184 0.0869319 0.029585352 0.06684027
000320 d4 34 27 3d 3d cf fc bd e3 06 94 3c 04 f4 7b 3d
       0.040821865 -0.12344215 0.01806969 0.06151201
000330 44 93 e7 3d 72 c7 77 bd 6a dc e7 3d e5 59 62 3c
       0.113073856 -0.06049294 0.113213375 0.013815378
000340 ee 2c 26 3e fb b7 89 bd 53 30 0f be 23 93 cc 3d
       0.16228077 -0.067245446 -0.13983278 0.099890016
000350 d4 61 03 3b 7c 72 04 be ba 4a db 3d b6 27 0d be
       0.0020047324 -0.12934297 0.10707612 -0.1378468
000360 e9 4f 97 bd de e5 c1 bc 00 8e de 3d bb 25 07 3d
       -0.073882885 -0.02366918 0.10866928 0.032994967
000370 cf eb 2c bd 14 f3 3b be a6 44 1d 3d 03 f4 de 3c
       -0.042217072 -0.18354446 0.038395546 0.027215963
000380 32 b5 df 3c 78 09 11 3b 7c 26 04 3d 95 d8 1d be
       0.02730808 0.0022130888 0.032263264 -0.1541465
000390 56 ca 50 3d d2 56 95 3d dd 6f 82 bd 85 aa 8e 3d
       0.050974213 0.0729195 -0.063689925 0.06966118
0003a0 65 ba f7 bc 06 96 43 bb 18 ca fc 3d d1 8e 9b 3d
       -0.030240247 -0.002984406 0.12343234 0.075955994
0003b0 37 6a d9 bd 2e 1a 92 bd dc 6a 4e 3d 88 9e a0 3d
       -0.10615962 -0.071339 0.050394878 0.078427374
0003c0 c1 5d 08 3d 5b a6 4e 3c 6f 31 d6 3c d1 11 21 be
       0.033292536 0.012612904 0.026146619 -0.15729453
0003d0 87 b5 a7 bd 7f 56 5e 3e 35 df 4e bb 98 57 c4 3d
       -0.081889205 0.21712683 -0.0031566147 0.0958702
0003e0 90 a8 da 3d 30 80 19 3d b2 f6 8f bc 8b 65 0a 3d
       0.10676682 0.037475765 -0.017573688 0.033788245
0003f0 4d a7 0b 3d 60 c0 8e 3c d3 93 17 be ad c2 0b bd
       0.034095097 0.017425716 -0.14802484 -0.034121204
