results/ppo/EatFood/EatFood-0.pt (torch, 145423 bytes, 12 tensors)

network_body._body_endoder.seq_layers.0.weight f4 [128, 2]
-0.5517003 -1.1685019 -0.371472 -1.0740052 1.1095676 -0.16761369 -0.46024972 0.0561051
-0.47631982 -1.6392418 0.2582725 -0.3668116 -0.269488 0.53685427 1.3660835 1.4212227
0.18798171 0.556468 0.0017631614 -0.47312135 -0.4342932 0.7554306 1.0816462 0.040627614
-0.6618183 0.25704557 -0.5607478 -0.7034809 -0.66479504 0.173068 0.22698806 0.70818967
0.5431632 -1.1571031 1.4100231 -0.72831297 0.17573409 -0.22959635 0.1309093 0.22178505
0.18840761 0.6702591 -1.0180826 0.59016615 -0.28175965 -0.6020045 1.2134467 -1.165358
-0.40616113 -0.13460799 1.4989775 -0.83544487 0.15459162 0.30428833 1.4404206 -0.6443206
0.32533044 0.26393503 0.21248755 -0.0806772 -1.052698 -0.38860252 0.89436 -0.72377414
0.8180201 1.3107055 0.2726563 -0.5607579 1.1764644 -0.37303352 -0.51069623 -0.5309469
1.0598885 0.018886404 -0.048623495 0.07140069 0.025136366 0.27360496 -0.36691576 0.5258402
1.653288 0.6747064 0.8106244 0.79289645 -0.89074993 0.9070509 0.23074618 -1.0012949
0.65320927 -0.17225544 -0.23931666 0.283117 0.1977308 0.014281364 -0.8150517 0.1940955
0.03859939 -0.52326685 0.8106693 -0.7187215 -0.6839032 0.15323786 0.5622348 1.6109589
0.26365826 2.2686746 -0.51625144 -0.75754535 0.80939597 0.2174672 -0.23463085 0.26264572
0.05152754 0.5271333 1.006374 0.550496 0.34192902 0.49586758 -0.66488373 1.7009659
0.60154706 0.88646513 2.0797026 -0.25977236 -0.28949198 0.4781529 -0.9352558 0.8623482
-0.7588718 -0.6426856 -0.15136564 0.40913948 -0.14456686 0.2374705 0.3534149 -1.7042977
-0.21537367 -0.63454926 -0.31436324 -0.18922308 -0.29752177 -0.2306072 -0.91923875 -0.8512904
-0.8255669 -0.91028744 -1.0654894 -0.1898824 0.5778535 0.7478432 1.7252165 -0.15761642
0.016910458 0.057098653 0.56700116 0.25543687 0.24699081 0.89496744 0.028220866 -1.225262
0.9322067 -0.18913181 1.3354014 0.67731535 1.3908579 -0.016561458 -0.1073137 -0.14786327
-0.2891039 0.4868591 0.08981978 2.0834212 1.1153959 -0.38027635 1.6248777 -0.3177698
-0.21608803 1.0487199 0.2551894 0.6059133 1.5070988 -0.5761377 -0.58575976 -0.21668698
0.025945079 -0.16691956 0.6476553 -1.0834497 0.84856254 0.8431658 0.47131842 -0.43805373
0.105663665 1.0554366 0.59917647 -0.963489 -1.847397 -0.08054052 0.5544652 0.6099009
0.61672145 0.0056777108 1.4841913 -0.54268545 -0.6639235 -0.3261941 -0.8123557 0.82817703
-1.0519227 1.3975319 0.54430157 -0.27098924 0.74009115 -0.278431 0.83905786 -0.039955746
-0.3650501 0.42514393 -0.2107213 -1.3598531 0.4971702 0.740752 -0.74566853 0.028806182
0.7057107 0.7643929 0.14407477 -1.0052508 0.08296212 -0.7278561 -0.14886253 0.79141444
0.6935185 0.43434283 -0.23387176 -0.71396947 0.66878957 -0.20194316 -0.32555446 -1.1973859
1.1243947 -0.6333611 0.82956654 -0.66197014 -0.5485784 -0.43503147 -1.8619672 1.177948
-2.7929657 -1.0751041 0.4041419 0.5397726 0.47449225 0.8532044 0.7173934 -0.6047271
00000000: 3b3c 0dbf 7891 95bf 9431 bebe 0179 89bf
00000010: 5006 8e3f eca2 2bbe daa5 ebbe 76ce 653d
00000020: 31e0 f3be add2 d1bf 4b3c 843e bbce bbbe
00000030: 55fa 89be 486f 093f d3db ae3f a0ea b53f
00000040: 477e 403e b074 0e3f e119 e73a f63c f2be
00000050: ae5b debe e663 413f 6273 8a3f 2469 263d
00000060: ed6c 29bf 7a9b 833e 2b8d 0fbf 5317 34bf
00000070: 0230 2abf bd38 313e 8f6f 683e eb4b 353f
00000080: be0c 0b3f f41b 94bf a37b b43f b872 3abf
00000090: a3f3 333e 4e1b 6bbe 160d 063e 9f1b 633e
000000a0: eded 403e 1a96 2b3f 8850 82bf 2115 173f
000000b0: cd42 90be f81c 1abf 3952 9b3f 732a 95bf
000000c0: 5af4 cfbe add6 09be 7fde bf3f b7df 55bf
000000d0: 444d 1e3e aecb 9b3e b45f b83f 32f2 24bf
000000e0: b691 a63e 7e22 873e 5696 593e 163a a5bd
000000f0: cfbe 86bf e9f6 c6be c7f4 643f 4349 39bf
00000100: c469 513f 33c5 a73f 9b99 8b3e d48d 0fbf
00000110: 6396 963f 40fe bebe fdbc 02bf 23ec 07bf
00000120: 6daa 873f a9b7 9a3c 6e29 47bd 863a 923d
00000130: c8ea cd3c f315 8c3e 62dc bbbe 779d 063f
00000140: f19e d33f 8fb9 2c3f 1585 4f3f 43fb 4a3f
00000150: 3008 64bf 7d34 683f ba48 6c3e 6e2a 80bf
00000160: b938 273f bb63 30be 6d0f 75be b6f4 903e
00000170: f179 4a3e 62fc 693c 3aa7 50bf f9c0 463e
00000180: 651a 1e3d d1f4 05bf 0688 4f3f 22fe 37bf
00000190: 4814 2fbf 63ea 1c3e 9fee 0f3f e733 ce3f
000001a0: 37fe 863e f731 1140 0e29 04bf 7eee 41bf
000001b0: 9334 4f3f b9af 5e3e 1243 70be 8079 863e
000001c0: 8b0e 533d 35f2 063f ddd0 803f 4eed 0c3f
000001d0: 5211 af3e 5be2 fd3e d235 2abf 40b9 d93f
000001e0: fdfe 193f 61ef 623f d919 0540 e200 85be
000001f0: 4b38 94be 75d0 f43e ed6c 6fbf dac2 5c3f
00000200: 6c45 42bf 0b87 24bf 98ff 1abe bb7a d13e
00000210: 5609 14be 772b 733e ccf2 b43e 6d26 dabf
00000220: ea8a 5cbe d271 22bf 38f4 a0be b2c3 41be
00000230: c654 98be 4b24 6cbe 3b53 6bbf 2bee 59bf
00000240: 5a58 53bf 9908 69bf f561 88bf 8870 42be
00000250: 35ee 133f a772 3f3f e5d3 dc3f 3366 21be
00000260: cd87 8a3c 47e0 693d fd26 113f 9fc8 823e
00000270: 29eb 7c3e 961c 653f 722f e73c 63d5 9cbf
00000280: 19a5 6e3f c5ab 41be 6fee aa3f 8a64 2d3f
00000290: a207 b23f e5ab 87bc 49c7 dbbd 7869 17be
000002a0: 6d05 94be 9945 f93e 6ff3 b73d c656 0540
000002b0: 4bc5 8e3f 95b3 c2be fefb cf3f b9b2 a2be
000002c0: 2e46 5dbe 743c 863f 2fa8 823e 221d 1b3f
000002d0: 9de8 c03f c37d 13bf 5af4 15bf 31e3 5dbe
000002e0: c68a d43c f6ec 2abe bdcc 253f 7bae 8abf
000002f0: 653b 593f b7d9 573f a650 f13e 9448 e0be
00000300: 3166 d83d 8c18 873f a163 193f 37a7 76bf
00000310: 8177 ecbf 6ef2 a4bd 6ef1 0d3f 7722 1c3f
00000320: 75e1 1d3f 170c ba3b fbf9 bd3f 6fed 0abf
00000330: e4f6 29bf ea02 a7be 8bf6 4fbf 6903 543f
00000340: 67a5 86bf 53e2 b23f 5957 0b3f 1abf 8abe
00000350: 9d76 3d3f 828e 8ebe 7fcc 563f a3a8 23bd
00000360: d9e7 babe 77ac d93e 53c7 57be ab0f aebf
00000370: 188d fe3e eca1 3d3f 22e4 3ebf f1fa eb3c
00000380: 75a9 343f 41af 433f 5688 133e 0fac 80bf
00000390: 0be8 a93d c754 3abf 6b6f 18be 239a 4a3f
000003a0: 6e8a 313f 2f62 de3e 147c 6fbe b4c6 36bf
000003b0: cb35 2b3f 30ca 4ebe 13af a6be f143 99bf
000003c0: 2aec 8f3f f423 22bf 795e 543f e076 29bf
000003d0: a26f 0cbf 72bc debe f154 eebf 00c7 963f
000003e0: f3bf 32c0 039d 89bf b0eb ce3e 8a2e 0a3f
000003f0: a6f0 f23e 9b6b 5a3f 18a7 373f 65cf 1abf

network_body._body_endoder.seq_layers.0.bias f4 [128]
0.0 0.0 0.0 0.0 0.0 0.0 0.0 0.0
0.0 0.0 0.0 0.0 0.0 0.0 0.0 0.0
0.0 0.0 0.0 0.0 0.0 0.0 0.0 0.0
0.0 0.0 0.0 0.0 0.0 0.0 0.0 0.0
0.0 0.0 0.0 0.0 0.0 0.0 0.0 0.0
0.0 0.0 0.0 0.0 0.0 0.0 0.0 0.0
0.0 0.0 0.0 0.0 0.0 0.0 0.0 0.0
0.0 0.0 0.0 0.0 0.0 0.0 0.0 0.0
0.0 0.0 0.0 0.0 0.0 0.0 0.0 0.0
0.0 0.0 0.0 0.0 0.0 0.0 0.0 0.0
0.0 0.0 0.0 0.0 0.0 0.0 0.0 0.0
0.0 0.0 0.0 0.0 0.0 0.0 0.0 0.0
0.0 0.0 0.0 0.0 0.0 0.0 0.0 0.0
0.0 0.0 0.0 0.0 0.0 0.0 0.0 0.0
0.0 0.0 0.0 0.0 0.0 0.0 0.0 0.0
0.0 0.0 0.0 0.0 0.0 0.0 0.0 0.0
00000000: 0000 0000 0000 0000 0000 0000 0000 0000
00000010: 0000 0000 0000 0000 0000 0000 0000 0000
00000020: 0000 0000 0000 0000 0000 0000 0000 0000
00000030: 0000 0000 0000 0000 0000 0000 0000 0000
00000040: 0000 0000 0000 0000 0000 0000 0000 0000
00000050: 0000 0000 0000 0000 0000 0000 0000 0000
00000060: 0000 0000 0000 0000 0000 0000 0000 0000
00000070: 0000 0000 0000 0000 0000 0000 0000 0000
00000080: 0000 0000 0000 0000 0000 0000 0000 0000
00000090: 0000 0000 0000 0000 0000 0000 0000 0000
000000a0: 0000 0000 0000 0000 0000 0000 0000 0000
000000b0: 0000 0000 0000 0000 0000 0000 0000 0000
000000c0: 0000 0000 0000 0000 0000 0000 0000 0000
000000d0: 0000 0000 0000 0000 0000 0000 0000 0000
000000e0: 0000 0000 0000 0000 0000 0000 0000 0000
000000f0: 0000 0000 0000 0000 0000 0000 0000 0000
00000100: 0000 0000 0000 0000 0000 0000 0000 0000
00000110: 0000 0000 0000 0000 0000 0000 0000 0000
00000120: 0000 0000 0000 0000 0000 0000 0000 0000
00000130: 0000 0000 0000 0000 0000 0000 0000 0000
00000140: 0000 0000 0000 0000 0000 0000 0000 0000
00000150: 0000 0000 0000 0000 0000 0000 0000 0000
00000160: 0000 0000 0000 0000 0000 0000 0000 0000
00000170: 0000 0000 0000 0000 0000 0000 0000 0000
00000180: 0000 0000 0000 0000 0000 0000 0000 0000
00000190: 0000 0000 0000 0000 0000 0000 0000 0000
000001a0: 0000 0000 0000 0000 0000 0000 0000 0000
000001b0: 0000 0000 0000 0000 0000 0000 0000 0000
000001c0: 0000 0000 0000 0000 0000 0000 0000 0000
000001d0: 0000 0000 0000 0000 0000 0000 0000 0000
000001e0: 0000 0000 0000 0000 0000 0000 0000 0000
000001f0: 0000 0000 0000 0000 0000 0000 0000 0000

network_body._body_endoder.seq_layers.2.weight f4 [128, 128]
0.11727747 0.0632926 0.04462195 0.0074771154 -0.0056423307 0.13530931 0.14864476 -0.1078338
-0.0029707914 0.16549182 -0.062018134 0.05438718 0.073193535 -0.14371586 -0.08528538 -0.029859943
0.052036963 -0.25128388 -0.021274507 0.13766949 -0.05335864 0.05118586 -0.033209655 0.105204836
0.049173087 -0.07776064 0.1340565 -0.12164152 -0.11099642 -0.066105686 -0.14255676 0.04008024
0.04252465 -0.15040597 0.13420556 0.053685773 -0.091736175 0.09223035 0.051867254 0.11822465
0.006645303 0.08714793 0.027470699 0.087679386 0.17339937 0.07344121 0.16706857 -0.05294022
-0.06669667 0.010766587 -0.06263694 -0.0069988533 0.06654747 0.026438117 -0.091941334 -0.082502484
-0.051391922 -0.045385312 0.095086895 -0.04371818 0.037398636 -0.030783167 -0.13480966 -0.14857757
-0.06285392 -0.07477483 -0.007335552 0.003958868 -0.026702054 -0.050997708 -0.0007306869 0.03419459
-0.07545837 0.03804291 -0.1267423 -0.03282041 -0.17263176 0.072192505 0.11911266 -0.08771124
0.051382385 0.0018837469 0.16513115 0.17432566 -0.007438291 -0.094138294 0.16801235 0.11921953
-0.010007489 0.010157739 -0.20614165 -0.009466507 -0.023963451 -0.00036645477 -0.0307971 -0.019051095
0.05310469 -0.16026323 0.14059027 0.09373479 0.021460991 0.06088443 -0.03296566 -0.045078278
-0.07334215 0.04137553 0.07091205 -0.07154869 0.031624146 0.08151401 0.011070999 0.094629526
-0.28955045 0.021856602 0.05272255 0.122857064 0.04126842 0.15050212 -0.06992074 -0.06224373
-0.03736023 0.021074908 -0.049320873 -0.0035472303 -0.124125026 0.03166714 0.035272084 0.033099383
-2.7846007e-05 -0.020051284 0.011707147 -0.06127712 -0.051213767 -0.12110567 -0.0246035 -0.120576635
0.0055681393 -0.025903752 -0.12547368 -0.08015201 -0.03136543 -0.1533845 0.063250236 -0.058785215
-0.16791877 -0.02221995 -0.059605204 0.12930892 0.015632177 0.067127526 0.08307009 0.11138278
0.047208775 0.056144685 0.026040448 -0.19977644 -0.07053749 -0.024573026 0.058024004 0.06027386
-0.015273166 0.09249188 -0.10153592 -0.017267643 -0.11679057 -0.08480905 -0.07057929 0.0100041395
0.10563622 0.11225634 -0.15263583 0.17279412 0.19672528 0.03121575 0.111426115 -0.07598155
-0.098420665 -0.006782642 -0.028902031 0.055774286 0.00356003 -0.05048988 0.06863538 0.11178182
-0.09623054 0.0794544 0.05995856 -0.079909734 -0.08858236 -0.04403002 -0.026938485 0.06084338
0.04485572 -0.095956065 -0.009293745 0.09765328 0.062691756 -0.09741371 -0.07945304 -0.0051328917
0.09567897 -0.029622264 -0.059845928 0.1008472 -0.016150113 -0.10824955 -0.005484518 -0.008349338
0.088130616 -0.00093675096 0.030912552 -0.017380105 -0.036167983 0.10972792 -0.019279152 0.056318413
0.035456438 -0.0190408 -0.012261335 -0.0285122 -0.05088647 0.102497004 -0.056458216 -0.1129692
-0.039494947 0.027043704 0.044466674 -0.08469259 -0.10050398 -0.026981419 -0.16087829 0.09851051
0.19367085 0.0082833115 0.03896155 0.0723456 0.013536883 0.022749214 -0.06905106 0.13172427
-0.1311014 -0.05491045 0.10292865 0.15929896 -0.15918484 -0.019933835 0.031810712 -0.085220955
0.0046865614 0.05372998 -0.01937274 0.059422404 0.06461164 -0.0824081 0.07594212 0.03060779
00000000: 2c2f f03d 8d9f 813d 81c5 363d 9702 f53b
00000010: 4de3 b8bb 868e 0a3e 5536 183e f8d7 dcbd
00000020: 9cb1 42bb b076 293e ba06 7ebd 17c5 5e3d
00000030: 7ee6 953d 402a 13be 1aaa aebd d79c f4bc
00000040: b624 553d 48a8 80be e047 aebc 3bf9 0c3e
00000050: 978e 5abd 44a8 513d d906 08bd a275 d73d
00000060: b869 493d f840 9fbd 1b46 093e 301f f9bd
00000070: 1752 e3bd 6b62 87bd 66fa 11be 2e2b 243d
00000080: 542e 2e3d 0604 1abe 2f6d 093e 9de5 5b3d
00000090: 2de0 bbbd 44e3 bc3d c272 543d c41f f23d
000000a0: d8c0 d93b 9d7a b23d 3b0a e13c 4091 b33d
000000b0: 9b8f 313e 5868 963d 0614 2b3e d8d7 58bd
000000c0: 4498 88bd 5766 303c cc47 80bd a356 e5bb
000000d0: 0a4a 883d c094 d83c bd4b bcbd 10f7 a8bd
000000e0: 5680 52bd f3e5 39bd ebbc c23d d611 33bd
000000f0: 502f 193d fb2c fcbc 8b0b 0abe b824 18be
00000100: 8eb9 80bd 8c23 99bd 125f f0bb 64b9 813b
00000110: 44be dabc f9e2 50bd 918b 3fba a00f 0c3d
00000120: eb89 9abd e2d2 1b3d bcc8 01be b26e 06bd
00000130: 61c6 30be aad9 933d 57f1 f33d f3a1 b3bd
00000140: 5676 523d 0fe8 f63a 2418 293e 6d82 323e
00000150: e8bc f3bb 94cb c0bd 6e0b 2c3e 5e29 f43d
00000160: 73f6 23bc a56c 263c cc16 53be 6819 1bbc
00000170: 004f c4bc ba20 c0b9 334a fcbc 0b11 9cbc
00000180: 4e84 593d 0b1c 24be e5f6 0f3e 07f8 bf3d
00000190: f6ce af3c f461 793d 0007 07bd 00a4 38bd
000001a0: 6934 96bd 6379 293d 563a 913d 1f88 92bd
000001b0: 5288 013d d1f0 a63d 2363 353c 20cd c13d
000001c0: f53f 94be 9e0c b33c 9af3 573d 7c9c fb3d
000001d0: 1309 293d 3a1d 1a3e 9b32 8fbd 48f3 7ebd
000001e0: 0a07 19bd 49a5 ac3c af04 4abd a678 68bb
000001f0: 4335 febd 67b5 013d 7679 103d 3893 073d
00000200: d896 e9b7 9742 a4bc 55cf 3f3c b8fd 7abd
00000210: 87c5 51bd 4006 f8bd 478d c9bc e2f0 f6bd
00000220: f074 b63b 1b34 d4bc 2c7c 00be bd26 a4bd
00000230: 0a79 00bd d410 1dbe 5789 813d c4c8 70bd
00000240: e6f2 2bbe 9d06 b6bc 9624 74bd 8f69 043e
00000250: 0d0f 803c 287a 893d a720 aa3d a81c e43d
00000260: fd5d 413d f8f7 653d c752 d53c 3292 4cbe
00000270: f675 90bd 5f4d c9bc 94aa 6d3d b9e1 763d
00000280: 4d3c 7abc 626c bd3d 10f2 cfbd df74 8dbc
00000290: e52f efbd 5eb0 adbd e08b 90bd 67e8 233c
000002a0: cd57 d83d a7e6 e53d 914c 1cbe f1f0 303e
000002b0: 5a72 493e 2cb8 ff3c 6033 e43d 379c 9bbd
000002c0: c690 c9bd ed40 debb f4c3 ecbc 9473 643d
000002d0: 644f 693b 7ace 4ebd b590 8c3d deed e43d
000002e0: 8414 c5bd fdb8 a23d 1b97 753d b7a7 a3bd
000002f0: ab6a b5bd d258 34bd 19ae dcbc e836 793d
00000300: a2ba 373d 9d84 c4bd cb44 18bc 71fe c73d
00000310: 8964 803d d780 c7bd 47b8 a2bd d131 a8bb
00000320: 56f3 c33d 64aa f2bc 0121 75bd fa88 ce3d
00000330: 3e4d 84bc f1b1 ddbd 79b7 b3bb a9cb 08bc
00000340: d37d b43d 4b90 75ba 523c fd3c b960 8ebc
00000350: e124 14bd 08b9 e03d 50ef 9dbc 23ae 663d
00000360: c53a 113d 74fb 9bbc c4e3 48bc 6b92 e9bc
00000370: 556e 50bd f3e9 d13d bb40 67bd 655c e7bd
00000380: 74c5 21bd c28a dd3c b022 363d 4f73 adbd
00000390: 08d5 cdbd 2308 ddbc 47bd 24be e1bf c93d
000003a0: a751 463e bab6 073c 2596 1f3d ee29 943d
000003b0: cdc9 5d3c 8f5c ba3c a46a 8dbd bae2 063e
000003c0: 723f 06be c8e9 60bd 42cc d23d 441f 233e
000003d0: 5a01 23be 484c a3bc f34b 023d 5388 aebd
000003e0: ba91 993b f813 5c3d 95b3 9ebc e864 733d
000003f0: 1c53 843d 94c5 a8bd 8b87 9b3d 30bd fa3c

network_body._body_endoder.seq_layers.2.bias f4 [128]
0.0 0.0 0.0 0.0 0.0 0.0 0.0 0.0
0.0 0.0 0.0 0.0 0.0 0.0 0.0 0.0
0.0 0.0 0.0 0.0 0.0 0.0 0.0 0.0
0.0 0.0 0.0 0.0 0.0 0.0 0.0 0.0
0.0 0.0 0.0 0.0 0.0 0.0 0.0 0.0
0.0 0.0 0.0 0.0 0.0 0.0 0.0 0.0
0.0 0.0 0.0 0.0 0.0 0.0 0.0 0.0
0.0 0.0 0.0 0.0 0.0 0.0 0.0 0.0
0.0 0.0 0.0 0.0 0.0 0.0 0.0 0.0
0.0 0.0 0.0 0.0 0.0 0.0 0.0 0.0
0.0 0.0 0.0 0.0 0.0 0.0 0.0 0.0
0.0 0.0 0.0 0.0 0.0 0.0 0.0 0.0
0.0 0.0 0.0 0.0 0.0 0.0 0.0 0.0
0.0 0.0 0.0 0.0 0.0 0.0 0.0 0.0
0.0 0.0 0.0 0.0 0.0 0.0 0.0 0.0
0.0 0.0 0.0 0.0 0.0 0.0 0.0 0.0
00000000: 0000 0000 0000 0000 0000 0000 0000 0000
00000010: 0000 0000 0000 0000 0000 0000 0000 0000
00000020: 0000 0000 0000 0000 0000 0000 0000 0000
00000030: 0000 0000 0000 0000 0000 0000 0000 0000
00000040: 0000 0000 0000 0000 0000 0000 0000 0000
00000050: 0000 0000 0000 0000 0000 0000 0000 0000
00000060: 0000 0000 0000 0000 0000 0000 0000 0000
00000070: 0000 0000 0000 0000 0000 0000 0000 0000
00000080: 0000 0000 0000 0000 0000 0000 0000 0000
00000090: 0000 0000 0000 0000 0000 0000 0000 0000
000000a0: 0000 0000 0000 0000 0000 0000 0000 0000
000000b0: 0000 0000 0000 0000 0000 0000 0000 0000
000000c0: 0000 0000 0000 0000 0000 0000 0000 0000
000000d0: 0000 0000 0000 0000 0000 0000 0000 0000
000000e0: 0000 0000 0000 0000 0000 0000 0000 0000
000000f0: 0000 0000 0000 0000 0000 0000 0000 0000
00000100: 0000 0000 0000 0000 0000 0000 0000 0000
00000110: 0000 0000 0000 0000 0000 0000 0000 0000
00000120: 0000 0000 0000 0000 0000 0000 0000 0000
00000130: 0000 0000 0000 0000 0000 0000 0000 0000
00000140: 0000 0000 0000 0000 0000 0000 0000 0000
00000150: 0000 0000 0000 0000 0000 0000 0000 0000
00000160: 0000 0000 0000 0000 0000 0000 0000 0000
00000170: 0000 0000 0000 0000 0000 0000 0000 0000
00000180: 0000 0000 0000 0000 0000 0000 0000 0000
00000190: 0000 0000 0000 0000 0000 0000 0000 0000
000001a0: 0000 0000 0000 0000 0000 0000 0000 0000
000001b0: 0000 0000 0000 0000 0000 0000 0000 0000
000001c0: 0000 0000 0000 0000 0000 0000 0000 0000
000001d0: 0000 0000 0000 0000 0000 0000 0000 0000
000001e0: 0000 0000 0000 0000 0000 0000 0000 0000
000001f0: 0000 0000 0000 0000 0000 0000 0000 0000

action_model._continuous_distribution.log_sigma f4 [1, 2]
0.0 0.0
00000000: 0000 0000 0000 0000

action_model._continuous_distribution.mu.weight f4 [2, 128]
-0.008942408 0.0018494604 -0.0010633513 -0.005476273 0.0073493198 -0.004305065 -0.013567515 0.014328676
0.005044663 0.015192553 -0.0032255396 -0.024608938 -0.014126183 -9.500456e-05 -0.008488445 0.01039854
-0.005658123 0.023411581 0.018145885 -0.025719587 -0.019254334 -0.006593206 -0.008984757 0.020914353
0.0011456662 -0.018718002 0.012187301 0.01313389 -0.034827374 -0.01976385 -0.02168239 0.0012817731
0.026450021 0.011718582 0.027238607 0.010337319 0.038227882 -0.010883224 -0.04469747 -0.0018584477
0.020569675 -0.020278616 0.0066494136 0.00087030587 -0.0033053742 -0.013343826 -0.02003829 -0.0057316516
0.020957492 -0.0076976167 0.007706628 0.011021525 -0.0306098 -0.0044584386 -0.018084245 -0.020080382
0.020314218 0.014273648 0.005360156 0.012779652 0.0103273345 -0.0026338655 -0.022736453 -0.0073479624
-0.011817566 -0.016674576 -0.019937202 -0.006348928 -0.01801771 -0.0058859955 -0.018960563 0.03097075
-0.003944067 -0.03476783 -0.0060592294 -0.029575616 0.015378688 -0.0051078885 -0.011222557 0.00221098
0.0048745 -0.017422637 -0.006798086 0.022999624 0.0085400455 0.014856291 0.0049260696 -0.022714531
0.05405267 0.0030112572 -0.024800519 -0.0019185775 -0.024566012 -0.023689814 -0.014113936 0.014906624
-0.008506999 -0.0072465665 -0.00461229 -0.005630183 -0.0103329 0.017726878 0.014879485 0.016761629
-0.029720578 -0.007524904 -0.019677479 -0.025153605 0.0109518375 0.0138709275 0.005702319 -0.015492632
-0.03258191 0.010783283 0.012562123 0.006029893 0.0059245997 0.013869737 -0.023337107 0.0034402993
0.026872119 0.00023215426 0.016016984 -0.014026644 0.019351559 -0.041197617 0.009833459 -0.015457155
0.007768663 -0.023969367 0.012177134 -0.012997012 0.01194414 0.02330698 0.013709764 -0.039322685
-0.01665727 -0.0105314385 0.01812235 0.0021707728 0.0033746231 -0.0071839737 0.025762422 -0.003588929
-0.00095314736 -0.030562362 0.012458429 -0.0035803055 -0.018896231 -0.014123196 -0.0082330145 -0.013063759
-0.01793467 0.0060393102 -0.0024125623 0.009447253 0.009255604 -0.004305212 0.015544593 0.0068417015
0.017474936 -0.016871013 -0.015294701 0.0024247826 -0.026409013 0.018452056 0.00637287 0.003587183
-0.009018834 0.00046313583 -0.041996654 0.0102214 0.025501648 0.027001027 0.00045855143 0.02257124
-0.008593383 0.0028994149 -0.001645059 -0.0025135996 -0.028096458 0.014812673 -0.018622061 -0.0077954205
-0.004675441 0.0011936955 -0.027740866 0.008675207 -0.004583562 0.023433233 -0.004581827 0.0012363666
-0.004792613 0.008465861 -0.020376708 -0.044264123 -0.011875545 0.0033905779 -0.024925705 -0.011016045
0.00911376 -0.03040008 -0.008298161 0.0035635554 0.0065859156 -0.012976109 0.019783337 0.01515186
0.02118384 -0.009306739 -0.0061018304 -0.010609186 0.020471934 0.012931404 -0.018526878 0.032210127
0.011929209 -0.054110635 -0.02626814 -0.034648586 0.03285977 -0.021165563 0.0046820263 -0.0127092395
0.014879233 0.011663436 0.0012314843 -0.010997018 0.01882095 -0.00027512235 0.022621593 -0.010365008
0.0007275631 -0.007242699 -0.00057358894 -0.0036068892 -0.023790127 0.0014775085 0.01386737 0.004774763
0.016887248 0.025311876 0.02844477 -0.03153802 -0.029919667 -0.03253295 0.007221485 0.009971397
-0.0052294475 -0.0027488873 -0.008200426 0.009381798 0.01580818 -0.006454335 0.021477232 -0.03949454
00000000: 2d83 12bc 9869 f23a 2660 8bba 4f72 b3bb
00000010: 90d2 f03b 8111 8dbb 484a 5ebc d3c2 6a3c
00000020: b34d a53b 30ea 783c 9363 53bb af98 c9bc
00000030: 8271 67bc 2f3d c7b8 1e13 0bbc a35e 2a3c
00000040: c767 b9bb a5c9 bf3c aea6 943c e2b1 d2bc
00000050: 44bb 9dbc d20b d8bb cd34 13bc 9454 ab3c
00000060: 2e2a 963a 7f56 99bc 3fad 473c 872f 573c
00000070: 26a7 0ebd cce7 a1bc 449f b1bc 2b01 a83a
00000080: b7ad d83c 4cff 3f3c 8023 df3c dc5d 293c
00000090: d794 1c3d 8d4f 32bc b214 37bd 2897 f3ba
000000a0: bc81 a83c 571f a6bc 53e3 d93b 3d25 643a
000000b0: fa9e 58bb 10a0 5abc 5727 a4bc 94d0 bbbb
000000c0: 0caf ab3c 4a3c fcbb e287 fc3b a093 343c
000000d0: 67c1 fabc 1818 92bb 6925 94bc 9d7f a4bc
000000e0: 016a a63c 05dc 693c 3fa4 af3b bf61 513c
000000f0: fb33 293c ee9c 2cbb cc41 babc 2dc7 f0bb
00000100: 779e 41bc 1f99 88bc 5853 a3bc ab0a d0bb
00000110: e099 93bc 4fdf c0bb 2f53 9bbc 5fb6 fd3c
00000120: 3b3d 81bb b668 0ebd 808c c6bb 9048 f2bc
00000130: e5f6 7b3c 1360 a7bb d1de 37bc 17e6 103b
00000140: 45ba 9f3b ebb9 8ebc 7bc2 debb b569 bc3c
00000150: 8ceb 0b3c cd67 733c de6a a13b d313 babc
00000160: 5566 5d3d 8358 453b 752a cbbc c778 fbba
00000170: a93e c9bc 2411 c2bc 233e 67bc ea3a 743c
00000180: f160 0bbc 9b74 edbb b122 97bb 667d b8bb
00000190: 534b 29bc f537 913c 15c9 733c af4f 893c
000001a0: 9278 f3bc 7893 f6bb aa32 a1bc ef0e cebc
000001b0: 566f 333c e342 633c 85da ba3b cfd4 7dbc
000001c0: 9c74 05bd 5eac 303c 5dd1 4d3c 6996 c53b
000001d0: 2523 c23b e53d 633c 762d bfbc a576 613b
000001e0: eb22 dc3c 6f6e 7339 0d36 833c 02d0 65bc
000001f0: 2987 9e3c d5be 28bd 841c 213c 0240 7dbc
00000200: 4590 fe3b 685b c4bc 9a82 473c 6bf1 54bc
00000210: 5bb1 433c 48ee be3c eb9e 603c d310 21bd
00000220: d474 88bc 0e8c 2cbc 5375 943c 8643 0e3b
00000230: c828 5d3b 8a67 ebbb b70b d33c 3d34 6bbb
00000240: a3dc 79ba eb5d fabc 701e 4c3c 8fa3 6abb
00000250: 45cc 9abc fa64 67bc c4e3 06bc 6009 56bc
00000260: bbeb 92bc 68e5 c53b 141c 1ebb a7c8 1a3c
00000270: d1a4 173c bc12 8dbb c0ae 7e3c 5a30 e03b
00000280: 9927 8f3c 1435 8abc a096 7abc 1ae9 1e3b
00000290: b757 d8bc c428 973c 82d3 d03b f216 6b3b
000002a0: bbc3 13bc 0ad1 f239 af04 2cbd a977 273c
000002b0: d5e8 d03c 4231 dd3c bb69 f039 52e7 b83c
000002c0: 43cb 0cbc 1c04 3e3b 059f d7ba 34bb 24bb
000002d0: 8b2a e6bc dbb0 723c 4b8d 98bc ba70 ffbb
000002e0: 7134 99bb c675 9c3a d040 e3bc 7522 0e3c
000002f0: b431 96bb 0df7 bf3c 2723 96bb 940d a23a
00000300: 5a0b 9dbb 65b4 0a3c 0eed a6bc 4c4e 35bd
00000310: a591 42bc 7534 5e3b fe30 ccbc a47c 34bc
00000320: e151 153c 9709 f9bc 03f5 07bc 8a8a 693b
00000330: aace d73b bf99 54bc aa10 a23c 823f 783c
00000340: bc89 ad3c 4b7b 18bc ddf1 c7bb 27d2 2dbc
00000350: c2b4 a73c 3dde 533c aec5 97bc c4ee 033d
00000360: bb72 433c 1da3 5dbd 4830 d7bc adeb 0dbd
00000370: f797 063d 6763 adbc af6b 993b 6a3a 50bc
00000380: 07c8 733c ff17 3f3c c269 a13a d62c 34bc
00000390: 652e 9a3c 4c3e 90b9 eb50 b93c ffd1 29bc
000003a0: efb9 3e3a 2a54 edbb e75c 16ba 8f61 6cbb
000003b0: 83e3 c2bc f5a8 c13a f733 633c 9d75 9c3b
000003c0: 2057 8a3c da5a cf3c 0205 e93c 032e 01bd
000003d0: 171a f5bc 4541 05bd 35a2 ec3b 125f 233c
000003e0: c95b abbb ad26 34bb 145b 06bc 1db6 193c
000003f0: 2880 813c e37e d3bb 05f1 af3c 07c5 21bd

action_model._continuous_distribution.mu.bias f4 [2]
0.0 0.0
00000000: 0000 0000 0000 0000

network_body._body_endoder.seq_layers.0.weight f4 [128, 2]
0.8935512 -0.3165852 0.31126434 -0.19041125 -0.21728085 -0.315916 -0.18566163 -1.3559195
1.2977782 -0.50677854 -0.5637959 1.162341 0.1414085 1.1337935 0.007826773 -0.43427053
-0.49386653 -0.5979122 0.6379227 0.9116269 -0.60269696 -0.83819723 -0.5830658 -0.7255644
-1.5490916 0.21086033 -0.20939739 0.21330014 -0.8965837 0.15878585 1.2387139 -0.19600788
-0.2752384 0.7681448 0.8559692 -0.43475384 1.1669523 0.62998855 0.612962 -0.29890293
0.45808578 0.035371967 -1.6350583 -1.572472 0.3988986 0.6213525 1.2320079 -0.11445378
0.28303337 1.0532942 1.0001142 -1.7301244 0.41680953 -1.502299 0.14021522 -0.016790943
-1.0253533 -0.2672583 1.059338 0.34232774 -1.175893 -0.5317836 1.4461962 0.38241002
-0.27873507 -0.16448963 0.630702 0.38096005 -0.42618635 0.37060773 -0.42815074 -0.25917023
-0.63379514 -0.55779666 0.13586436 -0.58831054 -0.24696675 -0.68309146 0.19122127 0.55846846
1.6065828 -1.7876408 -0.30013648 -0.14239739 -0.11763649 1.0195589 -0.5073314 0.5530549
-0.014815569 -0.054483872 -0.01598542 -0.9099222 0.9610671 0.661106 0.088201396 0.8082124
-0.4714476 -0.59340554 -0.3162907 -1.166775 -0.48935345 -0.39274386 0.20766152 1.3275586
0.78902245 0.43222588 -0.58161765 -1.1868192 -0.24289457 -0.19532783 -0.22850528 -0.17226745
-0.046560798 0.7494036 -0.49304634 -0.9737208 0.4453102 0.9082901 0.20929997 0.8436327
-0.13565527 1.7138704 0.9428935 0.4938302 0.13482156 -0.72309095 0.87527305 0.8697122
1.7145759 0.6286228 -0.49168235 -0.6584341 1.1795896 -0.69189125 -0.45873296 0.6367994
-0.7172856 -0.29038343 0.7808835 0.55430776 -0.53386766 -0.08112591 -0.7854517 -0.80945337
-0.18383726 1.0026494 0.39432907 0.62304056 -0.10242466 -0.96198004 -1.2265941 -0.5477228
0.4525055 -0.63372594 -0.42637286 0.27466613 0.7199548 1.0767367 1.4368694 -0.8855229
1.1736023 -0.32281476 -0.44478956 -1.302358 -0.3366923 0.43068844 0.97352177 -0.66890544
1.5695839 -1.1918343 -0.82804877 0.10907743 -0.74475485 1.1572095 0.9298388 0.62971115
2.0389292 1.7126406 0.8278274 -0.69383496 0.56175107 0.0060786568 0.1814653 0.44680566
-0.2635547 -0.0038605279 0.4912308 0.8044105 0.43432406 0.68090796 1.2655671 0.6337209
-0.49886256 0.04532457 0.06851617 0.70654076 -0.43706742 -0.25244182 -1.6363525 -0.27600396
-0.10464114 -0.29234943 -0.08416723 0.9874617 -1.2863985 -1.2135866 -0.6603824 0.41515487
-0.55237 0.14220153 -0.47727853 0.4363192 0.19540395 -0.43262735 0.30617434 1.4119263
0.98260427 -0.5477888 -0.491004 -0.03684665 0.3387806 0.90987676 1.0469661 0.40579095
-0.577101 0.22106577 1.5119092 0.8380727 -0.7752562 0.5936417 -0.2977307 -0.6746069
0.22126845 0.16863044 0.38886866 0.10250131 -0.9957227 0.30399698 -1.2703773 0.6443543
-0.24617042 0.047031257 0.23292424 0.4114626 0.04672532 -0.0400328 0.80436325 -0.5032684
0.49522945 -0.28150532 1.1162633 -0.41951647 -0.609587 0.4883078 0.16021642 0.5900844
00000000: c5bf 643f 7517 a2be 0a5e 9f3e 2bfb 42be
00000010: df7e 5ebe bebf a1be 151e 3ebe c58e adbf
00000020: 991d a63f 3dbc 01bf ee54 10bf 97c7 943f
00000030: 64cd 103e 2520 913f de3b 003c b558 debe
00000040: 13dc fcbe c610 19bf e74e 233f 6160 693f
00000050: 594a 1abf 1894 56bf cd43 15bf 97be 39bf
00000060: a248 c6bf c5eb 573e 456c 56be 5a6b 5a3e
00000070: 8286 65bf c298 223e 2d8e 9e3f 4ab6 48be
00000080: 0cec 8cbe 23a5 443f cc20 5b3f 0e98 debe
00000090: b15e 953f ee46 213f 14eb 1c3f ce09 99be
000000a0: 388a ea3e 32e2 103d 9749 d1bf c346 c9bf
000000b0: 703c cc3e f510 1f3f 6fb2 9d3f be66 eabd
000000c0: c0e9 903e 58d2 863f be03 803f b774 ddbf
000000d0: 0f68 d53e 554b c0bf 9494 0f3e 298d 89bc
000000e0: c73e 83bf 14d6 88be 6398 873f 9545 af3e
000000f0: a983 96bf f822 08bf f51c b93f 3fcb c33e
00000100: 5db6 8ebe f86f 28be b075 213f 320d c33e
00000110: 1935 dabe 4cc0 bd3e 9336 dbbe f6b1 84be
00000120: 6640 22bf c3cb 0ebf 0720 0b3e 859b 16bf
00000130: dae4 7cbe 15df 2ebf 82cf 433e caf7 0e3f
00000140: 81a4 cd3f 6ad1 e4bf 7dab 99be 9fd0 11be
00000150: 66eb f0bd e880 823f 78e0 01bf 0295 0d3f
00000160: 00bd 72bc 7b2a 5fbd dbf3 82bc a9f0 68bf
00000170: 7e08 763f 3e3e 293f efa2 b43d 02e7 4e3f
00000180: 9461 f1be 6de9 17bf dbf0 a1be e258 95bf
00000190: 898c fabe b915 c9be 39a5 543e 71ed a93f
000001a0: 60fd 493f b64c dd3e e5e4 14bf b1e9 97bf
000001b0: 5bb9 78be 0504 48be 4afd 69be e166 30be
000001c0: 89b6 3ebd ead8 3f3f 9270 fcbe c445 79bf
000001d0: b3ff e33e b385 683f bb52 563e 50f8 573f
000001e0: 37e9 0abe 1b60 db3f 7861 713f 50d7 fc3e
000001f0: aa0e 0a3e 7d1c 39bf e511 603f 75a5 5e3f
00000200: 3977 db3f 6ced 203f cabd fbbe 238f 28bf
00000210: cbfc 963f c91f 31bf 0cdf eabe 4905 233f
00000220: 07a0 37bf 23ad 94be fbe7 473f 1de7 0d3f
00000230: 8dab 08bf 5725 a6bd 5d13 49bf 5638 4fbf
00000240: d63f 3cbe d156 803f 80e5 c93e 967f 1f3f
00000250: 05c4 d1bd 5344 76bf 0901 9dbf 9037 0cbf
00000260: cdae e73e dd3b 22bf 8b4d dabe 0aa1 8c3e
00000270: f54e 383f 82d2 893f 56eb b73f a1b1 62bf
00000280: 9a38 963f fa47 a5be 75bb e3be abb3 a6bf
00000290: ef62 acbe 3283 dc3e b938 793f 633d 2bbf
000002a0: 20e8 c83f 078e 98bf 01fb 53bf fd63 df3d
000002b0: 41a8 3ebf 711f 943f ea09 6e3f c034 213f
000002c0: d17d 0240 cf37 db3f 7fec 533f 2b9f 31bf
000002d0: ebce 0f3f 782f c73b 0ad2 393e b6c3 e43e
000002e0: a4f0 86be e900 7dbb 9a82 fb3e d9ed 4d3f
000002f0: b95f de3e fc4f 2e3f 1afe a13f 883b 223f
00000300: ea6a ffbe 42a6 393d 3552 8c3d dbdf 343f
00000310: 4dc7 dfbe 0e40 81be 0074 d1bf 6450 8dbe
00000320: 184e d6bd d3ae 95be de5f acbd 4aca 7c3f
00000330: b5a8 a4bf ce56 9bbf d20e 29bf 2e8f d43e
00000340: 1f68 0dbf 479d 113e da5d f4be 3b65 df3e
00000350: f917 483e 5581 ddbe e2c2 9c3e 00ba b43f
00000360: f48b 7b3f e33b 0cbf e064 fbbe 83ec 16bd
00000370: a774 ad3e afed 683f fc02 863f d5c3 cf3e
00000380: e4bc 13bf 115f 623e 3e86 c13f ef8b 563f
00000390: 3177 46bf e7f8 173f 2970 98be 0ab3 2cbf
000003a0: 3294 623e 75ad 2c3e cb19 c73e 35ec d13d
000003b0: afe7 7ebf 7ea5 9b3e b99b a2bf 67f4 243f
000003c0: 1914 7cbe d9a3 403d b183 6e3e 3aab d23e
000003d0: 0d63 3f3d 6ff9 23bd c0ea 4d3f 33d6 00bf
000003e0: b78e fd3e 7721 90be b7e1 8e3f ddca d6be
000003f0: e50d 1cbf 7b03 fa3e c60f 243e c50f 173f

network_body._body_endoder.seq_layers.0.bias f4 [128]
0.0 0.0 0.0 0.0 0.0 0.0 0.0 0.0
0.0 0.0 0.0 0.0 0.0 0.0 0.0 0.0
0.0 0.0 0.0 0.0 0.0 0.0 0.0 0.0
0.0 0.0 0.0 0.0 0.0 0.0 0.0 0.0
0.0 0.0 0.0 0.0 0.0 0.0 0.0 0.0
0.0 0.0 0.0 0.0 0.0 0.0 0.0 0.0
0.0 0.0 0.0 0.0 0.0 0.0 0.0 0.0
0.0 0.0 0.0 0.0 0.0 0.0 0.0 0.0
0.0 0.0 0.0 0.0 0.0 0.0 0.0 0.0
0.0 0.0 0.0 0.0 0.0 0.0 0.0 0.0
0.0 0.0 0.0 0.0 0.0 0.0 0.0 0.0
0.0 0.0 0.0 0.0 0.0 0.0 0.0 0.0
0.0 0.0 0.0 0.0 0.0 0.0 0.0 0.0
0.0 0.0 0.0 0.0 0.0 0.0 0.0 0.0
0.0 0.0 0.0 0.0 0.0 0.0 0.0 0.0
0.0 0.0 0.0 0.0 0.0 0.0 0.0 0.0
00000000: 0000 0000 0000 0000 0000 0000 0000 0000
00000010: 0000 0000 0000 0000 0000 0000 0000 0000
00000020: 0000 0000 0000 0000 0000 0000 0000 0000
00000030: 0000 0000 0000 0000 0000 0000 0000 0000
00000040: 0000 0000 0000 0000 0000 0000 0000 0000
00000050: 0000 0000 0000 0000 0000 0000 0000 0000
00000060: 0000 0000 0000 0000 0000 0000 0000 0000
00000070: 0000 0000 0000 0000 0000 0000 0000 0000
00000080: 0000 0000 0000 0000 0000 0000 0000 0000
00000090: 0000 0000 0000 0000 0000 0000 0000 0000
000000a0: 0000 0000 0000 0000 0000 0000 0000 0000
000000b0: 0000 0000 0000 0000 0000 0000 0000 0000
000000c0: 0000 0000 0000 0000 0000 0000 0000 0000
000000d0: 0000 0000 0000 0000 0000 0000 0000 0000
000000e0: 0000 0000 0000 0000 0000 0000 0000 0000
000000f0: 0000 0000 0000 0000 0000 0000 0000 0000
00000100: 0000 0000 0000 0000 0000 0000 0000 0000
00000110: 0000 0000 0000 0000 0000 0000 0000 0000
00000120: 0000 0000 0000 0000 0000 0000 0000 0000
00000130: 0000 0000 0000 0000 0000 0000 0000 0000
00000140: 0000 0000 0000 0000 0000 0000 0000 0000
00000150: 0000 0000 0000 0000 0000 0000 0000 0000
00000160: 0000 0000 0000 0000 0000 0000 0000 0000
00000170: 0000 0000 0000 0000 0000 0000 0000 0000
00000180: 0000 0000 0000 0000 0000 0000 0000 0000
00000190: 0000 0000 0000 0000 0000 0000 0000 0000
000001a0: 0000 0000 0000 0000 0000 0000 0000 0000
000001b0: 0000 0000 0000 0000 0000 0000 0000 0000
000001c0: 0000 0000 0000 0000 0000 0000 0000 0000
000001d0: 0000 0000 0000 0000 0000 0000 0000 0000
000001e0: 0000 0000 0000 0000 0000 0000 0000 0000
000001f0: 0000 0000 0000 0000 0000 0000 0000 0000

network_body._body_endoder.seq_layers.2.weight f4 [128, 128]
0.031727087 0.026968736 0.11322945 -0.112687714 0.028743265 -0.032965783 -0.1721888 0.044919416
0.04299846 -0.07007715 0.05468086 0.035192195 -0.011928269 0.108276 0.03974927 0.000114943476
0.052863568 -0.19803244 0.028597297 -0.034819588 -0.072940506 0.005093436 0.02552123 -0.045141503
-0.013417068 -0.08091113 -0.0137614645 0.045298338 -0.08645106 -0.0460738 -0.025946274 0.014848373
0.06153416 -0.037305668 -0.14208552 0.018277379 0.10306221 0.16390538 0.03819332 -0.1239336
0.09527118 -0.032692365 0.046656907 0.009459697 0.09870857 -0.18211947 0.053161345 -0.012379577
0.02949075 0.01776632 -0.04669459 -0.018335521 0.14384973 -0.038739927 -0.03290425 0.110854566
-0.063054495 0.033037793 0.09119662 -0.03757743 -0.014321619 0.040561482 -0.020075394 0.05848482
0.09147356 -0.07763472 -0.07459088 0.047945067 0.0146276215 -0.048486445 -0.01051863 -0.14616004
-0.12761883 0.26451105 -0.023327911 0.06503533 0.03422043 0.14514261 -0.022011735 0.15174997
0.06835455 0.042993974 -0.0791874 0.1606001 -0.002523604 0.033031546 -0.02416731 -0.021566309
-0.09342077 0.038083103 -0.024282843 -0.05728791 -0.05030659 0.05970592 -0.20910221 0.10360765
-0.12632795 0.014366276 -0.052169736 -0.100122474 0.1193231 -0.13240409 -0.1474084 -0.020633979
-0.12667677 0.04054312 0.04418591 0.14549038 -0.020688046 -0.03676129 0.04631981 -0.04605642
-0.060555644 -0.12736061 -0.0579283 0.017510818 0.03347802 0.016550075 0.04637892 0.035541777
0.16166821 -0.0146109555 -0.16116802 -0.034024313 0.08317303 -0.047559448 0.112061195 -0.111073464
0.013122289 -0.16887842 -0.023894506 0.15216854 -0.032663148 -0.048123214 0.080831915 -0.040250927
-0.12137865 -0.08357277 0.05089057 0.048029464 0.1077357 -0.10147214 0.072268344 0.09857418
-0.03120477 -0.07295603 0.016227871 0.035296395 -0.16033283 -0.06419793 0.060984354 0.019957146
0.086441986 -0.007095786 -0.057553582 -0.07052366 0.052676268 0.09344895 0.26027638 0.06492521
-0.010658704 -0.021770444 -0.06462682 0.16931438 0.109425895 -0.02799389 -0.20606643 -0.029069575
0.042665295 0.006457927 0.063088804 -0.044462327 0.056950863 0.14274845 -0.14106557 0.0018586768
-0.05186657 0.22816618 -0.028692544 -0.020343462 -0.08466747 -0.03912758 -0.0018648795 -0.106260285
-0.1513527 -0.06876676 -0.14853677 -0.051917203 -0.30323297 0.026133567 -0.023476081 -0.008341596
0.032620646 -0.11039241 0.011475322 0.05097754 -0.035336696 -0.037714545 -0.019280648 -0.14687821
-0.15906335 -0.16438907 -0.041172717 -0.12887423 0.0040537026 0.019833362 0.101321295 0.012791183
-0.0323383 0.14586504 0.03872087 -0.062017154 0.14354216 0.11927437 0.028834376 -0.0015585399
0.09606156 0.10780817 0.07307518 -0.020421654 -0.0530044 0.03743051 -0.09651545 0.093089044
-0.084207445 -0.1364582 -0.015667414 0.013911442 0.009214616 -0.05525508 0.027385455 0.15632969
-0.05970889 0.07058911 0.0706011 -0.07484948 -0.107050546 0.009852698 0.09965704 -0.05355549
-0.0221919 -0.21536376 0.20502082 -0.048519567 -0.13452567 -0.089541085 0.02956276 -0.12096981
-0.08320452 -0.040950634 -0.06563784 -0.0007123421 0.060553998 -0.07979484 0.05976527 -0.045579344
00000000: 43f4 013d 8aed dc3c d8e4 e73d d1c8 e6bd
00000010: ff76 eb3c 2107 07bd 4352 30be 6cfd 373d
00000020: 271f 303d 9c84 8fbd 0af9 5f3d b125 103d
00000030: c96e 43bc cfbf dd3d 21d0 223d cf0d f138
00000040: 7887 583d 04c9 4abe e144 ea3c fc9e 0ebd
00000050: d561 95bd d7e6 a63b e611 d13c 4ce6 38bd
00000060: 43d3 5bbc bcb4 a5bd c477 61bc c08a 393d
00000070: 410d b1bd e2b7 3cbd 488d d4bc 9746 733c
00000080: 3e0b 7c3d d4cd 18bd de7e 11be 71ba 953c
00000090: 4812 d33d d0d6 273e 9970 1c3d e6d0 fdbd
000000a0: 891d c33d 6ee8 05bd 501b 3f3d d8fc 1a3c
000000b0: b827 ca3d 877d 3abe b6bf 593d b6d3 4abc
000000c0: 9696 f13c ac8a 913c d442 3fbd 6034 96bc
000000d0: 584d 133e c2ad 1ebd 9bc6 06bd b807 e33d
000000e0: b722 81bd a352 073d 4bc5 ba3d cbea 19bd
000000f0: 39a5 6abc cc23 263d 2775 a4bc c78d 6f3d
00000100: 7d56 bb3d f4fe 9ebd 1ac3 98bd 0c62 443d
00000110: b1a8 6f3c b999 46bd 5556 2cbc faaa 15be
00000120: 83ae 02be fe6d 873e 2d1a bfbc 3e31 853d
00000130: b92a 0c3d 44a0 143e f451 b4bc 5864 1b3e
00000140: 78fd 8b3d 731a 303d 012d a2bd 5a74 243e
00000150: 0d63 25bb 164c 073d 86fa c5bc d4ab b0bc
00000160: 6353 bfbd 07fd 1b3d d0ec c6bc baa6 6abd
00000170: 480e 4ebd 328e 743d e41e 56be 3f30 d43d
00000180: 1d5c 01be 8760 6b3c efaf 55bd 030d cdbd
00000190: ab5f f43d f094 07be 3af2 16be 9708 a9bc
000001a0: 8eb7 01be 8b10 263d 49fc 343d 6efb 143e
000001b0: fa79 a9bc 0293 16bd d7b9 3d3d a8a5 3cbd
000001c0: 3209 78bd d26a 02be 3a46 6dbd d972 8f3c
000001d0: 4020 093d 0694 873c d3f7 3d3d 4194 113d
000001e0: 5a8c 253e ca62 6fbc 3b09 25be 145d 0bbd
000001f0: 9f56 aa3d b2cd 42bd 5780 e53d 7c7a e3bd
00000200: dffe 563c 77ee 2cbe 69be c3bc 12d2 1b3e
00000210: cbc9 05bd d91c 45bd 348b a53d 28de 24bd
00000220: 5f95 f8bd 3328 abbd a172 503d 8bba 443d
00000230: 89a4 dc3d a0d0 cfbd 6d01 943d 42e1 c93d
00000240: 25a1 ffbc f969 95bd 50f0 843c f492 103d
00000250: 4a2e 24be 347a 83bd bbca 793d 2b7d a33c
00000260: 7f08 b13d c483 e8bb 4ebd 6bbd b56e 90bd
00000270: 12c3 573d 2a62 bf3d f242 853e 82f7 843d
00000280: d8a1 2ebc ee57 b2bc 115b 84bd c060 2d3e
00000290: af1a e03d 7153 e5bc 1403 53be 5123 eebc
000002a0: cec1 2e3d 059d d33b b434 813d 211e 36bd
000002b0: 4f45 693d a62c 123e 7e73 10be d89e f33a
000002c0: 0a72 54bd 65a4 693e a00c ebbc 55a7 a6bc
000002d0: 2366 adbd 3e44 20bd f96e f4ba fe9e d9bd
000002e0: 34fc 1abe 96d5 8cbd 061a 18be 22a7 54bd
000002f0: 5a41 9bbe 1016 d63c e950 c0bc 31ab 08bc
00000300: 3a9d 053d 6a15 e2bd fd02 3c3c d3cd 503d
00000310: 36bd 10bd 917a 1abd 73f2 9dbc 3e67 16be
00000320: 81e1 22be 9c55 28be b9a4 28bd 9bf7 03be
00000330: ecd4 843b 9379 a23c 8a81 cf3d 1c92 513c
00000340: 2a75 04bd a55d 153e c699 1e3d b305 7ebd
00000350: b7fc 123e 1f46 f43d 1236 ec3c ec47 ccba
00000360: ecbb c43d 88ca dc3d 71a8 953d 504b a7bc
00000370: 241b 59bd bc50 193d e4a9 c5bd 78a5 be3d
00000380: f474 acbd b3bb 0bbe f358 80bc d1ec 633c
00000390: e7f8 163c 2753 62bd 7657 e03c e414 203e
000003a0: 4f91 74bd 0691 903d 4f97 903d af4a 99bd
000003b0: 513d dbbd 366d 213c fd18 cc3d 005d 5bbd
000003c0: cacb b5bc 5188 5cbe faf0 513e 74bc 46bd
000003d0: 19c1 09be 5161 b7bd 9a2d f23c 05bf f7bd
000003e0: 2267 aabd dabb 27bd 226d 86bd 78bc 3aba
000003f0: 7807 783d 7a6b a3bd 6ecc 743d 68b1 3abd

network_body._body_endoder.seq_layers.2.bias f4 [128]
0.0 0.0 0.0 0.0 0.0 0.0 0.0 0.0
0.0 0.0 0.0 0.0 0.0 0.0 0.0 0.0
0.0 0.0 0.0 0.0 0.0 0.0 0.0 0.0
0.0 0.0 0.0 0.0 0.0 0.0 0.0 0.0
0.0 0.0 0.0 0.0 0.0 0.0 0.0 0.0
0.0 0.0 0.0 0.0 0.0 0.0 0.0 0.0
0.0 0.0 0.0 0.0 0.0 0.0 0.0 0.0
0.0 0.0 0.0 0.0 0.0 0.0 0.0 0.0
0.0 0.0 0.0 0.0 0.0 0.0 0.0 0.0
0.0 0.0 0.0 0.0 0.0 0.0 0.0 0.0
0.0 0.0 0.0 0.0 0.0 0.0 0.0 0.0
0.0 0.0 0.0 0.0 0.0 0.0 0.0 0.0
0.0 0.0 0.0 0.0 0.0 0.0 0.0 0.0
0.0 0.0 0.0 0.0 0.0 0.0 0.0 0.0
0.0 0.0 0.0 0.0 0.0 0.0 0.0 0.0
0.0 0.0 0.0 0.0 0.0 0.0 0.0 0.0
00000000: 0000 0000 0000 0000 0000 0000 0000 0000
00000010: 0000 0000 0000 0000 0000 0000 0000 0000
00000020: 0000 0000 0000 0000 0000 0000 0000 0000
00000030: 0000 0000 0000 0000 0000 0000 0000 0000
00000040: 0000 0000 0000 0000 0000 0000 0000 0000
00000050: 0000 0000 0000 0000 0000 0000 0000 0000
00000060: 0000 0000 0000 0000 0000 0000 0000 0000
00000070: 0000 0000 0000 0000 0000 0000 0000 0000
00000080: 0000 0000 0000 0000 0000 0000 0000 0000
00000090: 0000 0000 0000 0000 0000 0000 0000 0000
000000a0: 0000 0000 0000 0000 0000 0000 0000 0000
000000b0: 0000 0000 0000 0000 0000 0000 0000 0000
000000c0: 0000 0000 0000 0000 0000 0000 0000 0000
000000d0: 0000 0000 0000 0000 0000 0000 0000 0000
000000e0: 0000 0000 0000 0000 0000 0000 0000 0000
000000f0: 0000 0000 0000 0000 0000 0000 0000 0000
00000100: 0000 0000 0000 0000 0000 0000 0000 0000
00000110: 0000 0000 0000 0000 0000 0000 0000 0000
00000120: 0000 0000 0000 0000 0000 0000 0000 0000
00000130: 0000 0000 0000 0000 0000 0000 0000 0000
00000140: 0000 0000 0000 0000 0000 0000 0000 0000
00000150: 0000 0000 0000 0000 0000 0000 0000 0000
00000160: 0000 0000 0000 0000 0000 0000 0000 0000
00000170: 0000 0000 0000 0000 0000 0000 0000 0000
00000180: 0000 0000 0000 0000 0000 0000 0000 0000
00000190: 0000 0000 0000 0000 0000 0000 0000 0000
000001a0: 0000 0000 0000 0000 0000 0000 0000 0000
000001b0: 0000 0000 0000 0000 0000 0000 0000 0000
000001c0: 0000 0000 0000 0000 0000 0000 0000 0000
000001d0: 0000 0000 0000 0000 0000 0000 0000 0000
000001e0: 0000 0000 0000 0000 0000 0000 0000 0000
000001f0: 0000 0000 0000 0000 0000 0000 0000 0000

value_heads.value_heads.extrinsic.weight f4 [1, 128]
-0.09772319 -0.05312499 -0.08337957 0.0976674 0.19799179 0.05645148 0.023475658 -0.12269053
0.12031404 0.0887149 -0.12005873 -0.12450441 0.18282758 -0.0007324719 -0.10127976 0.12970579
-0.16281788 -0.15405674 -0.20214112 -0.13741189 0.19771613 0.03812435 -0.13860902 0.03252946
-0.16096944 -0.17828625 0.08946543 0.19448464 -0.1601058 -0.008254252 0.059922628 0.008579617
-0.15122488 -0.03695094 0.11194982 0.0012632025 -0.18849702 -0.07989396 -0.18847251 0.12564369
0.088860646 0.061295044 -0.11426674 0.040287867 -0.02115057 0.08893698 0.0082313325 0.12131666
0.18968102 -0.08867519 0.02136086 -0.00345063 -0.057083365 0.011467109 -0.10984024 0.19769914
-0.1670575 0.11056359 -0.12877998 0.074257895 0.16976461 0.083995156 0.0769701 0.17322055
-0.19680253 -0.077013604 -0.08856549 0.20186804 0.164179 0.0076825414 -0.1392314 0.009956095
0.08934722 0.042563196 0.06850783 0.17318685 -0.16990969 -0.054461244 0.13656013 -0.1548385
0.093301676 0.07747413 0.1289905 -0.086909875 -0.070343316 0.12346222 0.15224725 0.0013589956
-0.048866082 -0.07761642 0.04928886 -0.04916614 -0.13616948 -0.15444702 0.19826408 0.17733905
-0.18435054 -0.098362744 0.05829623 -0.17477205 -0.024040762 0.10004541 -0.09555771 -0.12036232
-0.020342294 -0.14384125 0.07769732 0.16927418 -0.10866325 -0.15175013 -0.18509492 0.05789272
-0.09974145 0.20461626 -0.18028037 0.14088753 0.06012776 0.096756496 0.13887145 0.045822293
-0.13833629 0.11959477 0.18421833 0.059521846 0.13409373 0.14009033 0.20153195 -0.0680865
00000000: 1923 c8bd 9799 59bd e8c2 aabd d905 c83d
00000010: 5cbe 4a3e ab39 673d 0650 c03c 2c45 fbbd
00000020: 3567 f63d 28b0 b53d 5ae1 f5bd 2bfc febd
00000030: 2737 3b3e 5b03 40ba c36b cfbd 98d1 043e
00000040: bbb9 26be 0dc1 1dbe 15fe 4ebe b4b5 0cbe
00000050: 1976 4a3e 4728 1c3d 86ef 0dbe 9c3d 053d
00000060: 2cd5 24be ac90 36be a739 b73d fb26 473e
00000070: c6f2 23be d83c 07bc 6e71 753d 8691 0c3c
00000080: b2da 1abe de59 17bd f245 e53d 0b92 a53a
00000090: 5d05 41be 729f a3bd f0fe 40be bda8 003e
000000a0: 92fc b53d 8310 7b3d ae04 eabd e404 253d
000000b0: f643 adbc 9724 b63d b6dc 063c de74 f83d
000000c0: be3b 423e 579b b5bd f8fc ae3c f723 62bb
000000d0: 3fd0 69bd 8be0 3b3c ebf3 e0bd a571 4a3e
000000e0: 1f11 2bbe 2a6f e23d e6de 03be 8614 983d
000000f0: c6d6 2d3e a705 ac3d 80a2 9d3d ba60 313e
00000100: 9a86 49be 4fb9 9dbd d361 b5bd 7fb6 4e3e
00000110: 8a1e 283e d4bd fb3b ad92 0ebe e41e 233c
00000120: adfb b63d bf56 2e3d d54d 8c3d e557 313e
00000130: cefc 2dbe c112 5fbd 6bd6 0b3e fc8d 1ebe
00000140: f314 bf3d c2aa 9e3d 1616 043e cefd b1bd
00000150: 2810 90bd c3d9 fc3d b4e6 1b3e 5320 b23a
00000160: cd27 48bd 5cf5 9ebd 1ee3 493d 6f62 49bd
00000170: 0370 0bbe 5c27 1ebe bd05 4b3e 5e98 353e
00000180: 63c6 3cbe 6872 c9bd 07c8 6e3d 72f7 32be
00000190: 22f1 c4bc 9ce4 cc3d c3b3 c3bd 8580 f6bd
000001a0: e2a4 a6bc 1f4b 13be c61f 9f3d 3656 2d3e
000001b0: d78a debd 6364 1bbe 8689 3dbe eb20 6d3d
000001c0: 3f45 ccbd ed86 513e 6b9b 38be d244 103e
000001d0: 8748 763d 4528 c63d 5134 0e3e 28b0 3b3d
000001e0: 07a8 0dbe 1aee f43d bba3 3c3e 2ecd 733d
000001f0: de4f 093e d773 0f3e 645e 4e3e ef70 8bbd
