results/ppo/EatFood/EatFood-960.pt (torch, 143887 bytes, 10 tensors)

network_body._body_endoder.seq_layers.0.weight f4 [128, 1]
00000000: 4d1d 8ebd e6c4 dabe 09d3 893e 4194 ba3f
00000010: 7efc c53f 50a1 0340 b6a3 ab3e 20ae 993e
00000020: e2e0 02bf 752b ba3f 1927 40bf ec73 223f
00000030: db3a b3bf 1ba6 6d3e f887 49bf d87e 073e
00000040: a254 a7be c6a6 5fbe 42b8 9d3f 8117 87bf
00000050: 02f8 85be 83db e43e 2280 febe 6d2f 09bf
00000060: 5898 843e 3366 9cbd 9840 223f dc81 0ebf
00000070: 7d01 8bbf d027 bc3c afd9 833f c8ec b23f
00000080: cf1f 3bbf a522 d9bf 2196 483f 2037 a53d
00000090: 76e0 14bf cc6a e53f 919a 92be 52ae aabf
000000a0: 4449 103f 8b7a 2cc0 bc97 c53f a593 c33e
000000b0: 840e bc3e 61aa b53d 6df4 d13e af68 c73f
000000c0: ef8d 9cbe dc11 203f d63b 093f 4092 8bbf
000000d0: 9d1d 933f a301 adbf 9f9b 08bf f2f9 dc3e
000000e0: fe03 7c3f d441 bc3f 2718 9f3f 761d 6b3f
000000f0: 09df f1be 3498 bfbe 266d d5bc ea03 3f3b
00000100: 3453 0abf de9d 19be 74cc c73f 8d6b efbe
00000110: fc0c c83f 12e7 a63e 670a 323f 3b99 c1bf
00000120: f8e4 d33f dd69 95bf ecef 9ebf 89b1 1dc0
00000130: 5a0e b5bf e029 a8be b63a bebf 9da1 f73e
00000140: 0d08 803f 8a26 5b3f b933 2ebf 8ef2 8bbe
00000150: ff5b d0be 3194 c03e 9b58 51bf 40e4 00bf
00000160: 454c 95bf 3535 d8bf 3156 1d40 c929 063f
00000170: af76 bb3f 67f9 523e c444 8c3e 62c7 093f
00000180: b4e5 80bb 1a95 71be c939 803f 923f d33f
00000190: 36bd 0c3f 1874 d2be 8fa2 fdbe 46ee 8ebf
000001a0: 8612 b83e adb7 863f a99c e43d 6c90 483e
000001b0: 05e6 d2bf dfe8 0640 af97 ccbf f073 b4be
000001c0: 3139 12be 3196 e6be ad9d 8abe b899 03bf
000001d0: 4fda f0be e9d2 dc3e b47f 81be 542d 083c
000001e0: 1781 873f 36ad f43f 4d86 8d3f 17a3 8e3e
000001f0: 03de 3740 fb74 fb3f 4aed acbf 48ae 043f
-0.069391824 -0.42728347 0.2691882 1.4576494 1.546768 2.0567207 0.3352334 0.3001566
-0.51124394 1.4544512 -0.7505966 0.6345813 -1.4002336 0.23207895 -0.78723097 0.13231981
-0.32681757 -0.21840963 1.2321856 -1.0554048 -0.26165777 0.44698724 -0.49707133 -0.5358799
0.2589748 -0.076366805 0.6337981 -0.556669 -1.0859829 0.022968203 1.0300807 1.397851
-0.7309541 -1.6963698 0.7835408 0.08067155 -0.58155 1.7923217 -0.2863355 -1.3334448
0.56361794 -2.6949794 1.5436931 0.3819858 0.36729825 0.08870388 0.41006795 1.5578822
-0.30577037 0.6252725 0.5360693 -1.0904007 1.1493412 -1.3516124 -0.5336246 0.43159443
0.9844359 1.4707589 1.2429246 0.9184183 -0.47240475 -0.3742081 -0.026053023 0.002914662
-0.5403321 -0.15001628 1.5609269 -0.46761742 1.5628963 0.32598168 0.6954712 -1.5124887
1.6554251 -1.1672932 -1.2416968 -2.463961 -1.4145005 -0.32844448 -1.4861667 0.4836549
1.0002457 0.8560568 -0.6804767 -0.27333492 -0.40695187 0.3761306 -0.81775826 -0.5034828
-1.1663901 -1.6891237 2.4583857 0.5240751 1.4645594 0.20602952 0.27396214 0.5381986
-0.0039336327 -0.23592034 1.0017635 1.6503775 0.5497621 -0.41104198 -0.49538085 -1.1166465
0.35951632 1.0524803 0.11162693 0.19586343 -1.6476446 2.1079633 -1.598379 -0.35244703
-0.1427963 -0.45036462 -0.27073422 -0.5140643 -0.47041556 0.43129662 -0.25292742 0.008311588
1.058627 1.911536 1.105661 0.27858803 2.8729255 1.9645075 -1.3509915 0.5182843

network_body._body_endoder.seq_layers.0.bias f4 [128]
00000000: 0000 0000 0000 0000 0000 0000 0000 0000
00000010: 0000 0000 0000 0000 0000 0000 0000 0000
00000020: 0000 0000 0000 0000 0000 0000 0000 0000
00000030: 0000 0000 0000 0000 0000 0000 0000 0000
00000040: 0000 0000 0000 0000 0000 0000 0000 0000
00000050: 0000 0000 0000 0000 0000 0000 0000 0000
00000060: 0000 0000 0000 0000 0000 0000 0000 0000
00000070: 0000 0000 0000 0000 0000 0000 0000 0000
00000080: 0000 0000 0000 0000 0000 0000 0000 0000
00000090: 0000 0000 0000 0000 0000 0000 0000 0000
000000a0: 0000 0000 0000 0000 0000 0000 0000 0000
000000b0: 0000 0000 0000 0000 0000 0000 0000 0000
000000c0: 0000 0000 0000 0000 0000 0000 0000 0000
000000d0: 0000 0000 0000 0000 0000 0000 0000 0000
000000e0: 0000 0000 0000 0000 0000 0000 0000 0000
000000f0: 0000 0000 0000 0000 0000 0000 0000 0000
00000100: 0000 0000 0000 0000 0000 0000 0000 0000
00000110: 0000 0000 0000 0000 0000 0000 0000 0000
00000120: 0000 0000 0000 0000 0000 0000 0000 0000
00000130: 0000 0000 0000 0000 0000 0000 0000 0000
00000140: 0000 0000 0000 0000 0000 0000 0000 0000
00000150: 0000 0000 0000 0000 0000 0000 0000 0000
00000160: 0000 0000 0000 0000 0000 0000 0000 0000
00000170: 0000 0000 0000 0000 0000 0000 0000 0000
00000180: 0000 0000 0000 0000 0000 0000 0000 0000
00000190: 0000 0000 0000 0000 0000 0000 0000 0000
000001a0: 0000 0000 0000 0000 0000 0000 0000 0000
000001b0: 0000 0000 0000 0000 0000 0000 0000 0000
000001c0: 0000 0000 0000 0000 0000 0000 0000 0000
000001d0: 0000 0000 0000 0000 0000 0000 0000 0000
000001e0: 0000 0000 0000 0000 0000 0000 0000 0000
000001f0: 0000 0000 0000 0000 0000 0000 0000 0000
0.0 0.0 0.0 0.0 0.0 0.0 0.0 0.0
0.0 0.0 0.0 0.0 0.0 0.0 0.0 0.0
0.0 0.0 0.0 0.0 0.0 0.0 0.0 0.0
0.0 0.0 0.0 0.0 0.0 0.0 0.0 0.0
0.0 0.0 0.0 0.0 0.0 0.0 0.0 0.0
0.0 0.0 0.0 0.0 0.0 0.0 0.0 0.0
0.0 0.0 0.0 0.0 0.0 0.0 0.0 0.0
0.0 0.0 0.0 0.0 0.0 0.0 0.0 0.0
0.0 0.0 0.0 0.0 0.0 0.0 0.0 0.0
0.0 0.0 0.0 0.0 0.0 0.0 0.0 0.0
0.0 0.0 0.0 0.0 0.0 0.0 0.0 0.0
0.0 0.0 0.0 0.0 0.0 0.0 0.0 0.0
0.0 0.0 0.0 0.0 0.0 0.0 0.0 0.0
0.0 0.0 0.0 0.0 0.0 0.0 0.0 0.0
0.0 0.0 0.0 0.0 0.0 0.0 0.0 0.0
0.0 0.0 0.0 0.0 0.0 0.0 0.0 0.0

network_body._body_endoder.seq_layers.2.weight f4 [128, 128]
00000000: d54f 21bd 71c9 93bd 7560 343d 7dd8 223e
00000010: b8fb d13d edf7 623d 459a a3bd d79f b33d
00000020: 519b 0f3e d2cd a5bd e9dc 74bd 4473 cd3c
00000030: 5a27 7f3c d022 d63d be38 123d 6e33 c3bd
00000040: 73ee 08bb f669 e6bd ba58 e23c e7d6 273d
00000050: 0c6b 293e f2b1 85bd fa6c a9bc e5b8 e8bc
00000060: cf69 f5bc 3a20 c3bc 6cf9 e03d c532 05be
00000070: cfee b23d 5c73 76bd a681 db3c 35e6 203e
00000080: 8d74 223d cf7b 803c 5481 2abd 4d3a ad3c
00000090: fbd8 dabc 6d0b 97bd e9d8 103c 8d93 a6bd
000000a0: e472 87bd 9918 a6bd 9c22 793d cdb4 c53d
000000b0: 3f60 9fbd ec51 6d3d 6d68 16bc b94f 123b
000000c0: 916b 0c3e db21 33bd a448 533c a155 9f3d
000000d0: bccf 8cbd ab35 bc3d de0e 913d a68b 3fbc
000000e0: 58e9 c1bc bcf0 a43d 032f 1f3d 59b3 433e
000000f0: 430f 973c 3bc5 a6bd 3ced f63c 9ac5 da3d
00000100: b593 f0bb fab4 213d 7a03 3abd a2bf bd3d
00000110: dbd1 b03d f7e7 c83d f787 d6bc dc2a 2dbd
00000120: 9b0d 35bd 90bd 943c e9d5 8f3c 7fd1 86bd
00000130: e9b0 0d3e 0dc4 1b3e b5a7 c13d 706e 2cbe
00000140: 7723 1d3d 62e9 133e 5005 be3c 83d5 103e
00000150: 08db a73c 8b9b 39bd a52c 8cba dcfc d73d
00000160: df41 93bd 8d24 aabd 74ba 30be 6cfc 813e
00000170: 2511 9e3c 3c9a a9bd ca2c a2bd b87a d9bc
00000180: c47e 46bd 1cf4 25bd 25b9 ae3c 98b3 a83c
00000190: de10 4a3c 057e 20bd bbea 6d3c 717b 18be
000001a0: d177 bfbc 601e 12be 7cf6 e53b 9d46 653d
000001b0: 1e97 8cbc 2d60 863d 8c68 093e 58da 7b3d
000001c0: cd33 c7bd 3327 36bc 71da a03d 66fc c93d
000001d0: c917 293e 5e8c b23c bce2 f8bc 9324 003d
000001e0: 489e 2abe 968e cabd 0fa4 85bc 29f2 99bb
000001f0: 8651 533d 1cbd bebc 42ff d83d 5098 3b3e
00000200: 5344 973d c4d3 86bd 781e bfbd d935 703d
00000210: 19a1 0f3d 88de 233e 1db9 80bd f125 0a3c
00000220: 1fee ef3d 6b17 bfbc 9e7e 4fbd c5b9 dbbd
00000230: 82f1 fb3d e204 b9bb f922 5bbe ee5f d1bd
00000240: d3b5 81bb accc 1a3d 0b08 373e b12d 64bd
00000250: 805e 9b3d d55f 6ebc 2cbd 8f3d e288 f9bd
00000260: 9654 d73d 32ce bd3c 9713 68be 3be1 e13d
00000270: 10f0 313b ae30 f0bb 064a 46bc b2dc ac3c
00000280: 5030 c6bd 7327 14bd 1075 bebd 66f7 1c3e
00000290: 4a2b 39bc be41 17bd dbd3 13bd 9ebc 86bd
000002a0: 7f16 4bbc 8059 50bd 08ba 2e3c e80c d8bd
000002b0: a00f 2f3d 0d41 623d 1bcb 1e3c bdb2 25be
000002c0: d5c7 fd3b d5ab 823c e014 71bc c4ac 5cbd
000002d0: 2d4a bbbd 52ae 11bd 9064 15bd d7bc 80bd
000002e0: b898 4cbc b15f 4dbc 7e3a f23c 5962 ce3d
000002f0: ea6c 8fbd 5fde c3bb a128 c8bd 5496 eb3d
00000300: 5755 e4bd ac1b 8bbd 67e3 0f3e 3d94 f13c
00000310: 5823 a3bd a11d 55bd f3cf 593d a760 a3bd
00000320: 3bc4 3b3b 72c6 253e aa41 9d3c 71f6 ecbd
00000330: 5f89 84bd c262 39bd 4c30 0e3d cec7 44bd
00000340: d440 043e a057 8bbd 17ba da3c a58b aa3d
00000350: 2883 043e bab8 80bc 1783 dd3c adf7 a7bc
00000360: 2c68 4a3d 852d 28bd d624 ccbc 8aa2 2c3e
00000370: cd79 2dbd 29d6 7abd 4d2b 273e 3d9f 1c3d
00000380: 1ad8 bd3b 9beb 1a3d 572f 0bbe 6ec4 c53c
00000390: 9c09 3c3c 5444 2a3d 692e fd3c d614 903d
000003a0: c4ce 663c f467 043c 83c9 c0bd 925a cabc
000003b0: 3a3b cabc c38b d6bd 1298 b33c a005 12bd
000003c0: 28f6 c73c d992 29bd 6f11 dabc b897 bc3d
000003d0: ed62 5abd f31f 273d 62c1 67bd 4708 afbd
000003e0: f9f5 a03d 72ea d53d bc3f 073e 8c7d 8739
000003f0: 1475 ba3d 2d1c bbbd 2b5e b53d abcc 863d
-0.039382774 -0.07216156 0.0440373 0.15902896 0.1025309 0.05541222 -0.07988409 0.087707214
0.14024092 -0.08095898 -0.05978099 0.025079377 0.015573347 0.10455859 0.035698645 -0.09531294
-0.002089408 -0.11250679 0.027630199 0.04097643 0.16544741 -0.06528081 -0.020681847 -0.028408477
-0.02995768 -0.023819078 0.109850734 -0.13007648 0.087369554 -0.06016861 0.02679522 0.15712817
0.039661933 0.015684037 -0.041627243 0.021145964 -0.026714792 -0.07375226 0.008840778 -0.08133612
-0.066137105 -0.081101604 0.06082402 0.09653626 -0.07782029 0.057939455 -0.0091801705 0.002232535
0.13712908 -0.04373346 0.012895737 0.07780004 -0.0687556 0.09189924 0.07082914 -0.01169101
-0.023670837 0.08053729 0.038863193 0.19111384 0.018439895 -0.081430875 0.030142419 0.10682221
-0.007341827 0.039479233 -0.04541347 0.09265067 0.08633777 0.09809869 -0.02618788 -0.042277202
-0.04420243 0.018156797 0.017558055 -0.06582927 0.13837017 0.15211506 0.09455816 -0.16839004
0.0383639 0.14444497 0.023195893 0.14143948 0.020490184 -0.045314353 -0.0010694457 0.10546276
-0.07190298 -0.08307753 -0.17258626 0.25387895 0.019295285 -0.08281371 -0.07918699 -0.026547775
-0.048460737 -0.040516004 0.021328518 0.02059345 0.012333123 -0.03918268 0.014521296 -0.14890839
-0.023372563 -0.142694 0.0070179086 0.055975545 -0.017161902 0.06561313 0.13418788 0.061487526
-0.09726677 -0.011117744 0.078541644 0.09862594 0.1651298 0.021795448 -0.030381553 0.03128488
-0.16661942 -0.09890477 -0.01631358 -0.004698057 0.05159142 -0.023283534 0.105955616 0.18319821
0.07386079 -0.0658336 -0.09331983 0.058645103 0.035065744 0.16002858 -0.062853076 0.0084318975
0.1171534 -0.023326596 -0.05065786 -0.10728792 0.12301923 -0.005646334 -0.2140006 -0.10223375
-0.0039584427 0.037792847 0.17874162 -0.055707637 0.07586384 -0.014549215 0.070185035 -0.121843114
0.1051418 0.02316961 -0.22663723 0.110292874 0.0027151145 -0.007330022 -0.0121026095 0.02110133
-0.09677184 -0.036170434 -0.09299672 0.1532875 -0.011301825 -0.03692793 -0.036090713 -0.065789446
-0.0123955 -0.050866604 0.0106644705 -0.10549337 0.04273951 0.05523782 0.009691979 -0.16181464
0.007744769 0.015951077 -0.01471445 -0.0538757 -0.09145007 -0.035566635 -0.036472857 -0.06286018
-0.012487583 -0.012535022 0.029568907 0.10077352 -0.070031956 -0.0059774364 -0.09773374 0.11503282
-0.1114909 -0.06792387 0.14051591 0.02948963 -0.07965726 -0.05203021 0.05317683 -0.07977419
0.0028650898 0.16188982 0.01919635 -0.115704425 -0.06471514 -0.0452602 0.03471403 -0.04804211
0.12915355 -0.068038225 0.026700063 0.08327416 0.12940657 -0.015713084 0.027040048 -0.020503843
0.049415752 -0.041059036 -0.024919908 0.16858879 -0.042352486 -0.061239395 0.16325112 0.0382378
0.0057935836 0.037822347 -0.13592277 0.024141517 0.0114769 0.04156907 0.03090592 0.07035224
0.014087383 0.008081425 -0.09413435 -0.02470139 -0.024686445 -0.10475876 0.021923099 -0.035649896
0.024409369 -0.04139981 -0.026619641 0.092086256 -0.053317 0.040801954 -0.05658091 -0.08546501
0.078594156 0.104451075 0.13207906 0.00025842746 0.09104362 -0.091362335 0.08855852 0.06582006

network_body._body_endoder.seq_layers.2.bias f4 [128]
00000000: 0000 0000 0000 0000 0000 0000 0000 0000
00000010: 0000 0000 0000 0000 0000 0000 0000 0000
00000020: 0000 0000 0000 0000 0000 0000 0000 0000
00000030: 0000 0000 0000 0000 0000 0000 0000 0000
00000040: 0000 0000 0000 0000 0000 0000 0000 0000
00000050: 0000 0000 0000 0000 0000 0000 0000 0000
00000060: 0000 0000 0000 0000 0000 0000 0000 0000
00000070: 0000 0000 0000 0000 0000 0000 0000 0000
00000080: 0000 0000 0000 0000 0000 0000 0000 0000
00000090: 0000 0000 0000 0000 0000 0000 0000 0000
000000a0: 0000 0000 0000 0000 0000 0000 0000 0000
000000b0: 0000 0000 0000 0000 0000 0000 0000 0000
000000c0: 0000 0000 0000 0000 0000 0000 0000 0000
000000d0: 0000 0000 0000 0000 0000 0000 0000 0000
000000e0: 0000 0000 0000 0000 0000 0000 0000 0000
000000f0: 0000 0000 0000 0000 0000 0000 0000 0000
00000100: 0000 0000 0000 0000 0000 0000 0000 0000
00000110: 0000 0000 0000 0000 0000 0000 0000 0000
00000120: 0000 0000 0000 0000 0000 0000 0000 0000
00000130: 0000 0000 0000 0000 0000 0000 0000 0000
00000140: 0000 0000 0000 0000 0000 0000 0000 0000
00000150: 0000 0000 0000 0000 0000 0000 0000 0000
00000160: 0000 0000 0000 0000 0000 0000 0000 0000
00000170: 0000 0000 0000 0000 0000 0000 0000 0000
00000180: 0000 0000 0000 0000 0000 0000 0000 0000
00000190: 0000 0000 0000 0000 0000 0000 0000 0000
000001a0: 0000 0000 0000 0000 0000 0000 0000 0000
000001b0: 0000 0000 0000 0000 0000 0000 0000 0000
000001c0: 0000 0000 0000 0000 0000 0000 0000 0000
000001d0: 0000 0000 0000 0000 0000 0000 0000 0000
000001e0: 0000 0000 0000 0000 0000 0000 0000 0000
000001f0: 0000 0000 0000 0000 0000 0000 0000 0000
0.0 0.0 0.0 0.0 0.0 0.0 0.0 0.0
0.0 0.0 0.0 0.0 0.0 0.0 0.0 0.0
0.0 0.0 0.0 0.0 0.0 0.0 0.0 0.0
0.0 0.0 0.0 0.0 0.0 0.0 0.0 0.0
0.0 0.0 0.0 0.0 0.0 0.0 0.0 0.0
0.0 0.0 0.0 0.0 0.0 0.0 0.0 0.0
0.0 0.0 0.0 0.0 0.0 0.0 0.0 0.0
0.0 0.0 0.0 0.0 0.0 0.0 0.0 0.0
0.0 0.0 0.0 0.0 0.0 0.0 0.0 0.0
0.0 0.0 0.0 0.0 0.0 0.0 0.0 0.0
0.0 0.0 0.0 0.0 0.0 0.0 0.0 0.0
0.0 0.0 0.0 0.0 0.0 0.0 0.0 0.0
0.0 0.0 0.0 0.0 0.0 0.0 0.0 0.0
0.0 0.0 0.0 0.0 0.0 0.0 0.0 0.0
0.0 0.0 0.0 0.0 0.0 0.0 0.0 0.0
0.0 0.0 0.0 0.0 0.0 0.0 0.0 0.0

action_model._continuous_distribution.mu.weight f4 [1, 128]
00000000: 16b8 12bc adb4 6bbc aab3 8abc 3b37 87bc
00000010: d204 143b 9801 063c bc3b bdbc f262 dfbc
00000020: 2255 66bc f428 82bb d7e7 523c 12a2 6dbc
00000030: 9f26 323c 5259 d9bc 8508 f8bb 0b23 b1ba
00000040: 6a0c 073c 7b15 cdbb 40b6 d83b 2f34 49bc
00000050: 1485 033b 8687 ba3b 5621 213c 5876 513c
00000060: 5042 6d3c 5a45 d63c 5407 95bc f802 4d3c
00000070: 679f 99bc 049e 8c3c 10a3 37bc 63aa a2bc
00000080: d7e0 79bc cd67 4e3c fce5 b2bb e3aa 0ebd
00000090: 3774 11bc 2f3f 38b9 6b17 f6b7 dafb 993b
000000a0: 9e18 bc3c 37f9 ceba c5d0 e23b 0e96 b0bc
000000b0: 6ed3 25bd 83f3 763c e55c 92ba f76b 0d3c
000000c0: 973b e03b 4bd3 9ebb 9590 5d3c 4b91 92bc
000000d0: 3a73 4eba 31ad 833c 9cbb 0e3c 664c a2bc
000000e0: 22bf 763a b476 21bd 7d14 d1bb 83dc f6bc
000000f0: f8d5 5cbb 63ab d03c 274e f4bb 2e72 103b
00000100: 6a2a f3bc abf2 8d3c 2e0b c33c f17a 1fbc
00000110: d756 e6bc 2776 8bbc 570a b03c 2bf5 06bc
00000120: d852 8638 9afa 0cbd 940c 1a3d c80f 413a
00000130: fd35 d63b 2834 b5bc ac81 1cbb bf50 2b3c
00000140: 9ff3 1f3c 6f9a d13b 48b4 fe3c d545 f73b
00000150: 4053 993b bfb2 cf3c 5d5d 5d3c 384a abba
00000160: 3d35 dcbc 8a46 cdbc dafa 513c 1318 7f3c
00000170: c3eb 01bb 1727 bfbc a6b6 3f3c e98b 97bb
00000180: a355 bfbc 8381 5a3c b431 4b3a 6a62 a33c
00000190: 63a2 263b 7f7a aa3c 4d68 32bc 870a 8ebb
000001a0: 372d 2dbc 82b5 1dbc bb3f 3f3b 7266 22bc
000001b0: 17d1 953c 77bc 803c 9918 983c 3261 e4bb
000001c0: 30b8 e9ba 6da2 f2bc 2f86 2c3c 90b1 e73c
000001d0: 2af0 63bc 08fd c3bc a092 f8bc 3c25 383d
000001e0: d411 823c cfaa 263d 6ae8 573b 60d0 61bc
000001f0: 2fb4 9dbc b7c5 693c 5d2a c73c 5b0a b0bc
-0.008955022 -0.014386338 -0.016931374 -0.016505828 0.002258588 0.008179091 -0.023099773 -0.02726886
-0.014058383 -0.003972167 0.012872658 -0.014503973 0.010873466 -0.026531849 -0.007569375 -0.0013514472
0.008242706 -0.006258664 0.006613523 -0.012280508 0.0020068334 0.005692425 0.009834608 0.012784563
0.014481142 0.026156116 -0.01819197 0.012512915 -0.018752767 0.017165191 -0.011208311 -0.019856637
-0.01525136 0.01259799 -0.005459545 -0.03483094 -0.008877805 -0.00017571145 -2.933639e-05 0.0046992125
0.022960957 -0.0015790825 0.00692186 -0.021555927 -0.04048484 0.015072706 -0.0011166601 0.008631698
0.006843041 -0.0048469654 0.013523241 -0.017891547 -0.00078754465 0.016073795 0.008711722 -0.01981182
0.0009412636 -0.039419845 -0.006380616 -0.030134445 -0.0033696871 0.025472349 -0.0074556055 0.0022040713
-0.02968331 0.017327627 0.023809042 -0.009733901 -0.02811758 -0.017024113 0.021489305 -0.008237164
6.405049e-05 -0.03441868 0.03760965 0.00073647173 0.0065371976 -0.022119597 -0.0023881001 0.010456263
0.009762674 0.0063965837 0.031091824 0.0075461664 0.0046791136 0.025353787 0.013511029 -0.0013068384
-0.026880855 -0.02505805 0.012816155 0.015569705 -0.0019824363 -0.02333407 0.011701262 -0.004624833
-0.023356264 0.013336542 0.0007751242 0.019944388 0.002542638 0.020810364 -0.010889125 -0.004334751
-0.010569862 -0.009625794 0.0029182273 -0.00991212 0.018288178 0.015714867 0.018566417 -0.0069695944
-0.0017831381 -0.029618466 0.010530039 0.02828291 -0.01391224 -0.023924366 -0.030343354 0.044957384
0.015877642 0.04069024 0.0032944926 -0.013782591 -0.019250957 0.01426833 0.024312193 -0.021489313

network_body._body_endoder.seq_layers.0.weight f4 [128, 1]
00000000: 3681 a7bd 186b f43f 3339 793f 8f3e 9fbe
00000010: 9b4f 14bf 7511 35be f74d afbe 7438 96bf
00000020: 764c 31bf a596 c53e 6dad 4c3f 6242 063e
00000030: 6b8f 903f 31fc 3fbe 0743 1140 7dde 82bf
00000040: aacc 00bf 8755 aabf 328c bd3e c0f8 cf3f
00000050: eae0 0c3f 9419 563f 584f e1bf b3a8 1cc0
00000060: 401d 88bf 1bfe 47bf b974 cfbf a495 8bbf
00000070: aa9a 333f c345 33bf 2b96 d43e 8d4c 1a3f
00000080: 1b66 083f 43d2 21bf 6e76 733d 7fd5 e83f
00000090: ce7f a6be 7c22 853d 6443 72bf 7963 4d3c
000000a0: 9b3a 383f 14fd cfbd d3d4 9abe 4145 4d3f
000000b0: f124 15bf 6ec5 7bbe c567 96be a124 623f
000000c0: aae3 593f a7d8 d03e 4bb1 d1be 4f90 cf3e
000000d0: d8ec 323f 5c28 993e 8925 b3bf e310 fbbe
000000e0: 00a7 2f3e d186 963f ea88 a53d c1f1 4b3f
000000f0: 366a 033f f867 0dc0 09a9 82bf 4955 0ebf
00000100: c4a8 a13e b8c9 2fbf dd79 48be 7ba1 db3f
00000110: f2cb b33e 2661 303f f52b b7bf 85bb 983e
00000120: ec8a 453f b84f d2be 579d 83be 488b b63f
00000130: 6733 79bf d0a8 c1bf ee13 c4bb d8c3 303f
00000140: 12ce 8e3e 1bfe af3e e80a 883e ecf8 86bc
00000150: a938 ecbe 19a5 ecbe 6e33 abbf 7e6a abbd
00000160: 7fcd c23f 0e6b 863f b5fc dd3e 19cc 043f
00000170: d425 973d f582 e8be 4b12 a0bf ebd6 623d
00000180: 539a 96be 4ab2 9fbf b08a 1440 eb45 19bd
00000190: 76e0 b13f 2740 cd3e aa55 d7be 17df 67bf
000001a0: 818c 803f 948f bb3e c9ff 0740 8b3e 3fbf
000001b0: 6b23 0a3b bae3 9abf d13d 4bbf 8b03 68bf
000001c0: ad86 5c3f 0cb4 12bf 9529 ae3f 3aca 0740
000001d0: 2a3b 9c3e d2ca e6bf 03fc 79be 4c59 9bbf
000001e0: 22ff 78be 7b6f 37bf 4a45 163f 8d7d f33d
000001f0: 4dbb 243e 1dac 06c0 fc8d 843d 4f97 07c0
-0.08178942 1.9095182 0.97352904 -0.31102416 -0.5793397 -0.1768244 -0.3423917 -1.1735978
-0.69257295 0.38591495 0.79952127 0.1311126 1.1293768 -0.18748547 2.269716 -1.0224148
-0.5031229 -1.3307351 0.37021023 1.6247787 0.5503069 0.8363278 -1.7602339 -2.4477966
-1.0633926 -0.7812211 -1.6207496 -1.0905042 0.70157874 -0.7002832 0.4152082 0.6027306
0.532808 -0.6321146 0.059439115 1.8190154 -0.32519382 0.06500718 -0.9463408 0.012535923
0.71964425 -0.10155693 -0.30240497 0.801838 -0.58259493 -0.24587032 -0.29376045 0.8833714
0.8511301 0.40790293 -0.40955576 0.40539786 0.69892645 0.29913604 -1.399583 -0.4903632
0.17153549 1.1759893 0.08082755 0.7966576 0.5133394 -2.2094707 -1.0207835 -0.55598885
0.3157407 -0.68667173 -0.19577737 1.7158655 0.35116535 0.68898237 -1.431029 0.29830566
0.771651 -0.41076446 -0.25705978 1.4261255 -0.9734406 -1.5129642 -0.005983821 0.69048834
0.27891594 0.34373555 0.2657082 -0.016476117 -0.46136978 -0.4621971 -1.337507 -0.08369921
1.5218962 1.050142 0.43356863 0.5187393 0.07380262 -0.45412412 -1.2505583 0.055380743
-0.29414615 -1.2476285 2.3209648 -0.037420195 1.3896625 0.40088007 -0.42057544 -0.90574783
1.0042878 0.3663298 2.124987 -0.7470481 0.002107824 -1.2100747 -0.793912 -0.90630406
0.86143 -0.5730598 1.360644 2.121718 0.3051389 -1.8030646 -0.24412541 -1.2136626
-0.24316075 -0.7165448 0.58699477 0.11889181 0.16087075 -2.104255 0.06472394 -2.1186101

network_body._body_endoder.seq_layers.0.bias f4 [128]
00000000: 0000 0000 0000 0000 0000 0000 0000 0000
00000010: 0000 0000 0000 0000 0000 0000 0000 0000
00000020: 0000 0000 0000 0000 0000 0000 0000 0000
00000030: 0000 0000 0000 0000 0000 0000 0000 0000
00000040: 0000 0000 0000 0000 0000 0000 0000 0000
00000050: 0000 0000 0000 0000 0000 0000 0000 0000
00000060: 0000 0000 0000 0000 0000 0000 0000 0000
00000070: 0000 0000 0000 0000 0000 0000 0000 0000
00000080: 0000 0000 0000 0000 0000 0000 0000 0000
00000090: 0000 0000 0000 0000 0000 0000 0000 0000
000000a0: 0000 0000 0000 0000 0000 0000 0000 0000
000000b0: 0000 0000 0000 0000 0000 0000 0000 0000
000000c0: 0000 0000 0000 0000 0000 0000 0000 0000
000000d0: 0000 0000 0000 0000 0000 0000 0000 0000
000000e0: 0000 0000 0000 0000 0000 0000 0000 0000
000000f0: 0000 0000 0000 0000 0000 0000 0000 0000
00000100: 0000 0000 0000 0000 0000 0000 0000 0000
00000110: 0000 0000 0000 0000 0000 0000 0000 0000
00000120: 0000 0000 0000 0000 0000 0000 0000 0000
00000130: 0000 0000 0000 0000 0000 0000 0000 0000
00000140: 0000 0000 0000 0000 0000 0000 0000 0000
00000150: 0000 0000 0000 0000 0000 0000 0000 0000
00000160: 0000 0000 0000 0000 0000 0000 0000 0000
00000170: 0000 0000 0000 0000 0000 0000 0000 0000
00000180: 0000 0000 0000 0000 0000 0000 0000 0000
00000190: 0000 0000 0000 0000 0000 0000 0000 0000
000001a0: 0000 0000 0000 0000 0000 0000 0000 0000
000001b0: 0000 0000 0000 0000 0000 0000 0000 0000
000001c0: 0000 0000 0000 0000 0000 0000 0000 0000
000001d0: 0000 0000 0000 0000 0000 0000 0000 0000
000001e0: 0000 0000 0000 0000 0000 0000 0000 0000
000001f0: 0000 0000 0000 0000 0000 0000 0000 0000
0.0 0.0 0.0 0.0 0.0 0.0 0.0 0.0
0.0 0.0 0.0 0.0 0.0 0.0 0.0 0.0
0.0 0.0 0.0 0.0 0.0 0.0 0.0 0.0
0.0 0.0 0.0 0.0 0.0 0.0 0.0 0.0
0.0 0.0 0.0 0.0 0.0 0.0 0.0 0.0
0.0 0.0 0.0 0.0 0.0 0.0 0.0 0.0
0.0 0.0 0.0 0.0 0.0 0.0 0.0 0.0
0.0 0.0 0.0 0.0 0.0 0.0 0.0 0.0
0.0 0.0 0.0 0.0 0.0 0.0 0.0 0.0
0.0 0.0 0.0 0.0 0.0 0.0 0.0 0.0
0.0 0.0 0.0 0.0 0.0 0.0 0.0 0.0
0.0 0.0 0.0 0.0 0.0 0.0 0.0 0.0
0.0 0.0 0.0 0.0 0.0 0.0 0.0 0.0
0.0 0.0 0.0 0.0 0.0 0.0 0.0 0.0
0.0 0.0 0.0 0.0 0.0 0.0 0.0 0.0
0.0 0.0 0.0 0.0 0.0 0.0 0.0 0.0

network_body._body_endoder.seq_layers.2.weight f4 [128, 128]
00000000: c1a3 aebd 54b3 5c3d cb9e 5ebd 8bdc 9a3d
00000010: 56d9 b2bc f205 f8bc d435 c7bd 32af 0fbd
00000020: d660 dfbd 7439 3cbd 5150 743d 937d d5bd
00000030: 3895 e9bc 0d23 dbbc 434e 873d 5ae5 143e
00000040: 3b45 223d ab22 c3bd 83cf ff3d 5cd1 aabb
00000050: 7d03 34bd 96f6 923c 3ab2 43bd d124 03bd
00000060: 5946 ac3c 0db1 0dbc 4073 87bb 228a 183e
00000070: a6cf 303e 5ead 57bd 906e b63d 1ca5 c6bc
00000080: 5f13 b23d bc35 2ebe f8c5 a2bb 7721 c83b
00000090: 4c9a ecbd 45ea 043d f18c 303e 7823 ed3d
000000a0: d484 7a3d f169 fd3d 6157 113d 7fb7 c03c
000000b0: be1c 5f3d d7a9 e83d 7f9b 943d 87c2 22be
000000c0: 5b7e d83d 10a8 1fbd 6b20 65bd e311 c63d
000000d0: 557d 453d 4aaa 45bd 7074 523d b75c e73d
000000e0: 4cdb 93bd 0162 963c ddde 9e3c 9d17 d23c
000000f0: 371f 06be d073 38be 8ce5 1a3d a216 9c3c
00000100: e3ab b53d 0041 313d 8988 afbd d426 dc3b
00000110: cdab 78bc 14cd 9dba e659 64bb dffd 233e
00000120: 131a 453d d49b df3d 7666 ed3d 96b6 e7bd
00000130: 7814 39bd 3b51 57be 4705 793d 81af 17be
00000140: 2b64 373e 548d cbbd 352f d4bb 2c14 afbb
00000150: 9214 ea3c aa6a e43d 936a e13c 9e6a c63d
00000160: d33d 02be 7fda 4dbd 48df cb3c 4c3f c63d
00000170: f44b df3c 007a 923d e7a1 5b3d 7038 bb3d
00000180: 5655 7bbd a8e6 05be 70e1 2a3d 3007 00be
00000190: 22d8 203e 6061 c3bd 9149 75bd 65e6 893d
000001a0: dfca 073e b63d c8bd c149 2f3c 2ec7 82bd
000001b0: c987 b83d ed95 313e fce9 833c a5e9 0dbd
000001c0: 85e3 c5bd 7772 c43d 0845 dd3d 5df0 ea3c
000001d0: ff5e 1d3e dc3f 083d d8f2 ef3c d2e0 4b3c
000001e0: b335 aabd 2215 423d 567c 923d ddfe 1abe
000001f0: 70d5 0d3e 7235 063e 1b93 8ebd 2981 823d
00000200: f242 7fbd d90f f2bd af44 4cbd 4ef4 b73b
00000210: 5a23 12bd 90d1 e03d 39c5 633d 81db 67bd
00000220: 7340 8c3c 992d 843c ec51 62bc 95ed 5a3c
00000230: 3fe9 273e 2979 37bc 25de 54bc 19e4 203d
00000240: 68f6 05bd 2458 283d 851a 1cbe 204a 023d
00000250: 347d 033e f481 3d3d 9a4a 073e 1c02 16be
00000260: 87c1 7abd 69f8 dbbd 3eb5 e73c 5d9c 343e
00000270: f451 673d c286 fdbc 4a9b 013e 35ce 03be
00000280: ccfe b93c 4bbf 5d3e 95c3 48bd e42a 3a3c
00000290: 216d c23d e178 4fbd 85fd 8d3c c359 9f3b
000002a0: 54f4 d13b 3a11 583d b491 0fbe a4e5 503e
000002b0: bd4e 4c3d 03fc b23b 90a4 0abc b415 acbc
000002c0: 8636 0fbe 5562 f83b 79c4 f8bc 4adb d13d
000002d0: bde8 0d3e d7a1 f03d 44d6 983d 804d dcbd
000002e0: 24df 4dbb bea7 dc3d 6ba9 a53d 41fb c8bc
000002f0: 6dab 393d bb4e 913e 5d4d d23c 2346 e33c
00000300: bd9c 083e 7e93 e3bd 71b3 a73d d7a2 893c
00000310: 91d1 7cbd 6d39 98bd 1e5b 103e 7207 c13c
00000320: 5b6e a63d 4aa2 ba3d dfc5 b43d f66c 17bd
00000330: e101 babd d44f 01be 6144 babd 1ee5 c63c
00000340: bd94 9cbd 5ac6 913d 7c2d 09bd 279c 91bd
00000350: b804 03be 077d 063e a4fc b5bd aaa9 9a3d
00000360: 5b54 00bc f918 6b3d 747e dbbc d8c9 8dbd
00000370: 9c97 513d 97c9 8f3d bec0 0bbe f9eb 6f3d
00000380: 9ef5 c73d 7674 b7bd 17c9 e5bd ef52 3d3d
00000390: a852 d8bc c7d5 24bd 7b35 72bd e246 f23c
000003a0: f7ec ab3c 06e3 15bd 81a4 d23d 0941 df3c
000003b0: 52ff e23c d99f 82bc fee7 853a abf6 2bbe
000003c0: e549 6bbd 2bff 0dbc f6ea 563d b220 983c
000003d0: 1803 1a3c abf6 87be f8d2 b33d 4443 093e
000003e0: 31d7 87be 8a7b f8bd 3989 f7bd 9d63 743d
000003f0: 638a bebd 408c e3bd 7389 e4bd d02a 1fbe
-0.08527327 0.053881958 -0.054350656 0.075615965 -0.02183215 -0.030276272 -0.09727064 -0.03507919
-0.10907142 -0.04595323 0.05964691 -0.10424342 -0.028513536 -0.026750112 0.06606724 0.14540616
0.039616805 -0.09528097 0.124907516 -0.005212946 -0.04394864 0.017939847 -0.047777392 -0.032017533
0.021029638 -0.008648169 -0.004133612 0.14896443 0.17266712 -0.05265557 0.08907807 -0.024248652
0.08695101 -0.17012686 -0.0049674474 0.006107505 -0.11552867 0.03244998 0.17241265 0.11579031
0.06116183 0.12373722 0.03548372 0.023524998 0.05447077 0.113605194 0.07256221 -0.15894519
0.105709754 -0.038978636 -0.05593912 0.0967138 0.04821523 -0.048258103 0.051380575 0.11296981
-0.07219562 0.018357279 0.019393379 0.025646025 -0.13097845 -0.18012929 0.03781657 0.01905376
0.088706754 0.04327488 -0.08570964 0.006718496 -0.015177679 -0.0012039267 -0.0034843623 0.16014813
0.04812057 0.10918394 0.115918085 -0.113141224 -0.045185536 -0.2102708 0.06079605 -0.14813043
0.17909305 -0.099390656 -0.006475354 -0.005342981 0.028574262 0.11153157 0.027516639 0.09688304
-0.12718897 -0.050257202 0.024886742 0.09680042 0.027257897 0.07152176 0.0536212 0.09141624
-0.06136068 -0.1307627 0.0417189 -0.12502742 0.15707448 -0.09540057 -0.05988461 0.067333974
0.13260983 -0.097773954 0.010698737 -0.06385647 0.09010274 0.17342348 0.016102783 -0.03464665
-0.096625365 0.09592145 0.10804182 0.028679067 0.1536827 0.033264026 0.029290602 0.012443738
-0.083110236 0.047383435 0.071526214 -0.15136285 0.13850951 0.13106325 -0.06961652 0.063722916
-0.062319703 -0.11819429 -0.04987019 0.00561384 -0.035678245 0.10977471 0.055608008 -0.05660582
0.017120576 0.016135024 -0.013813477 0.013362308 0.1639757 -0.01119832 -0.0129924165 0.03928003
-0.032705694 0.041099682 -0.15244491 0.031808972 0.1284073 0.04626651 0.13212052 -0.14649242
-0.06121972 -0.1074074 0.028284665 0.17637773 0.05647464 -0.030948047 0.12656894 -0.1287163
0.022704504 0.21655004 -0.049014647 0.011362765 0.09493471 -0.05065239 0.017332802 0.0048629954
0.0064073 0.052750804 -0.14020425 0.20400101 0.04987978 0.005462171 -0.008462086 -0.021006443
-0.13985643 0.0075800815 -0.030367123 0.10246904 0.13858314 0.117496185 0.07462743 -0.107569695
-0.003141352 0.10774182 0.080889545 -0.02453387 0.0453295 0.2838038 0.025671655 0.027743405
0.13341041 -0.11112116 0.081885226 0.01680128 -0.061723296 -0.07432828 0.14097258 0.02356312
0.081265174 0.091129854 0.088268034 -0.036969148 -0.090823896 -0.12628108 -0.090950735 0.024279173
-0.07645557 0.07117911 -0.033490643 -0.07109862 -0.12794769 0.13133632 -0.08886078 0.07551892
-0.007832612 0.057396863 -0.026793696 -0.06923264 0.051169977 0.07020872 -0.13647744 0.05857465
0.09763645 -0.0895776 -0.112199955 0.04622167 -0.026406601 -0.040242936 -0.059133034 0.029574815
0.020987017 -0.03659346 0.10285283 0.02725269 0.027709637 -0.015945362 0.0010216234 -0.16793315
-0.05744352 -0.008666794 0.05247017 0.018570278 0.009400152 -0.2655538 0.087804735 0.13404566
-0.26531366 -0.12132938 -0.1208672 0.05966531 -0.09303739 -0.11110735 -0.11159029 -0.15543675

network_body._body_endoder.seq_layers.2.bias f4 [128]
00000000: 0000 0000 0000 0000 0000 0000 0000 0000
00000010: 0000 0000 0000 0000 0000 0000 0000 0000
00000020: 0000 0000 0000 0000 0000 0000 0000 0000
00000030: 0000 0000 0000 0000 0000 0000 0000 0000
00000040: 0000 0000 0000 0000 0000 0000 0000 0000
00000050: 0000 0000 0000 0000 0000 0000 0000 0000
00000060: 0000 0000 0000 0000 0000 0000 0000 0000
00000070: 0000 0000 0000 0000 0000 0000 0000 0000
00000080: 0000 0000 0000 0000 0000 0000 0000 0000
00000090: 0000 0000 0000 0000 0000 0000 0000 0000
000000a0: 0000 0000 0000 0000 0000 0000 0000 0000
000000b0: 0000 0000 0000 0000 0000 0000 0000 0000
000000c0: 0000 0000 0000 0000 0000 0000 0000 0000
000000d0: 0000 0000 0000 0000 0000 0000 0000 0000
000000e0: 0000 0000 0000 0000 0000 0000 0000 0000
000000f0: 0000 0000 0000 0000 0000 0000 0000 0000
00000100: 0000 0000 0000 0000 0000 0000 0000 0000
00000110: 0000 0000 0000 0000 0000 0000 0000 0000
00000120: 0000 0000 0000 0000 0000 0000 0000 0000
00000130: 0000 0000 0000 0000 0000 0000 0000 0000
00000140: 0000 0000 0000 0000 0000 0000 0000 0000
00000150: 0000 0000 0000 0000 0000 0000 0000 0000
00000160: 0000 0000 0000 0000 0000 0000 0000 0000
00000170: 0000 0000 0000 0000 0000 0000 0000 0000
00000180: 0000 0000 0000 0000 0000 0000 0000 0000
00000190: 0000 0000 0000 0000 0000 0000 0000 0000
000001a0: 0000 0000 0000 0000 0000 0000 0000 0000
000001b0: 0000 0000 0000 0000 0000 0000 0000 0000
000001c0: 0000 0000 0000 0000 0000 0000 0000 0000
000001d0: 0000 0000 0000 0000 0000 0000 0000 0000
000001e0: 0000 0000 0000 0000 0000 0000 0000 0000
000001f0: 0000 0000 0000 0000 0000 0000 0000 0000
0.0 0.0 0.0 0.0 0.0 0.0 0.0 0.0
0.0 0.0 0.0 0.0 0.0 0.0 0.0 0.0
0.0 0.0 0.0 0.0 0.0 0.0 0.0 0.0
0.0 0.0 0.0 0.0 0.0 0.0 0.0 0.0
0.0 0.0 0.0 0.0 0.0 0.0 0.0 0.0
0.0 0.0 0.0 0.0 0.0 0.0 0.0 0.0
0.0 0.0 0.0 0.0 0.0 0.0 0.0 0.0
0.0 0.0 0.0 0.0 0.0 0.0 0.0 0.0
0.0 0.0 0.0 0.0 0.0 0.0 0.0 0.0
0.0 0.0 0.0 0.0 0.0 0.0 0.0 0.0
0.0 0.0 0.0 0.0 0.0 0.0 0.0 0.0
0.0 0.0 0.0 0.0 0.0 0.0 0.0 0.0
0.0 0.0 0.0 0.0 0.0 0.0 0.0 0.0
0.0 0.0 0.0 0.0 0.0 0.0 0.0 0.0
0.0 0.0 0.0 0.0 0.0 0.0 0.0 0.0
0.0 0.0 0.0 0.0 0.0 0.0 0.0 0.0

value_heads.value_heads.extrinsic.weight f4 [1, 128]
00000000: 7e5f babd 539f ecbd d326 a1bc d84f 43be
00000010: 890d 3cbe a1e3 883d da7a 3cbe 2ad7 563d
00000020: 954c 23bd 8847 373e 90f1 303e 3557 d33c
00000030: aacb dc3d 4971 a5bd a507 0fbe eb7b f5bc
00000040: d427 9a3d 3925 d4bc 1b4c 593e 0e99 313e
00000050: 1eee a03d 202d 59be 5779 d23c ef9e 56be
00000060: f04d 783d 15cc 423e c4ff 453e f147 23be
00000070: 4e61 c53c 2fff 43be a161 0f3d 780f 98bc
00000080: 5857 323d dd6b 3cbc edb7 8ebd 2dda f83d
00000090: f8ad f9bd 91f8 c5bd 9c54 46be 2148 89bd
000000a0: dd15 9f3d b72f 51be 7616 e23d 3541 4bbe
000000b0: 41f2 50be 37f4 ad3d a47e 3b3e 7fa4 3cbe
000000c0: 30b8 93bd c41b 223e aa09 48be d369 ba3c
000000d0: fcd2 b6bb a86e 77bd 1562 363e c07c e2bd
000000e0: 7cfd e63d c083 163d fd08 d6bc f3e3 fbbd
000000f0: 9b00 0abb 65aa 09bc 0dc8 033d f9d9 093d
00000100: 5c75 303e efcf 623d 1d51 2ebe 7c2a cbbd
00000110: d3c2 28be bab5 aebd 03df 0cbe f482 46be
00000120: 8880 0bbd 348e ad3d bbc8 aabd 24dc 3d3e
00000130: 2ff9 e93d cfc5 f23d b657 ba3c 12d4 153e
00000140: 132f fdbd f42c 4a3e 5fe4 4d3e cdab 4abe
00000150: bb7d d63d e84b 15be c2fe c23d 3272 3a3e
00000160: 0208 42be e774 1fbe 034b d0bd 94e7 3abe
00000170: 9292 3cbe ef04 07be 4c65 0b3e 4913 103e
00000180: 8f96 4e3d cefc 4cbd 50e9 46be eac7 193e
00000190: 80a4 88bd 0bf2 07be 16fc dd3b c1de 5ebd
000001a0: 214f b13d 6c8c 09be 2e03 46be 2161 99bd
000001b0: 2450 933d 6c10 ea3d 36bb 2abc 9d13 543e
000001c0: 3cb3 38be a29b 3e3e 2d9b 86bc 3b07 263e
000001d0: f359 3a3d 4c28 fbbd 39b5 e0bd 5bf1 873d
000001e0: 286a 883d 7304 bd39 90f8 f43d 2161 f33c
000001f0: 3afe 763d 9939 2f3e ad52 4a3e b1f9 533e
-0.09100245 -0.11553826 -0.019671833 -0.19073427 -0.18364538 0.06684042 -0.18406239 0.05245129
-0.039867956 0.17898381 0.17279649 0.02579842 0.10781033 -0.08078248 -0.1396776 -0.029966315
0.07527128 -0.025896655 0.21220438 0.17343542 0.07857917 -0.2120862 0.025692625 -0.20959066
0.060621202 0.19023164 0.19335848 -0.15945412 0.02409425 -0.19140314 0.035005216 -0.018562064
0.04354033 -0.011500326 -0.06968675 0.12150989 -0.12191385 -0.09666551 -0.19368213 -0.067032106
0.07767842 -0.20428358 0.1103944 -0.19849093 -0.20404913 0.08493846 0.18310028 -0.18422125
-0.07212865 0.15830904 -0.19534937 0.022755539 -0.0055793505 -0.060408264 0.17810853 -0.110589504
0.11278817 0.03674674 -0.026127333 -0.12299337 -0.002105749 -0.008402442 0.032173205 0.03365514
0.17232269 0.055374082 -0.1702313 -0.099202126 -0.1648057 -0.08530755 -0.13756947 -0.19385892
-0.034058124 0.08474389 -0.083390675 0.18541008 0.11424481 0.11854135 0.022746902 0.1463168
-0.12362494 0.19743711 0.20106648 -0.197921 0.104732 -0.14579737 0.095212474 0.18207625
-0.18948367 -0.15571938 -0.10170557 -0.18252403 -0.18415287 -0.13185476 0.1361286 0.14069857
0.050436553 -0.05004578 -0.19424939 0.15017667 -0.06672001 -0.13275926 0.0067744358 -0.054411653
0.08657671 -0.13432473 -0.1933715 -0.07489229 0.0719302 0.114289135 -0.010420611 0.20710607
-0.18037122 0.18614057 -0.016431415 0.16213696 0.04549594 -0.122635454 -0.109720655 0.06637832
0.06660873 0.00036052204 0.11961472 0.0297094 0.060301043 0.17111816 0.19758101 0.20700718
