results/ppo/EatFood/EatFood-5864.pt (torch, 204815 bytes, 12 tensors)

network_body._body_endoder.seq_layers.0.weight f4 [128, 60]
000000 6e 0d 30 3e e9 01 85 bd 8c a0 1b be dd 67 b8 bd
       0.17192623 -0.06494505 -0.15197963 -0.09004185
000010 b5 9e f9 3d a5 26 e6 bc b0 7c 02 be a8 41 8c bd
       0.12188474 -0.028094599 -0.12742877 -0.068484604
000020 87 ae 82 be 44 75 9c bb eb 83 b9 3d 8c a3 6a bc
       -0.2552378 -0.0047747213 0.090583645 -0.014321219
000030 56 05 11 bd b0 de c8 3d d3 79 c9 bd 3c 8b 1b be
       -0.03540548 0.09808099 -0.09837689 -0.15189832
000040 c9 4c 73 be 64 1f d5 bb 56 4f c0 bb 39 4f 23 be
       -0.2375976 -0.006503986 -0.0058688326 -0.1594819
000050 75 cd 90 3d f3 b7 aa bd d5 53 4c bd bf fb ab 3d
       0.07070438 -0.08335867 -0.049884636 0.08397626
000060 31 57 9e bd c5 19 18 3e 1f a1 2b be 85 1d d2 bd
       -0.07731474 0.1485358 -0.16760682 -0.10259537
000070 53 09 66 3d e5 ba e8 3c 64 3c be 3d 61 b1 5d be
       0.056161236 0.02840943 0.09288862 -0.21649696
000080 fb 09 0d 3e 5b b8 94 bd 1f b3 0b bd ec f5 9c ba
       0.13773338 -0.072617255 -0.03410637 -0.0011975146
000090 24 09 2d bd d4 63 42 3e 75 8c 1f 3e cb fc 3f 3d
       -0.042245045 0.18983394 0.15580924 0.04687194
0000a0 17 65 a0 3d b3 52 f1 bc f4 c1 9f bd 7c 01 80 bd
       0.07831781 -0.02945838 -0.078006655 -0.06250283
0000b0 86 76 04 3e ff 5a 33 3a 7b 46 cb bd 13 9f 17 3e
       0.12935838 0.00068418676 -0.099255525 0.14806776
0000c0 68 30 80 3e 0d dd bd 3d 8c 40 16 be 74 e9 2b 3e
       0.2503693 0.09270678 -0.1467306 0.16788274
0000d0 aa c6 5d 3c de 0e 0a be ce 9b 86 bc c5 02 08 3e
       0.013536135 -0.13482234 -0.016431715 0.13282306
0000e0 8f a3 c7 3c da 66 89 3d f2 ea 4a 3d df d1 bd be
       0.024369983 0.067090705 0.049540468 -0.3707418
0000f0 80 fa e3 bc c6 7d 98 be f7 5c 75 bd 56 02 14 bd
       -0.027829409 -0.29783458 -0.05990311 -0.03613504
000100 f7 09 19 be 82 3e 66 bd e1 1f 0b 3d f8 6c 8c bd
       -0.14945208 -0.056211956 0.03396595 -0.06856722
000110 7c 3f ef 3d 85 2a a8 bd 16 a0 b6 3b 15 06 c4 3d
       0.116820306 -0.08211235 0.005573283 0.095714726
000120 21 12 83 3d e1 77 87 3e e3 fb 88 bb cc fe 22 3b
       0.06399942 0.26458648 -0.004180418 0.002487111
000130 ed 89 46 bb 1c 42 70 3d 44 6d 00 3e d2 7a 91 bc
       -0.0030294613 0.058656797 0.12541682 -0.01775876
000140 67 23 3d be f6 c1 2f be 60 50 e6 bd 18 e4 57 3e
       -0.18470536 -0.17163834 -0.11245799 0.21083105
000150 6a ce aa 3d a4 45 9e bd 23 41 2b be 81 c8 19 3e
       0.083401516 -0.07728127 -0.16724066 0.15017892
000160 6f 57 08 be d6 f8 1f 3d 42 58 4c bd 39 60 01 3e
       -0.13314603 0.039055668 -0.049888857 0.12634362
000170 c0 82 57 be be 77 84 be cf 05 da bd e4 31 a0 bb
       -0.21045971 -0.25872606 -0.10645639 -0.00488876
000180 0d 67 a6 bc 06 f7 0a bd 9b f4 ad bb 84 ac c5 bc
       -0.02031281 -0.033926986 -0.0053087003 -0.024130113
000190 b8 37 c6 b9 cf 5d d8 3d 26 59 b9 3d 51 08 b1 bd
       -0.00037807017 0.105647676 0.09050207 -0.08644164
0001a0 e1 8c 8c bd 43 42 7d 3e b9 47 34 be 53 cb 63 bd
       -0.06862808 0.24732308 -0.17605485 -0.055613827
0001b0 2e 5d 45 3d a8 5c 5f bc 69 b0 7f bb b9 a3 3a 3c
       0.048184566 -0.013632931 -0.003901506 0.011391574
0001c0 14 93 d7 bd ce 7e 19 3d 72 0c 6c be c0 13 fb bd
       -0.105261 0.037474446 -0.23051623 -0.122596264
0001d0 6a 1b 13 be 69 23 8e bc 9b d4 05 3e 3c 92 81 bd
       -0.14365926 -0.01735087 0.13069384 -0.0632672
0001e0 2c 2f bf bc e9 cd 71 b9 ae e9 81 3d 53 7e 10 3e
       -0.023337923 -0.00023060259 0.06343399 0.14110689
0001f0 3b 3f e5 bc f9 cf 05 bd 04 27 2b 3e ba 27 10 bd
       -0.027984252 -0.03266904 0.16714102 -0.035194136
000200 1a bf cd 3c 0d 62 00 3e 19 71 09 bd 3a a6 43 3b
       0.025115538 0.12537403 -0.033555124 0.0029853717
000210 83 25 27 bd 7c da d1 be 8c 3b ef 3d 02 a5 26 3e
       -0.04080726 -0.40987003 0.116812795 0.16273883
000220 7a 81 14 3c 5a b0 12 bb cf 86 5f 3e f8 b3 81 3e
       0.009064073 -0.0022382946 0.21828769 0.25332618
000230 63 fc be 3d db 30 c5 bd a0 7e 96 3d 5c 2b 73 3d
       0.09325483 -0.09628459 0.073483706 0.059367523
000240 27 fd c9 ba 81 a0 c5 3d ba 12 74 bd 42 4a e6 bd
       -0.0015410528 0.09649754 -0.05958817 -0.11244632
000250 58 f3 3a 3d 39 d2 3f be 6e c7 70 3e 8c ac a2 bd
       0.045642227 -0.18732537 0.23513576 -0.07943067
000260 d7 0d 39 3e d6 3b 1c 3d f0 e7 b1 3d 28 44 cf bc
       0.18071686 0.038143 0.08686817 -0.025301054
000270 9a cd 28 be 9a 25 6c bb 7d 15 6d be fd 67 b7 bd
       -0.16484681 -0.0036033154 -0.23152728 -0.08955381
000280 fd fb 9f bd 27 a3 8c 3d d4 bb 53 3c be 46 04 bd
       -0.07811735 0.06867056 0.0129232 -0.032294028
000290 28 b1 53 3c bf 61 d3 3d 6b e3 39 3d 94 94 3b bd
       0.012920655 0.10321378 0.0453829 -0.045795992
0002a0 e2 d5 38 3e bf ea a5 3b 5c 3f 0f 3c 16 0b 04 be
       0.1805034 0.0050633843 0.008743133 -0.12894854
0002b0 60 f1 84 bd 47 80 11 be 80 d8 59 3e 88 60 94 3e
       -0.06491351 -0.1420909 0.21273994 0.28979897
0002c0 3a c8 15 be 6d e5 71 bd 89 79 36 bc 37 8e eb bb
       -0.14627162 -0.059056688 -0.011137375 -0.007188584
0002d0 b3 ad 95 3c 7a ab be be c0 5f 07 3e 34 9a bc bd
       0.018271303 -0.372402 0.1322012 -0.092090994
0002e0 ec dd 4c 3c 01 92 ce 3c c8 0c 4a be 65 39 20 be
       0.012504082 0.025216104 -0.19731438 -0.15646894
0002f0 0d b3 e0 3d cb f5 21 3e 3a dc 52 bd 51 ce 95 3d
       0.10971651 0.15816419 -0.051479556 0.07314742
000300 a5 a7 bc 3d ec fe 9c 3a d1 d4 95 be d9 7b d6 bd
       0.09211663 0.0011977828 -0.2926393 -0.10472841
000310 f0 4c e6 3d 53 08 c6 3d 2d 11 4e be fa 58 6f bd
       0.112451434 0.096695565 -0.2012374 -0.058434464
000320 ad db 1f bc 56 b9 be bc 4e b1 16 be 19 99 09 3c
       -0.009756965 -0.023281734 -0.14716074 0.008398318
000330 9c 5e 18 be 4b 37 a0 bc ae 89 45 3d 67 a0 7c 3d
       -0.1487984 -0.019557616 0.048227005 0.06167641
000340 5d 45 65 3e 6c f7 12 3e 6f c4 7e bd b6 cc f1 bd
       0.22389741 0.14352196 -0.062199052 -0.11806624
000350 60 85 3d be 07 75 57 3e 94 fa 86 3c b7 fb 20 be
       -0.1850791 0.21040736 0.016476907 -0.15721022
000360 f5 cb 02 3d 76 c0 38 be 91 11 3e 3e 18 31 84 3d
       0.03193279 -0.18042168 0.18561389 0.064546764
000370 ae 28 d0 3d ef b0 e3 bc af 23 0d 3e eb fa 9e bc
       0.10164009 -0.02779433 0.13783143 -0.019406756
000380 bd 31 97 bd 16 d4 9b 3e ad e5 8a bc 77 85 56 be
       -0.07382534 0.30435246 -0.016955221 -0.2094935
000390 5a fa 8a bc 62 0c d1 3e ae c4 bc 3c 00 ca 11 bd
       -0.01696508 0.4082976 0.023043003 -0.035593033
0003a0 9c 7d 03 3d 3e 2b d3 3a b3 4b 22 bd df eb e4 3d
       0.032102212 0.001611091 -0.039622974 0.11177801
0003b0 15 cb 76 3d 5d d1 ce 3d 22 f3 51 bd 5d b3 ac bd
       0.060252268 0.100985266 -0.05125726 -0.08432648
0003c0 3f 8b a6 bc 3e 46 01 be 15 04 e4 3d 82 ea 31 3c
       -0.02033007 -0.12624452 0.11133591 0.010859134
0003d0 65 9c dc ba 67 1a 80 3e 0b bf 17 3e a1 d8 9e bc
       -0.0016831277 0.25020143 0.14818971 -0.019390406
0003e0 35 9f df bd c9 da 85 bd 22 27 6a 3d e2 a7 d9 3d
       -0.10919038 -0.065358706 0.057166226 0.10627724
0003f0 05 23 ce 3d 9e 5a 8a 3d 45 68 92 bd 08 db a7 bd
       0.10065273 0.06755565 -0.07148794 -0.08196074

network_body._body_endoder.seq_layers.0.bias f4 [128]
000000 00 00 00 00 00 00 00 00 00 00 00 00 00 00 00 00
       0.0 0.0 0.0 0.0
000010 00 00 00 00 00 00 00 00 00 00 00 00 00 00 00 00
       0.0 0.0 0.0 0.0
000020 00 00 00 00 00 00 00 00 00 00 00 00 00 00 00 00
       0.0 0.0 0.0 0.0
000030 00 00 00 00 00 00 00 00 00 00 00 00 00 00 00 00
       0.0 0.0 0.0 0.0
000040 00 00 00 00 00 00 00 00 00 00 00 00 00 00 00 00
       0.0 0.0 0.0 0.0
000050 00 00 00 00 00 00 00 00 00 00 00 00 00 00 00 00
       0.0 0.0 0.0 0.0
000060 00 00 00 00 00 00 00 00 00 00 00 00 00 00 00 00
       0.0 0.0 0.0 0.0
000070 00 00 00 00 00 00 00 00 00 00 00 00 00 00 00 00
       0.0 0.0 0.0 0.0
000080 00 00 00 00 00 00 00 00 00 00 00 00 00 00 00 00
       0.0 0.0 0.0 0.0
000090 00 00 00 00 00 00 00 00 00 00 00 00 00 00 00 00
       0.0 0.0 0.0 0.0
0000a0 00 00 00 00 00 00 00 00 00 00 00 00 00 00 00 00
       0.0 0.0 0.0 0.0
0000b0 00 00 00 00 00 00 00 00 00 00 00 00 00 00 00 00
       0.0 0.0 0.0 0.0
0000c0 00 00 00 00 00 00 00 00 00 00 00 00 00 00 00 00
       0.0 0.0 0.0 0.0
0000d0 00 00 00 00 00 00 00 00 00 00 00 00 00 00 00 00
       0.0 0.0 0.0 0.0
0000e0 00 00 00 00 00 00 00 00 00 00 00 00 00 00 00 00
       0.0 0.0 0.0 0.0
0000f0 00 00 00 00 00 00 00 00 00 00 00 00 00 00 00 00
       0.0 0.0 0.0 0.0
000100 00 00 00 00 00 00 00 00 00 00 00 00 00 00 00 00
       0.0 0.0 0.0 0.0
000110 00 00 00 00 00 00 00 00 00 00 00 00 00 00 00 00
       0.0 0.0 0.0 0.0
000120 00 00 00 00 00 00 00 00 00 00 00 00 00 00 00 00
       0.0 0.0 0.0 0.0
000130 00 00 00 00 00 00 00 00 00 00 00 00 00 00 00 00
       0.0 0.0 0.0 0.0
000140 00 00 00 00 00 00 00 00 00 00 00 00 00 00 00 00
       0.0 0.0 0.0 0.0
000150 00 00 00 00 00 00 00 00 00 00 00 00 00 00 00 00
       0.0 0.0 0.0 0.0
000160 00 00 00 00 00 00 00 00 00 00 00 00 00 00 00 00
       0.0 0.0 0.0 0.0
000170 00 00 00 00 00 00 00 00 00 00 00 00 00 00 00 00
       0.0 0.0 0.0 0.0
000180 00 00 00 00 00 00 00 00 00 00 00 00 00 00 00 00
       0.0 0.0 0.0 0.0
000190 00 00 00 00 00 00 00 00 00 00 00 00 00 00 00 00
       0.0 0.0 0.0 0.0
0001a0 00 00 00 00 00 00 00 00 00 00 00 00 00 00 00 00
       0.0 0.0 0.0 0.0
0001b0 00 00 00 00 00 00 00 00 00 00 00 00 00 00 00 00
       0.0 0.0 0.0 0.0
0001c0 00 00 00 00 00 00 00 00 00 00 00 00 00 00 00 00
       0.0 0.0 0.0 0.0
0001d0 00 00 00 00 00 00 00 00 00 00 00 00 00 00 00 00
       0.0 0.0 0.0 0.0
0001e0 00 00 00 00 00 00 00 00 00 00 00 00 00 00 00 00
       0.0 0.0 0.0 0.0
0001f0 00 00 00 00 00 00 00 00 00 00 00 00 00 00 00 00
       0.0 0.0 0.0 0.0

network_body._body_endoder.seq_layers.2.weight f4 [128, 128]
000000 d2 bd f3 3d c0 d1 b3 bd b3 81 9d bd b6 29 91 3a
       0.1190144 -0.08780241 -0.07690754 0.0011075053
000010 8e 96 be 3c bd 97 9d 3d 0f 9f fb bd 94 a1 54 3d
       0.02326515 0.076949574 -0.122861974 0.051911905
000020 fc 92 f6 bc 42 ce 15 be d0 91 da 3c 13 3a 11 bd
       -0.030099384 -0.14629462 0.026680857 -0.035455775
000030 04 ca 46 bd 04 16 4e 3d ad be 47 bd 41 de 94 bd
       -0.0485325 0.050313964 -0.048765827 -0.07268954
000040 3a 46 93 3d c9 73 ed 3d f1 36 3d 3d 58 d7 80 3c
       0.07191129 0.1159435 0.046194974 0.015727684
000050 33 eb d9 3d 6a 76 0d 3d 25 56 2a 3d 15 b3 0f bd
       0.10640564 0.034536757 0.04158606 -0.035082895
000060 3a f8 2f be a3 98 4a be 86 ed ae bc eb 2d be 3d
       -0.17184535 -0.19784789 -0.021353494 0.09286102
000070 4a 83 f2 bb 4e 5b 86 3c 23 00 c5 bd bd 8d 51 be
       -0.007400905 0.01640096 -0.09619167 -0.20464225
000080 0f de 87 3d 2a e8 9c 3c b7 44 21 3d 0c 6b eb bd
       0.06634151 0.019153673 0.039372172 -0.11495027
000090 cd 78 03 3c 4d 6b 7d bc fe 11 6d bd 5f a4 8a bd
       0.008024407 -0.015467477 -0.057878487 -0.067696325
0000a0 4d c6 a9 bd a1 32 f0 bc db ae 53 3e b1 00 60 bb
       -0.08289776 -0.029321017 0.20672171 -0.00341801
0000b0 93 a6 bc 3d 39 ae c0 3c 98 66 64 bd 63 46 ff bb
       0.09211459 0.023520576 -0.055761904 -0.007790373
0000c0 a9 1d a0 3c 08 96 5a bd 66 b3 d3 3d ce e0 13 3a
       0.019545393 -0.053365737 0.10336952 0.00056411035
0000d0 ac 25 ce 3c 3c 69 cf bd 9c 91 d1 3d 15 56 1d 3e
       0.025164448 -0.10127494 0.10232851 0.15364869
0000e0 94 18 2e bd 01 36 11 bd 86 34 b7 3d d9 79 5f bc
       -0.04250391 -0.035451893 0.08945565 -0.013639891
0000f0 19 1b ce bd 36 fc 4e 3d ff 2f 4b 3d a9 11 a6 bd
       -0.10063762 0.050533496 0.04960632 -0.08108837
000100 20 25 8c 3d 9f d5 82 3d 8d f3 88 3c 35 58 84 bb
       0.068430185 0.06388401 0.016717697 -0.0040388354
000110 02 de d4 3d 82 24 c0 3d 63 e3 ee 3d cf 61 a6 bd
       0.10393907 0.09381963 0.11664464 -0.08124124
000120 0f 64 ed 3c 76 86 34 3c 23 f0 1d 3c 02 4b c7 3b
       0.028978376 0.011018386 0.009639773 0.0060819397
000130 50 b1 15 be 78 0f 9c bd 39 f1 26 be 40 f5 3d bc
       -0.1461842 -0.07620138 -0.16302957 -0.011594117
000140 65 6d 0d 3d a0 a8 d5 bc 16 92 c3 3d 92 9b d5 bd
       0.034528155 -0.026081383 0.09549348 -0.10430063
000150 fa db a1 bd 35 5c 8b 3d 4d 68 b4 bd 77 34 8c bc
       -0.07903285 0.068046965 -0.08808956 -0.017114861
000160 4d 65 ce 3d 67 6f 1d 3e f1 bc 93 bd bb 79 c3 bc
       0.10077915 0.15374528 -0.07213772 -0.023861757
000170 25 fc 51 bd 1b 66 30 3d 52 a9 18 3d a8 db 09 be
       -0.051265854 0.043066125 0.03727085 -0.13462698
000180 63 c2 16 bd 06 4e 73 3c 2b 45 db bd e8 b6 35 bd
       -0.036806475 0.014850145 -0.10706552 -0.044363886
000190 c4 15 01 bd 0e 29 cb 3d 6e 3c b1 3d ea 68 27 3e
       -0.031514898 0.0991994 0.08654104 0.16348615
0001a0 b6 13 82 3d 75 bd 78 bd bd 56 cb 3d 62 31 54 3d
       0.06351416 -0.060727555 0.099286534 0.051804908
0001b0 15 4b 31 be 20 58 a9 bd ca 3e 8e bd be e5 c9 bd
       -0.17313798 -0.08268762 -0.0694557 -0.09858273
0001c0 60 fd 59 bc 50 1b a7 3d 86 4b d0 bc df 09 32 bd
       -0.013305038 0.08159506 -0.025426637 -0.043466445
0001d0 aa 62 f9 3c 2e e6 19 3c d8 cc 16 3e 9e 2d 20 3d
       0.030442555 0.009393258 0.14726579 0.039106004
0001e0 c5 21 ef 3d 8f c3 1a bd 5a e7 a1 bd 1e a9 68 3d
       0.11676363 -0.037784155 -0.07905455 0.056801908
0001f0 e2 e8 24 3d d2 f4 76 bb b9 da 5e 3e 52 81 08 3e
       0.040261157 -0.0037682545 0.21763124 0.13330582
000200 84 f9 29 bd 7d 19 64 3d 14 02 6a 3b 0b 96 8e 3c
       -0.041497722 0.05568837 0.0035706805 0.01740553
000210 a6 ea 92 3b bf d3 36 bc 17 e4 a4 3d 56 2a 69 3c
       0.0044835387 -0.011158883 0.08051317 0.014231285
000220 d4 52 d9 bb 87 de 1a be fa 78 24 be d7 64 74 3d
       -0.0066321883 -0.1512395 -0.16061774 0.05966648
000230 f8 ad a9 3c c7 7a 7c 3d 99 84 0f ba bc 02 b2 3d
       0.020712838 0.061640527 -0.00054747757 0.08691928
000240 a4 95 f3 bc b0 06 fa 3d 8f 8e 57 bd 23 c3 10 3e
       -0.02973444 0.12208307 -0.05262619 0.14136939
000250 4a fb 2b bd 77 67 a9 3c 01 1f f8 bc 9b 89 39 bc
       -0.041987695 0.020679219 -0.030288221 -0.011324312
000260 0a 4b 20 3e 42 c0 ba 3d d9 3c ef 3c cd 6c 20 be
       0.15653625 0.091187015 0.02920382 -0.15666504
000270 04 eb 4e 3e 99 1b 09 3d 01 ff 7c 3d 1e 9a af 3c
       0.20206839 0.033473585 0.06176663 0.021435793
000280 f0 fa eb bc 71 65 db bd 3b 45 76 bd 2f e0 e4 3d
       -0.02880618 -0.10712708 -0.060124617 0.11175572
000290 cc 49 91 bd b5 0b 31 bd 2e 8a 7a bd 1b fa 61 bc
       -0.07094154 -0.043224055 -0.061166935 -0.01379254
0002a0 01 86 c1 3d b4 02 0d 3e 8f 49 06 bc dd 25 c9 bc
       0.09449387 0.13770562 -0.008196249 -0.024554187
0002b0 18 d2 ae bc b7 cc 01 be 0d d0 25 be c0 de ee 3c
       -0.021340415 -0.12675749 -0.16192646 0.02915895
0002c0 18 9e 49 bb 5d 65 4b be 4c 0f 36 bc 93 a4 64 bd
       -0.0030764397 -0.19862886 -0.0111120455 -0.055821013
0002d0 0e d2 f6 3d e2 cc 19 3d 79 43 70 bd 8f d5 34 bd
       0.120517835 0.037548907 -0.058658097 -0.044148978
0002e0 32 e6 83 bd b7 19 32 3e 77 e1 bc ba 34 7a aa bc
       -0.06440391 0.17392622 -0.0014410455 -0.020810224
0002f0 2d 53 2f be 02 2c 68 3d ee a9 a3 3d 73 53 c7 3d
       -0.17121573 0.056682594 0.07991396 0.097327136
000300 8f 5f 01 3e 45 20 ed 3c 8c 42 4a 3d e0 41 0d 3e
       0.12634109 0.028946051 0.04937987 0.1379466
000310 ba e3 08 be aa 0b b1 bd 5f 97 cf bd c0 80 04 3d
       -0.13368121 -0.08644803 -0.101362936 0.032349348
000320 bc 28 4c bd 10 ca 22 bd c2 d7 9a 3d b3 7c 5f bd
       -0.049843535 -0.039743483 0.07560684 -0.05456228
000330 16 90 2e 3e c8 f8 4e bd 8c a8 10 3d 74 ce a2 3d
       0.17047152 -0.050530225 0.03531699 0.07949534
000340 7a a6 17 3e 19 91 ff 3d 97 4a d5 bd 1c 87 b0 3d
       0.148096 0.12478847 -0.104146175 0.0861952
000350 04 4e 89 bb 7d c5 26 bd 51 eb ad bd 0c 34 a8 bd
       -0.0041902084 -0.040715683 -0.08492149 -0.08213052
000360 ec 84 90 3d 59 54 c6 3d 1a da 52 bc f9 70 98 bd
       0.07056603 0.09684057 -0.012869382 -0.07443423
000370 19 9e 53 bd 59 8b a0 3c c2 b1 51 3e 9c b1 6c bd
       -0.051664446 0.019597696 0.20477965 -0.05778657
000380 f6 d3 cc 3d cb e4 2e bd 96 89 20 bd c6 ab 7c 3d
       0.10001366 -0.042698663 -0.039193712 0.061687253
000390 5e e1 ae bc af 8d 26 bd 8a 24 fd bd 85 34 0f be
       -0.021347698 -0.040662464 -0.12360485 -0.13984878
0003a0 b9 b0 4c 3d d9 48 24 bd f4 ed 62 b9 53 29 fe 3d
       0.049973223 -0.040108535 -0.00021641684 0.12410226
0003b0 13 89 99 bb 2f b8 59 3c 30 55 52 be a9 aa a2 bd
       -0.00468553 0.013288542 -0.20540309 -0.07942707
0003c0 bd 20 16 bc b1 e8 43 3e 55 09 a8 3d 42 51 cb 3d
       -0.009163079 0.19131733 0.08204905 0.09927608
0003d0 2c 57 b2 3d 31 ff 82 bd 69 33 e1 3d 5e c5 d2 3d
       0.08708033 -0.0639633 0.10996134 0.10291551
0003e0 6d 48 3e bd 4a 4d 7e 3b 09 c0 63 3d fc f4 5b 3d
       -0.04645579 0.0038803392 0.05560306 0.053700432
0003f0 ce 0e 72 bd 07 3c a8 3c db eb 05 3e ff 8f 87 bd
       -0.05909615 0.020536436 0.13078253 -0.06619262

network_body._body_endoder.seq_layers.2.bias f4 [128]
000000 00 00 00 00 00 00 00 00 00 00 00 00 00 00 00 00
       0.0 0.0 0.0 0.0
000010 00 00 00 00 00 00 00 00 00 00 00 00 00 00 00 00
       0.0 0.0 0.0 0.0
000020 00 00 00 00 00 00 00 00 00 00 00 00 00 00 00 00
       0.0 0.0 0.0 0.0
000030 00 00 00 00 00 00 00 00 00 00 00 00 00 00 00 00
       0.0 0.0 0.0 0.0
000040 00 00 00 00 00 00 00 00 00 00 00 00 00 00 00 00
       0.0 0.0 0.0 0.0
000050 00 00 00 00 00 00 00 00 00 00 00 00 00 00 00 00
       0.0 0.0 0.0 0.0
000060 00 00 00 00 00 00 00 00 00 00 00 00 00 00 00 00
       0.0 0.0 0.0 0.0
000070 00 00 00 00 00 00 00 00 00 00 00 00 00 00 00 00
       0.0 0.0 0.0 0.0
000080 00 00 00 00 00 00 00 00 00 00 00 00 00 00 00 00
       0.0 0.0 0.0 0.0
000090 00 00 00 00 00 00 00 00 00 00 00 00 00 00 00 00
       0.0 0.0 0.0 0.0
0000a0 00 00 00 00 00 00 00 00 00 00 00 00 00 00 00 00
       0.0 0.0 0.0 0.0
0000b0 00 00 00 00 00 00 00 00 00 00 00 00 00 00 00 00
       0.0 0.0 0.0 0.0
0000c0 00 00 00 00 00 00 00 00 00 00 00 00 00 00 00 00
       0.0 0.0 0.0 0.0
0000d0 00 00 00 00 00 00 00 00 00 00 00 00 00 00 00 00
       0.0 0.0 0.0 0.0
0000e0 00 00 00 00 00 00 00 00 00 00 00 00 00 00 00 00
       0.0 0.0 0.0 0.0
0000f0 00 00 00 00 00 00 00 00 00 00 00 00 00 00 00 00
       0.0 0.0 0.0 0.0
000100 00 00 00 00 00 00 00 00 00 00 00 00 00 00 00 00
       0.0 0.0 0.0 0.0
000110 00 00 00 00 00 00 00 00 00 00 00 00 00 00 00 00
       0.0 0.0 0.0 0.0
000120 00 00 00 00 00 00 00 00 00 00 00 00 00 00 00 00
       0.0 0.0 0.0 0.0
000130 00 00 00 00 00 00 00 00 00 00 00 00 00 00 00 00
       0.0 0.0 0.0 0.0
000140 00 00 00 00 00 00 00 00 00 00 00 00 00 00 00 00
       0.0 0.0 0.0 0.0
000150 00 00 00 00 00 00 00 00 00 00 00 00 00 00 00 00
       0.0 0.0 0.0 0.0
000160 00 00 00 00 00 00 00 00 00 00 00 00 00 00 00 00
       0.0 0.0 0.0 0.0
000170 00 00 00 00 00 00 00 00 00 00 00 00 00 00 00 00
       0.0 0.0 0.0 0.0
000180 00 00 00 00 00 00 00 00 00 00 00 00 00 00 00 00
       0.0 0.0 0.0 0.0
000190 00 00 00 00 00 00 00 00 00 00 00 00 00 00 00 00
       0.0 0.0 0.0 0.0
0001a0 00 00 00 00 00 00 00 00 00 00 00 00 00 00 00 00
       0.0 0.0 0.0 0.0
0001b0 00 00 00 00 00 00 00 00 00 00 00 00 00 00 00 00
       0.0 0.0 0.0 0.0
0001c0 00 00 00 00 00 00 00 00 00 00 00 00 00 00 00 00
       0.0 0.0 0.0 0.0
0001d0 00 00 00 00 00 00 00 00 00 00 00 00 00 00 00 00
       0.0 0.0 0.0 0.0
0001e0 00 00 00 00 00 00 00 00 00 00 00 00 00 00 00 00
       0.0 0.0 0.0 0.0
0001f0 00 00 00 00 00 00 00 00 00 00 00 00 00 00 00 00
       0.0 0.0 0.0 0.0

action_model._continuous_distribution.log_sigma f4 [1, 2]
000000 00 00 00 00 00 00 00 00
       0.0 0.0

action_model._continuous_distribution.mu.weight f4 [2, 128]
000000 49 37 cc bc ab b9 0d bc 2d c9 d8 bc d5 7a bd 3c
       -0.024928706 -0.008650224 -0.026463116 0.02312986
000010 3d 87 d1 3b 8b e6 1d bc 93 09 5e bd 18 38 13 3d
       0.0063942955 -0.009637485 -0.05420835 0.035942167
000020 d8 77 88 3b c9 de 84 3c f8 f4 d7 3b 94 c2 a6 bc
       0.004164677 0.016219513 0.006590482 -0.020356454
000030 b0 a9 6f 3c c8 91 a8 bc 9c 6e ab 3b 49 38 40 bc
       0.014627859 -0.020577326 0.0052316915 -0.011732169
000040 ba c3 2d 3c a7 10 53 bb 18 f8 79 3c ab e5 19 3c
       0.010605747 -0.003220597 0.015256904 0.009393136
000050 8f c3 b1 bc 3f ec 81 3c f3 b3 84 3c 3f 52 5b bb
       -0.021699695 0.015859721 0.016199088 -0.003346577
000060 65 04 e8 3c 55 bc 97 bc eb 73 00 bd 97 fc 5a bc
       0.028322408 -0.01852242 -0.031360548 -0.013365886
000070 ab 48 16 bd 2f 9d 64 3c 29 23 9a bc 33 73 70 3c
       -0.036690395 0.013953491 -0.018815594 0.014675903
000080 19 af 83 bc 77 7e 6b 3c 81 2d 3e 3b dd 77 a1 3c
       -0.016074704 0.014373413 0.0029018822 0.019710476
000090 26 99 06 bc f7 92 bb 3b e2 0a 67 bc 18 c4 a0 bb
       -0.008215224 0.0057243067 -0.014101716 -0.0049061887
0000a0 f2 36 ce 3b 7e 7b ac bb 8d b3 46 bb 9e 77 8a 3c
       0.006293171 -0.005263745 -0.0030319423 0.016902741
0000b0 6f 1f c0 3c 1b e0 f0 3a 10 19 a1 3b 5f bd 01 bd
       0.023452489 0.0018377336 0.0049163178 -0.03167474
0000c0 5b c7 08 3c 0a ee e6 3b 03 36 59 3b 3f 0f 00 3c
       0.008348311 0.0070474194 0.0033143766 0.007816135
0000d0 23 7d d7 3c 63 77 6e 3c 6f a1 98 3c 11 a1 14 bc
       0.026304787 0.014554831 0.018631665 -0.009071604
0000e0 f5 57 a8 3c 44 11 0b 3c 1c c1 2d bc 97 50 05 bd
       0.020549754 0.008488003 -0.010605123 -0.03254756
0000f0 f5 10 d2 b9 4b 22 8f bc 0d a5 88 3c 4c 11 8c bc
       -0.00040066955 -0.017472407 0.016680265 -0.017098092
000100 4a 17 a6 bb 67 40 63 3d d3 1d 74 39 67 b9 9b bc
       -0.0050686942 0.05548134 0.00023280764 -0.019009305
000110 cb 37 a5 bb 3c 24 06 bc 9f 19 ee 3c 52 7a 74 3b
       -0.0050420514 -0.00818735 0.029064951 0.0037304354
000120 90 97 74 ba 8a d7 90 3c cb a6 84 3c f7 32 8d 3c
       -0.0009330446 0.017680902 0.016192814 0.017236216
000130 d2 54 49 3c 4d 21 68 3c 55 c3 8b bb d8 89 80 3c
       0.012288289 0.014168096 -0.0042652288 0.015690729
000140 8a 91 54 bb a8 49 92 bc 88 ec e8 ba 49 b9 96 bb
       -0.003243538 -0.017857388 -0.0017770687 -0.0045997244
000150 a4 b8 b4 bc 67 b0 e3 bb bf 19 97 bc c5 d0 08 bd
       -0.0220607 -0.006948519 -0.018444894 -0.033402223
000160 d3 06 ad 3c a8 90 24 bc 6f c7 61 3c 60 b6 75 3a
       0.021121418 -0.010044254 0.013780459 0.00093731843
000170 d6 46 45 3b 15 10 31 3c 8b a8 ad 3b 68 9a 80 bc
       0.0030102036 0.010807057 0.005299633 -0.015698627
000180 23 96 e4 ba 43 0d 78 bc c6 c8 99 bc 3b d7 de 3b
       -0.0017439764 -0.015139881 -0.018772494 0.00680056
000190 b8 55 a3 bb e4 b2 34 bc 66 b3 11 bc 4f 9e d3 bb
       -0.0049845837 -0.011028979 -0.00889287 -0.006458081
0001a0 cb 34 ca bb 75 38 80 bc ab 7f 05 3d ff a7 4c bb
       -0.006170844 -0.01565192 0.032592457 -0.0031228063
0001b0 be 17 b1 3b 7e bc 30 3c 00 7e 8b 3c 2c b9 b0 3b
       0.0054044416 0.010787128 0.017027855 0.005393168
0001c0 16 00 b0 bc 5b 3b e3 3b f2 eb 14 3d a0 35 04 3b
       -0.021484416 0.006934566 0.036357827 0.0020173565
0001d0 9f f8 35 3c 66 56 3d 3c c1 05 a6 bc 75 14 d2 ba
       0.011106639 0.0115562435 -0.020266416 -0.0016027825
0001e0 80 85 ff 3a 5e fd 40 3b dd 82 72 bc f3 f2 9b 3c
       0.0019494742 0.0029447894 -0.014801708 0.019036746
0001f0 f2 ed c0 3b 53 bc c8 bc d3 b1 ed 3c f7 92 88 3b
       0.0058877403 -0.024503862 0.029015457 0.00416791
000200 8d 56 f8 bb ca 14 80 bc 3f 7c db 3b fe a9 2b bc
       -0.007578677 -0.015634913 0.006698161 -0.010477541
000210 61 1c 0a bc 33 f4 33 3d e3 7e f5 3c 6b 26 b3 bc
       -0.008429618 0.04393406 0.02996773 -0.021868905
000220 b5 f0 0f bc 90 11 b6 bc 2e 42 07 bc 65 a1 83 3b
       -0.008785416 -0.022225171 -0.008255525 0.0040170425
000230 7b cb 6f bc 77 d8 80 3c 9b 8e e1 bb a0 d8 16 bb
       -0.014635916 0.015728218 -0.006883455 -0.0023017302
000240 b0 13 0b 3c 5f 63 df 3c 13 78 52 39 9b 2a 9f 3b
       0.008488581 0.027269064 0.00020071892 0.004857374
000250 91 75 ad bc 5b 82 90 bc eb 8b 66 3c 53 7a 09 3c
       -0.021174224 -0.017640283 0.014071445 0.008390981
000260 aa ba 45 3c e7 44 57 3b b5 a0 aa ba 98 db 80 3a
       0.01206843 0.0032847465 -0.0013017865 0.0009831069
000270 67 4c a2 3c ea 20 1a bc 62 11 39 bc a5 1d 78 bb
       0.019811822 -0.009407261 -0.011295648 -0.0037859466
000280 50 2e 7e 3b df 6b ea 3a 66 77 8c bc 6d 64 35 bc
       0.0038784929 0.0017884931 -0.017146777 -0.011071307
000290 21 2c 08 3b 31 3c 03 bd 8e 8e 84 3b 65 95 19 3c
       0.0020778256 -0.032039825 0.004045314 0.009373997
0002a0 a4 12 b9 bb 19 e3 be bb 3f 96 b6 bc 1d 24 55 3b
       -0.005647974 -0.005825412 -0.02228844 0.0032522746
0002b0 4c c4 ac 3a 8e 49 08 3b e2 82 07 3c 6f a6 dc bb
       0.001318106 0.0020795795 0.008270951 -0.0067337076
0002c0 d0 a4 46 3d fb ff a0 3c 77 b9 d3 3c 7d c0 e2 bb
       0.04849702 0.019653311 0.025845272 -0.006919919
0002d0 ce 65 0d bc 35 3c 4f bc dd 36 3e bc ab f5 f1 3c
       -0.008630229 -0.012648632 -0.01160976 0.029536089
0002e0 76 d8 1d 3c 11 15 11 bc 01 61 b3 3c 59 33 11 3c
       0.009634128 -0.00885512 0.021896841 0.00886234
0002f0 73 a0 88 bc 5b 13 85 bc c6 fe 9c ba 57 7d f1 3b
       -0.01667807 -0.016244581 -0.0011977784 0.007369678
000300 99 66 23 bc 6a 6a ed 3b df f0 d2 3c 06 7e bc 3c
       -0.009973192 0.0072453516 0.025749622 0.023009311
000310 0b 3f f4 3b 0b 72 22 3c eb 13 83 3c e8 66 f9 3c
       0.0074538044 0.009914885 0.016000709 0.030444577
000320 4d 60 88 3c 30 e7 11 3c 2f 0d 9f 3b 1f dc 7a bb
       0.016647482 0.008905217 0.0048538665 -0.0038278175
000330 40 76 49 3c 02 95 0e 3c 77 57 04 3d cf 76 79 bc
       0.012296259 0.008702518 0.032309975 -0.01522608
000340 4b 7a 25 ba 7f 4a 5c 3c db 62 eb 3c 75 33 c2 bc
       -0.00063124736 0.013445496 0.028733661 -0.023706177
000350 98 46 cc 3c e4 c7 ae bb f2 59 ed 3b 0d 13 31 bc
       0.024936005 -0.0053338874 0.0072433883 -0.010807765
000360 f7 03 c1 bb 23 d9 98 bc 2f 3a 03 3c 26 4f b5 bc
       -0.005890365 -0.018658226 0.0080094775 -0.022132467
000370 d7 01 0f bc 89 10 2c 3b e4 8e 86 3c cd d4 9f 3c
       -0.008728466 0.0026254973 0.016425557 0.019510651
000380 3b 91 c4 bc a2 76 bf 3c 25 ab 89 3b df 7c 03 3d
       -0.023995033 0.023371998 0.00420131 0.03210151
000390 cf f7 29 3c 53 fe 04 bc 07 28 58 bc 46 ff 1e ba
       0.010374024 -0.008117276 -0.013193137 -0.00060652604
0003a0 df 99 70 3c ae d4 15 bd a6 02 39 bb 51 4e ac bc
       0.014685123 -0.03657978 -0.0028230338 -0.021033438
0003b0 2a 44 2b 3b e2 9c 3e bc a8 22 b4 3c 97 6e 86 bc
       0.0026133158 -0.011634083 0.021989182 -0.016410155
0003c0 b8 f0 db 3b 3f 2d 08 3d 32 a1 4f 3c f1 2c 36 ba
       0.0067120455 0.033246275 0.012672709 -0.0006949446
0003d0 97 3f 9e bc b0 00 65 3c f1 9f 98 bc b0 dd e6 bc
       -0.019317431 0.013977215 -0.018630954 -0.02818188
0003e0 21 c7 b6 3b 97 21 6e bc 93 87 f8 3c 86 94 b6 bb
       0.0055779372 -0.014534376 0.030338084 -0.0055719046
0003f0 a8 b0 25 3b 0f 76 ef bb fb 1d 0e bb 57 6e 3a bb
       0.0025282297 -0.007307775 -0.002168535 -0.0028447115

action_model._continuous_distribution.mu.bias f4 [2]
000000 00 00 00 00 00 00 00 00
       0.0 0.0

network_body._body_endoder.seq_layers.0.weight f4 [128, 60]
000000 69 88 2b bd c2 e5 3e 3a e7 f1 76 be f8 4d b5 bd
       -0.041878138 0.00072821614 -0.24115716 -0.08852762
000010 fd 73 1b 3c 9e b5 94 3e d8 c3 c3 ba ef 70 21 bc
       0.009488103 0.29044813 -0.0014935685 -0.009853586
000020 28 e2 54 3c 65 19 71 bd f3 0b af bd b1 1e 93 bd
       0.012993373 -0.05886211 -0.08547201 -0.07183588
000030 d7 ba 8a 3e fe 20 95 3e c9 a3 1a 3d 04 f9 52 bd
       0.27095672 0.29126734 0.037753854 -0.05150701
000040 b3 eb 12 be 6b 7b 32 3d d9 38 fe 3d 90 6b 1a 3e
       -0.14347725 0.04357473 0.124131866 0.15080094
000050 c9 e8 3a 3d ca a1 f8 bd ca 7a f7 3d f0 f4 9b bd
       0.045632157 -0.12140234 0.12083967 -0.076150775
000060 5a 9a 07 be 0a 4e c4 3c a6 70 d0 bd 1d ad e4 bd
       -0.13242474 0.023962993 -0.10177736 -0.11165831
000070 5c 5c 14 3e 58 d3 b0 bb 9c 02 ab 3e 1f 54 00 3c
       0.14488357 -0.005396288 0.33400428 0.007832556
000080 26 1d fa 3d d9 84 42 be 20 34 9e bc 34 62 b5 bd
       0.12212591 -0.1899599 -0.019311965 -0.088566214
000090 6a 03 ec bd 11 14 0e be 43 a7 26 be c8 6c e1 bd
       -0.11524089 -0.13874842 -0.16274743 -0.110070765
0000a0 e4 e8 3a 3e 6e b2 9d bd e9 0e 63 be 4b fa 81 be
       0.18252903 -0.077000484 -0.22173657 -0.2538627
0000b0 da bd 92 3c 0b a0 ab bd 3d 80 9d bd 08 87 34 be
       0.017912794 -0.08380135 -0.07690475 -0.17629635
0000c0 c6 34 e4 bd 58 19 65 3e 0a 6e 8c bd fe 00 ea bd
       -0.11142878 0.22372949 -0.06856926 -0.114259705
0000d0 74 cb 84 bc ac c4 92 bd 3a 88 37 3d 8d fe 4c 3e
       -0.016210295 -0.071664184 0.04480765 0.20018978
0000e0 cd ea 4b 3e 4b 9e cb 3c da c0 02 3e 08 0e 15 3e
       0.19913788 0.024855753 0.1276888 0.14556134
0000f0 31 d7 6b be ca 91 90 3d 6d 34 13 3e c5 51 23 3d
       -0.23031308 0.07059057 0.14375468 0.039872903
000100 35 a4 8f bd 9c e9 85 be da fe 1c 3e e5 81 dc 3d
       -0.07013742 -0.26154792 0.15331593 0.10766963
000110 d4 45 8b be b9 1b 2f be 39 c6 9e bd 79 13 92 bb
       -0.27201712 -0.17100419 -0.07752652 -0.0044578877
000120 ae 3c 17 3e ec 2d eb bd ab 7e 2e 3e 26 a8 2a bd
       0.14769241 -0.11483368 0.17040507 -0.041664265
000130 e0 58 98 bd b9 3a 06 3e dd da d2 bc 0e 1a 98 3e
       -0.074388266 0.13108338 -0.025739128 0.29707378
000140 0a 28 df 3d 5d 21 6f 3e ac ce e3 bd a8 7a 56 3e
       0.10896309 0.23352571 -0.11123404 0.20945227
000150 59 8d 22 ba 10 d3 1f 3e 3d 17 9f bd 19 98 c2 3d
       -0.0006200872 0.15607858 -0.07768104 0.095016666
000160 4c 87 f2 bd b6 d2 07 be 19 e3 10 3e 98 15 1d 3e
       -0.11842212 -0.13263974 0.14149131 0.15340269
000170 b7 17 30 bb 22 9a c3 3d 77 06 f6 bd 97 d7 0e be
       -0.0026869604 0.09550883 -0.12012952 -0.13949428
000180 f2 06 a9 3c e5 1e 4e bc c8 ef b5 3e 6d fe 3a 3e
       0.020633195 -0.012580608 0.355345 0.18261118
000190 96 7e d8 3d 33 8e e5 3c 64 41 24 bc 44 7c 37 3e
       0.10571019 0.028021907 -0.010025356 0.17918497
0001a0 f7 9c 06 3e 7d 97 4f 3e f6 3f 09 3e fc f6 3f be
       0.13145815 0.20272632 0.13403305 -0.18746561
0001b0 57 58 01 be 0d 0f a9 3d 48 28 d4 3d ec 20 60 3c
       -0.12631355 0.08254824 0.103592455 0.013679724
0001c0 82 fc d4 3d 2e 11 d9 3b 15 5f 00 be 79 95 c9 bc
       0.103997245 0.0066243624 -0.12536271 -0.024607407
0001d0 69 c2 b7 bd ff 9d 34 be 49 8e 4a 3e 11 da 93 3c
       -0.08972628 -0.17638396 0.1978084 0.018048318
0001e0 66 80 a4 bd 6a 18 70 3e a2 1c 51 bd 0c 4c 13 3d
       -0.080323026 0.23446813 -0.051052697 0.035961196
0001f0 6f 6a 92 3e 58 49 8b bd a0 a1 50 be d0 35 52 bb
       0.28596827 -0.068010986 -0.20374155 -0.0032075532
000200 af 83 74 bd 9b 94 8a bd cb 82 f3 3d 08 f3 f8 3d
       -0.059695896 -0.067666255 0.11890181 0.121557295
000210 58 31 42 3e bf d9 1d 3e 21 91 78 3d ef 83 b4 bd
       0.18964136 0.15415095 0.06068528 -0.08814227
000220 30 7e ac 3d 74 0a 5f 3e a0 47 8e bb e1 42 04 be
       0.08422506 0.21781331 -0.0043420345 -0.12916137
000230 9e 3a 2b 3d 99 40 87 bd 58 23 c7 bd b6 f0 5f bc
       0.04180395 -0.06604118 -0.09723538 -0.01366823
000240 e0 48 e8 3d c6 8a d4 bb a9 83 cd bc d7 8f 86 3c
       0.11342025 -0.0064862696 -0.025087195 0.01642601
000250 e8 4d 18 be 08 54 a8 3d b8 db 62 be d5 e0 ff 3d
       -0.14873469 0.08219153 -0.22154129 0.12494055
000260 5c a7 75 3d 7f 41 74 bd 09 0c a3 3e a9 54 10 3d
       0.05997406 -0.059632774 0.3184512 0.03523699
000270 4f 62 1b 3e ea d3 5b 3d fc 13 be 3d b9 1a 01 3e
       0.1517422 0.053668894 0.092811555 0.1260785
000280 6b 20 95 bd b5 b5 cd bc 8a 39 b0 3d b0 cc 49 bc
       -0.07281574 -0.025111059 0.08604725 -0.012316868
000290 40 d0 0e bd 83 04 2f bd d7 6e 55 3d 5b 33 80 3d
       -0.03486657 -0.042728912 0.05210766 0.06259795
0002a0 f7 d7 62 bc 4d f2 8f 3d df d1 7b be 79 f2 6e 3b
       -0.013845435 0.07028637 -0.24591778 0.0036460443
0002b0 a2 aa fa bd fe db 0e bd 85 39 03 bc 92 f4 e1 3d
       -0.12239577 -0.03487777 -0.008009319 0.11032976
0002c0 35 8e 1f 3c 72 4f ce bd de 49 5f bd 68 15 0d be
       0.009738495 -0.10073747 -0.054513805 -0.13777697
0002d0 f0 16 ba bd f6 3a 20 bd 64 f6 2f 3e df 15 eb 3d
       -0.09086406 -0.03911873 0.17183834 0.11478781
0002e0 23 44 01 3e 8c cb d1 bd d7 c2 09 3e b6 e2 58 bc
       0.12623648 -0.102439016 0.13453232 -0.013237646
0002f0 b2 c4 0d bd f0 7f 02 3d dd fc 16 be 45 86 cd bc
       -0.03461141 0.031860292 -0.14744897 -0.025088439
000300 3c 45 09 be 93 53 78 bd d0 35 3f bc ba d4 04 3e
       -0.13405317 -0.060626578 -0.011670545 0.12971774
000310 7a 12 1e 3e dc 2a 23 3e 6d 61 7a 3d fc 5a 24 3d
       0.15436736 0.15934318 0.06112807 0.040125832
000320 00 ad d2 bc bd 01 23 3c 79 ac 0c 3e ae 0c 38 be
       -0.025717258 0.009949145 0.13737668 -0.17973587
000330 4f 18 ed bd 1e 17 50 3e e9 f4 54 bc 68 b7 8e 3b
       -0.11576902 0.20321319 -0.012997844 0.00435536
000340 94 3b 60 3d 7e e5 c6 bb 0a 76 6a 3d 9d 90 7d 3d
       0.054744318 -0.006069838 0.057241477 0.061905492
000350 28 25 b9 bd a2 33 b1 bd ed ea 93 3e 4c 22 17 3e
       -0.0904029 -0.08652426 0.28890172 0.14759177
000360 b2 eb 7f 3e f4 5c 0c 3e 27 97 43 bd 28 ba f6 3d
       0.24992254 0.13707334 -0.047751572 0.12047225
000370 b9 72 25 3d 40 f7 fb bd a6 4e b1 bd a5 de 36 be
       0.04039261 -0.123030186 -0.08657579 -0.1785837
000380 74 d5 43 3d 78 81 11 be 4f f6 d8 bd 74 30 7a 3e
       0.047810987 -0.14209545 -0.10593855 0.24432546
000390 db 41 88 bd da a3 4e 3d 78 7f 8c be 8a 1d 3b 3d
       -0.06653186 0.05044923 -0.27441 0.045682468
0003a0 26 25 fc 3d 15 f3 f1 bd b7 d7 6b bd 6a b4 15 3e
       0.12311773 -0.11813942 -0.05757877 0.14619604
0003b0 13 b6 0e be 70 dc 5b 3e 36 14 87 3d bd 83 9b bd
       -0.13936643 0.21470809 0.06595652 -0.075934865
0003c0 d2 aa ff ba 0a 55 e9 bd 4b 00 8b bd af a8 75 3d
       -0.0019505864 -0.11393173 -0.06787165 0.059975322
0003d0 a6 65 ad 3e e5 3d 8e bc 7a 66 dd 3c 48 20 e1 3d
       0.33866614 -0.017363498 0.027026404 0.10992485
0003e0 e6 ed 54 be a6 1a 13 3d c3 d6 e5 bd 77 2a 98 3b
       -0.20793876 0.035914086 -0.11222603 0.004643734
0003f0 47 a3 e2 bc 06 09 4c bd 86 a1 93 bd 93 21 d3 3d
       -0.027665747 -0.049813293 -0.072085425 0.10309138

network_body._body_endoder.seq_layers.0.bias f4 [128]
000000 00 00 00 00 00 00 00 00 00 00 00 00 00 00 00 00
       0.0 0.0 0.0 0.0
000010 00 00 00 00 00 00 00 00 00 00 00 00 00 00 00 00
       0.0 0.0 0.0 0.0
000020 00 00 00 00 00 00 00 00 00 00 00 00 00 00 00 00
       0.0 0.0 0.0 0.0
000030 00 00 00 00 00 00 00 00 00 00 00 00 00 00 00 00
       0.0 0.0 0.0 0.0
000040 00 00 00 00 00 00 00 00 00 00 00 00 00 00 00 00
       0.0 0.0 0.0 0.0
000050 00 00 00 00 00 00 00 00 00 00 00 00 00 00 00 00
       0.0 0.0 0.0 0.0
000060 00 00 00 00 00 00 00 00 00 00 00 00 00 00 00 00
       0.0 0.0 0.0 0.0
000070 00 00 00 00 00 00 00 00 00 00 00 00 00 00 00 00
       0.0 0.0 0.0 0.0
000080 00 00 00 00 00 00 00 00 00 00 00 00 00 00 00 00
       0.0 0.0 0.0 0.0
000090 00 00 00 00 00 00 00 00 00 00 00 00 00 00 00 00
       0.0 0.0 0.0 0.0
0000a0 00 00 00 00 00 00 00 00 00 00 00 00 00 00 00 00
       0.0 0.0 0.0 0.0
0000b0 00 00 00 00 00 00 00 00 00 00 00 00 00 00 00 00
       0.0 0.0 0.0 0.0
0000c0 00 00 00 00 00 00 00 00 00 00 00 00 00 00 00 00
       0.0 0.0 0.0 0.0
0000d0 00 00 00 00 00 00 00 00 00 00 00 00 00 00 00 00
       0.0 0.0 0.0 0.0
0000e0 00 00 00 00 00 00 00 00 00 00 00 00 00 00 00 00
       0.0 0.0 0.0 0.0
0000f0 00 00 00 00 00 00 00 00 00 00 00 00 00 00 00 00
       0.0 0.0 0.0 0.0
000100 00 00 00 00 00 00 00 00 00 00 00 00 00 00 00 00
       0.0 0.0 0.0 0.0
000110 00 00 00 00 00 00 00 00 00 00 00 00 00 00 00 00
       0.0 0.0 0.0 0.0
000120 00 00 00 00 00 00 00 00 00 00 00 00 00 00 00 00
       0.0 0.0 0.0 0.0
000130 00 00 00 00 00 00 00 00 00 00 00 00 00 00 00 00
       0.0 0.0 0.0 0.0
000140 00 00 00 00 00 00 00 00 00 00 00 00 00 00 00 00
       0.0 0.0 0.0 0.0
000150 00 00 00 00 00 00 00 00 00 00 00 00 00 00 00 00
       0.0 0.0 0.0 0.0
000160 00 00 00 00 00 00 00 00 00 00 00 00 00 00 00 00
       0.0 0.0 0.0 0.0
000170 00 00 00 00 00 00 00 00 00 00 00 00 00 00 00 00
       0.0 0.0 0.0 0.0
000180 00 00 00 00 00 00 00 00 00 00 00 00 00 00 00 00
       0.0 0.0 0.0 0.0
000190 00 00 00 00 00 00 00 00 00 00 00 00 00 00 00 00
       0.0 0.0 0.0 0.0
0001a0 00 00 00 00 00 00 00 00 00 00 00 00 00 00 00 00
       0.0 0.0 0.0 0.0
0001b0 00 00 00 00 00 00 00 00 00 00 00 00 00 00 00 00
       0.0 0.0 0.0 0.0
0001c0 00 00 00 00 00 00 00 00 00 00 00 00 00 00 00 00
       0.0 0.0 0.0 0.0
0001d0 00 00 00 00 00 00 00 00 00 00 00 00 00 00 00 00
       0.0 0.0 0.0 0.0
0001e0 00 00 00 00 00 00 00 00 00 00 00 00 00 00 00 00
       0.0 0.0 0.0 0.0
0001f0 00 00 00 00 00 00 00 00 00 00 00 00 00 00 00 00
       0.0 0.0 0.0 0.0

network_body._body_endoder.seq_layers.2.weight f4 [128, 128]
000000 68 3e 99 3d 90 b4 1f bc 15 a3 82 3c 3e c5 d3 bc
       0.07482606 -0.009747639 0.015946904 -0.025850888
000010 21 6c 53 3d c7 b2 38 ba 1a de 14 bd 2e b0 96 3c
       0.05161679 -0.0007045683 -0.036344625 0.018394556
000020 a1 7e 61 3d 87 54 ad 3c c1 fd 9b bd 69 9b 81 bd
       0.055052403 0.02115847 -0.07616759 -0.0632847
000030 03 0d f8 3c ea ed 0c 3e b3 b7 a6 bd ec 2c d5 3d
       0.030279642 0.13762632 -0.081405066 0.10408959
000040 31 fc 24 bd 92 7c c7 bd 6e 3a 9b 3c f0 66 27 3e
       -0.04027957 -0.09740557 0.01894876 0.16347861
000050 16 83 62 bd 8f 6f bd 3d 20 11 4e bd 8c b4 05 bd
       -0.055300795 0.09249794 -0.0503093 -0.032642886
000060 b2 fb 85 3d 7a 38 a7 bc b5 35 f9 bc c3 f2 a6 bd
       0.06542148 -0.020412672 -0.030421117 -0.08151772
000070 4a 35 8a 3d 82 32 95 3d 21 38 13 bd 73 1f 64 be
       0.06748445 0.07285024 -0.0359422 -0.22277622
000080 68 71 b8 3d 08 a0 0d bd e8 08 ab bd 2a e9 4e bd
       0.090060055 -0.034576446 -0.08351308 -0.05051533
000090 6d 2c cc bd 9b 6a 81 3c cf 22 cc 3d 9c a1 09 3d
       -0.09969411 0.015797904 0.09967577 0.03360139
0000a0 f5 f4 21 3a 1f 25 59 3d 9b f6 51 3d e6 97 10 bc
       0.0006178164 0.053013917 0.051260572 -0.008825278
0000b0 b5 09 bc bc a9 4d 13 bc c7 a1 56 3b 50 fa a7 bd
       -0.022953847 -0.008990684 0.0032750235 -0.0820204
0000c0 3b d0 91 bd 64 6f 18 3e 80 c3 a2 bc 11 40 e5 3c
       -0.07119795 0.14886242 -0.019868612 0.02798465
0000d0 5a be bb 3a 9a bf 5b 3d 35 4a dc bd ba 6f cb 3d
       0.0014323697 0.053649522 -0.10756341 0.099334195
0000e0 68 a4 b6 3c c7 cf 46 bc a0 29 28 3e 64 3d 09 3e
       0.022295192 -0.012134499 0.16422129 0.13402325
0000f0 39 a4 66 bd cf 76 16 3e ce f3 fb 3b e3 0b b4 bd
       -0.05630896 0.1469376 0.007688976 -0.0879133
000100 28 de bc bd 3e d7 21 3e 86 81 86 3d 27 ba 31 be
       -0.092220604 0.15804765 0.065676734 -0.17356168
000110 7b cd af 3d 48 22 7b 3d 0f 37 b2 3c b5 c9 31 39
       0.08584114 0.06131199 0.02175477 0.00016955177
000120 4a 93 74 bd 7b 9e 0a 3e 22 54 0d be 94 e6 48 bd
       -0.05971078 0.13537018 -0.13801625 -0.04904802
000130 96 d9 b9 bb 1c 26 65 bc ac 1e 09 be 7d e9 a9 bd
       -0.00567169 -0.013986137 -0.13390607 -0.082964875
000140 a0 0e b4 bd 81 63 9f bc 4d c1 cb 3d 3b 2f c1 bb
       -0.08791852 -0.019456627 0.099489786 -0.005895523
000150 f8 4e 5c 3c 51 75 c0 bd 4a f5 f5 3c 06 d6 9b 3d
       0.013446562 -0.09397376 0.03002419 0.07609181
000160 31 b6 73 3d c9 85 92 3c 07 00 b5 3b ae 60 8c bd
       0.059499923 0.01788606 0.005523685 -0.06854378
000170 bc a9 84 bd 6b b9 06 be 09 f1 02 bc d9 f5 18 3d
       -0.06477687 -0.13156669 -0.007992038 0.037343834
000180 71 cc 3a bd b3 68 f2 3d 72 d6 36 bd 68 06 98 bd
       -0.045605127 0.11836376 -0.044638105 -0.07423097
000190 ab f5 73 bd a8 07 ef 3d a9 ea 17 3c c8 8d e3 3b
       -0.05956046 0.11671382 0.009272256 0.006944392
0001a0 91 da 6c 3d 54 12 1d bd e8 3a f4 bd da 2e ca 3d
       0.05782563 -0.038347557 -0.11925298 0.098722175
0001b0 a1 b3 19 3d c5 f7 df bd 48 22 b3 3d 1c d4 b0 bd
       0.037524823 -0.1093593 0.08746773 -0.08634207
0001c0 46 28 e9 bd 34 4d 8b bd 20 10 91 bd 07 27 48 3e
       -0.11384635 -0.06801835 -0.07083154 0.19546138
0001d0 82 bc 9b 3c 6d c5 35 3e ae 26 9d bd bf 0c 5f ba
       0.019010786 0.17751093 -0.07673393 -0.0008508674
0001e0 ce 69 57 bd e5 34 11 3e 52 1d 1c 3c 1b 7b e6 3c
       -0.052591138 0.14180334 0.009528475 0.028134873
0001f0 4b 0b e1 3d ea 70 c8 3d 22 a6 c0 3d a6 41 81 3d
       0.10988482 0.09787162 0.09406687 0.063113496
000200 a5 49 b3 bd cc d5 86 3b 31 a4 d8 3c bb ce 40 be
       -0.08754281 0.004114842 0.02644548 -0.18828861
000210 01 3b 48 3c fb 34 85 bd ee fa 26 3e 46 4f 21 3d
       0.012221099 -0.06504246 0.1630666 0.03938224
000220 29 10 84 bd 13 91 86 bd 45 94 7c 3d 8c a8 15 bd
       -0.06448395 -0.065706395 0.06166484 -0.036537692
000230 d4 37 11 3e af ef e2 3d 44 e3 42 bd 71 ec a5 bd
       0.14181453 0.11080872 -0.04758002 -0.08101738
000240 55 81 21 3d f0 af 09 3e c4 4c 10 3e f6 73 f3 3d
       0.03942998 0.13446021 0.14091784 0.11887352
000250 37 99 b5 bc f1 d6 0d 3e 50 ca bd bd 27 7d be 3d
       -0.022167785 0.13851525 -0.09267104 0.09301215
000260 63 72 3c 3d 3b d4 05 3d 29 a3 d4 bd d0 6b 38 3d
       0.046007525 0.032673102 -0.10382683 0.045024693
000270 d5 f9 0c be 8f ed b7 bd df a1 1b bb b8 65 e6 3d
       -0.13767178 -0.089808576 -0.0023747606 0.1124987
000280 1b 66 9c bd 97 dd 3a bd ab 6d 08 be 52 e1 30 bd
       -0.076366626 -0.04562148 -0.13323085 -0.043183632
000290 c7 2d 0b 3d b3 01 03 3e 44 ff 59 3e c3 6f f1 3d
       0.033979204 0.12793617 0.21288782 0.11788895
0002a0 33 26 cd 3d 3f ff 59 3d 8f 99 e5 bc 32 0f d8 3d
       0.100170515 0.053221937 -0.028027324 0.10549773
0002b0 c7 88 44 3c bc 0d 2a bd 7c ba bd bd 54 44 ca bc
       0.011995501 -0.041517004 -0.09264085 -0.024690785
0002c0 50 bf b9 bd ac a0 b5 3d ee 16 1c 3d 20 09 5c 3e
       -0.09069693 0.08868536 0.038107805 0.21487856
0002d0 7a 69 9e bb 55 88 2f 3e d3 07 02 bd ae 8b 02 be
       -0.004834351 0.1714185 -0.031745743 -0.12748596
0002e0 66 97 61 3d 2d e1 69 bd a6 5d 53 bd 3b 28 03 bb
       0.055076025 -0.05709951 -0.051602982 -0.0020012993
0002f0 a5 1d 75 3c 77 db 7f 3d 86 ab 83 3c 2a ca 68 3b
       0.014960681 0.062465157 0.016073 0.003552089
000300 8e 77 47 be 55 80 c6 bc 72 88 4e 3e 76 79 35 3e
       -0.194792 -0.024231115 0.20169237 0.17722115
000310 d1 1c 78 be 95 06 90 bc 6b 03 13 be 59 34 c6 3c
       -0.24229743 -0.017581264 -0.14356773 0.024194883
000320 4c 17 6a 3d 63 a1 1b bc bf 5f 09 ba 88 74 08 3c
       0.057151124 -0.009498927 -0.00052404025 0.008328564
000330 c9 e6 af bd 88 9e 75 bb da ca de 3d 1e 3f 30 bd
       -0.08588941 -0.0037478525 0.108785346 -0.043028943
000340 06 20 0f 3d 59 0c 3f bc 4b 2b 78 3d 99 5d ca bd
       0.03494265 -0.011660659 0.060588162 -0.098811336
000350 10 ff 68 3d c9 4d 15 3d f6 32 0d be 43 17 72 3d
       0.05688387 0.036451135 -0.13788971 0.059104215
000360 ec da 53 3b e5 ef c9 3c 8c 84 c1 bd f0 51 29 be
       0.0032326533 0.024650523 -0.094491094 -0.16535163
000370 fa 22 eb 3c 6f b8 7a 3d 07 43 b7 bd da 36 15 bc
       0.028703202 0.061211046 -0.08948331 -0.009107316
000380 90 c1 d1 bd bf 9c 1c 3d 53 cc 83 3d d0 c6 f5 3d
       -0.10241997 0.038235422 0.06435456 0.12000811
000390 cf c1 01 be c6 75 24 be 2c c1 95 3d b4 38 af 3d
       -0.12671588 -0.16060552 0.07312235 0.08555737
0003a0 f2 05 d0 bd 6f ea 33 3e f5 0e 58 3c 10 8a e0 3a
       -0.10157384 0.17569898 0.01318716 0.001713099
0003b0 41 cf 92 bc 66 f6 1a bc 5f 4e 7b bd 58 97 d5 3c
       -0.017921092 -0.00945816 -0.061354037 0.026073143
0003c0 02 57 96 3c 27 8a c1 3b 4c 0a c6 bc 29 fe db bc
       0.018352035 0.0059063616 -0.024174832 -0.026854591
0003d0 ff 12 94 3d 46 06 f0 3d 85 6f e2 bc f7 af 71 3d
       0.07230186 0.117199466 -0.027641067 0.059005704
0003e0 0d 7d 0e bd cc 75 9f 3d e7 0e 18 bd 19 09 1c 3e
       -0.034787226 0.0778614 -0.037123587 0.15237845
0003f0 dc 36 40 3d d0 a8 01 3e e0 54 83 3d fe 3f 05 3e
       0.046927318 0.12662053 0.06412673 0.13012692

network_body._body_endoder.seq_layers.2.bias f4 [128]
000000 00 00 00 00 00 00 00 00 00 00 00 00 00 00 00 00
       0.0 0.0 0.0 0.0
000010 00 00 00 00 00 00 00 00 00 00 00 00 00 00 00 00
       0.0 0.0 0.0 0.0
000020 00 00 00 00 00 00 00 00 00 00 00 00 00 00 00 00
       0.0 0.0 0.0 0.0
000030 00 00 00 00 00 00 00 00 00 00 00 00 00 00 00 00
       0.0 0.0 0.0 0.0
000040 00 00 00 00 00 00 00 00 00 00 00 00 00 00 00 00
       0.0 0.0 0.0 0.0
000050 00 00 00 00 00 00 00 00 00 00 00 00 00 00 00 00
       0.0 0.0 0.0 0.0
000060 00 00 00 00 00 00 00 00 00 00 00 00 00 00 00 00
       0.0 0.0 0.0 0.0
000070 00 00 00 00 00 00 00 00 00 00 00 00 00 00 00 00
       0.0 0.0 0.0 0.0
000080 00 00 00 00 00 00 00 00 00 00 00 00 00 00 00 00
       0.0 0.0 0.0 0.0
000090 00 00 00 00 00 00 00 00 00 00 00 00 00 00 00 00
       0.0 0.0 0.0 0.0
0000a0 00 00 00 00 00 00 00 00 00 00 00 00 00 00 00 00
       0.0 0.0 0.0 0.0
0000b0 00 00 00 00 00 00 00 00 00 00 00 00 00 00 00 00
       0.0 0.0 0.0 0.0
0000c0 00 00 00 00 00 00 00 00 00 00 00 00 00 00 00 00
       0.0 0.0 0.0 0.0
0000d0 00 00 00 00 00 00 00 00 00 00 00 00 00 00 00 00
       0.0 0.0 0.0 0.0
0000e0 00 00 00 00 00 00 00 00 00 00 00 00 00 00 00 00
       0.0 0.0 0.0 0.0
0000f0 00 00 00 00 00 00 00 00 00 00 00 00 00 00 00 00
       0.0 0.0 0.0 0.0
000100 00 00 00 00 00 00 00 00 00 00 00 00 00 00 00 00
       0.0 0.0 0.0 0.0
000110 00 00 00 00 00 00 00 00 00 00 00 00 00 00 00 00
       0.0 0.0 0.0 0.0
000120 00 00 00 00 00 00 00 00 00 00 00 00 00 00 00 00
       0.0 0.0 0.0 0.0
000130 00 00 00 00 00 00 00 00 00 00 00 00 00 00 00 00
       0.0 0.0 0.0 0.0
000140 00 00 00 00 00 00 00 00 00 00 00 00 00 00 00 00
       0.0 0.0 0.0 0.0
000150 00 00 00 00 00 00 00 00 00 00 00 00 00 00 00 00
       0.0 0.0 0.0 0.0
000160 00 00 00 00 00 00 00 00 00 00 00 00 00 00 00 00
       0.0 0.0 0.0 0.0
000170 00 00 00 00 00 00 00 00 00 00 00 00 00 00 00 00
       0.0 0.0 0.0 0.0
000180 00 00 00 00 00 00 00 00 00 00 00 00 00 00 00 00
       0.0 0.0 0.0 0.0
000190 00 00 00 00 00 00 00 00 00 00 00 00 00 00 00 00
       0.0 0.0 0.0 0.0
0001a0 00 00 00 00 00 00 00 00 00 00 00 00 00 00 00 00
       0.0 0.0 0.0 0.0
0001b0 00 00 00 00 00 00 00 00 00 00 00 00 00 00 00 00
       0.0 0.0 0.0 0.0
0001c0 00 00 00 00 00 00 00 00 00 00 00 00 00 00 00 00
       0.0 0.0 0.0 0.0
0001d0 00 00 00 00 00 00 00 00 00 00 00 00 00 00 00 00
       0.0 0.0 0.0 0.0
0001e0 00 00 00 00 00 00 00 00 00 00 00 00 00 00 00 00
       0.0 0.0 0.0 0.0
0001f0 00 00 00 00 00 00 00 00 00 00 00 00 00 00 00 00
       0.0 0.0 0.0 0.0

value_heads.value_heads.extrinsic.weight f4 [1, 128]
000000 a8 ee f4 bc 75 a8 88 3d 00 51 da 3d b9 73 d2 3d
       -0.029898956 0.06672756 0.10659981 0.102759786
000010 4d 4f 91 3d c5 80 bf bc 29 03 dc bc e9 0e b7 3d
       0.070952035 -0.023376832 -0.026856976 0.08938391
000020 41 42 a1 3d 0e 7e 2a be 99 9a 0b 3e f0 44 11 3e
       0.07873965 -0.16649649 0.13633193 0.14186454
000030 03 bd b6 3d 54 97 2a be b5 c3 4c 3e 72 e7 ce 3d
       0.0892277 -0.1665929 0.19996531 0.101027384
000040 25 0d 46 3e b3 79 42 be 02 f4 c3 3d 57 ed bd bd
       0.19340952 -0.18991737 0.09568025 -0.092737846
000050 89 3f fc 3d 10 ef c3 3d 08 d9 4e 3e b4 f8 88 bd
       0.12316806 0.09567082 0.20199978 -0.06688061
000060 a8 e5 f0 bd d0 47 a3 bc 83 cb b7 bd ab fd 5f 3d
       -0.117625535 -0.019931704 -0.08974364 0.054685276
000070 b3 91 48 3e e0 a1 3c be 41 c8 88 3d b8 ad e3 3c
       0.1958683 -0.18421125 0.066788204 0.027792796
000080 dd 89 36 be df e5 8a 3d 8e b0 54 be fe 27 84 3d
       -0.17826028 0.06782126 -0.20770475 0.064529404
000090 01 27 49 3d bf 36 bd bd b4 0b 31 be 67 c6 0d 3e
       0.049109463 -0.092389576 -0.1728962 0.13845216
0000a0 f8 88 14 be b2 f0 3d bd 71 79 23 3d a1 b9 20 bd
       -0.14505374 -0.046372123 0.039910737 -0.03923953
0000b0 e1 db 20 bc 0b ca 15 3e 6f 4d 88 bd 26 e0 4d be
       -0.009818048 0.14627855 -0.06655394 -0.20105037
0000c0 29 d1 4f be f1 44 59 3e 15 ea 4a be 22 67 bb bd
       -0.20294632 0.21217705 -0.19815858 -0.091505304
0000d0 86 43 23 3d 65 ce 84 bd 6d f0 49 3e d5 79 13 3e
       0.039859317 -0.06484679 0.19720621 0.14401944
0000e0 2e 26 d9 3d eb 67 34 be a3 70 c9 3d ed 85 3c 3e
       0.10602985 -0.17617767 0.09835937 0.18410464
0000f0 d7 f7 ba bc 84 5d 23 be 2b 4c 04 be a0 f4 13 bd
       -0.022823257 -0.15953642 -0.12919681 -0.036121964
000100 8b f9 03 be 58 00 9e 3d 22 88 f7 3d dc f6 ed bc
       -0.12888162 0.07714909 0.12086512 -0.029048376
000110 97 16 0e 3e 1a bb d6 bb e2 ce a1 bc f3 6a 86 bb
       0.13875805 -0.006553066 -0.01975197 -0.004102105
000120 bf 93 32 3e a7 b3 6a bd 5a 14 9d 3b 93 ec 5b be
       0.17439173 -0.057300236 0.004793686 -0.21476965
000130 a7 aa 50 be 79 71 a9 bd ed 36 1a 3d 9f 84 50 3e
       -0.20377599 -0.08273596 0.037650038 0.20363091
000140 69 e2 49 3e 62 03 53 3e 5c 82 44 be 01 2a 37 3d
       0.19715275 0.20606759 -0.19190353 0.044717792
000150 e0 f2 1e be 2c 51 a2 3d af 6f 5e 3d 38 af 0e 3e
       -0.15522337 0.079256386 0.05430573 0.13934028
000160 7d b0 4e be 30 2a 8a 3d c7 f5 0f 3e 1d 7b 49 3d
       -0.20184512 0.06746328 0.140586 0.049189676
000170 c7 05 b6 bb d8 fe 27 3e db 28 8f 3d 53 d4 41 be
       -0.005554888 0.16405809 0.069902144 -0.18928652
000180 d1 04 75 bd a5 0b bd 3d df fc 4e 3e 5f db ad 3d
       -0.059819046 0.09230737 0.2021365 0.08489107
000190 8b 22 05 3d f8 dd a4 bd 1c 2b 34 be 66 47 7b bd
       0.032503646 -0.0805015 -0.1759457 -0.061347388
0001a0 87 a0 31 be 61 34 e8 3c a2 1f 3f 3e c2 f8 0f 3d
       -0.17346393 0.028345289 0.1866441 0.035149343
0001b0 7b 90 3c 3e 73 77 23 be ab c2 78 3d 87 44 ad 3d
       0.1841449 -0.15963535 0.060732525 0.08460336
0001c0 7c 55 27 3d 9e f1 ea bd 90 ed 57 be 44 f8 10 3c
       0.04085301 -0.11471866 -0.21086717 0.008848254
0001d0 1c 25 09 3e 66 9f 74 bd f8 d9 83 bd c9 50 bb bd
       0.13393062 -0.059722327 -0.064380586 -0.09146268
0001e0 ec c7 e3 3c ae 31 81 bd 79 c5 e7 3c be fa fd 3d
       0.027805291 -0.06308304 0.028292404 0.12401341
0001f0 61 8f 94 3c 84 f8 03 be 46 db 49 3d 21 0e 9c 3d
       0.018134775 -0.1288777 0.04928138 0.076198824
