results/ppo/EatFood/EatFood-1313.onnx (onnx, 70591 bytes, 7 tensors)

action_model._continuous_distribution.log_sigma f4 [1, 2]
00000000: 0000 0000 0000 0000
0.0 0.0

action_model._continuous_distribution.mu.bias f4 [2]
00000000: 0000 0000 0000 0000
0.0 0.0

action_model._continuous_distribution.mu.weight f4 [2, 128]
00000000: 5234 733b d04d d539 fadb 703c 4f85 36bc
00000010: 5541 67bb d3e7 0fbc 6be2 a43c 86f1 33bc
00000020: 3bf6 0ebc ae3f 8fbc 3780 9a3c 195c 9a3b
00000030: afb7 7bbc df58 03bb d048 0abc 9366 653b
00000040: f726 e6bb 0366 d93c 0a39 e6bc b934 48bc
00000050: be20 2d3d 8b47 8fbc fd96 413c 130a f9bb
00000060: 0b8f b9ba a340 403c 9e78 123c cba0 c13b
00000070: 47ae 72bc e74c 093b ac09 9bbb d49f c6bb
00000080: 1a06 db3c 82d6 603c 50f2 35bc e32a 943a
00000090: fd06 06bd 17ad 7bba 6b6b 64b7 372d d0ba
000000a0: 186a f9bc c605 203c 7d5d 373b 9787 ff3c
000000b0: 28b5 f2ba 9481 8bbb f7a7 e8bb 028c 043d
000000c0: ef98 01bd 3e3b 8d3b efa1 e23b 8b5a fc3b
000000d0: fbbb bebc 7d50 87bc 562c 8ebc 354d a1bb
000000e0: efd7 6d3c 4bf4 b63c cfe9 9b3c 2078 283d
000000f0: 73f2 2e3b d764 b2bc ecff adbc b96d 0dbb
00000100: caf6 6c3b ca44 25bb 966a bf3c 9f7f c8bb
00000110: 0b40 d93c 60ca aebc bcaf 85bb c234 0fbc
00000120: d820 e83c cb0b dbbc 238b 0bbb a88e 563c
00000130: cd77 d5bb 654e f9bb 5084 de3b f7c0 683b
00000140: 1b15 57bc 4656 103b b9a6 b7bc cb4e 9b3c
00000150: 9547 45bc 3dc7 c238 8a68 053c cbf0 8a3b
00000160: ca6a ba3b e77f db3c 1dfd 52bc 207b 963c
00000170: 345f 1abb c236 5d3c 7994 383c c64a 013c
00000180: f009 f8bc 9a4d 6f3c 13e2 62bc 6b74 e83c
00000190: a82b 22bb cd2e 763c 9c07 803b e75a f13b
000001a0: 5528 cabc bd90 383c 2db3 4d3c a519 bd3c
000001b0: aa12 5c3c 8a50 0d3c 3057 cfbc 1479 3f3c
000001c0: eab0 423c 2688 b03c cc48 b33c f724 81bc
000001d0: a396 d1bc d3a6 7cbc 3829 52bb 8d49 4e3c
000001e0: b7c9 19bc 7596 cf3c 1dd9 793c 90af d5bb
000001f0: 17f3 9dbb 4e9c 86bc de18 8a3b f258 d4bb
00000200: 5281 003c fa68 0cbd 7389 fcbb ec0e 393c
00000210: 1e27 bc3c ebbe 16bd 27fe 66bc 5373 c3bc
00000220: 0012 a1bc 454d c3bc eda7 71bc fb75 c8bc
00000230: 6659 273c d7bd 8fbb f012 f03c 18ee 04bd
00000240: 942f a1bc ebe0 17bc 754c 01bd a790 cd3c
00000250: 376a bbbc 7506 15bc 9b22 41bd 79c3 1d3d
00000260: cda3 e9bc 6fea 903c 8ff6 8b3b bbba 5abc
00000270: d642 813c ab66 203d 8263 3c3b f5a9 57bc
00000280: 92d2 7bbc 88ed 05bd db04 f1bc 768f 3e3b
00000290: 5bb5 8c3c 23b3 e53c 0835 18bd 5d3e eebc
000002a0: 14e9 c03c 63b2 92bc e637 23bc 98c6 023c
000002b0: 530f 9abc a9dc c53b b7f4 15bd 1d3b bb3c
000002c0: 8891 253d b5c8 03bd 3b23 d83b 10a9 d03c
000002d0: 402c 92b9 c26f dcbc cf77 1a3c 377d 9fbc
000002e0: 9226 303c 87cf a5bb 1483 41bc 3a18 a2bb
000002f0: 6d54 92bc 538e ad3c 706d 70bc 3c75 a5bb
00000300: b925 bc3c adf3 dfbb d599 693c 20d3 053d
00000310: dad8 ee3a 84e7 963c 9fa7 803c 6019 5d3c
00000320: 8b9d 1e3b c556 cfbb e33c 4cbc 8134 803c
00000330: 02d3 c33c cb00 c4bc 57bf d23b 9a64 393d
00000340: 7771 0d3c ff49 56bc c2f3 c6bc f132 adbb
00000350: 5996 3a3b 750a ddbc f722 133c ed1e 793b
00000360: 934a 09bc 9b3a 993c 70b0 eb3b 43ff 2e3c
00000370: dfed 9a3c 5d43 123c 5360 153c 371a c43a
00000380: e9e7 2f3a e7f1 223c 1490 a8ba 2fff 7f3c
00000390: a354 543c b752 f73c d5cd c8bc b078 bbbb
000003a0: ef1b fe3b 0643 ad3c 7309 3c3c ef82 d03b
000003b0: 34ea 1439 f325 57bc d918 873a 361b 2c3d
000003c0: 9a8b fa38 16c5 adbb 90d0 93ba da01 e53b
000003d0: 33ac 993c b31f 8fbc b09c ebbb 2b7e abbc
000003e0: c5bc 293c 4f35 17bd 6cb9 103b 9fbd 9cbc
000003f0: 63d1 8d3b 6788 ee3a 41ab c0bc 5efa 1abc
0.0037110043 0.000406845 0.014700884 -0.011140182 -0.0035286744 -0.008783299 0.020127496 -0.010982877
-0.008725698 -0.01748642 0.018859966 0.004710686 -0.015363618 -0.0020041985 -0.008440211 0.0035003766
-0.007023688 0.0265379 -0.02810337 -0.012219601 0.042267554 -0.017490169 0.011815784 -0.007600078
-0.001415701 0.011734161 0.00893989 0.0059090606 -0.014812059 0.0020950378 -0.0047313776 -0.0060615335
0.026736308 0.013723018 -0.011105135 0.0011304285 -0.03272151 -0.00096006825 -1.3614869e-05 -0.0015882616
-0.030446097 0.0097670015 0.0027979307 0.031192584 -0.0018517124 -0.0042573903 -0.007100101 0.032360084
-0.03163999 0.0043100407 0.0069162766 0.0077012233 -0.023282995 -0.016517872 -0.017355125 -0.004922534
0.014516815 0.022333285 0.019032387 0.041130185 0.0026694804 -0.0217766 -0.021240197 -0.0021580292
0.003615784 -0.0025218003 0.023366254 -0.0061187292 0.026519796 -0.021336734 -0.004079787 -0.008740606
0.028335974 -0.026739022 -0.0021292649 0.013095535 -0.0065145255 -0.0076082223 0.006790675 0.0035515407
-0.0131275905 0.002202408 -0.022418367 0.01895847 -0.012040992 9.287752e-05 0.0081426 0.0042401305
0.005689 0.026794387 -0.01287773 0.018369257 -0.002355528 0.013501825 0.011265867 0.0078913625
-0.030278176 0.014605904 -0.013847846 0.028375825 -0.002474526 0.015025807 0.003907157 0.0073655727
-0.024677435 0.011264977 0.012554926 0.023083517 0.013432184 0.008625159 -0.025310129 0.011686582
0.011883 0.021549296 0.021885298 -0.015764697 -0.025584524 -0.015420633 -0.0032068025 0.012590778
-0.0093864715 0.025340298 0.015249518 -0.006521173 -0.0048202383 -0.016431954 0.00421439 -0.0064803297
0.007843332 -0.0342798 -0.007706815 0.011295062 0.022967871 -0.036803167 -0.014098681 -0.023858702
-0.019661903 -0.023840556 -0.014749509 -0.02447032 0.010214185 -0.0043866443 0.029305905 -0.032453626
-0.019676007 -0.009269933 -0.031567056 0.02509339 -0.022877796 -0.009095778 -0.047152143 0.038516495
-0.02852049 0.017689912 0.0042713354 -0.013350184 0.01577894 0.03916041 0.0028745835 -0.0131630795
-0.015370028 -0.03269723 -0.02942126 0.0029077209 0.01717632 0.02803952 -0.03715995 -0.029082472
0.02354864 -0.017907327 -0.009962058 0.007981919 -0.018806135 0.0060382676 -0.03661033 0.022855336
0.040421993 -0.03217383 0.0065959967 0.02547124 -0.0002788026 -0.026908759 0.009427979 -0.019468887
0.010751383 -0.0050601396 -0.011811037 -0.0049467357 -0.017862523 0.02118603 -0.014674529 -0.005049376
0.022967206 -0.0068344683 0.014257868 0.032672048 0.0018222586 0.018420942 0.015704928 0.013494819
0.002420279 -0.0063274824 -0.012465688 0.015650036 0.023904327 -0.02392616 0.006431501 0.045261957
0.008633009 -0.0130791655 -0.024286155 -0.0052856137 0.0028470962 -0.026982525 0.008980504 0.0038012818
-0.008379596 0.018704703 0.007192664 0.010680976 0.018912254 0.0089271935 0.009117204 0.0014961426
0.00067102775 0.009945369 -0.0012860321 0.015624805 0.012959632 0.030190809 -0.02451221 -0.005721174
0.007754795 0.021150123 0.011476862 0.0063632648 0.00014201627 -0.013131606 0.0010307088 0.042018138
0.00011946932 -0.0053030355 -0.0011277366 0.006988746 0.018758869 -0.01747117 -0.0071903095 -0.020934185
0.010359948 -0.036916073 0.0022083176 -0.019133387 0.0043279394 0.001819861 -0.02351916 -0.009459106

network_body._body_endoder.seq_layers.0.bias f4 [128]
00000000: 0000 0000 0000 0000 0000 0000 0000 0000
00000010: 0000 0000 0000 0000 0000 0000 0000 0000
00000020: 0000 0000 0000 0000 0000 0000 0000 0000
00000030: 0000 0000 0000 0000 0000 0000 0000 0000
00000040: 0000 0000 0000 0000 0000 0000 0000 0000
00000050: 0000 0000 0000 0000 0000 0000 0000 0000
00000060: 0000 0000 0000 0000 0000 0000 0000 0000
00000070: 0000 0000 0000 0000 0000 0000 0000 0000
00000080: 0000 0000 0000 0000 0000 0000 0000 0000
00000090: 0000 0000 0000 0000 0000 0000 0000 0000
000000a0: 0000 0000 0000 0000 0000 0000 0000 0000
000000b0: 0000 0000 0000 0000 0000 0000 0000 0000
000000c0: 0000 0000 0000 0000 0000 0000 0000 0000
000000d0: 0000 0000 0000 0000 0000 0000 0000 0000
000000e0: 0000 0000 0000 0000 0000 0000 0000 0000
000000f0: 0000 0000 0000 0000 0000 0000 0000 0000
00000100: 0000 0000 0000 0000 0000 0000 0000 0000
00000110: 0000 0000 0000 0000 0000 0000 0000 0000
00000120: 0000 0000 0000 0000 0000 0000 0000 0000
00000130: 0000 0000 0000 0000 0000 0000 0000 0000
00000140: 0000 0000 0000 0000 0000 0000 0000 0000
00000150: 0000 0000 0000 0000 0000 0000 0000 0000
00000160: 0000 0000 0000 0000 0000 0000 0000 0000
00000170: 0000 0000 0000 0000 0000 0000 0000 0000
00000180: 0000 0000 0000 0000 0000 0000 0000 0000
00000190: 0000 0000 0000 0000 0000 0000 0000 0000
000001a0: 0000 0000 0000 0000 0000 0000 0000 0000
000001b0: 0000 0000 0000 0000 0000 0000 0000 0000
000001c0: 0000 0000 0000 0000 0000 0000 0000 0000
000001d0: 0000 0000 0000 0000 0000 0000 0000 0000
000001e0: 0000 0000 0000 0000 0000 0000 0000 0000
000001f0: 0000 0000 0000 0000 0000 0000 0000 0000
0.0 0.0 0.0 0.0 0.0 0.0 0.0 0.0
0.0 0.0 0.0 0.0 0.0 0.0 0.0 0.0
0.0 0.0 0.0 0.0 0.0 0.0 0.0 0.0
0.0 0.0 0.0 0.0 0.0 0.0 0.0 0.0
0.0 0.0 0.0 0.0 0.0 0.0 0.0 0.0
0.0 0.0 0.0 0.0 0.0 0.0 0.0 0.0
0.0 0.0 0.0 0.0 0.0 0.0 0.0 0.0
0.0 0.0 0.0 0.0 0.0 0.0 0.0 0.0
0.0 0.0 0.0 0.0 0.0 0.0 0.0 0.0
0.0 0.0 0.0 0.0 0.0 0.0 0.0 0.0
0.0 0.0 0.0 0.0 0.0 0.0 0.0 0.0
0.0 0.0 0.0 0.0 0.0 0.0 0.0 0.0
0.0 0.0 0.0 0.0 0.0 0.0 0.0 0.0
0.0 0.0 0.0 0.0 0.0 0.0 0.0 0.0
0.0 0.0 0.0 0.0 0.0 0.0 0.0 0.0
0.0 0.0 0.0 0.0 0.0 0.0 0.0 0.0

network_body._body_endoder.seq_layers.0.weight f4 [128, 2]
00000000: 3f35 163e ebf0 103e 13df 313f ba8e 0ebf
00000010: 4e80 0540 0de4 c13d c869 6dbd 564d a7bf
00000020: 919d 2b3f 934c c43e e540 71be 4f42 153e
00000030: 4f70 a33e 8e2e b0bd 5815 d63e 9ffe f53d
00000040: ebf3 01bf bb50 383d 5528 263e eb98 a53d
00000050: e803 373e 0998 693f cf9d 313f 5717 b1bf
00000060: e036 7b3f 9f0e e93d 10ce fe3d 1863 a7be
00000070: 9faa 6abe 609a c33d f0af 143f 7908 c63f
00000080: d33c aabf a94b d93e e5d1 ad3f bb56 c23d
00000090: 375c 44bf 7f8a d6be 16a0 743f 4d78 9abf
000000a0: 5e86 0a3f 60e5 0cbf 5b0c b53e 34fa 9cbe
000000b0: c632 b7be 1af8 0b3f 642a 45bf 1aeb 6c3f
000000c0: fe7f 32bf 6120 3c3f 8aae ddbe 3c8b f03e
000000d0: 5d91 573f 9941 783f 3836 bdbe 817e 043f
000000e0: 963b 8d3d 62c6 18bc 7cb4 093f 23fe 423f
000000f0: 49c2 083d e174 bdbc 5b9e 87bf d84d 173f
00000100: 9611 383f f354 c6bf 1ab4 8d3e ac9e 8cbe
00000110: 6500 9fbe 9ed5 253f c040 493f 30d6 723e
00000120: e2f0 f6bc c8dd 94be 5bfd 433f bc93 823e
00000130: 535b af3f 2434 05c0 072e 61be 2a00 6abe
00000140: eb72 3abf 7cec 253f df86 6b3f 6261 e33d
00000150: d135 dfbe b002 d23d 6d29 923f 44d7 523e
00000160: 24b3 25bf 86a4 38bf 551b b1bf 43a8 b4be
00000170: 6852 393c b46d 393f 5cd1 f33e f67b 853e
00000180: 496e 0e3e e55c 2fbf 6457 453f 91e3 f53e
00000190: ff0a edbe 1a39 273e 1d95 15be 1807 bc3e
000001a0: 550a b3bd 1301 a4be 6e73 b43e d27b e1be
000001b0: 823f bcbf 64b6 18bf 29d0 87bd e84c d73e
000001c0: f433 a1bc e5a0 65be b84c ab3e e52e cabe
000001d0: ed87 403f 617f 153f 5a30 2cbe b49b 8a3e
000001e0: 9a5d 45bf 7309 e33d b21b 1f3f 2de8 a93f
000001f0: e624 263f 9292 723f e890 b73f fe0c 563d
00000200: a65b 2a3f e6d1 37be 9275 7a3e 3314 413e
00000210: 91fa 98bd b35a 223f a449 18bf aad1 323f
00000220: 5a19 353d 5c90 5ebf 45f1 8f3f b9a5 113f
00000230: 1654 2a3e 086a a33e 3f72 2b3e e5ab 813e
00000240: 2bfe 02bf ea72 9d3b a9d5 433f 9824 acbc
00000250: a17b e8bd f5c4 b03c 76ac 86be 692d 96be
00000260: 59c9 603f 9126 41bf 88b6 853d 2f29 95bd
00000270: 321a 7f3e cafc 213f 8d5b 7ebf 404f 163e
00000280: 0f80 4bbf 9ce0 0fbf 0a7d 9bbd 5c7d 093f
00000290: 2aa0 98bf 2465 d93d 60d1 ed3e 20c9 ea3e
000002a0: 92d2 003e 1ad0 d0bd 38ed 16bf d712 a63e
000002b0: 0233 8e3e 0ef5 84bf 1ced 343f 51f6 18bf
000002c0: a163 7ebe 21d6 633f ab42 563f 8692 8abe
000002d0: 88b0 9e3e cbd7 213d 12a8 28bf 0f3c 0f3f
000002e0: eb98 823f a6bf 633e 1570 8c3e 45b2 abbf
000002f0: 0858 62be b128 f5bd a4ff 3bbf 972d 993e
00000300: 17f6 c9be d80c b83e 2bd5 4f3f d430 9bbe
00000310: d902 25be fee6 bcbf ebba a83e 22f0 7bbd
00000320: 2be5 cc3e 90f7 16be d156 42be b861 1c3f
00000330: ed6a 5cbe aa75 253e f5ac 69bf 0b94 aa3e
00000340: 12ae 22bf ba18 88bf 8c65 af3f 5ca5 e83f
00000350: ccf0 37bf 41bb ecbe 3a5b 943e 3512 0cbf
00000360: a994 abbe 9529 95bf dfb1 a9bf df52 2c3e
00000370: 4bee 163e 7bed 6a3c c409 213d b6dd 113f
00000380: 44d6 123f 3304 81bf 0de2 c2bf 7c14 c7bc
00000390: ae1d c8bd 6ee5 033f 5d0a dabe b40d c5bf
000003a0: 6f9e 273e e65f bfbe 5fa2 07bf 19cd 443f
000003b0: 7f95 48bf 46ea 70be 5791 3cbf 8387 f33f
000003c0: e8ed 813e 9dd6 f3be 5e59 74be 5886 613f
000003d0: 1437 913f 3bc6 18bf 87a1 8cbe c63e bdbe
000003e0: 5815 03be 0f44 9d3f 76f7 a5be a7ba 053f
000003f0: 1ad9 41bf 705d 1cbf 39ab dcbf fc65 cbbd
0.1466875 0.14154403 0.6948101 -0.55686533 2.085956 0.09467325 -0.05796221 -1.3070476
0.670373 0.38339671 -0.23559912 0.14576076 0.31921622 -0.086026296 0.4181316 0.12011456
-0.50762814 0.044998866 0.16226323 0.080858074 0.17872584 0.9124761 0.6938142 -1.3835248
0.9813061 0.11379742 0.12441647 -0.3269279 -0.2291665 0.09550929 0.5808096 1.5471336
-1.3299812 0.42440537 1.357968 0.09489199 -0.7670321 -0.4190254 0.9555677 -1.2067963
0.5411128 -0.550375 0.3536099 -0.3065964 -0.35780925 0.5467545 -0.7701781 0.92546237
-0.6972655 0.73486906 -0.43297225 0.46981227 0.8420618 0.96975094 -0.36955428 0.5175553
0.06896131 -0.009324642 0.5379102 0.7616903 0.03338841 -0.023127021 -1.0595201 0.59103155
0.71901834 -1.5494674 0.2767647 -0.27464807 -0.31054989 0.6477908 0.78614426 0.23714519
-0.030144159 -0.29075456 0.76558465 0.25503337 1.3699745 -2.0813074 -0.21990214 -0.22851625
-0.728316 0.6481397 0.9200267 0.11102559 -0.43595746 0.10254419 1.1418892 0.2058993
-0.6472647 -0.7212604 -1.3836466 -0.35284624 0.011311151 0.7243302 0.47620666 0.26071137
0.13909258 -0.6850112 0.7708647 0.48025182 -0.46297452 0.16330376 -0.14607663 0.36724162
-0.08742205 -0.3203207 0.35244316 -0.4403978 -1.4706881 -0.59653306 -0.066315 0.42050862
-0.019678093 -0.22424658 0.3345697 -0.39488903 0.75207406 0.5839749 -0.1681532 0.27071917
-0.7709595 0.11085787 0.62151635 1.327398 0.6490005 0.947549 1.4341097 0.052258484
0.66546094 -0.17951164 0.24458912 0.18855362 -0.07469667 0.63419646 -0.59487367 0.6985117
0.04421363 -0.86939025 1.1245505 0.568935 0.16633639 0.31916833 0.167428 0.25326458
-0.5116908 0.0048049586 0.76497895 -0.021013543 -0.11351705 0.021578291 -0.26303452 -0.2933152
0.8780723 -0.7544947 0.06528956 -0.07283246 0.24912336 0.6327635 -0.99358445 0.14678669
-0.79492277 -0.562021 -0.07592209 0.5370691 -1.1923878 0.10614994 0.46448803 0.4585657
0.12580326 -0.10195942 -0.5895572 0.3243625 0.2777329 -1.0387285 0.706743 -0.5975085
-0.24842693 0.8899861 0.8369548 -0.27064914 0.30994058 0.039512437 -0.65881455 0.5595102
1.0202917 0.22241077 0.27429262 -1.3413779 -0.22103894 -0.11970652 -0.7343695 0.29917595
-0.39445564 0.359473 0.81184644 -0.3031069 -0.16114368 -1.4757993 0.32955107 -0.061508305
0.4001859 -0.14742875 -0.1897843 0.61086607 -0.21525164 0.16158167 -0.91279536 0.33316073
-0.6354686 -1.0632546 1.3702865 1.8175464 -0.718518 -0.46236613 0.2897585 -0.5471528
-0.33511856 -1.1653315 -1.3257407 0.16828488 0.14739339 0.014338846 0.039315954 0.5697893
0.57358193 -1.0079406 -1.5225235 -0.02430176 -0.09771286 0.51521957 -0.42586032 -1.5394807
0.16369031 -0.37377852 -0.52982134 0.76875454 -0.7835311 -0.23526868 -0.7365927 1.902573
0.2537682 -0.47624674 -0.23862216 0.8809562 1.1344934 -0.59677476 -0.27466986 -0.36961955
-0.1280111 1.2286395 -0.3241536 0.52237934 -0.75721896 -0.61080074 -1.7239753 -0.09931561

network_body._body_endoder.seq_layers.2.bias f4 [128]
00000000: 0000 0000 0000 0000 0000 0000 0000 0000
00000010: 0000 0000 0000 0000 0000 0000 0000 0000
00000020: 0000 0000 0000 0000 0000 0000 0000 0000
00000030: 0000 0000 0000 0000 0000 0000 0000 0000
00000040: 0000 0000 0000 0000 0000 0000 0000 0000
00000050: 0000 0000 0000 0000 0000 0000 0000 0000
00000060: 0000 0000 0000 0000 0000 0000 0000 0000
00000070: 0000 0000 0000 0000 0000 0000 0000 0000
00000080: 0000 0000 0000 0000 0000 0000 0000 0000
00000090: 0000 0000 0000 0000 0000 0000 0000 0000
000000a0: 0000 0000 0000 0000 0000 0000 0000 0000
000000b0: 0000 0000 0000 0000 0000 0000 0000 0000
000000c0: 0000 0000 0000 0000 0000 0000 0000 0000
000000d0: 0000 0000 0000 0000 0000 0000 0000 0000
000000e0: 0000 0000 0000 0000 0000 0000 0000 0000
000000f0: 0000 0000 0000 0000 0000 0000 0000 0000
00000100: 0000 0000 0000 0000 0000 0000 0000 0000
00000110: 0000 0000 0000 0000 0000 0000 0000 0000
00000120: 0000 0000 0000 0000 0000 0000 0000 0000
00000130: 0000 0000 0000 0000 0000 0000 0000 0000
00000140: 0000 0000 0000 0000 0000 0000 0000 0000
00000150: 0000 0000 0000 0000 0000 0000 0000 0000
00000160: 0000 0000 0000 0000 0000 0000 0000 0000
00000170: 0000 0000 0000 0000 0000 0000 0000 0000
00000180: 0000 0000 0000 0000 0000 0000 0000 0000
00000190: 0000 0000 0000 0000 0000 0000 0000 0000
000001a0: 0000 0000 0000 0000 0000 0000 0000 0000
000001b0: 0000 0000 0000 0000 0000 0000 0000 0000
000001c0: 0000 0000 0000 0000 0000 0000 0000 0000
000001d0: 0000 0000 0000 0000 0000 0000 0000 0000
000001e0: 0000 0000 0000 0000 0000 0000 0000 0000
000001f0: 0000 0000 0000 0000 0000 0000 0000 0000
0.0 0.0 0.0 0.0 0.0 0.0 0.0 0.0
0.0 0.0 0.0 0.0 0.0 0.0 0.0 0.0
0.0 0.0 0.0 0.0 0.0 0.0 0.0 0.0
0.0 0.0 0.0 0.0 0.0 0.0 0.0 0.0
0.0 0.0 0.0 0.0 0.0 0.0 0.0 0.0
0.0 0.0 0.0 0.0 0.0 0.0 0.0 0.0
0.0 0.0 0.0 0.0 0.0 0.0 0.0 0.0
0.0 0.0 0.0 0.0 0.0 0.0 0.0 0.0
0.0 0.0 0.0 0.0 0.0 0.0 0.0 0.0
0.0 0.0 0.0 0.0 0.0 0.0 0.0 0.0
0.0 0.0 0.0 0.0 0.0 0.0 0.0 0.0
0.0 0.0 0.0 0.0 0.0 0.0 0.0 0.0
0.0 0.0 0.0 0.0 0.0 0.0 0.0 0.0
0.0 0.0 0.0 0.0 0.0 0.0 0.0 0.0
0.0 0.0 0.0 0.0 0.0 0.0 0.0 0.0
0.0 0.0 0.0 0.0 0.0 0.0 0.0 0.0

network_body._body_endoder.seq_layers.2.weight f4 [128, 128]
00000000: 4f82 9c3d 5020 e0bd fac1 71bd c9b0 333d
00000010: f1ff c5bd 2b01 043d 2196 f8bd d2d3 e8bd
00000020: 9417 003e 1e3a d53d 60fd f53d 466d a03d
00000030: dae7 82bd 6734 243e 7a10 7e3c 1e09 b3bd
00000040: 4bb4 28bc c48c e63d 514a 743d b0ac a5bd
00000050: ad45 20bc 9d7e 433e 17a2 623d 6702 713d
00000060: 25ee 823d ad0a ec3b 41ee 123b d3a4 bdbc
00000070: 953f 9ebd a379 0d3e 7a08 523d 210b 79bc
00000080: 9ec0 01be d11f 0ebe 0a3b 943e e311 b43a
00000090: d140 45bd 785b 9ebc d1e5 cbbb fd37 c7bd
000000a0: 9534 843c d274 8bbb 8b60 e2bd 932c 2ebc
000000b0: 8251 bf3b 79a8 0bbe 0d88 e3bd dabb 9b3b
000000c0: 56e2 993c b51b 19bd 2b4c e1bd 2e87 003e
000000d0: b4bc 8dbd 3363 483d 236a 70bd 9dcc f6bd
000000e0: 9afa 71bd 87a2 713e ce6e e2bd 2d46 01bd
000000f0: 017d 903c af4f 60bd 275f 873d db68 f7bd
00000100: 96e5 c73c 1c52 edbb f612 2ebd 0a73 b43d
00000110: f5e8 b4bc cad4 c33d c45b f63b 1b36 973d
00000120: baf9 a3bd 2f80 8ebc 8bee 723d 56c3 0c3b
00000130: f7b3 8dbd a2c2 34bd 2327 01be efb3 013e
00000140: b79d 97bd 2721 86bd 0a2a dabd 35b8 bb3c
00000150: ac86 23be f6fc 633d f3d5 de3c 45db 833d
00000160: ce43 93bd e5f0 983b e790 c9bd c243 e9bd
00000170: 297c febc acc7 92bc 1f28 353d 744b 88bd
00000180: 376f 16be fb1a 76bc 8ca2 98bd 7365 0f3d
00000190: a76a 603c 630e 95be 1f93 b0bd 9a01 1dbd
000001a0: 3678 643c 2bae 98bd adfc 3a3e 9683 afbd
000001b0: 74a2 823d a01f 91bd 31e0 153d d833 72be
000001c0: f111 b63d e07b 383d 79f6 17bd 089a 4b3d
000001d0: 22f1 73bd f006 dcbb d88a a23c 3459 c7bb
000001e0: 6594 9a3e 6a7c 26bd ab20 1f3d 1439 b93d
000001f0: 9322 9bbc f41e 323d f980 07be 8c41 a43d
00000200: 7f17 d03d 15ab b9bc 7f5c 5ebd f187 b9bd
00000210: 4745 e43b 82a8 f33c bc18 3fbd 3fc6 3fbd
00000220: b800 e5bd e1e7 663b b334 c13a 48d2 a6bd
00000230: 0beb a6bd d3b3 84bd e70a 7b3d 5406 853d
00000240: 1b48 b1bd ee11 053d 64a0 94bc cb6a 9f3d
00000250: 3883 e63b 6f67 423d 750e 79bd 7081 5d3c
00000260: 9de9 3dbb c4d6 01be 6011 b73d c619 92bc
00000270: f4bb 753d 7161 0f3e 1b6d cb3d d386 333e
00000280: 9e92 dc3d 241f 37bd 83c2 e93b 1990 893d
00000290: b566 c7bc 0663 533e c0c1 133d c956 cabd
000002a0: b55d 7fbd 0b9f f73d 56b1 3abd 4b2a 803c
000002b0: 881f da3a 72b9 4dbb f2bf 603d 64b8 d2bd
000002c0: fab7 743d 6e37 6a3d a249 9bbc e251 64bc
000002d0: 5481 ebbd 7578 3b3c b95f 5cbd e52c e0bd
000002e0: 02cf cdbd e58a 7d3c 2846 c93c d217 053e
000002f0: 4654 153d 60a4 f63d a35f 33bd 45c2 6d3e
00000300: 308b ecbd 2ba6 3f3d b6f9 55bd d53e d9bd
00000310: d799 87bd caba febc bc13 be3d 4528 6b3d
00000320: b61f b43d 469e 8a3c f9e5 31bd ecd3 70bb
00000330: 1dc6 623d 6c5c 783d 1a13 a83c 048e 283e
00000340: 023f 01bd 59d4 943d 6151 903c 7f33 b6bd
00000350: 0dfb 0cbe a64a c63d 06c0 6dbd 4c4f bebc
00000360: ca1e 58bd 58db 46be 1210 19bd 8376 4b3d
00000370: 0845 493e ad4f 9c3d 89c6 163d 442b b4bc
00000380: 29e9 a23d 9aea 54bd 6c5a 4fbe 6bf0 ecbd
00000390: be2c babc ace4 8a3c 35ba 75be 9fab 0f3d
000003a0: 0851 a63d 9809 df3a 0c83 8b3d 2486 0d3d
000003b0: f687 8839 17b6 b8bd edfe 99bc e479 6d3e
000003c0: 60a3 a2bd 284c 4d3d 71af 243e 188c 0abe
000003d0: 28ff 18be ad12 10bd b193 043e bc53 1abe
000003e0: 3be8 d63d 9adc 2fbd 9e65 81bd 08ea ad3c
000003f0: fee5 093d 0f42 393e 6d08 8fbd 2ae8 1bbd
0.07642042 -0.10943663 -0.05902288 0.043869767 -0.096679576 0.032227676 -0.1213801 -0.113685265
0.12508994 0.104114756 0.12011218 0.07833342 -0.063918784 0.16035615 0.015506858 -0.08741973
-0.010296891 0.11257318 0.059641186 -0.08089578 -0.009782237 0.19091268 0.055330362 0.05884018
0.06393079 0.007203421 0.0022419842 -0.023149883 -0.07726971 0.13815932 0.051277615 -0.015200407
-0.12671134 -0.13879324 0.28951293 0.0013738241 -0.048157517 -0.019330725 -0.0062224646 -0.09727476
0.016138354 -0.0042558694 -0.1105357 -0.0106307445 0.005838574 -0.13638486 -0.11109934 0.0047526183
0.018784683 -0.03737994 -0.11000856 0.12551567 -0.06920758 0.04892273 -0.05869497 -0.12050746
-0.059076883 0.23597156 -0.110562906 -0.031561065 0.017637732 -0.054763492 0.06609946 -0.120805465
0.024401467 -0.007242454 -0.04249855 0.088110045 -0.022083739 0.09562071 0.0075182635 0.07383367
-0.08006616 -0.017395107 0.059309524 0.0021478734 -0.06919091 -0.04413093 -0.12612586 0.12666295
-0.074031286 -0.06549292 -0.106525496 0.022914985 -0.15969342 0.055661164 0.027201628 0.06438307
-0.07190667 0.0046673887 -0.09842091 -0.11389877 -0.031065064 -0.017917477 0.044227716 -0.066550165
-0.14690863 -0.015021081 -0.07452878 0.03500886 0.013697303 -0.2911254 -0.08621811 -0.038331605
0.013944676 -0.07455095 0.1826045 -0.0857002 0.06378642 -0.0708611 0.03659076 -0.2365259
0.08890141 0.04504001 -0.03710029 0.049707443 -0.059556134 -0.006714694 0.019841596 -0.006083632
0.3019134 -0.040645994 0.038849514 0.0904409 -0.018937385 0.04348655 -0.13232793 0.080203146
0.101607315 -0.022664586 -0.05428743 -0.09059132 0.0069662663 0.029743437 -0.046654448 -0.04681992
-0.11181778 0.0035233425 0.0014740437 -0.08145577 -0.081503 -0.06479611 0.061289694 0.064953476
-0.08656331 0.032487802 -0.018142886 0.07784041 0.0070346855 0.047461923 -0.060804803 0.01351963
-0.0028978356 -0.12679583 0.08938861 -0.017834555 0.0599937 0.14002015 0.099329196 0.175319
0.107701525 -0.044707432 0.0071337833 0.067169376 -0.024340967 0.20643243 0.036073446 -0.09879834
-0.062345225 0.12090882 -0.045579277 0.015645167 0.0016641477 -0.0031391052 0.054870553 -0.10289076
0.059745766 0.057181768 -0.01895601 -0.013935538 -0.11499277 0.011442293 -0.053802226 -0.10946063
-0.10049249 0.01547501 0.024569586 0.12997368 0.036457323 0.12043071 -0.04379238 0.23218639
-0.115499854 0.04678933 -0.052240096 -0.106076874 -0.066211395 -0.031094927 0.09281108 0.05741145
0.08795111 0.016921174 -0.04343221 -0.003674741 0.055364717 0.060635015 0.02051692 0.16460425
-0.03155423 0.072670646 0.01761693 -0.08896541 -0.13767643 0.09682207 -0.058044456 -0.023231171
-0.052763738 -0.1941961 -0.03736884 0.04967357 0.1965524 0.076323844 0.03681043 -0.021993287
0.07954628 -0.051981546 -0.20249337 -0.115692936 -0.022726413 0.016954742 -0.23996814 0.03507578
0.08120924 0.0017016409 0.068121046 0.034551755 0.0002604124 -0.09019106 -0.018798316 0.23191029
-0.079413176 0.050121456 0.1608255 -0.13530004 -0.14941084 -0.03517406 0.12946965 -0.15071005
0.10493513 -0.04293499 -0.0631821 0.021229759 0.033666603 0.18091606 -0.06984029 -0.038063206
