results/ppo/EatFood/EatFood-3904.pt (torch, 143887 bytes, 10 tensors)

network_body._body_endoder.seq_layers.0.weight f4 [128, 1]
0	0xc0183fdd	-2.378898
1	0xbe8ea970	-0.27863646
2	0xbf1f6084	-0.62256646
3	0x40004087	2.0039384
4	0x3f1e45b9	0.6182514
5	0x3fbfb035	1.4975649
6	0x3eb5309d	0.35388651
7	0x3d9bcb98	0.07607192
8	0x3c40959c	0.01175442
9	0xbfa70574	-1.3048539
10	0xbf449077	-0.76782936
11	0x3f58789c	0.84559035
12	0x3fe465b6	1.784354
13	0x3f875ef1	1.0575849
14	0xbdbb270c	-0.09138307
15	0x3e89ac1f	0.2688913
16	0x3ed96dca	0.42466575
17	0xc017ff87	-2.3749712
18	0x3ca6d4ff	0.020365236
19	0xbea6a321	-0.32546332
20	0x3fbaf878	1.4607077
21	0xbfcd2aa8	-1.6028643
22	0x401460e6	2.3184142
23	0x3e84c7f9	0.25933817
24	0x3f9b26c9	1.2121211
25	0x3ea0e317	0.31423256
26	0x3f565ea6	0.8373817
27	0x3e27cc33	0.1638649
28	0x3f043f09	0.51658684
29	0x3ef88039	0.48535326
30	0x3f498fcd	0.7873505
31	0x3e621881	0.2207966
32	0x3f378af2	0.7169639
33	0x3f1e62bd	0.6186941
34	0xbf5c9bdf	-0.8617534
35	0xbf501e6b	-0.81296414
36	0xbca18f83	-0.019721752
37	0xc037415e	-2.8633647
38	0xbe0c034f	-0.13673137
39	0xbf40555e	-0.7513026
40	0xbfa8a91b	-1.3176607
41	0xbf1453eb	-0.5794055
42	0xbede8432	-0.43460232
43	0x3f9da8c6	1.231713
44	0xbfa14e02	-1.2601931
45	0xbfb1aebf	-1.3881453
46	0x3f05ba47	0.5223736
47	0xbe411d06	-0.18858728
48	0x3f6e3f0f	0.9306497
49	0x3f0fed56	0.5622152
50	0x3ed0e9d2	0.4080339
51	0xbfbc69d6	-1.4719799
52	0xbf452538	-0.77009916
53	0x3df4dbd6	0.11955993
54	0xbe8b2073	-0.27173194
55	0x3e8640e8	0.26221395
56	0x3ec99a3b	0.3937548
57	0x3f980db9	1.1879188
58	0xbed3b11e	-0.41346067
59	0x3f43659e	0.7632693
60	0xbf197b78	-0.59954023
61	0x400a6d76	2.162931
62	0xbe065c86	-0.13121232
63	0xbf0c35c0	-0.54769516
64	0xbdd6a618	-0.104808986
65	0x3f800ca2	1.0003855
66	0xbeb3b59e	-0.350995
67	0x3fb45df7	1.4091176
68	0x3df1b321	0.11801744
69	0x3eb8b69b	0.36076817
70	0xbec48626	-0.38383597
71	0x3fabf367	1.3433656
72	0xbe224d05	-0.15849693
73	0xbf21867c	-0.6309583
74	0xbfaec7cd	-1.3654724
75	0x3d9aa5f5	0.07551185
76	0x3f473daf	0.77828497
77	0xbeadfc76	-0.33981675
78	0x3f019bb6	0.5062822
79	0xbf88e6c1	-1.069542
80	0x3f35b00d	0.7097176
81	0x3f092106	0.53566015
82	0xbf25b471	-0.64728457
83	0xbfc0323d	-1.5015332
84	0xbedf1900	-0.4357376
85	0x3de58cf4	0.11208525
86	0x3f472718	0.7779403
87	0xbff73950	-1.9314365
88	0xbff77554	-1.9332681
89	0x3f14a6ae	0.58066833
90	0x3fe7b272	1.8101332
91	0xbf0f77fe	-0.5604247
92	0x3ee6f2dd	0.45107165
93	0xbee2fe96	-0.4433486
94	0x3f92a53b	1.1456674
95	0x3c59d50e	0.013295425
96	0x3ed05b4a	0.40694648
97	0x3e0db2a3	0.13837676
98	0x3ddda7c1	0.10823012
99	0xbfd65bfa	-1.6746819
100	0xbf89fb02	-1.0779727
101	0xbf94ac84	-1.1615148
102	0xbfb6d676	-1.4284198
103	0xbfe6e5c6	-1.8038871
104	0x3eecf7f6	0.4628293
105	0x3f9a4b98	1.2054319
106	0x3f932e3d	1.1498486
107	0x40102749	2.2523978
108	0xbe0d947c	-0.13826174
109	0xbf845899	-1.0339538
110	0xbf88861c	-1.0665927
111	0x3eff7202	0.4989167
112	0x3fd4127e	1.6568143
113	0x3f1bc1ed	0.6084278
114	0x3eeb23ed	0.45925847
115	0x3ffa625a	1.9561265
116	0x400379bf	2.0543058
117	0xbcbe9167	-0.023262693
118	0x3d5ee465	0.054417033
119	0x3d0c6c1e	0.034282796
120	0xbee8d18b	-0.4547237
121	0xbea364cb	-0.31912836
122	0xbf75569e	-0.9583529
123	0xbbd0c14b	-0.0063706986
124	0xbf42eab3	-0.7613937
125	0xbe9fa688	-0.3118174
126	0xbf60a2dd	-0.8774851
127	0xbe9d917a	-0.30775052

network_body._body_endoder.seq_layers.0.bias f4 [128]
0	0x00000000	0.0
1	0x00000000	0.0
2	0x00000000	0.0
3	0x00000000	0.0
4	0x00000000	0.0
5	0x00000000	0.0
6	0x00000000	0.0
7	0x00000000	0.0
8	0x00000000	0.0
9	0x00000000	0.0
10	0x00000000	0.0
11	0x00000000	0.0
12	0x00000000	0.0
13	0x00000000	0.0
14	0x00000000	0.0
15	0x00000000	0.0
16	0x00000000	0.0
17	0x00000000	0.0
18	0x00000000	0.0
19	0x00000000	0.0
20	0x00000000	0.0
21	0x00000000	0.0
22	0x00000000	0.0
23	0x00000000	0.0
24	0x00000000	0.0
25	0x00000000	0.0
26	0x00000000	0.0
27	0x00000000	0.0
28	0x00000000	0.0
29	0x00000000	0.0
30	0x00000000	0.0
31	0x00000000	0.0
32	0x00000000	0.0
33	0x00000000	0.0
34	0x00000000	0.0
35	0x00000000	0.0
36	0x00000000	0.0
37	0x00000000	0.0
38	0x00000000	0.0
39	0x00000000	0.0
40	0x00000000	0.0
41	0x00000000	0.0
42	0x00000000	0.0
43	0x00000000	0.0
44	0x00000000	0.0
45	0x00000000	0.0
46	0x00000000	0.0
47	0x00000000	0.0
48	0x00000000	0.0
49	0x00000000	0.0
50	0x00000000	0.0
51	0x00000000	0.0
52	0x00000000	0.0
53	0x00000000	0.0
54	0x00000000	0.0
55	0x00000000	0.0
56	0x00000000	0.0
57	0x00000000	0.0
58	0x00000000	0.0
59	0x00000000	0.0
60	0x00000000	0.0
61	0x00000000	0.0
62	0x00000000	0.0
63	0x00000000	0.0
64	0x00000000	0.0
65	0x00000000	0.0
66	0x00000000	0.0
67	0x00000000	0.0
68	0x00000000	0.0
69	0x00000000	0.0
70	0x00000000	0.0
71	0x00000000	0.0
72	0x00000000	0.0
73	0x00000000	0.0
74	0x00000000	0.0
75	0x00000000	0.0
76	0x00000000	0.0
77	0x00000000	0.0
78	0x00000000	0.0
79	0x00000000	0.0
80	0x00000000	0.0
81	0x00000000	0.0
82	0x00000000	0.0
83	0x00000000	0.0
84	0x00000000	0.0
85	0x00000000	0.0
86	0x00000000	0.0
87	0x00000000	0.0
88	0x00000000	0.0
89	0x00000000	0.0
90	0x00000000	0.0
91	0x00000000	0.0
92	0x00000000	0.0
93	0x00000000	0.0
94	0x00000000	0.0
95	0x00000000	0.0
96	0x00000000	0.0
97	0x00000000	0.0
98	0x00000000	0.0
99	0x00000000	0.0
100	0x00000000	0.0
101	0x00000000	0.0
102	0x00000000	0.0
103	0x00000000	0.0
104	0x00000000	0.0
105	0x00000000	0.0
106	0x00000000	0.0
107	0x00000000	0.0
108	0x00000000	0.0
109	0x00000000	0.0
110	0x00000000	0.0
111	0x00000000	0.0
112	0x00000000	0.0
113	0x00000000	0.0
114	0x00000000	0.0
115	0x00000000	0.0
116	0x00000000	0.0
117	0x00000000	0.0
118	0x00000000	0.0
119	0x00000000	0.0
120	0x00000000	0.0
121	0x00000000	0.0
122	0x00000000	0.0
123	0x00000000	0.0
124	0x00000000	0.0
125	0x00000000	0.0
126	0x00000000	0.0
127	0x00000000	0.0

network_body._body_endoder.seq_layers.2.weight f4 [128, 128]
0	0x3d48f3c5	0.0490606
1	0xb881ffb9	-6.1988314e-05
2	0x3c32d6b9	0.010915452
3	0x3cdda449	0.027055876
4	0xbdd9dc84	-0.10637763
5	0x3d9b1bb2	0.07573642
6	0xbc60e330	-0.013726041
7	0x3dae76c4	0.085187465
8	0x3d73d275	0.05952688
9	0xbd7a2910	-0.061074317
10	0xbe1a4886	-0.15066728
11	0x3ba8e748	0.005154524
12	0x3d5d8863	0.054085147
13	0x3dea966f	0.11454474
14	0xbd53782d	-0.05162828
15	0xbd4ab3f1	-0.04948801
16	0xbc44bba1	-0.012007625
17	0x3c27fe00	0.010253429
18	0xbd96c723	-0.07362201
19	0x3c8d139c	0.017221265
20	0x3cc16c69	0.023611264
21	0x3d375c0d	0.04476552
22	0x3bb8117c	0.0056173187
23	0x3d0c7b15	0.034297068
24	0x3d79f9a3	0.061029088
25	0xbca95f92	-0.020675454
26	0xbd621602	-0.05519677
27	0xbd3d982f	-0.04628771
28	0xbd3c5884	-0.045982853
29	0x3dd542b8	0.10413116
30	0x3d88d6cb	0.066815935
31	0xbe0ae333	-0.13563232
32	0x3d230768	0.039801985
33	0xbdd785c6	-0.10523562
34	0x3dc5ff9a	0.09667893
35	0xbe4477c2	-0.19186309
36	0x3d0005e7	0.03125563
37	0xbd9321c9	-0.071841784
38	0x3d9a7c16	0.07543199
39	0x3d92e7a0	0.07173085
40	0x3e65ffa7	0.22460805
41	0xbcb6f6c6	-0.022334468
42	0x3ce4fd8b	0.02795293
43	0xbdb940d3	-0.09045567
44	0xbd9f14a0	-0.07767606
45	0x3d800c71	0.06252373
46	0x3d8b9bb4	0.068168074
47	0x3d3523c9	0.04422358
48	0x3b6c2028	0.0036029909
49	0xbd47d968	-0.04879132
50	0xbdb802f2	-0.08984937
51	0x3d8184c9	0.06324155
52	0x3d4ed193	0.050492834
53	0x3d19770c	0.037467048
54	0x3d2b2494	0.04178293
55	0xbd902b70	-0.07039535
56	0xbd09a57d	-0.033605088
57	0x3e1d2c0b	0.15348832
58	0x3db55b92	0.08855356
59	0xbd6e58e8	-0.058190256
60	0xbd4a05c2	-0.049321897
61	0xbad7b7e9	-0.0016458008
62	0x3e336c72	0.17521837
63	0x3dd33b1d	0.10314009
64	0x3c46b629	0.012128391
65	0xbdc92a26	-0.09822492
66	0xbde24bd9	-0.11049623
67	0xbcd1020a	-0.025513668
68	0x3c80c6fa	0.01571988
69	0xbdb18889	-0.0866862
70	0xbda1fa2d	-0.07909045
71	0xbc3af368	-0.011410572
72	0xbd378a5b	-0.04480968
73	0x3cb039d9	0.021511959
74	0x3d04812f	0.03234976
75	0xbd5fb7e1	-0.05461872
76	0xbb7a6b6a	-0.0038210996
77	0x3b8d7598	0.004316997
78	0xbe399960	-0.18124914
79	0xbe076497	-0.13221966
80	0xbe5352d8	-0.20637071
81	0xbdd3f157	-0.10348766
82	0xbe241e84	-0.16027266
83	0x3e15716c	0.14594048
84	0x3d2f9bf0	0.042873323
85	0xbdcd2fc1	-0.10018874
86	0x3ac724a6	0.0015193417
87	0x3da9b376	0.082861826
88	0x3d129f15	0.035796244
89	0xbe7f421d	-0.24927564
90	0x3e2be806	0.16787729
91	0x3dc3175b	0.09525939
92	0x3c98328d	0.018578792
93	0x3dac0d76	0.08401005
94	0x3c98d0cc	0.01865425
95	0x3d3c1b1a	0.045924284
96	0xbe001bbc	-0.1251058
97	0x3d0b57a9	0.034019146
98	0xbd036e30	-0.032087505
99	0xbdc5cf6f	-0.096587054
100	0xbd4f98c1	-0.050682787
101	0xbe35b1f7	-0.1774367
102	0xbc13d864	-0.0090237595
103	0x3d023de8	0.03179732
104	0xbcc50bfe	-0.02405357
105	0xbd6c1087	-0.05763295
106	0xbd10d70f	-0.035361346
107	0x3debd94b	0.11516055
108	0x3da57993	0.08079829
109	0xbe071ce0	-0.13194609
110	0x3d7659e3	0.060144316
111	0x3d01120c	0.03151135
112	0x3d752166	0.059846304
113	0x3e51ce9c	0.20488971
114	0xbd997f69	-0.07495005
115	0x3defcb3a	0.11708684
116	0xbd37e0af	-0.04489201
117	0xbd8a6103	-0.06756785
118	0xbc0690bb	-0.008213217
119	0x3ce24c61	0.02762431
120	0xbd230ac9	-0.039805207
121	0xbdbd7a33	-0.09251823
122	0xbcda743d	-0.026666755
123	0xbe0c5a5c	-0.13706344
124	0xbd454439	-0.048160765
125	0xbd1f6ab5	-0.038920123
126	0xbd6519a9	-0.055932675
127	0xbd0fd540	-0.03511548
128	0xbe1c9a94	-0.15293342
129	0xbd0aa147	-0.033845212
130	0xbe039bfe	-0.12852475
131	0x3c7cc1b0	0.015427038
132	0xbe166517	-0.14687
133	0xbd04272b	-0.032263916
134	0xbdb88e00	-0.09011459
135	0xbc62b4de	-0.013837067
136	0x3e00428d	0.12525387
137	0xbd1b6e6e	-0.03794711
138	0x3d8e7e89	0.069577284
139	0x3c8892e8	0.016671613
140	0xbe2480e2	-0.1606479
141	0xbbb38648	-0.005478654
142	0xbd02a542	-0.031895883
143	0x3d60e354	0.054904297
144	0xbe063348	-0.131055
145	0xbdad934a	-0.08475359
146	0x3b29b6ff	0.0025896428
147	0x3e1abe4e	0.15111658
148	0xbd7220fe	-0.059113495
149	0xbd9e5e5f	-0.077328436
150	0xbd5c833d	-0.053836096
151	0xbcc9cfb8	-0.02463518
152	0x3de30878	0.110856
153	0x3e2b834c	0.16749305
154	0xbbc3557e	-0.005961119
155	0x3b92c612	0.004479178
156	0xbb5a5e42	-0.0033320342
157	0x3cddb60a	0.027064342
158	0xbdccc05e	-0.09997629
159	0x3defae77	0.117031984
160	0x3d85e139	0.065370984
161	0x3dfa0cbb	0.122094594
162	0xbe098f22	-0.13433507
163	0x3ddb004d	0.10693417
164	0xbcaeed9b	-0.021353533
165	0xbe1815ff	-0.14852141
166	0x3ca92b74	0.020650603
167	0xbd16c419	-0.036808107
168	0x3e133ffc	0.14379877
169	0x3d64f73f	0.055899855
170	0x3e0c5b24	0.13706642
171	0xbd1f2649	-0.03885487
172	0x3df6dadf	0.12053465
173	0x3c60a4d4	0.013711173
174	0x3bf73b23	0.0075448914
175	0x3c514433	0.012772608
176	0x3cb99890	0.022655755
177	0xbdfef30f	-0.124487035
178	0xbd7a6c1f	-0.06113827
179	0xbd1825d5	-0.037145454
180	0x3c6e38f0	0.014539942
181	0x3cbfa032	0.023391817
182	0xbd9dff42	-0.07714702
183	0x3da74cb8	0.0816893
184	0xbcef7da5	-0.029234717
185	0x3dede31d	0.11615584
186	0xbdabbbfb	-0.08385464
187	0x3e2fae74	0.17156392
188	0x3ca4658c	0.020067953
189	0xbe6bc4bc	-0.23024267
190	0x3a78b3f7	0.0009487266
191	0x3d827715	0.06370369
192	0xbcecd624	-0.028910704
193	0xbb9672aa	-0.0045913057
194	0x3de7df43	0.11321881
195	0xbd90d43c	-0.070717305
196	0xbd1a3606	-0.037649177
197	0xbc685cc8	-0.014182277
198	0xbd911358	-0.07083768
199	0x3d4fd2e0	0.050738215
200	0x3d9d6281	0.07684804
201	0xbd9b17e9	-0.0757292
202	0xbe141c33	-0.14463882
203	0xbe31b164	-0.17352825
204	0xbd9d09f2	-0.076679125
205	0xbd87ae86	-0.066250846
206	0xbd27b413	-0.040943217
207	0x3df2e8ea	0.11860831
208	0x3d720930	0.059090793
209	0x3dc54f6c	0.09634289
210	0x3df93bab	0.12169584
211	0x3ca0b214	0.019616164
212	0xbda279f3	-0.07933416
213	0x3d8a2820	0.067459345
214	0x3d82d1c6	0.06387667
215	0x3d520f37	0.05128404
216	0xbdde93ec	-0.108680576
217	0xbc134aea	-0.008990029
218	0x3cb3f58b	0.02196767
219	0xbdb8dce1	-0.09026504
220	0xbd0dbff4	-0.03460689
221	0x3d8926d4	0.06696859
222	0xbd1801e5	-0.03711118
223	0x3aee7d50	0.0018195305
224	0xbcf4e130	-0.029892534
225	0x3ccfb945	0.025356898
226	0xbdf806ca	-0.1211067
227	0xbdaeaca0	-0.08529019
228	0xbd8b65d8	-0.068065345
229	0xbd4fddfd	-0.050748814
230	0x3db3bd77	0.08776372
231	0x3d647988	0.055779964
232	0xbcd90e87	-0.026496185
233	0xbac2e630	-0.0014869627
234	0x3d779e2f	0.06045359
235	0xbde6b423	-0.11264827
236	0x3da3bc1e	0.07994865
237	0xbd447ee1	-0.047972564
238	0x3d2af45d	0.04173695
239	0x3e17efde	0.14837596
240	0xbc8a8310	-0.016908199
241	0xbdbbe1e2	-0.09173943
242	0xbb6b1673	-0.0035871535
243	0xbc498ae1	-0.012301178
244	0x3ce57ed5	0.02801458
245	0x3cf181a3	0.02948076
246	0x3e12b9c5	0.14328678
247	0xbd776d1b	-0.060406785
248	0x3dab2409	0.083564825
249	0x3dcac6f6	0.0990123
250	0x3c81c81f	0.015842495
251	0x3c9e7ad2	0.019345675
252	0xbe0e012f	-0.13867639
253	0x3d273b8d	0.040828276
254	0x3dbdc2c0	0.09265661
255	0x3dc68ae7	0.09694462

network_body._body_endoder.seq_layers.2.bias f4 [128]
0	0x00000000	0.0
1	0x00000000	0.0
2	0x00000000	0.0
3	0x00000000	0.0
4	0x00000000	0.0
5	0x00000000	0.0
6	0x00000000	0.0
7	0x00000000	0.0
8	0x00000000	0.0
9	0x00000000	0.0
10	0x00000000	0.0
11	0x00000000	0.0
12	0x00000000	0.0
13	0x00000000	0.0
14	0x00000000	0.0
15	0x00000000	0.0
16	0x00000000	0.0
17	0x00000000	0.0
18	0x00000000	0.0
19	0x00000000	0.0
20	0x00000000	0.0
21	0x00000000	0.0
22	0x00000000	0.0
23	0x00000000	0.0
24	0x00000000	0.0
25	0x00000000	0.0
26	0x00000000	0.0
27	0x00000000	0.0
28	0x00000000	0.0
29	0x00000000	0.0
30	0x00000000	0.0
31	0x00000000	0.0
32	0x00000000	0.0
33	0x00000000	0.0
34	0x00000000	0.0
35	0x00000000	0.0
36	0x00000000	0.0
37	0x00000000	0.0
38	0x00000000	0.0
39	0x00000000	0.0
40	0x00000000	0.0
41	0x00000000	0.0
42	0x00000000	0.0
43	0x00000000	0.0
44	0x00000000	0.0
45	0x00000000	0.0
46	0x00000000	0.0
47	0x00000000	0.0
48	0x00000000	0.0
49	0x00000000	0.0
50	0x00000000	0.0
51	0x00000000	0.0
52	0x00000000	0.0
53	0x00000000	0.0
54	0x00000000	0.0
55	0x00000000	0.0
56	0x00000000	0.0
57	0x00000000	0.0
58	0x00000000	0.0
59	0x00000000	0.0
60	0x00000000	0.0
61	0x00000000	0.0
62	0x00000000	0.0
63	0x00000000	0.0
64	0x00000000	0.0
65	0x00000000	0.0
66	0x00000000	0.0
67	0x00000000	0.0
68	0x00000000	0.0
69	0x00000000	0.0
70	0x00000000	0.0
71	0x00000000	0.0
72	0x00000000	0.0
73	0x00000000	0.0
74	0x00000000	0.0
75	0x00000000	0.0
76	0x00000000	0.0
77	0x00000000	0.0
78	0x00000000	0.0
79	0x00000000	0.0
80	0x00000000	0.0
81	0x00000000	0.0
82	0x00000000	0.0
83	0x00000000	0.0
84	0x00000000	0.0
85	0x00000000	0.0
86	0x00000000	0.0
87	0x00000000	0.0
88	0x00000000	0.0
89	0x00000000	0.0
90	0x00000000	0.0
91	0x00000000	0.0
92	0x00000000	0.0
93	0x00000000	0.0
94	0x00000000	0.0
95	0x00000000	0.0
96	0x00000000	0.0
97	0x00000000	0.0
98	0x00000000	0.0
99	0x00000000	0.0
100	0x00000000	0.0
101	0x00000000	0.0
102	0x00000000	0.0
103	0x00000000	0.0
104	0x00000000	0.0
105	0x00000000	0.0
106	0x00000000	0.0
107	0x00000000	0.0
108	0x00000000	0.0
109	0x00000000	0.0
110	0x00000000	0.0
111	0x00000000	0.0
112	0x00000000	0.0
113	0x00000000	0.0
114	0x00000000	0.0
115	0x00000000	0.0
116	0x00000000	0.0
117	0x00000000	0.0
118	0x00000000	0.0
119	0x00000000	0.0
120	0x00000000	0.0
121	0x00000000	0.0
122	0x00000000	0.0
123	0x00000000	0.0
124	0x00000000	0.0
125	0x00000000	0.0
126	0x00000000	0.0
127	0x00000000	0.0

action_model._continuous_distribution.mu.weight f4 [1, 128]
0	0xbbece1ad	-0.007229051
1	0xbb9d80fa	-0.004806635
2	0xbc5c342f	-0.013440176
3	0xbc85531d	-0.016274983
4	0xbc95c944	-0.018284447
5	0x3c7df157	0.015499434
6	0x3876b455	5.8818918e-05
7	0xbc076651	-0.00826414
8	0xbce385f0	-0.027773827
9	0xb85dc017	-5.2869404e-05
10	0x3cff7258	0.031182453
11	0x3b89f566	0.004210162
12	0xbc83ab9b	-0.016073039
13	0xbc6235ef	-0.013806804
14	0x3bcfbbd8	0.0063395314
15	0x3a056795	0.0005088982
16	0x38a25709	7.7409735e-05
17	0x3c30b471	0.010785208
18	0x3cec5b97	0.028852267
19	0xbb08275e	-0.0020775418
20	0x3b97e202	0.0046350965
21	0xbaabd90b	-0.0013110948
22	0x3a66ef42	0.0008809456
23	0x3bf9e36a	0.007625987
24	0x3c63a557	0.013894401
25	0x3ce05c37	0.027387721
26	0x3c9ab531	0.018885227
27	0x3cc664db	0.024218014
28	0x3c2fcbf7	0.010729781
29	0xbc787847	-0.015165395
30	0x3c6c3e52	0.014419155
31	0xbca91164	-0.020638175
32	0xbc73f073	-0.0148888705
33	0x3c026308	0.007958181
34	0xbc148c34	-0.00906663
35	0x3d05dde3	0.03268231
36	0xbc546a4b	-0.012964795
37	0xbc0d52d7	-0.008625708
38	0xbc8be440	-0.017076612
39	0xbcd3e1b5	-0.025864461
40	0xbc272da0	-0.010203749
41	0xbb60ab53	-0.0034281805
42	0xb9c15bd3	-0.00036880243
43	0x3ccb46e7	0.024814082
44	0x3c2a960b	0.01041175
45	0xbc16e4c7	-0.009209818
46	0x3a22ef17	0.0006215437
47	0xbc52b23f	-0.01285988
48	0x3b19d519	0.0023472963
49	0x3c1fe5cd	0.009759379
50	0xba7c8162	-0.00096323167
51	0x3b345349	0.0027515462
52	0xbb194277	-0.0023385563
53	0x3c9351f7	0.01798342
54	0x3ce0a51f	0.027422486
55	0x3b0e09ac	0.0021673245
56	0x3cbdb2e7	0.023156596
57	0xbc6c1eb2	-0.014411615
58	0x3be2a180	0.006916225
59	0x3bc3747f	0.005964815
60	0x3bf8b2a2	0.007589654
61	0xbb8d7063	-0.004316376
62	0xbc2b0ed3	-0.010440546
63	0x3d219314	0.039446905
64	0x3d3a3fe3	0.045471083
65	0xbc77f5f2	-0.0151343215
66	0x3cd2f55f	0.025751768
67	0xbca76712	-0.02043489
68	0xbd035913	-0.03206737
69	0x3c87ee17	0.016593022
70	0xbbeb4670	-0.0071800277
71	0x3ce97000	0.028495789
72	0x3c91aa55	0.017781416
73	0x3cdfeb48	0.02733387
74	0xbd00656a	-0.031346716
75	0x3d0ecb3f	0.0348618
76	0xbb870b45	-0.0041212165
77	0xbc0b133f	-0.008488475
78	0x3b106b3d	0.0022036575
79	0x3c671643	0.014104429
80	0xbbf54053	-0.0074844747
81	0xbc88a7f9	-0.016681658
82	0x3b3f1283	0.002915532
83	0x3c7ea8a0	0.015543133
84	0x3b0e87e1	0.002174847
85	0x3c6bff8d	0.01440419
86	0xbd339b43	-0.04384924
87	0x3d62ba65	0.05535354
88	0x3ba6784f	0.00508026
89	0x3c8497a6	0.016185593
90	0x3d158ba3	0.03651012
91	0x3be1f4b8	0.006895628
92	0xbc955793	-0.018230235
93	0xbc1e5059	-0.009662711
94	0xbc5804cb	-0.0131847365
95	0xbba86228	-0.0051386543
96	0xbccafe13	-0.024779355
97	0x3c27a61b	0.010232474
98	0xbcc08593	-0.023501193
99	0xbc4d719f	-0.012539296
100	0xbcbd9d4f	-0.0231463
101	0x3c8554cb	0.016275784
102	0xba50d0b7	-0.0007965671
103	0x3b90aadd	0.0044148997
104	0x3c858627	0.01629932
105	0x39ba8ee3	0.00035583143
106	0xbadc9b47	-0.0016830944
107	0x3bff4892	0.0077906335
108	0x3c5510fd	0.013004539
109	0x3cbd8150	0.02313295
110	0xbcaa97ea	-0.020824391
111	0x3d270599	0.040776823
112	0x3c4a5667	0.0123497015
113	0x3c9cb48b	0.019129058
114	0xbc90d6ae	-0.017680492
115	0x3c69f30d	0.014279139
116	0xbc156861	-0.009119124
117	0xbc5fda9d	-0.013662961
118	0x3ce751e7	0.028237296
119	0xb932df67	-0.00017058627
120	0xbccba57f	-0.024859188
121	0x3a237843	0.0006235877
122	0xbca2a1cb	-0.01985254
123	0xbca7f1e2	-0.02050108
124	0xbad8f6f0	-0.0016553085
125	0xbc9c005b	-0.019043138
126	0xbcf75b8f	-0.030195026
127	0xbc526955	-0.012842496

network_body._body_endoder.seq_layers.0.weight f4 [128, 1]
0	0xbd806731	-0.06269682
1	0x3ef7eaf1	0.48421434
2	0xbe5e1186	-0.21686372
3	0xbe27ab05	-0.16373833
4	0x3f90ace5	1.1302763
5	0x40020e5b	2.0321262
6	0x40561096	3.3447623
7	0xbfcb4c50	-1.5882664
8	0xc03799f2	-2.868771
9	0x3f902559	1.1261398
10	0x3f293d1f	0.6610889
11	0xbfbfae54	-1.4975076
12	0xbf1161fb	-0.5679013
13	0xbf2fee7f	-0.6872329
14	0xc002a822	-2.041512
15	0x3f7ecc79	0.9953075
16	0xbeb1fa82	-0.34761435
17	0xbcb78488	-0.022402063
18	0xbf2fa382	-0.6860887
19	0x40010590	2.0159645
20	0x3fdea73e	1.7394788
21	0xbe8157b0	-0.25262213
22	0xbdff0b9f	-0.124533884
23	0x3faf6e4e	1.3705537
24	0x3f6bce03	0.92111224
25	0x3f06878c	0.5255058
26	0xbfb02a69	-1.3762943
27	0x3f2b958d	0.6702507
28	0x3f3ec208	0.7451482
29	0xbffc772c	-1.9723868
30	0xbead954f	-0.33902976
31	0xbf0f25e2	-0.5591718
32	0xbe71d3aa	-0.236159
33	0xbeb1dee4	-0.34740365
34	0x3f410f5d	0.7541407
35	0x3ff729f1	1.9309675
36	0x3dcd3553	0.100199364
37	0x3f159bd5	0.58440906
38	0x3fccaad2	1.598963
39	0x3f84a824	1.0363812
40	0x3ed0aae3	0.40755376
41	0x3f3f360b	0.7469184
42	0xc003d7cd	-2.0600464
43	0x3d5b8589	0.053594146
44	0x3f8ec416	1.1153591
45	0xbfbee271	-1.4912854
46	0xbe82dbc0	-0.2555828
47	0xc020c834	-2.5122194
48	0xbe8a1734	-0.26970828
49	0x3f80d2ed	1.006437
50	0x3e1b7a8a	0.15183464
51	0xbfc6fba2	-1.5545542
52	0x3ee07bd2	0.43844467
53	0xbf0ab082	-0.5417558
54	0x3f1bc318	0.60844564
55	0xbfd01253	-1.6255592
56	0x40057385	2.0851758
57	0xbfab684f	-1.3391207
58	0x3f4f3a1b	0.80948037
59	0x3e826ac9	0.25472096
60	0x3f1bd57b	0.6087262
61	0x3f55170b	0.83238286
62	0x3f5b4493	0.8565151
63	0xbff02f69	-1.8764468
64	0x3eef37b3	0.46722183
65	0x3efe3bcc	0.49654996
66	0xbf9b5ad8	-1.2137098
67	0xc04d1797	-3.2045648
68	0xbed6f8c8	-0.4198668
69	0x3fc1958d	1.5123764
70	0x40039235	2.0557988
71	0xbe9cea0d	-0.30647317
72	0x3f803521	1.0016214
73	0x3e158a81	0.14603616
74	0x3e8aa457	0.27078506
75	0xbfe2fccf	-1.7733401
76	0xbf96964b	-1.1764616
77	0xbf395dfd	-0.7240904
78	0xbf9211fd	-1.141174
79	0xbe579ed0	-0.21056676
80	0xbee4ce9c	-0.4468888
81	0xbf219ea6	-0.63132703
82	0xbeb3340b	-0.35000643
83	0xbe0d65b3	-0.13808326
84	0xbf90f0fa	-1.132354
85	0xbf7cce93	-0.9875271
86	0xbf483981	-0.78212744
87	0x3f829a8e	1.0203416
88	0x3efbc108	0.4917071
89	0xbf0ab9f8	-0.54190016
90	0x3dbe87ed	0.093032695
91	0xbeb363e0	-0.35037136
92	0x3f8f1c70	1.1180553
93	0xbba74ec4	-0.005105825
94	0x3ff90954	1.9455972
95	0xbf1280d2	-0.57227814
96	0x400415fc	2.0638418
97	0x3d9d488b	0.07679852
98	0x3f3871a0	0.7204838
99	0x3f3c9904	0.73670983
100	0x3f606330	0.8765135
101	0x3f592f4e	0.84837806
102	0x3e840a1f	0.25788972
103	0x3f9572eb	1.1675695
104	0x3dfa269c	0.122143954
105	0x3ee29d37	0.4426057
106	0x3f943219	1.1577789
107	0xbf895f07	-1.0732125
108	0xbef1e9ca	-0.4724868
109	0xbdb015f9	-0.08597941
110	0xbee1ae77	-0.4407842
111	0x3f0e5e63	0.5561277
112	0xbecd07de	-0.40045065
113	0x3ceeda11	0.029156717
114	0xbe960a57	-0.29304764
115	0x3f56d0b2	0.83912194
116	0xbffa06b7	-1.9533299
117	0xbfa7e495	-1.3116633
118	0x3fa39c4b	1.2782072
119	0xbf86e9c8	-1.0540094
120	0xbfa48d0c	-1.2855544
121	0x3f2d19c9	0.6761747
122	0xbec82487	-0.39090368
123	0xbec9ee4c	-0.3943962
124	0x3fa7185e	1.3054311
125	0x3fbd98d9	1.481227
126	0xbf9c4b2d	-1.2210442
127	0xbdb962f5	-0.09052078

network_body._body_endoder.seq_layers.0.bias f4 [128]
0	0x00000000	0.0
1	0x00000000	0.0
2	0x00000000	0.0
3	0x00000000	0.0
4	0x00000000	0.0
5	0x00000000	0.0
6	0x00000000	0.0
7	0x00000000	0.0
8	0x00000000	0.0
9	0x00000000	0.0
10	0x00000000	0.0
11	0x00000000	0.0
12	0x00000000	0.0
13	0x00000000	0.0
14	0x00000000	0.0
15	0x00000000	0.0
16	0x00000000	0.0
17	0x00000000	0.0
18	0x00000000	0.0
19	0x00000000	0.0
20	0x00000000	0.0
21	0x00000000	0.0
22	0x00000000	0.0
23	0x00000000	0.0
24	0x00000000	0.0
25	0x00000000	0.0
26	0x00000000	0.0
27	0x00000000	0.0
28	0x00000000	0.0
29	0x00000000	0.0
30	0x00000000	0.0
31	0x00000000	0.0
32	0x00000000	0.0
33	0x00000000	0.0
34	0x00000000	0.0
35	0x00000000	0.0
36	0x00000000	0.0
37	0x00000000	0.0
38	0x00000000	0.0
39	0x00000000	0.0
40	0x00000000	0.0
41	0x00000000	0.0
42	0x00000000	0.0
43	0x00000000	0.0
44	0x00000000	0.0
45	0x00000000	0.0
46	0x00000000	0.0
47	0x00000000	0.0
48	0x00000000	0.0
49	0x00000000	0.0
50	0x00000000	0.0
51	0x00000000	0.0
52	0x00000000	0.0
53	0x00000000	0.0
54	0x00000000	0.0
55	0x00000000	0.0
56	0x00000000	0.0
57	0x00000000	0.0
58	0x00000000	0.0
59	0x00000000	0.0
60	0x00000000	0.0
61	0x00000000	0.0
62	0x00000000	0.0
63	0x00000000	0.0
64	0x00000000	0.0
65	0x00000000	0.0
66	0x00000000	0.0
67	0x00000000	0.0
68	0x00000000	0.0
69	0x00000000	0.0
70	0x00000000	0.0
71	0x00000000	0.0
72	0x00000000	0.0
73	0x00000000	0.0
74	0x00000000	0.0
75	0x00000000	0.0
76	0x00000000	0.0
77	0x00000000	0.0
78	0x00000000	0.0
79	0x00000000	0.0
80	0x00000000	0.0
81	0x00000000	0.0
82	0x00000000	0.0
83	0x00000000	0.0
84	0x00000000	0.0
85	0x00000000	0.0
86	0x00000000	0.0
87	0x00000000	0.0
88	0x00000000	0.0
89	0x00000000	0.0
90	0x00000000	0.0
91	0x00000000	0.0
92	0x00000000	0.0
93	0x00000000	0.0
94	0x00000000	0.0
95	0x00000000	0.0
96	0x00000000	0.0
97	0x00000000	0.0
98	0x00000000	0.0
99	0x00000000	0.0
100	0x00000000	0.0
101	0x00000000	0.0
102	0x00000000	0.0
103	0x00000000	0.0
104	0x00000000	0.0
105	0x00000000	0.0
106	0x00000000	0.0
107	0x00000000	0.0
108	0x00000000	0.0
109	0x00000000	0.0
110	0x00000000	0.0
111	0x00000000	0.0
112	0x00000000	0.0
113	0x00000000	0.0
114	0x00000000	0.0
115	0x00000000	0.0
116	0x00000000	0.0
117	0x00000000	0.0
118	0x00000000	0.0
119	0x00000000	0.0
120	0x00000000	0.0
121	0x00000000	0.0
122	0x00000000	0.0
123	0x00000000	0.0
124	0x00000000	0.0
125	0x00000000	0.0
126	0x00000000	0.0
127	0x00000000	0.0

network_body._body_endoder.seq_layers.2.weight f4 [128, 128]
0	0x3e1dac36	0.15397725
1	0xbdc92f2f	-0.09823453
2	0x3d024ba3	0.031810414
3	0xbd90d787	-0.070723586
4	0xbe874cf7	-0.26425907
5	0xbd80486d	-0.06263814
6	0xbdfcb8d8	-0.12339944
7	0xbe0d82b0	-0.13819385
8	0xbd7842f3	-0.060610723
9	0x3dd3ab7e	0.10335444
10	0xbe01682f	-0.12637399
11	0xbd3c3580	-0.04594946
12	0xbd958b4d	-0.0730196
13	0xbb8188f5	-0.003953094
14	0x3d7ce251	0.06173927
15	0x3e2ec22d	0.1706626
16	0xbda991f5	-0.08279792
17	0xbd830929	-0.063982315
18	0xbda61752	-0.08109917
19	0xbdcafa65	-0.0991104
20	0xbd36bf38	-0.044615954
21	0xbd346855	-0.04404481
22	0x3ccf35ef	0.025294272
23	0xbe31585a	-0.1731886
24	0xbe28acb0	-0.16472125
25	0xbd63ff88	-0.055663615
26	0x3c6abbd8	0.014327012
27	0x3bd21d01	0.006412149
28	0x3b79c32f	0.0038110723
29	0xbd17fe86	-0.037107967
30	0x3cbdc99e	0.023167428
31	0xbe046d45	-0.12932308
32	0xbda1ce81	-0.079007156
33	0xbd545a08	-0.051843673
34	0xbde5737e	-0.11203669
35	0x3d93f569	0.07224543
36	0xbe5262b3	-0.20545463
37	0xbd2aa15f	-0.0416578
38	0x3d02bb7a	0.031917073
39	0x3e08e4e8	0.13368571
40	0xbcd75c5e	-0.026289161
41	0xbd953327	-0.07285147
42	0xbe0c9820	-0.13729906
43	0x3cd0c3d5	0.025484005
44	0x3b5fb351	0.003413398
45	0x3c2c8fd0	0.010532334
46	0x3e4c8566	0.19972762
47	0xbda024e4	-0.07819536
48	0x3d996adf	0.07491087
49	0x3d996460	0.07489848
50	0xbd31e3c2	-0.043430097
51	0xbda38be6	-0.07985668
52	0xbddd3c9f	-0.10802578
53	0xbd555959	-0.05208716
54	0xbccb9bec	-0.024854623
55	0x3d2e3f31	0.042540733
56	0xbc961e9a	-0.018325139
57	0xbd8ed24e	-0.06973706
58	0xbd7afcfa	-0.061276414
59	0xbd61d321	-0.05513299
60	0x3d870c1e	0.06594108
61	0xbdab459c	-0.08362886
62	0xbde8e73e	-0.11372231
63	0xbdb1709a	-0.08664055
64	0x3e12b965	0.14328535
65	0x3dd170ab	0.10226568
66	0x3e369599	0.17830504
67	0x3d4f54c8	0.050617963
68	0xbd440e09	-0.047864947
69	0x3d2064e1	0.039158706
70	0x3d8d7da3	0.06908729
71	0xbd20163b	-0.0390837
72	0xbe3b94f8	-0.18318546
73	0xbd9e871e	-0.07740615
74	0x3cd333c5	0.025781522
75	0x3db068c8	0.086137354
76	0x3d51b6f7	0.05119988
77	0xbd3f8323	-0.04675592
78	0x3d0a8b65	0.033824343
79	0xbcca0763	-0.024661725
80	0xbc67509d	-0.014118341
81	0x3d42a627	0.047521736
82	0xbc3dcf20	-0.011585027
83	0xbdab3c48	-0.08361107
84	0xbe129abc	-0.14316839
85	0xbda4daba	-0.08049531
86	0xbd72d2f0	-0.059283197
87	0xbd8d33e0	-0.0689466
88	0x3c4cd6ec	0.012502413
89	0xbced730f	-0.028985528
90	0x3dbd6e40	0.09249544
91	0x3e780de2	0.24224046
92	0x3d34aafa	0.04410837
93	0xbd4f130e	-0.05055528
94	0xbd7fdeef	-0.062468465
95	0x3b486fe0	0.003058426
96	0x3c896e37	0.016776187
97	0xbcd0bb2b	-0.025479874
98	0x3e0d2b6d	0.13786097
99	0xbc213dbd	-0.00984138
100	0xbcfdb7d4	-0.030971445
101	0xbda77115	-0.081758656
102	0x3d825889	0.06364543
103	0xbb917717	-0.0044392454
104	0x3e03f8de	0.12887904
105	0x3e07daa2	0.13266996
106	0xbd81dfc3	-0.06341507
107	0x3d172c9f	0.03690779
108	0x3d987570	0.074442744
109	0x3d5cc7cc	0.05390148
110	0xbca3aac4	-0.019978888
111	0xbd6b8671	-0.05750126
112	0x3e0ea670	0.13930678
113	0xbdc52d63	-0.096277975
114	0x3d731486	0.059345745
115	0xbc710e43	-0.014712873
116	0x3c315300	0.010823011
117	0x3dcec255	0.1009566
118	0xbd35f451	-0.04442245
119	0x3d36656a	0.04453031
120	0x3bcd4741	0.0062645976
121	0xbc7b9735	-0.015355875
122	0xbd8c27f7	-0.0684356
123	0xbe41ce81	-0.18926431
124	0x3c7b2404	0.015328411
125	0x3d4992e1	0.04921234
126	0x3b84cfdc	0.004053099
127	0x3ca100db	0.019653728
128	0xbd6b9a2e	-0.057520084
129	0xbd7f90a9	-0.062393818
130	0x3d187361	0.03721941
131	0xbce8c787	-0.028415455
132	0x3da6879c	0.08131334
133	0xbe581d29	-0.21104874
134	0x3d95cf30	0.073149085
135	0xbe0860f1	-0.1331823
136	0x39ebba64	0.00044961565
137	0xbda0bc80	-0.078484535
138	0xb931147a	-0.00016887664
139	0xbd01108b	-0.031509917
140	0x3cd893e8	0.026437715
141	0xbe039f00	-0.12853622
142	0x3bd2ca24	0.0064327884
143	0xbd7e2a9b	-0.06205235
144	0xbdc85a8c	-0.097828954
145	0xbd28a5c7	-0.041173723
146	0x3e04293e	0.12906358
147	0xbd0fce81	-0.035109047
148	0xbd0981c6	-0.033571027
149	0xbc537381	-0.012905956
150	0x3de8d7f8	0.11369318
151	0xbe2c718f	-0.16840194
152	0xbcaec4da	-0.0213341
153	0xbcdb5041	-0.026771666
154	0x3c61f077	0.013790241
155	0x3c3e6d21	0.011622698
156	0xbda4ca18	-0.08046359
157	0xbd838347	-0.064215235
158	0xbccad4b6	-0.024759632
159	0x3c4d44a8	0.012528576
160	0xbd4fcf11	-0.050734583
161	0x3cfe93c4	0.03107632
162	0x3ba6d496	0.00509126
163	0xbd2e6a46	-0.04258182
164	0xbcaacb17	-0.020848794
165	0xbd8f77b6	-0.07005255
166	0xbbbddef9	-0.0057944027
167	0xbda26176	-0.079287454
168	0xbca2c2c7	-0.019868268
169	0xbdf50a31	-0.119648345
170	0xbe05dbf6	-0.1307219
171	0xbd2e236f	-0.04251426
172	0xbd8aaf79	-0.0677175
173	0x3c9a4ec9	0.018836396
174	0x3ccc8c46	0.024969231
175	0xbdb364e3	-0.08759477
176	0x3cfc5cd8	0.03080599
177	0x3b4b47fe	0.0031018252
178	0xbdd83a79	-0.10558028
179	0xbd9d8cb4	-0.076928526
180	0x3c4827b9	0.012216502
181	0x3d8bc4fe	0.06824683
182	0xbd5b1905	-0.053490657
183	0xbdd9b050	-0.10629332
184	0xbced77ff	-0.028987883
185	0xbe0fe25c	-0.14051193
186	0x3c134e92	0.008990901
187	0x3d3707f3	0.044685315
188	0x3c9b16c3	0.018931752
189	0x3d026f72	0.031844564
190	0x3dda08df	0.10646223
191	0x3d10f4eb	0.035389822
192	0xbcfa7f97	-0.030578418
193	0x3c1043b8	0.008805208
194	0xbd0c21d1	-0.034211937
195	0xbc4f26c7	-0.012643523
196	0xbc1dd654	-0.009633619
197	0xbd9a8e7b	-0.07546707
198	0x3de7f437	0.11325877
199	0x3d8004db	0.06250926
200	0xbdb8edd9	-0.09029741
201	0x3c9dd399	0.019265937
202	0x3bf7c998	0.0075618736
203	0x3cc06d68	0.023489669
204	0xbd0bf4e2	-0.034169085
205	0x3df1538a	0.11783512
206	0x3bd45036	0.0064792885
207	0x3d921733	0.07133331
208	0x3e1d4828	0.15359557
209	0xbdc50d31	-0.09621657
210	0x3cc05a20	0.023480475
211	0x3dfe0158	0.124026
212	0xbd83ed25	-0.06441716
213	0xbd373f46	-0.044738077
214	0xbc8cfda8	-0.017210796
215	0x3d2ee4dc	0.042698726
216	0xbdbb6cee	-0.09151636
217	0x3cda45b8	0.026644573
218	0x3d8b030b	0.0678769
219	0xbcba812b	-0.02276667
220	0x3d69e4aa	0.057102837
221	0x3da0172a	0.07816918
222	0x3e21f5d7	0.15816437
223	0x3d7afc50	0.06127578
224	0x3d94519c	0.07242128
225	0x3cc1790d	0.023617292
226	0x3e053d8e	0.13011762
227	0xbd6ff459	-0.058582637
228	0x38f9803a	0.00011897129
229	0xbcd360b4	-0.025802948
230	0x3daeb1c7	0.08530002
231	0xbe1e83bf	-0.15479945
232	0xbd8c2700	-0.06843376
233	0x3aca78f1	0.001544742
234	0x3dc4d50d	0.09610949
235	0x3d2da959	0.04239783
236	0xbe2b43f3	-0.1672514
237	0x3d6efd34	0.058346942
238	0xbdee39e6	-0.11632137
239	0x3d73bc47	0.059505727
240	0x3dc94af5	0.0982875
241	0xbd0d4e8f	-0.034498747
242	0x3d061095	0.032730658
243	0xbbd8fb15	-0.006621728
244	0xbe1a84ee	-0.15089771
245	0x3d18c6e6	0.03729906
246	0xbda88532	-0.0822853
247	0xbd8d9c0b	-0.069145285
248	0x3d7c389c	0.061577424
249	0x3d72f7a4	0.0593182
250	0x3d48e0c4	0.04904248
251	0xbd53c00e	-0.05169683
252	0xbe132494	-0.14369422
253	0x3e211c4f	0.15733455
254	0x3d96eb4c	0.07369098
255	0x3cfee8a7	0.031116797

network_body._body_endoder.seq_layers.2.bias f4 [128]
0	0x00000000	0.0
1	0x00000000	0.0
2	0x00000000	0.0
3	0x00000000	0.0
4	0x00000000	0.0
5	0x00000000	0.0
6	0x00000000	0.0
7	0x00000000	0.0
8	0x00000000	0.0
9	0x00000000	0.0
10	0x00000000	0.0
11	0x00000000	0.0
12	0x00000000	0.0
13	0x00000000	0.0
14	0x00000000	0.0
15	0x00000000	0.0
16	0x00000000	0.0
17	0x00000000	0.0
18	0x00000000	0.0
19	0x00000000	0.0
20	0x00000000	0.0
21	0x00000000	0.0
22	0x00000000	0.0
23	0x00000000	0.0
24	0x00000000	0.0
25	0x00000000	0.0
26	0x00000000	0.0
27	0x00000000	0.0
28	0x00000000	0.0
29	0x00000000	0.0
30	0x00000000	0.0
31	0x00000000	0.0
32	0x00000000	0.0
33	0x00000000	0.0
34	0x00000000	0.0
35	0x00000000	0.0
36	0x00000000	0.0
37	0x00000000	0.0
38	0x00000000	0.0
39	0x00000000	0.0
40	0x00000000	0.0
41	0x00000000	0.0
42	0x00000000	0.0
43	0x00000000	0.0
44	0x00000000	0.0
45	0x00000000	0.0
46	0x00000000	0.0
47	0x00000000	0.0
48	0x00000000	0.0
49	0x00000000	0.0
50	0x00000000	0.0
51	0x00000000	0.0
52	0x00000000	0.0
53	0x00000000	0.0
54	0x00000000	0.0
55	0x00000000	0.0
56	0x00000000	0.0
57	0x00000000	0.0
58	0x00000000	0.0
59	0x00000000	0.0
60	0x00000000	0.0
61	0x00000000	0.0
62	0x00000000	0.0
63	0x00000000	0.0
64	0x00000000	0.0
65	0x00000000	0.0
66	0x00000000	0.0
67	0x00000000	0.0
68	0x00000000	0.0
69	0x00000000	0.0
70	0x00000000	0.0
71	0x00000000	0.0
72	0x00000000	0.0
73	0x00000000	0.0
74	0x00000000	0.0
75	0x00000000	0.0
76	0x00000000	0.0
77	0x00000000	0.0
78	0x00000000	0.0
79	0x00000000	0.0
80	0x00000000	0.0
81	0x00000000	0.0
82	0x00000000	0.0
83	0x00000000	0.0
84	0x00000000	0.0
85	0x00000000	0.0
86	0x00000000	0.0
87	0x00000000	0.0
88	0x00000000	0.0
89	0x00000000	0.0
90	0x00000000	0.0
91	0x00000000	0.0
92	0x00000000	0.0
93	0x00000000	0.0
94	0x00000000	0.0
95	0x00000000	0.0
96	0x00000000	0.0
97	0x00000000	0.0
98	0x00000000	0.0
99	0x00000000	0.0
100	0x00000000	0.0
101	0x00000000	0.0
102	0x00000000	0.0
103	0x00000000	0.0
104	0x00000000	0.0
105	0x00000000	0.0
106	0x00000000	0.0
107	0x00000000	0.0
108	0x00000000	0.0
109	0x00000000	0.0
110	0x00000000	0.0
111	0x00000000	0.0
112	0x00000000	0.0
113	0x00000000	0.0
114	0x00000000	0.0
115	0x00000000	0.0
116	0x00000000	0.0
117	0x00000000	0.0
118	0x00000000	0.0
119	0x00000000	0.0
120	0x00000000	0.0
121	0x00000000	0.0
122	0x00000000	0.0
123	0x00000000	0.0
124	0x00000000	0.0
125	0x00000000	0.0
126	0x00000000	0.0
127	0x00000000	0.0

value_heads.value_heads.extrinsic.weight f4 [1, 128]
0	0x3d41d58b	0.04732279
1	0x3dcd3645	0.10020117
2	0xbe3befac	-0.18353146
3	0xbdd1b450	-0.1023947
4	0xbd41e6be	-0.047339194
5	0xbdae6837	-0.08515971
6	0xbe4c91c6	-0.19977483
7	0x3e12ecfb	0.14348213
8	0x3d87180c	0.065963835
9	0xbcb47c29	-0.02203186
10	0xbe23c054	-0.15991336
11	0xbe00b73d	-0.125699
12	0xbd76a3dd	-0.060214866
13	0xbe2a6a3c	-0.16642088
14	0xbe1e8585	-0.15480621
15	0xbd0b9214	-0.034074858
16	0x3e0a3b28	0.13499129
17	0x3e1e6794	0.154692
18	0xbe266f3b	-0.16253369
19	0xbe1938b6	-0.1496304
20	0x3e08870c	0.13332766
21	0x3d9f1ada	0.077687934
22	0xbbb8edee	-0.005643598
23	0xbdb31c6e	-0.08745657
24	0x3e49be2f	0.19701456
25	0xbe3c1652	-0.1836789
26	0xbc2040d1	-0.009781078
27	0xbe2d2f9a	-0.1691269
28	0xbe42aead	-0.19011946
29	0xbe0ff01d	-0.1405644
30	0x3c3b85a4	0.011445437
31	0x3d34eb56	0.044169746
32	0x3e22e649	0.1590816
33	0xbe3a9e76	-0.1822451
34	0x3d84ab4f	0.06477987
35	0x3db6058c	0.08887777
36	0x3d5c5ff3	0.05380244
37	0x3e583da0	0.21117258
38	0xbe37da57	-0.17954384
39	0xbd717ff8	-0.05895993
40	0xbe08a50e	-0.13344213
41	0x3d070030	0.032959163
42	0x3cad242d	0.021135414
43	0xbe15ae69	-0.14617313
44	0xbde0c801	-0.10975648
45	0xbe528d47	-0.20561706
46	0x3dc64151	0.09680427
47	0x3e0c7ff2	0.13720682
48	0x3d88f49d	0.06687281
49	0x3e460f3d	0.1934175
50	0x3e3e1ff2	0.18566874
51	0x3d1c5db6	0.038175307
52	0x3dde8452	0.10865082
53	0x3e5cc097	0.21557842
54	0x3cd03655	0.025416533
55	0x3e16d1fd	0.14728542
56	0xbe24b565	-0.16084822
57	0x3d3daa97	0.046305265
58	0x3e287d57	0.16454063
59	0xbdff5ca6	-0.12468843
60	0xbd53834c	-0.051638886
61	0xbd8d2b63	-0.06893041
62	0xbdbdb6dd	-0.09263394
63	0x38cbe96a	9.723271e-05
64	0xbe29e0bb	-0.16589634
65	0x3e34e57b	0.17665665
66	0x3d565aea	0.052332796
67	0x3d0dcf78	0.034621686
68	0x3d543521	0.05180848
69	0xbd1d920f	-0.03846937
70	0xbe3fa30e	-0.18714544
71	0x3e33678d	0.1751997
72	0xbe22ca3d	-0.1589746
73	0xbe17955b	-0.14803068
74	0x3d4d4045	0.05011012
75	0x3e41ad8b	0.18913858
76	0x3daafea2	0.083493486
77	0x3e28b495	0.16475137
78	0x3df0137b	0.117224656
79	0xbccc015b	-0.02490299
80	0x3e2f7986	0.17136201
81	0x3c9e1345	0.019296298
82	0x3dea582f	0.11442601
83	0xbe4d986a	-0.20077673
84	0xbcecb0c6	-0.028892886
85	0xbd1d0c47	-0.038341787
86	0x3db730eb	0.08944877
87	0x3e512935	0.20425875
88	0x3cc3c3ee	0.023897137
89	0xbd59e599	-0.053197477
90	0xbdfd4e08	-0.12368399
91	0xbdbd6232	-0.09247245
92	0xbe244e16	-0.16045412
93	0xbe45a2ea	-0.19300428
94	0x3e38c9ea	0.18045774
95	0xbddfd031	-0.10928381
96	0x3e0b84be	0.13624856
97	0xbe5118c6	-0.20419607
98	0x3e455e6e	0.19274303
99	0x3e488775	0.19582923
100	0xbbddd3f9	-0.006769654
101	0xbe4775b6	-0.19478497
102	0x3e464cfd	0.19365306
103	0xbe33109f	-0.17486809
104	0x3e4dc1ab	0.2009341
105	0xbcdaea34	-0.026723005
106	0x3e36b136	0.17841038
107	0xbe150491	-0.14552523
108	0x3dbb6df9	0.09151835
109	0x3cc82029	0.024429398
110	0xbca396bf	-0.019969342
111	0xbda5ae26	-0.08089857
112	0xbdbfeacc	-0.09370956
113	0xbd8788b8	-0.06617874
114	0x3d25ab5c	0.040446624
115	0xbd1d8e79	-0.03846595
116	0xbc9fe45a	-0.019518066
117	0x3e5836bf	0.21114634
118	0x3d638c5f	0.05555379
119	0x3d4b882d	0.049690414
120	0x3d925518	0.071451366
121	0xbe3cc4fe	-0.18434522
122	0xbcd603c2	-0.026124839
123	0xbe490e84	-0.19634444
124	0xbe2c5b5b	-0.16831724
125	0x3dbe29d2	0.0928532
126	0xbd974c9a	-0.073876575
127	0x3e2deffb	0.16986077
