results/ppo/EatFood/EatFood-3904.onnx (onnx, 69559 bytes, 5 tensors)

action_model._continuous_distribution.mu.weight f4 [1, 128]
000000 ad e1 ec bb fa 80 9d bb 2f 34 5c bc 1d 53 85 bc
       -0.007229051 -0.004806635 -0.013440176 -0.016274983
000010 44 c9 95 bc 57 f1 7d 3c 55 b4 76 38 51 66 07 bc
       -0.018284447 0.015499434 5.8818918e-05 -0.00826414
000020 f0 85 e3 bc 17 c0 5d b8 58 72 ff 3c 66 f5 89 3b
       -0.027773827 -5.2869404e-05 0.031182453 0.004210162
000030 9b ab 83 bc ef 35 62 bc d8 bb cf 3b 95 67 05 3a
       -0.016073039 -0.013806804 0.0063395314 0.0005088982
000040 09 57 a2 38 71 b4 30 3c 97 5b ec 3c 5e 27 08 bb
       7.7409735e-05 0.010785208 0.028852267 -0.0020775418
000050 02 e2 97 3b 0b d9 ab ba 42 ef 66 3a 6a e3 f9 3b
       0.0046350965 -0.0013110948 0.0008809456 0.007625987
000060 57 a5 63 3c 37 5c e0 3c 31 b5 9a 3c db 64 c6 3c
       0.013894401 0.027387721 0.018885227 0.024218014
000070 f7 cb 2f 3c 47 78 78 bc 52 3e 6c 3c 64 11 a9 bc
       0.010729781 -0.015165395 0.014419155 -0.020638175
000080 73 f0 73 bc 08 63 02 3c 34 8c 14 bc e3 dd 05 3d
       -0.0148888705 0.007958181 -0.00906663 0.03268231
000090 4b 6a 54 bc d7 52 0d bc 40 e4 8b bc b5 e1 d3 bc
       -0.012964795 -0.008625708 -0.017076612 -0.025864461
0000a0 a0 2d 27 bc 53 ab 60 bb d3 5b c1 b9 e7 46 cb 3c
       -0.010203749 -0.0034281805 -0.00036880243 0.024814082
0000b0 0b 96 2a 3c c7 e4 16 bc 17 ef 22 3a 3f b2 52 bc
       0.01041175 -0.009209818 0.0006215437 -0.01285988
0000c0 19 d5 19 3b cd e5 1f 3c 62 81 7c ba 49 53 34 3b
       0.0023472963 0.009759379 -0.00096323167 0.0027515462
0000d0 77 42 19 bb f7 51 93 3c 1f a5 e0 3c ac 09 0e 3b
       -0.0023385563 0.01798342 0.027422486 0.0021673245
0000e0 e7 b2 bd 3c b2 1e 6c bc 80 a1 e2 3b 7f 74 c3 3b
       0.023156596 -0.014411615 0.006916225 0.005964815
0000f0 a2 b2 f8 3b 63 70 8d bb d3 0e 2b bc 14 93 21 3d
       0.007589654 -0.004316376 -0.010440546 0.039446905
000100 e3 3f 3a 3d f2 f5 77 bc 5f f5 d2 3c 12 67 a7 bc
       0.045471083 -0.0151343215 0.025751768 -0.02043489
000110 13 59 03 bd 17 ee 87 3c 70 46 eb bb 00 70 e9 3c
       -0.03206737 0.016593022 -0.0071800277 0.028495789
000120 55 aa 91 3c 48 eb df 3c 6a 65 00 bd 3f cb 0e 3d
       0.017781416 0.02733387 -0.031346716 0.0348618
000130 45 0b 87 bb 3f 13 0b bc 3d 6b 10 3b 43 16 67 3c
       -0.0041212165 -0.008488475 0.0022036575 0.014104429
000140 53 40 f5 bb f9 a7 88 bc 83 12 3f 3b a0 a8 7e 3c
       -0.0074844747 -0.016681658 0.002915532 0.015543133
000150 e1 87 0e 3b 8d ff 6b 3c 43 9b 33 bd 65 ba 62 3d
       0.002174847 0.01440419 -0.04384924 0.05535354
000160 4f 78 a6 3b a6 97 84 3c a3 8b 15 3d b8 f4 e1 3b
       0.00508026 0.016185593 0.03651012 0.006895628
000170 93 57 95 bc 59 50 1e bc cb 04 58 bc 28 62 a8 bb
       -0.018230235 -0.009662711 -0.0131847365 -0.0051386543
000180 13 fe ca bc 1b a6 27 3c 93 85 c0 bc 9f 71 4d bc
       -0.024779355 0.010232474 -0.023501193 -0.012539296
000190 4f 9d bd bc cb 54 85 3c b7 d0 50 ba dd aa 90 3b
       -0.0231463 0.016275784 -0.0007965671 0.0044148997
0001a0 27 86 85 3c e3 8e ba 39 47 9b dc ba 92 48 ff 3b
       0.01629932 0.00035583143 -0.0016830944 0.0077906335
0001b0 fd 10 55 3c 50 81 bd 3c ea 97 aa bc 99 05 27 3d
       0.013004539 0.02313295 -0.020824391 0.040776823
0001c0 67 56 4a 3c 8b b4 9c 3c ae d6 90 bc 0d f3 69 3c
       0.0123497015 0.019129058 -0.017680492 0.014279139
0001d0 61 68 15 bc 9d da 5f bc e7 51 e7 3c 67 df 32 b9
       -0.009119124 -0.013662961 0.028237296 -0.00017058627
0001e0 7f a5 cb bc 43 78 23 3a cb a1 a2 bc e2 f1 a7 bc
       -0.024859188 0.0006235877 -0.01985254 -0.02050108
0001f0 f0 f6 d8 ba 5b 00 9c bc 8f 5b f7 bc 55 69 52 bc
       -0.0016553085 -0.019043138 -0.030195026 -0.012842496

network_body._body_endoder.seq_layers.0.bias f4 [128]
000000 00 00 00 00 00 00 00 00 00 00 00 00 00 00 00 00
       0.0 0.0 0.0 0.0
000010 00 00 00 00 00 00 00 00 00 00 00 00 00 00 00 00
       0.0 0.0 0.0 0.0
000020 00 00 00 00 00 00 00 00 00 00 00 00 00 00 00 00
       0.0 0.0 0.0 0.0
000030 00 00 00 00 00 00 00 00 00 00 00 00 00 00 00 00
       0.0 0.0 0.0 0.0
000040 00 00 00 00 00 00 00 00 00 00 00 00 00 00 00 00
       0.0 0.0 0.0 0.0
000050 00 00 00 00 00 00 00 00 00 00 00 00 00 00 00 00
       0.0 0.0 0.0 0.0
000060 00 00 00 00 00 00 00 00 00 00 00 00 00 00 00 00
       0.0 0.0 0.0 0.0
000070 00 00 00 00 00 00 00 00 00 00 00 00 00 00 00 00
       0.0 0.0 0.0 0.0
000080 00 00 00 00 00 00 00 00 00 00 00 00 00 00 00 00
       0.0 0.0 0.0 0.0
000090 00 00 00 00 00 00 00 00 00 00 00 00 00 00 00 00
       0.0 0.0 0.0 0.0
0000a0 00 00 00 00 00 00 00 00 00 00 00 00 00 00 00 00
       0.0 0.0 0.0 0.0
0000b0 00 00 00 00 00 00 00 00 00 00 00 00 00 00 00 00
       0.0 0.0 0.0 0.0
0000c0 00 00 00 00 00 00 00 00 00 00 00 00 00 00 00 00
       0.0 0.0 0.0 0.0
0000d0 00 00 00 00 00 00 00 00 00 00 00 00 00 00 00 00
       0.0 0.0 0.0 0.0
0000e0 00 00 00 00 00 00 00 00 00 00 00 00 00 00 00 00
       0.0 0.0 0.0 0.0
0000f0 00 00 00 00 00 00 00 00 00 00 00 00 00 00 00 00
       0.0 0.0 0.0 0.0
000100 00 00 00 00 00 00 00 00 00 00 00 00 00 00 00 00
       0.0 0.0 0.0 0.0
000110 00 00 00 00 00 00 00 00 00 00 00 00 00 00 00 00
       0.0 0.0 0.0 0.0
000120 00 00 00 00 00 00 00 00 00 00 00 00 00 00 00 00
       0.0 0.0 0.0 0.0
000130 00 00 00 00 00 00 00 00 00 00 00 00 00 00 00 00
       0.0 0.0 0.0 0.0
000140 00 00 00 00 00 00 00 00 00 00 00 00 00 00 00 00
       0.0 0.0 0.0 0.0
000150 00 00 00 00 00 00 00 00 00 00 00 00 00 00 00 00
       0.0 0.0 0.0 0.0
000160 00 00 00 00 00 00 00 00 00 00 00 00 00 00 00 00
       0.0 0.0 0.0 0.0
000170 00 00 00 00 00 00 00 00 00 00 00 00 00 00 00 00
       0.0 0.0 0.0 0.0
000180 00 00 00 00 00 00 00 00 00 00 00 00 00 00 00 00
       0.0 0.0 0.0 0.0
000190 00 00 00 00 00 00 00 00 00 00 00 00 00 00 00 00
       0.0 0.0 0.0 0.0
0001a0 00 00 00 00 00 00 00 00 00 00 00 00 00 00 00 00
       0.0 0.0 0.0 0.0
0001b0 00 00 00 00 00 00 00 00 00 00 00 00 00 00 00 00
       0.0 0.0 0.0 0.0
0001c0 00 00 00 00 00 00 00 00 00 00 00 00 00 00 00 00
       0.0 0.0 0.0 0.0
0001d0 00 00 00 00 00 00 00 00 00 00 00 00 00 00 00 00
       0.0 0.0 0.0 0.0
0001e0 00 00 00 00 00 00 00 00 00 00 00 00 00 00 00 00
       0.0 0.0 0.0 0.0
0001f0 00 00 00 00 00 00 00 00 00 00 00 00 00 00 00 00
       0.0 0.0 0.0 0.0

network_body._body_endoder.seq_layers.0.weight f4 [128, 1]
000000 dd 3f 18 c0 70 a9 8e be 84 60 1f bf 87 40 00 40
       -2.378898 -0.27863646 -0.62256646 2.0039384
000010 b9 45 1e 3f 35 b0 bf 3f 9d 30 b5 3e 98 cb 9b 3d
       0.6182514 1.4975649 0.35388651 0.07607192
000020 9c 95 40 3c 74 05 a7 bf 77 90 44 bf 9c 78 58 3f
       0.01175442 -1.3048539 -0.76782936 0.84559035
000030 b6 65 e4 3f f1 5e 87 3f 0c 27 bb bd 1f ac 89 3e
       1.784354 1.0575849 -0.09138307 0.2688913
000040 ca 6d d9 3e 87 ff 17 c0 ff d4 a6 3c 21 a3 a6 be
       0.42466575 -2.3749712 0.020365236 -0.32546332
000050 78 f8 ba 3f a8 2a cd bf e6 60 14 40 f9 c7 84 3e
       1.4607077 -1.6028643 2.3184142 0.25933817
000060 c9 26 9b 3f 17 e3 a0 3e a6 5e 56 3f 33 cc 27 3e
       1.2121211 0.31423256 0.8373817 0.1638649
000070 09 3f 04 3f 39 80 f8 3e cd 8f 49 3f 81 18 62 3e
       0.51658684 0.48535326 0.7873505 0.2207966
000080 f2 8a 37 3f bd 62 1e 3f df 9b 5c bf 6b 1e 50 bf
       0.7169639 0.6186941 -0.8617534 -0.81296414
000090 83 8f a1 bc 5e 41 37 c0 4f 03 0c be 5e 55 40 bf
       -0.019721752 -2.8633647 -0.13673137 -0.7513026
0000a0 1b a9 a8 bf eb 53 14 bf 32 84 de be c6 a8 9d 3f
       -1.3176607 -0.5794055 -0.43460232 1.231713
0000b0 02 4e a1 bf bf ae b1 bf 47 ba 05 3f 06 1d 41 be
       -1.2601931 -1.3881453 0.5223736 -0.18858728
0000c0 0f 3f 6e 3f 56 ed 0f 3f d2 e9 d0 3e d6 69 bc bf
       0.9306497 0.5622152 0.4080339 -1.4719799
0000d0 38 25 45 bf d6 db f4 3d 73 20 8b be e8 40 86 3e
       -0.77009916 0.11955993 -0.27173194 0.26221395
0000e0 3b 9a c9 3e b9 0d 98 3f 1e b1 d3 be 9e 65 43 3f
       0.3937548 1.1879188 -0.41346067 0.7632693
0000f0 78 7b 19 bf 76 6d 0a 40 86 5c 06 be c0 35 0c bf
       -0.59954023 2.162931 -0.13121232 -0.54769516
000100 18 a6 d6 bd a2 0c 80 3f 9e b5 b3 be f7 5d b4 3f
       -0.104808986 1.0003855 -0.350995 1.4091176
000110 21 b3 f1 3d 9b b6 b8 3e 26 86 c4 be 67 f3 ab 3f
       0.11801744 0.36076817 -0.38383597 1.3433656
000120 05 4d 22 be 7c 86 21 bf cd c7 ae bf f5 a5 9a 3d
       -0.15849693 -0.6309583 -1.3654724 0.07551185
000130 af 3d 47 3f 76 fc ad be b6 9b 01 3f c1 e6 88 bf
       0.77828497 -0.33981675 0.5062822 -1.069542
000140 0d b0 35 3f 06 21 09 3f 71 b4 25 bf 3d 32 c0 bf
       0.7097176 0.53566015 -0.64728457 -1.5015332
000150 00 19 df be f4 8c e5 3d 18 27 47 3f 50 39 f7 bf
       -0.4357376 0.11208525 0.7779403 -1.9314365
000160 54 75 f7 bf ae a6 14 3f 72 b2 e7 3f fe 77 0f bf
       -1.9332681 0.58066833 1.8101332 -0.5604247
000170 dd f2 e6 3e 96 fe e2 be 3b a5 92 3f 0e d5 59 3c
       0.45107165 -0.4433486 1.1456674 0.013295425
000180 4a 5b d0 3e a3 b2 0d 3e c1 a7 dd 3d fa 5b d6 bf
       0.40694648 0.13837676 0.10823012 -1.6746819
000190 02 fb 89 bf 84 ac 94 bf 76 d6 b6 bf c6 e5 e6 bf
       -1.0779727 -1.1615148 -1.4284198 -1.8038871
0001a0 f6 f7 ec 3e 98 4b 9a 3f 3d 2e 93 3f 49 27 10 40
       0.4628293 1.2054319 1.1498486 2.2523978
0001b0 7c 94 0d be 99 58 84 bf 1c 86 88 bf 02 72 ff 3e
       -0.13826174 -1.0339538 -1.0665927 0.4989167
0001c0 7e 12 d4 3f ed c1 1b 3f ed 23 eb 3e 5a 62 fa 3f
       1.6568143 0.6084278 0.45925847 1.9561265
0001d0 bf 79 03 40 67 91 be bc 65 e4 5e 3d 1e 6c 0c 3d
       2.0543058 -0.023262693 0.054417033 0.034282796
0001e0 8b d1 e8 be cb 64 a3 be 9e 56 75 bf 4b c1 d0 bb
       -0.4547237 -0.31912836 -0.9583529 -0.0063706986
0001f0 b3 ea 42 bf 88 a6 9f be dd a2 60 bf 7a 91 9d be
       -0.7613937 -0.3118174 -0.8774851 -0.30775052

network_body._body_endoder.seq_layers.2.bias f4 [128]
000000 00 00 00 00 00 00 00 00 00 00 00 00 00 00 00 00
       0.0 0.0 0.0 0.0
000010 00 00 00 00 00 00 00 00 00 00 00 00 00 00 00 00
       0.0 0.0 0.0 0.0
000020 00 00 00 00 00 00 00 00 00 00 00 00 00 00 00 00
       0.0 0.0 0.0 0.0
000030 00 00 00 00 00 00 00 00 00 00 00 00 00 00 00 00
       0.0 0.0 0.0 0.0
000040 00 00 00 00 00 00 00 00 00 00 00 00 00 00 00 00
       0.0 0.0 0.0 0.0
000050 00 00 00 00 00 00 00 00 00 00 00 00 00 00 00 00
       0.0 0.0 0.0 0.0
000060 00 00 00 00 00 00 00 00 00 00 00 00 00 00 00 00
       0.0 0.0 0.0 0.0
000070 00 00 00 00 00 00 00 00 00 00 00 00 00 00 00 00
       0.0 0.0 0.0 0.0
000080 00 00 00 00 00 00 00 00 00 00 00 00 00 00 00 00
       0.0 0.0 0.0 0.0
000090 00 00 00 00 00 00 00 00 00 00 00 00 00 00 00 00
       0.0 0.0 0.0 0.0
0000a0 00 00 00 00 00 00 00 00 00 00 00 00 00 00 00 00
       0.0 0.0 0.0 0.0
0000b0 00 00 00 00 00 00 00 00 00 00 00 00 00 00 00 00
       0.0 0.0 0.0 0.0
0000c0 00 00 00 00 00 00 00 00 00 00 00 00 00 00 00 00
       0.0 0.0 0.0 0.0
0000d0 00 00 00 00 00 00 00 00 00 00 00 00 00 00 00 00
       0.0 0.0 0.0 0.0
0000e0 00 00 00 00 00 00 00 00 00 00 00 00 00 00 00 00
       0.0 0.0 0.0 0.0
0000f0 00 00 00 00 00 00 00 00 00 00 00 00 00 00 00 00
       0.0 0.0 0.0 0.0
000100 00 00 00 00 00 00 00 00 00 00 00 00 00 00 00 00
       0.0 0.0 0.0 0.0
000110 00 00 00 00 00 00 00 00 00 00 00 00 00 00 00 00
       0.0 0.0 0.0 0.0
000120 00 00 00 00 00 00 00 00 00 00 00 00 00 00 00 00
       0.0 0.0 0.0 0.0
000130 00 00 00 00 00 00 00 00 00 00 00 00 00 00 00 00
       0.0 0.0 0.0 0.0
000140 00 00 00 00 00 00 00 00 00 00 00 00 00 00 00 00
       0.0 0.0 0.0 0.0
000150 00 00 00 00 00 00 00 00 00 00 00 00 00 00 00 00
       0.0 0.0 0.0 0.0
000160 00 00 00 00 00 00 00 00 00 00 00 00 00 00 00 00
       0.0 0.0 0.0 0.0
000170 00 00 00 00 00 00 00 00 00 00 00 00 00 00 00 00
       0.0 0.0 0.0 0.0
000180 00 00 00 00 00 00 00 00 00 00 00 00 00 00 00 00
       0.0 0.0 0.0 0.0
000190 00 00 00 00 00 00 00 00 00 00 00 00 00 00 00 00
       0.0 0.0 0.0 0.0
0001a0 00 00 00 00 00 00 00 00 00 00 00 00 00 00 00 00
       0.0 0.0 0.0 0.0
0001b0 00 00 00 00 00 00 00 00 00 00 00 00 00 00 00 00
       0.0 0.0 0.0 0.0
0001c0 00 00 00 00 00 00 00 00 00 00 00 00 00 00 00 00
       0.0 0.0 0.0 0.0
0001d0 00 00 00 00 00 00 00 00 00 00 00 00 00 00 00 00
       0.0 0.0 0.0 0.0
0001e0 00 00 00 00 00 00 00 00 00 00 00 00 00 00 00 00
       0.0 0.0 0.0 0.0
0001f0 00 00 00 00 00 00 00 00 00 00 00 00 00 00 00 00
       0.0 0.0 0.0 0.0

network_body._body_endoder.seq_layers.2.weight f4 [128, 128]
000000 c5 f3 48 3d b9 ff 81 b8 b9 d6 32 3c 49 a4 dd 3c
       0.0490606 -6.1988314e-05 0.010915452 0.027055876
000010 84 dc d9 bd b2 1b 9b 3d 30 e3 60 bc c4 76 ae 3d
       -0.10637763 0.07573642 -0.013726041 0.085187465
000020 75 d2 73 3d 10 29 7a bd 86 48 1a be 48 e7 a8 3b
       0.05952688 -0.061074317 -0.15066728 0.005154524
000030 63 88 5d 3d 6f 96 ea 3d 2d 78 53 bd f1 b3 4a bd
       0.054085147 0.11454474 -0.05162828 -0.04948801
000040 a1 bb 44 bc 00 fe 27 3c 23 c7 96 bd 9c 13 8d 3c
       -0.012007625 0.010253429 -0.07362201 0.017221265
000050 69 6c c1 3c 0d 5c 37 3d 7c 11 b8 3b 15 7b 0c 3d
       0.023611264 0.04476552 0.0056173187 0.034297068
000060 a3 f9 79 3d 92 5f a9 bc 02 16 62 bd 2f 98 3d bd
       0.061029088 -0.020675454 -0.05519677 -0.04628771
000070 84 58 3c bd b8 42 d5 3d cb d6 88 3d 33 e3 0a be
       -0.045982853 0.10413116 0.066815935 -0.13563232
000080 68 07 23 3d c6 85 d7 bd 9a ff c5 3d c2 77 44 be
       0.039801985 -0.10523562 0.09667893 -0.19186309
000090 e7 05 00 3d c9 21 93 bd 16 7c 9a 3d a0 e7 92 3d
       0.03125563 -0.071841784 0.07543199 0.07173085
0000a0 a7 ff 65 3e c6 f6 b6 bc 8b fd e4 3c d3 40 b9 bd
       0.22460805 -0.022334468 0.02795293 -0.09045567
0000b0 a0 14 9f bd 71 0c 80 3d b4 9b 8b 3d c9 23 35 3d
       -0.07767606 0.06252373 0.068168074 0.04422358
0000c0 28 20 6c 3b 68 d9 47 bd f2 02 b8 bd c9 84 81 3d
       0.0036029909 -0.04879132 -0.08984937 0.06324155
0000d0 93 d1 4e 3d 0c 77 19 3d 94 24 2b 3d 70 2b 90 bd
       0.050492834 0.037467048 0.04178293 -0.07039535
0000e0 7d a5 09 bd 0b 2c 1d 3e 92 5b b5 3d e8 58 6e bd
       -0.033605088 0.15348832 0.08855356 -0.058190256
0000f0 c2 05 4a bd e9 b7 d7 ba 72 6c 33 3e 1d 3b d3 3d
       -0.049321897 -0.0016458008 0.17521837 0.10314009
000100 29 b6 46 3c 26 2a c9 bd d9 4b e2 bd 0a 02 d1 bc
       0.012128391 -0.09822492 -0.11049623 -0.025513668
000110 fa c6 80 3c 89 88 b1 bd 2d fa a1 bd 68 f3 3a bc
       0.01571988 -0.0866862 -0.07909045 -0.011410572
000120 5b 8a 37 bd d9 39 b0 3c 2f 81 04 3d e1 b7 5f bd
       -0.04480968 0.021511959 0.03234976 -0.05461872
000130 6a 6b 7a bb 98 75 8d 3b 60 99 39 be 97 64 07 be
       -0.0038210996 0.004316997 -0.18124914 -0.13221966
000140 d8 52 53 be 57 f1 d3 bd 84 1e 24 be 6c 71 15 3e
       -0.20637071 -0.10348766 -0.16027266 0.14594048
000150 f0 9b 2f 3d c1 2f cd bd a6 24 c7 3a 76 b3 a9 3d
       0.042873323 -0.10018874 0.0015193417 0.082861826
000160 15 9f 12 3d 1d 42 7f be 06 e8 2b 3e 5b 17 c3 3d
       0.035796244 -0.24927564 0.16787729 0.09525939
000170 8d 32 98 3c 76 0d ac 3d cc d0 98 3c 1a 1b 3c 3d
       0.018578792 0.08401005 0.01865425 0.045924284
000180 bc 1b 00 be a9 57 0b 3d 30 6e 03 bd 6f cf c5 bd
       -0.1251058 0.034019146 -0.032087505 -0.096587054
000190 c1 98 4f bd f7 b1 35 be 64 d8 13 bc e8 3d 02 3d
       -0.050682787 -0.1774367 -0.0090237595 0.03179732
0001a0 fe 0b c5 bc 87 10 6c bd 0f d7 10 bd 4b d9 eb 3d
       -0.02405357 -0.05763295 -0.035361346 0.11516055
0001b0 93 79 a5 3d e0 1c 07 be e3 59 76 3d 0c 12 01 3d
       0.08079829 -0.13194609 0.060144316 0.03151135
0001c0 66 21 75 3d 9c ce 51 3e 69 7f 99 bd 3a cb ef 3d
       0.059846304 0.20488971 -0.07495005 0.11708684
0001d0 af e0 37 bd 03 61 8a bd bb 90 06 bc 61 4c e2 3c
       -0.04489201 -0.06756785 -0.008213217 0.02762431
0001e0 c9 0a 23 bd 33 7a bd bd 3d 74 da bc 5c 5a 0c be
       -0.039805207 -0.09251823 -0.026666755 -0.13706344
0001f0 39 44 45 bd b5 6a 1f bd a9 19 65 bd 40 d5 0f bd
       -0.048160765 -0.038920123 -0.055932675 -0.03511548
000200 94 9a 1c be 47 a1 0a bd fe 9b 03 be b0 c1 7c 3c
       -0.15293342 -0.033845212 -0.12852475 0.015427038
000210 17 65 16 be 2b 27 04 bd 00 8e b8 bd de b4 62 bc
       -0.14687 -0.032263916 -0.09011459 -0.013837067
000220 8d 42 00 3e 6e 6e 1b bd 89 7e 8e 3d e8 92 88 3c
       0.12525387 -0.03794711 0.069577284 0.016671613
000230 e2 80 24 be 48 86 b3 bb 42 a5 02 bd 54 e3 60 3d
       -0.1606479 -0.005478654 -0.031895883 0.054904297
000240 48 33 06 be 4a 93 ad bd ff b6 29 3b 4e be 1a 3e
       -0.131055 -0.08475359 0.0025896428 0.15111658
000250 fe 20 72 bd 5f 5e 9e bd 3d 83 5c bd b8 cf c9 bc
       -0.059113495 -0.077328436 -0.053836096 -0.02463518
000260 78 08 e3 3d 4c 83 2b 3e 7e 55 c3 bb 12 c6 92 3b
       0.110856 0.16749305 -0.005961119 0.004479178
000270 42 5e 5a bb 0a b6 dd 3c 5e c0 cc bd 77 ae ef 3d
       -0.0033320342 0.027064342 -0.09997629 0.117031984
000280 39 e1 85 3d bb 0c fa 3d 22 8f 09 be 4d 00 db 3d
       0.065370984 0.122094594 -0.13433507 0.10693417
000290 9b ed ae bc ff 15 18 be 74 2b a9 3c 19 c4 16 bd
       -0.021353533 -0.14852141 0.020650603 -0.036808107
0002a0 fc 3f 13 3e 3f f7 64 3d 24 5b 0c 3e 49 26 1f bd
       0.14379877 0.055899855 0.13706642 -0.03885487
0002b0 df da f6 3d d4 a4 60 3c 23 3b f7 3b 33 44 51 3c
       0.12053465 0.013711173 0.0075448914 0.012772608
0002c0 90 98 b9 3c 0f f3 fe bd 1f 6c 7a bd d5 25 18 bd
       0.022655755 -0.124487035 -0.06113827 -0.037145454
0002d0 f0 38 6e 3c 32 a0 bf 3c 42 ff 9d bd b8 4c a7 3d
       0.014539942 0.023391817 -0.07714702 0.0816893
0002e0 a5 7d ef bc 1d e3 ed 3d fb bb ab bd 74 ae 2f 3e
       -0.029234717 0.11615584 -0.08385464 0.17156392
0002f0 8c 65 a4 3c bc c4 6b be f7 b3 78 3a 15 77 82 3d
       0.020067953 -0.23024267 0.0009487266 0.06370369
000300 24 d6 ec bc aa 72 96 bb 43 df e7 3d 3c d4 90 bd
       -0.028910704 -0.0045913057 0.11321881 -0.070717305
000310 06 36 1a bd c8 5c 68 bc 58 13 91 bd e0 d2 4f 3d
       -0.037649177 -0.014182277 -0.07083768 0.050738215
000320 81 62 9d 3d e9 17 9b bd 33 1c 14 be 64 b1 31 be
       0.07684804 -0.0757292 -0.14463882 -0.17352825
000330 f2 09 9d bd 86 ae 87 bd 13 b4 27 bd ea e8 f2 3d
       -0.076679125 -0.066250846 -0.040943217 0.11860831
000340 30 09 72 3d 6c 4f c5 3d ab 3b f9 3d 14 b2 a0 3c
       0.059090793 0.09634289 0.12169584 0.019616164
000350 f3 79 a2 bd 20 28 8a 3d c6 d1 82 3d 37 0f 52 3d
       -0.07933416 0.067459345 0.06387667 0.05128404
000360 ec 93 de bd ea 4a 13 bc 8b f5 b3 3c e1 dc b8 bd
       -0.108680576 -0.008990029 0.02196767 -0.09026504
000370 f4 bf 0d bd d4 26 89 3d e5 01 18 bd 50 7d ee 3a
       -0.03460689 0.06696859 -0.03711118 0.0018195305
000380 30 e1 f4 bc 45 b9 cf 3c ca 06 f8 bd a0 ac ae bd
       -0.029892534 0.025356898 -0.1211067 -0.08529019
000390 d8 65 8b bd fd dd 4f bd 77 bd b3 3d 88 79 64 3d
       -0.068065345 -0.050748814 0.08776372 0.055779964
0003a0 87 0e d9 bc 30 e6 c2 ba 2f 9e 77 3d 23 b4 e6 bd
       -0.026496185 -0.0014869627 0.06045359 -0.11264827
0003b0 1e bc a3 3d e1 7e 44 bd 5d f4 2a 3d de ef 17 3e
       0.07994865 -0.047972564 0.04173695 0.14837596
0003c0 10 83 8a bc e2 e1 bb bd 73 16 6b bb e1 8a 49 bc
       -0.016908199 -0.09173943 -0.0035871535 -0.012301178
0003d0 d5 7e e5 3c a3 81 f1 3c c5 b9 12 3e 1b 6d 77 bd
       0.02801458 0.02948076 0.14328678 -0.060406785
0003e0 09 24 ab 3d f6 c6 ca 3d 1f c8 81 3c d2 7a 9e 3c
       0.083564825 0.0990123 0.015842495 0.019345675
0003f0 2f 01 0e be 8d 3b 27 3d c0 c2 bd 3d e7 8a c6 3d
       -0.13867639 0.040828276 0.09265661 0.09694462
