results/ppo/EatFood/EatFood-1728.pt (torch, 145423 bytes, 12 tensors)

network_body._body_endoder.seq_layers.0.weight f4 [128, 2]
0	0xbf00af15	-0.50267154
1	0xbfc03afb	-1.5018
2	0x3f86b56c	1.0524116
3	0x3e8d4c74	0.27597392
4	0x3f9d0dc4	1.2269826
5	0x3f5c955f	0.8616542
6	0xbeb0c859	-0.34527853
7	0xbe0a8af8	-0.13529575
8	0x3f156a11	0.5836497
9	0xbe6c10d3	-0.23053293
10	0xbca793cd	-0.02045622
11	0xbfb91cdc	-1.4461932
12	0xbd7568b2	-0.0599143
13	0xbeff2b35	-0.49837652
14	0x3e0f488d	0.1399252
15	0xbcc2cc43	-0.02377904
16	0x3f3ebd4f	0.7450761
17	0x3f91d08d	1.139177
18	0x3f28ae2d	0.6589077
19	0xbe86b730	-0.26311636
20	0xbeefbd58	-0.46824145
21	0xbf8173c2	-1.0113451
22	0x3e3f22e2	0.1866565
23	0x3d5e6644	0.054296747
24	0xbdc367a2	-0.09541251
25	0x3eae725d	0.34071627
26	0xbed6f7ec	-0.41986024
27	0x3f0e31f2	0.5554496
28	0x3f0b4508	0.5440221
29	0xbf729510	-0.947587
30	0x3eddbb22	0.43306834
31	0x3da02a83	0.078206085
32	0x3f2cca0f	0.67495817
33	0x3e2409b8	0.16019332
34	0xbed71c43	-0.4201375
35	0x3f32fe36	0.69919145
36	0x3dc8a0db	0.09796306
37	0xbce6beac	-0.028167091
38	0xbed9cc0b	-0.42538485
39	0xbf061f86	-0.5239185
40	0xbe3f5b84	-0.18687254
41	0x3f567c66	0.83783567
42	0x3f03fdf9	0.51559407
43	0xbe843f34	-0.2582947
44	0x3e5d2ccd	0.21599121
45	0xbe80c7cc	-0.25152433
46	0x3f37c74e	0.7178849
47	0xbed80881	-0.42193988
48	0xbe9bf099	-0.30457
49	0xbf654d90	-0.89571476
50	0x3ee04b24	0.43807328
51	0xbe82ef49	-0.25573185
52	0xbf77e127	-0.9682793
53	0xbed6be78	-0.4194219
54	0xbddc9cb3	-0.107720755
55	0x3e9a6cd4	0.30161154
56	0x3f8ea52c	1.1144156
57	0xbec0b5ec	-0.37638795
58	0xbee69de7	-0.45042345
59	0xbf09391a	-0.53602755
60	0xbfaf132e	-1.3677728
61	0xbe1a6a95	-0.1507972
62	0x3f2dfbe1	0.6796246
63	0x3e4bd6de	0.19906184
64	0xbedabcb7	-0.42722103
65	0xbe33458b	-0.17506997
66	0x3ebb7d44	0.36619008
67	0xbf7067d4	-0.9390843
68	0x3ee5bd6e	0.44871086
69	0x3f075508	0.5286412
70	0x3f5cba27	0.86221546
71	0xbf7282b0	-0.94730663
72	0x3f2d716d	0.677512
73	0xbb2f2e63	-0.002673053
74	0xbf500f0f	-0.8127298
75	0x3f2af42b	0.6677882
76	0x3e5c5088	0.21515095
77	0xbf523066	-0.821051
78	0x3ef43a6e	0.47700828
79	0x3fcc677f	1.5969085
80	0x3dd4d135	0.103914656
81	0x3d795d7f	0.06088018
82	0xbec8337e	-0.39101785
83	0xbf4a09f1	-0.7892142
84	0xbb8cfc04	-0.0043025035
85	0xbeab24b9	-0.33426455
86	0x3e2115a3	0.1573091
87	0x3ef5a4d7	0.47977325
88	0xbba94c06	-0.0051665334
89	0x3f5aaa68	0.8541627
90	0x3f9f4cdc	1.2445331
91	0xbea21262	-0.3165465
92	0xbe603f50	-0.21899152
93	0xbf4e0318	-0.8047347
94	0x3ea9d4b6	0.33170098
95	0xbf34f15b	-0.7068078
96	0xbf0802f3	-0.531295
97	0xbefdbf72	-0.49560124
98	0xbeb4d931	-0.35321954
99	0x3f17a65b	0.59238213
100	0xbc322840	-0.010873854
101	0xbec233ca	-0.37930137
102	0x3f8ac4e8	1.0841341
103	0xbf974691	-1.181841
104	0x3d6b4702	0.057440765
105	0xbf0c1136	-0.5471376
106	0xbf4f9f7b	-0.8110272
107	0xbf68894f	-0.90834516
108	0x3f903c31	1.1268369
109	0xbf14e237	-0.58157676
110	0x3f904ed1	1.1274053
111	0xbf9a7d3d	-1.206947
112	0x3dcfe576	0.10151188
113	0xbf1ac7f2	-0.6046134
114	0x3f477beb	0.7792346
115	0xbf3ded0f	-0.7418985
116	0x3f01ffbd	0.5078085
117	0x3f9cea1b	1.2258943
118	0x3e331bf0	0.17491126
119	0xbe9b2bc8	-0.3030684
120	0x3debe970	0.11519134
121	0xbf9b5577	-1.2135457
122	0xbf97c26f	-1.1856211
123	0xbd885432	-0.06656684
124	0x3f1e15b6	0.6175188
125	0xbf0f7efd	-0.56053144
126	0xbf508671	-0.8145514
127	0xbe7e0fc1	-0.24810697
128	0x3f01e08e	0.5073327
129	0xbf3d8b2b	-0.7404048
130	0xbf279ec2	-0.6547662
131	0xbe411111	-0.18854167
132	0x3f02c445	0.51080734
133	0x3dad64f1	0.08466519
134	0x3e51be76	0.20482811
135	0xbf5a23b4	-0.8521073
136	0x3f785f65	0.9702056
137	0x3f355591	0.7083369
138	0xbea47125	-0.32117572
139	0xbeffa116	-0.49927586
140	0x3f26c77b	0.65148133
141	0x3ed28bc0	0.41122246
142	0x3edb16b6	0.42790765
143	0xbf8567f8	-1.0422354
144	0x3eccc2f1	0.39992478
145	0x3f4fa8e6	0.81117094
146	0x3e79f06e	0.24408123
147	0x3dbc7de9	0.09203703
148	0x3e2f604e	0.17126581
149	0x3f6525c8	0.89510775
150	0xbf3b492e	-0.7315854
151	0x3ecd9c82	0.40158468
152	0x3f82c247	1.0215539
153	0xbf7c9378	-0.9866252
154	0x3fd1e957	1.6399335
155	0xbf1e5538	-0.61848783
156	0x3eb50226	0.35353202
157	0xbedd99af	-0.43281314
158	0xbe3eaa17	-0.18619572
159	0xbe956a91	-0.29182866
160	0x3fdea4e1	1.7394067
161	0x3f3600d4	0.71095014
162	0x3ed44a40	0.41462898
163	0xbe06189f	-0.1309533
164	0xbf4310b4	-0.7619736
165	0xbf0e82fa	-0.55668604
166	0xbec8083c	-0.39068782
167	0x3eb89fab	0.36059317
168	0xbf4edd36	-0.8080629
169	0x3e6eee0b	0.23332994
170	0xbeb84b4d	-0.3599495
171	0xbf332c2f	-0.69989294
172	0xbea20e2a	-0.3165143
173	0x3ef0daa9	0.47041824
174	0xbf46258f	-0.7740106
175	0xbf5c6381	-0.8608933
176	0x3e977c9c	0.29587257
177	0x3f415da6	0.7553352
178	0xbf261adb	-0.6488473
179	0xbf44095d	-0.7657679
180	0xbf956f16	-1.1674526
181	0xbe3afb7a	-0.18259993
182	0xbf09baff	-0.5380096
183	0x3f261268	0.64871836
184	0x3fa79dd7	1.3095044
185	0xbe883dd8	-0.26609683
186	0xbed5e874	-0.4177891
187	0xbc9f8b43	-0.019475585
188	0xbe2f6808	-0.17129529
189	0x3effa4a2	0.49930292
190	0x3f5c071d	0.85948354
191	0xbfea13ad	-1.8287255
192	0x3d90372f	0.070417754
193	0xbd66eec6	-0.056380056
194	0x3e87de54	0.2653681
195	0x3e1d5df9	0.15367879
196	0x3f4bedcc	0.79659724
197	0x3ee52562	0.44755083
198	0xbd31e8b7	-0.043434825
199	0xbeb5d250	-0.35512018
200	0xbf0d1d38	-0.5512271
201	0x3f45dbe2	0.7728864
202	0xbe31e3ff	-0.1737213
203	0x3f2daa65	0.67838126
204	0x3ed5a06b	0.41723952
205	0x3f42d56f	0.76106924
206	0xbe01efab	-0.12689082
207	0xbe9feb3c	-0.31234157
208	0xbf0d8866	-0.5528625
209	0x3efd4d3b	0.49472985
210	0xbf924042	-1.142586
211	0xbe57afae	-0.2106311
212	0xbd218b12	-0.03943927
213	0xbfae67cc	-1.3625426
214	0xbf0daa26	-0.5533775
215	0xbf69d8e3	-0.9134657
216	0x3efdc0e9	0.4956124
217	0xbd1a9511	-0.037739817
218	0x3f3f39e8	0.7469773
219	0xbcc4547b	-0.023966065
220	0x3d910951	0.07081855
221	0x3e86f1f4	0.2635647
222	0xbf48a307	-0.7837376
223	0x3f8dd0f9	1.1079398
224	0xbf431387	-0.7620167
225	0xbe53787e	-0.20651433
226	0xbd2d2724	-0.042273656
227	0xbe26f5a5	-0.16304643
228	0x3f43322d	0.7624844
229	0x3f23bf36	0.6396364
230	0x3f24080d	0.64074785
231	0x3f51228d	0.81693345
232	0xbf23bce1	-0.6396008
233	0x3e997d8c	0.29978597
234	0xbdf2b891	-0.118516095
235	0xbec469c5	-0.38361946
236	0xbf18416f	-0.59474844
237	0x3f65c84d	0.8975876
238	0xbe03a6b9	-0.12856568
239	0x3f34eaed	0.7067097
240	0xbeb58e88	-0.35460305
241	0x3e91cdc8	0.2847731
242	0xbe13e64c	-0.1444332
243	0xbed9f71f	-0.4257135
244	0xbe8b7e20	-0.27244663
245	0x3ee8ab81	0.45443347
246	0xbe66961b	-0.22518198
247	0xbda93f2d	-0.08264003
248	0x3ee97f8c	0.45605123
249	0x3f4779f0	0.77920437
250	0x3e138880	0.1440754
251	0xbed4e092	-0.41577584
252	0xbe292a0b	-0.16519944
253	0xbf16472f	-0.5870237
254	0xbe182d33	-0.14860992
255	0xbf0bf34d	-0.5466812

network_body._body_endoder.seq_layers.0.bias f4 [128]
0	0x00000000	0.0
1	0x00000000	0.0
2	0x00000000	0.0
3	0x00000000	0.0
4	0x00000000	0.0
5	0x00000000	0.0
6	0x00000000	0.0
7	0x00000000	0.0
8	0x00000000	0.0
9	0x00000000	0.0
10	0x00000000	0.0
11	0x00000000	0.0
12	0x00000000	0.0
13	0x00000000	0.0
14	0x00000000	0.0
15	0x00000000	0.0
16	0x00000000	0.0
17	0x00000000	0.0
18	0x00000000	0.0
19	0x00000000	0.0
20	0x00000000	0.0
21	0x00000000	0.0
22	0x00000000	0.0
23	0x00000000	0.0
24	0x00000000	0.0
25	0x00000000	0.0
26	0x00000000	0.0
27	0x00000000	0.0
28	0x00000000	0.0
29	0x00000000	0.0
30	0x00000000	0.0
31	0x00000000	0.0
32	0x00000000	0.0
33	0x00000000	0.0
34	0x00000000	0.0
35	0x00000000	0.0
36	0x00000000	0.0
37	0x00000000	0.0
38	0x00000000	0.0
39	0x00000000	0.0
40	0x00000000	0.0
41	0x00000000	0.0
42	0x00000000	0.0
43	0x00000000	0.0
44	0x00000000	0.0
45	0x00000000	0.0
46	0x00000000	0.0
47	0x00000000	0.0
48	0x00000000	0.0
49	0x00000000	0.0
50	0x00000000	0.0
51	0x00000000	0.0
52	0x00000000	0.0
53	0x00000000	0.0
54	0x00000000	0.0
55	0x00000000	0.0
56	0x00000000	0.0
57	0x00000000	0.0
58	0x00000000	0.0
59	0x00000000	0.0
60	0x00000000	0.0
61	0x00000000	0.0
62	0x00000000	0.0
63	0x00000000	0.0
64	0x00000000	0.0
65	0x00000000	0.0
66	0x00000000	0.0
67	0x00000000	0.0
68	0x00000000	0.0
69	0x00000000	0.0
70	0x00000000	0.0
71	0x00000000	0.0
72	0x00000000	0.0
73	0x00000000	0.0
74	0x00000000	0.0
75	0x00000000	0.0
76	0x00000000	0.0
77	0x00000000	0.0
78	0x00000000	0.0
79	0x00000000	0.0
80	0x00000000	0.0
81	0x00000000	0.0
82	0x00000000	0.0
83	0x00000000	0.0
84	0x00000000	0.0
85	0x00000000	0.0
86	0x00000000	0.0
87	0x00000000	0.0
88	0x00000000	0.0
89	0x00000000	0.0
90	0x00000000	0.0
91	0x00000000	0.0
92	0x00000000	0.0
93	0x00000000	0.0
94	0x00000000	0.0
95	0x00000000	0.0
96	0x00000000	0.0
97	0x00000000	0.0
98	0x00000000	0.0
99	0x00000000	0.0
100	0x00000000	0.0
101	0x00000000	0.0
102	0x00000000	0.0
103	0x00000000	0.0
104	0x00000000	0.0
105	0x00000000	0.0
106	0x00000000	0.0
107	0x00000000	0.0
108	0x00000000	0.0
109	0x00000000	0.0
110	0x00000000	0.0
111	0x00000000	0.0
112	0x00000000	0.0
113	0x00000000	0.0
114	0x00000000	0.0
115	0x00000000	0.0
116	0x00000000	0.0
117	0x00000000	0.0
118	0x00000000	0.0
119	0x00000000	0.0
120	0x00000000	0.0
121	0x00000000	0.0
122	0x00000000	0.0
123	0x00000000	0.0
124	0x00000000	0.0
125	0x00000000	0.0
126	0x00000000	0.0
127	0x00000000	0.0

network_body._body_endoder.seq_layers.2.weight f4 [128, 128]
0	0xbd66f3b6	-0.056384765
1	0xbbdd4b0d	-0.0067533315
2	0xbc839091	-0.016060146
3	0x3beaede1	0.0071694707
4	0xbcf39403	-0.029733663
5	0x3ceed3e9	0.029153781
6	0x3d59f164	0.053208724
7	0x3c0f4c2d	0.008746189
8	0xbd92a575	-0.07160465
9	0xbd66531c	-0.056231603
10	0xbd35720c	-0.044298217
11	0xbd4e86d5	-0.050421555
12	0x39c77919	0.00038046463
13	0x3e2a71b5	0.16644938
14	0xbd5a4e73	-0.05329747
15	0xbd20f79d	-0.039298642
16	0x3d88189f	0.06645321
17	0xbd1723f1	-0.03689951
18	0xbc91c916	-0.01779608
19	0x3e0114d0	0.12605596
20	0x3c9f05df	0.01941198
21	0xbd93b884	-0.07212928
22	0xbd6ffe25	-0.05859198
23	0xbd2c21ab	-0.042024296
24	0xbe0541ff	-0.13013457
25	0xbe0fce2d	-0.14043494
26	0xbb9efc80	-0.0048518777
27	0x3c9f1742	0.01942027
28	0xbda2ab62	-0.07942845
29	0x3a8fc020	0.0010967292
30	0x3d2fa069	0.04287759
31	0xbe53990f	-0.20663856
32	0xbd84636f	-0.06464278
33	0xbe152f2e	-0.14568779
34	0x3d2e4def	0.042554792
35	0x3caf0fd4	0.021369852
36	0xbdaa63c2	-0.083198085
37	0x3d63288f	0.0554586
38	0x3dcc0742	0.09962322
39	0x3d65844c	0.05603437
40	0xbd57d0ea	-0.05268947
41	0xbdb3a4b5	-0.0877165
42	0xbdb4eab8	-0.088338315
43	0x3e039688	0.12850392
44	0x3b6b1960	0.003587328
45	0xbdd61975	-0.10454074
46	0x3e08e0cb	0.13367002
47	0x3d9b2c3c	0.075767964
48	0x3e06fb47	0.13181792
49	0x3d0bc1d1	0.034120385
50	0x3dabc204	0.08386615
51	0x3d255b8b	0.040370505
52	0xbcac8b36	-0.021062475
53	0x3da9aacb	0.08284529
54	0x3e1705cd	0.14748307
55	0xbdd698c7	-0.10478359
56	0xbd454a77	-0.04816672
57	0x3ca883dc	0.020570688
58	0xbe3db2f4	-0.18525296
59	0x3c7b8cb3	0.0153533695
60	0x3e08f6f5	0.13375457
61	0x3e0fb51c	0.14033931
62	0x3e4ddc98	0.20103681
63	0x3e75b11f	0.23993348
64	0xbd697055	-0.056991894
65	0x3d6f99c9	0.05849627
66	0xbe8b41b4	-0.27198565
67	0x3d969473	0.07352533
68	0x3c868afa	0.016423691
69	0xbdaee40e	-0.08539592
70	0x3dea65ed	0.11445222
71	0x3e3f2337	0.18665777
72	0xbda1c187	-0.078982405
73	0x3d4cb7e6	0.049980067
74	0x3df0fc17	0.11766832
75	0x3bbed9b8	0.005824294
76	0x3caad49b	0.020853331
77	0x3df62e4f	0.120205514
78	0x3db4e0c4	0.08831933
79	0xbd44832f	-0.04797667
80	0xbc9daafe	-0.019246574
81	0xbcf485f8	-0.029849038
82	0xbc3372d1	-0.010952667
83	0xbd33c701	-0.043890957
84	0xbc528fc0	-0.0128516555
85	0x3ba45927	0.0050155106
86	0x3da8d3c2	0.082435146
87	0x3d7aa8d7	0.061196174
88	0xbda18381	-0.078864105
89	0xbbf05c66	-0.0073352335
90	0x3e3432b5	0.17597468
91	0x3bc4eb51	0.006009497
92	0xbd0e6969	-0.034768496
93	0x3cfa5c21	0.030561509
94	0xbd0971f0	-0.033555925
95	0x3d90a930	0.0706352
96	0x3d488502	0.04895497
97	0xbd47a969	-0.048745546
98	0x3d027254	0.031847313
99	0xbd2b2049	-0.041778836
100	0x3d78ae59	0.060713146
101	0xbd5c091c	-0.053719625
102	0xbc01f393	-0.007931608
103	0xbd92222f	-0.07135426
104	0xbd070509	-0.032963786
105	0xbdffa3cc	-0.12482414
106	0xbdce673e	-0.10078286
107	0xbd9a0a05	-0.07521442
108	0xbd9428e5	-0.072343625
109	0xbdcc67fd	-0.09980772
110	0x3d632d55	0.055463154
111	0xbba66403	-0.0050778403
112	0x3daa3af0	0.08312023
113	0xbdd8e39c	-0.10590288
114	0xbd8dcd13	-0.069238804
115	0xbd3f0425	-0.046634812
116	0x3e151ccd	0.14561768
117	0x3d976aef	0.07393443
118	0xbd2a485d	-0.041572917
119	0xbd9a813f	-0.07544183
120	0x3e059a73	0.13047199
121	0xbb39cc5f	-0.0028350574
122	0x3dc373be	0.095435604
123	0x3da304c8	0.07959896
124	0x3d92073c	0.07130286
125	0xbc27a9d8	-0.010233365
126	0x3d88e521	0.06684328
127	0xbe659be3	-0.22422747
128	0xbd113e0b	-0.03545956
129	0xbd91eda3	-0.07125404
130	0xbd622117	-0.05520734
131	0x3defa212	0.11700834
132	0xbdfce093	-0.12347522
133	0xbd1b5dce	-0.037931256
134	0x3e2261ee	0.1585767
135	0x3ddf6345	0.10907606
136	0xbd922c42	-0.07137348
137	0x3dc800a4	0.09765747
138	0xbe240a42	-0.16019538
139	0x3d326096	0.043549143
140	0x3ccf8a0d	0.025334382
141	0x3e497987	0.19675265
142	0xbbe43299	-0.0069640395
143	0x3e217a3a	0.15769282
144	0xbe1eac06	-0.15495309
145	0xbdfad437	-0.12247508
146	0xbc3633f3	-0.011120784
147	0xbd824041	-0.06359912
148	0xbdb692ef	-0.08914744
149	0xbda5328e	-0.08066283
150	0xbd880f75	-0.06643573
151	0xbda974b4	-0.082742125
152	0xbc18ea37	-0.009333185
153	0xbc95a2bb	-0.018266072
154	0x3c9c9dcf	0.019118218
155	0xbd8f0b9c	-0.06984636
156	0x3dd96904	0.10615733
157	0x3bc1dae4	0.0059159864
158	0x3d5471a9	0.051866207
159	0xbcfeead4	-0.031117834
160	0xbcaa0a60	-0.0207569
161	0xbdd31afc	-0.10307881
162	0xbe1d4705	-0.15359123
163	0x3df12c3b	0.117760144
164	0x3c0db37c	0.008648749
165	0x3cc2ce46	0.02378
166	0x3d0de494	0.034641817
167	0xbe088450	-0.13331723
168	0xbdf09436	-0.11747019
169	0x3dd00d93	0.10158839
170	0x3e20ef70	0.15716338
171	0x3dde0e1d	0.10842536
172	0x3dcf7e78	0.10131544
173	0xbdf3c900	-0.11903572
174	0x3c702091	0.014656202
175	0x3db01d79	0.085993715
176	0x3e145c75	0.14488395
177	0x3cb9bb01	0.022672178
178	0xbdfcc1a1	-0.12341619
179	0x3c2fe4e9	0.010735729
180	0x3b91afd2	0.0044460082
181	0xbd37bff4	-0.044860795
182	0x3960177c	0.00021371053
183	0x3b2c2bae	0.0026271152
184	0xbdf22bc8	-0.11824757
185	0x3c6bc2ae	0.014389677
186	0x3de53802	0.11192323
187	0x3a4037f2	0.0007332555
188	0xbd90c285	-0.07068352
189	0x3d283aa4	0.04107155
190	0xbe1ce627	-0.15322171
191	0xbe7e68e4	-0.248447
192	0xbd2594fb	-0.040425282
193	0xbe400158	-0.18750513
194	0x3c2b5449	0.010457107
195	0x3d40dfa0	0.047088265
196	0xbd22e527	-0.039769318
197	0xbd1dcd65	-0.038525958
198	0x3dc6e628	0.097118676
199	0x3dc17194	0.094454914
200	0x3e776947	0.24161254
201	0x3d85998a	0.06523426
202	0x3dccb17c	0.0999479
203	0xbdcea792	-0.10090555
204	0x3d28992f	0.041161712
205	0x3cd47f6b	0.025939664
206	0xbd400428	-0.046878964
207	0x3e187559	0.14888515
208	0xbbf84aef	-0.007577292
209	0x3c7cbc42	0.015425744
210	0x3e1e7406	0.15473947
211	0xbcb93d4b	-0.022612235
212	0x3d2cd342	0.04219366
213	0xbdeb3492	-0.11484636
214	0xbdd82c05	-0.10555271
215	0xbdf4c9f9	-0.11952586
216	0xbda0bfb8	-0.078490674
217	0x3e37e4ff	0.17958449
218	0x3b1a1703	0.0023512251
219	0xbb12a3ee	-0.0022375542
220	0x3ce0eec8	0.02745761
221	0x3d6282d2	0.05530054
222	0x3d9c968a	0.076459005
223	0xbd0e65b9	-0.03476498
224	0xbb7857be	-0.0037894095
225	0x3dcc6890	0.09980881
226	0x3c6e12f4	0.014530886
227	0xbe108200	-0.14112091
228	0x3e836341	0.25661662
229	0x3e82216a	0.25416118
230	0x3e1d88c0	0.15384197
231	0x3d3cab9d	0.0460621
232	0x3d1a4bf5	0.037670095
233	0xbcc9a652	-0.02461544
234	0xbe0ea8f6	-0.13931641
235	0xbc570fcf	-0.013126328
236	0xbdbb9cef	-0.09160792
237	0x3d8d8da5	0.06911782
238	0xbcb9dd4b	-0.022688529
239	0xbd661783	-0.056174766
240	0xbd33308d	-0.043747474
241	0x3e1e2670	0.1544435
242	0x3cade478	0.021227106
243	0x3de2a961	0.11067463
244	0xbe56eeb9	-0.20989503
245	0xbcdd0433	-0.026979541
246	0x3d160df6	0.036634408
247	0xbddc0cc5	-0.10744623
248	0xbcf75765	-0.03019304
249	0x3b992462	0.0046735266
250	0x3d4b0ffd	0.049575794
251	0xbe21df3c	-0.15807813
252	0xbdf798fc	-0.12089726
253	0x3e729a41	0.23691656
254	0xbd425bf6	-0.047450982
255	0xbe103670	-0.14083266

network_body._body_endoder.seq_layers.2.bias f4 [128]
0	0x00000000	0.0
1	0x00000000	0.0
2	0x00000000	0.0
3	0x00000000	0.0
4	0x00000000	0.0
5	0x00000000	0.0
6	0x00000000	0.0
7	0x00000000	0.0
8	0x00000000	0.0
9	0x00000000	0.0
10	0x00000000	0.0
11	0x00000000	0.0
12	0x00000000	0.0
13	0x00000000	0.0
14	0x00000000	0.0
15	0x00000000	0.0
16	0x00000000	0.0
17	0x00000000	0.0
18	0x00000000	0.0
19	0x00000000	0.0
20	0x00000000	0.0
21	0x00000000	0.0
22	0x00000000	0.0
23	0x00000000	0.0
24	0x00000000	0.0
25	0x00000000	0.0
26	0x00000000	0.0
27	0x00000000	0.0
28	0x00000000	0.0
29	0x00000000	0.0
30	0x00000000	0.0
31	0x00000000	0.0
32	0x00000000	0.0
33	0x00000000	0.0
34	0x00000000	0.0
35	0x00000000	0.0
36	0x00000000	0.0
37	0x00000000	0.0
38	0x00000000	0.0
39	0x00000000	0.0
40	0x00000000	0.0
41	0x00000000	0.0
42	0x00000000	0.0
43	0x00000000	0.0
44	0x00000000	0.0
45	0x00000000	0.0
46	0x00000000	0.0
47	0x00000000	0.0
48	0x00000000	0.0
49	0x00000000	0.0
50	0x00000000	0.0
51	0x00000000	0.0
52	0x00000000	0.0
53	0x00000000	0.0
54	0x00000000	0.0
55	0x00000000	0.0
56	0x00000000	0.0
57	0x00000000	0.0
58	0x00000000	0.0
59	0x00000000	0.0
60	0x00000000	0.0
61	0x00000000	0.0
62	0x00000000	0.0
63	0x00000000	0.0
64	0x00000000	0.0
65	0x00000000	0.0
66	0x00000000	0.0
67	0x00000000	0.0
68	0x00000000	0.0
69	0x00000000	0.0
70	0x00000000	0.0
71	0x00000000	0.0
72	0x00000000	0.0
73	0x00000000	0.0
74	0x00000000	0.0
75	0x00000000	0.0
76	0x00000000	0.0
77	0x00000000	0.0
78	0x00000000	0.0
79	0x00000000	0.0
80	0x00000000	0.0
81	0x00000000	0.0
82	0x00000000	0.0
83	0x00000000	0.0
84	0x00000000	0.0
85	0x00000000	0.0
86	0x00000000	0.0
87	0x00000000	0.0
88	0x00000000	0.0
89	0x00000000	0.0
90	0x00000000	0.0
91	0x00000000	0.0
92	0x00000000	0.0
93	0x00000000	0.0
94	0x00000000	0.0
95	0x00000000	0.0
96	0x00000000	0.0
97	0x00000000	0.0
98	0x00000000	0.0
99	0x00000000	0.0
100	0x00000000	0.0
101	0x00000000	0.0
102	0x00000000	0.0
103	0x00000000	0.0
104	0x00000000	0.0
105	0x00000000	0.0
106	0x00000000	0.0
107	0x00000000	0.0
108	0x00000000	0.0
109	0x00000000	0.0
110	0x00000000	0.0
111	0x00000000	0.0
112	0x00000000	0.0
113	0x00000000	0.0
114	0x00000000	0.0
115	0x00000000	0.0
116	0x00000000	0.0
117	0x00000000	0.0
118	0x00000000	0.0
119	0x00000000	0.0
120	0x00000000	0.0
121	0x00000000	0.0
122	0x00000000	0.0
123	0x00000000	0.0
124	0x00000000	0.0
125	0x00000000	0.0
126	0x00000000	0.0
127	0x00000000	0.0

action_model._continuous_distribution.log_sigma f4 [1, 2]
0	0x00000000	0.0
1	0x00000000	0.0

action_model._continuous_distribution.mu.weight f4 [2, 128]
0	0x3b62f288	0.0034629423
1	0x3c85389f	0.01626235
2	0x3ccbbe06	0.024870884
3	0xbc10e9bf	-0.008844792
4	0x3bb0b288	0.0053923763
5	0xbc9c232e	-0.019059744
6	0xbcd302f5	-0.025758246
7	0xbc90a4ef	-0.017656771
8	0x3c469f09	0.012122878
9	0xbc9539b7	-0.018215997
10	0xbae78ddf	-0.0017666182
11	0x3ce74a32	0.028233621
12	0xbc0848ed	-0.008318168
13	0xbc3b133b	-0.011418159
14	0xbc93ba41	-0.018033149
15	0xbb7e05bb	-0.003876074
16	0xbb63e17a	-0.0034771846
17	0xbc8a7337	-0.016900642
18	0xbb8e8d30	-0.004350327
19	0x3d31cf31	0.043410484
20	0xbc067f92	-0.008209126
21	0x3c37ef0b	0.011226426
22	0xbba56671	-0.0050476124
23	0xbbdd0790	-0.0067452863
24	0xbc890c47	-0.016729487
25	0x3be04437	0.0068440693
26	0xbaf94dfa	-0.0019020431
27	0x3bef0127	0.0072938385
28	0x3bf11c0d	0.0073580802
29	0xbb8be7ef	-0.004269592
30	0xbc455147	-0.012043304
31	0x3b7a47ba	0.0038189725
32	0xbbc31b00	-0.0059541464
33	0x3c6c222a	0.014412442
34	0xbb12c0dd	-0.0022392788
35	0xbbf6d7eb	-0.0075330636
36	0x3c3b6dd1	0.0114397565
37	0xbbbc26cb	-0.005741929
38	0x3a869c04	0.0010269885
39	0x3a0765b2	0.0005164995
40	0xbc636ac3	-0.013880434
41	0x3c15328b	0.009106289
42	0xbd13973b	-0.036032896
43	0xbd1d07c0	-0.03833747
44	0x3c83caa1	0.016087832
45	0xbbb1bf90	-0.0054244474
46	0x3c826c4b	0.015920779
47	0x3c96874f	0.018375067
48	0xbb5cc963	-0.0033689372
49	0x3af2c01a	0.0018520385
50	0xbc480ead	-0.01221053
51	0xbc0af06f	-0.008480175
52	0x3bece7cf	0.007229782
53	0x3cb629b7	0.022236688
54	0x3c14b5fa	0.00907659
55	0xbd3153d9	-0.043292854
56	0xbd396cfd	-0.045269955
57	0xbd4ee1bd	-0.05050825
58	0xbcf7c0e5	-0.030243346
59	0x3c28eb9f	0.010310083
60	0xbc893074	-0.016746737
61	0x3bf20228	0.007385511
62	0x3c08a102	0.0083391685
63	0x3d303b57	0.04302534
64	0x3cbdde12	0.02317718
65	0x3c8f9ba3	0.017530268
66	0xbb68716b	-0.0035467993
67	0x3caeb26d	0.021325314
68	0xbbcb5b6c	-0.0062059667
69	0xbc56d475	-0.013112177
70	0x3c6e8eef	0.014560445
71	0x3c942b8f	0.018087177
72	0xbb99e7ef	-0.004696838
73	0x3a8c9862	0.0010726566
74	0x3bd891f2	0.006609195
75	0x3cbbe32b	0.02293547
76	0xbccd3443	-0.025049334
77	0xbb8cca33	-0.004296565
78	0xbb469951	-0.0030303786
79	0x3d098e0b	0.03358273
80	0xbc51ee78	-0.012813203
81	0xbbdf6a5f	-0.0068181003
82	0xbc091ac7	-0.008368201
83	0x3ca527fb	0.020160666
84	0x3cc4f997	0.024044795
85	0x3be64a98	0.0070279352
86	0x3bf9f1a2	0.007627682
87	0xbc8613be	-0.016366836
88	0x3b8bdaf0	0.0042680427
89	0x3d0a8144	0.033814684
90	0xbca54655	-0.020175138
91	0xbc527d65	-0.012847279
92	0xbce21a3d	-0.027600402
93	0x3c83492a	0.016026098
94	0x3befe987	0.00732154
95	0xbb3472ef	-0.0027534326
96	0x3b92a5a6	0.0044753132
97	0x3c4cf06a	0.012508491
98	0x3cb82603	0.022479063
99	0xbc56d37b	-0.013111944
100	0xbcd6f598	-0.026240155
101	0x3ba2c5ae	0.004967413
102	0xbccda505	-0.025103102
103	0xbc1ffb44	-0.009764496
104	0x3c9e9dcf	0.019362358
105	0xbc017214	-0.0079007335
106	0x3c1da4a3	0.009621772
107	0x3be60bc8	0.0070204474
108	0xbc6acbe7	-0.014330841
109	0x3c61bf60	0.0137785375
110	0xbcc6d867	-0.02427311
111	0xbcbd4fc0	-0.023109317
112	0x3cab68b7	0.020923955
113	0xbb77fc08	-0.0037839431
114	0x3a8b3971	0.0010621977
115	0x3c97810e	0.018494155
116	0xbcb41377	-0.021981938
117	0x3c36523a	0.011128003
118	0x3b190662	0.0023349752
119	0xbcba796c	-0.022762977
120	0x3aba9f6b	0.0014238184
121	0xbbcd4a68	-0.0062649734
122	0x3d699992	0.05703122
123	0xbc3cbf7e	-0.011520265
124	0x3ae2425d	0.001726221
125	0xbbdb2dbd	-0.006688802
126	0xbc20bfb5	-0.0098113315
127	0x3c1297a0	0.008947283
128	0x3c06210f	0.008186593
129	0x3b0596e7	0.0020384134
130	0xbc653c23	-0.0139913885
131	0xbcb9d8b5	-0.022686342
132	0xbcd72417	-0.026262326
133	0x3a77b3c7	0.0009449091
134	0x3be5fe8b	0.0070188693
135	0x3cf004c3	0.029299146
136	0xbc660272	-0.014038669
137	0x3c82ccba	0.015966762
138	0xbbd37eda	-0.006454331
139	0xbc88176a	-0.016612727
140	0x3c8fa5f5	0.01753519
141	0x3c18a56b	0.0093167825
142	0x3d06b1ac	0.032884285
143	0x3c02f134	0.007992078
144	0xbc3b06e0	-0.011415213
145	0x3ce34bfb	0.027746191
146	0x3cfec73b	0.03110086
147	0x3c79b818	0.015241645
148	0x3b62ddea	0.0034617134
149	0x3bfa8a9b	0.0076459176
150	0xbd4f2a97	-0.050577726
151	0x3c03600b	0.008018504
152	0x3aa725b1	0.0012752322
153	0xbcebd080	-0.028785944
154	0x3c93d179	0.01804422
155	0x3c4f5855	0.012655337
156	0x3947b5e3	0.00019045877
157	0xbcac5ef0	-0.021041363
158	0xbb488209	-0.0030595085
159	0xbc6ca10f	-0.014442696
160	0x3d2f4afa	0.042796113
161	0xbc8b4586	-0.017000925
162	0x3c04e4af	0.008111163
163	0xbc5d988d	-0.0135251405
164	0xbb31ea09	-0.0027147552
165	0x3c5f5c2f	0.013632818
166	0xbb4068e6	-0.00293594
167	0xbc845fb5	-0.016158918
168	0xbc90a5b5	-0.01765714
169	0x3c3b3e59	0.011428439
170	0x3bccb64b	0.006247317
171	0x3c2bfe4a	0.010497639
172	0xba0fe55b	-0.0005489194
173	0x3cb70284	0.022340067
174	0xbbe77dc3	-0.0070645525
175	0x3cda0677	0.02661441
176	0x3c6b54e8	0.014363505
177	0xbc186f08	-0.009303816
178	0xbc8b504a	-0.017006058
179	0xbcfd6e75	-0.03093646
180	0xbc76b783	-0.015058401
181	0xbc4d292a	-0.012522021
182	0x3c909ee9	0.0176539
183	0xbb237fc1	-0.0024947973
184	0xbb98f05b	-0.0046673245
185	0x3cb46fda	0.022025991
186	0x3bfc5ae8	0.0077012666
187	0xbc1631bf	-0.009167134
188	0xbc43106f	-0.011905774
189	0x3d3e718b	0.046495
190	0x3c3c119c	0.011478808
191	0x3d14d407	0.036335018
192	0x3c5d8162	0.013519617
193	0xbc6529eb	-0.013987045
194	0x3c9288b7	0.017887456
195	0xbc22fa22	-0.009947332
196	0x3bcb8046	0.0062103597
197	0x3cd7c3ca	0.026338477
198	0x3c980aa4	0.018559761
199	0x3caa445b	0.020784548
200	0x3cc3d017	0.023902936
201	0xbc356e8f	-0.0110737225
202	0xbca80593	-0.02051047
203	0x3c007f8f	0.007842912
204	0xbccbaa06	-0.024861347
205	0x3c44067f	0.011964439
206	0x3cbcd7b1	0.023052068
207	0xbc269371	-0.010166989
208	0x3d03e490	0.032200396
209	0x3bf78d28	0.007554669
210	0xbb9437ef	-0.0045232694
211	0xbc90c54a	-0.0176722
212	0x3c24ac9c	0.010050919
213	0x3bf6c500	0.0075308084
214	0xbb8d0bc1	-0.0043043797
215	0xbcfab187	-0.03060223
216	0x3ca64d1b	0.020300439
217	0xbd5651d8	-0.052324146
218	0xbbe1129b	-0.006868673
219	0xbc14ba7f	-0.009077667
220	0x3aaf3a11	0.0013368746
221	0x3cc13bc2	0.023588065
222	0x3c1ef173	0.009701121
223	0x3c61c7fb	0.013780589
224	0x3b3e0bee	0.002899881
225	0xbc66c7c8	-0.0140857175
226	0xbbbccb45	-0.0057615363
227	0x3cb485bd	0.022036428
228	0xbbd8f96d	-0.0066215307
229	0x3c3a67d7	0.011377296
230	0xbbacfe8c	-0.005279368
231	0x3c0e03db	0.008667911
232	0xbcfdda6a	-0.030987937
233	0xbb82a0b7	-0.003986444
234	0x3c8def92	0.01732615
235	0x3c383b13	0.011244553
236	0xba43b6c9	-0.0007465897
237	0xbc0e7e96	-0.008697173
238	0x3ca58e03	0.020209318
239	0xbc3b0533	-0.011414814
240	0xbb6e3743	-0.0036348857
241	0xbbc3ab6d	-0.0059713633
242	0xbc0fe7a5	-0.008783256
243	0x3ce659df	0.028119026
244	0x3c8e3755	0.017360369
245	0xbb43cb3e	-0.002987578
246	0x3c5180ba	0.012787038
247	0x3bff1dbb	0.0077855266
248	0xbc9537f4	-0.018215157
249	0x3c43fa89	0.011961588
250	0x3bdd2b15	0.0067495205
251	0x3c9f5a07	0.019452108
252	0xbcc18a1f	-0.023625432
253	0x39e64f53	0.0004392812
254	0xbb9d0813	-0.0047922223
255	0xbc945e7b	-0.018111458

action_model._continuous_distribution.mu.bias f4 [2]
0	0x00000000	0.0
1	0x00000000	0.0

network_body._body_endoder.seq_layers.0.weight f4 [128, 2]
0	0x3cc01bec	0.023450814
1	0xbf3bcecd	-0.7336243
2	0xbf79e3b3	-0.97613066
3	0x3ed9693f	0.4246311
4	0x3f8d5779	1.104232
5	0x3fe9103c	1.8208079
6	0xbeb7418a	-0.3579219
7	0x3fdde22d	1.7334648
8	0x3f8659bd	1.0496136
9	0xbf8d5024	-1.1040082
10	0x3f7d9e4a	0.99069655
11	0xbf473a4d	-0.77823335
12	0xbdc1d062	-0.09463574
13	0x3ef8cabf	0.48592183
14	0xbe10a281	-0.1412449
15	0x3f6d62bd	0.9272879
16	0xbf2d77e1	-0.67761046
17	0x3f7692d7	0.9631781
18	0x3c45fded	0.012084466
19	0x3eed6456	0.46365613
20	0xbd1ceda1	-0.038312558
21	0x3ea538ae	0.32269806
22	0x3e8b73bc	0.27236736
23	0xbf861ed1	-1.0478154
24	0x3f406686	0.7515644
25	0xbe9acd10	-0.30234575
26	0x3f0dc99e	0.5538577
27	0x3f171046	0.59009206
28	0xbed0c802	-0.40777594
29	0x3f2bbf31	0.6708861
30	0x3b95d848	0.004572902
31	0xbe0ce0ad	-0.13757582
32	0x3f9700a7	1.1797074
33	0xbf72dffe	-0.94873035
34	0xbf760ba5	-0.9611152
35	0xbe16173c	-0.146573
36	0x3f7e5533	0.99348754
37	0xbf6d6ce4	-0.9274428
38	0x3f58968d	0.8460472
39	0xbf8af095	-1.085467
40	0xbe9b5a24	-0.3034221
41	0xbe928b0d	-0.28621712
42	0x3e2917e6	0.16513023
43	0x3e91e473	0.28494605
44	0xbd6dfd37	-0.058102813
45	0x3f24d554	0.6438801
46	0xbe95537c	-0.29165256
47	0xbf18b714	-0.59654355
48	0xbef62476	-0.48074692
49	0xbcc5ec11	-0.024160417
50	0xbea8e652	-0.3298822
51	0xbe1056ed	-0.1409566
52	0x3fae1083	1.3598789
53	0xbf32f36f	-0.699027
54	0x3ec75af9	0.38936594
55	0x3c992427	0.018693997
56	0xbe841bfb	-0.25802597
57	0xbe019bbc	-0.12657064
58	0x3f90dfc1	1.1318284
59	0xbe37bb2f	-0.17942499
60	0xbfd03bd4	-1.6268258
61	0x3bb25368	0.0054420717
62	0x3ef641c9	0.48097065
63	0x3e586698	0.21132886
64	0xbf13f7f0	-0.578002
65	0xbfb2bdf6	-1.3964221
66	0xbee84c74	-0.4537083
67	0x3f08c825	0.53430396
68	0x3f2d1446	0.6760906
69	0x3e9accb8	0.30234313
70	0x3f28aaeb	0.658858
71	0xbef9a4c5	-0.48758522
72	0x3f503d12	0.81343186
73	0xbf8d5d42	-1.1044085
74	0xbf2bd53d	-0.6712225
75	0xbe66f389	-0.22553839
76	0xbf017c03	-0.5057985
77	0xbec7a72f	-0.38994738
78	0xbf80cf1d	-1.0063206
79	0x3edfa827	0.43682978
80	0xbf14304f	-0.57886213
81	0x3ecb54a2	0.39713007
82	0xbf201b50	-0.62541676
83	0xbed1dc09	-0.40988186
84	0x3f19f8e3	0.60145396
85	0x3e9d1768	0.3068192
86	0xbec52cae	-0.3851065
87	0xbeea8d53	-0.45810947
88	0xbf1ffb42	-0.62492764
89	0xbf0b1727	-0.543322
90	0x3edbec13	0.42953548
91	0x3e4a158b	0.1973478
92	0xbebb9da9	-0.36643723
93	0xbf4e6ee9	-0.80637985
94	0x3f9b0f96	1.2114131
95	0x3f7bc446	0.98346364
96	0xbcd2aa00	-0.025715828
97	0x3ea6bd09	0.32566097
98	0xbf04110e	-0.51588523
99	0x3f73cb32	0.95231926
100	0xbe73769b	-0.23775713
101	0x40000373	2.0002105
102	0xbf2b020d	-0.66800004
103	0x3e5f8210	0.21826959
104	0x3f6ecf56	0.9328512
105	0xbf009b1f	-0.50236696
106	0x3f7b927a	0.9827038
107	0xbeffefc3	-0.4998761
108	0x3eb5c5ef	0.35502574
109	0x3de58690	0.112073064
110	0xbd9c3f06	-0.07629208
111	0x3eb4732e	0.35244125
112	0xbf14cb90	-0.5812311
113	0x3cc33223	0.023827618
114	0xbfb38fe5	-1.4028288
115	0x3e450620	0.19240618
116	0xbf67171b	-0.9026963
117	0x3f64406d	0.89160806
118	0x3f67bd16	0.905229
119	0x3dff5ccd	0.12468872
120	0xbf4f89c3	-0.8106958
121	0xbfa081d0	-1.2539616
122	0x3f5b5c8f	0.8568811
123	0xbf0da80e	-0.55334556
124	0xbf17f049	-0.5935102
125	0xbdd539a2	-0.10411383
126	0xbe48306d	-0.19549723
127	0x3f6e4992	0.9308101
128	0x3f8497f5	1.0358874
129	0x3e5af5b1	0.21382786
130	0xbf4e1391	-0.80498606
131	0x3faa545e	1.3306997
132	0xbb40dc7e	-0.0029428299
133	0xbfcaf973	-1.5857376
134	0xbc43cd10	-0.011950746
135	0x3d633ed7	0.05547985
136	0x3fddd01d	1.7329136
137	0x3f19bc66	0.600531
138	0xbddadad1	-0.10686267
139	0xbeabdcd5	-0.3356692
140	0x3e89b47b	0.26895508
141	0xbf0a7e94	-0.5409939
142	0xbf43f49a	-0.7654511
143	0x3c81ba93	0.015836036
144	0x3f2e36a0	0.680521
145	0xbebe4407	-0.37161276
146	0xbf017b44	-0.50578713
147	0xbe148150	-0.14502454
148	0xbd9479a9	-0.07249767
149	0xbf67d2b8	-0.90555906
150	0xbfc920e7	-1.5713166
151	0x3f0b5acc	0.5443542
152	0xbe5cdf46	-0.21569547
153	0xbf821592	-1.0162833
154	0x3d0ea1b5	0.034822185
155	0xbc585abf	-0.013205229
156	0x3f8528cc	1.0403075
157	0xbf64b2a4	-0.89335084
158	0xbbf0d1f4	-0.007349247
159	0xbe6e0a40	-0.23246098
160	0xbdb21e76	-0.08697216
161	0x3f0d35da	0.55160296
162	0xbf13959d	-0.57650167
163	0x3e85188b	0.25995287
164	0x3fccfb41	1.6014177
165	0xbf2c2f2f	-0.67259496
166	0x3e264f52	0.16241196
167	0xbfa35ef3	-1.2763351
168	0xbc41773e	-0.011808215
169	0xbeaef20f	-0.3416905
170	0xbf8c92ad	-1.0982262
171	0xbf0270f8	-0.50953627
172	0x3f03b9b8	0.5145526
173	0xbf92a054	-1.1455178
174	0xbd4e6d4c	-0.050397202
175	0x3ecc29a9	0.39875534
176	0x3de9b482	0.11411382
177	0x3d5203b0	0.051273048
178	0xbeb0ff86	-0.3456995
179	0xbf8ff2cf	-1.1245974
180	0xbe1a96d9	-0.15096606
181	0x3dfde303	0.12396815
182	0xbec4b2cb	-0.38417658
183	0x3dd431e7	0.103610806
184	0x3cbadc66	0.022810172
185	0x3c05f5f2	0.008176314
186	0x3f514790	0.8174982
187	0x3ea9741e	0.33096403
188	0xbec7bdfd	-0.39012137
189	0x3f8d9524	1.1061139
190	0x3efaf273	0.490131
191	0x3f5cf866	0.86316526
192	0x3f7c2a9a	0.98502505
193	0xbd9e9d6d	-0.0774487
194	0xbf142910	-0.57875156
195	0xbecab1ee	-0.39588875
196	0xbf33c7de	-0.7022685
197	0x3f980a48	1.1878138
198	0x3f65a1a1	0.8969975
199	0xbf32697c	-0.69692206
200	0xbee790ea	-0.45227748
201	0x3d53bc07	0.05169299
202	0x3d95b62c	0.07310137
203	0x3e8b7bb7	0.27242824
204	0xbf139a80	-0.57657623
205	0x3fbe4c3f	1.4867018
206	0x3f419951	0.7562457
207	0xbf1f0592	-0.62117875
208	0xbf2a3b1c	-0.66496444
209	0x3f39b765	0.7254546
210	0x3dfcf51f	0.12351441
211	0x3efffb3c	0.49996364
212	0xbf5d7ad3	-0.8651554
213	0xbf6c7a32	-0.92373955
214	0x3f7e4c81	0.99335486
215	0xbf86bcb9	-1.0526344
216	0x3e4288a1	0.18997432
217	0xbf5fe881	-0.8746415
218	0x3e96a5cd	0.2942337
219	0x3dd15ad8	0.10222405
220	0xbf8bedf9	-1.0931998
221	0xbf188502	-0.59577954
222	0xbe64f886	-0.22360429
223	0x3f8d2049	1.1025478
224	0xbe0f1fb6	-0.1397694
225	0x3c5f7cad	0.013640565
226	0xbfbe04ed	-1.4845253
227	0xbe2962a5	-0.16541536
228	0x3a9d9f4f	0.0012025627
229	0xbe4017a3	-0.18759017
230	0xbf63b23e	-0.8894385
231	0x3e57d9f2	0.21079233
232	0x3f31d20f	0.6946115
233	0x3fe0541d	1.7525669
234	0xbf20d020	-0.62817574
235	0x3df417f1	0.11918629
236	0xbf691b3d	-0.9105719
237	0x3d60dfb0	0.054900825
238	0x3f84fbf5	1.0389391
239	0x3e751af3	0.23936062
240	0x3da46884	0.08027747
241	0xbce897cb	-0.028392693
242	0x3ed105ef	0.4082484
243	0xbd00d330	-0.031451404
244	0x3f182981	0.5943833
245	0xbefabdb9	-0.48972872
246	0x3efa67ea	0.48907405
247	0x3f11509d	0.5676363
248	0xbfb4d233	-1.4126648
249	0x3f92d675	1.1471697
250	0xbea53a9d	-0.3227128
251	0xbe9d4714	-0.3071829
252	0x3dcd3c4f	0.100212686
253	0x3eec4937	0.46149608
254	0x3e7b6f96	0.24554285
255	0x3f3bc5c4	0.7334864

network_body._body_endoder.seq_layers.0.bias f4 [128]
0	0x00000000	0.0
1	0x00000000	0.0
2	0x00000000	0.0
3	0x00000000	0.0
4	0x00000000	0.0
5	0x00000000	0.0
6	0x00000000	0.0
7	0x00000000	0.0
8	0x00000000	0.0
9	0x00000000	0.0
10	0x00000000	0.0
11	0x00000000	0.0
12	0x00000000	0.0
13	0x00000000	0.0
14	0x00000000	0.0
15	0x00000000	0.0
16	0x00000000	0.0
17	0x00000000	0.0
18	0x00000000	0.0
19	0x00000000	0.0
20	0x00000000	0.0
21	0x00000000	0.0
22	0x00000000	0.0
23	0x00000000	0.0
24	0x00000000	0.0
25	0x00000000	0.0
26	0x00000000	0.0
27	0x00000000	0.0
28	0x00000000	0.0
29	0x00000000	0.0
30	0x00000000	0.0
31	0x00000000	0.0
32	0x00000000	0.0
33	0x00000000	0.0
34	0x00000000	0.0
35	0x00000000	0.0
36	0x00000000	0.0
37	0x00000000	0.0
38	0x00000000	0.0
39	0x00000000	0.0
40	0x00000000	0.0
41	0x00000000	0.0
42	0x00000000	0.0
43	0x00000000	0.0
44	0x00000000	0.0
45	0x00000000	0.0
46	0x00000000	0.0
47	0x00000000	0.0
48	0x00000000	0.0
49	0x00000000	0.0
50	0x00000000	0.0
51	0x00000000	0.0
52	0x00000000	0.0
53	0x00000000	0.0
54	0x00000000	0.0
55	0x00000000	0.0
56	0x00000000	0.0
57	0x00000000	0.0
58	0x00000000	0.0
59	0x00000000	0.0
60	0x00000000	0.0
61	0x00000000	0.0
62	0x00000000	0.0
63	0x00000000	0.0
64	0x00000000	0.0
65	0x00000000	0.0
66	0x00000000	0.0
67	0x00000000	0.0
68	0x00000000	0.0
69	0x00000000	0.0
70	0x00000000	0.0
71	0x00000000	0.0
72	0x00000000	0.0
73	0x00000000	0.0
74	0x00000000	0.0
75	0x00000000	0.0
76	0x00000000	0.0
77	0x00000000	0.0
78	0x00000000	0.0
79	0x00000000	0.0
80	0x00000000	0.0
81	0x00000000	0.0
82	0x00000000	0.0
83	0x00000000	0.0
84	0x00000000	0.0
85	0x00000000	0.0
86	0x00000000	0.0
87	0x00000000	0.0
88	0x00000000	0.0
89	0x00000000	0.0
90	0x00000000	0.0
91	0x00000000	0.0
92	0x00000000	0.0
93	0x00000000	0.0
94	0x00000000	0.0
95	0x00000000	0.0
96	0x00000000	0.0
97	0x00000000	0.0
98	0x00000000	0.0
99	0x00000000	0.0
100	0x00000000	0.0
101	0x00000000	0.0
102	0x00000000	0.0
103	0x00000000	0.0
104	0x00000000	0.0
105	0x00000000	0.0
106	0x00000000	0.0
107	0x00000000	0.0
108	0x00000000	0.0
109	0x00000000	0.0
110	0x00000000	0.0
111	0x00000000	0.0
112	0x00000000	0.0
113	0x00000000	0.0
114	0x00000000	0.0
115	0x00000000	0.0
116	0x00000000	0.0
117	0x00000000	0.0
118	0x00000000	0.0
119	0x00000000	0.0
120	0x00000000	0.0
121	0x00000000	0.0
122	0x00000000	0.0
123	0x00000000	0.0
124	0x00000000	0.0
125	0x00000000	0.0
126	0x00000000	0.0
127	0x00000000	0.0

network_body._body_endoder.seq_layers.2.weight f4 [128, 128]
0	0xbcad322e	-0.021142092
1	0xbc5654a8	-0.013081707
2	0x3a11979f	0.00055539043
3	0x3dffe785	0.12495331
4	0xbdf8f421	-0.12155939
5	0x3d8d353c	0.06894919
6	0xbcff5f5c	-0.0311734
7	0xbdc6555c	-0.0968425
8	0x3e0b9d65	0.1363426
9	0x3e45ecc1	0.19328596
10	0x3e121a18	0.14267766
11	0x3e49e5d6	0.19716582
12	0x3b931c18	0.004489433
13	0xbe133225	-0.14374597
14	0xbe3d196b	-0.18466727
15	0x3cc58a8d	0.024113918
16	0xbd430683	-0.047613632
17	0x3cf2edad	0.029654348
18	0x3dad3a7c	0.08458421
19	0xbd916d2b	-0.071009
20	0x3d4aa6f6	0.049475633
21	0x3d0b0e62	0.033949263
22	0x3e25a3fd	0.16175838
23	0x3c8e8097	0.0173953
24	0xbceb6f9c	-0.028739743
25	0x3adf13dc	0.0017019468
26	0x3ca9b83a	0.020717729
27	0xba453da3	-0.0007524138
28	0x3c91e5a6	0.0178097
29	0x3c80aba5	0.015706846
30	0xbd130092	-0.035889216
31	0x3dd430b9	0.103608556
32	0xbc9c28f5	-0.019062499
33	0x3da20b41	0.07912303
34	0x3d1e9e40	0.038725138
35	0x3d8c3405	0.068458594
36	0xbc583adb	-0.013197626
37	0x3c423406	0.011853224
38	0x3cce4d73	0.025183415
39	0x3d37af49	0.0448449
40	0x3e086387	0.13319217
41	0x3bf1f026	0.0073833643
42	0x3c078bfc	0.008273121
43	0xbd934e25	-0.07192639
44	0xbd912669	-0.07087404
45	0xb989576a	-0.00026195805
46	0x3ba33919	0.004981172
47	0xbdd399b3	-0.1033205
48	0xbd5408c5	-0.051766176
49	0x3d5b8371	0.05359215
50	0xbdbd3440	-0.092384815
51	0x3d9131ac	0.07089552
52	0x3d58becc	0.052916333
53	0x3bc7d98e	0.0060989326
54	0xbe0e2fd6	-0.13885435
55	0x3c3124ed	0.010812026
56	0xbcf864a7	-0.030321432
57	0xbd437c69	-0.04772607
58	0xbd60911e	-0.054825895
59	0x3dbc64a0	0.0919888
60	0xbce7e978	-0.028309569
61	0xbdd5b15b	-0.104342185
62	0x3cb6f332	0.022332761
63	0xbc727b0d	-0.014799845
64	0xbcd098de	-0.025463518
65	0xbd8a75da	-0.0676076
66	0xbd421e5a	-0.047392227
67	0xbd9f01a2	-0.07763983
68	0x3de6e526	0.11274175
69	0x3b6a1cb1	0.0035722668
70	0xbe3be91d	-0.18350644
71	0xbd8b0031	-0.06787146
72	0xbcd71cc6	-0.026258837
73	0xbdd5fd8b	-0.1044875
74	0x3dfa4782	0.1222067
75	0x3c9e2f44	0.019309647
76	0xbe4601c8	-0.19336617
77	0x3d994980	0.07484722
78	0xbcf22c52	-0.02956215
79	0x3e387426	0.18013057
80	0xbcb9ecd2	-0.022695933
81	0x3dd71f97	0.10504072
82	0x3dbf2b90	0.09334481
83	0x3e039002	0.12847903
84	0x3bb54b1e	0.0055326363
85	0xbd7dee27	-0.061994698
86	0x3dcdff55	0.10058466
87	0xbc76eced	-0.015071136
88	0xbd486903	-0.048928272
89	0x3bb4f49d	0.0055223242
90	0x3e04c237	0.12964712
91	0x3d4edd53	0.05050404
92	0x3e02f54d	0.12788887
93	0x3d2212f7	0.039568868
94	0xbd984ae7	-0.074361615
95	0xbd57fe6a	-0.052732863
96	0xbdca2943	-0.09871151
97	0xbbe11865	-0.006869363
98	0x3da4bd28	0.08043891
99	0xbdaf6496	-0.08564107
100	0xbd9e8296	-0.07739751
101	0xbddf5ae3	-0.10906007
102	0x3c01f9cf	0.007933094
103	0x3cf3fdbe	0.02978408
104	0xbc012154	-0.007881481
105	0xbdae3b28	-0.08507377
106	0xbc57436a	-0.013138631
107	0x3d0ccaad	0.034372974
108	0xbd90385a	-0.07041998
109	0xbc1d7d4e	-0.0096123945
110	0xbdaea3da	-0.08527346
111	0xbd46d9cf	-0.048547562
112	0xbd0edc25	-0.034877915
113	0xbd552967	-0.052041437
114	0xbc8b4162	-0.01699895
115	0x3bc26764	0.0059327353
116	0xbd7fc324	-0.06244196
117	0xbdc50dc7	-0.096217684
118	0xbb177024	-0.0023107613
119	0x3ce3c9b4	0.02780614
120	0x3e035730	0.12826228
121	0x3c33fb39	0.010985189
122	0x3ce8b145	0.028404841
123	0xbcffad3f	-0.03121054
124	0xbdab5a4d	-0.08366833
125	0x3d153ef8	0.036437005
126	0x3ca77831	0.020443054
127	0xbca9948d	-0.020700717
128	0xbbbad630	-0.0057018027
129	0xbe2d3ba0	-0.16917276
130	0xbdbd2c8b	-0.092370115
131	0xbc835764	-0.016032882
132	0x3ddc805c	0.1076667
133	0x3c5c0b5d	0.013430444
134	0xbd78e8a5	-0.060768742
135	0x3dc20c4d	0.094750024
136	0xbdb9ec2f	-0.090782516
137	0x3dbd421e	0.092411265
138	0xbe4995b6	-0.19686016
139	0xbcce7e9a	-0.025206853
140	0xbc9eadf0	-0.01937005
141	0x3e19f564	0.15035015
142	0xbdab6cd5	-0.083703674
143	0x3d6b6c77	0.057476487
144	0x3de2ba8b	0.110707365
145	0xbd36c589	-0.044621978
146	0x3dc36ab7	0.095418386
147	0xbd9afe26	-0.07568006
148	0xbcb52895	-0.022114078
149	0xbcb27df5	-0.021788577
150	0xbe0dfbc3	-0.1386557
151	0x3c2f2358	0.010689579
152	0x3c6c0ed6	0.014407834
153	0xbb801bbb	-0.0039095557
154	0x3e29b772	0.16573885
155	0x3d9df34e	0.07712422
156	0xbd37d3cd	-0.044879723
157	0x3d2107bb	0.039314013
158	0xbd4b9409	-0.049701724
159	0xbd42bba4	-0.04754223
160	0xbdae64de	-0.08515333
161	0x3e319233	0.17340927
162	0x3c804170	0.015656203
163	0xbe08ae94	-0.13347846
164	0x3e387bea	0.1801602
165	0xbdb4e7c4	-0.08833268
166	0xbe009611	-0.12557246
167	0xbd868cb9	-0.065698095
168	0x3e17b7c4	0.14816195
169	0xbd9c68fb	-0.07637211
170	0xbd08e36f	-0.033420023
171	0xbd5667fb	-0.052345257
172	0xbdd6f47b	-0.1049585
173	0x3d2b0a9a	0.041758157
174	0xbc2a7ec3	-0.010406199
175	0x3c40c34d	0.011765313
176	0xbd095d14	-0.03353603
177	0x3e25d60a	0.1619493
178	0x3d8993f4	0.06717673
179	0xbd02bce3	-0.031918418
180	0xbcde1212	-0.027108226
181	0x3ca7e1a5	0.020493338
182	0x3dd090be	0.101838574
183	0xbd6cea4c	-0.05784063
184	0xbd1a8d89	-0.037732635
185	0xbdca83a5	-0.098883905
186	0xbe50301d	-0.20330854
187	0xbb101338	-0.0021984112
188	0xbd9a76ef	-0.07542216
189	0xbb545768	-0.003240073
190	0x3c58ae18	0.013225101
191	0x3deaf998	0.114733875
192	0x3da94127	0.0826438
193	0x3b8ff70e	0.004393465
194	0xbdb8df65	-0.09026984
195	0xbe36d63f	-0.17855166
196	0x3def1d8b	0.11675557
197	0xbc0d1aec	-0.008612376
198	0xbd04655a	-0.03232322
199	0x3c0b5b70	0.008505687
200	0xbdc75f66	-0.09734993
201	0xbdb1794e	-0.08665715
202	0x3cdc95aa	0.026926834
203	0xbbc83c34	-0.0061106924
204	0xbe49c156	-0.19702658
205	0x3cbfd551	0.023417147
206	0xbdbe9201	-0.09305192
207	0x3db7add5	0.08968703
208	0x3d595678	0.05306098
209	0x3da4b72c	0.0804275
210	0xbd6cfb57	-0.057856884
211	0x3db29cb1	0.08721293
212	0xbb8ddd84	-0.0043293852
213	0xbc31cee3	-0.010852548
214	0xbc865aa5	-0.016400645
215	0xbde5825c	-0.11206505
216	0x3e0a44ae	0.13502762
217	0xbd5e379b	-0.05425225
218	0x3debef56	0.11520259
219	0x3c3e0017	0.011596701
220	0xbcb6e61a	-0.022326518
221	0xbe208672	-0.15676287
222	0xbc53d81e	-0.012929944
223	0xbe08e9bf	-0.13370417
224	0x3d8438ba	0.06456132
225	0xbdd62860	-0.1045692
226	0xbe1d8491	-0.15382601
227	0xbc9c7c05	-0.019102106
228	0x3c6d107c	0.014469262
229	0xbe0b5f73	-0.1361063
230	0x3de3d3fa	0.11124416
231	0x3ca2961c	0.019846968
232	0xbd098a38	-0.03357908
233	0x3db6620b	0.08905419
234	0x3de4148d	0.11136732
235	0x3d9be775	0.07612506
236	0x3d3f7ed5	0.046751816
237	0x3daa03d4	0.083015114
238	0x3e679f3d	0.22619338
239	0x3ca9849b	0.020693114
240	0xbd875551	-0.0660807
241	0xbc24cbf2	-0.01005839
242	0x3d144994	0.036202982
243	0x3ad3c17d	0.0016155686
244	0x3df9717f	0.12179851
245	0x3de7fbcc	0.11327323
246	0x3e03495e	0.12820956
247	0xbcf682e3	-0.030091709
248	0xbe3356c3	-0.17513566
249	0x3e592b86	0.21208009
250	0x3d10c7ba	0.035346724
251	0x3da33677	0.07969373
252	0x3c5e391d	0.013563422
253	0x3dbb9762	0.09159733
254	0xbdaf479c	-0.0855858
255	0xbdb61fa0	-0.08892751

network_body._body_endoder.seq_layers.2.bias f4 [128]
0	0x00000000	0.0
1	0x00000000	0.0
2	0x00000000	0.0
3	0x00000000	0.0
4	0x00000000	0.0
5	0x00000000	0.0
6	0x00000000	0.0
7	0x00000000	0.0
8	0x00000000	0.0
9	0x00000000	0.0
10	0x00000000	0.0
11	0x00000000	0.0
12	0x00000000	0.0
13	0x00000000	0.0
14	0x00000000	0.0
15	0x00000000	0.0
16	0x00000000	0.0
17	0x00000000	0.0
18	0x00000000	0.0
19	0x00000000	0.0
20	0x00000000	0.0
21	0x00000000	0.0
22	0x00000000	0.0
23	0x00000000	0.0
24	0x00000000	0.0
25	0x00000000	0.0
26	0x00000000	0.0
27	0x00000000	0.0
28	0x00000000	0.0
29	0x00000000	0.0
30	0x00000000	0.0
31	0x00000000	0.0
32	0x00000000	0.0
33	0x00000000	0.0
34	0x00000000	0.0
35	0x00000000	0.0
36	0x00000000	0.0
37	0x00000000	0.0
38	0x00000000	0.0
39	0x00000000	0.0
40	0x00000000	0.0
41	0x00000000	0.0
42	0x00000000	0.0
43	0x00000000	0.0
44	0x00000000	0.0
45	0x00000000	0.0
46	0x00000000	0.0
47	0x00000000	0.0
48	0x00000000	0.0
49	0x00000000	0.0
50	0x00000000	0.0
51	0x00000000	0.0
52	0x00000000	0.0
53	0x00000000	0.0
54	0x00000000	0.0
55	0x00000000	0.0
56	0x00000000	0.0
57	0x00000000	0.0
58	0x00000000	0.0
59	0x00000000	0.0
60	0x00000000	0.0
61	0x00000000	0.0
62	0x00000000	0.0
63	0x00000000	0.0
64	0x00000000	0.0
65	0x00000000	0.0
66	0x00000000	0.0
67	0x00000000	0.0
68	0x00000000	0.0
69	0x00000000	0.0
70	0x00000000	0.0
71	0x00000000	0.0
72	0x00000000	0.0
73	0x00000000	0.0
74	0x00000000	0.0
75	0x00000000	0.0
76	0x00000000	0.0
77	0x00000000	0.0
78	0x00000000	0.0
79	0x00000000	0.0
80	0x00000000	0.0
81	0x00000000	0.0
82	0x00000000	0.0
83	0x00000000	0.0
84	0x00000000	0.0
85	0x00000000	0.0
86	0x00000000	0.0
87	0x00000000	0.0
88	0x00000000	0.0
89	0x00000000	0.0
90	0x00000000	0.0
91	0x00000000	0.0
92	0x00000000	0.0
93	0x00000000	0.0
94	0x00000000	0.0
95	0x00000000	0.0
96	0x00000000	0.0
97	0x00000000	0.0
98	0x00000000	0.0
99	0x00000000	0.0
100	0x00000000	0.0
101	0x00000000	0.0
102	0x00000000	0.0
103	0x00000000	0.0
104	0x00000000	0.0
105	0x00000000	0.0
106	0x00000000	0.0
107	0x00000000	0.0
108	0x00000000	0.0
109	0x00000000	0.0
110	0x00000000	0.0
111	0x00000000	0.0
112	0x00000000	0.0
113	0x00000000	0.0
114	0x00000000	0.0
115	0x00000000	0.0
116	0x00000000	0.0
117	0x00000000	0.0
118	0x00000000	0.0
119	0x00000000	0.0
120	0x00000000	0.0
121	0x00000000	0.0
122	0x00000000	0.0
123	0x00000000	0.0
124	0x00000000	0.0
125	0x00000000	0.0
126	0x00000000	0.0
127	0x00000000	0.0

value_heads.value_heads.extrinsic.weight f4 [1, 128]
0	0xbe3d1c93	-0.18467931
1	0xbe36dc57	-0.1785749
2	0xbd59b859	-0.053154323
3	0x3ded4be4	0.115867406
4	0x3c959196	0.018257897
5	0x3defcdf8	0.11709207
6	0xb952843c	-0.00020076422
7	0xbde882a4	-0.11353043
8	0xbe115177	-0.14191233
9	0x3e534fff	0.20635985
10	0xbd7a44d8	-0.06110081
11	0x3d3b0cae	0.04566639
12	0xbb890d3a	-0.004182485
13	0x3d457258	0.04820475
14	0xbbedf4e4	-0.0072618593
15	0x3dfa67d2	0.122268334
16	0xbe3c13be	-0.18366906
17	0x3dc76d09	0.09737594
18	0xbe2453a1	-0.16047527
19	0x3cfc336b	0.030786237
20	0x3d5e16a4	0.05422081
21	0x3e19c761	0.15017463
22	0x3d54b45f	0.051929828
23	0x3e43666d	0.19082041
24	0x3d0aaa41	0.033853773
25	0x3e5955a1	0.21224071
26	0xbe26a4ca	-0.162738
27	0x3d47fa1f	0.04882252
28	0xbe065e81	-0.13121988
29	0xbe34ce57	-0.17656837
30	0x3debeb10	0.11519444
31	0xbe3a4a36	-0.18192372
32	0x3e25bc01	0.16184999
33	0x3d88c1d0	0.06677592
34	0xbe215c49	-0.1575786
35	0xbdb04fd9	-0.0860898
36	0xbe0b9bad	-0.13633604
37	0x3d28d0de	0.041214816
38	0xbe3c857f	-0.184103
39	0x3d6680d1	0.056275193
40	0x3e5b244c	0.21400565
41	0xbe464fd9	-0.19366397
42	0x3e02d582	0.1277676
43	0x3e05b4c7	0.13057242
44	0xbd4f3905	-0.050591487
45	0xbd032f32	-0.03202743
46	0xbe1d6b91	-0.15373065
47	0x3e4ac94d	0.19803353
48	0x3dcdcde1	0.10049034
49	0x3d9c1469	0.076210804
50	0x3dc44a0c	0.09584436
51	0x3e23e87f	0.16006659
52	0x3d84a144	0.064760715
53	0x3e51ec21	0.20500232
54	0x3e189ee8	0.14904368
55	0xbe127388	-0.14301884
56	0x3e3d9887	0.18515216
57	0x3cd05b29	0.025434094
58	0x3c2eafde	0.010662047
59	0xbcc87f00	-0.02447462
60	0xbdea8b9c	-0.114524096
61	0x3e23da69	0.16001286
62	0x3d29341a	0.041309454
63	0x3e4c4ea3	0.19951873
64	0x3e4b4061	0.19848777
65	0x3d1a8117	0.037720766
66	0xbd868e37	-0.06570094
67	0x3db9e1ac	0.090762466
68	0xbe536bb1	-0.2064655
69	0x3da11993	0.07866206
70	0x3e42e062	0.19030908
71	0xbe27a41a	-0.16371194
72	0x3e1a086b	0.15042274
73	0xbdf82abd	-0.12117527
74	0x3cfc2850	0.030780941
75	0xbe48ed70	-0.19621825
76	0xbc8705be	-0.01648223
77	0x3cf39e61	0.029738607
78	0x3e340a48	0.17582047
79	0xbcd19cfc	-0.025587551
80	0x3d90f68b	0.07078274
81	0xbe15a168	-0.14612353
82	0x3e4921a5	0.1964174
83	0x3cfacdaf	0.030615656
84	0xbceec28e	-0.029145505
85	0xbd2c518a	-0.04206995
86	0x3e1350de	0.14386317
87	0xbde6cd44	-0.1126962
88	0xbe19d98b	-0.15024392
89	0x3e3bf4aa	0.1835505
90	0x3c3168cb	0.010828207
91	0xbe1a16f3	-0.15047817
92	0x3d6ba041	0.057525877
93	0x3e2b19c6	0.1670905
94	0x3e0c89a6	0.13724384
95	0xbdc125e0	-0.09431052
96	0xbe182a1f	-0.14859818
97	0xbdeca592	-0.115550175
98	0xbd5b2110	-0.053498328
99	0xbdb3a81a	-0.08772297
100	0x3e3bc8cb	0.18338315
101	0xbca8a738	-0.020587549
102	0x3e5bba0b	0.21457689
103	0xbcb77c3a	-0.022398103
104	0x3e2c6813	0.16836576
105	0xbe52833f	-0.20557879
106	0xbc72c48f	-0.014817371
107	0x3dcd3877	0.100205354
108	0xbe208d5d	-0.15678926
109	0xbe046ae4	-0.129314
110	0x3e4e4076	0.20141777
111	0x3d917a08	0.07103354
112	0x3cf241c1	0.02957237
113	0x3c8a1404	0.016855247
114	0xbe2e3652	-0.17012909
115	0xbe516b7c	-0.20451158
116	0x3cd09a3e	0.025464173
117	0xbd09b694	-0.033621386
118	0x3e4ae93d	0.19815536
119	0xbdefeda0	-0.11715245
120	0xbe117fda	-0.14208928
121	0x3b45d44f	0.003018636
122	0x3d3e7b8b	0.04650454
123	0x3d20742c	0.03917329
124	0x3da67558	0.0812785
125	0xbd5fb3f0	-0.05461496
126	0x3e439dc3	0.1910315
127	0x3e21f583	0.15816312
