results/ppo/EatFood/EatFood-1152.onnx (onnx, 69559 bytes, 5 tensors)

action_model._continuous_distribution.mu.weight f4 [1, 128]
-0.004928969 0.009981734 -0.011747048 -0.024645725 0.02297916 -0.0032850045 -0.014261678 -0.041496392
-0.037113156 -0.031397916 0.0011511816 -0.012818671 0.0036467314 -0.009449979 -0.0284419 -0.03108312
-0.001291162 -0.03186376 -0.041118383 0.0034766856 0.036595352 0.009128142 -0.004939839 0.0075144344
0.0147519335 -0.026747381 0.0058962456 0.004268108 0.019116309 -0.0050009657 -0.025007183 0.014880957
0.0027219069 -0.019743547 0.017188583 -0.0055839196 -0.0035403313 -0.016142247 -0.019860152 -0.031246593
-0.0023400176 0.011005676 0.05541805 0.017910004 0.016729971 -0.010924898 0.019155895 0.006197073
0.0023338792 -0.0146932155 0.009131302 -0.00012513238 0.010620941 -0.018030962 -0.031110287 -0.0223084
0.018893702 0.022710925 0.0130819855 0.01639699 0.019328581 0.0012004712 0.008377603 0.01615277
-0.005586482 0.00035914287 0.005316458 0.004234525 0.016529001 0.017793788 0.009197536 -0.018629778
0.004941874 0.008264971 -0.014904586 -0.010176448 -0.012450557 0.0037050738 0.021942059 0.0025242886
-0.009790396 -0.00935975 0.017478146 -0.018651357 -0.007521896 -0.008527442 0.008489491 -0.010421015
0.020767441 -0.0007389269 -0.018616958 0.0028682621 -0.020125143 0.0032628325 -0.028810764 -0.019239318
0.0066809393 -0.003368847 -0.016375182 -0.011731057 -0.027679441 -0.020864755 -0.022383427 0.036870282
0.012597709 -0.008114151 -0.0031034418 -0.005585296 -0.015166724 0.0024010816 -0.008027859 -0.04349437
-0.019189673 -0.01827919 0.026465936 0.03221969 0.005101168 0.013169052 0.018988265 0.015953591
-0.010681422 -0.017377881 0.030323822 -0.0047872416 0.015462413 -0.005471719 -0.0081003 0.014670876
00000000: 3083 a1bb 6d8a 233c b176 40bc d5e5 c9bc
00000010: cb3e bc3c 3b49 57bb d0a9 69bc 1ff8 29bd
00000020: f703 18bd 1a9b 00bd 3fe3 963a 6705 52bc
00000030: 00fe 6e3b 16d4 1abc fdfe e8bc 07a2 febc
00000040: 353c a9ba 9383 02bd c06b 28bd 1bd9 633b
00000050: 02e5 153d 348e 153c 5fde a1bb a53b f63b
00000060: 18b2 713c 531d dbbc 4b35 c13b 7cdb 8b3b
00000070: ce99 9c3c 24df a3bb dddb ccbc 42cf 733c
00000080: 0562 323b 38bd a1bc 12cf 8c3c 50f9 b6bb
00000090: e704 68bb bf3c 84bc c2b1 a2bc dbf8 ffbc
000000a0: fb5a 19bb 2751 343c 0afe 623d 00b8 923c
000000b0: 4b0d 893c 58fe 32bc d3ec 9c3c d110 cb3b
000000c0: fff3 183b d0bb 70bc 759b 153c f835 03b9
000000d0: 7503 2e3c abb5 93bc 00db febc 1bc0 b6bc
000000e0: f7c6 9a3c 430c ba3c d355 563c fb52 863c
000000f0: f956 9e3c 2159 9d3a 3742 093c d052 843c
00000100: cf0e b7bb 574b bc39 af35 ae3b c5c1 8a3b
00000110: d467 873c 47c4 913c 43b1 163c 7a9d 98bc
00000120: 72ef a13b cd69 073c 5d32 74bc 1ebb 26bc
00000130: 6cfd 4bbc d3d0 723b d5bf b33c 896e 253b
00000140: e667 20bc a359 19bc 542e 8f3c bbca 98bc
00000150: 3d7a f6bb afb6 0bbc 8217 0b3c e8bc 2abc
00000160: 7b20 aa3c 8bb4 41ba 9782 98bc 74f9 3b3b
00000170: 7cdd a4bc 3fd5 553b 8d04 ecbc c69b 9dbc
00000180: c8eb da3b e0c7 5cbb 3f25 86bc 9f33 40bc
00000190: ffbf e2bc 90ec aabc 735d b7bc 4b05 173d
000001a0: 9f66 4e3c 37f1 04bc 1d63 4bbb dc04 b7bb
000001b0: da7d 78bc 775b 1d3b 4887 03bc 2727 32bd
000001c0: a933 9dbc 3dbe 95bc 17cf d83c cbf8 033d
000001d0: b327 a73b 02c3 573c 478d 9b3c 1bb1 823c
000001e0: 2201 2fbc 0f5c 8ebc aa69 f83c 4bde 9cbb
000001f0: 1056 7d3c 1b4c b3bb 1fb7 04bc 1d5e 703c

network_body._body_endoder.seq_layers.0.bias f4 [128]
0.0 0.0 0.0 0.0 0.0 0.0 0.0 0.0
0.0 0.0 0.0 0.0 0.0 0.0 0.0 0.0
0.0 0.0 0.0 0.0 0.0 0.0 0.0 0.0
0.0 0.0 0.0 0.0 0.0 0.0 0.0 0.0
0.0 0.0 0.0 0.0 0.0 0.0 0.0 0.0
0.0 0.0 0.0 0.0 0.0 0.0 0.0 0.0
0.0 0.0 0.0 0.0 0.0 0.0 0.0 0.0
0.0 0.0 0.0 0.0 0.0 0.0 0.0 0.0
0.0 0.0 0.0 0.0 0.0 0.0 0.0 0.0
0.0 0.0 0.0 0.0 0.0 0.0 0.0 0.0
0.0 0.0 0.0 0.0 0.0 0.0 0.0 0.0
0.0 0.0 0.0 0.0 0.0 0.0 0.0 0.0
0.0 0.0 0.0 0.0 0.0 0.0 0.0 0.0
0.0 0.0 0.0 0.0 0.0 0.0 0.0 0.0
0.0 0.0 0.0 0.0 0.0 0.0 0.0 0.0
0.0 0.0 0.0 0.0 0.0 0.0 0.0 0.0
00000000: 0000 0000 0000 0000 0000 0000 0000 0000
00000010: 0000 0000 0000 0000 0000 0000 0000 0000
00000020: 0000 0000 0000 0000 0000 0000 0000 0000
00000030: 0000 0000 0000 0000 0000 0000 0000 0000
00000040: 0000 0000 0000 0000 0000 0000 0000 0000
00000050: 0000 0000 0000 0000 0000 0000 0000 0000
00000060: 0000 0000 0000 0000 0000 0000 0000 0000
00000070: 0000 0000 0000 0000 0000 0000 0000 0000
00000080: 0000 0000 0000 0000 0000 0000 0000 0000
00000090: 0000 0000 0000 0000 0000 0000 0000 0000
000000a0: 0000 0000 0000 0000 0000 0000 0000 0000
000000b0: 0000 0000 0000 0000 0000 0000 0000 0000
000000c0: 0000 0000 0000 0000 0000 0000 0000 0000
000000d0: 0000 0000 0000 0000 0000 0000 0000 0000
000000e0: 0000 0000 0000 0000 0000 0000 0000 0000
000000f0: 0000 0000 0000 0000 0000 0000 0000 0000
00000100: 0000 0000 0000 0000 0000 0000 0000 0000
00000110: 0000 0000 0000 0000 0000 0000 0000 0000
00000120: 0000 0000 0000 0000 0000 0000 0000 0000
00000130: 0000 0000 0000 0000 0000 0000 0000 0000
00000140: 0000 0000 0000 0000 0000 0000 0000 0000
00000150: 0000 0000 0000 0000 0000 0000 0000 0000
00000160: 0000 0000 0000 0000 0000 0000 0000 0000
00000170: 0000 0000 0000 0000 0000 0000 0000 0000
00000180: 0000 0000 0000 0000 0000 0000 0000 0000
00000190: 0000 0000 0000 0000 0000 0000 0000 0000
000001a0: 0000 0000 0000 0000 0000 0000 0000 0000
000001b0: 0000 0000 0000 0000 0000 0000 0000 0000
000001c0: 0000 0000 0000 0000 0000 0000 0000 0000
000001d0: 0000 0000 0000 0000 0000 0000 0000 0000
000001e0: 0000 0000 0000 0000 0000 0000 0000 0000
000001f0: 0000 0000 0000 0000 0000 0000 0000 0000

network_body._body_endoder.seq_layers.0.weight f4 [128, 1]
0.213028 -1.0537158 -0.5236212 -1.18835 1.0064098 0.16961043 -0.34333596 1.3700093
0.5985393 -1.2881399 0.57025003 0.618849 0.49037302 0.121195845 0.14360476 1.1815791
0.5130482 1.4031873 0.22000362 0.3649211 0.13924544 1.8089639 -0.48470676 -2.5994508
0.09151998 -1.6060654 -1.1886846 1.7029271 -0.5656298 -1.7132871 -0.77652735 -0.7709158
-0.98336065 -0.137158 0.5491646 0.79132086 -0.80228525 -0.2177175 0.67019516 -1.8728571
-1.024813 0.72695017 2.3256686 -1.0342177 -0.45178744 0.12775667 0.86780345 1.1870334
-0.73625976 0.8545051 -1.1743137 -1.1987009 -0.6573986 -0.35900044 1.3132313 2.0725775
0.03659071 0.21284735 1.1458181 -0.69646025 -0.18586145 0.71636176 0.42547113 1.869517
0.4880085 -0.004757175 0.581964 1.7689364 -0.027004294 0.7116301 0.07749443 1.5187422
0.48046625 -2.2853763 1.6961908 -0.7383673 -0.28459522 -2.522881 -1.1586905 -0.55650973
0.46624535 1.149233 1.0041856 1.8782998 1.1879017 0.41776755 0.40354162 0.8964415
2.118113 1.591625 1.5308193 1.5903805 -1.5270523 0.43882373 0.16606995 0.10678147
0.75213283 0.0214378 -1.3636166 1.4722917 1.224692 0.53923786 -0.8822762 -0.18355758
0.09935806 1.0969622 -1.5767875 0.3572531 0.81529254 0.57217115 -0.15076183 0.001374496
-1.4080715 1.1355939 -0.022759955 -0.5739876 0.84314644 0.81325984 0.44308612 -1.8461127
-0.14287418 1.9237359 0.25239336 0.84753317 -0.26934043 0.3791698 1.4254616 -1.321759
00000000: 0324 5a3e 29e0 86bf 0a0c 06bf da1b 98bf
00000010: 09d2 803f 5bae 2d3e bbc9 afbe 775c af3f
00000020: df39 193f c5e1 a4bf e8fb 113f e36c 1e3f
00000030: 2c12 fb3e 8735 f83d 200d 133e fc3d 973f
00000040: 2057 033f a49b b33f a148 613e f0d6 ba3e
00000050: 5b96 0e3e 218c e73f 7c2b f8be 675d 26c0
00000060: d46e bb3d 8d93 cdbf d126 98bf 84f9 d93f
00000070: 1dcd 10bf fe4c dbbf 7fca 46bf bd5a 45bf
00000080: 86bd 7bbf 2673 0cbe 0d96 0c3f 0194 4a3f
00000090: 9162 4dbf 56f1 5ebe e991 2b3f c8b9 efbf
000000a0: 132d 83bf 6819 3a3f c1d7 1440 3f61 84bf
000000b0: af50 e7be a5d2 023e 5e28 5e3f b6f0 973f
000000c0: 857b 3cbf d9c0 5a3f e94f 96bf 086f 99bf
000000d0: 464b 28bf e8ce b7be f717 a83f 1ca5 0440
000000e0: 24e0 153d a8f4 593e 2baa 923f 384b 32bf
000000f0: 7752 3ebe 7c63 373f 5ad7 d93e 554c ef3f
00000100: 40dc f93e 14e2 9bbb 98fb 143f 826c e23f
00000110: 1c38 ddbc 642d 363f 66b5 9e3d 2566 c23f
00000120: acff f53e 9b43 12c0 c81c d93f a405 3dbf
00000130: 77b6 91be e276 21c0 f84f 94bf 6c77 0ebf
00000140: b6b7 ee3e 111a 933f 2789 803f 216c f03f
00000150: 2a0d 983f a1e5 d53e 029d ce3e 317d 653f
00000160: 2a8f 0740 5eba cb3f e3f1 c33f 9791 cb3f
00000170: 7376 c3bf 81ad e03e 3e0e 2a3e 3eb0 da3d
00000180: c78b 403f 539e af3c fd8a aebf 0e74 bc3f
00000190: b5c2 9c3f 7e0b 0a3f dadc 61bf 85f6 3bbe
000001a0: 3d7c cb3d 4269 8c3f 2cd4 c9bf e1e9 b63e
000001b0: 03b7 503f cf79 123f 4f61 1abe 6f28 b43a
000001c0: b03b b4bf 245b 913f 1673 babc daf0 12bf
000001d0: 72d8 573f cc31 503f 2fdc e23e 6c4d ecbf
000001e0: 9c4d 12be fa3c f63f b439 813e eff7 583f
000001f0: fde6 89be 8b22 c23e 8775 b63f 662f a9bf

network_body._body_endoder.seq_layers.2.bias f4 [128]
0.0 0.0 0.0 0.0 0.0 0.0 0.0 0.0
0.0 0.0 0.0 0.0 0.0 0.0 0.0 0.0
0.0 0.0 0.0 0.0 0.0 0.0 0.0 0.0
0.0 0.0 0.0 0.0 0.0 0.0 0.0 0.0
0.0 0.0 0.0 0.0 0.0 0.0 0.0 0.0
0.0 0.0 0.0 0.0 0.0 0.0 0.0 0.0
0.0 0.0 0.0 0.0 0.0 0.0 0.0 0.0
0.0 0.0 0.0 0.0 0.0 0.0 0.0 0.0
0.0 0.0 0.0 0.0 0.0 0.0 0.0 0.0
0.0 0.0 0.0 0.0 0.0 0.0 0.0 0.0
0.0 0.0 0.0 0.0 0.0 0.0 0.0 0.0
0.0 0.0 0.0 0.0 0.0 0.0 0.0 0.0
0.0 0.0 0.0 0.0 0.0 0.0 0.0 0.0
0.0 0.0 0.0 0.0 0.0 0.0 0.0 0.0
0.0 0.0 0.0 0.0 0.0 0.0 0.0 0.0
0.0 0.0 0.0 0.0 0.0 0.0 0.0 0.0
00000000: 0000 0000 0000 0000 0000 0000 0000 0000
00000010: 0000 0000 0000 0000 0000 0000 0000 0000
00000020: 0000 0000 0000 0000 0000 0000 0000 0000
00000030: 0000 0000 0000 0000 0000 0000 0000 0000
00000040: 0000 0000 0000 0000 0000 0000 0000 0000
00000050: 0000 0000 0000 0000 0000 0000 0000 0000
00000060: 0000 0000 0000 0000 0000 0000 0000 0000
00000070: 0000 0000 0000 0000 0000 0000 0000 0000
00000080: 0000 0000 0000 0000 0000 0000 0000 0000
00000090: 0000 0000 0000 0000 0000 0000 0000 0000
000000a0: 0000 0000 0000 0000 0000 0000 0000 0000
000000b0: 0000 0000 0000 0000 0000 0000 0000 0000
000000c0: 0000 0000 0000 0000 0000 0000 0000 0000
000000d0: 0000 0000 0000 0000 0000 0000 0000 0000
000000e0: 0000 0000 0000 0000 0000 0000 0000 0000
000000f0: 0000 0000 0000 0000 0000 0000 0000 0000
00000100: 0000 0000 0000 0000 0000 0000 0000 0000
00000110: 0000 0000 0000 0000 0000 0000 0000 0000
00000120: 0000 0000 0000 0000 0000 0000 0000 0000
00000130: 0000 0000 0000 0000 0000 0000 0000 0000
00000140: 0000 0000 0000 0000 0000 0000 0000 0000
00000150: 0000 0000 0000 0000 0000 0000 0000 0000
00000160: 0000 0000 0000 0000 0000 0000 0000 0000
00000170: 0000 0000 0000 0000 0000 0000 0000 0000
00000180: 0000 0000 0000 0000 0000 0000 0000 0000
00000190: 0000 0000 0000 0000 0000 0000 0000 0000
000001a0: 0000 0000 0000 0000 0000 0000 0000 0000
000001b0: 0000 0000 0000 0000 0000 0000 0000 0000
000001c0: 0000 0000 0000 0000 0000 0000 0000 0000
000001d0: 0000 0000 0000 0000 0000 0000 0000 0000
000001e0: 0000 0000 0000 0000 0000 0000 0000 0000
000001f0: 0000 0000 0000 0000 0000 0000 0000 0000

network_body._body_endoder.seq_layers.2.weight f4 [128, 128]
0.068373114 -0.144026 -0.14523171 -0.03602872 0.05095338 -0.26937792 -0.05525103 0.015283234
-0.13281676 -0.06765606 -0.056805383 -0.0070069423 -0.046840146 -0.032559182 0.061762653 0.11803612
-0.20195083 0.009142093 0.002687835 -0.043496493 0.1075873 0.0802581 0.11901941 0.10416891
0.026000282 -0.08837167 -0.16299616 -0.09954336 -0.0020530112 -0.048745062 0.00041459044 -0.1097333
0.09733049 -0.10979913 0.0051652854 0.107278764 -0.073638104 -0.055074386 0.022027468 -0.18380752
-0.1432521 0.23762435 0.01865666 -0.013161603 0.09406348 -0.10128588 0.057918224 0.05467945
0.10356159 0.054590635 0.13802974 0.028345665 -0.14422263 -0.074402064 -0.06772141 0.10486469
0.04065072 -0.0959295 -0.012126336 -0.19235149 0.0020194293 -0.06423828 0.044723786 -0.07921529
-0.021809243 0.16929698 0.006274074 0.06801525 0.05756262 -0.08095969 -0.13077717 0.08786907
-0.08094411 0.06263179 0.07112458 -0.15810755 -0.11421699 -0.07703857 0.035008434 -0.04821183
-0.22233617 -0.065412104 -0.025739156 0.020903518 0.09464153 0.12985735 -0.16349636 0.019103378
-0.048038628 0.10345296 -0.077474594 -0.034127165 -0.010008491 -0.014467407 0.032003894 0.045920428
0.09701796 0.003571119 -0.04789565 0.08157126 0.17374855 0.00045092704 0.12478546 0.14368813
0.104612336 0.08011589 0.14000809 -0.10500442 0.089929454 0.017086329 -0.0002273677 0.037605017
0.10519017 -0.029583491 0.0897352 0.037519705 -0.29467663 -0.02462585 -0.0019525198 0.1436181
-0.11907716 -0.05529483 -0.14155279 -0.050266266 -0.1089644 0.05805444 -0.037246946 0.09818707
0.09348331 -0.020444024 -0.05826826 0.001954437 0.011568256 -0.10020374 -0.01736603 -0.039145853
-0.009201416 -0.2158667 0.014024728 -0.0868154 0.121030234 -0.04109996 0.02064489 0.21675546
0.060030334 -0.08214207 -0.043685954 -0.017240882 -0.04446285 0.04288882 -0.052335866 0.041020762
0.025464024 0.02132949 -0.027016396 0.009721356 -0.07594561 -0.059523024 0.042078067 0.115056165
-0.1558828 -0.13710204 0.016526118 -0.031109134 -0.10697493 0.105219945 0.034962647 -0.06453355
-0.057014506 -0.12629105 0.007999435 -0.1811778 0.12095475 -0.05543654 0.051044602 -0.17485318
-0.05332329 0.10486665 -0.08938353 0.057735212 0.024033474 -0.074819595 -0.12093661 0.06914581
-0.06458225 -0.11511126 0.023165617 -0.0640414 -0.1574686 -0.036259256 -0.09593228 -0.066080734
-0.105887145 0.14443947 -0.108430624 0.004330613 -0.11122273 -0.13845396 0.014286893 0.07228654
-0.026973605 -0.107922144 -0.12136636 -0.037061043 -0.015324866 0.12024129 -0.05410561 0.020124398
0.15639901 -0.17382263 -0.04957915 0.072061315 -0.041342895 -0.015421037 -0.10852832 -0.11451515
-0.0045634056 -0.077315375 0.11332324 -0.030683381 0.0077605946 0.09173618 0.002538853 -0.10371426
0.13624148 -0.05035177 0.01085714 0.030999979 -0.12576579 0.007580239 0.088462725 -0.04151366
-0.09990476 0.0041464726 -0.09626737 0.042130202 -0.17441721 -0.025187233 0.038943164 0.05071036
-0.020644167 0.13858011 -0.08254959 -0.112949885 -0.07555707 0.028281214 -0.06873321 -0.07226773
0.029664218 0.057686687 -0.13197415 -0.067902066 -0.24081293 -0.056658912 0.06593908 0.10689055
00000000: 3407 8c3d 8d7b 13be 9fb7 14be da92 13bd
00000010: 7eb4 503d e7eb 89be e74e 62bd 8866 7a3c
00000020: 1e01 08be 438f 8abd c3ac 68bd 7e9a e5bb
00000030: 74db 3fbd c75c 05bd d6fa 7c3d ecbc f13d
00000040: 33cc 4ebe b8c8 153c 6326 303b 6129 32bd
00000050: bb56 dc3d 5c5e a43d 73c0 f33d 8256 d53d
00000060: 8bfe d43c 35fc b4bd 77e8 26be 64dd cbbd
00000070: d08b 06bb e7a8 47bd 635d d939 dabb e0bd
00000080: 3555 c73d 5ede e0bd 8e41 a93b f8b4 db3d
00000090: 93cf 96bd ae95 61bd f372 b43c 0a38 3cbe
000000a0: aeb0 12be cc53 733e dad5 983c c4a3 57bc
000000b0: 5ba4 c03d f96e cfbd a93b 6d3d 8ff7 5f3d
000000c0: 1918 d43d 6e9a 5f3d ab57 0d3e 2b35 e83c
000000d0: 19af 13be 1c60 98bd 86b1 8abd 4cc3 d63d
000000e0: 5f81 263d b076 c4bd 8aad 46bc caf7 44be
000000f0: 6758 043b 5c8f 83bd 4a30 373d a03b a2bd
00000100: 4ca9 b2bc 305c 2d3e bf96 cd3b 944b 8b3d
00000110: c8c6 6b3d 32ce a5bd 73ea 05be b3f4 b33d
00000120: 07c6 a5bd 1945 803d c4a9 913d f2e6 21be
00000130: 99ea e9bd 66c6 9dbd 0165 0f3d c579 45bd
00000140: 18ac 63be c8f6 85bd ecda d2bc db3d ab3c
00000150: 6bd3 c13d 53f9 043e 976b 27be b07e 9c3c
00000160: 27c4 44bd 25df d33d 00ab 9ebd edc8 0bbd
00000170: a7fa 23bc b408 6dbc 8416 033d 0f17 3c3d
00000180: 5ab1 c63d 6f09 6a3b 3b2e 44bd d50e a73d
00000190: 24eb 313e 676a ec39 858f ff3d fb22 133e
000001a0: fe3e d63d cd13 a43d 485e 0f3e 8f0c d7bd
000001b0: ef2c b83d a1f8 8b3c 8d69 6eb9 b807 1a3d
000001c0: f26d d73d 1459 f2bc 17c7 b73d 43ae 193d
000001d0: dbdf 96be 27bc c9bc b1eb ffba a010 133e
000001e0: bade f3bd d57c 62bd 37f3 10be 00e4 4dbd
000001f0: ba28 dfbd 7eca 6d3d 4190 18bd 4d16 c93d
00000200: 2d74 bf3d 3a7a a7bc b3aa 6ebd 0316 003b
00000210: c888 3d3c 9e37 cdbd 3443 8ebc 6757 20bd
00000220: 89c1 16bc 290c 5dbe f9c7 653c 46cc b1bd
00000230: b3de f73d 6f58 28bd 791f a93c 25f5 5d3e
00000240: 5ee2 753d 1a3a a8bd 0bf0 32bd c03c 8dbc
00000250: ad1e 36bd 30ac 2f3d 225e 56bd 6305 283d
00000260: ee99 d03c 2fbb ae3c 7d51 ddbc 5346 1f3c
00000270: 5f89 9bbd 6ace 73bd 0d5a 2c3d 91a2 eb3d
00000280: be9f 1fbe 7a64 0cbe c861 873c 95d8 febc
00000290: ac15 dbbd 8e7d d73d fe34 0f3d 2a2a 84bd
000002a0: 0b88 69bd 7152 01be 1010 033c ac86 39be
000002b0: 20b7 f73d 6d11 63bd 2514 513d b60c 33be
000002c0: 8669 5abd 54c4 d63d b60e b7bd c27b 6c3d
000002d0: d9e1 c43c 043b 99bd 9dad f7bd 529c 8d3d
000002e0: b343 84bd 74bf ebbd d2c5 bd3c 2328 83bd
000002f0: 733f 21be 9684 14bd 2578 c4bd 5655 87bd
00000300: 5cdb d8bd f1e7 133e e010 debd d1e7 8d3b
00000310: bec8 e3bd e0c6 0dbe 9313 6a3c f70a 943d
00000320: c0f7 dcbc 4906 ddbd ed8e f8bd 52cd 17bd
00000330: 2615 7bbc 1141 f63d d89d 5dbd ecdb a43c
00000340: 1027 203e 8ffe 31be 8213 4bbd e294 933d
00000350: 2b57 29bd 84a8 7cbc 1944 debd eb86 eabd
00000360: 9f88 95bb 8657 9ebd 0416 e83d b75b fbbc
00000370: 964c fe3b 2ee0 bb3d e362 263b 2468 d4bd
00000380: e382 0b3e a83d 4ebd 25e2 313c abf3 fd3c
00000390: bfc8 00be a763 f83b f22b b53d 3a0a 2abd
000003a0: de9a ccbd 22df 873b d427 c5bd b890 2c3d
000003b0: 6d9a 32be 7555 cebc de82 1f3d abb5 4f3d
000003c0: f51d a9bc f2e7 0d3e c20f a9bd 4552 e7bd
000003d0: aabd 9abd 01ae e73c ffc3 8cbd 1b01 94bd
000003e0: 6002 f33c e048 6c3d 3b24 07be 3d10 8bbd
000003f0: aa97 76be 2d13 68bd 120b 873d 6fe9 da3d
