results/ppo/EatFood/EatFood-4096.onnx (onnx, 69559 bytes, 5 tensors)

action_model._continuous_distribution.mu.weight f4 [1, 128]
00000000: 0d70 063c 629c 57bc c844 fbbc e86e fb3b
00000010: 53d3 0c3c adc7 ae3b 567e 2e3d d7c5 6f3b
00000020: 47b8 6ebc f72c babb 676f 61bc b4dc bdbb
00000030: bf35 953c d557 7cbc 5827 463c 3094 9f3c
00000040: 51b4 c1bc f9cc 16bc 9d7f e03b 6726 77bc
00000050: 4b48 233c 28c0 f63c 5e5b 27bc dac4 c3b9
00000060: fd8b eb3c c5f2 fabc de2c b0bc 3745 0f3c
00000070: 336a 3dbc b7e9 8b3c 7bb5 e03c 341d 46bb
00000080: a1a2 13bc e551 5cbc 73c9 a83c 5deb b1bb
00000090: d709 22bc 6259 213c 1b6d 713c dd08 d03c
000000a0: e5c6 bb3b 377b 073b 25d0 a53b 6310 aeba
000000b0: d79b 3f3c 5518 023d 5632 b4bc 3a62 043d
000000c0: caa8 ad3b 6d9a 8cbc 73ef 373c bb53 ea3c
000000d0: 5de5 d5bb ea76 273b 7d3a 27bb 7d22 d33b
000000e0: ef01 233b 95c9 cf3c 3a34 0d3b c320 87ba
000000f0: 7a53 af3c 0ff4 fdbc 49dc 85bc dbac 9cbc
00000100: e63c 073c 91b4 82bc da47 16bd a31b 26bc
00000110: e7ea c7bc 5371 1c3d 0af6 ccb9 df5a d33b
00000120: 5bee aebc 35e5 13bb 0e50 20ba 8d57 f23b
00000130: 9540 6cbc baeb dabb d34b 16bd e34b 183c
00000140: b956 1c3c a90b 4abc a33d bfbb 3253 f1bc
00000150: ca6d 06bc 79db babc 6da1 53bb 906e 643b
00000160: 4bc0 363c 8b13 eb3c 0fec 513b c256 dfb8
00000170: 2be3 cfbb 082b bbbc 43a5 033c d36e 8b3b
00000180: 5574 f3bc 186c 11bc 69ce adbc 9d1b 7b3c
00000190: c73c 81bc 170d afbb fd32 b3bc 3355 683b
000001a0: 578f ec3a 1d8e 24bc b8f7 a3bb ba93 d2bc
000001b0: bfaf 68bc bd75 b9bb ce1d babc ebcc e03c
000001c0: 6a6e 6f3c 18a1 1dba 18b8 ba3b 5788 b63c
000001d0: 54ff 483b 6f5d b43c f882 cabc 961b ca3c
000001e0: 701c 0f3c 6320 eebb 4185 b53a feaa aa3c
000001f0: c3b6 16bc d291 363c d0f4 c7bc 5131 b03c
0.008205426 -0.013159843 -0.030672446 0.007673133 0.0085953055 0.005333862 0.042600952 0.0036586428
-0.014570302 -0.0056816298 -0.013759471 -0.005794132 0.018214105 -0.0154018 0.012094341 0.019479841
-0.023645552 -0.009204143 0.00685115 -0.015084839 0.009965966 0.030120924 -0.010214655 -0.00037339964
0.028753275 -0.03063334 -0.02150577 0.008744529 -0.011560964 0.017079217 0.027430287 -0.0030229809
-0.009010942 -0.01344726 0.020603871 -0.005429669 -0.009890041 0.009847971 0.014735485 0.025394851
0.005730497 0.0020672807 0.005060213 -0.001328003 0.01169487 0.031761486 -0.021996658 0.03232024
0.0052996622 -0.01716348 0.011226523 0.028604379 -0.0065275864 0.0025553056 -0.002551704 0.0064433203
0.0024872979 0.025364676 0.0021546022 -0.0010309446 0.02140211 -0.031000165 -0.016340392 -0.019125393
0.008254265 -0.015955241 -0.036689617 -0.010138425 -0.024404002 0.038194012 -0.00039093225 0.0064500417
-0.021353891 -0.0022567038 -0.00061154447 0.007395691 -0.014419694 -0.006680933 -0.036693405 0.009295437
0.009542161 -0.012331882 -0.005836205 -0.029458616 -0.008204887 -0.02280973 -0.0032292262 0.003485594
0.011154245 0.028695842 0.003203157 -0.000106496285 -0.006344219 -0.022847667 0.008035007 0.0042551546
-0.029718557 -0.008875869 -0.021216588 0.015326408 -0.015776051 -0.0053421366 -0.021874899 0.0035451173
0.001804809 -0.010043648 -0.0050038956 -0.025705207 -0.014202057 -0.0056597874 -0.02271929 0.027441463
0.014613727 -0.00060130795 0.005698215 0.022281809 0.0030669766 0.022017209 -0.024720654 0.024671357
0.008734807 -0.0072670444 0.0013848917 0.020833489 -0.009198847 0.011143165 -0.024408728 0.02150789

network_body._body_endoder.seq_layers.0.bias f4 [128]
00000000: 0000 0000 0000 0000 0000 0000 0000 0000
00000010: 0000 0000 0000 0000 0000 0000 0000 0000
00000020: 0000 0000 0000 0000 0000 0000 0000 0000
00000030: 0000 0000 0000 0000 0000 0000 0000 0000
00000040: 0000 0000 0000 0000 0000 0000 0000 0000
00000050: 0000 0000 0000 0000 0000 0000 0000 0000
00000060: 0000 0000 0000 0000 0000 0000 0000 0000
00000070: 0000 0000 0000 0000 0000 0000 0000 0000
00000080: 0000 0000 0000 0000 0000 0000 0000 0000
00000090: 0000 0000 0000 0000 0000 0000 0000 0000
000000a0: 0000 0000 0000 0000 0000 0000 0000 0000
000000b0: 0000 0000 0000 0000 0000 0000 0000 0000
000000c0: 0000 0000 0000 0000 0000 0000 0000 0000
000000d0: 0000 0000 0000 0000 0000 0000 0000 0000
000000e0: 0000 0000 0000 0000 0000 0000 0000 0000
000000f0: 0000 0000 0000 0000 0000 0000 0000 0000
00000100: 0000 0000 0000 0000 0000 0000 0000 0000
00000110: 0000 0000 0000 0000 0000 0000 0000 0000
00000120: 0000 0000 0000 0000 0000 0000 0000 0000
00000130: 0000 0000 0000 0000 0000 0000 0000 0000
00000140: 0000 0000 0000 0000 0000 0000 0000 0000
00000150: 0000 0000 0000 0000 0000 0000 0000 0000
00000160: 0000 0000 0000 0000 0000 0000 0000 0000
00000170: 0000 0000 0000 0000 0000 0000 0000 0000
00000180: 0000 0000 0000 0000 0000 0000 0000 0000
00000190: 0000 0000 0000 0000 0000 0000 0000 0000
000001a0: 0000 0000 0000 0000 0000 0000 0000 0000
000001b0: 0000 0000 0000 0000 0000 0000 0000 0000
000001c0: 0000 0000 0000 0000 0000 0000 0000 0000
000001d0: 0000 0000 0000 0000 0000 0000 0000 0000
000001e0: 0000 0000 0000 0000 0000 0000 0000 0000
000001f0: 0000 0000 0000 0000 0000 0000 0000 0000
0.0 0.0 0.0 0.0 0.0 0.0 0.0 0.0
0.0 0.0 0.0 0.0 0.0 0.0 0.0 0.0
0.0 0.0 0.0 0.0 0.0 0.0 0.0 0.0
0.0 0.0 0.0 0.0 0.0 0.0 0.0 0.0
0.0 0.0 0.0 0.0 0.0 0.0 0.0 0.0
0.0 0.0 0.0 0.0 0.0 0.0 0.0 0.0
0.0 0.0 0.0 0.0 0.0 0.0 0.0 0.0
0.0 0.0 0.0 0.0 0.0 0.0 0.0 0.0
0.0 0.0 0.0 0.0 0.0 0.0 0.0 0.0
0.0 0.0 0.0 0.0 0.0 0.0 0.0 0.0
0.0 0.0 0.0 0.0 0.0 0.0 0.0 0.0
0.0 0.0 0.0 0.0 0.0 0.0 0.0 0.0
0.0 0.0 0.0 0.0 0.0 0.0 0.0 0.0
0.0 0.0 0.0 0.0 0.0 0.0 0.0 0.0
0.0 0.0 0.0 0.0 0.0 0.0 0.0 0.0
0.0 0.0 0.0 0.0 0.0 0.0 0.0 0.0

network_body._body_endoder.seq_layers.0.weight f4 [128, 1]
00000000: 4934 903f 276c 923f cb7a 663f 23b8 393e
00000010: 9598 823e 9019 823e 6e9f ae3f 1a6b 87bf
00000020: 0c33 03c0 58fa 85bf f066 ba3f a692 15bf
00000030: 6575 acbf b9a1 35be 62ec d13f 0476 a9bf
00000040: b24f 01bf e863 c8be 8f8f 06bf 261a 0bbf
00000050: e347 943e 6190 153f 8588 833f ec0a e73f
00000060: b1c0 ef3f 9002 6bbf 35a0 33be 0ea1 7d3f
00000070: 4102 85be 46d7 4ebf fd51 d9bf e000 263e
00000080: 7373 46bf 30e5 5bbf 70c0 74be 9ec3 1b40
00000090: 2af7 f53f eae6 c3be 3edb a63e 96b4 04bf
000000a0: e172 9a3f acb8 a13f b450 80bf 317b ddbe
000000b0: f65e 7fbf 5bcb 3dbe b333 c0bf b096 44bf
000000c0: 97c7 e3be d259 f73e a317 3f3e d40b 95bf
000000d0: ec24 f63f 7f8c 37bf 9d69 62bf 33b9 653f
000000e0: 071f 4dbe 6579 643f e326 673d 453a 3240
000000f0: 5d4c 57bf 01d0 503f 32ee 21be f522 ac3f
00000100: aefb 2bbf 7c7c 0b3f 43a3 493f 4e3e 76be
00000110: 5111 8f3f ae02 36be f891 103f f62a 8cbf
00000120: 89f7 263f c297 f6bc ab4f fe3f 20a6 a33b
00000130: c8e5 a23f 32ea 0ebe dd61 45bf d9a7 493f
00000140: 2910 d03b 99a5 073e 44da 0f3f 0f12 9d3f
00000150: 1727 09bf b781 803c 46fd eb3e d819 e9bf
00000160: aaac a03f f9d4 d23f 6be5 34bf e96d 903f
00000170: a6d1 503f 825b b7bf 5b2e 4ebf 5fea 413f
00000180: 1e30 523f be8e ea3e 633e 953f 21b9 e13f
00000190: f3b0 173f 6dbc 4fbf 5f6c e1be 692f 093f
000001a0: 11b5 73bc 33db 7f3f e28b 0240 6f03 783e
000001b0: a034 42bf 8e8d a0bf 5ecc 923e 8986 66bd
000001c0: e8d4 993f 5723 993f e567 453f 32d1 a83c
000001d0: de6f c53f 8d96 9bbf 3740 903e 776b 943f
000001e0: 65ca 4abf ff70 d1be 00af 3cbf 004a babf
000001f0: 3b88 34bf 7e13 d63f ee99 0140 37e6 d93f
1.1265956 1.1439255 0.9003112 0.18136649 0.25507036 0.25410128 1.3642404 -1.057956
-2.0499907 -1.0467024 1.4562664 -0.5842689 -1.3473326 -0.17737474 1.6400263 -1.323914
-0.5051223 -0.39138722 -0.52562803 -0.54336774 0.28961095 0.5842343 1.0276037 1.8050208
1.873068 -0.91800785 -0.17541583 0.99073875 -0.25978282 -0.8079723 -1.6978146 0.16211271
-0.7751991 -0.8589659 -0.23901534 2.4338145 1.9216053 -0.3826211 0.32589144 -0.5183805
1.2066308 1.2634482 -1.0024629 -0.4325805 -0.99754274 -0.18534605 -1.5015777 -0.7679243
-0.44488212 0.48310715 0.1866136 -1.1644235 1.9230018 -0.71698755 -0.88442403 0.89735717
-0.20031367 0.89247733 0.05643357 2.7848065 -0.84100896 0.8156739 -0.1581352 1.3448168
-0.6718091 0.54486823 0.7876474 -0.24047205 1.117716 -0.1777446 0.5647273 -1.0950611
0.6522146 -0.03010166 1.9868063 0.004994169 1.2726374 -0.13956526 -0.7710245 0.7877174
0.0063495827 0.13246764 0.5619242 1.2271136 -0.5357527 0.015686853 0.4609167 -1.8211012
1.2552693 1.6471244 -0.70662564 1.1283542 0.815699 -1.4324801 -0.8053948 0.75748247
0.8210467 0.4581203 1.1659664 1.7634622 0.5925438 -0.8114689 -0.44027993 0.5358797
-0.014874713 0.99943846 2.0397878 0.2422006 -0.7586155 -1.2543199 0.28671545 -0.056280646
1.2018099 1.196391 0.77111655 0.020607565 1.5424764 -1.215532 0.28173992 1.1595296
-0.7921508 -0.40906522 -0.7370453 -1.4553833 -0.7052037 1.6724699 2.0250201 1.7023381

network_body._body_endoder.seq_layers.2.bias f4 [128]
00000000: 0000 0000 0000 0000 0000 0000 0000 0000
00000010: 0000 0000 0000 0000 0000 0000 0000 0000
00000020: 0000 0000 0000 0000 0000 0000 0000 0000
00000030: 0000 0000 0000 0000 0000 0000 0000 0000
00000040: 0000 0000 0000 0000 0000 0000 0000 0000
00000050: 0000 0000 0000 0000 0000 0000 0000 0000
00000060: 0000 0000 0000 0000 0000 0000 0000 0000
00000070: 0000 0000 0000 0000 0000 0000 0000 0000
00000080: 0000 0000 0000 0000 0000 0000 0000 0000
00000090: 0000 0000 0000 0000 0000 0000 0000 0000
000000a0: 0000 0000 0000 0000 0000 0000 0000 0000
000000b0: 0000 0000 0000 0000 0000 0000 0000 0000
000000c0: 0000 0000 0000 0000 0000 0000 0000 0000
000000d0: 0000 0000 0000 0000 0000 0000 0000 0000
000000e0: 0000 0000 0000 0000 0000 0000 0000 0000
000000f0: 0000 0000 0000 0000 0000 0000 0000 0000
00000100: 0000 0000 0000 0000 0000 0000 0000 0000
00000110: 0000 0000 0000 0000 0000 0000 0000 0000
00000120: 0000 0000 0000 0000 0000 0000 0000 0000
00000130: 0000 0000 0000 0000 0000 0000 0000 0000
00000140: 0000 0000 0000 0000 0000 0000 0000 0000
00000150: 0000 0000 0000 0000 0000 0000 0000 0000
00000160: 0000 0000 0000 0000 0000 0000 0000 0000
00000170: 0000 0000 0000 0000 0000 0000 0000 0000
00000180: 0000 0000 0000 0000 0000 0000 0000 0000
00000190: 0000 0000 0000 0000 0000 0000 0000 0000
000001a0: 0000 0000 0000 0000 0000 0000 0000 0000
000001b0: 0000 0000 0000 0000 0000 0000 0000 0000
000001c0: 0000 0000 0000 0000 0000 0000 0000 0000
000001d0: 0000 0000 0000 0000 0000 0000 0000 0000
000001e0: 0000 0000 0000 0000 0000 0000 0000 0000
000001f0: 0000 0000 0000 0000 0000 0000 0000 0000
0.0 0.0 0.0 0.0 0.0 0.0 0.0 0.0
0.0 0.0 0.0 0.0 0.0 0.0 0.0 0.0
0.0 0.0 0.0 0.0 0.0 0.0 0.0 0.0
0.0 0.0 0.0 0.0 0.0 0.0 0.0 0.0
0.0 0.0 0.0 0.0 0.0 0.0 0.0 0.0
0.0 0.0 0.0 0.0 0.0 0.0 0.0 0.0
0.0 0.0 0.0 0.0 0.0 0.0 0.0 0.0
0.0 0.0 0.0 0.0 0.0 0.0 0.0 0.0
0.0 0.0 0.0 0.0 0.0 0.0 0.0 0.0
0.0 0.0 0.0 0.0 0.0 0.0 0.0 0.0
0.0 0.0 0.0 0.0 0.0 0.0 0.0 0.0
0.0 0.0 0.0 0.0 0.0 0.0 0.0 0.0
0.0 0.0 0.0 0.0 0.0 0.0 0.0 0.0
0.0 0.0 0.0 0.0 0.0 0.0 0.0 0.0
0.0 0.0 0.0 0.0 0.0 0.0 0.0 0.0
0.0 0.0 0.0 0.0 0.0 0.0 0.0 0.0

network_body._body_endoder.seq_layers.2.weight f4 [128, 128]
00000000: 9abd a33d 6bc2 403d da32 14bd 9619 183e
00000010: f0b4 e73b 9847 2ebe ae2e a73c 801c f63c
00000020: 18f1 db3d 4c3d 65bd a684 c93d 493b 443d
00000030: 422b 553d 3a6c dfbc 28fc 1d3c 0b85 d4bc
00000040: ca84 d2bc 888d 4b3c 5751 b33d b562 9bbc
00000050: 5b57 8d3b f436 6f3e 5bb6 163d 2ca8 093e
00000060: 442d a7bc 1935 7e3e 35d6 7abd b412 88bd
00000070: 014c debd 712f 4d3d 17ad 0cbe 09c2 d33d
00000080: 4c42 e0bd 786d 653e f11b cc3d 6f88 a9bd
00000090: 0181 213d 05ba be3d dc6c c73d 6f98 943d
000000a0: 082e 27bd cb64 1cbb ae8c 71bd 96d4 1ebd
000000b0: 27f2 7cbc c4b7 333d a142 d13b 772f 333e
000000c0: 3a0f 903c cd7e c03d ddf8 b63d af52 2ebd
000000d0: 9f2f 1ebd 5af3 a63d ede5 323e 69f2 773c
000000e0: 9620 5bbd dd6a 9a3d 20f7 febd a100 303d
000000f0: 4631 3ebd 5cd0 abbd ebd6 7abc 4b19 fa3d
00000100: dbfb 403e d17f 18ba 2b5a c93b 32ec 26bd
00000110: 06ed 01be 77fc 143e cd1b 323e 6f4e a93d
00000120: 6296 d33b 5708 a2bc 193c 2abe bb94 243e
00000130: f752 7c3d 39ff cebd 544e b6bd a31e 203e
00000140: e75c 29bd 2a33 7b3d cf20 083e 2bf6 b53c
00000150: e0a9 1ebd 7a12 ca3d 09b4 05bd 9426 06bd
00000160: 137a 5f3e be44 c33d efcc 81bc 08ef 683d
00000170: 9994 153e 5c0f d93d aae8 dc3a 6cbb 5a3d
00000180: 5caa c43c f223 ea3d 48f9 093e b043 81bd
00000190: c976 e93c fafd 2f3e 1942 443d 3017 abbc
000001a0: cfe9 cbbd f9bd 7f3d 19ec 3a3e 2c2c 7a3d
000001b0: 606b a93c 6b1e 78bd 8d6e 863d 4b4d 18be
000001c0: be30 84bd 3bce 23bc e766 983d 0128 64bb
000001d0: 90a8 923c f393 2d3e ee00 86bd 6c64 8e3d
000001e0: 107b 843d 65be 633d 57be 663d 5574 2ebe
000001f0: 887d bf3c 2a4a 3c3d e297 e9bb e8b1 08be
00000200: 65e1 c73d ba53 f83b a9a8 08be 0a29 883c
00000210: 5d7a 803c 6e67 353c 4228 39bd 78bf 683e
00000220: 7d76 48bd fc27 afbb 75e1 053e 8f84 0abd
00000230: 2d67 18be a87a 823e 6f58 41bd 45e1 38bd
00000240: dcfb 883d 67de 7c3c 7194 443c b1c5 babc
00000250: 2fc0 26bd 61b0 0d3d 4626 63bd 262b ea3c
00000260: ff5c 103c 415d 83ba 6c64 733c 429f f13d
00000270: 31c0 82bb ccb5 063e 2dae 95bd df7d 4dbb
00000280: e0da 313d d210 e2bd 7876 04bd 36b5 213e
00000290: a497 16bd 6ac8 10be 05f7 eb3b 9504 40bc
000002a0: 3d27 0d3e 3cfa 5fbd b75f e13c faf8 15be
000002b0: 4cfe 0a3d da96 bfbd 1d82 893c c778 98bd
000002c0: 68d2 55bd 313e c73d 0ea0 2fbd d129 53bb
000002d0: 5a0c 0a3e 6a62 633c 788d b23c 4df3 84bd
000002e0: 5009 993d a66d 17bd 1c4e 02be 9a13 153d
000002f0: 60aa f5bd d702 35be b36b 59bd 0a36 00bc
00000300: f75d 9cbd c35c fdba fb4c b6bd 3859 b7bc
00000310: fc64 86bd a291 ff3c c863 ad3d 9bb2 a2bd
00000320: 0a33 f2bc 2c7d 54be 6c63 a13d 5272 193e
00000330: 71ba 3e3d 51dd 123e 655a a9bc d10d 9d3c
00000340: e58b fe3b bc77 033d 77ff 3a3d a12c 2dbd
00000350: c160 85be 6788 293d a80a 3a3c 3a52 293b
00000360: d3ec 03be 05c2 6a3d 4750 0e3b a68b e7bd
00000370: 9632 e73b 4bc7 dcbd efec 333d 822e febb
00000380: 9397 11bd 92cb fc3d d9c6 6c3d 970b d1bc
00000390: 1f96 2a3d c364 713d 57d7 21bc 86f9 023d
000003a0: 107d 233d b91d 1dbe 797b cf3c bdc8 803d
000003b0: 4ad5 253e 6031 2bbc 579d eb3b a5fc 713d
000003c0: d032 213e 5574 9bbd a77f aa3c 67f1 803c
000003d0: 6015 343d 8e6e 003d 2614 2c3c cca2 0a3c
000003e0: 7c46 f03c a1ff 693c c710 27bd 4fa9 223e
000003f0: 1baf fa3d 149f 0e3c bc5b a6b9 7e35 0cbd
0.07995148 0.04706041 -0.03618131 0.1485351 0.00707113 -0.17019498 0.020408 0.030042887
0.10739344 -0.05596666 0.09839754 0.0479081 0.052043207 -0.027273286 0.009642638 -0.025942346
-0.025698084 0.01242388 0.08755749 -0.018967966 0.004313392 0.23360807 0.036795 0.13443059
-0.020407327 0.24824943 -0.06123944 -0.06644192 -0.1085434 0.05009407 -0.13737904 0.10339744
-0.10950145 0.2240504 0.09966267 -0.08277976 0.03942967 0.09312824 0.0973756 0.07255637
-0.040815383 -0.0023863788 -0.058972053 -0.038776956 -0.015438593 0.043876424 0.0063861166 0.17498575
0.017585386 0.09399185 0.08934186 -0.042559322 -0.038619634 0.081518844 0.17470522 0.015133479
-0.053497873 0.07539914 -0.12449479 0.04296935 -0.04643371 -0.08389351 -0.0153100295 0.122118555
0.18846075 -0.0005817386 0.006144782 -0.040752597 -0.12688074 0.14549433 0.17393418 0.08266913
0.006457136 -0.019779367 -0.16624488 0.16072361 0.06160256 -0.101072736 -0.08901659 0.15636687
-0.041348364 0.06132809 0.13293765 0.022212109 -0.038736224 0.098668054 -0.032642398 -0.032751635
0.21823911 0.09534596 -0.01584479 0.056868583 0.14607467 0.10598633 0.0016854007 0.053401396
0.024007015 0.11432637 0.13474 -0.063117385 0.028499024 0.17186728 0.047914598 -0.02088508
-0.09956705 0.06243703 0.18254127 0.06107728 0.020681083 -0.060575884 0.06564055 -0.14873235
-0.06454609 -0.0099979 0.07441502 -0.0034813883 0.017902642 0.1695097 -0.06543146 0.06952748
0.06468785 0.055601496 0.056333866 -0.17036565 0.023375288 0.045969166 -0.0071287015 -0.13349116
0.097597875 0.0075783404 -0.13345589 0.016621131 0.015683347 0.011072023 -0.04520441 0.2272929
-0.048941124 -0.0053453427 0.13074286 -0.033817824 -0.14883108 0.25484204 -0.047203477 -0.04513671
0.06688663 0.015433884 0.011998282 -0.022799345 -0.040710624 0.034592036 -0.055456422 0.028585028
0.0088112345 -0.0010022299 0.014855485 0.11797954 -0.003990196 0.13155288 -0.07308612 -0.0031355543
0.043421626 -0.110383645 -0.032339543 0.15791783 -0.03676571 -0.14138952 0.007201078 -0.011719842
0.137845 -0.054682 0.02751146 -0.14645758 0.033933923 -0.093549445 0.016785676 -0.074449115
-0.052202612 0.09728659 -0.04287725 -0.003222097 0.13481274 0.013878444 0.021795973 -0.064917184
0.07472479 -0.036969803 -0.12725109 0.036395647 -0.11995387 -0.17676865 -0.053081226 -0.007825384
-0.0763511 -0.0019330013 -0.089014016 -0.02238141 -0.0656223 0.031197373 0.084662974 -0.079442225
-0.029565353 -0.20750874 0.07880291 0.14985016 0.046564523 0.14342238 -0.020672986 0.019171627
0.0077681416 0.03209661 0.045653787 -0.04227889 -0.2605038 0.04138985 0.01135508 0.0025836364
-0.1288331 0.057313938 0.002171533 -0.11305933 0.007055591 -0.107801996 0.04392713 -0.007757009
-0.035544943 0.123435155 0.057806823 -0.025518222 0.041647073 0.058933984 -0.009878001 0.031976245
0.03991419 -0.1534337 0.025327431 0.06288288 0.16194645 -0.010448784 0.007190387 0.05907883
0.1574204 -0.07590548 0.020812823 0.01574011 0.043965697 0.031355433 0.010502851 0.008461665
0.029330485 0.014282138 -0.040787484 0.15884899 0.1224043 0.008704919 -0.00031730335 -0.0342307
