results/ppo/EatFood/EatFood-3545.onnx (onnx, 70591 bytes, 7 tensors)

action_model._continuous_distribution.log_sigma f4 [1, 2]
000000 00 00 00 00 00 00 00 00
       0.0 0.0

action_model._continuous_distribution.mu.bias f4 [2]
000000 00 00 00 00 00 00 00 00
       0.0 0.0

action_model._continuous_distribution.mu.weight f4 [2, 128]
000000 e5 14 6a bc 73 8c 6b 3b 39 c7 b5 ba 68 93 61 bb
       -0.014287208 0.0035941869 -0.0013868577 -0.0034420136
000010 e2 87 28 3d 47 93 a0 bc 9b b8 bf bc 3b 6c bf bb
       0.041145213 -0.019601477 -0.023403456 -0.0058417595
000020 83 a3 b5 bb e5 b2 a9 bc 13 30 04 bd db 04 72 bc
       -0.0055431738 -0.020715186 -0.03227241 -0.014771665
000030 cb b3 b0 bc 87 6b 83 3b 29 ee 23 bc d7 95 7b 3b
       -0.021570107 0.004010621 -0.010005512 0.0038388872
000040 dc 76 94 3c 13 04 97 3c e9 e9 05 3c 46 d1 46 bc
       0.018123083 0.01843456 0.008173444 -0.012134856
000050 b2 73 09 bc 8f 26 2c bb 0d f3 58 3c bc d1 23 bd
       -0.0083894 -0.00262681 0.013241542 -0.03999494
000060 90 3c 26 3d 55 63 5f bc 23 0e 99 3c 45 c8 64 bc
       0.0405851 -0.013634522 0.018683499 -0.013963764
000070 95 83 13 3c 5f 08 b1 3c de bd 0a 3c 7a 66 ed 3b
       0.00900354 0.021610437 0.008468119 0.007244882
000080 eb ec 6f bc a2 1d 91 3c 73 5d fd bb 7c cc 1e 3c
       -0.014643888 0.017714325 -0.0077320873 0.009692308
000090 ed e7 98 bb 20 d9 00 bc 8f f2 d0 bc 83 3b 3a 3c
       -0.0046663196 -0.007864267 -0.025506286 0.011366728
0000a0 8b e1 11 bc 0f ab 0c 3c 33 e1 08 bc f2 ed 7f bc
       -0.008903871 0.008585705 -0.008354473 -0.015620695
0000b0 9f 16 6a 3c af d4 d5 bc 78 32 e9 3c 5d 5b 23 ba
       0.01428762 -0.026102392 0.028466448 -0.0006231571
0000c0 b2 77 ad bb 19 78 bb 3c f2 bf 02 bb b9 2b 86 bc
       -0.00529381 0.022884415 -0.0019950834 -0.01637827
0000d0 07 a7 83 3c 39 18 2a bb 63 c4 8b bc c7 0f 6d bc
       0.016070856 -0.002595438 -0.017061418 -0.014469094
0000e0 a3 38 91 39 9f 74 17 3d b3 a4 15 bd b3 43 26 bc
       0.00027698753 0.036976453 -0.036534023 -0.010147977
0000f0 c3 2a dc bb 53 21 2e bc 33 2b 78 bc da 7a 17 3b
       -0.006718965 -0.010628062 -0.015147018 0.0023113997
000100 12 d0 1b bc 25 79 ba bb ba e2 c3 ba 89 53 15 bb
       -0.009510057 -0.005690711 -0.0014944889 -0.0022785387
000110 23 bb 28 3c f3 63 00 3d c5 0c 12 bd 68 a8 dd 3b
       0.010298523 0.03134532 -0.03565671 0.0067644604
000120 c3 42 6e 38 56 c5 0d 3c 20 e9 e7 bb 35 fa 93 3c
       5.68058e-05 0.008653006 -0.007077351 0.018063644
000130 57 38 26 bc eb d4 84 bb b3 65 d2 bb 1a e0 b9 3c
       -0.010145268 -0.004053702 -0.006420815 0.022689868
000140 b7 15 0f 3d c5 76 98 bb b8 3e e3 bc 87 97 1e bd
       0.03493282 -0.0046528303 -0.027739868 -0.038718726
000150 ba 2e 37 3c c8 72 7b 3c 07 ca 61 3c f7 02 e2 3b
       0.011180574 0.01534719 0.013781077 0.006897326
000160 f3 7c 1d 3c 76 da 30 bc 58 24 6d 3c 7b 71 a4 bb
       0.00961231 -0.010794273 0.014473997 -0.0050184107
000170 00 c0 66 bc 74 f2 39 bc 98 46 2e bc 9a 57 b1 bc
       -0.014083862 -0.011349309 -0.010636948 -0.021648217
000180 82 2b 71 bc 86 a6 4c bb b1 27 b5 bb 4f 6b 21 ba
       -0.014719846 -0.0031227185 -0.005528413 -0.0006157653
000190 f3 d8 c9 3c b3 90 59 bc b0 34 a7 bc 24 ff 12 bb
       0.024639582 -0.013279128 -0.020410866 -0.0022429908
0001a0 12 eb c4 bb 5e 2e 1d 3b 04 54 96 3b cd 0d 15 bd
       -0.006009468 0.0023983936 0.004587652 -0.036390115
0001b0 19 41 4a bd 2b c6 a7 bc e5 5d 52 3d 60 50 20 3b
       -0.04937849 -0.020480236 0.051359076 0.002446197
0001c0 70 ab 51 3b c5 56 3c bc a7 2c 68 bb 83 6c fd bc
       0.0031993054 -0.011495297 -0.0035427005 -0.030935531
0001d0 b0 ae 14 3b aa e3 67 bc 5f eb 97 bc eb 53 c6 ba
       0.002268713 -0.0141534 -0.01854485 -0.0015131211
0001e0 95 0c 9c 3c c5 27 d3 b8 75 3a 05 bc da 11 e3 3b
       0.019048968 -0.00010068672 -0.008131613 0.0069296183
0001f0 6f d6 ef bc 1d e1 da ba ff a9 c2 3c 63 60 39 39
       -0.029277055 -0.0016699169 0.023762701 0.00017678882
000200 97 46 b0 3c 3a 0a b6 3c dd 03 6d bc 22 72 1b 3c
       0.021518035 0.022221673 -0.014466253 0.009487661
000210 87 6e b9 3c 1f fe 01 bd ab 31 85 3b ee 00 9b 3c
       0.022635711 -0.03173649 0.004064759 0.018921342
000220 1f d8 11 bc 1a ef f6 3c 73 e8 6e 3a c9 ee c0 bb
       -0.008901625 0.03014331 0.0009113617 -0.0058878404
000230 8a 86 50 bb c0 a8 aa 3b c8 8d 88 3c ff 35 9f 3c
       -0.0031818473 0.005208105 0.016669169 0.019434927
000240 08 d5 91 bc 52 11 22 3a 12 20 78 bc c2 0d 78 bc
       -0.017801777 0.00061823905 -0.015144365 -0.015139999
000250 25 88 78 36 ae 8e 04 bd 8f 92 b3 3c ca 27 fd 3a
       3.7034126e-06 -0.032362632 0.02192047 0.0019314226
000260 16 3d 30 bc 37 67 27 3c e3 6d ba bc f8 5f 7c 3c
       -0.0107567515 0.010217479 -0.022757476 0.01540374
000270 8f 71 92 ba 7b f3 0f 3d 08 91 1c bc cf 8b ff 3c
       -0.0011172759 0.03514431 -0.0095560625 0.031194596
000280 83 9d a1 bb 2b 8c a7 bc 25 45 22 bc 90 0f e1 bb
       -0.004932107 -0.02045258 -0.009904181 -0.0068683103
000290 1b 1c e7 3c c7 4b 2d bd a2 32 50 3c cd fb 7e 3b
       0.028211644 -0.042308595 0.012707384 0.003890741
0002a0 72 bf 58 3a 46 74 91 3a 62 78 39 bc 53 47 48 3d
       0.00082682737 0.0011097274 -0.011320205 0.048896145
0002b0 a7 fb 6a 3c b9 c8 45 3c ca 8a d4 bb 6f f3 dc bb
       0.014342225 0.012071782 -0.0064862715 -0.0067428867
0002c0 41 00 19 3c 73 ee 55 bb 46 7e ca 3b c7 29 d8 3b
       0.009338439 -0.0032643348 0.0061796037 0.006596777
0002d0 97 fc 56 bc 45 15 ea bc 36 80 b0 bb d8 a6 b6 bc
       -0.013121746 -0.028574595 -0.0053863777 -0.022296354
0002e0 2c e0 14 3d 23 1b 9b 3b 30 f2 34 3c 97 97 d5 bc
       0.0363466 0.0047334596 0.01104407 -0.02607326
0002f0 48 5e 24 3b 42 25 05 3d 11 2f c2 bc 92 18 0b bb
       0.002508061 0.032506235 -0.023704084 -0.0021224362
000300 9f 95 2f 3a 58 a6 5d bc 52 fc 6c bc 3f 04 20 bb
       0.00066980155 -0.013528429 -0.014464455 -0.0024416593
000310 16 8d 3b ba 75 30 65 3b e3 6b 1b ba 3f 90 4f 3c
       -0.00071545073 0.003497151 -0.0005928857 0.012668668
000320 38 46 ba bc 02 ee 7f bc 56 e6 32 bd 8b 95 dc bb
       -0.022738561 -0.01562071 -0.043676697 -0.006731694
000330 3b 9b 2d bc af 3d 5d ba 37 04 be 3a 8b 08 22 3c
       -0.010596092 -0.00084396725 0.0014497106 0.009889732
000340 9f c5 41 3c 5f 2d f2 3a ac 89 3a bc a2 67 ee bb
       0.011826902 0.0018476656 -0.011385363 -0.0072755376
000350 72 1c 87 bb f2 38 fd ba 27 54 ec bc 2b ab 26 bd
       -0.004123264 -0.0019319339 -0.02884872 -0.040690582
000360 98 cc 38 3d 93 49 c0 3c e7 f3 d4 bb 9f eb 39 3c
       0.04511699 0.023472583 -0.006498802 0.01134768
000370 6c 08 84 bb f3 b7 fd bb 15 30 00 3b 37 95 8a bb
       -0.0040293243 -0.0077428757 0.001955991 -0.0042292136
000380 83 63 63 b9 71 02 38 3c 5a 80 42 bc ae ba 37 bc
       -0.00021685478 0.011231051 -0.011871422 -0.0112139415
000390 28 4c 24 3c e8 f1 e7 bc 4d aa 77 ba 7d 17 9b 3c
       0.010027923 -0.028313592 -0.0009447679 0.018932099
0003a0 7a 20 77 bc 5c 81 9f 3c 9b fd bf bb 33 75 00 3c
       -0.015083427 0.019470863 -0.0058590895 0.0078404425
0003b0 76 71 c0 3b bb 5e ac 3b 28 16 5c bc 8d 84 ea bb
       0.0058729006 0.005260316 -0.013433017 -0.0071569146
0003c0 47 46 7d 3c f1 1f 93 bc a9 a8 13 3c f5 8e 02 bc
       0.01545865 -0.017959567 0.00901238 -0.007968654
0003d0 8e 91 b5 bb 52 1b b0 bb 5d 32 4c 3c ef 2e 4f 3c
       -0.005541033 -0.0053743506 0.012463179 0.012645467
0003e0 77 aa 84 3b 67 0f cf bc b3 a2 14 38 68 bb 8a 3c
       0.0040486413 -0.0252759 3.5437475e-05 0.016935065
0003f0 95 a9 d0 bc 44 23 b7 bc 74 c9 aa 3c 48 40 dc ba
       -0.025471488 -0.022355683 0.020848013 -0.0016803825

network_body._body_endoder.seq_layers.0.bias f4 [128]
000000 00 00 00 00 00 00 00 00 00 00 00 00 00 00 00 00
       0.0 0.0 0.0 0.0
000010 00 00 00 00 00 00 00 00 00 00 00 00 00 00 00 00
       0.0 0.0 0.0 0.0
000020 00 00 00 00 00 00 00 00 00 00 00 00 00 00 00 00
       0.0 0.0 0.0 0.0
000030 00 00 00 00 00 00 00 00 00 00 00 00 00 00 00 00
       0.0 0.0 0.0 0.0
000040 00 00 00 00 00 00 00 00 00 00 00 00 00 00 00 00
       0.0 0.0 0.0 0.0
000050 00 00 00 00 00 00 00 00 00 00 00 00 00 00 00 00
       0.0 0.0 0.0 0.0
000060 00 00 00 00 00 00 00 00 00 00 00 00 00 00 00 00
       0.0 0.0 0.0 0.0
000070 00 00 00 00 00 00 00 00 00 00 00 00 00 00 00 00
       0.0 0.0 0.0 0.0
000080 00 00 00 00 00 00 00 00 00 00 00 00 00 00 00 00
       0.0 0.0 0.0 0.0
000090 00 00 00 00 00 00 00 00 00 00 00 00 00 00 00 00
       0.0 0.0 0.0 0.0
0000a0 00 00 00 00 00 00 00 00 00 00 00 00 00 00 00 00
       0.0 0.0 0.0 0.0
0000b0 00 00 00 00 00 00 00 00 00 00 00 00 00 00 00 00
       0.0 0.0 0.0 0.0
0000c0 00 00 00 00 00 00 00 00 00 00 00 00 00 00 00 00
       0.0 0.0 0.0 0.0
0000d0 00 00 00 00 00 00 00 00 00 00 00 00 00 00 00 00
       0.0 0.0 0.0 0.0
0000e0 00 00 00 00 00 00 00 00 00 00 00 00 00 00 00 00
       0.0 0.0 0.0 0.0
0000f0 00 00 00 00 00 00 00 00 00 00 00 00 00 00 00 00
       0.0 0.0 0.0 0.0
000100 00 00 00 00 00 00 00 00 00 00 00 00 00 00 00 00
       0.0 0.0 0.0 0.0
000110 00 00 00 00 00 00 00 00 00 00 00 00 00 00 00 00
       0.0 0.0 0.0 0.0
000120 00 00 00 00 00 00 00 00 00 00 00 00 00 00 00 00
       0.0 0.0 0.0 0.0
000130 00 00 00 00 00 00 00 00 00 00 00 00 00 00 00 00
       0.0 0.0 0.0 0.0
000140 00 00 00 00 00 00 00 00 00 00 00 00 00 00 00 00
       0.0 0.0 0.0 0.0
000150 00 00 00 00 00 00 00 00 00 00 00 00 00 00 00 00
       0.0 0.0 0.0 0.0
000160 00 00 00 00 00 00 00 00 00 00 00 00 00 00 00 00
       0.0 0.0 0.0 0.0
000170 00 00 00 00 00 00 00 00 00 00 00 00 00 00 00 00
       0.0 0.0 0.0 0.0
000180 00 00 00 00 00 00 00 00 00 00 00 00 00 00 00 00
       0.0 0.0 0.0 0.0
000190 00 00 00 00 00 00 00 00 00 00 00 00 00 00 00 00
       0.0 0.0 0.0 0.0
0001a0 00 00 00 00 00 00 00 00 00 00 00 00 00 00 00 00
       0.0 0.0 0.0 0.0
0001b0 00 00 00 00 00 00 00 00 00 00 00 00 00 00 00 00
       0.0 0.0 0.0 0.0
0001c0 00 00 00 00 00 00 00 00 00 00 00 00 00 00 00 00
       0.0 0.0 0.0 0.0
0001d0 00 00 00 00 00 00 00 00 00 00 00 00 00 00 00 00
       0.0 0.0 0.0 0.0
0001e0 00 00 00 00 00 00 00 00 00 00 00 00 00 00 00 00
       0.0 0.0 0.0 0.0
0001f0 00 00 00 00 00 00 00 00 00 00 00 00 00 00 00 00
       0.0 0.0 0.0 0.0

network_body._body_endoder.seq_layers.0.weight f4 [128, 2]
000000 0c c6 78 3f 06 04 fe be b3 44 0f 3f 98 ef f5 3e
       0.97177196 -0.49612445 0.559642 0.48034358
000010 c2 a7 2a 3f 73 d1 58 be 37 92 35 3e c8 0a fa be
       0.6666223 -0.21173649 0.17731558 -0.4883635
000020 96 45 cf 3e e2 04 5f bf 80 87 08 bf de f4 f0 be
       0.40482777 -0.87116826 -0.53331757 -0.4706182
000030 1b 4d 7a bf 80 b3 75 3f e6 cf 3e bb 55 9e 95 3f
       -0.97773904 0.9597702 -0.0029115616 1.1688944
000040 0d 79 78 bf fe 96 fd 3e 60 af e0 be 91 03 0a 3f
       -0.9705971 0.4952926 -0.438838 0.5391169
000050 9d cf 0f 3f ed 9e e6 3a c6 95 4b 3f 90 6b 12 3f
       0.5617617 0.0017594971 0.7952541 0.5719538
000060 1b a0 17 3e b9 b1 d1 3e 7f b7 1a bf ba 37 71 3f
       0.14807169 0.40955904 -0.6043624 0.94225657
000070 53 3c 08 3f 31 0a 5e 3f 0b 27 d1 3e c7 ed 4d 3e
       0.5321705 0.867343 0.408501 0.20110236
000080 13 c5 86 bf 55 24 c3 bd d0 d8 f3 be 8d 3d 1b bf
       -1.0528892 -0.09528414 -0.47626352 -0.60640794
000090 e6 cd 9d bf 50 88 74 bf 3a ce 4e bf 27 3f d7 3e
       -1.232846 -0.95520496 -0.80783427 0.4204037
0000a0 e9 67 cb bf 3d c9 3b 3f 4d ec 1c be 37 a9 a2 be
       -1.5891086 0.7335394 -0.15324517 -0.31769726
0000b0 93 d6 c8 bc bc 5a 1f 3c 45 d6 c5 be 74 16 01 bc
       -0.02451638 0.009726223 -0.38640037 -0.007878888
0000c0 67 28 82 3d c7 2b 31 3f 10 d4 90 3e 80 7a 42 bf
       0.063553624 0.69207424 0.2828679 -0.7596817
0000d0 a4 22 82 3d 25 2a b0 3f 2b 61 78 3e 18 57 24 3f
       0.063542634 1.3762861 0.24255817 0.64195395
0000e0 42 af 86 bd c1 e5 a9 be 02 58 0b 3f 17 59 cc be
       -0.065763965 -0.331831 0.54431164 -0.3991172
0000f0 6a 06 36 be db 3a 99 bf 31 7d 10 3f b8 3f fe bd
       -0.17775884 -1.1971086 0.56441027 -0.12414497
000100 0b e9 aa be 72 70 f6 3b be c1 d3 be 33 55 46 3f
       -0.33380923 0.0075207287 -0.4135875 0.77473754
000110 70 73 ac bf db 94 a4 3f db aa ad 3f e5 d4 52 3f
       -1.3472729 1.2857927 1.3567766 0.823561
000120 e5 28 91 3e aa 8a 12 3f 5f 39 3b 3f 2c a9 10 3f
       0.28351513 0.57242835 0.73134416 0.56508136
000130 03 91 f8 bf 07 de b6 be 97 a7 a2 bf d6 a3 32 bd
       -1.9419254 -0.35716268 -1.2707394 -0.043613277
000140 28 87 18 3e 48 f3 a3 bf 7e dd c4 be e6 ca 1d 3e
       0.14895308 -1.2808619 -0.38450235 0.15409431
000150 f1 75 18 3f dc 34 d2 3f 6f d6 b6 3e 96 85 5c 3f
       0.59554964 1.6422381 0.35710475 0.86141336
000160 2d 04 e3 be 5f 18 53 3f 85 bd eb bd ef 97 63 bf
       -0.44339123 0.8245906 -0.11510757 -0.8890371
000170 5a ab 1b 3f f5 26 17 3f fe 09 2e bf e4 b6 eb be
       0.60808337 0.5904382 -0.67983997 -0.46037972
000180 99 26 70 3e ca 33 37 bf 01 3a 83 3d 8c b8 94 be
       0.23452224 -0.715634 0.06407548 -0.29047048
000190 45 a9 2b 3e 79 ea a9 3d 21 1f d1 3e d6 d7 45 3f
       0.1676379 0.08296675 0.40844062 0.77282465
0001a0 66 f6 8a 3f a8 f3 43 3c 5e f8 04 bf 45 60 16 bf
       1.0856445 0.011959948 -0.5194148 -0.58740646
0001b0 85 1f 5e 3f 09 68 26 bf 04 fe 57 bf fd 58 f9 3e
       0.86766845 -0.65002495 -0.8437197 0.48700705
0001c0 af 35 54 3e 30 9f 3e 3f d8 47 f7 3e 35 fc 1a be
       0.20723604 0.7446165 0.48297 -0.15135272
0001d0 18 81 b4 be 2e 46 a4 bf ec 73 36 3f eb 6b 64 bf
       -0.3525474 -1.2833917 0.7127063 -0.8922717
0001e0 05 d7 31 3e c0 c3 33 3f 50 32 b0 3d 76 a0 a7 be
       0.1736718 0.70220566 0.08603346 -0.3273961
0001f0 8f e2 41 b9 08 83 69 3f d3 3b a6 3f 91 e1 4e be
       -0.00018490314 0.9121556 1.2987007 -0.20203234
000200 30 54 1f be 37 7d 28 bf da d3 21 bf 56 49 fb bc
       -0.15559459 -0.6581606 -0.63213885 -0.030674618
000210 ad 9e 67 3f 6e 86 bf 3e 1f 52 ff 3e a0 9c 64 be
       0.90476495 0.3740725 0.4986734 -0.22325373
000220 7b 3c 64 3f 6b 8d 29 bf 31 c2 e4 be d7 91 ab be
       0.89154786 -0.6623141 -0.44679406 -0.33509704
000230 d1 6f 5d 3e a4 fe 60 3f b0 d8 87 bf fb 18 f5 3f
       0.21624686 0.8788855 -1.0613003 1.9148248
000240 73 99 8d bd 3d 9d 82 bf 08 b8 e9 bf 62 ed cf 3e
       -0.06914034 -1.0204235 -1.8259287 0.40610796
000250 f8 01 9b 3f 97 10 99 3e bf 73 85 3f 09 04 7e 3e
       1.2109976 0.2989547 1.0425948 0.24806227
000260 79 af d1 bd 23 16 54 bf bb 1c 2c be 36 9b f4 be
       -0.10238547 -0.8284628 -0.16807835 -0.47774667
000270 2f 47 6e 3f 98 a4 5b 3f c4 4c 5f be 6e 27 c0 3e
       0.9307737 0.85798025 -0.21806628 0.37530082
000280 b8 75 89 3e d4 bb b4 3e 07 95 57 bd f5 53 24 bf
       0.26847625 0.3529955 -0.052632358 -0.6419061
000290 d6 7c 91 be 46 40 19 3f 95 11 96 3e 89 bb 3b 3f
       -0.28415555 0.598637 0.2931029 0.7333303
0002a0 aa 0d 2d be e4 1b 4b 3e 35 6d c4 bf c1 d9 54 3f
       -0.16899744 0.19834858 -1.5345827 0.83144766
0002b0 dc 8b c0 3e b3 7b 74 bf f3 ca 9e 3e 40 0a ac bd
       0.37606704 -0.9550125 0.31014213 -0.084003925
0002c0 4c 97 b2 bf b1 a1 1a be 56 64 5b 3f 2c 56 62 3d
       -1.3952422 -0.15100743 0.85699975 0.05525796
0002d0 a3 90 9d be 1c a3 0d 3f 98 9e 82 bc 17 48 67 3f
       -0.30774412 0.5532701 -0.015944764 0.90344375
0002e0 d8 f8 d9 be e6 17 61 3f 08 e6 37 be 90 13 07 bf
       -0.42572665 0.8792709 -0.17958844 -0.52764225
0002f0 da ab 20 bf aa b6 29 3f df 36 94 bf a7 2f a6 3f
       -0.62762225 0.6629435 -1.1579245 1.2983292
000300 67 6e 49 bf 8a e5 0a be df f3 fb bd 00 15 f5 be
       -0.78684086 -0.13564125 -0.12302374 -0.47867584
000310 64 7c 60 3e 26 c9 54 3f 9e 90 1d 3f 81 c5 16 bf
       0.21922451 0.8311943 0.61548793 -0.5889512
000320 9b 4e ef 3e 72 cd fc be 9c 0e 44 3f da 8b d9 be
       0.4673966 -0.49375492 0.7658479 -0.4248951
000330 ed 95 26 be 80 db 16 bf 71 8c bf 3f 49 85 aa 3f
       -0.1626813 -0.5892868 1.4964734 1.3321925
000340 0e 36 38 3f 3d 1d 87 3e 31 65 44 bd 89 74 3b bf
       0.7195748 0.26389495 -0.047948066 -0.73224694
000350 89 ab d2 3d 0c eb 92 bf 97 c0 7a 3c 9c fc 20 3e
       0.10286624 -1.1477981 0.015304706 0.15721363
000360 5d 15 cd 3e b1 e5 54 3f 87 11 2f 3f c4 6b 67 bf
       0.4005536 0.8316298 0.6838612 -0.9039881
000370 59 dd 8d 3f 4f b3 15 3f 76 b2 9f 3e 65 74 37 bf
       1.1083175 0.5847673 0.31190842 -0.7166198
000380 7c 00 23 3f ec c2 0d 3f 11 d4 af 3d 62 29 15 3f
       0.63672614 0.5537555 0.0858537 0.5826627
000390 0f 17 08 bf 2a 50 bf 3f ad 09 93 3e f3 05 8c 3e
       -0.53160185 1.4946339 0.2871832 0.2734829
0003a0 36 80 0e 3f 68 d6 8d be 4f b4 23 bf 90 ec bf bd
       0.55664384 -0.2770264 -0.63947004 -0.093712926
0003b0 85 0a 02 be 1a c4 a1 3d f4 c5 bc be 51 fa a5 be
       -0.12699325 0.078987315 -0.36869776 -0.3241754
0003c0 d5 3e 48 bf de ca 38 3e d7 20 8c be c1 f0 1c 3e
       -0.78220874 0.18046138 -0.27368805 0.15326215
0003d0 87 6a 09 3f f1 ed 0f bf 63 eb d4 3e bd 97 8a be
       0.5367817 -0.56222445 0.41585836 -0.27068892
0003e0 90 1a 64 be cf 09 9a 3e b5 a5 76 bd 8e d3 1d bf
       -0.22275758 0.30085608 -0.060216624 -0.6165093
0003f0 cd ae 93 3f d7 07 8c 3f 54 17 90 3f 80 09 c9 3d
       1.153772 1.0939893 1.1257119 0.09816265

network_body._body_endoder.seq_layers.2.bias f4 [128]
000000 00 00 00 00 00 00 00 00 00 00 00 00 00 00 00 00
       0.0 0.0 0.0 0.0
000010 00 00 00 00 00 00 00 00 00 00 00 00 00 00 00 00
       0.0 0.0 0.0 0.0
000020 00 00 00 00 00 00 00 00 00 00 00 00 00 00 00 00
       0.0 0.0 0.0 0.0
000030 00 00 00 00 00 00 00 00 00 00 00 00 00 00 00 00
       0.0 0.0 0.0 0.0
000040 00 00 00 00 00 00 00 00 00 00 00 00 00 00 00 00
       0.0 0.0 0.0 0.0
000050 00 00 00 00 00 00 00 00 00 00 00 00 00 00 00 00
       0.0 0.0 0.0 0.0
000060 00 00 00 00 00 00 00 00 00 00 00 00 00 00 00 00
       0.0 0.0 0.0 0.0
000070 00 00 00 00 00 00 00 00 00 00 00 00 00 00 00 00
       0.0 0.0 0.0 0.0
000080 00 00 00 00 00 00 00 00 00 00 00 00 00 00 00 00
       0.0 0.0 0.0 0.0
000090 00 00 00 00 00 00 00 00 00 00 00 00 00 00 00 00
       0.0 0.0 0.0 0.0
0000a0 00 00 00 00 00 00 00 00 00 00 00 00 00 00 00 00
       0.0 0.0 0.0 0.0
0000b0 00 00 00 00 00 00 00 00 00 00 00 00 00 00 00 00
       0.0 0.0 0.0 0.0
0000c0 00 00 00 00 00 00 00 00 00 00 00 00 00 00 00 00
       0.0 0.0 0.0 0.0
0000d0 00 00 00 00 00 00 00 00 00 00 00 00 00 00 00 00
       0.0 0.0 0.0 0.0
0000e0 00 00 00 00 00 00 00 00 00 00 00 00 00 00 00 00
       0.0 0.0 0.0 0.0
0000f0 00 00 00 00 00 00 00 00 00 00 00 00 00 00 00 00
       0.0 0.0 0.0 0.0
000100 00 00 00 00 00 00 00 00 00 00 00 00 00 00 00 00
       0.0 0.0 0.0 0.0
000110 00 00 00 00 00 00 00 00 00 00 00 00 00 00 00 00
       0.0 0.0 0.0 0.0
000120 00 00 00 00 00 00 00 00 00 00 00 00 00 00 00 00
       0.0 0.0 0.0 0.0
000130 00 00 00 00 00 00 00 00 00 00 00 00 00 00 00 00
       0.0 0.0 0.0 0.0
000140 00 00 00 00 00 00 00 00 00 00 00 00 00 00 00 00
       0.0 0.0 0.0 0.0
000150 00 00 00 00 00 00 00 00 00 00 00 00 00 00 00 00
       0.0 0.0 0.0 0.0
000160 00 00 00 00 00 00 00 00 00 00 00 00 00 00 00 00
       0.0 0.0 0.0 0.0
000170 00 00 00 00 00 00 00 00 00 00 00 00 00 00 00 00
       0.0 0.0 0.0 0.0
000180 00 00 00 00 00 00 00 00 00 00 00 00 00 00 00 00
       0.0 0.0 0.0 0.0
000190 00 00 00 00 00 00 00 00 00 00 00 00 00 00 00 00
       0.0 0.0 0.0 0.0
0001a0 00 00 00 00 00 00 00 00 00 00 00 00 00 00 00 00
       0.0 0.0 0.0 0.0
0001b0 00 00 00 00 00 00 00 00 00 00 00 00 00 00 00 00
       0.0 0.0 0.0 0.0
0001c0 00 00 00 00 00 00 00 00 00 00 00 00 00 00 00 00
       0.0 0.0 0.0 0.0
0001d0 00 00 00 00 00 00 00 00 00 00 00 00 00 00 00 00
       0.0 0.0 0.0 0.0
0001e0 00 00 00 00 00 00 00 00 00 00 00 00 00 00 00 00
       0.0 0.0 0.0 0.0
0001f0 00 00 00 00 00 00 00 00 00 00 00 00 00 00 00 00
       0.0 0.0 0.0 0.0

network_body._body_endoder.seq_layers.2.weight f4 [128, 128]
000000 b5 0f af 3d 7e de e6 3d df 58 ae bc 85 df 11 be
       0.08547918 0.11272906 -0.021282611 -0.14245422
000010 79 ff a9 bd fb 35 11 3e 47 af 99 bd a1 14 0b 3d
       -0.08300681 0.14180748 -0.075041346 0.03395522
000020 cb 17 11 be bb c9 a9 3d 7a 6e e7 bd 28 31 a7 3d
       -0.14169233 0.0829043 -0.113003686 0.08163673
000030 c1 a3 8b bd d9 4d 06 bd d2 2e a4 3c 50 7c 00 be
       -0.06818343 -0.032789085 0.020041857 -0.12547421
000040 12 f2 e8 bc ae e6 00 3e c1 9c dc bb b8 49 55 be
       -0.02843574 0.12587997 -0.0067325537 -0.20828903
000050 5e 23 20 3b 07 ca 35 be e7 80 a4 3c cd 79 9d 3d
       0.0024435143 -0.17752849 0.020080997 0.07689247
000060 2d 79 13 3d 70 56 b1 3d 51 08 c3 bc bb d0 10 3e
       0.036004234 0.08659065 -0.023807677 0.14142124
000070 24 4d 59 bd 8a 83 5b bd ed b6 8a 3d b0 7d dc 3d
       -0.053052083 -0.053592242 0.067731716 0.107661605
000080 7c da a8 bb 60 c8 57 bc 34 af af bd f9 91 a4 bb
       -0.0051529985 -0.013170332 -0.08578339 -0.005022284
000090 a2 0e 94 bd 58 fd 2a 3e 4b 92 1f 3c 23 c3 be 3d
       -0.072293535 0.16698205 0.009739469 0.09314563
0000a0 ad d1 0f 3e 04 88 bf 3c db b9 56 bd 94 37 8a 3d
       0.14044829 0.023380287 -0.05242334 0.06748882
0000b0 fb 9b d8 bc ff e9 4c be c1 09 16 3d 34 05 84 bc
       -0.026441565 -0.20011137 0.036630396 -0.016115762
0000c0 99 09 ce 3d 37 d1 de bc 52 f8 34 bd ca 4c af 3d
       0.10060424 -0.02719937 -0.04418213 0.08559568
0000d0 c1 53 f1 bd 75 4b 8c 3d 3a 91 39 bd 54 d2 66 3d
       -0.11783553 0.0685033 -0.045304514 0.05635293
0000e0 df 79 9d 3c 2d 72 49 3d 24 14 c1 bd 1e 90 94 bd
       0.019223152 0.049181152 -0.0942767 -0.07254051
0000f0 c6 f8 cc 3d 89 5e c9 bd b9 c8 0e 3d 94 e9 51 3d
       0.10008387 -0.09832484 0.034859393 0.051248148
000100 e4 d6 ea bc a4 de d4 bd ea a4 12 be 0b 27 80 3d
       -0.028666921 -0.10394028 -0.14320722 0.06257447
000110 ed 24 58 bd 37 77 7e 3d 6a 66 44 3d 6e fc 13 3e
       -0.05276959 0.06212541 0.047949232 0.14451763
000120 8d bc 7d bc e6 00 ee 3c f4 ac a1 3d 4e 3a 2f 3d
       -0.015486849 0.029053163 0.07894316 0.042780213
000130 03 26 12 3e 25 15 87 3d 2d 1c 38 bd 59 9b 6d bd
       0.14272313 0.0659583 -0.044948746 -0.05800948
000140 58 be 25 bd 8e 86 ce 3c a3 93 39 bd 0d 46 9c bd
       -0.04046473 0.025210645 -0.045306813 -0.076305486
000150 f0 7b 98 3d f5 34 13 3d 9a 7a 21 3d 45 81 b3 bd
       0.07445514 0.035939176 0.039423563 -0.087648906
000160 1b 0a 3d 3d b9 98 ae bd 01 6c 2e 3d 73 7a ff 3c
       0.046152215 -0.08525223 0.04258347 0.031186318
000170 83 bc e4 bd f1 5c a6 3d 2e 97 25 3c 1b b8 da 3c
       -0.11168768 0.08123196 0.010106845 0.026699116
000180 e3 1a 16 bd 0f 36 21 bc 08 dc 4f bd d2 10 e0 3d
       -0.036646735 -0.009839549 -0.050746948 0.10940708
000190 5a b4 97 bd 56 b5 9c 3d 65 e2 b7 bd 1a 2a 9b 3d
       -0.07407446 0.076517746 -0.08978728 0.075763896
0001a0 1c b2 8e bc 10 d3 f6 bb de fc 83 3d 35 54 1c 3c
       -0.017418914 -0.007532485 0.06444715 0.009541561
0001b0 01 ab 17 3e 39 95 fe 3d 4b 1d 27 be 78 fe 23 bd
       0.14811327 0.12430806 -0.16319768 -0.040037602
0001c0 ba e1 63 bd 43 13 74 bd f5 10 49 bd bc ea fb bc
       -0.05563519 -0.059588682 -0.049088437 -0.030751579
0001d0 f5 e5 0b be e7 9b 1c bc 6e ae b8 3d e9 90 93 bd
       -0.1366194 -0.009558654 0.09017645 -0.07205374
0001e0 a4 90 0d bd ac 30 c9 3d 30 0b 21 bd 9b 44 8d 3d
       -0.03456177 0.098237365 -0.03931731 0.06897851
0001f0 3e 73 5d bc 7e 38 c0 3c a7 37 d1 bc 20 27 40 3e
       -0.013516245 0.023464438 -0.025539232 0.18764925
000200 40 db 81 bb 11 d7 b7 bd 57 f7 6a be 36 17 d2 3c
       -0.003962904 -0.089765675 -0.22945915 0.025645833
000210 e3 3c ef 3d 32 bf 5e be cc a6 22 3d 44 65 5a bc
       0.11681535 -0.21752623 0.03970985 -0.013329808
000220 9d b2 26 bd 31 a6 4d 3c d8 57 53 bd dd 6e af 3c
       -0.040697683 0.01255183 -0.051597446 0.021415168
000230 2a 6e dc 3d e6 f4 06 bd 8b 18 f2 3d 34 e0 34 be
       0.107631996 -0.032948397 0.118210874 -0.17663652
000240 66 0c 59 3d c7 98 2a bd da 23 39 3d b6 1a c9 bd
       0.05299034 -0.041649606 0.045200206 -0.09819548
000250 7e e5 09 3e 84 71 34 3c 90 9b 41 bd 94 68 11 bc
       0.1346645 0.011013392 -0.047267497 -0.008875031
000260 54 a0 db bd 46 c1 61 3c 07 1f dc bd f9 fd bd bd
       -0.107239395 0.01377899 -0.107481055 -0.09276957
000270 6a 0c 88 3d 4a 8a de bd e3 90 34 be 55 1b 27 bc
       0.06642993 -0.1086622 -0.17633395 -0.010199388
000280 2d 3a 16 bc e8 2e 98 3c 5f 0d 0a 3e cc fd 41 bd
       -0.009169144 0.018577054 0.13481663 -0.04736118
000290 cf 40 21 3d 38 bb 8f bc 02 55 14 3e ef 2a 10 bd
       0.039368447 -0.017545328 0.14485553 -0.035197195
0002a0 ea 58 bd 3d f1 ee 4d be b8 0e 99 bd 70 0b 69 bc
       0.09245475 -0.2011068 -0.074735105 -0.014223918
0002b0 71 b5 a4 3d 83 cd ac 3d 86 03 b2 bd 8e 1a 01 bd
       0.0804242 0.08437636 -0.08692078 -0.031519465
0002c0 d6 cc 41 3c ee 31 cf bd c7 7c 3b bc 4f fb 18 bc
       0.011828622 -0.10116945 -0.011443323 -0.00933726
0002d0 0e d4 9a bc ca c2 3f 3d e8 c5 d6 3c a6 26 c0 3d
       -0.018899944 0.046816625 0.026217416 0.093823716
0002e0 44 af 57 3d d1 e4 7f bd f2 60 4d 3d 0d 9b 05 3d
       0.05265738 -0.062474076 0.050141282 0.03261857
0002f0 af e6 0b bd 4f d2 88 3d 64 06 0b 3e 57 40 58 bc
       -0.034155544 0.06680738 0.13576657 -0.013198934
000300 c1 6e 18 3d 17 ba 74 3d 42 e6 bf 3d 48 14 85 3d
       0.037215 0.05974778 0.0937009 0.06498009
000310 6e 97 f1 bc 9f ac 2b 3c 85 a5 8a bd b9 2f 5c 3d
       -0.029491153 0.010478168 -0.067698516 0.05375645
000320 27 70 e8 3d 0c d3 35 3e 62 85 73 bd ef 55 07 bd
       0.11349516 0.17756289 -0.059453376 -0.033040937
000330 7f 24 2e bc 54 69 33 be da 08 a5 3d 11 8e a3 bd
       -0.0106288185 -0.17520648 0.08058329 -0.079860814
000340 98 6e bd 38 2a 11 95 3d d1 d8 70 3c 11 1d 06 3e
       9.032822e-05 0.072786644 0.014700131 0.13097025
000350 85 a9 8f 3e b6 43 90 bd 2e 0d 80 3e 50 83 f0 3d
       0.2805902 -0.07044165 0.25010055 0.11743796
000360 1e 05 88 3d 41 4f 56 bd 40 4c 01 bd 57 ec cd 3c
       0.06641601 -0.052321676 -0.03156686 0.02513711
000370 80 c2 ba bd 98 a1 e9 bd 1d 80 80 3d e4 1a d9 bc
       -0.09119129 -0.11407775 0.06274436 -0.02650208
000380 02 f3 b4 bc 75 d1 a1 bd 59 65 04 3d 71 d3 cf 3c
       -0.022088531 -0.07901279 0.032323215 0.025369378
000390 1e f0 0b 3e b9 7a 01 bd d1 f7 8a 3d 31 d3 02 be
       0.13665816 -0.031611178 0.067855485 -0.12775876
0003a0 6f 2a d3 3c d8 ec d4 3d 55 9e 0e 3e 4a 70 04 3d
       0.02577707 0.10396737 0.13927586 0.03233365
0003b0 90 ac f1 bc 2e a7 6f 3d 84 78 1f 3c e1 01 97 3c
       -0.02950123 0.058509044 0.009733323 0.018433513
0003c0 b8 97 dc 3b 73 af 99 3d e7 6d c5 bc c7 68 2c 3e
       0.0067319535 0.075041674 -0.024100257 0.16836844
0003d0 22 d5 29 be b9 d6 dd 3d 27 b0 a9 3c 19 d3 94 bd
       -0.1658521 0.10831971 0.020713879 -0.07266826
0003e0 15 f6 ed 3c 3c d6 20 3d 19 af 0a 3d 6f ec bb bd
       0.029048005 0.03926681 0.033858392 -0.091759555
0003f0 ae e3 57 bd 46 6f 10 bd 5a bc b2 bd fa 3b 30 3e
       -0.052707367 -0.03526237 -0.087273315 0.17210379
