results/ppo/EatFood/EatFood-459.pt (torch, 145423 bytes, 12 tensors)

network_body._body_endoder.seq_layers.0.weight f4 [128, 2]
000000 42 89 f5 be af 3c 1d bf 0d 50 72 3f 3f aa c3 3f
       -0.47956282 -0.6142072 0.946534 1.528633
000010 af 98 00 bf a1 ac 8f bf 6d 26 ab be e4 b8 4c 3f
       -0.50232977 -1.1224557 -0.33427754 0.7996962
000020 9a 34 8b 3e a7 3b 22 3f 28 25 b1 3e 2b b7 e3 3f
       0.2718857 0.6337227 0.3459866 1.7790273
000030 5a ff 33 bf 64 49 16 3f 72 6e 02 3e 89 0d bd 3e
       -0.7031151 0.58705735 0.12737444 0.3692439
000040 36 76 3e bf e8 56 da 3e 69 f9 bd 3f 37 18 88 bd
       -0.74399126 0.4264443 1.4841739 -0.066452436
000050 c5 26 77 bf c3 5e 29 3d 31 73 3b bf 47 c4 89 3f
       -0.9654353 0.041350137 -0.73222643 1.0763024
000060 7d 8f 03 3c d7 c2 c6 3e 5f af bc 3e e8 d1 38 3f
       0.008029816 0.38820526 0.36852548 0.7219529
000070 10 47 88 bd 52 91 5d bf 7f 70 b7 be 4b b1 eb 3e
       -0.06654179 -0.86549866 -0.35828015 0.460337
000080 96 5c b6 be d8 5f 5a 3f 6a 40 62 3f 97 b4 60 bf
       -0.35617512 0.85302496 0.8837954 -0.8777556
000090 21 f7 c9 bf 2d 79 0d bf 76 e8 f7 be 1f 03 d8 3e
       -1.5778543 -0.55263025 -0.4841954 0.4218988
0000a0 e9 b4 c2 bb 75 8f 1a bf 8e c1 bf 3d 92 93 4b bf
       -0.0059419763 -0.6037515 0.093630895 -0.7952205
0000b0 12 0b 72 3f 82 3b 39 bf 2d 83 38 bf 8d d7 89 bf
       0.9454814 -0.72356427 -0.7207516 -1.0768906
0000c0 ed 33 09 bf e5 49 97 bb c8 bb cf 3f 74 95 a1 be
       -0.5359486 -0.004616963 1.6229181 -0.31559336
0000d0 47 59 88 3f d1 34 a1 bf 94 2a 94 be b5 4b da 3e
       1.0652245 -1.2594243 -0.28938735 0.42635885
0000e0 be c8 84 be 31 ed 0e 3f d5 f3 e0 3e 10 86 8e be
       -0.25934404 0.55830675 0.4393603 -0.27836657
0000f0 6f e4 76 3f 5a 53 7a be 8a 51 96 bf 10 2e df bd
       0.9644231 -0.24445859 -1.1743634 -0.108974576
000100 0a d9 3f 3f f9 12 65 3e e5 c9 4b bf 6e 2e 8d 3f
       0.7494055 0.22370519 -0.7960494 1.1029794
000110 57 0f 30 b9 1a ac 82 bf 2b a4 45 bd af d0 15 bf
       -0.00016790383 -1.0208771 -0.048252266 -0.5852155
000120 18 2e 9b be 89 45 ac 3f 3f a6 17 3e b9 c6 40 bf
       -0.30308604 1.345872 0.14809512 -0.75303227
000130 34 de e0 3a 8c ae 7c 3f 62 7f cb 3e fd 4c 8e 3e
       0.0017156065 0.9870384 0.39745623 0.27793112
000140 9a 0d 72 bf 5a 0f 87 bc 9c 58 e0 be d9 2b 99 3f
       -0.94552004 -0.016486812 -0.43817604 1.1966506
000150 2f e5 d4 bd 7f d3 47 be e8 ce e0 be a5 f8 88 3f
       -0.10395276 -0.19514273 -0.43907857 1.070088
000160 39 ad 34 3f 09 66 f6 b7 9b 9b 4a bf cd 8a 5e bf
       0.70576817 -2.9372999e-05 -0.79143685 -0.86930543
000170 16 0c c1 be a4 a9 bc 3e 30 85 83 bf 17 ff 1b 3f
       -0.37704533 0.36848176 -1.0275021 0.6093611
000180 29 c6 6c be 9a 20 f8 be d2 0e a2 3e 49 0b 20 be
       -0.23122467 -0.48462373 0.31651932 -0.15629305
000190 cd 10 90 bf cd b8 31 bd 65 ee 1b be 5c a5 4a 3e
       -1.1255127 -0.04338913 -0.15227659 0.19789642
0001a0 1f bb 97 3f 84 96 fb 3d 99 2d 95 3e 3e 84 d2 3f
       1.185398 0.12284568 0.2913635 1.6446607
0001b0 af 2c 6a bf cf ab 22 3f 7a 2f 92 be 11 c7 dd bd
       -0.9147443 0.6354341 -0.28551847 -0.108289845
0001c0 ce 71 1a 3f 79 66 40 bf 59 2a 1c 3f 06 5e 53 bf
       0.603299 -0.7515636 0.6100212 -0.82565343
0001d0 4a 34 e7 3e 2f 17 fb 3e 29 7e 96 3f 8b d0 c4 be
       0.4515708 0.49041125 1.1757251 -0.38440356
0001e0 56 b8 ac be a8 25 84 be 9a e1 06 bf 73 c5 de 3e
       -0.33734387 -0.2580998 -0.5268799 0.43510017
0001f0 f7 b1 91 3e 58 91 e1 3f f7 a2 55 bf e7 ba 8a bf
       0.2845609 1.762248 -0.8345179 -1.0838288
000200 b4 cf 19 bf 03 1f b5 be d0 34 15 be 60 5b 24 3d
       -0.60082555 -0.35375223 -0.14570928 0.040126204
000210 2c 14 d9 bc 84 22 18 bf ea 03 2e bf bf 6a 75 bf
       -0.026498877 -0.59427667 -0.6797472 -0.95866007
000220 4d ea f4 be 7b 6e e3 3d c6 0d 9a 3f 92 cb 5f 3f
       -0.47835007 0.11105057 1.2035453 0.8742
000230 c3 53 c8 be 17 2c 83 be 2b 47 42 3e 9c 07 14 3e
       -0.39126405 -0.25619575 0.18972461 0.14456028
000240 c2 f4 44 3f cb e2 9a be d5 55 f8 be 6a 38 9f bd
       0.7693597 -0.30251154 -0.48502985 -0.07774432
000250 b2 c7 db bf ac c6 78 bf 14 18 0f 3f 1e 29 74 bd
       -1.7170317 -0.9717815 0.55896115 -0.059609525
000260 00 fa 57 3f 05 99 7b bf 04 02 44 be 4e c6 85 be
       0.84365845 -0.98280364 -0.19141394 -0.26127857
000270 04 ba 10 3e 36 14 c1 bd 5a 32 95 3f 11 0c 2b bf
       0.1413346 -0.09427683 1.1655991 -0.66815287
000280 e0 7e 9c 3e 19 54 ad be aa f7 4c 3d f1 4d b3 be
       0.30565548 -0.33853224 0.05004088 -0.35020402
000290 a0 fc 4e bf 3e 43 15 bf d0 19 20 3d c8 78 6b bf
       -0.80854225 -0.5830573 0.039087117 -0.9198117
0002a0 98 c1 a5 bf 3b 90 d9 3f d5 54 18 3f de e1 ff be
       -1.2949705 1.6997141 0.59504443 -0.4997701
0002b0 35 85 4c be c8 07 64 be a5 cb 8e bf 98 5e d7 bd
       -0.1997269 -0.22268593 -1.1155897 -0.10516089
0002c0 6c 78 0f be c7 c1 2f 3f 15 a4 84 3e 2b af ce 3e
       -0.14010781 0.68655056 0.25906435 0.40368018
0002d0 e0 e1 c9 be 8c c7 36 3f 6c f4 8a bf 18 0b 66 3e
       -0.3943014 0.71398234 -1.0855842 0.2246517
0002e0 56 77 90 bf 4e 55 7f bf da 95 f7 be 88 85 30 3f
       -1.1286418 -0.9973954 -0.48356515 0.6895375
0002f0 60 9d 24 bf 51 71 1c be c5 54 71 bf 53 9f 17 3e
       -0.64302635 -0.15277602 -0.94269973 0.14806871
000300 7a 8a b5 3f a2 f5 d1 bf 5c a8 2c be e9 db a5 bf
       1.4182885 -1.6403086 -0.16861099 -1.2957736
000310 89 00 2a be 83 ec 2c 3c 94 da 37 3f 46 f2 aa be
       -0.16601767 0.010554436 0.718179 -0.33387965
000320 28 e9 de 3d e9 eb cb 3d 55 f0 71 bf 72 cb 8a bf
       0.10884315 0.09957106 -0.9450734 -1.0843337
000330 65 5e 8a bf 74 41 4e 3f 66 91 2f 3f 45 33 80 bf
       -1.0810057 0.80568624 0.68581235 -1.0015646
000340 ca ca b6 3d 19 3e 9a 3e 35 14 33 3d 4c 40 da be
       0.08925398 0.30125502 0.043720443 -0.4262718
000350 8c be 31 3f 10 4d 1b 3f e0 4f 6d bd 0c 08 d8 3e
       0.69431376 0.60664463 -0.057937503 0.4219364
000360 c8 a0 81 bf dc 8c b8 bf 9f 28 09 3f 3a 6b 4d bf
       -1.0127192 -1.4417987 0.5357761 -0.8024174
000370 7e 1c 04 be 30 59 84 be be af 25 bd 72 fd 5a bf
       -0.12901494 -0.25849295 -0.040450804 -0.85542977
000380 22 b2 7d 3e 1d 5b 30 3f 4a 43 58 be f0 05 eb be
       0.24774984 0.6888903 -0.21119419 -0.45902967
000390 59 0b 98 bf 7f 78 c8 bf 32 20 72 3f 92 d0 b7 be
       -1.1878463 -1.5661772 0.94580376 -0.35901314
0003a0 a5 f4 26 bf 10 4d 34 3f 1a 77 59 3e 61 70 90 bf
       -0.6521705 0.7043009 0.2123684 -1.1284295
0003b0 ea f5 87 3e 06 24 93 bd 7f ba 56 3f b1 d9 1b bf
       0.26554805 -0.07184605 0.8387832 -0.60879046
0003c0 52 ed 5b bf 2e 9b c2 be 9f 33 13 bf f1 d4 15 bf
       -0.85909 -0.38009018 -0.5750064 -0.5852805
0003d0 90 67 0e bf 74 82 bf 3e 0e e8 86 bf ba 78 df 3e
       -0.55626774 0.37404215 -1.0539567 0.43646795
0003e0 1f 85 87 3f 9f 11 af 3f e5 d5 8b bd 79 96 2f 3f
       1.05875 1.3677253 -0.068279065 0.6858898
0003f0 e4 02 7d be 84 7a b2 bf 2c ef f0 be 68 65 94 bf
       -0.24708134 -1.3943639 -0.47057474 -1.1593447

network_body._body_endoder.seq_layers.0.bias f4 [128]
000000 00 00 00 00 00 00 00 00 00 00 00 00 00 00 00 00
       0.0 0.0 0.0 0.0
000010 00 00 00 00 00 00 00 00 00 00 00 00 00 00 00 00
       0.0 0.0 0.0 0.0
000020 00 00 00 00 00 00 00 00 00 00 00 00 00 00 00 00
       0.0 0.0 0.0 0.0
000030 00 00 00 00 00 00 00 00 00 00 00 00 00 00 00 00
       0.0 0.0 0.0 0.0
000040 00 00 00 00 00 00 00 00 00 00 00 00 00 00 00 00
       0.0 0.0 0.0 0.0
000050 00 00 00 00 00 00 00 00 00 00 00 00 00 00 00 00
       0.0 0.0 0.0 0.0
000060 00 00 00 00 00 00 00 00 00 00 00 00 00 00 00 00
       0.0 0.0 0.0 0.0
000070 00 00 00 00 00 00 00 00 00 00 00 00 00 00 00 00
       0.0 0.0 0.0 0.0
000080 00 00 00 00 00 00 00 00 00 00 00 00 00 00 00 00
       0.0 0.0 0.0 0.0
000090 00 00 00 00 00 00 00 00 00 00 00 00 00 00 00 00
       0.0 0.0 0.0 0.0
0000a0 00 00 00 00 00 00 00 00 00 00 00 00 00 00 00 00
       0.0 0.0 0.0 0.0
0000b0 00 00 00 00 00 00 00 00 00 00 00 00 00 00 00 00
       0.0 0.0 0.0 0.0
0000c0 00 00 00 00 00 00 00 00 00 00 00 00 00 00 00 00
       0.0 0.0 0.0 0.0
0000d0 00 00 00 00 00 00 00 00 00 00 00 00 00 00 00 00
       0.0 0.0 0.0 0.0
0000e0 00 00 00 00 00 00 00 00 00 00 00 00 00 00 00 00
       0.0 0.0 0.0 0.0
0000f0 00 00 00 00 00 00 00 00 00 00 00 00 00 00 00 00
       0.0 0.0 0.0 0.0
000100 00 00 00 00 00 00 00 00 00 00 00 00 00 00 00 00
       0.0 0.0 0.0 0.0
000110 00 00 00 00 00 00 00 00 00 00 00 00 00 00 00 00
       0.0 0.0 0.0 0.0
000120 00 00 00 00 00 00 00 00 00 00 00 00 00 00 00 00
       0.0 0.0 0.0 0.0
000130 00 00 00 00 00 00 00 00 00 00 00 00 00 00 00 00
       0.0 0.0 0.0 0.0
000140 00 00 00 00 00 00 00 00 00 00 00 00 00 00 00 00
       0.0 0.0 0.0 0.0
000150 00 00 00 00 00 00 00 00 00 00 00 00 00 00 00 00
       0.0 0.0 0.0 0.0
000160 00 00 00 00 00 00 00 00 00 00 00 00 00 00 00 00
       0.0 0.0 0.0 0.0
000170 00 00 00 00 00 00 00 00 00 00 00 00 00 00 00 00
       0.0 0.0 0.0 0.0
000180 00 00 00 00 00 00 00 00 00 00 00 00 00 00 00 00
       0.0 0.0 0.0 0.0
000190 00 00 00 00 00 00 00 00 00 00 00 00 00 00 00 00
       0.0 0.0 0.0 0.0
0001a0 00 00 00 00 00 00 00 00 00 00 00 00 00 00 00 00
       0.0 0.0 0.0 0.0
0001b0 00 00 00 00 00 00 00 00 00 00 00 00 00 00 00 00
       0.0 0.0 0.0 0.0
0001c0 00 00 00 00 00 00 00 00 00 00 00 00 00 00 00 00
       0.0 0.0 0.0 0.0
0001d0 00 00 00 00 00 00 00 00 00 00 00 00 00 00 00 00
       0.0 0.0 0.0 0.0
0001e0 00 00 00 00 00 00 00 00 00 00 00 00 00 00 00 00
       0.0 0.0 0.0 0.0
0001f0 00 00 00 00 00 00 00 00 00 00 00 00 00 00 00 00
       0.0 0.0 0.0 0.0

network_body._body_endoder.seq_layers.2.weight f4 [128, 128]
000000 c7 4b 55 bd 86 b9 10 3d f5 fa ad 3c c1 d5 96 3d
       -0.05207422 0.03533318 0.02123783 0.07364989
000010 ea 62 88 3d a0 49 ee bb ed d2 00 3d 53 6c 09 be
       0.06659491 -0.0072719604 0.031451155 -0.13420229
000020 b9 02 b3 3d af 8e d3 bc 98 b6 d2 3c 44 14 33 3e
       0.08740754 -0.025824873 0.025721833 0.174882
000030 f0 79 98 3c 69 45 3f bc f2 44 3b be 85 d7 56 3d
       0.018612832 -0.0116742635 -0.1828802 0.05245163
000040 fe b6 96 3c 4c ac 6f be 31 61 e7 bd 88 ab ec 3b
       0.018397804 -0.2340557 -0.11297835 0.0072225966
000050 c3 c6 9f 3c db 0d 3a 3e d4 75 36 bd 82 14 13 bd
       0.019503957 0.18169348 -0.044545963 -0.03590823
000060 db 69 6e 3d e1 c7 92 3d 6a bf 46 3e 86 6b 9a 3c
       0.05820642 0.0716703 0.19408956 0.0188501
000070 8a af 14 bc 7b ea 03 bc a4 99 c7 bd ee 1c 81 bc
       -0.009075055 -0.00805151 -0.097461015 -0.015760865
000080 49 e5 90 3d 7b ed 27 bd 2d 75 cd 3d 21 c1 d3 bc
       0.07074983 -0.040997963 0.10032115 -0.025848927
000090 b6 97 ab 3d 38 c9 4f 3e 9e 2e 7a bc df 6c 97 bc
       0.08378546 0.20291603 -0.0152699035 -0.018484531
0000a0 01 2a d9 bc af 21 e5 3d 20 cd 32 be 1e ba 25 bc
       -0.026509287 0.11188065 -0.17461061 -0.010115175
0000b0 b1 0a 30 3d 6c 3e 22 3e a4 ff a0 bd c1 69 97 3d
       0.042978946 0.15844125 -0.078612596 0.07393218
0000c0 53 22 b7 bd 49 7c 02 3e 9a 94 26 3d f4 f9 f7 3c
       -0.08942094 0.12742724 0.04066906 0.030270554
0000d0 1e d6 44 3c 9f 35 eb 3c 7b c7 1c bd dd 43 20 3c
       0.01201394 0.028712092 -0.038276177 0.009781805
0000e0 1b d7 38 3b a7 c7 b3 bd cb 22 26 bd 05 81 3d bd
       0.0028204385 -0.08778315 -0.040560525 -0.04626562
0000f0 06 93 be 3c 7a 67 8d bc da 42 e9 3d 73 9c af 3d
       0.023263466 -0.017261256 0.11389704 0.08574762
000100 c8 5c 27 bd b6 be bf 3d 72 b9 0f 3d 90 4b 03 3e
       -0.040859967 0.09362547 0.035088964 0.12821794
000110 14 d6 38 be 36 57 aa bd 86 90 7e bc f5 a0 0b bb
       -0.18050414 -0.083174154 -0.015537387 -0.0021305655
000120 ce 91 42 3d b2 19 33 3d f8 8b 8a b9 30 c7 da 3c
       0.04750233 0.043725677 -0.00026425696 0.026706308
000130 45 dd 96 bc 4b e6 7f bd fd d8 4b 3c 0e e8 91 bc
       -0.018416056 -0.062475484 0.012441871 -0.017810848
000140 ca 23 3e 3c e7 c9 9b 3d 6f d0 e7 bc 00 a3 02 be
       0.011605212 0.07606869 -0.028297631 -0.12757492
000150 0e 7a ae 3d b4 27 12 be ef 5c 73 be 57 3d 4c bd
       0.08519374 -0.14272958 -0.2376592 -0.049863186
000160 28 25 86 3b 01 be aa 3d a7 c2 4f 3d b3 ff cf 3d
       0.004093785 0.083370216 0.050722744 0.10156193
000170 c1 99 2c bd 19 b7 fc 3d 89 18 ad 3c db 43 2f 3d
       -0.04213882 0.123396106 0.021129863 0.04278932
000180 cc f2 c7 3d 8c 59 0c be d3 dc d0 3c d9 2b b2 3d
       0.09763107 -0.13706034 0.025495922 0.086997695
000190 7b f5 da bd bd e8 b9 bd ac d5 40 be e7 40 d9 bd
       -0.10691353 -0.090775944 -0.1883151 -0.10608082
0001a0 cd a7 c9 3d 88 55 5f 3d 72 41 eb 3d fe bc d5 bd
       0.098464586 0.05452493 0.11487092 -0.10436438
0001b0 1f 37 d2 3d de 59 37 bd 73 ef 86 3b d2 67 bd 3d
       0.1026442 -0.04476344 0.0041179 0.09248318
0001c0 30 da ae bd 50 f7 e6 bc 7d 9b 1c 3d e7 58 4d 3e
       -0.0853771 -0.0281941 0.038234223 0.20053445
0001d0 7b 95 62 bb bf 91 ab 3d b7 4d ae bc ef 78 6a bd
       -0.003457396 0.08377408 -0.021277292 -0.057244238
0001e0 a4 b9 b3 bd 8a 70 a0 3d 40 16 9f ba 56 a2 62 3d
       -0.087756425 0.07833965 -0.0012137368 0.055330597
0001f0 db 66 a0 bd 84 60 11 be d8 87 15 be bd 85 8c bc
       -0.07832118 -0.14196974 -0.14602602 -0.017153615
000200 e5 7d 91 bd 35 8b e8 bd 5a bf 25 3c 9c 74 09 3c
       -0.071040906 -0.11354677 0.010116423 0.008389618
000210 c1 7b 32 bd 7a ab c9 bc ed b8 bd bb 22 43 87 3c
       -0.043575052 -0.0246179 -0.005789867 0.016511504
000220 98 f7 e8 bd d1 db 65 3d 3c 7a 84 bd dc 3a c6 bd
       -0.1137535 0.056117836 -0.06468627 -0.09679195
000230 bd a7 b9 bd c7 ac 88 3c 23 8b 14 3c 55 31 0c 3e
       -0.09065197 0.01668395 0.009066376 0.13690694
000240 5e 6c 12 be 69 97 69 3e 92 0a 55 3e d7 ed 15 bc
       -0.14299151 0.22811665 0.20804814 -0.009150944
000250 67 bb 12 3c 5e a1 8c bd 65 6f 14 3e 98 18 4c 3d
       0.008955813 -0.06866716 0.14495619 0.049828142
000260 8f 5f 62 be e3 0b c3 bd 99 a9 a5 bd 78 54 e6 3c
       -0.22106765 -0.095237516 -0.08088989 0.02811645
000270 a7 6d 19 3e 45 a0 27 3c 04 03 09 3c 93 60 fe 3b
       0.14983235 0.010231082 0.008362535 0.0077629774
000280 19 8c 5a 3d 9d 36 75 3d 54 21 b2 3d 8d 82 5f 3d
       0.053356264 0.059866536 0.08697763 0.054567862
000290 40 2c 8a 3c 77 44 9d bc c9 56 af bd d0 94 22 3d
       0.016866803 -0.019197686 -0.08561475 0.0396927
0002a0 68 3e 0d bd a1 49 52 3c eb d2 10 3e f9 91 b5 bd
       -0.034483343 0.012834937 0.14142959 -0.08865733
0002b0 db bf 1e bc 74 01 0a bd 1f ce 24 3e 5f 2e 34 bd
       -0.009689297 -0.033692792 0.16094254 -0.043989535
0002c0 4d 4c 6d be 29 d0 61 bd 8f 62 76 3d d9 c1 34 bb
       -0.23173638 -0.055130158 0.060152587 -0.0027581363
0002d0 22 1d 5a be 11 d6 01 be 15 fc 38 be b3 e4 a3 3c
       -0.21300176 -0.12679316 -0.18064912 0.020006513
0002e0 af fe a3 bd c2 aa 14 3d 92 95 4d bd df fa 93 bd
       -0.080075614 0.03629566 -0.05019147 -0.07225584
0002f0 b8 86 16 3d e2 d7 63 bd 5d d2 b7 bc e7 0e 01 3d
       0.03674957 -0.055625804 -0.022439176 0.031508353
000300 b6 8b ed 3d 13 96 7e bc 2e 3b 91 3c 68 f4 c0 3b
       0.11598913 -0.01553871 0.017728414 0.0058885105
000310 56 95 b6 bd c5 77 6a 3d 61 04 8b 3c 79 27 ad 3d
       -0.08915202 0.057243127 0.016969861 0.084547944
000320 75 65 21 bd 97 53 1c be bf 93 38 3c e1 cc 1e 3d
       -0.039403398 -0.15266262 0.011265694 0.038769607
000330 ae d4 e4 3c 7b fb f4 bc e9 c0 9e bb a1 b6 26 bd
       0.027933445 -0.029905071 -0.004844774 -0.040701512
000340 d7 12 10 bd c1 86 85 3d cc 8c 95 3c 71 0a 05 be
       -0.035174217 0.06519843 0.018255614 -0.12992264
000350 8f 77 c5 3b 37 4c 43 3d 84 8d 9e 3d 7b 0e 3b 3e
       0.0060262154 0.047680106 0.07741836 0.18267243
000360 19 b0 b2 bc 9c 87 45 3e 74 e2 c4 bc 7c 53 89 bc
       -0.021812486 0.19290012 -0.024033763 -0.016763441
000370 8d de 1c be 05 88 38 be b5 46 37 bd 79 53 2a bd
       -0.15319271 -0.18020637 -0.044745166 -0.041583512
000380 f9 b0 05 3e 7a 3a 89 bc 79 59 42 bb 04 f5 55 bc
       0.13055791 -0.016751517 -0.002965538 -0.013058905
000390 a4 a3 1a bd c5 5a 4a bd 48 42 3c 3e 11 61 9c 3d
       -0.037753716 -0.04940297 0.1838466 0.076357014
0003a0 69 0a bc 3d e9 04 58 3c 9b 95 c3 3c 1e 89 6f 3d
       0.09181673 0.013184764 0.023875048 0.058480375
0003b0 9b 48 0b 3d c6 e3 1c 3e f9 13 a3 bd 79 98 42 3d
       0.03400479 0.15321264 -0.07962794 0.04750869
0003c0 c1 74 8f bd 5e 30 d1 3d 9b d3 ad bd c6 e1 cc 3c
       -0.07004691 0.102143034 -0.08487626 0.02501
0003d0 28 2a 52 3d c6 48 3d be e7 89 44 3d e5 d2 07 3e
       0.051309735 -0.18484792 0.047983076 0.13264044
0003e0 40 89 99 3d 26 ab f1 bd 3e b9 21 3d b3 db 2e bd
       0.074968815 -0.11800222 0.0394833 -0.04268999
0003f0 a4 62 6d 3d 09 2a 7b bd e1 80 d6 bd c4 d1 ed 3d
       0.0579554 -0.061319385 -0.104738005 0.11612275

network_body._body_endoder.seq_layers.2.bias f4 [128]
000000 00 00 00 00 00 00 00 00 00 00 00 00 00 00 00 00
       0.0 0.0 0.0 0.0
000010 00 00 00 00 00 00 00 00 00 00 00 00 00 00 00 00
       0.0 0.0 0.0 0.0
000020 00 00 00 00 00 00 00 00 00 00 00 00 00 00 00 00
       0.0 0.0 0.0 0.0
000030 00 00 00 00 00 00 00 00 00 00 00 00 00 00 00 00
       0.0 0.0 0.0 0.0
000040 00 00 00 00 00 00 00 00 00 00 00 00 00 00 00 00
       0.0 0.0 0.0 0.0
000050 00 00 00 00 00 00 00 00 00 00 00 00 00 00 00 00
       0.0 0.0 0.0 0.0
000060 00 00 00 00 00 00 00 00 00 00 00 00 00 00 00 00
       0.0 0.0 0.0 0.0
000070 00 00 00 00 00 00 00 00 00 00 00 00 00 00 00 00
       0.0 0.0 0.0 0.0
000080 00 00 00 00 00 00 00 00 00 00 00 00 00 00 00 00
       0.0 0.0 0.0 0.0
000090 00 00 00 00 00 00 00 00 00 00 00 00 00 00 00 00
       0.0 0.0 0.0 0.0
0000a0 00 00 00 00 00 00 00 00 00 00 00 00 00 00 00 00
       0.0 0.0 0.0 0.0
0000b0 00 00 00 00 00 00 00 00 00 00 00 00 00 00 00 00
       0.0 0.0 0.0 0.0
0000c0 00 00 00 00 00 00 00 00 00 00 00 00 00 00 00 00
       0.0 0.0 0.0 0.0
0000d0 00 00 00 00 00 00 00 00 00 00 00 00 00 00 00 00
       0.0 0.0 0.0 0.0
0000e0 00 00 00 00 00 00 00 00 00 00 00 00 00 00 00 00
       0.0 0.0 0.0 0.0
0000f0 00 00 00 00 00 00 00 00 00 00 00 00 00 00 00 00
       0.0 0.0 0.0 0.0
000100 00 00 00 00 00 00 00 00 00 00 00 00 00 00 00 00
       0.0 0.0 0.0 0.0
000110 00 00 00 00 00 00 00 00 00 00 00 00 00 00 00 00
       0.0 0.0 0.0 0.0
000120 00 00 00 00 00 00 00 00 00 00 00 00 00 00 00 00
       0.0 0.0 0.0 0.0
000130 00 00 00 00 00 00 00 00 00 00 00 00 00 00 00 00
       0.0 0.0 0.0 0.0
000140 00 00 00 00 00 00 00 00 00 00 00 00 00 00 00 00
       0.0 0.0 0.0 0.0
000150 00 00 00 00 00 00 00 00 00 00 00 00 00 00 00 00
       0.0 0.0 0.0 0.0
000160 00 00 00 00 00 00 00 00 00 00 00 00 00 00 00 00
       0.0 0.0 0.0 0.0
000170 00 00 00 00 00 00 00 00 00 00 00 00 00 00 00 00
       0.0 0.0 0.0 0.0
000180 00 00 00 00 00 00 00 00 00 00 00 00 00 00 00 00
       0.0 0.0 0.0 0.0
000190 00 00 00 00 00 00 00 00 00 00 00 00 00 00 00 00
       0.0 0.0 0.0 0.0
0001a0 00 00 00 00 00 00 00 00 00 00 00 00 00 00 00 00
       0.0 0.0 0.0 0.0
0001b0 00 00 00 00 00 00 00 00 00 00 00 00 00 00 00 00
       0.0 0.0 0.0 0.0
0001c0 00 00 00 00 00 00 00 00 00 00 00 00 00 00 00 00
       0.0 0.0 0.0 0.0
0001d0 00 00 00 00 00 00 00 00 00 00 00 00 00 00 00 00
       0.0 0.0 0.0 0.0
0001e0 00 00 00 00 00 00 00 00 00 00 00 00 00 00 00 00
       0.0 0.0 0.0 0.0
0001f0 00 00 00 00 00 00 00 00 00 00 00 00 00 00 00 00
       0.0 0.0 0.0 0.0

action_model._continuous_distribution.log_sigma f4 [1, 2]
000000 00 00 00 00 00 00 00 00
       0.0 0.0

action_model._continuous_distribution.mu.weight f4 [2, 128]
000000 ed 82 d7 3c 50 84 fc bb 27 10 04 3b ba b7 f0 3b
       0.026307547 -0.0077062026 0.002015123 0.0073461207
000010 73 68 63 bc d2 27 35 bb 9b d5 8e bc d3 6f 23 3d
       -0.013879883 -0.0027642143 -0.01743584 0.039901566
000020 35 bf c8 bb c0 7f e3 bb d2 7b 08 bc 92 ff 25 bc
       -0.0061263093 -0.006942719 -0.008330302 -0.0101317335
000030 ad 22 d0 3a 24 14 22 bc 7d 73 49 bb d8 36 26 3c
       0.0015879475 -0.009892497 -0.0030739002 0.010144912
000040 2f 1b 02 3b 0d d0 c2 3b 02 82 be 3a 8b e3 0f ba
       0.0019852628 0.0059452117 0.0014534595 -0.00054889236
000050 d9 21 2d 3c f2 ac b2 3c 2d a5 02 3c 8b 00 35 3c
       0.010567152 0.021810982 0.007973951 0.011047493
000060 08 35 c7 bb 9d 12 33 bb d8 47 86 39 94 2e 98 3a
       -0.00607932 -0.0027324327 0.00025612 0.0011610561
000070 da b9 84 bb c5 8e 8e 3b 99 98 bb 3c 07 d2 a9 3c
       -0.0040504755 0.0043505155 0.022899913 0.020730032
000080 60 5e e3 b9 09 ba 9f ba 15 f4 b9 3a 46 fd 17 bc
       -0.0004336713 -0.001218618 0.0014187122 -0.009276694
000090 03 89 82 3b aa 87 f8 bb 7f 41 53 3b 2b e4 87 3b
       0.003983618 -0.007584532 0.0032235084 0.004147073
0000a0 e5 0c ed 3c 20 78 9f 3c a1 47 2c 3c 04 e2 91 3c
       0.028936813 0.01946646 0.010515125 0.017807968
0000b0 ac 65 3a ba 43 69 3c 3c 8e 91 01 3d f7 ab 39 3c
       -0.0007110487 0.011499706 0.031632952 0.0113325035
0000c0 4f 22 54 bc f3 85 61 3c c7 4e 0e 3c 5d 29 a8 3b
       -0.012947633 0.013764846 0.008685774 0.005131884
0000d0 cd fa 68 bc 93 be f2 3c 3b 04 f0 bb d5 3f b4 bc
       -0.014219952 0.029631888 -0.007324723 -0.022003094
0000e0 5f 8f a4 bc 33 e9 95 ba 5d b4 f4 39 5b 37 fa bc
       -0.020087896 -0.0011437297 0.00046673688 -0.030543974
0000f0 3b 41 b4 bb f7 98 8b 3c 08 ca f5 3c df 1d 13 bc
       -0.00550094 0.017040713 0.030003563 -0.00897929
000100 88 5a 57 bb 49 95 87 bb 7a 04 7a 3c 73 19 93 3c
       -0.0032860357 -0.004137669 0.015259856 0.017956471
000110 0c f5 84 bc d8 0e 45 bb f5 bf 6e bc 10 2d 6e 3c
       -0.016230129 -0.0030068662 -0.014572133 0.014537111
000120 f8 4a 85 3c e3 fb 29 3c a5 12 fe bb 48 63 1a 3c
       0.0162711 0.010374996 -0.0077536874 0.009423085
000130 af 2d 99 bb 74 cf 10 3c 54 f8 b7 ba 0b a6 82 bc
       -0.0046746354 0.008838523 -0.00140358 -0.015948316
000140 63 a9 84 bc 57 85 5d 3c 70 ce 3e 3c 35 c5 78 3c
       -0.016194051 0.01352056 0.011645898 0.015183737
000150 86 4b 00 bd 3b 5c 45 bb 2b 81 d3 bb ef 60 5c bb
       -0.031322025 -0.0030114788 -0.006454607 -0.0033627113
000160 4a 01 b8 3b f7 9c 84 bb cf 01 48 ba 81 21 03 3d
       0.005615388 -0.004047032 -0.0007629664 0.032014374
000170 56 56 a8 bc 83 a6 ec bc 2b 7a dd bc 78 75 60 bc
       -0.02054898 -0.028887993 -0.027035793 -0.013699882
000180 26 c1 9d 3a 0c 23 19 3c 8a af f3 bb 1f 38 b3 3c
       0.0012035712 0.009346735 -0.0074366974 0.021877347
000190 6b c5 97 bc 31 50 af bb 90 30 b3 bc c8 3d d4 3a
       -0.018526753 -0.0053501357 -0.021873742 0.0016192729
0001a0 85 17 30 ba 21 c2 a4 3a 6a 20 5a 3c 40 9f 63 bc
       -0.0006717372 0.0012570062 0.013313392 -0.013892949
0001b0 b2 ed fb bc 68 85 a1 bc b3 35 29 3c a8 36 51 bc
       -0.03075299 -0.019716933 0.010327744 -0.012769379
0001c0 bb 9a 84 3b d5 b2 9c 3b b3 9c 0f 3d cf bb ab 3c
       0.0040467656 0.0047820606 0.03506155 0.020963578
0001d0 17 c2 7c bb 3b fa 9d 3b 02 98 28 3b cb 5e 00 bc
       -0.0038567835 0.0048210896 0.002572537 -0.0078351
0001e0 4c 81 17 3c 5c 12 4a bc a0 ec c2 3c a3 23 5f 3c
       0.009247135 -0.012333479 0.023794472 0.013619336
0001f0 df 10 66 b9 67 af 43 3c 83 41 c8 3b 5d aa 6b 3b
       -0.00021940794 0.011943675 0.006111325 0.0035959699
000200 db 64 3b bc 0d 41 87 bc 30 4c 0e bc 3e c3 34 bc
       -0.01143762 -0.01651051 -0.008685157 -0.0110328775
000210 a0 71 0a bb 2d 56 cd 3c 95 f8 16 3c 04 fe a9 3c
       -0.0021124855 0.025065506 0.00921454 0.020751007
000220 21 47 be bb a8 0d 38 bc d3 d3 b6 3c d1 e9 01 bd
       -0.005806819 -0.011233725 0.022317803 -0.031717125
000230 8f fa 29 3b 37 40 cc 3c 27 50 a1 39 1e d4 06 bc
       0.0025936698 0.024932964 0.0003076803 -0.008229284
000240 e4 5d 86 3c 8e b3 90 bc 8d 70 e7 bc 2e 7a 8a bc
       0.016402192 -0.017663743 -0.02825191 -0.016903963
000250 54 4e 31 bc 7f fe e2 bc d5 39 79 3b f9 8c 48 3c
       -0.010821898 -0.027709244 0.0038028855 0.012240642
000260 19 b1 04 3c fb 09 dc 3a 36 17 3f ba d9 4f 17 bd
       0.008098864 0.0016787642 -0.00072895305 -0.036941383
000270 4a 20 a9 3c 7b 8b aa bb 83 f4 9f bc 0d 73 4b bc
       0.02064528 -0.0052046156 -0.019525772 -0.012417567
000280 0f 80 77 bc 4f e9 ee 3b bc f0 90 ba 73 7e c1 3c
       -0.015106215 0.007290996 -0.0011058073 0.023619866
000290 67 24 a8 3c 47 d4 d5 3c 58 76 25 bc 20 b0 18 3c
       0.02052517 0.026102198 -0.010099016 0.009319335
0002a0 92 01 7e 3c c7 69 b2 3b bf ac 18 bd 0a a1 5d 3b
       0.015503304 0.0054447385 -0.03727412 0.003381791
0002b0 64 ae 94 bb 9d 41 6d 3c 10 a2 c0 3c 70 9c c5 3b
       -0.0045373905 0.014480975 0.023514777 0.0060306117
0002c0 30 29 73 ba 9b cc b8 bb d8 b7 79 bc 31 42 0a bc
       -0.0009275852 -0.0056396252 -0.015241586 -0.008438633
0002d0 78 af f1 3c 24 1f 22 b9 7a 4f 30 3c d5 7e 66 ba
       0.029502615 -0.00015461125 0.010761136 -0.0008792703
0002e0 be 76 1b bd 4b f4 b2 3b 6f 42 a7 3c 6f 9b 12 3d
       -0.03795504 0.005461251 0.02041742 0.035792764
0002f0 48 ec fb bb 83 7d 51 bb 27 57 d3 3b a5 d5 fc 3c
       -0.007688079 -0.003196568 0.0064495984 0.030863592
000300 74 41 14 bc 98 88 83 ba 6e 7a 17 bb 2f df 94 3c
       -0.009048808 -0.0010035215 -0.0023113745 0.018172828
000310 b6 76 81 3b b7 a6 26 3c 36 28 c6 3b 97 6c 1a bc
       0.003950919 0.010171584 0.006047274 -0.009425304
000320 2d eb 7d bc 95 cc a1 bb db 8a 12 bd 5c f3 36 bb
       -0.015497965 -0.004937718 -0.035776954 -0.002791605
000330 c3 66 22 bc 10 6a b5 3c df f7 56 bc 25 12 27 bc
       -0.009912196 0.022145301 -0.0131206205 -0.010197197
000340 3f fb a6 bc d0 9d d2 3c dd 8d 0c 3b b3 c9 97 3b
       -0.020383475 0.025710016 0.0021446862 0.0046321987
000350 c0 52 da 3b 79 f5 a5 bb 8a bf e7 bc c9 bc a4 3c
       0.0066626966 -0.005064663 -0.028289575 0.020109551
000360 3b 13 e1 ba 4b cd ec bc 1e 4b 07 bc 51 99 03 bd
       -0.0017171869 -0.028906485 -0.008257655 -0.032128636
000370 3f 82 a8 3c d2 7e e0 ba 73 c3 8e bb af c4 39 bc
       0.020569919 -0.0017127639 -0.0043567955 -0.011338397
000380 78 63 d5 3a 68 72 65 bc bf 75 c5 3c df ae 70 bb
       0.0016280254 -0.014004327 0.024103997 -0.0036725325
000390 ce 2f ad 3c 3a c0 91 bc 97 a6 19 3b b5 b7 5a 3c
       0.02114096 -0.017791856 0.0023445243 0.013349463
0003a0 fd c5 a2 bc 03 93 41 bb 17 f6 e3 3b cc 15 02 bd
       -0.019869799 -0.0029537089 0.0069568264 -0.03175907
0003b0 1b a2 74 bb 9f 6b b7 bb 47 cd 05 3c 8b 00 90 bc
       -0.0037328068 -0.005597546 0.008166618 -0.017578384
0003c0 e7 62 6d bc 73 4a 24 3c 30 bf ca bc 63 bc 91 3c
       -0.014488912 0.010027516 -0.024749368 0.017790025
0003d0 88 7e 86 bc af 5a 08 3c 33 1a 1f 3c b7 9a 4f bc
       -0.016417757 0.008322402 0.009710836 -0.012671164
0003e0 f2 79 e3 bc 8b d6 5d bc bf cf 11 bd 0e 7a ad bb
       -0.027768109 -0.013539921 -0.035598513 -0.005294091
0003f0 13 08 98 bb 63 26 e6 3b 92 18 a3 bc 4e 76 29 bd
       -0.0046396344 0.007023619 -0.019909177 -0.04137259

action_model._continuous_distribution.mu.bias f4 [2]
000000 00 00 00 00 00 00 00 00
       0.0 0.0

network_body._body_endoder.seq_layers.0.weight f4 [128, 2]
000000 20 eb 00 3f cc 50 39 bf 67 f1 b3 be 76 95 74 be
       0.5035877 -0.7238891 -0.35145113 -0.2388514
000010 d7 2f ee be 4c 47 a8 3f cd a6 67 bf cd 88 f1 3d
       -0.46520874 1.3146758 -0.9048889 0.11793671
000020 93 f9 b5 3f 0e d5 27 be 26 fb 03 3f dc 5d cd bf
       1.4216789 -0.16389868 0.515551 -1.6044269
000030 cb 6e 20 3e 2f 3a 6e 3e 8f a4 57 3e 99 65 e1 3e
       0.15667264 0.23264383 0.21058868 0.44022825
000040 e9 c3 09 bd 4e f0 29 3f bf 87 31 bf 67 31 db be
       -0.0336341 0.663823 -0.6934776 -0.42811128
000050 ee c3 67 be bf 78 81 3e c2 f0 d7 be 81 3f a2 be
       -0.22633335 0.25287434 -0.4217587 -0.31689075
000060 2d f6 2b 3f 00 3a 21 be 3d 7a ec 3e 9f c5 d5 3f
       0.6717251 -0.15744781 0.4618701 1.6700934
000070 81 f3 35 bf 0e 15 cb be 22 b4 c7 bf 4b 07 5c 3e
       -0.7107468 -0.396645 -1.5601847 0.21487157
000080 f3 95 1b bf 7a 4c 6a bf 5b 50 81 be f1 b7 13 3f
       -0.6077568 -0.91522944 -0.2525662 0.5770255
000090 e2 a8 03 3f 37 b1 e4 3e 32 54 da bd de 7b 86 3f
       0.5142957 0.44666454 -0.1066059 1.0506551
0000a0 9f ee 9e 3f 2d 16 61 bd 22 d1 e8 3e 05 d8 0e bf
       1.2416571 -0.05495279 0.45472056 -0.5579837
0000b0 63 0d cb be e7 c6 b6 bf 34 a3 13 bf 7d 9d 26 3f
       -0.3965865 -1.427945 -0.57670903 0.6508406
0000c0 b9 73 16 be 74 3f 85 bd 29 48 5a bf 5f a5 0b bf
       -0.14692582 -0.06506243 -0.8526636 -0.5454921
0000d0 01 1d d0 3e 81 47 56 3f 1b 87 2e bf c3 04 95 be
       0.40647128 0.83702856 -0.68174905 -0.29105195
0000e0 59 df 66 be 42 51 1c 3f 37 ac 25 3f 14 c1 0c bf
       -0.22546138 0.6106149 0.64715904 -0.54982114
0000f0 9b af 2d 3f 32 a5 2f be ab 89 93 be 9d d1 22 3e
       0.6784608 -0.17152861 -0.2881597 0.15900274
000100 89 eb 3b bd 0e 6d f0 be 8d 1f 90 3e a3 46 11 3f
       -0.04587892 -0.46958202 0.2814907 0.5674841
000110 f2 05 0f 3f d5 9b e9 3d 0f b6 29 bf 70 66 f6 be
       0.55868447 0.11406676 -0.66293424 -0.4812503
000120 48 9c 51 3f 36 42 57 3f 3a a8 07 3f 50 ed 98 bf
       0.8187909 0.84085405 0.5299107 -1.1947422
000130 fc 06 0d bf 22 19 c4 be f5 ae 02 bf 68 67 32 bf
       -0.5508878 -0.38300425 -0.51048213 -0.69689035
000140 ed 4c 67 bf 4e e7 22 bf 6a e0 69 bc b6 9e 70 3f
       -0.90351754 -0.6363419 -0.014274696 0.93992174
000150 e2 95 8f 3e 86 76 0c 3e ea 68 92 3f d9 55 a9 3e
       0.2804404 0.13717088 1.1438267 0.3307331
000160 d6 86 93 be 6f 8d bd 3b 54 cb 15 3f 45 17 22 3f
       -0.2881381 0.0057846825 0.5851338 0.63316756
000170 a4 27 81 be 0c c0 56 bd 40 6d 2e 3f 3f bc 17 be
       -0.25225556 -0.052429244 0.6813545 -0.14817904
000180 fb 20 fc bf f6 51 0a 3f 57 80 1c bf 20 7e 10 bf
       -1.9697565 0.5403131 -0.6113333 -0.5644245
000190 59 b5 39 bf a1 02 49 bf a2 a8 87 bf d7 47 e7 be
       -0.7254234 -0.78519636 -1.0598338 -0.45171997
0001a0 c1 93 d6 3e 57 f9 bb be b4 fe 26 be da 78 45 bf
       0.41909602 -0.3671367 -0.16308099 -0.7713753
0001b0 fd ff 0d 3e 4a 40 07 3f d8 e2 aa be 62 68 44 3e
       0.13867183 0.5283247 -0.33376193 0.19180444
0001c0 15 8d 07 3e a7 c6 1e bf db 26 70 3f 32 5c 33 3f
       0.13237412 -0.6202187 0.9380929 0.70062554
0001d0 44 f9 9f 3d 7d 7d 61 3e b0 05 20 bf fd 4f 09 bf
       0.078112155 0.22020526 -0.6250868 -0.5363768
0001e0 a5 67 54 be f5 10 0e 3e 12 99 74 be c3 b6 1d bf
       -0.20742662 0.13873656 -0.23886517 -0.61607
0001f0 f7 ca c2 3b 4c 56 56 be d7 0d 10 bf fc 55 8f bf
       0.0059446055 -0.20931357 -0.5627112 -1.1198115
000200 f2 03 02 bf a8 9a af be 96 1b 41 3e 84 24 7b 3e
       -0.5078727 -0.3429768 0.1885818 0.24525648
000210 01 65 20 bc da 40 9b bf c8 eb 9a be b7 52 f9 bd
       -0.009789706 -1.2129166 -0.30258012 -0.1217398
000220 8b ad d9 be e2 c3 84 3f c0 b2 e6 3e 95 bb 92 3e
       -0.42515215 1.0372279 0.4505825 0.2865874
000230 97 10 a0 be 44 50 d9 be 6d b0 50 3f 63 67 b7 3e
       -0.31262657 -0.4244405 0.81519204 0.35821065
000240 1b 87 09 3f 17 ef ef 3c 41 2f e2 3e 55 73 3d be
       0.5372178 0.029288812 0.44176677 -0.18501027
000250 77 2c f3 be a6 2b a7 3e 12 81 64 3e 46 02 84 3f
       -0.4749486 0.3265049 0.22314861 1.0313194
000260 a9 b0 a2 bf ad bf 36 3f f9 ce 46 3b dc 5b f7 3e
       -1.2710162 0.71386224 0.0030335768 0.4831227
000270 2b a4 db bf b9 c7 58 3f dc 66 9a bf ac 1f eb 3c
       -1.7159475 0.8467975 -1.206264 0.028701626
000280 b6 b2 7c be 3f 22 aa be bf 41 df 3e 9a ba f7 3e
       -0.24677548 -0.33229253 0.43604848 0.48384553
000290 bb 4d b7 3d e3 a7 58 bf 9b 87 0c bf 51 82 b6 3d
       0.08950373 -0.84631175 -0.5489442 0.08911575
0002a0 ad 3b 51 bf f4 db 05 be 3b 97 a1 be dc 46 79 bf
       -0.81731683 -0.13072187 -0.31560692 -0.9737375
0002b0 57 7a 94 bf bc c4 ab be 77 78 b2 3f 1d 3d c5 be
       -1.1599835 -0.33548534 1.3943013 -0.38523188
0002c0 21 32 3b 3e 0b 32 ab 3f 08 ac 4e be 03 5e 25 bf
       0.18280841 1.3374647 -0.20182812 -0.64596575
0002d0 ae c1 eb 3e 75 5f d0 3f c1 c0 1d bf 8c 29 a5 bf
       0.46046203 1.6279131 -0.61622244 -1.2903304
0002e0 7a 50 ed be 48 94 08 bf 53 02 99 bd 6c 4a 46 3f
       -0.4635046 -0.5335126 -0.074711464 0.7745731
0002f0 76 4e 87 3f 07 10 52 bf e6 ce 8b be b3 ea a8 3d
       1.0570819 -0.82055706 -0.27306288 0.0824789
000300 73 90 f9 bc c9 a7 06 3f 5a 47 36 be 7d 45 20 3f
       -0.030464387 0.5259977 -0.17800656 0.6260603
000310 02 50 9b bf b5 5d a0 3e 4d 2e e5 3e e5 2c 0c bf
       -1.2133791 0.31321493 0.44761887 -0.54756004
000320 d0 77 50 bf 3d c8 95 3e 1d ad 9c 3f 9f c7 39 be
       -0.8143282 0.29254332 1.224033 -0.18142556
000330 75 ad 33 3e 71 92 34 3d 8d 19 bc be 96 bf 5c 3f
       0.17546637 0.04408497 -0.36738244 0.86229837
000340 ec 76 85 3e ed 91 91 bf 78 8a 8f 3e b8 89 9a 3e
       0.26067293 -1.1372658 0.2803533 0.30183196
000350 ef 2c 89 3f ba a1 0c 3f 07 b9 d9 3c a7 3d 5f bf
       1.0716838 0.54934275 0.026577486 -0.8720345
000360 bb e5 8e 3f 06 59 ae 3f bf 0d 87 3f 0b 51 88 3f
       1.1163858 1.3620918 1.055107 1.0649732
000370 61 ae 47 be e6 4a 3a bf d5 aa 85 be 77 1f 03 3f
       -0.19500114 -0.72770536 -0.26106897 0.51219887
000380 5f 82 ea bd 9e 5a 93 3e c3 be 45 bf 06 e7 da bd
       -0.114506476 0.28780073 -0.77244204 -0.106885955
000390 c0 ff 07 3e b0 8a b5 3f 97 22 0c bf 04 f6 41 bf
       0.13281155 1.4182949 -0.5474028 -0.75766015
0003a0 4e 30 48 3e cb 55 e4 3e 9b 4b e4 3f 26 67 89 3e
       0.19549677 0.44596705 1.7835573 0.2683651
0003b0 80 9e d4 be 88 ff 35 bf 42 1d 99 3f cb 1a 0c bf
       -0.41527176 -0.71093035 1.1962054 -0.5472838
0003c0 cb ed 4e 3f bc cd 30 bf e6 b2 71 be 20 6f 03 bf
       0.80831593 -0.69063926 -0.236034 -0.5134144
0003d0 a5 43 b3 3f a8 61 84 bf 33 33 5e bf 19 0b 37 bf
       1.4005018 -1.0342302 -0.86796874 -0.7150131
0003e0 c6 57 17 40 5b cc 02 bf 8b 54 43 bf 62 04 ed be
       2.3647323 -0.5109307 -0.7630088 -0.46292406
0003f0 59 0e 1f 3e 00 7b 90 bf 1d 2b 55 3f 8e 36 31 bd
       0.15532817 -1.1287537 0.8326891 -0.043264918

network_body._body_endoder.seq_layers.0.bias f4 [128]
000000 00 00 00 00 00 00 00 00 00 00 00 00 00 00 00 00
       0.0 0.0 0.0 0.0
000010 00 00 00 00 00 00 00 00 00 00 00 00 00 00 00 00
       0.0 0.0 0.0 0.0
000020 00 00 00 00 00 00 00 00 00 00 00 00 00 00 00 00
       0.0 0.0 0.0 0.0
000030 00 00 00 00 00 00 00 00 00 00 00 00 00 00 00 00
       0.0 0.0 0.0 0.0
000040 00 00 00 00 00 00 00 00 00 00 00 00 00 00 00 00
       0.0 0.0 0.0 0.0
000050 00 00 00 00 00 00 00 00 00 00 00 00 00 00 00 00
       0.0 0.0 0.0 0.0
000060 00 00 00 00 00 00 00 00 00 00 00 00 00 00 00 00
       0.0 0.0 0.0 0.0
000070 00 00 00 00 00 00 00 00 00 00 00 00 00 00 00 00
       0.0 0.0 0.0 0.0
000080 00 00 00 00 00 00 00 00 00 00 00 00 00 00 00 00
       0.0 0.0 0.0 0.0
000090 00 00 00 00 00 00 00 00 00 00 00 00 00 00 00 00
       0.0 0.0 0.0 0.0
0000a0 00 00 00 00 00 00 00 00 00 00 00 00 00 00 00 00
       0.0 0.0 0.0 0.0
0000b0 00 00 00 00 00 00 00 00 00 00 00 00 00 00 00 00
       0.0 0.0 0.0 0.0
0000c0 00 00 00 00 00 00 00 00 00 00 00 00 00 00 00 00
       0.0 0.0 0.0 0.0
0000d0 00 00 00 00 00 00 00 00 00 00 00 00 00 00 00 00
       0.0 0.0 0.0 0.0
0000e0 00 00 00 00 00 00 00 00 00 00 00 00 00 00 00 00
       0.0 0.0 0.0 0.0
0000f0 00 00 00 00 00 00 00 00 00 00 00 00 00 00 00 00
       0.0 0.0 0.0 0.0
000100 00 00 00 00 00 00 00 00 00 00 00 00 00 00 00 00
       0.0 0.0 0.0 0.0
000110 00 00 00 00 00 00 00 00 00 00 00 00 00 00 00 00
       0.0 0.0 0.0 0.0
000120 00 00 00 00 00 00 00 00 00 00 00 00 00 00 00 00
       0.0 0.0 0.0 0.0
000130 00 00 00 00 00 00 00 00 00 00 00 00 00 00 00 00
       0.0 0.0 0.0 0.0
000140 00 00 00 00 00 00 00 00 00 00 00 00 00 00 00 00
       0.0 0.0 0.0 0.0
000150 00 00 00 00 00 00 00 00 00 00 00 00 00 00 00 00
       0.0 0.0 0.0 0.0
000160 00 00 00 00 00 00 00 00 00 00 00 00 00 00 00 00
       0.0 0.0 0.0 0.0
000170 00 00 00 00 00 00 00 00 00 00 00 00 00 00 00 00
       0.0 0.0 0.0 0.0
000180 00 00 00 00 00 00 00 00 00 00 00 00 00 00 00 00
       0.0 0.0 0.0 0.0
000190 00 00 00 00 00 00 00 00 00 00 00 00 00 00 00 00
       0.0 0.0 0.0 0.0
0001a0 00 00 00 00 00 00 00 00 00 00 00 00 00 00 00 00
       0.0 0.0 0.0 0.0
0001b0 00 00 00 00 00 00 00 00 00 00 00 00 00 00 00 00
       0.0 0.0 0.0 0.0
0001c0 00 00 00 00 00 00 00 00 00 00 00 00 00 00 00 00
       0.0 0.0 0.0 0.0
0001d0 00 00 00 00 00 00 00 00 00 00 00 00 00 00 00 00
       0.0 0.0 0.0 0.0
0001e0 00 00 00 00 00 00 00 00 00 00 00 00 00 00 00 00
       0.0 0.0 0.0 0.0
0001f0 00 00 00 00 00 00 00 00 00 00 00 00 00 00 00 00
       0.0 0.0 0.0 0.0

network_body._body_endoder.seq_layers.2.weight f4 [128, 128]
000000 8c 43 58 bc fd df 96 3d 81 84 05 3e 19 5c 80 bd
       -0.013199698 0.07366941 0.13038827 -0.06267566
000010 bd 58 ae 3d 83 45 1b 3e cb 19 0d 3d 16 ea 1b 3c
       0.08513019 0.15163235 0.034448426 0.00951626
000020 de ad 1b be 03 b2 29 be 1c 12 06 bd 5d ef 30 3e
       -0.15203044 -0.16571812 -0.032732114 0.1727881
000030 2e 60 88 3d 8d e8 df bd e7 47 01 3e 65 89 89 bd
       0.0665897 -0.109330274 0.12625085 -0.06715659
000040 63 c1 35 3d 0a 8c 0f 3d 31 94 47 bd 48 51 a6 bc
       0.04437388 0.03504566 -0.04872531 -0.02030243
000050 05 85 62 bd cf fc a7 3d f1 a7 dc bd ea 98 e1 3c
       -0.05530264 0.08202516 -0.1077422 0.027538735
000060 d6 05 0e bc 01 65 52 bd 36 c2 5b bc 8c 91 1b bd
       -0.008668384 -0.051365856 -0.013413003 -0.0379806
000070 fc 77 ea 3d bd 88 e0 3b be fd 04 3e b7 12 5a be
       0.114486665 0.006852238 0.1298742 -0.21296202
000080 85 71 c2 3d f6 da 8b bc d7 3d ab 3d 98 cf 63 bd
       0.094943084 -0.017072182 0.083614044 -0.0556179
000090 5b 94 e9 bd 3e e9 7d 3d e5 a8 50 bd 00 3e ea 3c
       -0.1140525 0.061990015 -0.05094232 0.028594017
0000a0 36 48 eb bb 0c 86 0a be ec 9e 9e bd 4b 6b 6f bd
       -0.007180239 -0.13527697 -0.07745156 -0.058451932
0000b0 43 8a 50 be e9 73 b5 3d 83 b4 97 3d 57 13 50 be
       -0.20365243 0.08859999 0.07407477 -0.20319878
0000c0 06 e6 1b 3e 37 7b 04 bc bc 38 1a 3d 3b 4d 82 3d
       0.15224466 -0.008086017 0.037651762 0.06362387
0000d0 7b 24 02 be 83 2a 88 3d d6 b8 87 bd 26 17 4b bd
       -0.12709229 0.066487335 -0.066270515 -0.049582623
0000e0 2d dd 34 bd 05 df 15 be 1b 04 e0 bc 9a fd a9 3d
       -0.044156242 -0.14635856 -0.027345708 0.08300324
0000f0 32 a5 da 3b 06 b7 2e 3d 7a 20 8d bd 27 0f 5e bd
       0.006672525 0.042655014 -0.0689096 -0.05421367
000100 81 8b bc bc a9 3a dc 3d 3a d8 e8 bd 55 e8 49 3d
       -0.02301574 0.10753376 -0.11369367 0.049293835
000110 66 07 4b 3c 44 44 08 bd e3 42 ec bc d1 84 94 bd
       0.012391901 -0.03326823 -0.028840488 -0.07251895
000120 17 9a e3 3c 85 b2 6f bd 36 62 b8 bd 29 ab aa 3d
       0.027783437 -0.05851986 -0.09003107 0.083334275
000130 e4 c1 1c bc d3 1b 19 bd e1 2d af 3d d6 53 cc bc
       -0.0095677115 -0.03738005 0.085536726 -0.02494232
000140 5c 81 14 be ea 3b 71 3d 01 7d f6 3d c9 ff 9e 3c
       -0.14502472 0.05889503 0.12035561 0.019409077
000150 61 a9 0e 3d 80 c6 56 bd b4 cf 37 3d 75 73 2b bc
       0.0348295 -0.052435398 0.044875816 -0.010464539
000160 f9 1c 8b bd 1d 29 a7 bd d4 a3 1f bd 5c b0 fe bb
       -0.067926355 -0.081621386 -0.038974598 -0.0077724885
000170 e8 a4 8d bd c8 ba d2 bd db 2d 24 bd 74 f7 7f bc
       -0.06916219 -0.10289532 -0.040082794 -0.015622962
000180 23 71 3b be ff df 45 bd 22 ec 6c bd 51 9f 7a 3d
       -0.18304877 -0.048309322 -0.05784238 0.061187092
000190 ef fb a6 3d 63 9a 95 bd 03 f0 8b 3d 2c fe b4 3d
       0.08153521 -0.073048376 0.06832888 0.08837542
0001a0 13 ef d1 3d 9d 9e e2 bd 3d 2f 4c bd 7a bb 38 3d
       0.10250678 -0.11065409 -0.049849737 0.045100667
0001b0 66 65 e4 3c 61 ea 3b bc b2 7a 90 bd 4d 97 d1 bb
       0.027880382 -0.0114694545 -0.07054652 -0.0063962103
0001c0 86 92 45 3d fc 89 f3 bd 79 1f 10 3e c7 17 8e 3d
       0.04823544 -0.11891553 0.14074506 0.06938129
0001d0 f2 de 7a 3d 7e 3d 14 bc 3a a4 4e bd 59 d9 e7 bd
       0.061247773 -0.009047864 -0.050449587 -0.11320753
0001e0 fd 20 09 bd c0 7d 23 bd b5 d7 87 3d 17 dc 92 bd
       -0.033478726 -0.039914846 0.0663294 -0.07170885
0001f0 34 6d 0d bd 9f c1 9f 3d d0 b4 66 3c a0 30 81 bd
       -0.034527972 0.07800602 0.014081195 -0.063081026
000200 48 16 7d bd 65 3a 58 bc 41 5c e8 bc 94 46 f1 3c
       -0.061788827 -0.013197516 -0.028364303 0.0294526
000210 ec ef a7 bb 7b 65 a6 bd 4b 72 4c 3e 02 dd eb 3c
       -0.0051250365 -0.081248246 0.19965474 0.028791908
000220 d7 b4 89 3d 81 4e 56 bd c9 97 20 3d 1b af a7 bd
       0.067239456 -0.05232096 0.039207254 -0.081876956
000230 9a 6e 3b 3d df 19 8c 3c d3 32 7b bd 26 2e 41 3e
       0.045759775 0.01710218 -0.061327767 0.1886526
000240 cc f3 87 be 9b 12 aa bd fb 9b 13 3d 02 c4 a3 3d
       -0.2655319 -0.0830433 0.036037426 0.0799637
000250 a3 b0 ad bd f3 4b b2 bd bd 9a 54 3d 72 fa ec 3d
       -0.084809564 -0.087058924 0.051905382 0.11571206
000260 4f 4e 24 3e b1 cf 14 3e 40 1f f8 bd 6b 52 eb 3d
       0.16045497 0.14532353 -0.121153355 0.11490329
000270 75 73 a4 bd c1 d5 ff bc ba 11 de 3d 0b 97 86 3c
       -0.08029834 -0.031229855 0.10843225 0.016429445
000280 e2 21 9d bc eb 86 09 be bf ce af 3d 06 3b 80 3d
       -0.019181196 -0.13430373 0.085843556 0.06261258
000290 cd a4 c8 3b ac 02 a2 bd e1 69 fb 3d ac 29 81 bd
       0.0061231614 -0.07910666 0.12276054 -0.063067764
0002a0 45 7e b5 3c ba 92 1a 3e fa 67 6f bd 07 8a 0a be
       0.022154937 0.15095034 -0.05844877 -0.13529216
0002b0 11 28 86 bd 65 70 8e bd 76 e0 b8 bd da a0 64 bc
       -0.06550611 -0.06955031 -0.090271875 -0.013954366
0002c0 05 cd c1 bd 23 22 ce 3d 4c 26 e8 3c 3b ac 2d be
       -0.094629325 0.10065105 0.028338574 -0.16960232
0002d0 8f ef 83 3d c9 d7 e5 bd 07 7a 24 bc b8 f3 1b bc
       0.064421766 -0.112227984 -0.010038859 -0.009518556
0002e0 a3 80 44 be 09 8b fa 3c 1a 5a b1 bd 97 11 b6 bd
       -0.19189696 0.030583875 -0.08659764 -0.08890074
0002f0 82 53 85 bd c8 63 60 be 2e 3f 6f 3a 7a d8 93 bd
       -0.065100685 -0.21913064 0.0009126541 -0.07219024
000300 45 ed 6b bd ca 3b 15 3e 63 b2 1e be 0a 67 4b 3d
       -0.057599325 0.14573589 -0.15497737 0.049658813
000310 07 46 06 be 93 52 e7 bc 59 38 9c bd 74 bb a3 3d
       -0.13112651 -0.028237617 -0.07627935 0.07994738
000320 52 4c 58 3d a3 0b bf bd 7d 84 0e 3e 3c 5f 37 bd
       0.05280716 -0.093283914 0.13917728 -0.044768557
000330 59 f2 87 3d 5b ed 8f bd 79 82 e2 3b 09 2e 4f be
       0.06638021 -0.07027694 0.006912526 -0.20232405
000340 b1 9f d7 39 f6 1f 28 3c e3 a7 99 bd 6c 2c 3f 3d
       0.00041126975 0.010261526 -0.07502725 0.046673223
000350 c4 16 a8 bc 69 28 86 3b 9f 39 1d bd ee ab aa 3d
       -0.020518668 0.0040941727 -0.03838503 0.08333574
000360 53 a8 96 3d 48 aa 04 be 54 4d 76 3d 47 51 9a 3c
       0.07356324 -0.12955582 0.06013234 0.018837584
000370 28 f6 46 3c a2 b0 97 bd 28 0b a6 3d 13 6b 17 bd
       0.012143649 -0.07406737 0.08107597 -0.03696735
000380 dc cf c5 bd cf 69 fd 3b e0 89 dd 3d 19 d4 69 bd
       -0.09658787 0.0077335606 0.10817313 -0.057087038
000390 44 8d ea bd 1e 4e 02 3d 63 33 99 3d 2d 62 d8 3c
       -0.114527255 0.03181278 0.07480504 0.026414001
0003a0 d3 0a 1e 3e f4 d9 10 bd f8 d9 da 3c 70 3f 9a bd
       0.15433817 -0.035364106 0.026715264 -0.07531631
0003b0 f7 88 32 bc 0a 32 2f 3d 3f a1 0e 3d cb ed 61 3d
       -0.010896913 0.04277233 0.034821745 0.055158418
0003c0 7c 00 d9 bd b9 bc 0a bd 50 dd c4 3d 8b 86 0a 3e
       -0.105957955 -0.033871386 0.096125245 0.13527887
0003d0 41 7b 2d bd ab 6e 0c bd ca d1 02 3e 8e 7d 0b bd
       -0.042353872 -0.03428523 0.1277534 -0.034055285
0003e0 e0 e1 6c 3d a8 4c a5 3d f2 c5 91 3d 09 9a d8 3d
       0.0578326 0.08071262 0.07117833 0.10576255
0003f0 70 54 a8 3d ae d5 76 bd 21 1c 5d bd 56 f8 97 3d
       0.0821923 -0.060262375 -0.053981904 0.07420413

network_body._body_endoder.seq_layers.2.bias f4 [128]
000000 00 00 00 00 00 00 00 00 00 00 00 00 00 00 00 00
       0.0 0.0 0.0 0.0
000010 00 00 00 00 00 00 00 00 00 00 00 00 00 00 00 00
       0.0 0.0 0.0 0.0
000020 00 00 00 00 00 00 00 00 00 00 00 00 00 00 00 00
       0.0 0.0 0.0 0.0
000030 00 00 00 00 00 00 00 00 00 00 00 00 00 00 00 00
       0.0 0.0 0.0 0.0
000040 00 00 00 00 00 00 00 00 00 00 00 00 00 00 00 00
       0.0 0.0 0.0 0.0
000050 00 00 00 00 00 00 00 00 00 00 00 00 00 00 00 00
       0.0 0.0 0.0 0.0
000060 00 00 00 00 00 00 00 00 00 00 00 00 00 00 00 00
       0.0 0.0 0.0 0.0
000070 00 00 00 00 00 00 00 00 00 00 00 00 00 00 00 00
       0.0 0.0 0.0 0.0
000080 00 00 00 00 00 00 00 00 00 00 00 00 00 00 00 00
       0.0 0.0 0.0 0.0
000090 00 00 00 00 00 00 00 00 00 00 00 00 00 00 00 00
       0.0 0.0 0.0 0.0
0000a0 00 00 00 00 00 00 00 00 00 00 00 00 00 00 00 00
       0.0 0.0 0.0 0.0
0000b0 00 00 00 00 00 00 00 00 00 00 00 00 00 00 00 00
       0.0 0.0 0.0 0.0
0000c0 00 00 00 00 00 00 00 00 00 00 00 00 00 00 00 00
       0.0 0.0 0.0 0.0
0000d0 00 00 00 00 00 00 00 00 00 00 00 00 00 00 00 00
       0.0 0.0 0.0 0.0
0000e0 00 00 00 00 00 00 00 00 00 00 00 00 00 00 00 00
       0.0 0.0 0.0 0.0
0000f0 00 00 00 00 00 00 00 00 00 00 00 00 00 00 00 00
       0.0 0.0 0.0 0.0
000100 00 00 00 00 00 00 00 00 00 00 00 00 00 00 00 00
       0.0 0.0 0.0 0.0
000110 00 00 00 00 00 00 00 00 00 00 00 00 00 00 00 00
       0.0 0.0 0.0 0.0
000120 00 00 00 00 00 00 00 00 00 00 00 00 00 00 00 00
       0.0 0.0 0.0 0.0
000130 00 00 00 00 00 00 00 00 00 00 00 00 00 00 00 00
       0.0 0.0 0.0 0.0
000140 00 00 00 00 00 00 00 00 00 00 00 00 00 00 00 00
       0.0 0.0 0.0 0.0
000150 00 00 00 00 00 00 00 00 00 00 00 00 00 00 00 00
       0.0 0.0 0.0 0.0
000160 00 00 00 00 00 00 00 00 00 00 00 00 00 00 00 00
       0.0 0.0 0.0 0.0
000170 00 00 00 00 00 00 00 00 00 00 00 00 00 00 00 00
       0.0 0.0 0.0 0.0
000180 00 00 00 00 00 00 00 00 00 00 00 00 00 00 00 00
       0.0 0.0 0.0 0.0
000190 00 00 00 00 00 00 00 00 00 00 00 00 00 00 00 00
       0.0 0.0 0.0 0.0
0001a0 00 00 00 00 00 00 00 00 00 00 00 00 00 00 00 00
       0.0 0.0 0.0 0.0
0001b0 00 00 00 00 00 00 00 00 00 00 00 00 00 00 00 00
       0.0 0.0 0.0 0.0
0001c0 00 00 00 00 00 00 00 00 00 00 00 00 00 00 00 00
       0.0 0.0 0.0 0.0
0001d0 00 00 00 00 00 00 00 00 00 00 00 00 00 00 00 00
       0.0 0.0 0.0 0.0
0001e0 00 00 00 00 00 00 00 00 00 00 00 00 00 00 00 00
       0.0 0.0 0.0 0.0
0001f0 00 00 00 00 00 00 00 00 00 00 00 00 00 00 00 00
       0.0 0.0 0.0 0.0

value_heads.value_heads.extrinsic.weight f4 [1, 128]
000000 dc 33 fd bd 39 a3 5f bd 89 12 58 bd 78 d3 3e be
       -0.12363407 -0.05459902 -0.05275205 -0.18635356
000010 a9 7b ca 3d 20 f3 1b 3e 9a 53 ea 3d c4 54 b0 bd
       0.098868676 0.15229464 0.11441727 -0.08609918
000020 da 84 45 be 8c 46 2f 3e e4 43 52 3e bb 24 4d 3e
       -0.1928896 0.17116755 0.2053371 0.20033543
000030 9f f0 b5 bd 9c bb 07 3e fe bc 97 3d 7c 1a 1a 3e
       -0.088837855 0.13255161 0.07409094 0.15049165
000040 d9 c2 1a be 91 46 cf 3b 45 30 41 3e 11 68 1a 3e
       -0.15113391 0.006325551 0.1886607 0.1507876
000050 74 dc 4a 3e 27 0e 02 be b1 19 d0 bd 73 ba ff 3d
       0.19810659 -0.12700711 -0.1016115 0.12486734
000060 56 b0 35 be 3b d7 42 3e f5 bd 95 bd 22 70 9f bc
       -0.17743048 0.19027416 -0.07311622 -0.019462649
000070 fc b6 7d bd 22 53 92 bd 12 b1 e9 3d 7f 6f 43 bd
       -0.061942086 -0.071447626 0.114107266 -0.047713753
000080 a8 cf a9 bd ec 68 0c bd e9 6b 9d 3c 73 21 ce bd
       -0.082915604 -0.03427975 0.019216495 -0.10064974
000090 33 9b 0c be 5b d2 11 be bf 78 c6 bd a3 54 20 3e
       -0.13731079 -0.142404 -0.09690999 0.15657286
0000a0 92 db 59 3e 77 66 0d be e5 ce 44 3d 25 09 a9 3d
       0.21275166 -0.13808618 0.048048873 0.08253697
0000b0 61 03 93 3d 9a ac a7 3d 0a 21 3b 3e d8 9c d1 bd
       0.07178379 0.08187218 0.18274322 -0.10234994
0000c0 24 04 4a 3d a6 23 53 be 8d 8f 5c be c5 ad e3 3b
       0.049320355 -0.20619068 -0.21539135 0.006948205
0000d0 81 72 66 bd 91 31 ed bd f5 46 04 be 47 c3 3f be
       -0.056261543 -0.1158172 -0.12917693 -0.18726836
0000e0 b0 9b ce bd bb c0 41 be f5 ae 28 3e c9 da b9 3c
       -0.10088289 -0.18921177 0.16472991 0.022687333
0000f0 5d 70 aa 3d b8 58 b9 bd c8 f5 11 bb c9 dd 92 bc
       0.08322213 -0.09050125 -0.0022271741 -0.017928021
000100 26 58 ff 3d f3 f1 3d 3d 63 57 75 3d 67 9a 1d be
       0.12467985 0.04637332 0.05989779 -0.15390931
000110 f6 eb c7 bd 42 a9 2a 3e fb 4f c5 bd 81 13 9f bc
       -0.09761803 0.16666129 -0.09634396 -0.01941848
000120 e7 f9 58 bd c0 e0 bd 3d 9d a7 d0 3d 28 87 3b be
       -0.0529727 0.09271383 0.1018822 -0.18313277
000130 79 03 43 be b8 35 df 3d 87 ff 24 3d b0 34 20 3d
       -0.19044293 0.10898918 0.040282752 0.039112747
000140 f0 a7 24 3d e0 a2 8e 3d af b7 3f 3e 6f ad 47 3e
       0.04019922 0.0696466 0.18722413 0.19499753
000150 f2 60 2c be 5d 98 79 bd 8a f7 49 3e c9 ef ea bc
       -0.16833857 -0.06093632 0.19723335 -0.028678792
000160 ec 34 00 be e2 43 89 bd 28 0d e3 bd 7b 7b 43 bd
       -0.12520188 -0.06702401 -0.11086494 -0.047725182
000170 1a 0c 0d 3d 78 8d 12 be cb 16 28 be 33 2d ca 3c
       0.03443537 -0.14311779 -0.16414945 0.024679756
000180 8f ad 17 bd 3f c7 9d bd 17 ea 8a 3d b9 be 26 bd
       -0.037030753 -0.07704019 0.0678293 -0.04070923
000190 09 9e 33 be de a5 49 bd 61 6f 70 3d b3 a9 e9 3d
       -0.17540754 -0.04923045 0.05869997 0.11409321
0001a0 be 91 83 3d 47 a3 91 3d 07 6c 54 3e cc f2 ee 3d
       0.064242825 0.07111221 0.20744334 0.116674036
0001b0 78 0a 5b be f5 fa 5a 3e 15 a5 2b 3e d0 3c b6 3d
       -0.21390712 0.21384795 0.16762193 0.08898318
0001c0 a2 5c b0 bd d4 78 07 3e 7d d1 3a be 8f e6 f1 bd
       -0.08611418 0.13229686 -0.18243976 -0.11811554
0001d0 71 d5 0a be 49 e4 6d 3c e4 a0 34 3e bc cc 52 be
       -0.13557984 0.014519759 0.176395 -0.20585912
0001e0 5e 1f 05 3e 1b 19 4f be 25 3e 26 3b 81 3c 54 be
       0.13000247 -0.2022442 0.002536663 -0.20726205
0001f0 3f 37 09 3e 88 6d 45 be c6 73 36 3e ab 1b ac bd
       0.13399981 -0.19280064 0.17817602 -0.08403715
