results/ppo/EatFood/EatFood-6892.onnx (onnx, 70591 bytes, 7 tensors)

action_model._continuous_distribution.log_sigma f4 [1, 2]
0	0x00000000	0.0
1	0x00000000	0.0

action_model._continuous_distribution.mu.bias f4 [2]
0	0x00000000	0.0
1	0x00000000	0.0

action_model._continuous_distribution.mu.weight f4 [2, 128]
0	0x3ced6c9a	0.02898245
1	0x3c328ea3	0.010898265
2	0xbc4c5348	-0.012471028
3	0x3c9b554e	0.018961575
4	0xbb9aa7a7	-0.0047196927
5	0x3bed5710	0.0072430447
6	0x3a0f0346	0.0005455505
7	0xbc7fe112	-0.015617626
8	0xbc973312	-0.01845697
9	0xbc4f0f97	-0.012637994
10	0x3ba3337b	0.004980502
11	0xbbde6243	-0.006786616
12	0x3ba95c5d	0.0051684813
13	0x39e40eaa	0.00043498474
14	0x3a0cd929	0.00053729356
15	0x3b119b98	0.0022217985
16	0x3b8c8dc4	0.0042893607
17	0x3cc6a1cc	0.024247073
18	0xbc3d16f5	-0.011541118
19	0x3c491c2d	0.012274784
20	0x3cea2bd7	0.028585358
21	0x39325aeb	0.00017009272
22	0x3c59bb6d	0.013289315
23	0x3ba41597	0.0050074565
24	0x3c83b1d5	0.016076008
25	0x3c8eeff2	0.0174484
26	0x3cc0527c	0.023476832
27	0x3d38ccbe	0.045117132
28	0xbc494e4d	-0.012286735
29	0xbcaafa0a	-0.020871181
30	0x3b97c44e	0.0046315556
31	0x3c8b35b2	0.016993377
32	0xbcf3a6a2	-0.029742543
33	0x3c94180f	0.018077878
34	0xbc6dc843	-0.014513078
35	0x3d01766d	0.03160708
36	0xbc3948a0	-0.011308819
37	0xbc74d0cf	-0.014942362
38	0x3c571ef2	0.0131299365
39	0xbaff4b62	-0.0019477422
40	0x3ad126d2	0.0015957004
41	0xbbecf267	-0.007231045
42	0x3b4b2b2b	0.0031001072
43	0x3c703eed	0.01466344
44	0x3cc062db	0.023484638
45	0xbba88978	-0.0051433407
46	0xbc3b32b7	-0.011425666
47	0xbc2c300d	-0.010509503
48	0x3ccebe25	0.025237152
49	0xbcb266fd	-0.021777624
50	0x3c2bcdd2	0.010486083
51	0x3bdeea75	0.006802852
52	0xbc544af5	-0.012957324
53	0x3c6c46c5	0.01442117
54	0xbc619645	-0.013768737
55	0xbd06a6ef	-0.032874044
56	0x3b54f928	0.0032497142
57	0xbb9d803c	-0.0048065465
58	0xbcce4992	-0.025181565
59	0xbc290ec9	-0.010318466
60	0xbb1aff29	-0.0023650622
61	0xbab5292b	-0.0013821473
62	0xbb05f3f2	-0.0020439592
63	0x3c55a847	0.013040609
64	0x3c828629	0.015933113
65	0x3cf653a8	0.030069187
66	0x3d1fc522	0.03900636
67	0xbbf5f25a	-0.007505697
68	0xbc30b330	-0.010784909
69	0xbcbbe067	-0.022934152
70	0xbc95f0e5	-0.018303344
71	0xbd1a8a89	-0.037729774
72	0xbc388273	-0.01126157
73	0x3bdabf17	0.0066756117
74	0x3c91de8a	0.01780631
75	0xbcc0e697	-0.023547454
76	0xbbe6a53d	-0.007038741
77	0xbc87f04f	-0.01659408
78	0x3ca0f62d	0.019648636
79	0x3a818197	0.000988054
80	0x3d2a4cee	0.041577272
81	0x3b67fb7d	0.0035397701
82	0x3c67d8db	0.0141508235
83	0x3c7f59ff	0.015585422
84	0xbb09c30f	-0.0021020805
85	0xbd59a177	-0.0531325
86	0x3c2871bf	0.010281025
87	0xbb79a0e7	-0.003809029
88	0x3d474816	0.04865273
89	0x3cd0a620	0.02546984
90	0xbc99c162	-0.01876897
91	0x3be338d5	0.006934265
92	0xbce85c25	-0.02836425
93	0x3a897c46	0.0010489307
94	0x3c6d1dc3	0.014472428
95	0x3cd3e0c7	0.025864018
96	0xbc7e389b	-0.0155164255
97	0x3b37ad57	0.0028026903
98	0xbce7b283	-0.028283363
99	0xbc3604bb	-0.011109526
100	0xbc31b85f	-0.01084718
101	0x3baf71bf	0.0053541358
102	0x3c242ba0	0.010020167
103	0x3bfd2ced	0.007726303
104	0x3c7f81f0	0.015594944
105	0x3d103786	0.0352092
106	0xbb8b9ef2	-0.004260891
107	0xbd194e22	-0.03742803
108	0x3a230e40	0.000622008
109	0xbc68f87b	-0.014219399
110	0x3c49ffa9	0.012329021
111	0xbc9b2d8b	-0.018942615
112	0x3ca8398d	0.020535255
113	0xbc706c1a	-0.014674211
114	0x3c992f90	0.018699437
115	0xbcec4958	-0.028843567
116	0x3a3c71ff	0.00071886176
117	0xbae76280	-0.0017653257
118	0xbc53b90d	-0.0129225375
119	0xbcae43e1	-0.021272602
120	0x3ca8c007	0.020599378
121	0x3b161bc2	0.0022904729
122	0xbd466531	-0.048436347
123	0x3b25015b	0.002517781
124	0xbcf7abcb	-0.030233284
125	0x3b0e4c1f	0.0021712852
126	0xbc7609f0	-0.015017018
127	0x3c64bdca	0.013961265
128	0xbc58ce80	-0.013232827
129	0xbc4210ee	-0.011844857
130	0x3bdff01a	0.0068340423
131	0xbb82619c	-0.003978921
132	0x3d0d7d82	0.03454352
133	0xb9ee15ad	-0.00045411047
134	0x3d23588b	0.039879363
135	0xbcc4f627	-0.024043156
136	0x3c0b42e4	0.008499835
137	0x3c1a598f	0.0094207665
138	0xbcc5bd8c	-0.024138235
139	0xbd170426	-0.03686919
140	0xbb101996	-0.0021987907
141	0x3c96bcaf	0.018400518
142	0xbb29379e	-0.0025820504
143	0xbcd9696a	-0.026539523
144	0xbcb78a3f	-0.022404788
145	0xbcae8dc3	-0.021307832
146	0x3cae7593	0.021296298
147	0x3c2a1a5d	0.010382262
148	0x3b36da2b	0.0027901034
149	0xbb1e57cf	-0.0024161225
150	0x3b878708	0.00413597
151	0x3b313598	0.002704
152	0xba9e49d2	-0.0012076444
153	0xbc7941ff	-0.015213489
154	0x3cae9ee9	0.021316009
155	0xbd33e4f7	-0.04391953
156	0xbb6a746f	-0.0035774966
157	0xbcdcbc4d	-0.026945258
158	0x3cae70c3	0.021294003
159	0xbd1c8785	-0.03821518
160	0x3c2ea33f	0.010659038
161	0xbce3c5df	-0.027804313
162	0xbc511ada	-0.01276275
163	0x3d0f4b22	0.03498376
164	0x3bd1d992	0.00640411
165	0x3b682c22	0.0035426696
166	0xbc6e9885	-0.014562731
167	0x3d03bb94	0.03216131
168	0xbcb67d57	-0.022276564
169	0x3c2d38bf	0.010572611
170	0xbcb9cb7b	-0.022680035
171	0x3cdf00c7	0.02722205
172	0x3b83c9d0	0.0040218607
173	0x3d09fff7	0.033691373
174	0xbcc3ee27	-0.02391727
175	0x3c781d3f	0.015143692
176	0x3cc90148	0.024536744
177	0xbcc51db4	-0.024062015
178	0x3cb11f49	0.021621363
179	0xbc04988d	-0.008093012
180	0xbc8758ef	-0.016521899
181	0x3cf01c0b	0.029310247
182	0x3c037049	0.008022376
183	0xbc953de5	-0.01821799
184	0xbc284b8c	-0.010271918
185	0xbbcfa088	-0.0063362755
186	0x3c8a534b	0.01688542
187	0x3d5a72e3	0.05333222
188	0x3cea4f9a	0.02860241
189	0xba827c83	-0.000995532
190	0x3c4744dd	0.012162414
191	0x3cc175f5	0.023615817
192	0x3cb1e3e5	0.021715114
193	0x3c5e9f6f	0.013587817
194	0xbcf7ca80	-0.030247927
195	0x3bbfaa8a	0.0058491873
196	0xbac2b786	-0.001485572
197	0x3c86b214	0.016442336
198	0x3bc2319e	0.005926325
199	0xbd05ea77	-0.032694306
200	0xb9c4d5d7	-0.00037543356
201	0x3cb95dcc	0.022627734
202	0x3cb667bc	0.022266261
203	0x39b83f57	0.00035142407
204	0x3c4b70ca	0.012417028
205	0x3a95dae6	0.0011433035
206	0x3af5205b	0.0018701659
207	0x3c3b642f	0.01143746
208	0x3bb67534	0.005568171
209	0x3b7dc832	0.0038724062
210	0xbb2e37ac	-0.0026583476
211	0x3c21686c	0.009851556
212	0x3c2d09c4	0.01056141
213	0x3ba3ebe8	0.0050024875
214	0x3b5b2db0	0.003344398
215	0xbbe7c8a7	-0.00707348
216	0xbc0b21a3	-0.008491906
217	0xbd1f27a7	-0.038856175
218	0x3c10ae56	0.008830627
219	0x3ccc53cd	0.024942303
220	0xbb282650	-0.0025657602
221	0x3cb9add1	0.02266589
222	0xb9ef09f0	-0.00045593036
223	0x3c06dde3	0.008231613
224	0xbc0a2524	-0.008431707
225	0xbd4db2cd	-0.050219346
226	0x3cb6b564	0.02230329
227	0xbbbef3ea	-0.0058274167
228	0xbd138783	-0.036017906
229	0xbcd831a8	-0.026390865
230	0xbce81a40	-0.02833283
231	0xbc925896	-0.017864507
232	0x3d3849c3	0.04499222
233	0x3c98df97	0.018661303
234	0x3aa0d190	0.0012269486
235	0xbcb4d78e	-0.02207544
236	0xbc25a52e	-0.010110183
237	0xbccf9de0	-0.025343835
238	0x3bf4abfd	0.0074667917
239	0xbc475f74	-0.012168754
240	0x3c72e9af	0.014826222
241	0x3cea9caf	0.028639166
242	0x3ba6ea49	0.005093847
243	0xbc14f77f	-0.009092211
244	0xbcdcdfe7	-0.026962234
245	0xbc531152	-0.012882547
246	0x3d1ba7cd	0.038001824
247	0x3afd4a3b	0.001932449
248	0x3c23e378	0.010002963
249	0xbba7f9ed	-0.005126229
250	0xbb124337	-0.0022317895
251	0x3af14e2d	0.0018410139
252	0xbab53b7a	-0.001382693
253	0x3be76f7f	0.007062852
254	0x3c749f57	0.014930568
255	0xbc87af33	-0.016563034

network_body._body_endoder.seq_layers.0.bias f4 [128]
0	0x00000000	0.0
1	0x00000000	0.0
2	0x00000000	0.0
3	0x00000000	0.0
4	0x00000000	0.0
5	0x00000000	0.0
6	0x00000000	0.0
7	0x00000000	0.0
8	0x00000000	0.0
9	0x00000000	0.0
10	0x00000000	0.0
11	0x00000000	0.0
12	0x00000000	0.0
13	0x00000000	0.0
14	0x00000000	0.0
15	0x00000000	0.0
16	0x00000000	0.0
17	0x00000000	0.0
18	0x00000000	0.0
19	0x00000000	0.0
20	0x00000000	0.0
21	0x00000000	0.0
22	0x00000000	0.0
23	0x00000000	0.0
24	0x00000000	0.0
25	0x00000000	0.0
26	0x00000000	0.0
27	0x00000000	0.0
28	0x00000000	0.0
29	0x00000000	0.0
30	0x00000000	0.0
31	0x00000000	0.0
32	0x00000000	0.0
33	0x00000000	0.0
34	0x00000000	0.0
35	0x00000000	0.0
36	0x00000000	0.0
37	0x00000000	0.0
38	0x00000000	0.0
39	0x00000000	0.0
40	0x00000000	0.0
41	0x00000000	0.0
42	0x00000000	0.0
43	0x00000000	0.0
44	0x00000000	0.0
45	0x00000000	0.0
46	0x00000000	0.0
47	0x00000000	0.0
48	0x00000000	0.0
49	0x00000000	0.0
50	0x00000000	0.0
51	0x00000000	0.0
52	0x00000000	0.0
53	0x00000000	0.0
54	0x00000000	0.0
55	0x00000000	0.0
56	0x00000000	0.0
57	0x00000000	0.0
58	0x00000000	0.0
59	0x00000000	0.0
60	0x00000000	0.0
61	0x00000000	0.0
62	0x00000000	0.0
63	0x00000000	0.0
64	0x00000000	0.0
65	0x00000000	0.0
66	0x00000000	0.0
67	0x00000000	0.0
68	0x00000000	0.0
69	0x00000000	0.0
70	0x00000000	0.0
71	0x00000000	0.0
72	0x00000000	0.0
73	0x00000000	0.0
74	0x00000000	0.0
75	0x00000000	0.0
76	0x00000000	0.0
77	0x00000000	0.0
78	0x00000000	0.0
79	0x00000000	0.0
80	0x00000000	0.0
81	0x00000000	0.0
82	0x00000000	0.0
83	0x00000000	0.0
84	0x00000000	0.0
85	0x00000000	0.0
86	0x00000000	0.0
87	0x00000000	0.0
88	0x00000000	0.0
89	0x00000000	0.0
90	0x00000000	0.0
91	0x00000000	0.0
92	0x00000000	0.0
93	0x00000000	0.0
94	0x00000000	0.0
95	0x00000000	0.0
96	0x00000000	0.0
97	0x00000000	0.0
98	0x00000000	0.0
99	0x00000000	0.0
100	0x00000000	0.0
101	0x00000000	0.0
102	0x00000000	0.0
103	0x00000000	0.0
104	0x00000000	0.0
105	0x00000000	0.0
106	0x00000000	0.0
107	0x00000000	0.0
108	0x00000000	0.0
109	0x00000000	0.0
110	0x00000000	0.0
111	0x00000000	0.0
112	0x00000000	0.0
113	0x00000000	0.0
114	0x00000000	0.0
115	0x00000000	0.0
116	0x00000000	0.0
117	0x00000000	0.0
118	0x00000000	0.0
119	0x00000000	0.0
120	0x00000000	0.0
121	0x00000000	0.0
122	0x00000000	0.0
123	0x00000000	0.0
124	0x00000000	0.0
125	0x00000000	0.0
126	0x00000000	0.0
127	0x00000000	0.0

network_body._body_endoder.seq_layers.0.weight f4 [128, 2]
0	0xbea28c41	-0.3174763
1	0xbfa9d88b	-1.3269209
2	0xbe84bc99	-0.2592514
3	0xbe0fd800	-0.14047241
4	0xbf0b6561	-0.54451567
5	0xbf8cbb44	-1.0994649
6	0xbd8c27e9	-0.0684355
7	0xbeb5f899	-0.35541227
8	0xc01c1829	-2.4389746
9	0xbfb8e384	-1.4444432
10	0x3e0ed092	0.13946751
11	0xbf7d8dce	-0.990445
12	0x3f93663a	1.1515572
13	0x3f0cda01	0.5502015
14	0x3f235a19	0.63809353
15	0xbeb974f9	-0.36222056
16	0xbf0f9a1a	-0.56094515
17	0x3f67bec8	0.90525484
18	0xbf35fb67	-0.71086735
19	0x3e2b30a1	0.16717769
20	0xbf6784f0	-0.9043722
21	0x3dfc0f36	0.12307589
22	0x3eb29bf9	0.34884623
23	0x3f375e26	0.71628034
24	0xbee5faee	-0.44918007
25	0x3f004fd2	0.50121796
26	0x3f019c2e	0.50628936
27	0x3e9ff99c	0.31245124
28	0xbe5d186b	-0.21591346
29	0x3eee78d6	0.46576566
30	0x3e47bf47	0.1950656
31	0xbd9e8115	-0.07739464
32	0xbb458caf	-0.0030143668
33	0xbe633e06	-0.22191629
34	0xbe2b4c7f	-0.167284
35	0xbeac77f1	-0.33685258
36	0x3ead373b	0.338312
37	0xbf6632d5	-0.89921314
38	0x3f60d605	0.8782657
39	0x3f0cc632	0.5498992
40	0xbf28e960	-0.659811
41	0xbd5a2e94	-0.053267077
42	0xbf33f088	-0.70288897
43	0x3f0bb3f0	0.5457144
44	0xbef94a8f	-0.48689696
45	0x3e535ab9	0.20640077
46	0x3ecbb5b3	0.39787063
47	0x3d967da9	0.073481865
48	0xbf9da297	-1.2315243
49	0x3f26f687	0.6521992
50	0xbf9e9b5c	-1.2391162
51	0xbf127375	-0.57207423
52	0x3d8b5b95	0.06804577
53	0x3c02c5b2	0.007981705
54	0xbf21bd62	-0.631796
55	0x3f385bc9	0.72015053
56	0x3e4e3618	0.20137823
57	0xbf76ac72	-0.9635688
58	0x3e871d02	0.2638932
59	0x3f037e75	0.51364833
60	0xbe8f7f31	-0.28026727
61	0xbefd028e	-0.49416012
62	0x3f79f832	0.9764434
63	0x3f798508	0.97468615
64	0xbf7cfb43	-0.98820895
65	0x3e93bb30	0.2885375
66	0x3f83ee73	1.0307144
67	0xbeea760a	-0.45793182
68	0x3f2dbc44	0.67865396
69	0x3e0aa4ac	0.1353938
70	0xbf126f6a	-0.57201254
71	0xbf072fd5	-0.5280736
72	0xbff32b82	-1.8997653
73	0x3e7950d2	0.24347237
74	0x3e825e9a	0.254628
75	0x3dfe5ce5	0.12420062
76	0x3f2ec3bc	0.68267417
77	0x3f44aa43	0.768223
78	0xbec08366	-0.3760025
79	0x3e8c1975	0.27363172
80	0xbe884a0b	-0.2661899
81	0x3f934369	1.1504947
82	0x3e8498ac	0.2589773
83	0xbe989e89	-0.29808453
84	0x3e845b91	0.2585111
85	0xbe5662e2	-0.20936158
86	0x3f0a962c	0.54135394
87	0x3f1a3241	0.6023293
88	0xbdce4a16	-0.100727245
89	0xbf484e72	-0.782447
90	0x3f2c1953	0.6722614
91	0xbf01a247	-0.5063824
92	0xbbfabdf1	-0.0076520373
93	0x3fd78c7e	1.683975
94	0x3ef042e0	0.46926022
95	0xbe046b57	-0.12931572
96	0xbed30957	-0.41218063
97	0xbdc5a631	-0.09650839
98	0xbe3620fe	-0.17786023
99	0x3e4532b5	0.19257624
100	0x3f0517ad	0.5198925
101	0xbf7cc390	-0.98735905
102	0xbe3e8941	-0.18607046
103	0xbf0c0d24	-0.5470755
104	0xbf5df057	-0.86694854
105	0x3f249a0f	0.64297575
106	0x3f37f411	0.7185679
107	0xbea3b962	-0.31977373
108	0x3ecd151c	0.40055168
109	0x3d73661f	0.059423562
110	0x3f95c0e7	1.1699494
111	0xbf1f8d41	-0.6232491
112	0xbd56beec	-0.05242817
113	0xbf1fb4c6	-0.62385213
114	0xbee2d8c6	-0.4430601
115	0x3f96676b	1.1750311
116	0xbf0dc132	-0.5537292
117	0xbd0f5fdd	-0.03500353
118	0xbf63b992	-0.8895503
119	0x3e93ada4	0.28843415
120	0xbee4d1ab	-0.44691214
121	0xbda9f7c1	-0.082992084
122	0xbf0561ee	-0.52102554
123	0x3f74b772	0.95592415
124	0x3fa07e84	1.253861
125	0xbf4d0a97	-0.80094284
126	0x3f6cc06b	0.92481107
127	0x3f3d2cf4	0.7389672
128	0xbf961b20	-1.1727028
129	0xbf33cdfd	-0.7023619
130	0xbea033fe	-0.31289667
131	0xbf063ab8	-0.5243335
132	0x3e6a3be6	0.22874412
133	0x3f3618ce	0.711316
134	0x3fa385ab	1.2775167
135	0xbe7ad5d2	-0.24495628
136	0x3facf70c	1.3512893
137	0xbdf23570	-0.11826599
138	0x3ef4d93d	0.4782199
139	0xbf8aa9ca	-1.0833066
140	0x3f80f89d	1.0075871
141	0x3fa66b55	1.3001505
142	0xbde37dc0	-0.11107969
143	0x3e2bc3c2	0.16773894
144	0x3e9b7e32	0.30369717
145	0x3eab20e1	0.33423522
146	0x3f2b593b	0.6693303
147	0xbf4fa076	-0.8110422
148	0x3ea8ff47	0.3300726
149	0x3c4f3bad	0.012648505
150	0xbe860ae3	-0.2618018
151	0xbf8b3a80	-1.0877228
152	0x3f05a1c1	0.5219994
153	0xbf062c82	-0.52411664
154	0x3f1d788b	0.6151206
155	0xbe7c01cf	-0.24610065
156	0x3fb528f9	1.4153129
157	0xbe88652d	-0.2663969
158	0xbeeb674d	-0.4597725
159	0xbde02455	-0.1094443
160	0xbef72fc5	-0.48278633
161	0xbea43a39	-0.3207567
162	0xbf995393	-1.197863
163	0x3f2c1ef7	0.6723475
164	0xbe60e2f8	-0.21961582
165	0x3edf8842	0.43658644
166	0x3d60f4dd	0.05492102
167	0xbeab8a93	-0.3350416
168	0xbf792021	-0.9731465
169	0xbf6b19cd	-0.91836244
170	0xbf07f5da	-0.53109515
171	0xbee656dc	-0.44988143
172	0x3f59db72	0.8510047
173	0x3d43cd53	0.047803234
174	0xbf18c250	-0.596715
175	0xbdd61e85	-0.1045504
176	0x3ef62d65	0.48081508
177	0x3ed21488	0.4103129
178	0xbf1826f9	-0.5943447
179	0x3fffc037	1.9980534
180	0xbf7f7d88	-0.9980092
181	0x3f70fb26	0.9413322
182	0x3f671f65	0.9028228
183	0xbf96156d	-1.1725289
184	0x3f176468	0.5913758
185	0xbf5c4c09	-0.8605352
186	0xbea767d7	-0.3269641
187	0xbf66f0c6	-0.9021114
188	0xbf49d9b6	-0.78847826
189	0xbfc9e6b1	-1.5773526
190	0x3f12d4a1	0.57355696
191	0xbe811c9e	-0.25217146
192	0x3f651877	0.89490455
193	0xbf1d5fd4	-0.6147435
194	0x3f7f00c0	0.9961052
195	0x3f21ba00	0.6317444
196	0xbd891c60	-0.06694865
197	0xbecb6877	-0.39728138
198	0xbf97c7f9	-1.1857902
199	0x3e9f236a	0.31081706
200	0xbe78569e	-0.24251792
201	0x3f5bc44b	0.85846394
202	0xbd8e50d5	-0.06949011
203	0xbdd8c545	-0.10584501
204	0xbfcb0c37	-1.5863103
205	0x3d12783d	0.0357592
206	0xbf12ef0b	-0.57396
207	0xbe115865	-0.14193876
208	0xbf2bd6c5	-0.6712459
209	0x3fcfdd01	1.623932
210	0xbf041cdb	-0.5160653
211	0xbece21ba	-0.40260106
212	0x3cd0cbde	0.025487836
213	0x3f095e09	0.5365911
214	0x3e3e3d28	0.18578017
215	0xbfe19e25	-1.7626387
216	0x3f167bcf	0.58782667
217	0x3f09decc	0.53855586
218	0x3f340bc2	0.7033044
219	0xbed0165a	-0.40642053
220	0x3fb8d35f	1.4439505
221	0x3e589ab3	0.21152763
222	0xbf1e8c93	-0.6193325
223	0xbcd834f6	-0.026392441
224	0xbe8a8bea	-0.2705987
225	0x3f50ef9b	0.8161561
226	0x3ed4a8f9	0.41535166
227	0xbfa0e0c0	-1.2568588
228	0x3e11b793	0.14230184
229	0xbf5b3188	-0.85622454
230	0xbde0ecdd	-0.10982678
231	0x3f6acc62	0.91718113
232	0xbfbc3ae0	-1.4705467
233	0xbfdb3493	-1.7125419
234	0x3e1b1193	0.15143423
235	0x3e869978	0.26288962
236	0xbf32bdb0	-0.6982069
237	0x3ea6b751	0.32561734
238	0x3fa56610	1.2921772
239	0xbf86c9cd	-1.0530335
240	0x3e8dcee6	0.27696913
241	0xbf72097d	-0.9454573
242	0x3ee207d4	0.44146597
243	0xbdbea33f	-0.093084805
244	0x3f318a6e	0.6935185
245	0xbdde4c6f	-0.10854422
246	0x3efc1730	0.4923644
247	0xbf0b1995	-0.5433591
248	0xbebd5090	-0.36975527
249	0xbf131fec	-0.57470584
250	0xbf744842	-0.95422757
251	0x3e8dc534	0.27689517
252	0x3e298eff	0.16558455
253	0x3ee604ee	0.44925636
254	0xbf4942c8	-0.78617525
255	0x3fc1674d	1.510965

network_body._body_endoder.seq_layers.2.bias f4 [128]
0	0x00000000	0.0
1	0x00000000	0.0
2	0x00000000	0.0
3	0x00000000	0.0
4	0x00000000	0.0
5	0x00000000	0.0
6	0x00000000	0.0
7	0x00000000	0.0
8	0x00000000	0.0
9	0x00000000	0.0
10	0x00000000	0.0
11	0x00000000	0.0
12	0x00000000	0.0
13	0x00000000	0.0
14	0x00000000	0.0
15	0x00000000	0.0
16	0x00000000	0.0
17	0x00000000	0.0
18	0x00000000	0.0
19	0x00000000	0.0
20	0x00000000	0.0
21	0x00000000	0.0
22	0x00000000	0.0
23	0x00000000	0.0
24	0x00000000	0.0
25	0x00000000	0.0
26	0x00000000	0.0
27	0x00000000	0.0
28	0x00000000	0.0
29	0x00000000	0.0
30	0x00000000	0.0
31	0x00000000	0.0
32	0x00000000	0.0
33	0x00000000	0.0
34	0x00000000	0.0
35	0x00000000	0.0
36	0x00000000	0.0
37	0x00000000	0.0
38	0x00000000	0.0
39	0x00000000	0.0
40	0x00000000	0.0
41	0x00000000	0.0
42	0x00000000	0.0
43	0x00000000	0.0
44	0x00000000	0.0
45	0x00000000	0.0
46	0x00000000	0.0
47	0x00000000	0.0
48	0x00000000	0.0
49	0x00000000	0.0
50	0x00000000	0.0
51	0x00000000	0.0
52	0x00000000	0.0
53	0x00000000	0.0
54	0x00000000	0.0
55	0x00000000	0.0
56	0x00000000	0.0
57	0x00000000	0.0
58	0x00000000	0.0
59	0x00000000	0.0
60	0x00000000	0.0
61	0x00000000	0.0
62	0x00000000	0.0
63	0x00000000	0.0
64	0x00000000	0.0
65	0x00000000	0.0
66	0x00000000	0.0
67	0x00000000	0.0
68	0x00000000	0.0
69	0x00000000	0.0
70	0x00000000	0.0
71	0x00000000	0.0
72	0x00000000	0.0
73	0x00000000	0.0
74	0x00000000	0.0
75	0x00000000	0.0
76	0x00000000	0.0
77	0x00000000	0.0
78	0x00000000	0.0
79	0x00000000	0.0
80	0x00000000	0.0
81	0x00000000	0.0
82	0x00000000	0.0
83	0x00000000	0.0
84	0x00000000	0.0
85	0x00000000	0.0
86	0x00000000	0.0
87	0x00000000	0.0
88	0x00000000	0.0
89	0x00000000	0.0
90	0x00000000	0.0
91	0x00000000	0.0
92	0x00000000	0.0
93	0x00000000	0.0
94	0x00000000	0.0
95	0x00000000	0.0
96	0x00000000	0.0
97	0x00000000	0.0
98	0x00000000	0.0
99	0x00000000	0.0
100	0x00000000	0.0
101	0x00000000	0.0
102	0x00000000	0.0
103	0x00000000	0.0
104	0x00000000	0.0
105	0x00000000	0.0
106	0x00000000	0.0
107	0x00000000	0.0
108	0x00000000	0.0
109	0x00000000	0.0
110	0x00000000	0.0
111	0x00000000	0.0
112	0x00000000	0.0
113	0x00000000	0.0
114	0x00000000	0.0
115	0x00000000	0.0
116	0x00000000	0.0
117	0x00000000	0.0
118	0x00000000	0.0
119	0x00000000	0.0
120	0x00000000	0.0
121	0x00000000	0.0
122	0x00000000	0.0
123	0x00000000	0.0
124	0x00000000	0.0
125	0x00000000	0.0
126	0x00000000	0.0
127	0x00000000	0.0

network_body._body_endoder.seq_layers.2.weight f4 [128, 128]
0	0x3db48c9f	0.08815884
1	0xbd5ccf8f	-0.05390888
2	0xbc6d3e92	-0.01448025
3	0xbc35d0de	-0.011097161
4	0x3ded486a	0.115860775
5	0x3d3452d2	0.044024296
6	0xbd2900ba	-0.04126046
7	0xbd96bd59	-0.07360334
8	0xbcc336cc	-0.02382984
9	0x3bb092cd	0.0053885938
10	0xbd8a7ef4	-0.06762496
11	0x3d1f4b1e	0.038889997
12	0x3da0e1b5	0.0785555
13	0xbd5d00d4	-0.053955868
14	0x3dd00b0b	0.10158356
15	0x3e3caf0e	0.18426153
16	0x3cd33088	0.025779977
17	0x3ccbf9cf	0.024899391
18	0x3d4bf6d3	0.049795937
19	0x3d216a51	0.03940803
20	0x3d48a29a	0.048983194
21	0x3d22ee72	0.03977818
22	0xbdb7dcdc	-0.089776725
23	0x3d876187	0.06610399
24	0x3e13f0ab	0.14447276
25	0x3d2506a3	0.040289532
26	0xbdd3927a	-0.103306726
27	0xbd4ae797	-0.049537268
28	0x3d5280fe	0.051392548
29	0x3a31b86e	0.00067794963
30	0xbdce3173	-0.100680254
31	0xbd25a2f4	-0.040438607
32	0x3e26e1a1	0.16297008
33	0x3b9546e6	0.004555571
34	0x3cf7ac27	0.030233456
35	0x3e1b670e	0.15176031
36	0xbcda8f0f	-0.026679544
37	0x3c96d66c	0.018412791
38	0xbdd26236	-0.102726385
39	0x3d041509	0.032246623
40	0x3dec04a8	0.115243256
41	0xbde003e8	-0.10938245
42	0xbe0e030f	-0.13868354
43	0xbcf50d85	-0.029913673
44	0xbe2fc3f9	-0.17164601
45	0xbd87e884	-0.06636146
46	0xbe2081f3	-0.15674572
47	0xbd9e24fc	-0.07721898
48	0xbe043709	-0.12911619
49	0xbd79c525	-0.060979027
50	0x3d95532e	0.07291256
51	0x3c2721e0	0.0102009475
52	0x3e3301ea	0.17481199
53	0x3e15b7c6	0.14620885
54	0xbd6bc974	-0.057565168
55	0xbdca680e	-0.09883128
56	0x3d629692	0.055319376
57	0x3dc4d39c	0.09610674
58	0x3ddd550a	0.108072355
59	0x3d408114	0.0469981
60	0xbe3e4c75	-0.18583854
61	0xbd8c8907	-0.068620734
62	0x3ddbd5e6	0.10734157
63	0x3d8800dc	0.06640789
64	0x3cfac6a6	0.030612301
65	0xbe14662d	-0.14492102
66	0x3e0d618c	0.13806742
67	0x3dc5d110	0.09659016
68	0xbca16181	-0.019699814
69	0xbdf99725	-0.12187032
70	0x3e171d39	0.14757241
71	0x3dbf0e1b	0.09328862
72	0x3e0b67bd	0.13613792
73	0xbd324092	-0.04351861
74	0x3bebfbd4	0.007201651
75	0xbc5733ee	-0.01313494
76	0x3db54775	0.0885152
77	0x3db4fef3	0.0883769
78	0x3d7f8cf9	0.0623903
79	0xbd6c1e3d	-0.057646025
80	0xbc568cc6	-0.013095086
81	0xbd211e00	-0.03933525
82	0x3ba19a8d	0.004931754
83	0xbd84b2a7	-0.06479388
84	0xbd574b48	-0.05256203
85	0xbe1b9944	-0.15195185
86	0xbd06b3f8	-0.032886475
87	0x3e1c30ff	0.15253066
88	0xbd84439f	-0.0645821
89	0x3d577463	0.05260123
90	0x3bf3a20f	0.0074350904
91	0x3d622469	0.055210505
92	0x3dd91a66	0.10600738
93	0x3d8df47b	0.069313966
94	0xbd229573	-0.039693307
95	0x3ca6166b	0.020274362
96	0xbcec4374	-0.028840758
97	0xbd7956a5	-0.060873646
98	0xbc163c1c	-0.009169605
99	0xbc7c4f60	-0.015399784
100	0x3e386edf	0.18011044
101	0xbced6752	-0.028979931
102	0xbd59c61d	-0.05316745
103	0x3c2efc1a	0.010680223
104	0x3e43176d	0.19051905
105	0x3d1fe3f6	0.03903576
106	0x3db76f42	0.089567676
107	0x3d5d0945	0.05396392
108	0x3d68ad4b	0.05680589
109	0xbe4abbae	-0.19798157
110	0x3c8c39f8	0.017117485
111	0x3dba6707	0.09101682
112	0x3e149566	0.14510116
113	0x3e43ad4d	0.19109078
114	0xbe08fae1	-0.13376953
115	0xbdaba1ff	-0.08380508
116	0x3d0f5508	0.0349932
117	0xbe2dd1f2	-0.16974619
118	0x3c9d0aa0	0.019170105
119	0x3cddbdfd	0.027068133
120	0xbd9d3d3f	-0.076776974
121	0xbd4254b6	-0.047444068
122	0x3e2772db	0.16352408
123	0xbc0150f0	-0.007892832
124	0xbd913f47	-0.07092147
125	0x3c0431d0	0.008068517
126	0x3df2db73	0.11858263
127	0xbd9caaf0	-0.07649791
128	0xbbf6383e	-0.007514029
129	0x3e32ac02	0.17448428
130	0xbb5e01ec	-0.0033875657
131	0xbc7e668a	-0.015527377
132	0xbd3b7063	-0.045761477
133	0xbd868ee7	-0.06570225
134	0xbd726e7c	-0.059187397
135	0xbc0fa8f4	-0.008768309
136	0x3d55e3be	0.052219145
137	0xbd9aceca	-0.07558973
138	0x3e1a7d2f	0.15086816
139	0xbd4efe28	-0.05053535
140	0xbc194a28	-0.009356059
141	0xbd17f365	-0.037097353
142	0xbdaa27d4	-0.08308378
143	0xbdb71f17	-0.08941477
144	0x3d2747a0	0.04083979
145	0x3da27609	0.0793267
146	0x3e0a7451	0.13520934
147	0xbd2b8308	-0.041873008
148	0xbca6591d	-0.020306164
149	0xbd9306d4	-0.07179037
150	0xbc09498d	-0.008379352
151	0xbdacd7ca	-0.08439596
152	0x3d3a278d	0.045447875
153	0x3cb07cfc	0.021543972
154	0xbe0862bb	-0.13318913
155	0xbdb5928f	-0.088658445
156	0xbba995f8	-0.0051753484
157	0x3e45bc4f	0.19310115
158	0x3dc2affc	0.095062226
159	0x3ddb2277	0.10699933
160	0x3e50abf9	0.20378102
161	0x3d7f89da	0.062387325
162	0xbdb006e4	-0.08595064
163	0x3db517af	0.08842408
164	0xbd6ed9e9	-0.058313284
165	0xbd1fc862	-0.03900946
166	0x3d99eac0	0.07515478
167	0x3dffe19c	0.124942034
168	0xbdde68ae	-0.1085981
169	0x3db962db	0.09052058
170	0xbcc597c1	-0.024120213
171	0x3de9349c	0.113869876
172	0x3dee3179	0.1163053
173	0xbe003149	-0.12518801
174	0x3d540fdb	0.051772933
175	0xbd27971a	-0.040915586
176	0x3da5ae3b	0.080898724
177	0x3d7aaefd	0.061202038
178	0xbc8f29fd	-0.017476076
179	0x3ddd118d	0.10794363
180	0x3d1a50f9	0.037674878
181	0xbde88188	-0.11352831
182	0xbe6b3809	-0.22970594
183	0xbd06ba04	-0.032892242
184	0x3bae53dd	0.005320056
185	0xbbfec13e	-0.007774501
186	0xbd2d7887	-0.042351272
187	0xbe2f816a	-0.17139211
188	0xbd59b587	-0.053151634
189	0x3d059cff	0.032620426
190	0xbe3bae27	-0.18328153
191	0x3d766f12	0.06016452
192	0xbd0fc92c	-0.03510396
193	0x3d6e9a7b	0.058252793
194	0xbdf8e8cb	-0.12153777
195	0xbde03ec9	-0.10949475
196	0x3d8683ee	0.06568132
197	0x3dbec38e	0.09314643
198	0x3cb4af7f	0.02205634
199	0xbdf3870f	-0.11890995
200	0x3e3d2cad	0.18474074
201	0x3daff2bf	0.08591222
202	0x3d615d98	0.0550209
203	0xbd14ae18	-0.03629884
204	0xbe2d5385	-0.16926391
205	0x3c84c6a4	0.016208
206	0x3a0a0148	0.0005264473
207	0xbc08c23f	-0.008347093
208	0xbdf15cf3	-0.11785307
209	0xbd69c030	-0.05706805
210	0x3c9247fb	0.017856589
211	0xbd95814e	-0.073000535
212	0xbd1f1177	-0.038835015
213	0xbbf57a53	-0.007491389
214	0x3b4e5f36	0.0031489856
215	0x3b1f8b24	0.002434441
216	0x3ddf4a81	0.10902882
217	0xbdacfbba	-0.084464505
218	0x3e42525f	0.18976735
219	0x3e8b4706	0.27202624
220	0x3cf04b53	0.029332792
221	0xbdd4891c	-0.10377714
222	0xbdb2f261	-0.08737636
223	0x3d4f741c	0.05064784
224	0x3dfb73f5	0.122779764
225	0xbd5e0e2a	-0.054212727
226	0x3da42dae	0.08016525
227	0xbddc155a	-0.1074626
228	0x3c83c58c	0.016085409
229	0xbe11b9ed	-0.14231081
230	0xbd0372bf	-0.032091852
231	0xbd93d1e5	-0.072177686
232	0xbd098020	-0.033569455
233	0x3db393b2	0.08768405
234	0x3ccabc87	0.0247481
235	0x3d8eef11	0.06979192
236	0xbd021f32	-0.03176803
237	0xbe2b44cf	-0.16725467
238	0xbd803608	-0.06260306
239	0x3e1ef849	0.15524401
240	0xbd076239	-0.033052657
241	0x3d8d78d0	0.06907809
242	0x3de266e4	0.11054781
243	0xbda50bdf	-0.08058905
244	0x3d91f1f3	0.07126226
245	0x3e077f74	0.13232213
246	0xbcf0866a	-0.029360969
247	0x3de4c16f	0.11169707
248	0x3d521c2a	0.05129639
249	0x3db2abe4	0.08724192
250	0xbc745fcf	-0.014915421
251	0x3c238ae0	0.009981841
252	0xbc7198e9	-0.014745929
253	0xbe4871c6	-0.19574651
254	0x3cba2ec5	0.02272738
255	0xbdd559a7	-0.104174905
