results/ppo/EatFood/EatFood-893.pt (torch, 245775 bytes, 12 tensors)

network_body._body_endoder.seq_layers.0.weight f4 [128, 100]
0.025727918 -0.015352796 0.08758529 0.03542736 0.07211839 0.05903982 0.09660128 -0.09182072
0.09698986 -0.0047126333 -0.20697844 -0.014256722 0.062570505 0.11432854 -0.08747872 0.19387314
0.09151843 0.0017298752 -0.124348596 -0.032334995 -0.09343013 -0.054477394 -0.014234145 0.12251141
-0.094328456 0.0809737 -0.15070423 -0.008264737 -0.12714383 0.013450793 0.024644421 -0.065907784
0.015943721 0.093069606 0.022642458 -0.032520752 0.030667711 -0.033879243 0.021359857 0.1619668
-0.1319011 0.13882194 -0.09813049 0.06557867 -0.070238486 0.06376907 -0.10072833 0.052182753
-0.0023555085 -0.06390893 -0.104182325 0.06034536 -0.1471297 0.06208935 -0.047313403 -0.15839706
0.072875686 0.10535715 0.10108967 0.1462994 -0.05821352 -0.012132492 -0.13007532 0.03683206
0.107782185 -0.1431986 -0.038318537 0.15087521 -0.079010986 0.06565614 0.036222786 0.07409377
0.084147215 -0.014927978 0.008229065 -0.006963778 -0.05130557 -0.18116689 0.0660254 -0.2362242
0.024134425 0.06065926 -0.26535884 0.0046626567 -0.18710396 0.046285477 -0.005492929 0.14651357
0.22162886 -0.010859399 0.03013005 -0.03844383 0.26868606 0.022233896 -0.01821705 0.1017679
0.008580239 0.050731964 -0.015939023 0.15818927 0.012052449 -0.0028846953 0.042347737 -0.14906202
0.13827288 -0.020629993 -0.0707963 0.047485754 0.0058478652 0.12263963 0.028523488 -0.045419358
0.1192219 -0.04276288 0.11408675 -0.06024397 0.021753738 0.0808224 0.0013894814 0.0064207176
0.074761175 0.003479077 -0.018635508 0.06824638 -0.037155207 -0.039132956 -0.18766116 -0.1528484
-0.044740465 0.0912291 -0.11829936 0.041304655 -0.027964635 -0.006757926 -0.1320089 0.013898124
-0.04928207 -0.028416831 0.13109182 0.030434746 -0.04548488 0.043103043 -0.14785801 -0.043011356
-0.1296605 -0.12676191 0.055404972 -0.09225502 0.009676783 -0.0054206415 0.022470567 0.021797767
-0.047804866 0.008803402 0.024952104 -0.16184483 0.009881514 0.14771454 0.094242185 0.18381983
0.22883336 -0.09357275 -0.04333659 -0.09002393 -0.04861964 0.10374617 -0.18669625 -0.04432322
0.05729413 0.040200792 -0.27614805 -0.15151957 0.15121517 0.031714413 0.022602681 0.15414748
-0.00016137538 0.06724309 0.07421946 -0.0004959844 -0.14961408 -0.031892337 -0.10207683 -0.056583058
0.07976594 0.005576509 -0.057267744 -0.03926134 -0.02625667 0.07740646 -0.0388028 0.08814951
0.06983985 -0.02101613 0.06620866 0.035998877 0.082394645 -0.07896772 -0.07673325 -0.10140467
-0.10024505 -0.0384105 0.24337457 0.0877543 0.055566248 0.02390181 0.108774856 0.03057803
-0.09346482 -0.015195544 0.1307954 0.16857462 0.07326141 0.100240506 -0.07758712 0.05879202
0.037623655 0.16745354 -0.0084819365 0.027087236 -0.020442076 -0.12355532 0.21575569 -0.20957533
0.1168743 0.077270344 0.08441457 0.073215604 0.05644251 0.045624167 -0.0027639242 0.05268339
-0.028283337 0.1416686 -0.05074906 -0.0097263595 0.0025504474 -0.18076205 0.0014638794 0.034731038
0.15678084 -0.10229184 0.0033373905 -0.07453511 0.037172414 -0.021861298 -0.18730469 -0.060694285
0.15031604 0.08467 0.20532663 -0.056399405 -0.09283804 0.22717845 0.03601567 -0.04488124
00000000: 5bc3 d23c 4b8a 7bbc eb5f b33d 481c 113d
00000010: ceb2 933d bdd3 713d e4d6 c53d 800c bcbd
00000020: 9fa2 c63d 6f6c 9abb 28f2 53be 0795 69bc
00000030: f724 803d 1525 ea3d 0b28 b3bd ae86 463e
00000040: 046e bb3d fbbc e23a 7aaa febd b371 04bd
00000050: 4c58 bfbd b023 5fbd 5536 69bc 43e7 fa3d
00000060: 472f c1bd 8ad5 a53d 3652 1abe d268 07bc
00000070: fe31 02be b760 5c3c 19e3 c93c a9fa 86bd
00000080: 689c 823c 479b be3d ad7c b93c 7b34 05bd
00000090: da3a fb3c f6c4 0abd defa ae3c a0da 253e
000000a0: 1511 07be 5727 0e3e a3f8 c8bd 1c4e 863d
000000b0: 32d9 8fbd 5c99 823d a84a cebd 95bd 553d
000000c0: e05e 1abb afe2 82bd 8b5d d5bd b22c 773d
000000d0: 2ba9 16be 6751 7e3d b3cb 41bd d732 22be
000000e0: d93f 953d 7dc5 d73d 1a08 cf3d 83cf 153e
000000f0: 4d71 6ebd 5cc7 46bc 7732 05be 37dd 163d
00000100: e8bc dc3d a7a2 12be e6f3 1cbd 087f 1a3e
00000110: 83d0 a1bd ba76 863d 585e 143d 79be 973d
00000120: 6055 ac3d 7a94 74bc 33d3 063c 6730 e4bb
00000130: ca25 52bd d083 39be 5338 873d c2e4 71be
00000140: 8fb5 c53c d875 783d 1ddd 87be 33c9 983b
00000150: 2e98 3fbe d795 3d3d 07fe b3bb a707 163e
00000160: adf2 623e 9feb 31bc 4bd3 f63c 4777 1dbd
00000170: 3891 893e dc23 b63c ec3b 95bc b06b d03d
00000180: 2194 0c3c 52cc 4f3d 8e92 82bc 5efc 213e
00000190: a377 453c 280d 3dbb d274 2d3d b7a3 18be
000001a0: 6897 0d3e 3b00 a9bc a7fd 90bd 6c80 423d
000001b0: 739f bf3b 7d2a fb3d 17aa e93c a609 3abd
000001c0: 9d2a f43d 2128 2fbd 50a6 e93d 62c2 76bd
000001d0: e534 b23c 3786 a53d 421f b63a e264 d23b
000001e0: 631c 993d 3a01 643b 7ea9 98bc c2c4 8b3d
000001f0: 0f30 18bd e149 20bd 3f2a 40be 4a84 1cbe
00000200: c741 37bd 53d6 ba3d ef46 f2bd 122f 293d
00000210: 1716 e5bc 9871 ddbb 572d 07be f5b4 633c
00000220: ffdb 49bd 6aca e8bc ef3c 063e 4a52 f93c
00000230: 5b4e 3abd d18c 303d 1768 17be ad2c 30bd
00000240: b9c5 04be e0cd 01be 53f0 623d 33f0 bcbd
00000250: 5f8b 1e3c a39f b1bb 3214 b83c 3b91 b23c
00000260: 09cf 43bd 253c 103c 5b68 cc3c a7ba 25be
00000270: 13e6 213c 7b42 173e 0c02 c13d 443b 3c3e
00000280: 4b53 6a3e 12a3 bfbd b581 31bd 775e b8bd
00000290: 6325 47bd df78 d43d 4d2d 3fbe 448c 35bd
000002a0: 40ad 6a3d 96a9 243d 4763 8dbe f227 1bbe
000002b0: 26d8 1a3e f9e6 013d 4229 b93c d6d8 1d3e
000002c0: e036 29b9 bfb6 893d 5f00 983d f304 02ba
000002d0: 6f34 19be 8aa1 02bd a80d d1bd a3c3 67bd
000002e0: 535c a33d 26bb b63b 9591 6abd 80d0 20bd
000002f0: 3a18 d7bc 4787 9e3d afef 1ebd bb87 b43d
00000300: 3208 8f3d 052a acbc 6898 873d 8f73 133d
00000310: 86be a83d d4b9 a1bd 5226 9dbd 40ad cfbd
00000320: 474d cdbd 5454 1dbd 2f37 793e 87b8 b33d
00000330: 6f99 633d bbcd c33c 5ac5 de3d c77e fa3c
00000340: 7c6a bfbd bbf6 78bc 3bef 053e d39e 2c3e
00000350: 140a 963d e54a cd3d ffe5 9ebd e7cf 703d
00000360: 431b 1a3d f178 2b3e d2f7 0abc 0de6 dd3c
00000370: 2476 a7bc 920a fdbd 0fef 5c3e ea9a 56be
00000380: cb5b ef3d ea3f 9e3d 8ce1 ac3d 10f2 953d
00000390: 4330 673d 68e0 3a3d f422 35bb 8aca 573d
000003a0: 75b2 e7bc 9311 113e 3fde 4fbd 4f5b 1fbc
000003b0: 6825 273b b019 39be a4df bf3a 2242 0e3d
000003c0: 288b 203e 627e d1bd 1fb8 5a3b dda5 98bd
000003d0: 1a42 183d 7716 b3bc cdcc 3fbe 929a 78bd
000003e0: 73ec 193e 7767 ad3d 2541 523e 1003 67bd
000003f0: df21 bebd 78a1 683e 2b85 133d 64d5 37bd

network_body._body_endoder.seq_layers.0.bias f4 [128]
0.0 0.0 0.0 0.0 0.0 0.0 0.0 0.0
0.0 0.0 0.0 0.0 0.0 0.0 0.0 0.0
0.0 0.0 0.0 0.0 0.0 0.0 0.0 0.0
0.0 0.0 0.0 0.0 0.0 0.0 0.0 0.0
0.0 0.0 0.0 0.0 0.0 0.0 0.0 0.0
0.0 0.0 0.0 0.0 0.0 0.0 0.0 0.0
0.0 0.0 0.0 0.0 0.0 0.0 0.0 0.0
0.0 0.0 0.0 0.0 0.0 0.0 0.0 0.0
0.0 0.0 0.0 0.0 0.0 0.0 0.0 0.0
0.0 0.0 0.0 0.0 0.0 0.0 0.0 0.0
0.0 0.0 0.0 0.0 0.0 0.0 0.0 0.0
0.0 0.0 0.0 0.0 0.0 0.0 0.0 0.0
0.0 0.0 0.0 0.0 0.0 0.0 0.0 0.0
0.0 0.0 0.0 0.0 0.0 0.0 0.0 0.0
0.0 0.0 0.0 0.0 0.0 0.0 0.0 0.0
0.0 0.0 0.0 0.0 0.0 0.0 0.0 0.0
00000000: 0000 0000 0000 0000 0000 0000 0000 0000
00000010: 0000 0000 0000 0000 0000 0000 0000 0000
00000020: 0000 0000 0000 0000 0000 0000 0000 0000
00000030: 0000 0000 0000 0000 0000 0000 0000 0000
00000040: 0000 0000 0000 0000 0000 0000 0000 0000
00000050: 0000 0000 0000 0000 0000 0000 0000 0000
00000060: 0000 0000 0000 0000 0000 0000 0000 0000
00000070: 0000 0000 0000 0000 0000 0000 0000 0000
00000080: 0000 0000 0000 0000 0000 0000 0000 0000
00000090: 0000 0000 0000 0000 0000 0000 0000 0000
000000a0: 0000 0000 0000 0000 0000 0000 0000 0000
000000b0: 0000 0000 0000 0000 0000 0000 0000 0000
000000c0: 0000 0000 0000 0000 0000 0000 0000 0000
000000d0: 0000 0000 0000 0000 0000 0000 0000 0000
000000e0: 0000 0000 0000 0000 0000 0000 0000 0000
000000f0: 0000 0000 0000 0000 0000 0000 0000 0000
00000100: 0000 0000 0000 0000 0000 0000 0000 0000
00000110: 0000 0000 0000 0000 0000 0000 0000 0000
00000120: 0000 0000 0000 0000 0000 0000 0000 0000
00000130: 0000 0000 0000 0000 0000 0000 0000 0000
00000140: 0000 0000 0000 0000 0000 0000 0000 0000
00000150: 0000 0000 0000 0000 0000 0000 0000 0000
00000160: 0000 0000 0000 0000 0000 0000 0000 0000
00000170: 0000 0000 0000 0000 0000 0000 0000 0000
00000180: 0000 0000 0000 0000 0000 0000 0000 0000
00000190: 0000 0000 0000 0000 0000 0000 0000 0000
000001a0: 0000 0000 0000 0000 0000 0000 0000 0000
000001b0: 0000 0000 0000 0000 0000 0000 0000 0000
000001c0: 0000 0000 0000 0000 0000 0000 0000 0000
000001d0: 0000 0000 0000 0000 0000 0000 0000 0000
000001e0: 0000 0000 0000 0000 0000 0000 0000 0000
000001f0: 0000 0000 0000 0000 0000 0000 0000 0000

network_body._body_endoder.seq_layers.2.weight f4 [128, 128]
-0.0706829 0.013853616 0.019398151 0.0053196107 -0.093355626 -0.17217031 0.017414143 -0.06520878
-0.08571557 -0.13223204 -0.031847585 -0.027992072 -0.039156396 -0.029977484 -0.013767238 0.04558023
-0.108127326 0.046813916 -0.021309903 0.04351839 0.036399554 0.09466337 -0.011985889 0.0856482
-0.026941882 -0.18368006 0.00019072567 0.14379086 -0.12762274 -0.0038752262 -0.08640077 0.09176198
-0.01852233 -0.11694588 -0.004167645 -0.022474643 -0.010729975 0.057491634 -0.15078503 0.05605561
-0.044008534 -0.0019327374 -0.11627321 0.20286576 -0.040045336 -0.09185069 0.09691453 0.042741347
0.1113113 -0.088989094 -0.018117603 0.028861666 0.012310414 0.11022498 -0.027541447 -0.040490583
0.105904736 -0.12476005 0.05638092 -0.12716386 -0.060948167 -0.1579397 0.018362835 0.20187946
0.058390558 -0.07906975 -0.14951943 0.012352054 -0.076037556 0.06727532 0.016561931 -0.0050591747
-0.10809466 -0.043704294 -0.10704571 -0.032677732 -0.081882745 0.016029257 -0.039406203 0.03168356
-0.07692845 -0.050502814 -0.02973446 0.020462513 -0.032580703 -0.0777833 -0.09593357 -0.058708463
0.008316251 -0.040043846 -0.055535678 -0.059456125 -0.009055945 0.069919236 -0.04616809 -0.018270986
0.032409616 -0.10582596 -0.007935664 -0.07727104 0.09678803 -0.035565365 -0.03717845 -0.04449621
0.09694028 -0.05289981 -0.010923299 -0.008170094 -0.07458577 -0.06550854 -0.13895671 -0.0061073764
0.15303023 0.022862092 -0.05449762 -0.06538267 -0.11482815 0.05539916 0.07727645 0.1383075
-0.15689677 -0.040166203 -0.05998851 0.026951397 0.06766569 0.04810428 0.06456969 0.06942513
0.005766659 -0.24084549 -0.031021511 0.10134708 -0.048189785 0.047325585 -0.05947647 -0.0787515
-0.029087853 -0.015714321 -0.092112504 -0.098909624 0.16261445 0.114064224 -0.091402605 0.085708305
0.03184321 0.1267226 -0.20761397 0.024339717 -0.03957406 0.1256695 -0.012943745 -0.053657033
-0.07049675 0.033128522 -0.0022442841 0.12889601 -0.05104804 -0.15648878 0.0012693816 -0.059768412
0.029738365 -0.07718979 0.10972444 -0.048118815 -0.038594346 0.108833276 -0.0025300654 -0.06741818
0.111320764 0.07332405 -0.013578972 0.1356501 0.03981957 0.12638812 -0.065860204 0.20661047
0.002536419 -0.0815134 -0.095666826 -0.055578027 0.03517838 -0.058840007 -0.018840207 0.035338826
0.04843825 -0.18661371 0.11829604 -0.04752761 -0.21405311 0.034695208 0.06776885 -0.097429246
-0.045634322 -0.0903302 0.08890651 -0.0764882 0.12534542 -0.00923976 0.0079928525 -0.026915515
-0.036854465 -0.035368588 -0.045807295 0.08299229 -0.07647577 -0.08139743 -0.13758999 0.055369183
0.08137311 0.01152832 -0.057763483 0.09065221 0.091180354 0.20683077 0.018688696 0.011793243
-0.037565432 0.15144038 -0.051226437 -0.0050832466 0.1355901 0.008236764 0.004567587 -0.11463192
0.08042774 -0.030911753 0.022052616 -0.08198878 0.008833536 0.07726931 0.09937411 0.09208839
0.034580063 0.047421426 -0.09263718 0.084615104 0.01480157 0.03802988 0.11020565 0.084748656
-0.121700354 -0.040107448 0.058044024 -0.05535471 0.063868605 -0.0022073945 0.21509732 -0.22303805
-0.03972243 0.026693806 0.1196665 -0.002410746 -0.01929891 0.022041442 -0.08582741 0.06169011
00000000: 32c2 90bd 47fa 623c dfe8 9e3c 2150 ae3b
00000010: 3c31 bfbd 6a4d 30be 1ba8 8e3c 2e8c 85bd
00000020: a58b afbd d667 07be 9d72 02bd a14f e5bc
00000030: 7562 20bd 5793 f5bc fb8f 61bc 56b2 3a3d
00000040: dc71 ddbd f3bf 3f3d 1b92 aebc 5740 323d
00000050: b317 153d dede c13d 7660 44bc 5368 af3d
00000060: 39b5 dcbc a016 3cbe 88fd 4739 e93d 133e
00000070: 89af 02be 82f7 7dbb e3f2 b0bd b4ed bb3d
00000080: 24bc 97bc 5281 efbd bd90 88bb be1c b8bc
00000090: c7cc 2fbc 597c 6b3d 6467 1abe 919a 653d
000000a0: 4b42 34bd e853 fdba a620 eebd 0bbc 4f3e
000000b0: 9406 24bd 371c bcbd 207b c63d 8d11 2f3d
000000c0: 2ef7 e33d ea3f b6bd 5e6b 94bc 4d6f ec3c
000000d0: 9eb1 493c a2bd e13d 9a9e e1bc 74d9 25bd
000000e0: 95e4 d83d 3282 ffbd aeef 663d 3e37 02be
000000f0: c9a4 79bd f2ba 21be a86d 963c 7db9 4e3e
00000100: f02a 6f3d 52ef a1bd 9f1b 19be 4560 4a3c
00000110: 94b9 9bbd a5c7 893d e3ac 873c 6fc7 a5bb
00000120: bc60 ddbd 4603 33bd c83a dbbd 16d9 05bd
00000130: 24b2 a7bd ca4f 833c 6668 21bd 9fc6 013d
00000140: aa8c 9dbd 0adc 4ebd af95 f3bc 00a1 a73c
00000150: 5873 05bd da4c 9fbd d278 c4bd 4978 70bd
00000160: e340 083c 0405 24bd 6179 63bd 4488 73bd
00000170: 635f 14bc d131 8f3d c01a 3dbd 09ad 95bc
00000180: f2bf 043d 48bb d8bd 9604 02bc 4740 9ebd
00000190: cd38 c63d fdac 11bd 6e48 18bd a841 36bd
000001a0: a088 c63d 79ad 58bd a3f7 32bc dcdb 05bc
000001b0: 6dc0 98bd 5729 86bd ab4a 0ebe 6320 c8bb
000001c0: f5b3 1c3e 4849 bb3c e538 5fbd 59e7 85bd
000001d0: 052b ebbd 3bea 623d 1e43 9e3d 7ba0 0d3e
000001e0: 8ca9 20be 5185 24bd 83b6 75bd 2dc9 dc3c
000001f0: 4f94 8a3d fe08 453d 1d3d 843d c32e 8e3d
00000200: 3ef6 bc3b 33a0 76be d320 febc 0f8f cf3d
00000210: a762 45bd 79d8 413d 999d 73bd 7748 a1bd
00000220: a649 eebc 52bb 80bc 7ba5 bcbd 2191 cabd
00000230: 6784 263e 819a e93d 4a31 bbbd d687 af3d
00000240: 076e 023d 92c3 013e c298 54be 1664 c73c
00000250: 6918 22bd 81af 003e 0012 54bc 7ac7 5bbd
00000260: 9a60 90bd c6b1 073d d714 13bb 51fd 033e
00000270: c017 51bd 983e 20be 6161 a63a b9cf 74bd
00000280: df9d f33c ae15 9ebd 35b7 e03d 3c18 45bd
00000290: 1b15 1ebd fbe3 de3d 74cf 25bb 8b12 8abd
000002a0: 24fc e33d eb2a 963d 567a 5ebc dce7 0a3e
000002b0: d819 233d e36b 013e b7e1 86bd b291 533e
000002c0: 0d3a 263b 7ff0 a6bd f8ec c3bd c9a5 63bd
000002d0: 3417 103d 3802 71bd c756 9abc 72bf 103d
000002e0: 3067 463d aa17 3fbe 3245 f23d 50ac 42bd
000002f0: bd30 5bbe 901c 0e3d 65ca 8a3d fc88 c7bd
00000300: 0eeb 3abd 0aff b8bd 9e14 b63d d8a5 9cbd
00000310: 8d5a 003e 5d62 17bc 74f4 023c ed7d dcbc
00000320: b5f4 16bd a7de 10bd 6ea0 3bbd ddf7 a93d
00000330: 549f 9cbd b2b3 a6bd 64e4 0cbe ccca 623d
00000340: f2a6 a63d 47e1 3c3c 6799 6cbd dea7 b93d
00000350: c4bc ba3d 72cb 533e 0919 993c 7238 413c
00000360: 36de 19bd 3013 1b3e d0d2 51bd 5d91 a6bb
00000370: 22d8 0a3e 7ef3 063c b2ab 953b 24c4 eabd
00000380: 4db7 a43d a53a fdbc b0a7 b43c bce9 a7bd
00000390: 89ba 103c 5f3f 9e3d a784 cb3d d698 bc3d
000003a0: d3a3 0d3d f83c 423d 90b8 bdbd af4a ad3d
000003b0: 4982 723c 38c5 1b3d 80b3 e13d b490 ad3d
000003c0: 093e f9bd b547 24bd 92bf 6d3d 9fbb 62bd
000003d0: 8bcd 823d efa9 10bb 7942 5c3e 1664 64be
000003e0: fdb3 22bd f8ac da3c b613 f53d 9bfd 1dbb
000003f0: bf18 9ebc 4190 b43c 48c6 afbd c5ae 7c3d

network_body._body_endoder.seq_layers.2.bias f4 [128]
0.0 0.0 0.0 0.0 0.0 0.0 0.0 0.0
0.0 0.0 0.0 0.0 0.0 0.0 0.0 0.0
0.0 0.0 0.0 0.0 0.0 0.0 0.0 0.0
0.0 0.0 0.0 0.0 0.0 0.0 0.0 0.0
0.0 0.0 0.0 0.0 0.0 0.0 0.0 0.0
0.0 0.0 0.0 0.0 0.0 0.0 0.0 0.0
0.0 0.0 0.0 0.0 0.0 0.0 0.0 0.0
0.0 0.0 0.0 0.0 0.0 0.0 0.0 0.0
0.0 0.0 0.0 0.0 0.0 0.0 0.0 0.0
0.0 0.0 0.0 0.0 0.0 0.0 0.0 0.0
0.0 0.0 0.0 0.0 0.0 0.0 0.0 0.0
0.0 0.0 0.0 0.0 0.0 0.0 0.0 0.0
0.0 0.0 0.0 0.0 0.0 0.0 0.0 0.0
0.0 0.0 0.0 0.0 0.0 0.0 0.0 0.0
0.0 0.0 0.0 0.0 0.0 0.0 0.0 0.0
0.0 0.0 0.0 0.0 0.0 0.0 0.0 0.0
00000000: 0000 0000 0000 0000 0000 0000 0000 0000
00000010: 0000 0000 0000 0000 0000 0000 0000 0000
00000020: 0000 0000 0000 0000 0000 0000 0000 0000
00000030: 0000 0000 0000 0000 0000 0000 0000 0000
00000040: 0000 0000 0000 0000 0000 0000 0000 0000
00000050: 0000 0000 0000 0000 0000 0000 0000 0000
00000060: 0000 0000 0000 0000 0000 0000 0000 0000
00000070: 0000 0000 0000 0000 0000 0000 0000 0000
00000080: 0000 0000 0000 0000 0000 0000 0000 0000
00000090: 0000 0000 0000 0000 0000 0000 0000 0000
000000a0: 0000 0000 0000 0000 0000 0000 0000 0000
000000b0: 0000 0000 0000 0000 0000 0000 0000 0000
000000c0: 0000 0000 0000 0000 0000 0000 0000 0000
000000d0: 0000 0000 0000 0000 0000 0000 0000 0000
000000e0: 0000 0000 0000 0000 0000 0000 0000 0000
000000f0: 0000 0000 0000 0000 0000 0000 0000 0000
00000100: 0000 0000 0000 0000 0000 0000 0000 0000
00000110: 0000 0000 0000 0000 0000 0000 0000 0000
00000120: 0000 0000 0000 0000 0000 0000 0000 0000
00000130: 0000 0000 0000 0000 0000 0000 0000 0000
00000140: 0000 0000 0000 0000 0000 0000 0000 0000
00000150: 0000 0000 0000 0000 0000 0000 0000 0000
00000160: 0000 0000 0000 0000 0000 0000 0000 0000
00000170: 0000 0000 0000 0000 0000 0000 0000 0000
00000180: 0000 0000 0000 0000 0000 0000 0000 0000
00000190: 0000 0000 0000 0000 0000 0000 0000 0000
000001a0: 0000 0000 0000 0000 0000 0000 0000 0000
000001b0: 0000 0000 0000 0000 0000 0000 0000 0000
000001c0: 0000 0000 0000 0000 0000 0000 0000 0000
000001d0: 0000 0000 0000 0000 0000 0000 0000 0000
000001e0: 0000 0000 0000 0000 0000 0000 0000 0000
000001f0: 0000 0000 0000 0000 0000 0000 0000 0000

action_model._continuous_distribution.log_sigma f4 [1, 2]
0.0 0.0
00000000: 0000 0000 0000 0000

action_model._continuous_distribution.mu.weight f4 [2, 128]
0.011899828 -0.028808018 -0.029784372 -0.0038080954 0.021905424 -0.0024360062 0.024926946 0.027269213
0.0071720765 0.008514824 0.020655252 0.025526533 -0.021940636 -0.046164438 -0.022189617 0.016902596
0.036498327 -0.013909456 -0.015219335 0.00056116964 0.006260529 0.008226768 0.0007473878 -0.003127176
-0.011276152 -0.00804662 0.0041914084 -0.009281077 -0.00042262912 -0.007022278 0.0031046278 0.020079799
-0.009905898 0.006596345 0.004601503 0.029391918 0.015196721 0.014316358 -0.02292932 -0.019289602
-0.002235271 -0.020395441 0.023102961 -0.039881825 0.008072964 0.050197847 0.016338635 -0.009521017
-0.006411365 -0.009581264 -0.031280033 -0.009788904 -0.0008868146 -0.04005348 -0.0014695142 -0.035790753
-0.0230151 0.0017512635 -0.014140743 -0.031143954 -0.021526767 -0.0024656865 -0.03287903 0.007318931
0.01168765 0.030177945 0.008484257 -0.0061886813 -0.013306788 0.015954187 0.021476012 -0.0033429067
0.008931082 -0.020750681 -0.013077788 -0.047434457 0.023621662 -0.012439601 0.0014892466 0.0005842043
0.02644825 0.021071432 -0.015744623 0.00990297 0.022164673 0.0012620556 0.0035243945 0.012516391
-0.013471519 0.009255243 -0.001110315 0.004964055 -0.010867893 0.00064920034 -0.0051341597 -0.0061711073
0.017051851 0.0073520816 -0.008514304 -0.0011576065 0.009549987 0.020094598 0.0072358637 -0.004465775
0.0059306133 0.0016244863 -0.0005874496 0.033006743 0.0010779899 -0.002030535 0.030389026 -0.010413108
-0.022134205 0.008108747 -0.009336798 0.001298541 0.005469147 0.00242481 -0.00937185 -0.0013172585
-0.020006644 -0.008667588 0.033467483 -0.00471998 0.0028916125 0.00090672256 -0.0018066664 0.010351914
0.012443356 -0.0010071531 -0.03717425 0.025758684 -0.025472526 -0.016800556 -0.011767159 0.016652988
0.013521937 -0.004095008 -0.0006219156 0.0077067516 0.0017865265 -0.0028691622 -0.030395204 -0.022055512
-0.010308892 0.013298756 0.0130608855 0.00499846 -0.019155545 -0.01596321 0.015766917 0.01437348
0.0079353275 -0.008936151 -0.0031784375 0.014949559 -0.0023417352 0.029607374 -0.013692108 -0.027021578
0.011231448 -0.002049346 -0.01497358 -0.0069679036 0.018968 0.014872725 -0.0038315717 0.021132655
0.023315385 0.028545016 -0.011215149 0.0390061 0.010981791 0.013419661 0.04039898 -0.04307707
0.019945275 -0.0070196385 -0.014372769 0.00060141453 0.002273923 -0.020321697 -0.015780872 -0.006155393
0.007066087 -0.01513484 -0.005932677 -0.0069980896 -0.021090353 0.02717393 0.015637763 0.0024642444
0.023762738 -0.0074550617 0.0010825059 -0.016189596 0.0035495327 -0.0038751306 -0.020467995 0.03877252
0.0018033413 0.005566659 0.010667174 -0.0062994617 -0.048261248 -0.010949893 0.01636257 -0.0042066695
-0.0028715571 -0.011821209 0.0018039665 0.017119225 -0.013122745 -0.004162357 -0.01782448 0.007200186
-0.0007464972 -6.670734e-05 -0.0104234675 0.0059016193 0.007711933 -0.0006148807 0.04663586 0.0040178234
0.026452705 0.001028263 -0.006274998 -0.0030728192 0.022466874 0.007539123 0.024870962 0.021831768
0.0011517986 -0.024137272 -0.00096001505 -0.009451444 0.007782966 -0.015637837 0.019899854 0.0009166697
-0.017469829 0.023738982 0.020891866 -0.026137335 -0.013442335 0.020237882 0.02260517 0.028298775
-0.0037533522 0.01737061 0.0010458265 0.00555555 -0.0022627523 0.006601962 -0.013964921 -0.01993754
00000000: 7ff7 423c cbfe ebbc 5bfe f3bc 3d91 79bb
00000010: 0173 b33c 67a5 1fbb 9833 cc3c af63 df3c
00000020: bd03 eb3b c381 0b3c 3435 a93c 051d d13c
00000030: d9bc b3bc ec16 3dbd 00c7 b5bc 5077 8a3c
00000040: 457f 153d 7de4 63bc 855a 79bc 751b 133a
00000050: 2025 cd3b 91c9 063c 59ec 433a 4ff1 4cbb
00000060: 9cbf 38bc f8d5 03bc 1558 893b a90f 18bc
00000070: 5294 ddb9 231b e6bb 0377 4b3b 647e a43c
00000080: 594c 22bc 2726 d83b 34c8 963b 52c7 f03c
00000090: abfb 783c 288f 6a3c 45d6 bbbc 3a05 9ebc
000000a0: a07d 12bb 5714 a7bc 6c42 bd3c 205b 23bd
000000b0: 7744 043c 429c 4d3d 9ad8 853c 0afe 1bbc
000000c0: 6d16 d2bb bcfa 1cbc 7e1f 00bd a461 20bc
000000d0: 1f79 68ba 1e0f 24bd b79c c0ba 5399 12bd
000000e0: 2a8a bcbc a78a e53a 93ae 67bc 9b21 ffbc
000000f0: e758 b0bc 5b97 21bb 29ac 06bd a5d3 ef3b
00000100: 8f7d 3f3c bd37 f73c 8e01 0b3c 6cca cabb
00000110: b704 5abc 5bb2 823c 76ee af3c ab14 5bbb
00000120: ac53 123c 55fd a9bc 3844 56bc a24a 42bd
00000130: 3782 c13c 78cf 4bbc d332 c33a 4925 193a
00000140: 00aa d83c ff9d ac3c defa 80bc 1140 223c
00000150: b092 b53c 8f6b a53a 87f9 663b 8d11 4d3c
00000160: a5b7 5cbc 4ea3 173c fd87 91ba 83a9 a23b
00000170: 3f0f 32bc 192f 2a3a 743c a8bb 0037 cabb
00000180: 53b0 8b3c bbe9 f03b 947f 0bbc d4ba 97ba
00000190: 8c77 1c3c 6d9d a43c d31a ed3b a355 92bb
000001a0: 9755 c23b b7ec d43a 13ff 19ba 1432 073d
000001b0: 574b 8d3a b912 05bb 68f2 f83c be9b 2abc
000001c0: cb52 b5bc 8dda 043c 5ff9 18bc ce33 aa3a
000001d0: 8836 b33b 90e9 1e3b 638c 19bc dca7 acba
000001e0: f9e4 a3bc 8002 0ebc 3315 093d 10aa 9abb
000001f0: 3581 3d3b 1fb1 6d3a aacd ecba 139b 293c
00000200: 38df 4b3c 7302 84ba 0744 18bd e003 d33c
00000210: c2ab d0bc 52a1 89bc 0bcb 40bc d96b 883c
00000220: 1d8b 5d3c 6b2f 86bb 0d08 23ba eb88 fc3b
00000230: e229 ea3a 8e08 3cbb 5dff f8bc c3ad b4bc
00000240: a0e6 28bc 07e3 593c 53fd 553c 1fca a33b
00000250: 17ec 9cbc 47c5 82bc 9f29 813c bf7e 6b3c
00000260: 2d03 023c ef68 12bc 554d 50bb ffee 743c
00000270: cc77 19bb 2a8b f23c dd54 60bc 5b5c ddbc
00000280: 1b04 383c 524e 06bb bf53 75bc 0353 e4bb
00000290: c762 9b3c bbac 733c 1b1b 7bbb 641e ad3c
000002a0: e8ff be3c 3dd7 e93c bfbf 37bc dcc4 1f3d
000002b0: f8ec 333c 23de 5b3c 6779 253d 9571 30bd
000002c0: 4664 a33c ff04 e6bb c37b 6bbc 3fa8 1d3a
000002d0: 1906 153b b079 a6bc e346 81bc 2eb3 c9bb
000002e0: a28a e73b 1ff8 77bc e766 c2bb 3b50 e5bb
000002f0: adc5 acbc dd9b de3c c41a 803c 297f 213b
00000300: 13aa c23c 9749 f4bb dfe2 8d3a 0ba0 84bc
00000310: 479f 683b e7f5 7dbb 7fac a7bc efcf 1e3d
00000320: 185e ec3a 8568 b63b 5fc5 2e3c b76b cebb
00000330: 96ad 45bd 2e67 33bc cc0a 863c 1ad8 89bb
00000340: bc30 3cbb bfad 41bc 1273 ec3a 9e3d 8c3c
00000350: c800 57bc 6264 88bb a504 92bc 8aef eb3b
00000360: 94b0 43ba 3be5 8bb8 31c7 2abc 5f62 c13b
00000370: 62b4 fc3b f22f 21ba 3e05 3f3d f2a7 833b
00000380: 58b3 d83c c8c6 863a 809e cdbb 5a61 49bb
00000390: 730c b83c bf0a f73b 30be cb3c 89d8 b23c
000003a0: f3f7 963a 87bb c5bc 85a9 7bba 3bda 1abc
000003b0: 4008 ff3b ec1a 80bc 0505 a33c aa4c 703a
000003c0: e31c 8fbc 4178 c23c 6b25 ab3c f71d d6bc
000003d0: 3d3d 5cbc eac9 a53c 7a2e b93c d5d2 e73c
000003e0: cdfa 75bb cf4c 8e3c 1d14 893a 550b b63b
000003f0: af4a 14bb 4555 d83b 20cd 64bc 0d54 a3bc

action_model._continuous_distribution.mu.bias f4 [2]
0.0 0.0
00000000: 0000 0000 0000 0000

network_body._body_endoder.seq_layers.0.weight f4 [128, 100]
0.09005027 0.00057341746 0.0034636043 -0.0037459934 0.03801384 0.09277111 0.06678615 -0.09745007
-0.0032109004 0.02417264 0.036274437 -0.016760414 0.18602031 0.014841825 0.11586429 -0.028883357
0.1069388 0.15451783 0.2291661 -0.11030163 -0.042849734 0.13820188 0.027374228 0.048976332
-0.071123116 0.11622105 -0.040149268 0.027553653 -0.11285224 -0.16745916 -0.03616484 -0.019158456
0.044116084 0.05483077 0.014599989 -0.04150935 -0.2197402 -0.014376447 -0.0674617 0.1187058
-0.1612544 0.11667647 0.068559475 -0.02719338 -0.013036839 -0.061422247 -0.08100835 0.030307367
-0.0021069678 -0.1040499 0.1640592 -0.14636002 -0.08840946 -0.130246 0.03572672 -0.026830241
0.20069718 -0.033333227 0.034619 -0.24529266 -0.13777082 0.0096949665 -0.009660722 -0.02323519
-0.2508342 -0.010143864 0.04965807 -0.08553325 -0.077333406 -0.0053637545 -0.096110485 -0.26208204
-0.09234629 -0.014227735 -0.18939365 -0.012575269 -0.026477003 0.071599655 -0.0624941 -0.12871096
-0.16588071 0.040662434 0.006188835 0.15769973 0.060928173 -0.08674049 0.077274494 0.06998443
-0.03635486 -0.0076323897 0.06955876 -0.08404914 0.04338632 0.102575004 -0.14909974 -0.0094739925
-0.08951326 -0.093060225 0.13305594 -0.12745538 0.17198417 -0.11362727 -0.18637143 0.087696366
-0.09812215 -0.08515858 -0.10549197 -0.2740191 0.08687886 -0.027191019 0.0065453993 -0.11276758
-0.073243186 -0.02395583 -0.08737446 0.025914535 0.005145198 0.0520737 -0.05098168 -0.093661785
0.019544149 -0.048411153 -0.018843027 0.14079058 0.009289265 0.031367105 0.09866256 0.05473345
0.0028275657 0.0724255 -0.09175956 -0.19706236 -0.106679276 -0.12714742 -0.00489941 0.07947489
0.06797043 0.004849332 0.08955796 -0.022826178 0.08133459 0.00795344 0.10505648 -0.024969429
-0.09167787 -0.2378683 0.06348563 0.03709513 -0.09617617 0.0002618703 -0.10676227 0.09353479
0.07466463 -0.15937772 0.11468857 -0.02617365 -0.060903396 -0.16296631 0.20010428 0.039373513
0.14074889 -0.05393351 0.04833869 -0.016744424 0.07727797 -0.104418196 0.097574584 0.005180807
-0.116973594 0.076001234 -0.026805395 0.09895583 0.011922611 0.09144827 0.0069002137 0.004065551
0.022784604 0.0976172 -0.051306706 -0.14822352 0.023365514 0.09031166 -0.013729952 0.090069585
0.1190239 0.011138341 0.22313678 0.06932174 0.045382287 -0.044729795 -0.02145405 0.10076876
-0.10733197 0.005464229 -0.23400426 -0.016417747 0.14376251 0.12201943 -0.13310619 0.016574716
-0.0034661598 0.095330544 -0.0015307151 0.08557764 0.02391183 0.14704296 0.071120165 -0.19174863
0.053697795 0.1375127 -0.06857308 0.127379 0.07871171 -0.019967563 -0.08138478 0.012357405
-0.18104996 -0.09550422 0.08779683 -0.19661896 -0.1368694 0.17152564 -0.020115538 0.081660904
-0.10356946 0.13933401 -0.10697105 0.073364906 0.02941571 -0.018091619 0.12644735 0.04227692
-0.017490985 0.20244637 -0.02089539 -0.017992461 -0.27922502 -0.02825887 0.091513865 0.2666041
-0.055344492 -0.071309015 -0.10104145 0.29169044 -0.030743951 0.11041985 0.060779817 0.07330839
-0.117890194 0.040391263 0.06705097 -0.14185436 0.050401624 0.20717755 -0.13529782 -0.091347456
00000000: 476c b83d 6551 163a a3fd 623b 577f 75bb
00000010: 66b4 1b3d c8fe bd3d 2dc7 883d e793 c7bd
00000020: f86d 52bb b305 c63c 8194 143d 234d 89bc
00000030: 1c7c 3e3e 202b 733c 424a ed3d ca9c ecbc
00000040: bb02 db3d ec39 1e3e 85aa 6a3e d2e5 e1bd
00000050: 3483 2fbd cb84 0d3e eb3f e03c 689b 483d
00000060: ffa8 91bd 4d05 ee3d 8f73 24bd 33b8 e13c
00000070: 131f e7bd 6a7a 2bbe 9521 14bd 32f2 9cbc
00000080: 11b3 343d 3b96 603d cb34 6f3c b505 2abd
00000090: 9303 61be 308b 6bbc 5c29 8abd 071c f33d
000000a0: e01f 25be 13f4 ee3d e968 8c3d a7c4 debc
000000b0: 7798 55bc e595 7bbd b5e7 a5bd 2847 f83c
000000c0: 0e15 0abb 1d18 d5bd 23ff 273e 67df 15be
000000d0: 0510 b5bd 355f 05be 2e56 123d 18cb dbbc
000000e0: 9083 4d3e 6c88 08bd a7cc 0d3d 002e 7bbe
000000f0: cb13 0dbe a3d7 1e3c 0148 1ebc ba57 bebc
00000100: 576d 80be 7332 26bc 4366 4b3d 0e2c afbd
00000110: fa60 9ebd 6fc2 afbb 93d5 c4bd 9e2f 86be
00000120: 0d20 bdbd 721b 69bc 69f0 41be 8008 4ebc
00000130: 4de6 d8bc d7a2 923d d0f9 7fbd cecc 03be
00000140: a2dc 29be a78d 263d b6cb ca3b 0a7c 213e
00000150: d28f 793d ffa4 b1bd 1742 9e3d ff53 8f3d
00000160: d5e8 14bd 2019 fabb d374 8e3d f521 acbd
00000170: dbb5 313d d812 d23d 9aad 18be ce38 1bbc
00000180: ba52 b7bd 5c96 bebd d13f 083e aa83 02be
00000190: 9e1c 303e 6ab5 e8bd 27d8 3ebe 279a b33d
000001a0: 44f4 c8bd 9f67 aebd 2d0c d8bd 3b4c 8cbe
000001b0: 8bed b13d b3bf debc ca7a d63b b0f2 e6bd
000001c0: 8600 96bd 043f c4bc 62f1 b2bd b84a d43c
000001d0: 0d99 a83b 3b4b 553d 2bd2 50bd c0d1 bfbd
000001e0: 0d1b a03c c64a 46bd b15c 9abc 682b 103e
000001f0: 0032 183c cb7a 003d 990f ca3d 2f30 603d
00000200: ae4e 393b d253 943d 70ec bbbd b7ca 49be
00000210: aa7a dabd ef32 02be 3b8b a0bb bbc3 a23d
00000220: 1534 8b3d 25e7 9e3b 2a6a b73d f7fd babc
00000230: c092 a63d 254f 023c da27 d73d b08c ccbc
00000240: 9bc1 bbbd bf93 73be c104 823d 10f1 173d
00000250: 03f8 c4bd a34b 8939 2da6 dabd 2b8f bf3d
00000260: c5e9 983d ea33 23be d7e1 ea3d 1f6a d6bc
00000270: d775 79bd a4e0 26be 23e8 4c3e 1f46 213d
00000280: 7a20 103e 62e9 5cbd cafe 453d 9a2b 89bc
00000290: ea43 9e3d 35d9 d5bd 2fd5 c73d c2c3 a93b
000002a0: da8f efbd 89a6 9b3d fd96 dbbc 5ba9 ca3d
000002b0: 0e57 433c 3b49 bb3d 301b e23b 5038 853b
000002c0: c7a6 ba3c 87eb c73d fb26 52bd e8c7 17be
000002d0: 0969 bf3c 52f5 b83d 98f3 60bc 6776 b83d
000002e0: cdc2 f33d 977d 363c f87d 643e 8ef8 8d3d
000002f0: c7e2 393d 9736 37bd 67c0 afbc da5f ce3d
00000300: ddd0 dbbd 460d b33b d09e 6fbe 837e 86bc
00000310: 7b36 133e 53e5 f93d fd4c 08be b3c7 873c
00000320: 8328 63bb a93c c33d 47a2 c8ba 5443 af3d
00000330: bee2 c33c 6e92 163e 73a7 913d c159 44be
00000340: 38f2 5b3d 21d0 0c3e 0b70 8cbd a46f 023e
00000350: 9b33 a13d 0493 a3bc 10ad a6bd b776 4a3c
00000360: 2965 39be b797 c3bd d3ce b33d 7b56 49be
00000370: 7e27 0cbe 6ba4 2f3e 57c9 a4bc d53d a73d
00000380: 3a1c d4bd 93ad 0e3e a313 dbbd 5740 963d
00000390: 37f9 f03c e034 94bc 6a7b 013e 902a 2d3d
000003a0: 4149 8fbc 1a4e 4f3e cf2c abbc ed64 93bc
000003b0: 95f6 8ebe 257f e7bc 9f6b bb3d 5580 883e
000003c0: e8b0 62bd 760a 92bd d2ee cebd 7358 953e
000003d0: bdda fbbc cd23 e23d 42f4 783d b622 963d
000003e0: 6a70 f1bd 4f71 253d 0552 893d 4542 11be
000003f0: ef71 4e3d 5a26 543e 838b 0abe 6014 bbbd

network_body._body_endoder.seq_layers.0.bias f4 [128]
0.0 0.0 0.0 0.0 0.0 0.0 0.0 0.0
0.0 0.0 0.0 0.0 0.0 0.0 0.0 0.0
0.0 0.0 0.0 0.0 0.0 0.0 0.0 0.0
0.0 0.0 0.0 0.0 0.0 0.0 0.0 0.0
0.0 0.0 0.0 0.0 0.0 0.0 0.0 0.0
0.0 0.0 0.0 0.0 0.0 0.0 0.0 0.0
0.0 0.0 0.0 0.0 0.0 0.0 0.0 0.0
0.0 0.0 0.0 0.0 0.0 0.0 0.0 0.0
0.0 0.0 0.0 0.0 0.0 0.0 0.0 0.0
0.0 0.0 0.0 0.0 0.0 0.0 0.0 0.0
0.0 0.0 0.0 0.0 0.0 0.0 0.0 0.0
0.0 0.0 0.0 0.0 0.0 0.0 0.0 0.0
0.0 0.0 0.0 0.0 0.0 0.0 0.0 0.0
0.0 0.0 0.0 0.0 0.0 0.0 0.0 0.0
0.0 0.0 0.0 0.0 0.0 0.0 0.0 0.0
0.0 0.0 0.0 0.0 0.0 0.0 0.0 0.0
00000000: 0000 0000 0000 0000 0000 0000 0000 0000
00000010: 0000 0000 0000 0000 0000 0000 0000 0000
00000020: 0000 0000 0000 0000 0000 0000 0000 0000
00000030: 0000 0000 0000 0000 0000 0000 0000 0000
00000040: 0000 0000 0000 0000 0000 0000 0000 0000
00000050: 0000 0000 0000 0000 0000 0000 0000 0000
00000060: 0000 0000 0000 0000 0000 0000 0000 0000
00000070: 0000 0000 0000 0000 0000 0000 0000 0000
00000080: 0000 0000 0000 0000 0000 0000 0000 0000
00000090: 0000 0000 0000 0000 0000 0000 0000 0000
000000a0: 0000 0000 0000 0000 0000 0000 0000 0000
000000b0: 0000 0000 0000 0000 0000 0000 0000 0000
000000c0: 0000 0000 0000 0000 0000 0000 0000 0000
000000d0: 0000 0000 0000 0000 0000 0000 0000 0000
000000e0: 0000 0000 0000 0000 0000 0000 0000 0000
000000f0: 0000 0000 0000 0000 0000 0000 0000 0000
00000100: 0000 0000 0000 0000 0000 0000 0000 0000
00000110: 0000 0000 0000 0000 0000 0000 0000 0000
00000120: 0000 0000 0000 0000 0000 0000 0000 0000
00000130: 0000 0000 0000 0000 0000 0000 0000 0000
00000140: 0000 0000 0000 0000 0000 0000 0000 0000
00000150: 0000 0000 0000 0000 0000 0000 0000 0000
00000160: 0000 0000 0000 0000 0000 0000 0000 0000
00000170: 0000 0000 0000 0000 0000 0000 0000 0000
00000180: 0000 0000 0000 0000 0000 0000 0000 0000
00000190: 0000 0000 0000 0000 0000 0000 0000 0000
000001a0: 0000 0000 0000 0000 0000 0000 0000 0000
000001b0: 0000 0000 0000 0000 0000 0000 0000 0000
000001c0: 0000 0000 0000 0000 0000 0000 0000 0000
000001d0: 0000 0000 0000 0000 0000 0000 0000 0000
000001e0: 0000 0000 0000 0000 0000 0000 0000 0000
000001f0: 0000 0000 0000 0000 0000 0000 0000 0000

network_body._body_endoder.seq_layers.2.weight f4 [128, 128]
0.096414916 0.09159621 0.10009159 -0.10952345 0.04759849 -0.0066303504 0.015439663 -0.015785124
-0.009617286 -0.13519406 0.014398094 -0.02052754 0.016713189 0.08532646 0.014233503 -0.111472405
-0.014670702 -0.14059862 0.013317534 0.0886978 0.08558144 -0.03246416 -0.009325756 -0.03053696
-0.053027153 0.071152195 0.120144576 -0.004920296 0.06532776 -0.0018576524 -0.11623677 -0.0035434251
-0.1589217 0.037768066 -0.049972504 -0.05950672 -0.11463052 -0.17178175 -0.043655396 0.18416506
-0.006535593 0.03563919 0.0012236957 0.015399333 -0.072641805 0.02246203 -0.080665395 -0.11518575
0.0339773 -0.10916031 0.09586524 0.04789664 -0.0021688223 0.038503487 -0.1200318 -0.050775502
0.062136907 0.14487848 0.14070122 -0.111443505 -0.010631897 -0.102616996 0.002761881 -0.12896305
-0.086722806 0.013204397 -0.040740266 -0.07350245 -0.05980693 0.056004796 0.21077986 -0.013430202
-0.00920631 0.06382477 0.027402421 -0.0976019 0.04101638 -0.07391638 0.027963735 -0.0424276
-0.057870157 -0.14577143 0.021398138 0.14974132 -0.043057084 0.032945476 0.010175372 0.09261285
-0.10120351 0.084033884 0.11755552 -0.049909685 -0.03813425 0.0061272006 0.030537518 -0.03384813
-0.0017611335 -0.095609345 0.03779859 -0.037740126 -0.16970831 0.0008823016 -0.04741761 0.0669409
0.06692025 -0.10567775 -0.07205354 0.0420242 0.029721595 0.08181341 -0.079605214 -0.07108922
-0.06654568 0.08673916 0.0013273816 -0.06028224 -0.07025253 0.017577153 0.1442091 0.047801986
-0.19002256 0.07058028 0.0020755334 -0.03408031 0.24882315 -0.048112623 -0.091403656 -0.06491026
0.07684497 -0.06561905 0.037667714 0.049720436 -0.20836845 0.11419894 0.11087073 0.20608076
0.054526877 0.051471584 -0.06546568 -0.02097161 -0.011467318 -0.20551354 0.047435254 -0.05485762
-0.0427901 -0.04410836 -0.05971593 -0.026240377 0.105507806 0.029642833 -0.14618835 -0.120073475
0.17206877 -0.016518792 0.040385954 -0.0065157968 -0.013897934 0.12038146 -0.03473391 0.059064835
0.04118265 -0.07285693 0.08683763 0.028647166 -0.07015027 -0.14249574 -0.01722697 -0.19071923
0.008025755 0.12837504 0.043040466 -0.030378666 0.13226864 0.06491443 -0.005016551 0.030251611
0.18450794 0.12856664 0.016236285 -0.059661645 0.15090433 -0.00046244793 0.12256671 0.19708098
-0.0183202 0.0003157799 0.0008392584 -0.05583594 -0.19993192 0.033429578 -0.060578756 0.103500105
0.03755398 -0.014533777 0.035295855 0.06365212 -0.048315234 0.08393925 0.04436412 0.030379327
-0.11075422 -0.06649255 0.06750007 0.12354042 0.028536303 -0.09965519 0.11475701 -0.04105835
0.061610833 0.099225394 0.00794285 0.055819903 0.017079066 -0.04345038 0.137652 -0.09379066
-0.034613814 0.05153524 0.030990893 -0.15973338 0.0597131 -0.09309998 0.060839422 0.06801076
0.004472166 0.08059448 0.06584661 -0.06797031 0.06731842 -0.020794367 -0.055211954 -0.029105743
0.0888691 0.022854539 0.13648838 -0.09843135 0.11652635 -0.123987734 0.04267462 0.04629294
0.093565315 0.028074339 -0.16633789 0.0509085 -0.048276186 0.043660782 0.036702838 -0.00956374
0.030860834 -0.21967557 0.008759972 0.038343504 0.15668125 -0.12531464 0.0890376 -0.13822739
00000000: 2f75 c53d cb96 bb3d d2fc cc3d d54d e0bd
00000010: a2f6 423d 6943 d9bb a4f6 7c3c ce4f 81bc
00000020: d291 1dbc 5070 0abe fce5 6b3c 5f29 a8bc
00000030: 19ea 883c a4bf ae3d a333 693c a54b e4bd
00000040: 625d 70bc 16f9 0fbe c931 5a3c 31a7 b53d
00000050: 5245 af3d 24f9 04bd 0ecb 18bc a628 fabc
00000060: 0033 59bd 3eb8 913d 5c0e f63d 6f3a a1bb
00000070: 90ca 853d 797c f3ba 8b0d eebd cf38 68bb
00000080: 5fbc 22be b0b2 1a3d f8af 4cbd 52bd 73bd
00000090: 68c3 eabd 8ee7 2fbe 00d0 32bd c495 3c3e
000000a0: 8728 d6bb 66fa 113d 6a64 a03a 7c4d 7c3c
000000b0: 3ac5 94bd 4b02 b83c e633 a5bd 82e6 ebbd
000000c0: c82b 0b3d 718f dfbd ff54 c43d 442f 443d
000000d0: cd22 0ebb d5b5 1d3d 3bd3 f5bd f9f9 4fbd
000000e0: 4583 7e3d 065b 143e fb13 103e 7e3c e4bd
000000f0: 6831 2ebc dc28 d2bd ad00 353b e40e 04be
00000100: ba9b b1bd 4157 583c 44df 26bd 7488 96bd
00000110: 1df8 74bd 4965 653d add6 573e 5a0a 5cbc
00000120: 10d6 16bc 90b6 823d 0b7b e03c 81e3 c7bd
00000130: cb00 283d 7961 97bd 3414 e53c 90c8 2dbd
00000140: 4209 6dbd 1b45 15be 264b af3c ca55 193e
00000150: a05c 30bd d6f1 063d 9ab6 263c ceab bd3d
00000160: c943 cfbd f519 ac3d f3c0 f03d 196e 4cbd
00000170: a932 1cbd afc6 c83b d129 fa3c 56a4 0abd
00000180: d6d5 e6ba d5ce c3bd b2d2 1a3d 6495 1abd
00000190: 04c8 2dbe 424a 673a f838 42bd 5018 893d
000001a0: 7c0d 893d 946d d8bd ce90 93bd 9121 2c3d
000001b0: b47a f33c ca8d a73d 0f08 a3bd 3a97 91bd
000001c0: 1a49 88bd 4da4 b13d 89fb ad3a 83ea 76bd
000001d0: 8fe0 8fbd f6fd 8f3c 8dab 133e 04cc 433d
000001e0: 4695 42be 658c 903d ac05 083b cc97 0bbd
000001f0: 7fcb 7e3e be11 45bd d731 bbbd acef 84bd
00000200: e560 9d3d 4863 86bd 7649 1a3d a8a7 4b3d
00000210: 8a5e 55be 22e1 e93d 3110 e33d d606 533e
00000220: 9357 5f3d ded3 523d df12 86bd a7cc abbc
00000230: 6be1 3bbc 2472 52be 784b 423d 62b2 60bd
00000240: ac44 2fbd f8aa 34bd b198 74bd 0ff6 d6bc
00000250: 7a14 d83d 87d5 f23c 66b2 15be 15e9 f5bd
00000260: cc32 303e 6b52 87bc be6b 253d 7782 d5bb
00000270: 29b4 63bc 8e8a f63d 2545 0ebd f8ed 713d
00000280: 23af 283d 0436 95bd edd7 b13d 76ad ea3c
00000290: f2aa 8fbd 67ea 11be 931f 8dbc e74b 43be
000002a0: 757e 033c bf74 033e 334b 303d aedc f8bc
000002b0: 6e71 073e dbf1 843d e161 a4bb 3ad2 f73c
000002c0: a6ef 3c3e f9a6 033e f501 853c c55f 74bd
000002d0: aa86 1a3e b674 f2b9 4104 fb3d 99cf 493e
000002e0: 3e14 96bc 438f a539 ae01 5c3a 3ab4 64bd
000002f0: f4ba 4cbe 74ed 083d 6e21 78bd ddf7 d33d
00000300: 34d2 193d 141f 6ebc 6392 103d 0b5c 823d
00000310: 32e6 45bd 57e8 ab3d 27b7 353d 11de f83c
00000320: 1cd3 e2bd 3f2d 88bd 7a3d 8a3d c202 fd3d
00000330: f7c4 e93c 0518 ccbd b905 eb3d cd2c 28bd
00000340: a45b 7c3d af36 cb3d ba22 023c 69a3 643d
00000350: 66e9 8b3c 07f9 31bd a5f4 0c3e 5115 c0bd
00000360: 37c7 0dbd 9e16 533d 9de0 fd3c 2691 23be
00000370: b995 743d 34ab bebd c232 793d 3a49 8b3d
00000380: 3f8b 923b b80e a53d 96da 863d 0534 8bbd
00000390: 3dde 893d f358 aabc ee25 62bd 2b6f eebc
000003a0: 0101 b63d 7139 bb3c 9cc3 0b3e 6096 c9bd
000003b0: 5ea5 ee3d 48ed fdbd 95cb 2e3d aa9d 3d3d
000003c0: 2c9f bf3d 28fc e53c 7b54 2abe 6e85 503d
000003d0: 40bd 45bd a6d5 323d b755 163d 3cb1 1cbc
000003e0: dccf fc3c a2f2 60be fc85 0f3c 140e 1d3d
000003f0: 0d71 203e 7b52 00be 5859 b63d 7b8b 0dbe

network_body._body_endoder.seq_layers.2.bias f4 [128]
0.0 0.0 0.0 0.0 0.0 0.0 0.0 0.0
0.0 0.0 0.0 0.0 0.0 0.0 0.0 0.0
0.0 0.0 0.0 0.0 0.0 0.0 0.0 0.0
0.0 0.0 0.0 0.0 0.0 0.0 0.0 0.0
0.0 0.0 0.0 0.0 0.0 0.0 0.0 0.0
0.0 0.0 0.0 0.0 0.0 0.0 0.0 0.0
0.0 0.0 0.0 0.0 0.0 0.0 0.0 0.0
0.0 0.0 0.0 0.0 0.0 0.0 0.0 0.0
0.0 0.0 0.0 0.0 0.0 0.0 0.0 0.0
0.0 0.0 0.0 0.0 0.0 0.0 0.0 0.0
0.0 0.0 0.0 0.0 0.0 0.0 0.0 0.0
0.0 0.0 0.0 0.0 0.0 0.0 0.0 0.0
0.0 0.0 0.0 0.0 0.0 0.0 0.0 0.0
0.0 0.0 0.0 0.0 0.0 0.0 0.0 0.0
0.0 0.0 0.0 0.0 0.0 0.0 0.0 0.0
0.0 0.0 0.0 0.0 0.0 0.0 0.0 0.0
00000000: 0000 0000 0000 0000 0000 0000 0000 0000
00000010: 0000 0000 0000 0000 0000 0000 0000 0000
00000020: 0000 0000 0000 0000 0000 0000 0000 0000
00000030: 0000 0000 0000 0000 0000 0000 0000 0000
00000040: 0000 0000 0000 0000 0000 0000 0000 0000
00000050: 0000 0000 0000 0000 0000 0000 0000 0000
00000060: 0000 0000 0000 0000 0000 0000 0000 0000
00000070: 0000 0000 0000 0000 0000 0000 0000 0000
00000080: 0000 0000 0000 0000 0000 0000 0000 0000
00000090: 0000 0000 0000 0000 0000 0000 0000 0000
000000a0: 0000 0000 0000 0000 0000 0000 0000 0000
000000b0: 0000 0000 0000 0000 0000 0000 0000 0000
000000c0: 0000 0000 0000 0000 0000 0000 0000 0000
000000d0: 0000 0000 0000 0000 0000 0000 0000 0000
000000e0: 0000 0000 0000 0000 0000 0000 0000 0000
000000f0: 0000 0000 0000 0000 0000 0000 0000 0000
00000100: 0000 0000 0000 0000 0000 0000 0000 0000
00000110: 0000 0000 0000 0000 0000 0000 0000 0000
00000120: 0000 0000 0000 0000 0000 0000 0000 0000
00000130: 0000 0000 0000 0000 0000 0000 0000 0000
00000140: 0000 0000 0000 0000 0000 0000 0000 0000
00000150: 0000 0000 0000 0000 0000 0000 0000 0000
00000160: 0000 0000 0000 0000 0000 0000 0000 0000
00000170: 0000 0000 0000 0000 0000 0000 0000 0000
00000180: 0000 0000 0000 0000 0000 0000 0000 0000
00000190: 0000 0000 0000 0000 0000 0000 0000 0000
000001a0: 0000 0000 0000 0000 0000 0000 0000 0000
000001b0: 0000 0000 0000 0000 0000 0000 0000 0000
000001c0: 0000 0000 0000 0000 0000 0000 0000 0000
000001d0: 0000 0000 0000 0000 0000 0000 0000 0000
000001e0: 0000 0000 0000 0000 0000 0000 0000 0000
000001f0: 0000 0000 0000 0000 0000 0000 0000 0000

value_heads.value_heads.extrinsic.weight f4 [1, 128]
0.026544916 0.0028995248 0.05098974 0.06171017 0.14473614 0.050983466 0.20793918 -0.04032097
-0.000352565 -0.06012298 0.15078117 0.14999042 0.00863664 -0.03560368 0.09406871 -0.1122384
0.07444462 0.032718167 -0.12741792 -0.060318887 -0.039831605 -0.17971663 0.13095456 0.07162863
-0.120365575 0.12859075 -0.21485566 -0.050134197 -0.18625225 -0.10915783 0.052383006 -0.20351033
0.056677338 0.044480238 -0.16834608 -0.009747463 -0.2015554 0.02699794 0.20883453 0.18600993
-0.19415893 -0.024492025 -0.17928307 -0.20210508 -0.17763323 -0.1394336 0.044890225 -0.11890073
-0.043670803 0.16341014 0.026056465 -0.107187524 0.14202529 0.18943478 0.150978 0.07006527
-0.12575828 -0.18364999 0.03179947 -0.17163682 -0.21380639 0.059998985 -0.02626363 0.09810469
0.16799517 -0.09887109 -0.15533796 -0.0038390725 -0.07880349 -0.14979461 0.03285887 0.025414322
-0.14504477 0.19807653 -0.17789035 -0.02533006 0.060210906 -0.14385878 -0.028971659 0.05491108
-0.19050826 -0.05446662 0.14655322 -0.131605 -0.20211679 -0.0502113 -0.1751917 -0.12115419
0.16379318 0.11590078 -0.18614021 0.010498459 -0.1506108 0.12413146 0.05950971 0.14356932
0.17471787 0.13345195 0.08072724 -0.04194004 0.14817998 0.15909688 -0.12579358 0.010202751
-0.04127072 -0.17163898 0.070064984 0.076659665 -0.15970448 -0.14491083 0.010751568 -0.065757796
-0.102009356 -0.18387093 -0.10946284 0.17895187 0.05186401 -0.069246225 -0.14052251 0.09207434
-0.14235559 0.13262464 -0.2032004 0.14818473 -0.07585038 0.09097781 -0.03785759 -0.025300212
00000000: b974 d93c f405 3e3b 9eda 503d cec3 7c3d
00000010: b635 143e 0ad4 503d 02ee 543e 9a27 25bd
00000020: 79d8 b8b9 8443 76bd 6166 1a3e 1797 193e
00000030: b280 0d3c 2ad5 11bd 19a7 c03d 3fdd e5bd
00000040: 6c76 983d 7c03 063d d879 02be f010 77bd
00000050: 7726 23bd a307 38be f418 063e 08b2 923d
00000060: 3a82 f6bd 4bad 033e 1f03 5cbe 8459 4dbd
00000070: e9b8 3ebe 248e dfbd 908f 563d 0365 50be
00000080: 7f26 683d e930 363d ea62 2cbe d3b3 1fbc
00000090: 8a64 4ebe c92a dd3c b8d8 553e 6379 3e3e
000000a0: 99d1 46be 80a3 c8bc fb95 37be a2f4 4ebe
000000b0: 7ce5 35be aec7 0ebe d0de 373d 3a82 f3bd
000000c0: 28e0 32bd fd54 273e 5e74 d53c 2285 dbbd
000000d0: 146f 113e 31fb 413e fa99 1a3e 617e 8f3d
000000e0: c7c6 00be be0e 3cbe 2940 023d 90c1 2fbe
000000f0: 10f0 5abe 7fc1 753d d326 d7bc 1deb c83d
00000100: ed06 2c3e ed7c cabd ea10 1fbe f398 7bbb
00000110: b963 a1bd c263 19be 0697 063d b231 d03c
00000120: 9e86 14be 93d4 4a3e e328 36be fc80 cfbc
00000130: b69f 763d b74f 13be f955 edbc 71ea 603d
00000140: 9914 43be 6418 5fbd 0c12 163e 76c3 06be
00000150: b4f7 4ebe 5daa 4dbd 7465 33be b01f f8bd
00000160: 66b9 273e 635d ed3d 8a9b 3ebe bb01 2c3c
00000170: b839 1abe a338 fe3d 74c0 733d d603 133e
00000180: 3ee9 323e a1a7 083e 5354 a53d 52c9 2bbd
00000190: 7ebc 173e 4bea 223e 08d0 00be 7029 273c
000001a0: 7d0b 29bd 21c2 2fbe 3b7e 8f3d beff 9c3d
000001b0: 9289 23be 8163 14be 5827 303c 06ac 86bd
000001c0: 48ea d0bd a948 3cbe 0e2e e0bd 293f 373e
000001d0: 5b6f 543d f7d0 8dbd 22e5 0fbe 7991 bc3d
000001e0: aac5 11be c1ce 073e c413 50be bdbd 173e
000001f0: 7257 9bbd 9352 ba3d 8f10 1bbd 6442 cfbc
