results/ppo/EatFood/EatFood-459.onnx (onnx, 70591 bytes, 7 tensors)

action_model._continuous_distribution.log_sigma f4 [1, 2]
00000000: 0000 0000 0000 0000
0.0 0.0

action_model._continuous_distribution.mu.bias f4 [2]
00000000: 0000 0000 0000 0000
0.0 0.0

action_model._continuous_distribution.mu.weight f4 [2, 128]
00000000: ed82 d73c 5084 fcbb 2710 043b bab7 f03b
00000010: 7368 63bc d227 35bb 9bd5 8ebc d36f 233d
00000020: 35bf c8bb c07f e3bb d27b 08bc 92ff 25bc
00000030: ad22 d03a 2414 22bc 7d73 49bb d836 263c
00000040: 2f1b 023b 0dd0 c23b 0282 be3a 8be3 0fba
00000050: d921 2d3c f2ac b23c 2da5 023c 8b00 353c
00000060: 0835 c7bb 9d12 33bb d847 8639 942e 983a
00000070: dab9 84bb c58e 8e3b 9998 bb3c 07d2 a93c
00000080: 605e e3b9 09ba 9fba 15f4 b93a 46fd 17bc
00000090: 0389 823b aa87 f8bb 7f41 533b 2be4 873b
000000a0: e50c ed3c 2078 9f3c a147 2c3c 04e2 913c
000000b0: ac65 3aba 4369 3c3c 8e91 013d f7ab 393c
000000c0: 4f22 54bc f385 613c c74e 0e3c 5d29 a83b
000000d0: cdfa 68bc 93be f23c 3b04 f0bb d53f b4bc
000000e0: 5f8f a4bc 33e9 95ba 5db4 f439 5b37 fabc
000000f0: 3b41 b4bb f798 8b3c 08ca f53c df1d 13bc
00000100: 885a 57bb 4995 87bb 7a04 7a3c 7319 933c
00000110: 0cf5 84bc d80e 45bb f5bf 6ebc 102d 6e3c
00000120: f84a 853c e3fb 293c a512 febb 4863 1a3c
00000130: af2d 99bb 74cf 103c 54f8 b7ba 0ba6 82bc
00000140: 63a9 84bc 5785 5d3c 70ce 3e3c 35c5 783c
00000150: 864b 00bd 3b5c 45bb 2b81 d3bb ef60 5cbb
00000160: 4a01 b83b f79c 84bb cf01 48ba 8121 033d
00000170: 5656 a8bc 83a6 ecbc 2b7a ddbc 7875 60bc
00000180: 26c1 9d3a 0c23 193c 8aaf f3bb 1f38 b33c
00000190: 6bc5 97bc 3150 afbb 9030 b3bc c83d d43a
000001a0: 8517 30ba 21c2 a43a 6a20 5a3c 409f 63bc
000001b0: b2ed fbbc 6885 a1bc b335 293c a836 51bc
000001c0: bb9a 843b d5b2 9c3b b39c 0f3d cfbb ab3c
000001d0: 17c2 7cbb 3bfa 9d3b 0298 283b cb5e 00bc
000001e0: 4c81 173c 5c12 4abc a0ec c23c a323 5f3c
000001f0: df10 66b9 67af 433c 8341 c83b 5daa 6b3b
00000200: db64 3bbc 0d41 87bc 304c 0ebc 3ec3 34bc
00000210: a071 0abb 2d56 cd3c 95f8 163c 04fe a93c
00000220: 2147 bebb a80d 38bc d3d3 b63c d1e9 01bd
00000230: 8ffa 293b 3740 cc3c 2750 a139 1ed4 06bc
00000240: e45d 863c 8eb3 90bc 8d70 e7bc 2e7a 8abc
00000250: 544e 31bc 7ffe e2bc d539 793b f98c 483c
00000260: 19b1 043c fb09 dc3a 3617 3fba d94f 17bd
00000270: 4a20 a93c 7b8b aabb 83f4 9fbc 0d73 4bbc
00000280: 0f80 77bc 4fe9 ee3b bcf0 90ba 737e c13c
00000290: 6724 a83c 47d4 d53c 5876 25bc 20b0 183c
000002a0: 9201 7e3c c769 b23b bfac 18bd 0aa1 5d3b
000002b0: 64ae 94bb 9d41 6d3c 10a2 c03c 709c c53b
000002c0: 3029 73ba 9bcc b8bb d8b7 79bc 3142 0abc
000002d0: 78af f13c 241f 22b9 7a4f 303c d57e 66ba
000002e0: be76 1bbd 4bf4 b23b 6f42 a73c 6f9b 123d
000002f0: 48ec fbbb 837d 51bb 2757 d33b a5d5 fc3c
00000300: 7441 14bc 9888 83ba 6e7a 17bb 2fdf 943c
00000310: b676 813b b7a6 263c 3628 c63b 976c 1abc
00000320: 2deb 7dbc 95cc a1bb db8a 12bd 5cf3 36bb
00000330: c366 22bc 106a b53c dff7 56bc 2512 27bc
00000340: 3ffb a6bc d09d d23c dd8d 0c3b b3c9 973b
00000350: c052 da3b 79f5 a5bb 8abf e7bc c9bc a43c
00000360: 3b13 e1ba 4bcd ecbc 1e4b 07bc 5199 03bd
00000370: 3f82 a83c d27e e0ba 73c3 8ebb afc4 39bc
00000380: 7863 d53a 6872 65bc bf75 c53c dfae 70bb
00000390: ce2f ad3c 3ac0 91bc 97a6 193b b5b7 5a3c
000003a0: fdc5 a2bc 0393 41bb 17f6 e33b cc15 02bd
000003b0: 1ba2 74bb 9f6b b7bb 47cd 053c 8b00 90bc
000003c0: e762 6dbc 734a 243c 30bf cabc 63bc 913c
000003d0: 887e 86bc af5a 083c 331a 1f3c b79a 4fbc
000003e0: f279 e3bc 8bd6 5dbc bfcf 11bd 0e7a adbb
000003f0: 1308 98bb 6326 e63b 9218 a3bc 4e76 29bd
0.026307547 -0.0077062026 0.002015123 0.0073461207 -0.013879883 -0.0027642143 -0.01743584 0.039901566
-0.0061263093 -0.006942719 -0.008330302 -0.0101317335 0.0015879475 -0.009892497 -0.0030739002 0.010144912
0.0019852628 0.0059452117 0.0014534595 -0.00054889236 0.010567152 0.021810982 0.007973951 0.011047493
-0.00607932 -0.0027324327 0.00025612 0.0011610561 -0.0040504755 0.0043505155 0.022899913 0.020730032
-0.0004336713 -0.001218618 0.0014187122 -0.009276694 0.003983618 -0.007584532 0.0032235084 0.004147073
0.028936813 0.01946646 0.010515125 0.017807968 -0.0007110487 0.011499706 0.031632952 0.0113325035
-0.012947633 0.013764846 0.008685774 0.005131884 -0.014219952 0.029631888 -0.007324723 -0.022003094
-0.020087896 -0.0011437297 0.00046673688 -0.030543974 -0.00550094 0.017040713 0.030003563 -0.00897929
-0.0032860357 -0.004137669 0.015259856 0.017956471 -0.016230129 -0.0030068662 -0.014572133 0.014537111
0.0162711 0.010374996 -0.0077536874 0.009423085 -0.0046746354 0.008838523 -0.00140358 -0.015948316
-0.016194051 0.01352056 0.011645898 0.015183737 -0.031322025 -0.0030114788 -0.006454607 -0.0033627113
0.005615388 -0.004047032 -0.0007629664 0.032014374 -0.02054898 -0.028887993 -0.027035793 -0.013699882
0.0012035712 0.009346735 -0.0074366974 0.021877347 -0.018526753 -0.0053501357 -0.021873742 0.0016192729
-0.0006717372 0.0012570062 0.013313392 -0.013892949 -0.03075299 -0.019716933 0.010327744 -0.012769379
0.0040467656 0.0047820606 0.03506155 0.020963578 -0.0038567835 0.0048210896 0.002572537 -0.0078351
0.009247135 -0.012333479 0.023794472 0.013619336 -0.00021940794 0.011943675 0.006111325 0.0035959699
-0.01143762 -0.01651051 -0.008685157 -0.0110328775 -0.0021124855 0.025065506 0.00921454 0.020751007
-0.005806819 -0.011233725 0.022317803 -0.031717125 0.0025936698 0.024932964 0.0003076803 -0.008229284
0.016402192 -0.017663743 -0.02825191 -0.016903963 -0.010821898 -0.027709244 0.0038028855 0.012240642
0.008098864 0.0016787642 -0.00072895305 -0.036941383 0.02064528 -0.0052046156 -0.019525772 -0.012417567
-0.015106215 0.007290996 -0.0011058073 0.023619866 0.02052517 0.026102198 -0.010099016 0.009319335
0.015503304 0.0054447385 -0.03727412 0.003381791 -0.0045373905 0.014480975 0.023514777 0.0060306117
-0.0009275852 -0.0056396252 -0.015241586 -0.008438633 0.029502615 -0.00015461125 0.010761136 -0.0008792703
-0.03795504 0.005461251 0.02041742 0.035792764 -0.007688079 -0.003196568 0.0064495984 0.030863592
-0.009048808 -0.0010035215 -0.0023113745 0.018172828 0.003950919 0.010171584 0.006047274 -0.009425304
-0.015497965 -0.004937718 -0.035776954 -0.002791605 -0.009912196 0.022145301 -0.0131206205 -0.010197197
-0.020383475 0.025710016 0.0021446862 0.0046321987 0.0066626966 -0.005064663 -0.028289575 0.020109551
-0.0017171869 -0.028906485 -0.008257655 -0.032128636 0.020569919 -0.0017127639 -0.0043567955 -0.011338397
0.0016280254 -0.014004327 0.024103997 -0.0036725325 0.02114096 -0.017791856 0.0023445243 0.013349463
-0.019869799 -0.0029537089 0.0069568264 -0.03175907 -0.0037328068 -0.005597546 0.008166618 -0.017578384
-0.014488912 0.010027516 -0.024749368 0.017790025 -0.016417757 0.008322402 0.009710836 -0.012671164
-0.027768109 -0.013539921 -0.035598513 -0.005294091 -0.0046396344 0.007023619 -0.019909177 -0.04137259

network_body._body_endoder.seq_layers.0.bias f4 [128]
00000000: 0000 0000 0000 0000 0000 0000 0000 0000
00000010: 0000 0000 0000 0000 0000 0000 0000 0000
00000020: 0000 0000 0000 0000 0000 0000 0000 0000
00000030: 0000 0000 0000 0000 0000 0000 0000 0000
00000040: 0000 0000 0000 0000 0000 0000 0000 0000
00000050: 0000 0000 0000 0000 0000 0000 0000 0000
00000060: 0000 0000 0000 0000 0000 0000 0000 0000
00000070: 0000 0000 0000 0000 0000 0000 0000 0000
00000080: 0000 0000 0000 0000 0000 0000 0000 0000
00000090: 0000 0000 0000 0000 0000 0000 0000 0000
000000a0: 0000 0000 0000 0000 0000 0000 0000 0000
000000b0: 0000 0000 0000 0000 0000 0000 0000 0000
000000c0: 0000 0000 0000 0000 0000 0000 0000 0000
000000d0: 0000 0000 0000 0000 0000 0000 0000 0000
000000e0: 0000 0000 0000 0000 0000 0000 0000 0000
000000f0: 0000 0000 0000 0000 0000 0000 0000 0000
00000100: 0000 0000 0000 0000 0000 0000 0000 0000
00000110: 0000 0000 0000 0000 0000 0000 0000 0000
00000120: 0000 0000 0000 0000 0000 0000 0000 0000
00000130: 0000 0000 0000 0000 0000 0000 0000 0000
00000140: 0000 0000 0000 0000 0000 0000 0000 0000
00000150: 0000 0000 0000 0000 0000 0000 0000 0000
00000160: 0000 0000 0000 0000 0000 0000 0000 0000
00000170: 0000 0000 0000 0000 0000 0000 0000 0000
00000180: 0000 0000 0000 0000 0000 0000 0000 0000
00000190: 0000 0000 0000 0000 0000 0000 0000 0000
000001a0: 0000 0000 0000 0000 0000 0000 0000 0000
000001b0: 0000 0000 0000 0000 0000 0000 0000 0000
000001c0: 0000 0000 0000 0000 0000 0000 0000 0000
000001d0: 0000 0000 0000 0000 0000 0000 0000 0000
000001e0: 0000 0000 0000 0000 0000 0000 0000 0000
000001f0: 0000 0000 0000 0000 0000 0000 0000 0000
0.0 0.0 0.0 0.0 0.0 0.0 0.0 0.0
0.0 0.0 0.0 0.0 0.0 0.0 0.0 0.0
0.0 0.0 0.0 0.0 0.0 0.0 0.0 0.0
0.0 0.0 0.0 0.0 0.0 0.0 0.0 0.0
0.0 0.0 0.0 0.0 0.0 0.0 0.0 0.0
0.0 0.0 0.0 0.0 0.0 0.0 0.0 0.0
0.0 0.0 0.0 0.0 0.0 0.0 0.0 0.0
0.0 0.0 0.0 0.0 0.0 0.0 0.0 0.0
0.0 0.0 0.0 0.0 0.0 0.0 0.0 0.0
0.0 0.0 0.0 0.0 0.0 0.0 0.0 0.0
0.0 0.0 0.0 0.0 0.0 0.0 0.0 0.0
0.0 0.0 0.0 0.0 0.0 0.0 0.0 0.0
0.0 0.0 0.0 0.0 0.0 0.0 0.0 0.0
0.0 0.0 0.0 0.0 0.0 0.0 0.0 0.0
0.0 0.0 0.0 0.0 0.0 0.0 0.0 0.0
0.0 0.0 0.0 0.0 0.0 0.0 0.0 0.0

network_body._body_endoder.seq_layers.0.weight f4 [128, 2]
00000000: 4289 f5be af3c 1dbf 0d50 723f 3faa c33f
00000010: af98 00bf a1ac 8fbf 6d26 abbe e4b8 4c3f
00000020: 9a34 8b3e a73b 223f 2825 b13e 2bb7 e33f
00000030: 5aff 33bf 6449 163f 726e 023e 890d bd3e
00000040: 3676 3ebf e856 da3e 69f9 bd3f 3718 88bd
00000050: c526 77bf c35e 293d 3173 3bbf 47c4 893f
00000060: 7d8f 033c d7c2 c63e 5faf bc3e e8d1 383f
00000070: 1047 88bd 5291 5dbf 7f70 b7be 4bb1 eb3e
00000080: 965c b6be d85f 5a3f 6a40 623f 97b4 60bf
00000090: 21f7 c9bf 2d79 0dbf 76e8 f7be 1f03 d83e
000000a0: e9b4 c2bb 758f 1abf 8ec1 bf3d 9293 4bbf
000000b0: 120b 723f 823b 39bf 2d83 38bf 8dd7 89bf
000000c0: ed33 09bf e549 97bb c8bb cf3f 7495 a1be
000000d0: 4759 883f d134 a1bf 942a 94be b54b da3e
000000e0: bec8 84be 31ed 0e3f d5f3 e03e 1086 8ebe
000000f0: 6fe4 763f 5a53 7abe 8a51 96bf 102e dfbd
00000100: 0ad9 3f3f f912 653e e5c9 4bbf 6e2e 8d3f
00000110: 570f 30b9 1aac 82bf 2ba4 45bd afd0 15bf
00000120: 182e 9bbe 8945 ac3f 3fa6 173e b9c6 40bf
00000130: 34de e03a 8cae 7c3f 627f cb3e fd4c 8e3e
00000140: 9a0d 72bf 5a0f 87bc 9c58 e0be d92b 993f
00000150: 2fe5 d4bd 7fd3 47be e8ce e0be a5f8 883f
00000160: 39ad 343f 0966 f6b7 9b9b 4abf cd8a 5ebf
00000170: 160c c1be a4a9 bc3e 3085 83bf 17ff 1b3f
00000180: 29c6 6cbe 9a20 f8be d20e a23e 490b 20be
00000190: cd10 90bf cdb8 31bd 65ee 1bbe 5ca5 4a3e
000001a0: 1fbb 973f 8496 fb3d 992d 953e 3e84 d23f
000001b0: af2c 6abf cfab 223f 7a2f 92be 11c7 ddbd
000001c0: ce71 1a3f 7966 40bf 592a 1c3f 065e 53bf
000001d0: 4a34 e73e 2f17 fb3e 297e 963f 8bd0 c4be
000001e0: 56b8 acbe a825 84be 9ae1 06bf 73c5 de3e
000001f0: f7b1 913e 5891 e13f f7a2 55bf e7ba 8abf
00000200: b4cf 19bf 031f b5be d034 15be 605b 243d
00000210: 2c14 d9bc 8422 18bf ea03 2ebf bf6a 75bf
00000220: 4dea f4be 7b6e e33d c60d 9a3f 92cb 5f3f
00000230: c353 c8be 172c 83be 2b47 423e 9c07 143e
00000240: c2f4 443f cbe2 9abe d555 f8be 6a38 9fbd
00000250: b2c7 dbbf acc6 78bf 1418 0f3f 1e29 74bd
00000260: 00fa 573f 0599 7bbf 0402 44be 4ec6 85be
00000270: 04ba 103e 3614 c1bd 5a32 953f 110c 2bbf
00000280: e07e 9c3e 1954 adbe aaf7 4c3d f14d b3be
00000290: a0fc 4ebf 3e43 15bf d019 203d c878 6bbf
000002a0: 98c1 a5bf 3b90 d93f d554 183f dee1 ffbe
000002b0: 3585 4cbe c807 64be a5cb 8ebf 985e d7bd
000002c0: 6c78 0fbe c7c1 2f3f 15a4 843e 2baf ce3e
000002d0: e0e1 c9be 8cc7 363f 6cf4 8abf 180b 663e
000002e0: 5677 90bf 4e55 7fbf da95 f7be 8885 303f
000002f0: 609d 24bf 5171 1cbe c554 71bf 539f 173e
00000300: 7a8a b53f a2f5 d1bf 5ca8 2cbe e9db a5bf
00000310: 8900 2abe 83ec 2c3c 94da 373f 46f2 aabe
00000320: 28e9 de3d e9eb cb3d 55f0 71bf 72cb 8abf
00000330: 655e 8abf 7441 4e3f 6691 2f3f 4533 80bf
00000340: caca b63d 193e 9a3e 3514 333d 4c40 dabe
00000350: 8cbe 313f 104d 1b3f e04f 6dbd 0c08 d83e
00000360: c8a0 81bf dc8c b8bf 9f28 093f 3a6b 4dbf
00000370: 7e1c 04be 3059 84be beaf 25bd 72fd 5abf
00000380: 22b2 7d3e 1d5b 303f 4a43 58be f005 ebbe
00000390: 590b 98bf 7f78 c8bf 3220 723f 92d0 b7be
000003a0: a5f4 26bf 104d 343f 1a77 593e 6170 90bf
000003b0: eaf5 873e 0624 93bd 7fba 563f b1d9 1bbf
000003c0: 52ed 5bbf 2e9b c2be 9f33 13bf f1d4 15bf
000003d0: 9067 0ebf 7482 bf3e 0ee8 86bf ba78 df3e
000003e0: 1f85 873f 9f11 af3f e5d5 8bbd 7996 2f3f
000003f0: e402 7dbe 847a b2bf 2cef f0be 6865 94bf
-0.47956282 -0.6142072 0.946534 1.528633 -0.50232977 -1.1224557 -0.33427754 0.7996962
0.2718857 0.6337227 0.3459866 1.7790273 -0.7031151 0.58705735 0.12737444 0.3692439
-0.74399126 0.4264443 1.4841739 -0.066452436 -0.9654353 0.041350137 -0.73222643 1.0763024
0.008029816 0.38820526 0.36852548 0.7219529 -0.06654179 -0.86549866 -0.35828015 0.460337
-0.35617512 0.85302496 0.8837954 -0.8777556 -1.5778543 -0.55263025 -0.4841954 0.4218988
-0.0059419763 -0.6037515 0.093630895 -0.7952205 0.9454814 -0.72356427 -0.7207516 -1.0768906
-0.5359486 -0.004616963 1.6229181 -0.31559336 1.0652245 -1.2594243 -0.28938735 0.42635885
-0.25934404 0.55830675 0.4393603 -0.27836657 0.9644231 -0.24445859 -1.1743634 -0.108974576
0.7494055 0.22370519 -0.7960494 1.1029794 -0.00016790383 -1.0208771 -0.048252266 -0.5852155
-0.30308604 1.345872 0.14809512 -0.75303227 0.0017156065 0.9870384 0.39745623 0.27793112
-0.94552004 -0.016486812 -0.43817604 1.1966506 -0.10395276 -0.19514273 -0.43907857 1.070088
0.70576817 -2.9372999e-05 -0.79143685 -0.86930543 -0.37704533 0.36848176 -1.0275021 0.6093611
-0.23122467 -0.48462373 0.31651932 -0.15629305 -1.1255127 -0.04338913 -0.15227659 0.19789642
1.185398 0.12284568 0.2913635 1.6446607 -0.9147443 0.6354341 -0.28551847 -0.108289845
0.603299 -0.7515636 0.6100212 -0.82565343 0.4515708 0.49041125 1.1757251 -0.38440356
-0.33734387 -0.2580998 -0.5268799 0.43510017 0.2845609 1.762248 -0.8345179 -1.0838288
-0.60082555 -0.35375223 -0.14570928 0.040126204 -0.026498877 -0.59427667 -0.6797472 -0.95866007
-0.47835007 0.11105057 1.2035453 0.8742 -0.39126405 -0.25619575 0.18972461 0.14456028
0.7693597 -0.30251154 -0.48502985 -0.07774432 -1.7170317 -0.9717815 0.55896115 -0.059609525
0.84365845 -0.98280364 -0.19141394 -0.26127857 0.1413346 -0.09427683 1.1655991 -0.66815287
0.30565548 -0.33853224 0.05004088 -0.35020402 -0.80854225 -0.5830573 0.039087117 -0.9198117
-1.2949705 1.6997141 0.59504443 -0.4997701 -0.1997269 -0.22268593 -1.1155897 -0.10516089
-0.14010781 0.68655056 0.25906435 0.40368018 -0.3943014 0.71398234 -1.0855842 0.2246517
-1.1286418 -0.9973954 -0.48356515 0.6895375 -0.64302635 -0.15277602 -0.94269973 0.14806871
1.4182885 -1.6403086 -0.16861099 -1.2957736 -0.16601767 0.010554436 0.718179 -0.33387965
0.10884315 0.09957106 -0.9450734 -1.0843337 -1.0810057 0.80568624 0.68581235 -1.0015646
0.08925398 0.30125502 0.043720443 -0.4262718 0.69431376 0.60664463 -0.057937503 0.4219364
-1.0127192 -1.4417987 0.5357761 -0.8024174 -0.12901494 -0.25849295 -0.040450804 -0.85542977
0.24774984 0.6888903 -0.21119419 -0.45902967 -1.1878463 -1.5661772 0.94580376 -0.35901314
-0.6521705 0.7043009 0.2123684 -1.1284295 0.26554805 -0.07184605 0.8387832 -0.60879046
-0.85909 -0.38009018 -0.5750064 -0.5852805 -0.55626774 0.37404215 -1.0539567 0.43646795
1.05875 1.3677253 -0.068279065 0.6858898 -0.24708134 -1.3943639 -0.47057474 -1.1593447

network_body._body_endoder.seq_layers.2.bias f4 [128]
00000000: 0000 0000 0000 0000 0000 0000 0000 0000
00000010: 0000 0000 0000 0000 0000 0000 0000 0000
00000020: 0000 0000 0000 0000 0000 0000 0000 0000
00000030: 0000 0000 0000 0000 0000 0000 0000 0000
00000040: 0000 0000 0000 0000 0000 0000 0000 0000
00000050: 0000 0000 0000 0000 0000 0000 0000 0000
00000060: 0000 0000 0000 0000 0000 0000 0000 0000
00000070: 0000 0000 0000 0000 0000 0000 0000 0000
00000080: 0000 0000 0000 0000 0000 0000 0000 0000
00000090: 0000 0000 0000 0000 0000 0000 0000 0000
000000a0: 0000 0000 0000 0000 0000 0000 0000 0000
000000b0: 0000 0000 0000 0000 0000 0000 0000 0000
000000c0: 0000 0000 0000 0000 0000 0000 0000 0000
000000d0: 0000 0000 0000 0000 0000 0000 0000 0000
000000e0: 0000 0000 0000 0000 0000 0000 0000 0000
000000f0: 0000 0000 0000 0000 0000 0000 0000 0000
00000100: 0000 0000 0000 0000 0000 0000 0000 0000
00000110: 0000 0000 0000 0000 0000 0000 0000 0000
00000120: 0000 0000 0000 0000 0000 0000 0000 0000
00000130: 0000 0000 0000 0000 0000 0000 0000 0000
00000140: 0000 0000 0000 0000 0000 0000 0000 0000
00000150: 0000 0000 0000 0000 0000 0000 0000 0000
00000160: 0000 0000 0000 0000 0000 0000 0000 0000
00000170: 0000 0000 0000 0000 0000 0000 0000 0000
00000180: 0000 0000 0000 0000 0000 0000 0000 0000
00000190: 0000 0000 0000 0000 0000 0000 0000 0000
000001a0: 0000 0000 0000 0000 0000 0000 0000 0000
000001b0: 0000 0000 0000 0000 0000 0000 0000 0000
000001c0: 0000 0000 0000 0000 0000 0000 0000 0000
000001d0: 0000 0000 0000 0000 0000 0000 0000 0000
000001e0: 0000 0000 0000 0000 0000 0000 0000 0000
000001f0: 0000 0000 0000 0000 0000 0000 0000 0000
0.0 0.0 0.0 0.0 0.0 0.0 0.0 0.0
0.0 0.0 0.0 0.0 0.0 0.0 0.0 0.0
0.0 0.0 0.0 0.0 0.0 0.0 0.0 0.0
0.0 0.0 0.0 0.0 0.0 0.0 0.0 0.0
0.0 0.0 0.0 0.0 0.0 0.0 0.0 0.0
0.0 0.0 0.0 0.0 0.0 0.0 0.0 0.0
0.0 0.0 0.0 0.0 0.0 0.0 0.0 0.0
0.0 0.0 0.0 0.0 0.0 0.0 0.0 0.0
0.0 0.0 0.0 0.0 0.0 0.0 0.0 0.0
0.0 0.0 0.0 0.0 0.0 0.0 0.0 0.0
0.0 0.0 0.0 0.0 0.0 0.0 0.0 0.0
0.0 0.0 0.0 0.0 0.0 0.0 0.0 0.0
0.0 0.0 0.0 0.0 0.0 0.0 0.0 0.0
0.0 0.0 0.0 0.0 0.0 0.0 0.0 0.0
0.0 0.0 0.0 0.0 0.0 0.0 0.0 0.0
0.0 0.0 0.0 0.0 0.0 0.0 0.0 0.0

network_body._body_endoder.seq_layers.2.weight f4 [128, 128]
00000000: c74b 55bd 86b9 103d f5fa ad3c c1d5 963d
00000010: ea62 883d a049 eebb edd2 003d 536c 09be
00000020: b902 b33d af8e d3bc 98b6 d23c 4414 333e
00000030: f079 983c 6945 3fbc f244 3bbe 85d7 563d
00000040: feb6 963c 4cac 6fbe 3161 e7bd 88ab ec3b
00000050: c3c6 9f3c db0d 3a3e d475 36bd 8214 13bd
00000060: db69 6e3d e1c7 923d 6abf 463e 866b 9a3c
00000070: 8aaf 14bc 7bea 03bc a499 c7bd ee1c 81bc
00000080: 49e5 903d 7bed 27bd 2d75 cd3d 21c1 d3bc
00000090: b697 ab3d 38c9 4f3e 9e2e 7abc df6c 97bc
000000a0: 012a d9bc af21 e53d 20cd 32be 1eba 25bc
000000b0: b10a 303d 6c3e 223e a4ff a0bd c169 973d
000000c0: 5322 b7bd 497c 023e 9a94 263d f4f9 f73c
000000d0: 1ed6 443c 9f35 eb3c 7bc7 1cbd dd43 203c
000000e0: 1bd7 383b a7c7 b3bd cb22 26bd 0581 3dbd
000000f0: 0693 be3c 7a67 8dbc da42 e93d 739c af3d
00000100: c85c 27bd b6be bf3d 72b9 0f3d 904b 033e
00000110: 14d6 38be 3657 aabd 8690 7ebc f5a0 0bbb
00000120: ce91 423d b219 333d f88b 8ab9 30c7 da3c
00000130: 45dd 96bc 4be6 7fbd fdd8 4b3c 0ee8 91bc
00000140: ca23 3e3c e7c9 9b3d 6fd0 e7bc 00a3 02be
00000150: 0e7a ae3d b427 12be ef5c 73be 573d 4cbd
00000160: 2825 863b 01be aa3d a7c2 4f3d b3ff cf3d
00000170: c199 2cbd 19b7 fc3d 8918 ad3c db43 2f3d
00000180: ccf2 c73d 8c59 0cbe d3dc d03c d92b b23d
00000190: 7bf5 dabd bde8 b9bd acd5 40be e740 d9bd
000001a0: cda7 c93d 8855 5f3d 7241 eb3d febc d5bd
000001b0: 1f37 d23d de59 37bd 73ef 863b d267 bd3d
000001c0: 30da aebd 50f7 e6bc 7d9b 1c3d e758 4d3e
000001d0: 7b95 62bb bf91 ab3d b74d aebc ef78 6abd
000001e0: a4b9 b3bd 8a70 a03d 4016 9fba 56a2 623d
000001f0: db66 a0bd 8460 11be d887 15be bd85 8cbc
00000200: e57d 91bd 358b e8bd 5abf 253c 9c74 093c
00000210: c17b 32bd 7aab c9bc edb8 bdbb 2243 873c
00000220: 98f7 e8bd d1db 653d 3c7a 84bd dc3a c6bd
00000230: bda7 b9bd c7ac 883c 238b 143c 5531 0c3e
00000240: 5e6c 12be 6997 693e 920a 553e d7ed 15bc
00000250: 67bb 123c 5ea1 8cbd 656f 143e 9818 4c3d
00000260: 8f5f 62be e30b c3bd 99a9 a5bd 7854 e63c
00000270: a76d 193e 45a0 273c 0403 093c 9360 fe3b
00000280: 198c 5a3d 9d36 753d 5421 b23d 8d82 5f3d
00000290: 402c 8a3c 7744 9dbc c956 afbd d094 223d
000002a0: 683e 0dbd a149 523c ebd2 103e f991 b5bd
000002b0: dbbf 1ebc 7401 0abd 1fce 243e 5f2e 34bd
000002c0: 4d4c 6dbe 29d0 61bd 8f62 763d d9c1 34bb
000002d0: 221d 5abe 11d6 01be 15fc 38be b3e4 a33c
000002e0: affe a3bd c2aa 143d 9295 4dbd dffa 93bd
000002f0: b886 163d e2d7 63bd 5dd2 b7bc e70e 013d
00000300: b68b ed3d 1396 7ebc 2e3b 913c 68f4 c03b
00000310: 5695 b6bd c577 6a3d 6104 8b3c 7927 ad3d
00000320: 7565 21bd 9753 1cbe bf93 383c e1cc 1e3d
00000330: aed4 e43c 7bfb f4bc e9c0 9ebb a1b6 26bd
00000340: d712 10bd c186 853d cc8c 953c 710a 05be
00000350: 8f77 c53b 374c 433d 848d 9e3d 7b0e 3b3e
00000360: 19b0 b2bc 9c87 453e 74e2 c4bc 7c53 89bc
00000370: 8dde 1cbe 0588 38be b546 37bd 7953 2abd
00000380: f9b0 053e 7a3a 89bc 7959 42bb 04f5 55bc
00000390: a4a3 1abd c55a 4abd 4842 3c3e 1161 9c3d
000003a0: 690a bc3d e904 583c 9b95 c33c 1e89 6f3d
000003b0: 9b48 0b3d c6e3 1c3e f913 a3bd 7998 423d
000003c0: c174 8fbd 5e30 d13d 9bd3 adbd c6e1 cc3c
000003d0: 282a 523d c648 3dbe e789 443d e5d2 073e
000003e0: 4089 993d 26ab f1bd 3eb9 213d b3db 2ebd
000003f0: a462 6d3d 092a 7bbd e180 d6bd c4d1 ed3d
-0.05207422 0.03533318 0.02123783 0.07364989 0.06659491 -0.0072719604 0.031451155 -0.13420229
0.08740754 -0.025824873 0.025721833 0.174882 0.018612832 -0.0116742635 -0.1828802 0.05245163
0.018397804 -0.2340557 -0.11297835 0.0072225966 0.019503957 0.18169348 -0.044545963 -0.03590823
0.05820642 0.0716703 0.19408956 0.0188501 -0.009075055 -0.00805151 -0.097461015 -0.015760865
0.07074983 -0.040997963 0.10032115 -0.025848927 0.08378546 0.20291603 -0.0152699035 -0.018484531
-0.026509287 0.11188065 -0.17461061 -0.010115175 0.042978946 0.15844125 -0.078612596 0.07393218
-0.08942094 0.12742724 0.04066906 0.030270554 0.01201394 0.028712092 -0.038276177 0.009781805
0.0028204385 -0.08778315 -0.040560525 -0.04626562 0.023263466 -0.017261256 0.11389704 0.08574762
-0.040859967 0.09362547 0.035088964 0.12821794 -0.18050414 -0.083174154 -0.015537387 -0.0021305655
0.04750233 0.043725677 -0.00026425696 0.026706308 -0.018416056 -0.062475484 0.012441871 -0.017810848
0.011605212 0.07606869 -0.028297631 -0.12757492 0.08519374 -0.14272958 -0.2376592 -0.049863186
0.004093785 0.083370216 0.050722744 0.10156193 -0.04213882 0.123396106 0.021129863 0.04278932
0.09763107 -0.13706034 0.025495922 0.086997695 -0.10691353 -0.090775944 -0.1883151 -0.10608082
0.098464586 0.05452493 0.11487092 -0.10436438 0.1026442 -0.04476344 0.0041179 0.09248318
-0.0853771 -0.0281941 0.038234223 0.20053445 -0.003457396 0.08377408 -0.021277292 -0.057244238
-0.087756425 0.07833965 -0.0012137368 0.055330597 -0.07832118 -0.14196974 -0.14602602 -0.017153615
-0.071040906 -0.11354677 0.010116423 0.008389618 -0.043575052 -0.0246179 -0.005789867 0.016511504
-0.1137535 0.056117836 -0.06468627 -0.09679195 -0.09065197 0.01668395 0.009066376 0.13690694
-0.14299151 0.22811665 0.20804814 -0.009150944 0.008955813 -0.06866716 0.14495619 0.049828142
-0.22106765 -0.095237516 -0.08088989 0.02811645 0.14983235 0.010231082 0.008362535 0.0077629774
0.053356264 0.059866536 0.08697763 0.054567862 0.016866803 -0.019197686 -0.08561475 0.0396927
-0.034483343 0.012834937 0.14142959 -0.08865733 -0.009689297 -0.033692792 0.16094254 -0.043989535
-0.23173638 -0.055130158 0.060152587 -0.0027581363 -0.21300176 -0.12679316 -0.18064912 0.020006513
-0.080075614 0.03629566 -0.05019147 -0.07225584 0.03674957 -0.055625804 -0.022439176 0.031508353
0.11598913 -0.01553871 0.017728414 0.0058885105 -0.08915202 0.057243127 0.016969861 0.084547944
-0.039403398 -0.15266262 0.011265694 0.038769607 0.027933445 -0.029905071 -0.004844774 -0.040701512
-0.035174217 0.06519843 0.018255614 -0.12992264 0.0060262154 0.047680106 0.07741836 0.18267243
-0.021812486 0.19290012 -0.024033763 -0.016763441 -0.15319271 -0.18020637 -0.044745166 -0.041583512
0.13055791 -0.016751517 -0.002965538 -0.013058905 -0.037753716 -0.04940297 0.1838466 0.076357014
0.09181673 0.013184764 0.023875048 0.058480375 0.03400479 0.15321264 -0.07962794 0.04750869
-0.07004691 0.102143034 -0.08487626 0.02501 0.051309735 -0.18484792 0.047983076 0.13264044
0.074968815 -0.11800222 0.0394833 -0.04268999 0.0579554 -0.061319385 -0.104738005 0.11612275
