results/ppo/EatFood/EatFood-4585.onnx (onnx, 70079 bytes, 7 tensors)

action_model._continuous_distribution.log_sigma f4 [1, 2]
00000000: 0000 0000 0000 0000
0.0 0.0

action_model._continuous_distribution.mu.bias f4 [2]
00000000: 0000 0000 0000 0000
0.0 0.0

action_model._continuous_distribution.mu.weight f4 [2, 128]
00000000: 4d5f 51bc e5cc cabc a3fc 5b3c 93ef a6bc
00000010: 18a9 cd3c cf40 ee3b eeb9 a1bc b2dc 3fbc
00000020: 0ae1 a23c 0824 fd3b 4724 9a3a a591 f53c
00000030: df39 c5bb b770 463b 3fb7 81bc df90 0fbc
00000040: c522 653b 9744 2bbc 59d7 c3bc e536 0bbd
00000050: 6b77 80bc 4e9f 97bb 10e9 d23c 1687 b43c
00000060: 08e1 823c ad2e cc3c 58e0 1ebd 3d6f 423c
00000070: 7584 463b 2f36 36bc f7a5 7c3b c653 38bd
00000080: ffbb eaba 45d6 273c ad62 883c d84a 253c
00000090: abdc 84bc 0d22 36bc f652 96bc 4b78 463c
000000a0: 40eb ec3a b295 b0bb fbb2 c939 5fd7 35bc
000000b0: cf1b 7abc 116b 85bb d1c9 023c cfc7 5fbc
000000c0: b30f ff3c a7b0 18bc 7d69 dfbc 7762 953b
000000d0: fbc0 033b 7733 adbc dd28 403c fe9f 2a3c
000000e0: 702c 9fbc c24c 77bb 686e 6a3c eb5e d53c
000000f0: ad54 51bc 3b9e 73bc 63f1 583c d573 b7bc
00000100: aa4e 1d39 6015 e43b 479e 823a a78d 313c
00000110: ab1f 9cbb f3f3 393c c63b c43c 3274 6fbc
00000120: 61bc 3f3c d329 b9bb 4a91 e2bc 8588 8b3b
00000130: 8bee d63b 360c 0e3b 4cb6 18bc bfe0 4d3d
00000140: b0ce 5fbb 27d1 cb3c 5ff5 2bbb 1afe 99ba
00000150: fdd4 a03c 187d b8bb d145 c2bc 4074 753c
00000160: 8a19 65bc 8aa0 d9bb cfc0 debb fad4 11bb
00000170: 1d17 2a3b c790 1e3c c095 5fbc 4b1b 9f3c
00000180: aee6 cbbc 387a 143c 8720 683c c222 0abc
00000190: 1124 abbc c90a 34bc 19a8 0cbd c70f a33c
000001a0: 69c0 393c 2ba4 06bd 0af8 663c f37a 9239
000001b0: da8e b93c 3419 913b e76b 95bc 8d71 fcbb
000001c0: a6d9 31bc aa31 8bbc 5592 35bd f0e0 963b
000001d0: 7c07 b1bc 6349 25ba bcc8 c43c 2302 0dbb
000001e0: 0aa0 073d 7305 063c 2ad6 fc3b 581a d1bb
000001f0: a15b 8d3b 2a30 7abc 6d1f ed3b 28de f4bc
00000200: 06ed a4bc 0de2 d1bc e4d6 29bc 904d d23c
00000210: 7597 9a3c 8976 04bd 33a5 6fbc 4c40 3f3d
00000220: 8dcf 94bc 3631 27bb 40bb 7c3b 522c 0dba
00000230: 427e 47bb 33ca 123c 4f88 c13a 1dc2 d63b
00000240: 29cb 213c 306f e83b 5a7a c6bc 7363 1337
00000250: 54c9 b33b c1d5 aabb f521 5fbb 8473 c7bc
00000260: d3c5 c0bb 5bad 223c 4559 af3b 3aa2 fdbb
00000270: 6bdc b6bb 9fbf 203c 27b6 43bc 6e74 863b
00000280: 97d8 e83b 1cba 8bb9 e95c 91bc eaab b63c
00000290: ba4b 583c 6bd2 eabc 0faa 45bc 7a98 933a
000002a0: e003 d83c e334 b5bc 3d7c f23b 718d c93c
000002b0: f73c 183c 1c49 123c 2e11 1ebd 2af1 6c3c
000002c0: 2b95 0ebb 5caf 2d3b 5a8b 9c3c 930d 643c
000002d0: 6dd7 5dbc e73f 463b 8e39 213b bd44 16bc
000002e0: dd88 f0bc db9f 9a3c 7f3c a03c a2f4 d7bb
000002f0: 57f5 783c 4f15 aa3a e8be cdbc 7d22 053c
00000300: f390 0dbb 1ffe 3ebc 93f8 8f3b 004b 11bc
00000310: 7d5d febc bc19 a63c 77c2 fc3c 409c f7ba
00000320: b734 e4bc ddd5 c0bc 3409 2d3c 5ef4 a63c
00000330: 73ca a13c bfc5 763b af07 133d b356 48bc
00000340: 27c2 aa3b 3783 65bb 8b60 0f3c 27d0 0abc
00000350: 72ff 0c3b 420d 843c bd09 f13a 03b2 2a3c
00000360: 70cf e93b 6b80 80bc d5d5 f73b 5bc5 263c
00000370: 2db4 c3bb 4178 b83c b98f 2bbc 45f4 cb3c
00000380: dfb1 78bb 03fc 57bc cabb ce3c 3afa 0f3c
00000390: 7896 8dbc 4c91 8b3c 6b64 23bc 6b96 013d
000003a0: 2599 4fbc cbf1 60bc e8ac 87bc fbe2 72bc
000003b0: c733 d3bc 188b 123c d5e2 5abb e0e2 163c
000003c0: bbae e1bb 898c 213c 1b5a 3d3a dfc2 11bc
000003d0: 6a60 1bbb edc5 9a3c e6de 103d 124c 73bc
000003e0: 7a14 643c 9971 08bc e510 2b3c 7d2e 293d
000003f0: cd33 61bb cb3d 5fbc 59c7 143c 05fd b03c
-0.012779069 -0.024755904 0.0134269325 -0.02037791 0.025105044 0.0072709094 -0.019741978 -0.011710333
0.019882698 0.0077252425 0.0011760079 0.029976675 -0.0060188617 0.0030279586 -0.015834449 -0.008762567
0.0034963351 -0.010453365 -0.023906397 -0.0339879 -0.015681943 -0.004627145 0.025745898 0.02203707
0.015976444 0.0249246 -0.03878817 0.011867342 0.0030291353 -0.011121317 0.0038551071 -0.045001768
-0.001790881 0.010243957 0.016648615 0.010088645 -0.016218504 -0.011116517 -0.018350106 0.012113641
0.0018075481 -0.005388939 0.00038471058 -0.011098712 -0.015265419 -0.004071601 0.007982687 -0.013658478
0.031135416 -0.009319461 -0.02727198 0.004558857 0.002010404 -0.021142704 0.011728493 0.010414122
-0.01943037 -0.003773496 0.014308549 0.026046237 -0.012776536 -0.014869268 0.013241145 -0.0223941
0.00015001991 0.006960556 0.0009965383 0.010836995 -0.0047645173 0.011349666 0.023954283 -0.014615105
0.011702628 -0.005650738 -0.02765717 0.0042582178 0.0065591983 0.0021674759 -0.009320807 0.050263163
-0.0034150295 0.024880005 -0.0026238782 -0.0011748702 0.01963281 -0.0056301467 -0.023714932 0.014981329
-0.01398314 -0.006641452 -0.006797887 -0.0022252188 0.0025953718 0.009678072 -0.013646543 0.019422194
-0.02489027 0.009062342 0.014167911 -0.0084311385 -0.020891221 -0.0109888995 -0.034339998 0.019904984
0.011337378 -0.032871407 0.014097223 0.00027938894 0.022651125 0.0044280533 -0.018239928 -0.007703966
-0.010855114 -0.016991455 -0.044329006 0.0046044514 -0.021610014 -0.0006305186 0.024021499 -0.0021516166
0.03311161 0.00818001 0.00771596 -0.0063813142 0.0043139015 -0.015270272 0.0072364123 -0.029891089
-0.020132553 -0.025620485 -0.010366175 0.02567175 0.018871048 -0.032339606 -0.014626789 0.046692178
-0.018165374 -0.002551151 0.0038563758 -0.00053853274 -0.0030440246 0.008959341 0.0014765355 0.006553902
0.009875097 0.0070933327 -0.024228264 8.785038e-06 0.0054866467 -0.0052134697 -0.003404734 -0.024347074
-0.0058829575 0.0099290265 0.005351218 -0.007740286 -0.005580475 0.009811311 -0.011945284 0.004103235
0.0071058976 -0.00026650808 -0.017744498 0.022298772 0.013201648 -0.028664788 -0.012064471 0.0011260652
0.026369035 -0.022119945 0.0074000643 0.024603577 0.009291879 0.008928563 -0.038590603 0.014461795
-0.0021756392 0.0026502227 0.019109417 0.013919252 -0.013540131 0.003025049 0.0024600956 -0.009171662
-0.029362136 0.018875053 0.019560097 -0.006590442 0.015195212 0.0012976321 -0.025115445 0.008125898
-0.002160129 -0.011657267 0.004393646 -0.008867979 -0.031050438 0.020275943 0.030854447 -0.0018891171
-0.027857168 -0.023539478 0.010561276 0.020380195 0.019749856 0.0037654487 0.035896 -0.012227702
0.005211133 -0.0035020837 0.008751045 -0.008472479 0.0021514562 0.016119603 0.0018389743 0.010418418
0.007135324 -0.015686234 0.0075633326 0.010178889 -0.0059724064 0.022518279 -0.010471278 0.02489675
-0.0037947816 -0.013182643 0.02523603 0.008787686 -0.017283663 0.017037056 -0.009972672 0.03163759
-0.01267079 -0.013729523 -0.01656194 -0.014824624 -0.025781525 0.008944295 -0.0033399363 0.009209365
-0.0068872846 0.009860166 0.00072232046 -0.008896559 -0.002370859 0.018893206 0.035368823 -0.01484968
0.013920898 -0.008327865 0.01044104 0.0413041 -0.003436315 -0.013625572 0.009080731 0.021605024

network_body._body_endoder.seq_layers.0.bias f4 [128]
00000000: 0000 0000 0000 0000 0000 0000 0000 0000
00000010: 0000 0000 0000 0000 0000 0000 0000 0000
00000020: 0000 0000 0000 0000 0000 0000 0000 0000
00000030: 0000 0000 0000 0000 0000 0000 0000 0000
00000040: 0000 0000 0000 0000 0000 0000 0000 0000
00000050: 0000 0000 0000 0000 0000 0000 0000 0000
00000060: 0000 0000 0000 0000 0000 0000 0000 0000
00000070: 0000 0000 0000 0000 0000 0000 0000 0000
00000080: 0000 0000 0000 0000 0000 0000 0000 0000
00000090: 0000 0000 0000 0000 0000 0000 0000 0000
000000a0: 0000 0000 0000 0000 0000 0000 0000 0000
000000b0: 0000 0000 0000 0000 0000 0000 0000 0000
000000c0: 0000 0000 0000 0000 0000 0000 0000 0000
000000d0: 0000 0000 0000 0000 0000 0000 0000 0000
000000e0: 0000 0000 0000 0000 0000 0000 0000 0000
000000f0: 0000 0000 0000 0000 0000 0000 0000 0000
00000100: 0000 0000 0000 0000 0000 0000 0000 0000
00000110: 0000 0000 0000 0000 0000 0000 0000 0000
00000120: 0000 0000 0000 0000 0000 0000 0000 0000
00000130: 0000 0000 0000 0000 0000 0000 0000 0000
00000140: 0000 0000 0000 0000 0000 0000 0000 0000
00000150: 0000 0000 0000 0000 0000 0000 0000 0000
00000160: 0000 0000 0000 0000 0000 0000 0000 0000
00000170: 0000 0000 0000 0000 0000 0000 0000 0000
00000180: 0000 0000 0000 0000 0000 0000 0000 0000
00000190: 0000 0000 0000 0000 0000 0000 0000 0000
000001a0: 0000 0000 0000 0000 0000 0000 0000 0000
000001b0: 0000 0000 0000 0000 0000 0000 0000 0000
000001c0: 0000 0000 0000 0000 0000 0000 0000 0000
000001d0: 0000 0000 0000 0000 0000 0000 0000 0000
000001e0: 0000 0000 0000 0000 0000 0000 0000 0000
000001f0: 0000 0000 0000 0000 0000 0000 0000 0000
0.0 0.0 0.0 0.0 0.0 0.0 0.0 0.0
0.0 0.0 0.0 0.0 0.0 0.0 0.0 0.0
0.0 0.0 0.0 0.0 0.0 0.0 0.0 0.0
0.0 0.0 0.0 0.0 0.0 0.0 0.0 0.0
0.0 0.0 0.0 0.0 0.0 0.0 0.0 0.0
0.0 0.0 0.0 0.0 0.0 0.0 0.0 0.0
0.0 0.0 0.0 0.0 0.0 0.0 0.0 0.0
0.0 0.0 0.0 0.0 0.0 0.0 0.0 0.0
0.0 0.0 0.0 0.0 0.0 0.0 0.0 0.0
0.0 0.0 0.0 0.0 0.0 0.0 0.0 0.0
0.0 0.0 0.0 0.0 0.0 0.0 0.0 0.0
0.0 0.0 0.0 0.0 0.0 0.0 0.0 0.0
0.0 0.0 0.0 0.0 0.0 0.0 0.0 0.0
0.0 0.0 0.0 0.0 0.0 0.0 0.0 0.0
0.0 0.0 0.0 0.0 0.0 0.0 0.0 0.0
0.0 0.0 0.0 0.0 0.0 0.0 0.0 0.0

network_body._body_endoder.seq_layers.0.weight f4 [128, 1]
00000000: f88e c7be ff88 bc3f b07f 07c0 c27d cc3e
00000010: 7c34 ff3e 38a6 8abf 2309 78bd a79f 1f3f
00000020: d867 3c3c 74ea e2be dffb a1be 2681 833f
00000030: 940b fb3e c985 133f 986c ad3f 3ddb dc3f
00000040: ea6d 9ebf 6075 1dbe 2d68 823e cd7a a9bf
00000050: 128a 9e3e cf09 d6bd 202f b5bf 46df 60bf
00000060: 8fbb 02bf 65ac 433e 1f03 4f3e 7f96 7d3f
00000070: 0eb6 043e 861a c93e 12fe 223d b15d d83e
00000080: 3929 733e 20da b93f 11c6 543f c0da e8bb
00000090: 3ae0 2cbf 53ca 633e 11fb 103f d637 583e
000000a0: ede9 ebbd 2c7e c13f 2788 bc3f 999d 2f3f
000000b0: 6bcd 8abf 47b0 9f3e bb0e 4abf 21e7 2ebe
000000c0: d97d 243e 90ce f43e fc10 4bbf dca2 08bf
000000d0: dea0 bb3f 8242 b33f 9a45 05c0 3251 28bf
000000e0: 9ff0 2dc0 5736 d83e 669d 78bd a467 cebf
000000f0: 7fe9 363e 73c9 c6bf d8ee 44bf 7a28 f0be
00000100: 1027 85bf 5f78 a0bf 883e e93f 8a26 c93e
00000110: 5080 8dbf 05af a0bf 9ce2 e83d aa44 c7bf
00000120: a9e4 913f 6b1d b03e 7d38 84bf 2a59 15c0
00000130: 8409 34bf 663b 5f3f 104d 43bf a3d0 0bbf
00000140: 75b1 d13e a784 10c0 7b72 afbe bba7 83bf
00000150: 6407 c93f bf54 083f 03ba 933f f816 db3c
00000160: c669 2b3f 598d 413f f881 9c3f a1de fcbe
00000170: d6e8 bd3e ccb1 da3d ef3d d6be dafe 19be
00000180: 34fa 793e a00a 36bf 4595 a9bf 23cf c4bf
00000190: da53 8b3e a250 b33f 15b2 0040 5098 93be
000001a0: 7956 6d3e 2f51 7cbf 596f 813f 72ee 14bf
000001b0: 5570 78bf 57c5 cc3e ad2c 08bf dac7 afbe
000001c0: 60f5 33bf 149b e9bf 69cb b23f 3e66 493e
000001d0: 9be6 3140 2177 d6bf 34b5 e9be c837 b0bc
000001e0: 25f2 b33f 362d 563c 2b3d 73bf 2a9c ea3e
000001f0: 4f88 a6be f41c 673e f494 83be 4aaa 863f
-0.38976264 1.4729308 -2.1171684 0.39939696 0.4984473 -1.0831976 -0.06055559 0.62352985
0.011499368 -0.443195 -0.31637475 1.0273788 0.4903227 0.57626015 1.3548765 1.7254406
-1.2377293 -0.15376806 0.25470105 -1.3240601 0.30964714 -0.104510896 -1.4155006 -0.8784069
-0.5106744 0.19108732 0.20216034 0.99057764 0.12960073 0.39278048 0.03979308 0.4225898
0.23746194 1.4519691 0.83114725 -0.007106155 -0.6752964 0.2224515 0.56633097 0.2111505
-0.11519227 1.511663 1.472905 0.6859985 -1.0843939 0.31189176 -0.78928727 -0.17080356
0.16063632 0.47813845 -0.7932279 -0.53373504 1.4658468 1.4004672 -2.0823731 -0.65748894
-2.7178113 0.42228958 -0.06069698 -1.6125379 0.17862509 -1.5530227 -0.76926947 -0.4690588
-1.0402546 -1.2536734 1.8222208 0.39287215 -1.1054783 -1.2553412 0.11371347 -1.556783
1.1397907 0.34397444 -1.0329739 -2.3335671 -0.7032702 0.8720001 -0.76289463 -0.5461523
0.409557 -2.2580965 -0.3426703 -1.0285562 1.570538 0.5325431 1.1541141 0.02674435
0.6695827 0.75606304 1.2227163 -0.49388602 0.37091702 0.10678443 -0.41844127 -0.15038624
0.24411851 -0.7110996 -1.3248678 -1.5375713 0.2721241 1.4008982 2.0108693 -0.28827143
0.23177518 -0.98561376 1.0112106 -0.5817634 -0.97046405 0.39994308 -0.5319317 -0.34332162
-0.7029629 -1.8250451 1.3968326 0.19667909 2.7797 -1.6755105 -0.4564606 -0.021510974
1.4058272 0.013072303 -0.9501521 0.4582227 -0.3252587 0.22569638 -0.2569958 1.0520718

network_body._body_endoder.seq_layers.2.bias f4 [128]
00000000: 0000 0000 0000 0000 0000 0000 0000 0000
00000010: 0000 0000 0000 0000 0000 0000 0000 0000
00000020: 0000 0000 0000 0000 0000 0000 0000 0000
00000030: 0000 0000 0000 0000 0000 0000 0000 0000
00000040: 0000 0000 0000 0000 0000 0000 0000 0000
00000050: 0000 0000 0000 0000 0000 0000 0000 0000
00000060: 0000 0000 0000 0000 0000 0000 0000 0000
00000070: 0000 0000 0000 0000 0000 0000 0000 0000
00000080: 0000 0000 0000 0000 0000 0000 0000 0000
00000090: 0000 0000 0000 0000 0000 0000 0000 0000
000000a0: 0000 0000 0000 0000 0000 0000 0000 0000
000000b0: 0000 0000 0000 0000 0000 0000 0000 0000
000000c0: 0000 0000 0000 0000 0000 0000 0000 0000
000000d0: 0000 0000 0000 0000 0000 0000 0000 0000
000000e0: 0000 0000 0000 0000 0000 0000 0000 0000
000000f0: 0000 0000 0000 0000 0000 0000 0000 0000
00000100: 0000 0000 0000 0000 0000 0000 0000 0000
00000110: 0000 0000 0000 0000 0000 0000 0000 0000
00000120: 0000 0000 0000 0000 0000 0000 0000 0000
00000130: 0000 0000 0000 0000 0000 0000 0000 0000
00000140: 0000 0000 0000 0000 0000 0000 0000 0000
00000150: 0000 0000 0000 0000 0000 0000 0000 0000
00000160: 0000 0000 0000 0000 0000 0000 0000 0000
00000170: 0000 0000 0000 0000 0000 0000 0000 0000
00000180: 0000 0000 0000 0000 0000 0000 0000 0000
00000190: 0000 0000 0000 0000 0000 0000 0000 0000
000001a0: 0000 0000 0000 0000 0000 0000 0000 0000
000001b0: 0000 0000 0000 0000 0000 0000 0000 0000
000001c0: 0000 0000 0000 0000 0000 0000 0000 0000
000001d0: 0000 0000 0000 0000 0000 0000 0000 0000
000001e0: 0000 0000 0000 0000 0000 0000 0000 0000
000001f0: 0000 0000 0000 0000 0000 0000 0000 0000
0.0 0.0 0.0 0.0 0.0 0.0 0.0 0.0
0.0 0.0 0.0 0.0 0.0 0.0 0.0 0.0
0.0 0.0 0.0 0.0 0.0 0.0 0.0 0.0
0.0 0.0 0.0 0.0 0.0 0.0 0.0 0.0
0.0 0.0 0.0 0.0 0.0 0.0 0.0 0.0
0.0 0.0 0.0 0.0 0.0 0.0 0.0 0.0
0.0 0.0 0.0 0.0 0.0 0.0 0.0 0.0
0.0 0.0 0.0 0.0 0.0 0.0 0.0 0.0
0.0 0.0 0.0 0.0 0.0 0.0 0.0 0.0
0.0 0.0 0.0 0.0 0.0 0.0 0.0 0.0
0.0 0.0 0.0 0.0 0.0 0.0 0.0 0.0
0.0 0.0 0.0 0.0 0.0 0.0 0.0 0.0
0.0 0.0 0.0 0.0 0.0 0.0 0.0 0.0
0.0 0.0 0.0 0.0 0.0 0.0 0.0 0.0
0.0 0.0 0.0 0.0 0.0 0.0 0.0 0.0
0.0 0.0 0.0 0.0 0.0 0.0 0.0 0.0

network_body._body_endoder.seq_layers.2.weight f4 [128, 128]
00000000: 617d 22bd 143e 7d3c dd5f 003d 3d45 c1bd
00000010: 6224 f0bc bb1d 6b3c 44f5 553d a324 c93d
00000020: 5160 e63d f91b 883d 4acf 8fbd 7620 1cbd
00000030: 8ad4 94bd 3ba7 dcbc 9759 403c ba2b e13d
00000040: ffff ea3d bafc e5bc 9139 e8bc 5f28 91bd
00000050: a9c3 b8ba 73ec 31be 2f35 b63d 64ef 9e3d
00000060: 392d 8abc 34dc 3d3c 2f7d eb3b b1c7 4a3d
00000070: 6614 d93d ae17 893d 2f55 863d 2eb5 11be
00000080: 8763 e33b 0563 41bd 95a5 47bd 4d36 323c
00000090: b650 273d f1cc 7fbc 35b2 b8bd 7e55 f43c
000000a0: 9cdc 3c3d 68ab 743d bed9 1dbe f3ea 33bc
000000b0: cb3a 18bd 6e3f 1d3e 1598 11ba 1420 a53c
000000c0: 10c4 b639 bf6a 1bbc 4630 9b3d 5fc9 80bd
000000d0: d4c0 41bd cb38 92bd 03db 55bd bf81 d9bd
000000e0: 76e2 4bbd d073 9abc 9c08 e3bc 461e 3fbe
000000f0: 282d fbbc e813 cebd 1064 e5bd 4c71 ec3d
00000100: b3ad cc3d 45ed fe3d 11c7 dfbd 9d71 f73c
00000110: 2c83 f2ba e1c3 923d 98a6 b03d 227d 59bd
00000120: d5b6 f8bd 4d34 423e f818 6abe 1918 8f3c
00000130: 1c50 39bd 993a 6bbe 5bb1 d8bd af01 ccbd
00000140: 71c1 103e 319c 49bd 69f3 bdbc 6e0b 00be
00000150: e372 ec3d dd65 163e 1877 79bd 3f07 043e
00000160: 954d 173c 06e2 bebc 5e02 2cbd f41c 903e
00000170: fb19 b8bd 35e9 763d 69bf 583e 01e4 aaba
00000180: 03b0 783d e56a a93c 3b66 05bd 653c 7f3d
00000190: a115 bebb 3ec0 2abc 8c0b df3d 6037 0a3e
000001a0: f9b2 07bc cafa b2bd 3641 82bd dd40 873d
000001b0: 40db 29be 9554 8a3d acb7 733d 75f1 40be
000001c0: 3308 38be eb60 013e d7e3 013e 53c9 d73d
000001d0: ac5d 933d d8ba 31bc 6de2 c6bc ff9b c4bd
000001e0: d081 f23c 9061 3e3c 05b9 1ebd e877 8fbd
000001f0: 6e61 033d 28d9 08be 9634 bbbb ec81 e6bc
00000200: 293e e2bd 7652 5f3c f836 163d b2cb 03ba
00000210: 8e38 b43c 3e37 8abd e531 6d3d 63f5 023c
00000220: 68ba d43d e0c2 5ebc 20cb 33bd 88ab e6bb
00000230: 42e6 e2bc 333f ea3c 5ce3 e73d 11c4 f5bd
00000240: ee76 b33d 18b7 793d 8c68 00be b152 f0bc
00000250: 1301 973d fbc2 733c 772b ac3d 3e14 523d
00000260: 5646 9bbb 9017 63bd 1ae3 c83d 62ff 843c
00000270: a666 1abd ebe2 913d c7f0 4dbd 7099 be3d
00000280: 7629 aebd c1c5 27be 28d0 d6bc 96da 4cbc
00000290: db9a 33be 970c ac3d b61d 333b dec7 633e
000002a0: 7c94 d6bd c9ca 05bc 0b19 193c 503f 1abe
000002b0: adce bfbd 919e 94bd 7f3d 933c 7fa7 833d
000002c0: 4add 8a3d 684d b93d 140a e8bd 1ada 8cba
000002d0: 60af b8bd 9fa6 d73d 08f0 053d 27fa 583e
000002e0: 52ce d13d ebb8 043d ec52 1bbd a318 9f3d
000002f0: bff7 86be 0a66 2f3d 7a32 2e3d 653e 173e
00000300: a86c 003e 75da 263d 70de 953d 7325 20bd
00000310: c903 023d 12d1 253d fa4d 873d f019 7e3d
00000320: 06fd 66bd 603d 023c 0f96 da3d 0e16 d8bd
00000330: ae49 16bd cbbc 503c 5486 04be 50b0 833c
00000340: c45a 8fbc d96b 3c3d 6d35 8a3c 5b51 cc3c
00000350: 9fa6 d5bd e457 c83d b8f3 57bd 92a0 9b3c
00000360: 0e6b e03c 5983 33bd 1c40 393d 01c9 5a3c
00000370: 447a afbd 11ad c039 e779 963d 2024 adbd
00000380: 728c 8e3d f069 243d 8480 f2bd 6d46 cf3c
00000390: 9aa7 95bd b4d5 423d fb98 4dbd 3830 bf3d
000003a0: baa1 673d 18db 7abd f7ef f5bc 2f3a aebc
000003b0: aa74 fa3d 0cd6 0f3a 4590 48bd 21e3 0f3e
000003c0: 2722 763d a405 97bd 9e72 f93d 5bcf fcbc
000003d0: 312c 823d 8a4a 4abd 0a70 fd3c d973 9bbd
000003e0: 24ea 75bd fd0e aa3c 43b4 bbbd 78f2 0cbe
000003f0: 2a05 373d 17c9 95be ba84 963d 7744 42bd
-0.039670352 0.015456695 0.031341422 -0.09437034 -0.029314224 0.01435035 0.052235857 0.09821441
0.1124884 0.0664596 -0.07021959 -0.038116895 -0.07267101 -0.02693521 0.01174011 0.10994668
0.11474609 -0.028074611 -0.028347762 -0.07087778 -0.0014096397 -0.17375354 0.08896863 0.07760504
-0.016867267 0.011588145 0.007186554 0.049506847 0.10599594 0.0669397 0.06559216 -0.14229271
0.006939355 -0.047213573 -0.048741896 0.010877204 0.040848456 -0.015612827 -0.09018365 0.029825922
0.046108827 0.05973378 -0.15415093 -0.010981309 -0.037165444 0.15356228 -0.0005553973 0.020156898
0.00034859823 -0.0094858995 0.07577567 -0.062884085 -0.047303036 -0.07139739 -0.05221082 -0.1062045
-0.049776517 -0.018854052 -0.027714066 -0.18663892 -0.03066118 -0.100623906 -0.11200726 0.11545047
0.09994068 0.12447599 -0.10926641 0.030205542 -0.0018502227 0.07166267 0.08625525 -0.05309785
-0.121442474 0.18965264 -0.22861087 0.017467545 -0.045242414 -0.22971572 -0.10580703 -0.099612586
0.14136292 -0.04922122 -0.023187356 -0.1250436 0.115453504 0.14687295 -0.060904592 0.12893389
0.009234806 -0.023301136 -0.041994445 0.2814709 -0.089893304 0.060280997 0.21166767 -0.0013037921
0.060714733 0.020680854 -0.032568198 0.062313456 -0.005800918 -0.010421811 0.10890874 0.13497686
-0.0082824165 -0.087392405 -0.06360094 0.066041686 -0.16587543 0.06754414 0.059501335 -0.18842109
-0.17971878 0.12634628 0.1268457 0.105364464 0.07195601 -0.01084777 -0.02427789 -0.096000664
0.029602915 0.01161994 -0.038750667 -0.07005292 0.032075338 -0.13364089 -0.005713056 -0.028138123
-0.11047012 0.0136305 0.036673516 -0.00050276064 0.021999624 -0.06748818 0.05790891 0.007993075
0.10387117 -0.0135962665 -0.043894887 -0.007039491 -0.027697686 0.028594589 0.11322662 -0.12000287
0.087629184 0.060965627 -0.12539881 -0.029336305 0.07373252 0.01487803 0.08406728 0.051288836
-0.0047386093 -0.055442393 0.09808941 0.016235057 -0.03769555 0.07123359 -0.05027845 0.0930661
-0.08504002 -0.16384031 -0.026222304 -0.012503287 -0.17539541 0.08400839 0.0027330942 0.22244212
-0.1047754 -0.0081660235 0.00934435 -0.15063214 -0.09365592 -0.07256807 0.01797366 0.06428432
0.06780489 0.09047967 -0.11330047 -0.0010746152 -0.09017825 0.10529827 0.032699615 0.21189176
0.102444306 0.032402914 -0.037920877 0.07768371 -0.2636089 0.04282192 0.042528607 0.14769895
0.12541449 0.04073568 0.07317817 -0.039098214 0.03174189 0.040482588 0.0660667 0.062036455
-0.056393646 0.007949203 0.10673153 -0.105510816 -0.03669136 0.012740324 -0.12941867 0.016075283
-0.017499335 0.04600129 0.016871179 0.024941137 -0.10432171 0.09782389 -0.052722663 0.018997464
0.027394798 -0.043826435 0.045227155 0.013353587 -0.08568242 0.00036750038 0.0734747 -0.08454156
0.069603816 0.040140092 -0.11840919 0.025302136 -0.07307358 0.047567084 -0.05019472 0.09335369
0.05655072 -0.0612441 -0.03002165 -0.021267978 0.12229283 0.00054869126 -0.04896571 0.14051487
0.060091164 -0.07374123 0.121800646 -0.030860594 0.06356085 -0.049387492 0.030937213 -0.075904556
-0.060037747 0.0207591 -0.091652416 -0.1376437 0.04468266 -0.29254982 0.07349534 -0.047428574
