results/ppo/EatFood/EatFood-1152.pt (torch, 143887 bytes, 10 tensors)

network_body._body_endoder.seq_layers.0.weight f4 [128, 1]
000000 03 24 5a 3e 29 e0 86 bf 0a 0c 06 bf da 1b 98 bf
       0.213028 -1.0537158 -0.5236212 -1.18835
000010 09 d2 80 3f 5b ae 2d 3e bb c9 af be 77 5c af 3f
       1.0064098 0.16961043 -0.34333596 1.3700093
000020 df 39 19 3f c5 e1 a4 bf e8 fb 11 3f e3 6c 1e 3f
       0.5985393 -1.2881399 0.57025003 0.618849
000030 2c 12 fb 3e 87 35 f8 3d 20 0d 13 3e fc 3d 97 3f
       0.49037302 0.121195845 0.14360476 1.1815791
000040 20 57 03 3f a4 9b b3 3f a1 48 61 3e f0 d6 ba 3e
       0.5130482 1.4031873 0.22000362 0.3649211
000050 5b 96 0e 3e 21 8c e7 3f 7c 2b f8 be 67 5d 26 c0
       0.13924544 1.8089639 -0.48470676 -2.5994508
000060 d4 6e bb 3d 8d 93 cd bf d1 26 98 bf 84 f9 d9 3f
       0.09151998 -1.6060654 -1.1886846 1.7029271
000070 1d cd 10 bf fe 4c db bf 7f ca 46 bf bd 5a 45 bf
       -0.5656298 -1.7132871 -0.77652735 -0.7709158
000080 86 bd 7b bf 26 73 0c be 0d 96 0c 3f 01 94 4a 3f
       -0.98336065 -0.137158 0.5491646 0.79132086
000090 91 62 4d bf 56 f1 5e be e9 91 2b 3f c8 b9 ef bf
       -0.80228525 -0.2177175 0.67019516 -1.8728571
0000a0 13 2d 83 bf 68 19 3a 3f c1 d7 14 40 3f 61 84 bf
       -1.024813 0.72695017 2.3256686 -1.0342177
0000b0 af 50 e7 be a5 d2 02 3e 5e 28 5e 3f b6 f0 97 3f
       -0.45178744 0.12775667 0.86780345 1.1870334
0000c0 85 7b 3c bf d9 c0 5a 3f e9 4f 96 bf 08 6f 99 bf
       -0.73625976 0.8545051 -1.1743137 -1.1987009
0000d0 46 4b 28 bf e8 ce b7 be f7 17 a8 3f 1c a5 04 40
       -0.6573986 -0.35900044 1.3132313 2.0725775
0000e0 24 e0 15 3d a8 f4 59 3e 2b aa 92 3f 38 4b 32 bf
       0.03659071 0.21284735 1.1458181 -0.69646025
0000f0 77 52 3e be 7c 63 37 3f 5a d7 d9 3e 55 4c ef 3f
       -0.18586145 0.71636176 0.42547113 1.869517
000100 40 dc f9 3e 14 e2 9b bb 98 fb 14 3f 82 6c e2 3f
       0.4880085 -0.004757175 0.581964 1.7689364
000110 1c 38 dd bc 64 2d 36 3f 66 b5 9e 3d 25 66 c2 3f
       -0.027004294 0.7116301 0.07749443 1.5187422
000120 ac ff f5 3e 9b 43 12 c0 c8 1c d9 3f a4 05 3d bf
       0.48046625 -2.2853763 1.6961908 -0.7383673
000130 77 b6 91 be e2 76 21 c0 f8 4f 94 bf 6c 77 0e bf
       -0.28459522 -2.522881 -1.1586905 -0.55650973
000140 b6 b7 ee 3e 11 1a 93 3f 27 89 80 3f 21 6c f0 3f
       0.46624535 1.149233 1.0041856 1.8782998
000150 2a 0d 98 3f a1 e5 d5 3e 02 9d ce 3e 31 7d 65 3f
       1.1879017 0.41776755 0.40354162 0.8964415
000160 2a 8f 07 40 5e ba cb 3f e3 f1 c3 3f 97 91 cb 3f
       2.118113 1.591625 1.5308193 1.5903805
000170 73 76 c3 bf 81 ad e0 3e 3e 0e 2a 3e 3e b0 da 3d
       -1.5270523 0.43882373 0.16606995 0.10678147
000180 c7 8b 40 3f 53 9e af 3c fd 8a ae bf 0e 74 bc 3f
       0.75213283 0.0214378 -1.3636166 1.4722917
000190 b5 c2 9c 3f 7e 0b 0a 3f da dc 61 bf 85 f6 3b be
       1.224692 0.53923786 -0.8822762 -0.18355758
0001a0 3d 7c cb 3d 42 69 8c 3f 2c d4 c9 bf e1 e9 b6 3e
       0.09935806 1.0969622 -1.5767875 0.3572531
0001b0 03 b7 50 3f cf 79 12 3f 4f 61 1a be 6f 28 b4 3a
       0.81529254 0.57217115 -0.15076183 0.001374496
0001c0 b0 3b b4 bf 24 5b 91 3f 16 73 ba bc da f0 12 bf
       -1.4080715 1.1355939 -0.022759955 -0.5739876
0001d0 72 d8 57 3f cc 31 50 3f 2f dc e2 3e 6c 4d ec bf
       0.84314644 0.81325984 0.44308612 -1.8461127
0001e0 9c 4d 12 be fa 3c f6 3f b4 39 81 3e ef f7 58 3f
       -0.14287418 1.9237359 0.25239336 0.84753317
0001f0 fd e6 89 be 8b 22 c2 3e 87 75 b6 3f 66 2f a9 bf
       -0.26934043 0.3791698 1.4254616 -1.321759

network_body._body_endoder.seq_layers.0.bias f4 [128]
000000 00 00 00 00 00 00 00 00 00 00 00 00 00 00 00 00
       0.0 0.0 0.0 0.0
000010 00 00 00 00 00 00 00 00 00 00 00 00 00 00 00 00
       0.0 0.0 0.0 0.0
000020 00 00 00 00 00 00 00 00 00 00 00 00 00 00 00 00
       0.0 0.0 0.0 0.0
000030 00 00 00 00 00 00 00 00 00 00 00 00 00 00 00 00
       0.0 0.0 0.0 0.0
000040 00 00 00 00 00 00 00 00 00 00 00 00 00 00 00 00
       0.0 0.0 0.0 0.0
000050 00 00 00 00 00 00 00 00 00 00 00 00 00 00 00 00
       0.0 0.0 0.0 0.0
000060 00 00 00 00 00 00 00 00 00 00 00 00 00 00 00 00
       0.0 0.0 0.0 0.0
000070 00 00 00 00 00 00 00 00 00 00 00 00 00 00 00 00
       0.0 0.0 0.0 0.0
000080 00 00 00 00 00 00 00 00 00 00 00 00 00 00 00 00
       0.0 0.0 0.0 0.0
000090 00 00 00 00 00 00 00 00 00 00 00 00 00 00 00 00
       0.0 0.0 0.0 0.0
0000a0 00 00 00 00 00 00 00 00 00 00 00 00 00 00 00 00
       0.0 0.0 0.0 0.0
0000b0 00 00 00 00 00 00 00 00 00 00 00 00 00 00 00 00
       0.0 0.0 0.0 0.0
0000c0 00 00 00 00 00 00 00 00 00 00 00 00 00 00 00 00
       0.0 0.0 0.0 0.0
0000d0 00 00 00 00 00 00 00 00 00 00 00 00 00 00 00 00
       0.0 0.0 0.0 0.0
0000e0 00 00 00 00 00 00 00 00 00 00 00 00 00 00 00 00
       0.0 0.0 0.0 0.0
0000f0 00 00 00 00 00 00 00 00 00 00 00 00 00 00 00 00
       0.0 0.0 0.0 0.0
000100 00 00 00 00 00 00 00 00 00 00 00 00 00 00 00 00
       0.0 0.0 0.0 0.0
000110 00 00 00 00 00 00 00 00 00 00 00 00 00 00 00 00
       0.0 0.0 0.0 0.0
000120 00 00 00 00 00 00 00 00 00 00 00 00 00 00 00 00
       0.0 0.0 0.0 0.0
000130 00 00 00 00 00 00 00 00 00 00 00 00 00 00 00 00
       0.0 0.0 0.0 0.0
000140 00 00 00 00 00 00 00 00 00 00 00 00 00 00 00 00
       0.0 0.0 0.0 0.0
000150 00 00 00 00 00 00 00 00 00 00 00 00 00 00 00 00
       0.0 0.0 0.0 0.0
000160 00 00 00 00 00 00 00 00 00 00 00 00 00 00 00 00
       0.0 0.0 0.0 0.0
000170 00 00 00 00 00 00 00 00 00 00 00 00 00 00 00 00
       0.0 0.0 0.0 0.0
000180 00 00 00 00 00 00 00 00 00 00 00 00 00 00 00 00
       0.0 0.0 0.0 0.0
000190 00 00 00 00 00 00 00 00 00 00 00 00 00 00 00 00
       0.0 0.0 0.0 0.0
0001a0 00 00 00 00 00 00 00 00 00 00 00 00 00 00 00 00
       0.0 0.0 0.0 0.0
0001b0 00 00 00 00 00 00 00 00 00 00 00 00 00 00 00 00
       0.0 0.0 0.0 0.0
0001c0 00 00 00 00 00 00 00 00 00 00 00 00 00 00 00 00
       0.0 0.0 0.0 0.0
0001d0 00 00 00 00 00 00 00 00 00 00 00 00 00 00 00 00
       0.0 0.0 0.0 0.0
0001e0 00 00 00 00 00 00 00 00 00 00 00 00 00 00 00 00
       0.0 0.0 0.0 0.0
0001f0 00 00 00 00 00 00 00 00 00 00 00 00 00 00 00 00
       0.0 0.0 0.0 0.0

network_body._body_endoder.seq_layers.2.weight f4 [128, 128]
000000 34 07 8c 3d 8d 7b 13 be 9f b7 14 be da 92 13 bd
       0.068373114 -0.144026 -0.14523171 -0.03602872
000010 7e b4 50 3d e7 eb 89 be e7 4e 62 bd 88 66 7a 3c
       0.05095338 -0.26937792 -0.05525103 0.015283234
000020 1e 01 08 be 43 8f 8a bd c3 ac 68 bd 7e 9a e5 bb
       -0.13281676 -0.06765606 -0.056805383 -0.0070069423
000030 74 db 3f bd c7 5c 05 bd d6 fa 7c 3d ec bc f1 3d
       -0.046840146 -0.032559182 0.061762653 0.11803612
000040 33 cc 4e be b8 c8 15 3c 63 26 30 3b 61 29 32 bd
       -0.20195083 0.009142093 0.002687835 -0.043496493
000050 bb 56 dc 3d 5c 5e a4 3d 73 c0 f3 3d 82 56 d5 3d
       0.1075873 0.0802581 0.11901941 0.10416891
000060 8b fe d4 3c 35 fc b4 bd 77 e8 26 be 64 dd cb bd
       0.026000282 -0.08837167 -0.16299616 -0.09954336
000070 d0 8b 06 bb e7 a8 47 bd 63 5d d9 39 da bb e0 bd
       -0.0020530112 -0.048745062 0.00041459044 -0.1097333
000080 35 55 c7 3d 5e de e0 bd 8e 41 a9 3b f8 b4 db 3d
       0.09733049 -0.10979913 0.0051652854 0.107278764
000090 93 cf 96 bd ae 95 61 bd f3 72 b4 3c 0a 38 3c be
       -0.073638104 -0.055074386 0.022027468 -0.18380752
0000a0 ae b0 12 be cc 53 73 3e da d5 98 3c c4 a3 57 bc
       -0.1432521 0.23762435 0.01865666 -0.013161603
0000b0 5b a4 c0 3d f9 6e cf bd a9 3b 6d 3d 8f f7 5f 3d
       0.09406348 -0.10128588 0.057918224 0.05467945
0000c0 19 18 d4 3d 6e 9a 5f 3d ab 57 0d 3e 2b 35 e8 3c
       0.10356159 0.054590635 0.13802974 0.028345665
0000d0 19 af 13 be 1c 60 98 bd 86 b1 8a bd 4c c3 d6 3d
       -0.14422263 -0.074402064 -0.06772141 0.10486469
0000e0 5f 81 26 3d b0 76 c4 bd 8a ad 46 bc ca f7 44 be
       0.04065072 -0.0959295 -0.012126336 -0.19235149
0000f0 67 58 04 3b 5c 8f 83 bd 4a 30 37 3d a0 3b a2 bd
       0.0020194293 -0.06423828 0.044723786 -0.07921529
000100 4c a9 b2 bc 30 5c 2d 3e bf 96 cd 3b 94 4b 8b 3d
       -0.021809243 0.16929698 0.006274074 0.06801525
000110 c8 c6 6b 3d 32 ce a5 bd 73 ea 05 be b3 f4 b3 3d
       0.05756262 -0.08095969 -0.13077717 0.08786907
000120 07 c6 a5 bd 19 45 80 3d c4 a9 91 3d f2 e6 21 be
       -0.08094411 0.06263179 0.07112458 -0.15810755
000130 99 ea e9 bd 66 c6 9d bd 01 65 0f 3d c5 79 45 bd
       -0.11421699 -0.07703857 0.035008434 -0.04821183
000140 18 ac 63 be c8 f6 85 bd ec da d2 bc db 3d ab 3c
       -0.22233617 -0.065412104 -0.025739156 0.020903518
000150 6b d3 c1 3d 53 f9 04 3e 97 6b 27 be b0 7e 9c 3c
       0.09464153 0.12985735 -0.16349636 0.019103378
000160 27 c4 44 bd 25 df d3 3d 00 ab 9e bd ed c8 0b bd
       -0.048038628 0.10345296 -0.077474594 -0.034127165
000170 a7 fa 23 bc b4 08 6d bc 84 16 03 3d 0f 17 3c 3d
       -0.010008491 -0.014467407 0.032003894 0.045920428
000180 5a b1 c6 3d 6f 09 6a 3b 3b 2e 44 bd d5 0e a7 3d
       0.09701796 0.003571119 -0.04789565 0.08157126
000190 24 eb 31 3e 67 6a ec 39 85 8f ff 3d fb 22 13 3e
       0.17374855 0.00045092704 0.12478546 0.14368813
0001a0 fe 3e d6 3d cd 13 a4 3d 48 5e 0f 3e 8f 0c d7 bd
       0.104612336 0.08011589 0.14000809 -0.10500442
0001b0 ef 2c b8 3d a1 f8 8b 3c 8d 69 6e b9 b8 07 1a 3d
       0.089929454 0.017086329 -0.0002273677 0.037605017
0001c0 f2 6d d7 3d 14 59 f2 bc 17 c7 b7 3d 43 ae 19 3d
       0.10519017 -0.029583491 0.0897352 0.037519705
0001d0 db df 96 be 27 bc c9 bc b1 eb ff ba a0 10 13 3e
       -0.29467663 -0.02462585 -0.0019525198 0.1436181
0001e0 ba de f3 bd d5 7c 62 bd 37 f3 10 be 00 e4 4d bd
       -0.11907716 -0.05529483 -0.14155279 -0.050266266
0001f0 ba 28 df bd 7e ca 6d 3d 41 90 18 bd 4d 16 c9 3d
       -0.1089644 0.05805444 -0.037246946 0.09818707
000200 2d 74 bf 3d 3a 7a a7 bc b3 aa 6e bd 03 16 00 3b
       0.09348331 -0.020444024 -0.05826826 0.001954437
000210 c8 88 3d 3c 9e 37 cd bd 34 43 8e bc 67 57 20 bd
       0.011568256 -0.10020374 -0.01736603 -0.039145853
000220 89 c1 16 bc 29 0c 5d be f9 c7 65 3c 46 cc b1 bd
       -0.009201416 -0.2158667 0.014024728 -0.0868154
000230 b3 de f7 3d 6f 58 28 bd 79 1f a9 3c 25 f5 5d 3e
       0.121030234 -0.04109996 0.02064489 0.21675546
000240 5e e2 75 3d 1a 3a a8 bd 0b f0 32 bd c0 3c 8d bc
       0.060030334 -0.08214207 -0.043685954 -0.017240882
000250 ad 1e 36 bd 30 ac 2f 3d 22 5e 56 bd 63 05 28 3d
       -0.04446285 0.04288882 -0.052335866 0.041020762
000260 ee 99 d0 3c 2f bb ae 3c 7d 51 dd bc 53 46 1f 3c
       0.025464024 0.02132949 -0.027016396 0.009721356
000270 5f 89 9b bd 6a ce 73 bd 0d 5a 2c 3d 91 a2 eb 3d
       -0.07594561 -0.059523024 0.042078067 0.115056165
000280 be 9f 1f be 7a 64 0c be c8 61 87 3c 95 d8 fe bc
       -0.1558828 -0.13710204 0.016526118 -0.031109134
000290 ac 15 db bd 8e 7d d7 3d fe 34 0f 3d 2a 2a 84 bd
       -0.10697493 0.105219945 0.034962647 -0.06453355
0002a0 0b 88 69 bd 71 52 01 be 10 10 03 3c ac 86 39 be
       -0.057014506 -0.12629105 0.007999435 -0.1811778
0002b0 20 b7 f7 3d 6d 11 63 bd 25 14 51 3d b6 0c 33 be
       0.12095475 -0.05543654 0.051044602 -0.17485318
0002c0 86 69 5a bd 54 c4 d6 3d b6 0e b7 bd c2 7b 6c 3d
       -0.05332329 0.10486665 -0.08938353 0.057735212
0002d0 d9 e1 c4 3c 04 3b 99 bd 9d ad f7 bd 52 9c 8d 3d
       0.024033474 -0.074819595 -0.12093661 0.06914581
0002e0 b3 43 84 bd 74 bf eb bd d2 c5 bd 3c 23 28 83 bd
       -0.06458225 -0.11511126 0.023165617 -0.0640414
0002f0 73 3f 21 be 96 84 14 bd 25 78 c4 bd 56 55 87 bd
       -0.1574686 -0.036259256 -0.09593228 -0.066080734
000300 5c db d8 bd f1 e7 13 3e e0 10 de bd d1 e7 8d 3b
       -0.105887145 0.14443947 -0.108430624 0.004330613
000310 be c8 e3 bd e0 c6 0d be 93 13 6a 3c f7 0a 94 3d
       -0.11122273 -0.13845396 0.014286893 0.07228654
000320 c0 f7 dc bc 49 06 dd bd ed 8e f8 bd 52 cd 17 bd
       -0.026973605 -0.107922144 -0.12136636 -0.037061043
000330 26 15 7b bc 11 41 f6 3d d8 9d 5d bd ec db a4 3c
       -0.015324866 0.12024129 -0.05410561 0.020124398
000340 10 27 20 3e 8f fe 31 be 82 13 4b bd e2 94 93 3d
       0.15639901 -0.17382263 -0.04957915 0.072061315
000350 2b 57 29 bd 84 a8 7c bc 19 44 de bd eb 86 ea bd
       -0.041342895 -0.015421037 -0.10852832 -0.11451515
000360 9f 88 95 bb 86 57 9e bd 04 16 e8 3d b7 5b fb bc
       -0.0045634056 -0.077315375 0.11332324 -0.030683381
000370 96 4c fe 3b 2e e0 bb 3d e3 62 26 3b 24 68 d4 bd
       0.0077605946 0.09173618 0.002538853 -0.10371426
000380 e3 82 0b 3e a8 3d 4e bd 25 e2 31 3c ab f3 fd 3c
       0.13624148 -0.05035177 0.01085714 0.030999979
000390 bf c8 00 be a7 63 f8 3b f2 2b b5 3d 3a 0a 2a bd
       -0.12576579 0.007580239 0.088462725 -0.04151366
0003a0 de 9a cc bd 22 df 87 3b d4 27 c5 bd b8 90 2c 3d
       -0.09990476 0.0041464726 -0.09626737 0.042130202
0003b0 6d 9a 32 be 75 55 ce bc de 82 1f 3d ab b5 4f 3d
       -0.17441721 -0.025187233 0.038943164 0.05071036
0003c0 f5 1d a9 bc f2 e7 0d 3e c2 0f a9 bd 45 52 e7 bd
       -0.020644167 0.13858011 -0.08254959 -0.112949885
0003d0 aa bd 9a bd 01 ae e7 3c ff c3 8c bd 1b 01 94 bd
       -0.07555707 0.028281214 -0.06873321 -0.07226773
0003e0 60 02 f3 3c e0 48 6c 3d 3b 24 07 be 3d 10 8b bd
       0.029664218 0.057686687 -0.13197415 -0.067902066
0003f0 aa 97 76 be 2d 13 68 bd 12 0b 87 3d 6f e9 da 3d
       -0.24081293 -0.056658912 0.06593908 0.10689055

network_body._body_endoder.seq_layers.2.bias f4 [128]
000000 00 00 00 00 00 00 00 00 00 00 00 00 00 00 00 00
       0.0 0.0 0.0 0.0
000010 00 00 00 00 00 00 00 00 00 00 00 00 00 00 00 00
       0.0 0.0 0.0 0.0
000020 00 00 00 00 00 00 00 00 00 00 00 00 00 00 00 00
       0.0 0.0 0.0 0.0
000030 00 00 00 00 00 00 00 00 00 00 00 00 00 00 00 00
       0.0 0.0 0.0 0.0
000040 00 00 00 00 00 00 00 00 00 00 00 00 00 00 00 00
       0.0 0.0 0.0 0.0
000050 00 00 00 00 00 00 00 00 00 00 00 00 00 00 00 00
       0.0 0.0 0.0 0.0
000060 00 00 00 00 00 00 00 00 00 00 00 00 00 00 00 00
       0.0 0.0 0.0 0.0
000070 00 00 00 00 00 00 00 00 00 00 00 00 00 00 00 00
       0.0 0.0 0.0 0.0
000080 00 00 00 00 00 00 00 00 00 00 00 00 00 00 00 00
       0.0 0.0 0.0 0.0
000090 00 00 00 00 00 00 00 00 00 00 00 00 00 00 00 00
       0.0 0.0 0.0 0.0
0000a0 00 00 00 00 00 00 00 00 00 00 00 00 00 00 00 00
       0.0 0.0 0.0 0.0
0000b0 00 00 00 00 00 00 00 00 00 00 00 00 00 00 00 00
       0.0 0.0 0.0 0.0
0000c0 00 00 00 00 00 00 00 00 00 00 00 00 00 00 00 00
       0.0 0.0 0.0 0.0
0000d0 00 00 00 00 00 00 00 00 00 00 00 00 00 00 00 00
       0.0 0.0 0.0 0.0
0000e0 00 00 00 00 00 00 00 00 00 00 00 00 00 00 00 00
       0.0 0.0 0.0 0.0
0000f0 00 00 00 00 00 00 00 00 00 00 00 00 00 00 00 00
       0.0 0.0 0.0 0.0
000100 00 00 00 00 00 00 00 00 00 00 00 00 00 00 00 00
       0.0 0.0 0.0 0.0
000110 00 00 00 00 00 00 00 00 00 00 00 00 00 00 00 00
       0.0 0.0 0.0 0.0
000120 00 00 00 00 00 00 00 00 00 00 00 00 00 00 00 00
       0.0 0.0 0.0 0.0
000130 00 00 00 00 00 00 00 00 00 00 00 00 00 00 00 00
       0.0 0.0 0.0 0.0
000140 00 00 00 00 00 00 00 00 00 00 00 00 00 00 00 00
       0.0 0.0 0.0 0.0
000150 00 00 00 00 00 00 00 00 00 00 00 00 00 00 00 00
       0.0 0.0 0.0 0.0
000160 00 00 00 00 00 00 00 00 00 00 00 00 00 00 00 00
       0.0 0.0 0.0 0.0
000170 00 00 00 00 00 00 00 00 00 00 00 00 00 00 00 00
       0.0 0.0 0.0 0.0
000180 00 00 00 00 00 00 00 00 00 00 00 00 00 00 00 00
       0.0 0.0 0.0 0.0
000190 00 00 00 00 00 00 00 00 00 00 00 00 00 00 00 00
       0.0 0.0 0.0 0.0
0001a0 00 00 00 00 00 00 00 00 00 00 00 00 00 00 00 00
       0.0 0.0 0.0 0.0
0001b0 00 00 00 00 00 00 00 00 00 00 00 00 00 00 00 00
       0.0 0.0 0.0 0.0
0001c0 00 00 00 00 00 00 00 00 00 00 00 00 00 00 00 00
       0.0 0.0 0.0 0.0
0001d0 00 00 00 00 00 00 00 00 00 00 00 00 00 00 00 00
       0.0 0.0 0.0 0.0
0001e0 00 00 00 00 00 00 00 00 00 00 00 00 00 00 00 00
       0.0 0.0 0.0 0.0
0001f0 00 00 00 00 00 00 00 00 00 00 00 00 00 00 00 00
       0.0 0.0 0.0 0.0

action_model._continuous_distribution.mu.weight f4 [1, 128]
000000 30 83 a1 bb 6d 8a 23 3c b1 76 40 bc d5 e5 c9 bc
       -0.004928969 0.009981734 -0.011747048 -0.024645725
000010 cb 3e bc 3c 3b 49 57 bb d0 a9 69 bc 1f f8 29 bd
       0.02297916 -0.0032850045 -0.014261678 -0.041496392
000020 f7 03 18 bd 1a 9b 00 bd 3f e3 96 3a 67 05 52 bc
       -0.037113156 -0.031397916 0.0011511816 -0.012818671
000030 00 fe 6e 3b 16 d4 1a bc fd fe e8 bc 07 a2 fe bc
       0.0036467314 -0.009449979 -0.0284419 -0.03108312
000040 35 3c a9 ba 93 83 02 bd c0 6b 28 bd 1b d9 63 3b
       -0.001291162 -0.03186376 -0.041118383 0.0034766856
000050 02 e5 15 3d 34 8e 15 3c 5f de a1 bb a5 3b f6 3b
       0.036595352 0.009128142 -0.004939839 0.0075144344
000060 18 b2 71 3c 53 1d db bc 4b 35 c1 3b 7c db 8b 3b
       0.0147519335 -0.026747381 0.0058962456 0.004268108
000070 ce 99 9c 3c 24 df a3 bb dd db cc bc 42 cf 73 3c
       0.019116309 -0.0050009657 -0.025007183 0.014880957
000080 05 62 32 3b 38 bd a1 bc 12 cf 8c 3c 50 f9 b6 bb
       0.0027219069 -0.019743547 0.017188583 -0.0055839196
000090 e7 04 68 bb bf 3c 84 bc c2 b1 a2 bc db f8 ff bc
       -0.0035403313 -0.016142247 -0.019860152 -0.031246593
0000a0 fb 5a 19 bb 27 51 34 3c 0a fe 62 3d 00 b8 92 3c
       -0.0023400176 0.011005676 0.05541805 0.017910004
0000b0 4b 0d 89 3c 58 fe 32 bc d3 ec 9c 3c d1 10 cb 3b
       0.016729971 -0.010924898 0.019155895 0.006197073
0000c0 ff f3 18 3b d0 bb 70 bc 75 9b 15 3c f8 35 03 b9
       0.0023338792 -0.0146932155 0.009131302 -0.00012513238
0000d0 75 03 2e 3c ab b5 93 bc 00 db fe bc 1b c0 b6 bc
       0.010620941 -0.018030962 -0.031110287 -0.0223084
0000e0 f7 c6 9a 3c 43 0c ba 3c d3 55 56 3c fb 52 86 3c
       0.018893702 0.022710925 0.0130819855 0.01639699
0000f0 f9 56 9e 3c 21 59 9d 3a 37 42 09 3c d0 52 84 3c
       0.019328581 0.0012004712 0.008377603 0.01615277
000100 cf 0e b7 bb 57 4b bc 39 af 35 ae 3b c5 c1 8a 3b
       -0.005586482 0.00035914287 0.005316458 0.004234525
000110 d4 67 87 3c 47 c4 91 3c 43 b1 16 3c 7a 9d 98 bc
       0.016529001 0.017793788 0.009197536 -0.018629778
000120 72 ef a1 3b cd 69 07 3c 5d 32 74 bc 1e bb 26 bc
       0.004941874 0.008264971 -0.014904586 -0.010176448
000130 6c fd 4b bc d3 d0 72 3b d5 bf b3 3c 89 6e 25 3b
       -0.012450557 0.0037050738 0.021942059 0.0025242886
000140 e6 67 20 bc a3 59 19 bc 54 2e 8f 3c bb ca 98 bc
       -0.009790396 -0.00935975 0.017478146 -0.018651357
000150 3d 7a f6 bb af b6 0b bc 82 17 0b 3c e8 bc 2a bc
       -0.007521896 -0.008527442 0.008489491 -0.010421015
000160 7b 20 aa 3c 8b b4 41 ba 97 82 98 bc 74 f9 3b 3b
       0.020767441 -0.0007389269 -0.018616958 0.0028682621
000170 7c dd a4 bc 3f d5 55 3b 8d 04 ec bc c6 9b 9d bc
       -0.020125143 0.0032628325 -0.028810764 -0.019239318
000180 c8 eb da 3b e0 c7 5c bb 3f 25 86 bc 9f 33 40 bc
       0.0066809393 -0.003368847 -0.016375182 -0.011731057
000190 ff bf e2 bc 90 ec aa bc 73 5d b7 bc 4b 05 17 3d
       -0.027679441 -0.020864755 -0.022383427 0.036870282
0001a0 9f 66 4e 3c 37 f1 04 bc 1d 63 4b bb dc 04 b7 bb
       0.012597709 -0.008114151 -0.0031034418 -0.005585296
0001b0 da 7d 78 bc 77 5b 1d 3b 48 87 03 bc 27 27 32 bd
       -0.015166724 0.0024010816 -0.008027859 -0.04349437
0001c0 a9 33 9d bc 3d be 95 bc 17 cf d8 3c cb f8 03 3d
       -0.019189673 -0.01827919 0.026465936 0.03221969
0001d0 b3 27 a7 3b 02 c3 57 3c 47 8d 9b 3c 1b b1 82 3c
       0.005101168 0.013169052 0.018988265 0.015953591
0001e0 22 01 2f bc 0f 5c 8e bc aa 69 f8 3c 4b de 9c bb
       -0.010681422 -0.017377881 0.030323822 -0.0047872416
0001f0 10 56 7d 3c 1b 4c b3 bb 1f b7 04 bc 1d 5e 70 3c
       0.015462413 -0.005471719 -0.0081003 0.014670876

network_body._body_endoder.seq_layers.0.weight f4 [128, 1]
000000 1c 15 c9 bf 3b cb bc 3e eb 3a 4b be fd 96 58 bc
       -1.5709567 0.36873803 -0.19846694 -0.013219592
000010 34 4a 28 40 95 e6 01 3f 6a a3 0c c0 5b 6e 41 be
       2.629529 0.50742465 -2.197474 -0.18889754
000020 31 4e 82 3f 8b f2 5b 3e 26 ef a0 3f 15 c4 ea bf
       1.0180112 0.21479242 1.2572982 -1.834109
000030 b5 29 91 3f 82 41 50 3e 68 11 d8 3d 30 9a 72 3f
       1.1340853 0.20337489 0.10550195 0.9476652
000040 3f 36 c7 bf f9 3d 1e bf 9b bf 20 bf ca 48 f7 3e
       -1.556343 -0.6181331 -0.62792367 0.4829772
000050 e2 2d 2e 3f 7a 2f eb 3f b8 33 68 be 92 6e d7 bf
       0.6803876 1.8373864 -0.22675979 -1.6830618
000060 0e ba 03 be d2 43 c1 3d 60 9e 2a 3f 87 1b 62 3e
       -0.12863943 0.09436764 0.6664791 0.22080813
000070 bc 56 ab be 85 81 f2 be 98 d0 72 3e 8f e4 64 3f
       -0.3346461 -0.4736444 0.23712385 0.8941125
000080 a7 9e bc bf d8 e3 35 3e 34 8a d0 3f 34 68 b2 3f
       -1.4735917 0.17762697 1.6292176 1.393805
000090 0c e6 93 be 27 e4 87 3e 51 d3 ab bf d7 39 ed 3d
       -0.2888645 0.26541254 -1.3423864 0.11583298
0000a0 41 3a 2e be 1f ee 90 bf f5 af 22 40 04 03 6a be
       -0.1701441 -1.1322669 2.5419896 -0.22852713
0000b0 5e dc f4 bf 15 31 7b bf 2f eb ad 3e 1f f2 a6 3f
       -1.9129751 -0.9812177 0.33968493 1.304264
0000c0 53 3f 13 c0 78 ba 4e 3f 2e d6 8c 3f 36 d0 26 3f
       -2.30074 0.8075328 1.1002862 0.65161455
0000d0 ff 1c 7e be 53 7b 85 bd 39 e5 df be 39 cb 6d bf
       -0.24815749 -0.06517663 -0.4372957 -0.9288822
0000e0 f3 1b 20 3f 8a cf 34 bf 45 ac 3c be 14 6c 63 be
       0.6254265 -0.7062918 -0.1842509 -0.22209197
0000f0 b9 72 13 40 f3 e9 44 be fb bd be be 51 38 9c bf
       2.303877 -0.1922987 -0.3725432 -1.2204686
000100 3c 0e 7a 3f 07 91 18 bf 3d e7 81 bf d2 81 80 bf
       0.9767797 -0.59596294 -1.0148693 -1.0039618
000110 a7 d4 90 3f 7b e9 be bd 29 8b 05 c0 15 f6 37 3f
       1.1314896 -0.093218766 -2.0866187 0.71859866
000120 6e 84 b3 bd 5c bc 29 3f 70 7b 42 bd 92 7b 09 3f
       -0.08765493 0.6630304 -0.047481 0.5370418
000130 72 39 df bd b8 38 0f 3f 0d 6e 39 bf ca ee 31 3f
       -0.10899629 0.5594592 -0.7243355 0.6950499
000140 c3 d6 5d bf 4e df d9 bf e1 a8 a0 bf 73 db ee bf
       -0.86655825 -1.7021272 -1.2551538 -1.866072
000150 33 11 b1 3f db cf d6 3f 9c f4 78 3f d7 b2 af 3e
       1.3833374 1.6782182 0.97248244 0.3431613
000160 c7 1f a9 bd 56 4d e3 3c 7c 39 11 40 99 b1 7a be
       -0.08258014 0.027746838 2.2691336 -0.2448181
000170 b6 dd 01 bf a4 ac ce be de ff 82 be df 6e d9 3f
       -0.5072893 -0.4036609 -0.25585836 1.698696
000180 c4 f4 fe 3e 3f fb 8b 3f 0b b1 63 3e ef 48 f1 bf
       0.49796116 1.0936049 0.22235505 -1.8850383
000190 3c 9e 13 3f 47 2b 97 3d e3 78 8b 3e 5a 2b 24 3e
       0.5766332 0.073813014 0.27240667 0.16032162
0001a0 46 99 c8 be 4d 6b a5 bf 10 73 b3 3f b5 78 23 bf
       -0.39179438 -1.2923371 1.4019489 -0.6385606
0001b0 79 25 c0 3e 44 11 98 3e 39 1b 1b bf 31 19 ac 3f
       0.3752859 0.29700673 -0.60588413 1.3445188
0001c0 7b 28 5f be e8 b8 61 be 9f ae 74 3f 19 9f ae bf
       -0.21792786 -0.22043192 0.9557895 -1.3642303
0001d0 f9 ff 8a bf 86 87 d9 bd 28 38 05 40 30 64 1c be
       -1.0859367 -0.10621552 2.0815525 -0.15272593
0001e0 5e b8 a5 bf c1 ed 54 bf 5b 77 bf 3e 25 03 a3 3e
       -1.2946889 -0.83175284 0.37395748 0.31838337
0001f0 e3 7f 01 be 8a fe 77 3f 47 f7 81 bf 9b 60 92 bf
       -0.12646441 0.9687277 -1.0153588 -1.1435732

network_body._body_endoder.seq_layers.0.bias f4 [128]
000000 00 00 00 00 00 00 00 00 00 00 00 00 00 00 00 00
       0.0 0.0 0.0 0.0
000010 00 00 00 00 00 00 00 00 00 00 00 00 00 00 00 00
       0.0 0.0 0.0 0.0
000020 00 00 00 00 00 00 00 00 00 00 00 00 00 00 00 00
       0.0 0.0 0.0 0.0
000030 00 00 00 00 00 00 00 00 00 00 00 00 00 00 00 00
       0.0 0.0 0.0 0.0
000040 00 00 00 00 00 00 00 00 00 00 00 00 00 00 00 00
       0.0 0.0 0.0 0.0
000050 00 00 00 00 00 00 00 00 00 00 00 00 00 00 00 00
       0.0 0.0 0.0 0.0
000060 00 00 00 00 00 00 00 00 00 00 00 00 00 00 00 00
       0.0 0.0 0.0 0.0
000070 00 00 00 00 00 00 00 00 00 00 00 00 00 00 00 00
       0.0 0.0 0.0 0.0
000080 00 00 00 00 00 00 00 00 00 00 00 00 00 00 00 00
       0.0 0.0 0.0 0.0
000090 00 00 00 00 00 00 00 00 00 00 00 00 00 00 00 00
       0.0 0.0 0.0 0.0
0000a0 00 00 00 00 00 00 00 00 00 00 00 00 00 00 00 00
       0.0 0.0 0.0 0.0
0000b0 00 00 00 00 00 00 00 00 00 00 00 00 00 00 00 00
       0.0 0.0 0.0 0.0
0000c0 00 00 00 00 00 00 00 00 00 00 00 00 00 00 00 00
       0.0 0.0 0.0 0.0
0000d0 00 00 00 00 00 00 00 00 00 00 00 00 00 00 00 00
       0.0 0.0 0.0 0.0
0000e0 00 00 00 00 00 00 00 00 00 00 00 00 00 00 00 00
       0.0 0.0 0.0 0.0
0000f0 00 00 00 00 00 00 00 00 00 00 00 00 00 00 00 00
       0.0 0.0 0.0 0.0
000100 00 00 00 00 00 00 00 00 00 00 00 00 00 00 00 00
       0.0 0.0 0.0 0.0
000110 00 00 00 00 00 00 00 00 00 00 00 00 00 00 00 00
       0.0 0.0 0.0 0.0
000120 00 00 00 00 00 00 00 00 00 00 00 00 00 00 00 00
       0.0 0.0 0.0 0.0
000130 00 00 00 00 00 00 00 00 00 00 00 00 00 00 00 00
       0.0 0.0 0.0 0.0
000140 00 00 00 00 00 00 00 00 00 00 00 00 00 00 00 00
       0.0 0.0 0.0 0.0
000150 00 00 00 00 00 00 00 00 00 00 00 00 00 00 00 00
       0.0 0.0 0.0 0.0
000160 00 00 00 00 00 00 00 00 00 00 00 00 00 00 00 00
       0.0 0.0 0.0 0.0
000170 00 00 00 00 00 00 00 00 00 00 00 00 00 00 00 00
       0.0 0.0 0.0 0.0
000180 00 00 00 00 00 00 00 00 00 00 00 00 00 00 00 00
       0.0 0.0 0.0 0.0
000190 00 00 00 00 00 00 00 00 00 00 00 00 00 00 00 00
       0.0 0.0 0.0 0.0
0001a0 00 00 00 00 00 00 00 00 00 00 00 00 00 00 00 00
       0.0 0.0 0.0 0.0
0001b0 00 00 00 00 00 00 00 00 00 00 00 00 00 00 00 00
       0.0 0.0 0.0 0.0
0001c0 00 00 00 00 00 00 00 00 00 00 00 00 00 00 00 00
       0.0 0.0 0.0 0.0
0001d0 00 00 00 00 00 00 00 00 00 00 00 00 00 00 00 00
       0.0 0.0 0.0 0.0
0001e0 00 00 00 00 00 00 00 00 00 00 00 00 00 00 00 00
       0.0 0.0 0.0 0.0
0001f0 00 00 00 00 00 00 00 00 00 00 00 00 00 00 00 00
       0.0 0.0 0.0 0.0

network_body._body_endoder.seq_layers.2.weight f4 [128, 128]
000000 7c 86 5e 3d 1c df f5 3d 8b 94 f9 3a 9f b7 9e bb
       0.054327473 0.12005445 0.0019041462 -0.0048436667
000010 39 a5 69 3d f5 ac 67 3d 12 17 41 3d 84 85 09 be
       0.057042334 0.05656143 0.047141142 -0.13429838
000020 a1 f0 e3 bd b4 f9 94 bd 5d 70 d9 3d 1f 80 e9 3b
       -0.11129881 -0.072741896 0.10617135 0.007125869
000030 26 53 30 3e 19 9e ca 3c e0 83 f7 bd f7 b5 4e bd
       0.17219219 0.02473359 -0.120857 -0.050466504
000040 90 64 2e 3d f7 35 b2 3c ca 34 57 bd 23 b5 83 3d
       0.042576373 0.021754248 -0.052540578 0.064310335
000050 ea e1 82 bd b6 f0 12 bd 58 07 90 3d 27 4f 98 3c
       -0.06390746 -0.03587409 0.07032651 0.01859243
000060 08 d7 b2 bd d3 c6 1d 3d 1d 03 a7 bd 0c 9c 89 3d
       -0.0873242 0.03851969 -0.08154891 0.06719217
000070 43 82 a9 3d 5e 1e fa 3d c9 88 d4 3d cd 36 ed bd
       0.082767986 0.12212823 0.10377652 -0.11582718
000080 30 c2 04 3d ee 31 4b bd 24 23 d0 3d 28 a0 7f bd
       0.032411754 -0.049608164 0.101629525 -0.062408596
000090 84 40 43 3c c3 2c 2b be d7 9c bf 3d 09 9f 7b 3b
       0.011917237 -0.16716294 0.09356087 0.0038394353
0000a0 ad c0 89 3d 8f 3d b1 bc 4c b3 21 3d 35 47 6e 3d
       0.06726203 -0.021635799 0.03947763 0.058173377
0000b0 1c 60 c5 bd 81 45 ad 3d 8f 58 b0 3d 83 5d 23 3d
       -0.09637472 0.084605224 0.08610641 0.0398841
0000c0 9a e7 ad bd fe e2 b6 3d c5 84 81 3d 9f 7a dd 3d
       -0.0849144 0.08930014 0.06324152 0.10814404
0000d0 57 0f f6 3d 7b 3c c9 bd 2c 50 86 3b 9d d4 c0 bd
       0.120146446 -0.09825989 0.0040989127 -0.09415553
0000e0 08 c6 4e bd f8 2a 1f 3e 66 1c ad bd 82 10 13 3d
       -0.050481826 0.15543735 -0.08452682 0.035904415
0000f0 79 41 e3 bd 30 cc b7 bc df 76 e4 3b 8d f6 24 3d
       -0.11096472 -0.022436231 0.0069721784 0.04027419
000100 94 0f 12 3e 3b a4 26 3d a5 a2 b0 bd ea da 15 be
       0.14263755 0.040683966 -0.08624772 -0.1463429
000110 bd a6 2f be 74 0e 08 3d 11 69 1d bd 1c 6d db 3d
       -0.1715345 0.03321691 -0.038430277 0.1071417
000120 1e 7e 82 3d ac 83 9a bc 39 40 d9 3b 13 0c 67 bc
       0.06371711 -0.018861614 0.0066299704 -0.014102
000130 32 e0 99 3d 5b 55 e5 3c 12 30 07 bd c1 22 8d 3b
       0.07513465 0.027994802 -0.033004828 0.0043071215
000140 b0 98 f6 3d b8 f1 b3 3d b5 46 e0 3b b8 71 08 bd
       0.120408416 0.087863386 0.0068443664 -0.033311576
000150 88 e3 6c 3b a7 1d c8 bd a5 7f 54 bd 8f 95 c8 bd
       0.0036146361 -0.09771281 -0.051879544 -0.09794151
000160 b7 48 89 bc 66 51 c6 bd 8e b8 88 3d eb 37 8e 3d
       -0.016758306 -0.09683494 0.06675826 0.06944259
000170 a4 7b d1 3d 33 27 84 3d da 7e a0 3d ca 0f 67 be
       0.10228661 0.06452789 0.07836695 -0.22564617
000180 d3 eb 84 3c c8 57 f0 3b 83 73 4b bc 06 fc 60 bd
       0.016225731 0.007334683 -0.012417677 -0.05492785
000190 5c 05 1f bd af c6 40 3d 8b 88 80 3d 75 e9 85 bd
       -0.03882347 0.04706448 0.062760435 -0.06538669
0001a0 d0 bc 99 3d 7d 6a 8a 3c 8f 49 2a bd 1b ca e4 3d
       0.07506716 0.01689648 -0.041574057 0.11171361
0001b0 be 98 55 bd 58 48 11 bd 6d 19 80 3d ac c4 c2 bd
       -0.05214762 -0.035469383 0.062548496 -0.095101684
0001c0 64 79 a5 3d aa 79 e6 bc e8 92 aa bd 3d 7f c5 bb
       0.08079794 -0.028134186 -0.083288014 -0.006027131
0001d0 27 20 5f 3d f2 db 9f bc 80 91 e2 bd ee 02 90 bb
       0.054474022 -0.019514058 -0.11062908 -0.0043948805
0001e0 a3 d0 22 bc ac b8 26 be 3b 5b a7 bd 2d 43 0a 3d
       -0.009937438 -0.16281384 -0.08171698 0.03375547
0001f0 1b ff b4 bd 2d 8d fd bc 60 46 4e 3e 1b 76 a6 3c
       -0.0883772 -0.030951107 0.20144033 0.020319989
000200 77 f2 ff bc 2a da da bc d0 a3 04 be bf 0c d7 3c
       -0.031243546 -0.026715357 -0.12953115 0.026251195
000210 7b c0 a3 3d 54 61 64 bd 5b 75 aa bd 1c cf 3a be
       0.07995697 -0.05575688 -0.08323165 -0.18243068
000220 74 8a a2 bb 92 86 b1 bc f2 ad af bc a1 56 3e 3d
       -0.0049603526 -0.021670613 -0.021445248 0.046469335
000230 74 51 a9 3d a6 e2 c6 bd 45 cb a3 bd 70 fd 0d be
       0.08267489 -0.097111985 -0.07997755 -0.1386621
000240 06 57 c8 3c 00 3a 14 3d a0 af da 3d e0 6c 89 3d
       0.024455559 0.036188126 0.10678029 0.067102194
000250 8e 17 88 3c 2e b0 50 bd 10 fd 1e be d1 42 cb bc
       0.016612794 -0.050949268 -0.15526223 -0.024812134
000260 88 60 17 bd 50 72 f5 bd 45 0a c9 3d db 79 4e bc
       -0.036957294 -0.11984694 0.09816412 -0.012602295
000270 7a b9 37 3e 87 af fe 3d 39 c1 80 bc 4e 09 d1 3d
       0.17941847 0.12435823 -0.015717136 0.10206853
000280 fb 37 79 3b 4c 31 ed 3c 70 bb 12 3e b4 7a c1 3d
       0.0038027752 0.02895417 0.14329314 0.09447232
000290 f7 0e 5d bb a2 52 f6 3b 51 56 d1 bd 78 f2 3e bc
       -0.0033730844 0.007517175 -0.10221542 -0.011654489
0002a0 4e f2 df 3d 6b f5 57 bd 9f 41 04 3d 22 ad a3 bd
       0.10934888 -0.052724283 0.032289144 -0.07992007
0002b0 59 c2 ac bd 8d 89 98 bb 94 f6 b1 bc d8 57 25 bc
       -0.084355064 -0.004655069 -0.021724023 -0.010091744
0002c0 53 c4 08 3e ef c4 62 be e1 06 20 ba 32 2b 00 bd
       0.13356142 -0.22145437 -0.00061045407 -0.031291194
0002d0 14 70 3c 3d 6d 90 8c 3c 9d 2f 62 3d a9 64 0c 3e
       0.046005324 0.017158711 0.05522119 0.13710274
0002e0 85 51 e7 bd 5d 19 8b bd 72 40 d9 bc 91 fa 6b bd
       -0.112948455 -0.06791947 -0.026519988 -0.057612006
0002f0 c5 93 b9 3d b1 ef 0d bd 24 bf cc 3d 63 7a 8b 3c
       0.09061388 -0.034652416 0.09997395 0.017026132
000300 1e de 8e 3d 18 51 bd b9 59 c3 91 bd fd 66 31 be
       0.06975959 -0.0003610931 -0.07117338 -0.17324443
000310 29 13 08 be 7b a6 60 3d 20 85 2a 3e 08 06 01 3b
       -0.13288559 0.05484627 0.16652346 0.0019687433
000320 80 dc b4 3c 08 f2 0a be 5f 5d 61 3c b2 7e bd 3d
       0.022077799 -0.1356889 0.013755172 0.09252681
000330 75 5d 1c bd a3 d2 ab bd bb 36 ae 3b 7a db 42 3b
       -0.038175065 -0.08389785 0.005316583 0.002973287
000340 b6 94 58 3d 79 f2 8f bc 02 a7 68 3d 4f 75 17 bd
       0.052876197 -0.017571675 0.056799896 -0.03697711
000350 6d e6 97 3d fb 9d 02 be 9f f0 02 bd 72 d4 ff bd
       0.07416997 -0.12755577 -0.031967755 -0.124916926
000360 31 70 24 bc a1 5f 2a 3d 3a 6d a8 3c 4c 40 87 3b
       -0.010036514 0.041595105 0.020559896 0.004127538
000370 12 20 85 bd ea 36 89 bd 84 2c 88 be bc 95 85 3d
       -0.065002576 -0.06699927 -0.26596463 0.065227
000380 93 00 1a bd 45 05 a8 3c 13 1b 0e bc b6 67 e9 3b
       -0.037598204 0.020510325 -0.008673447 0.007122959
000390 36 58 d7 bc cb 1e a1 3d c6 de bc 3d 22 9e 05 3d
       -0.02628718 0.078672014 0.09222178 0.03262151
0003a0 ab 92 dd bd f2 f7 cb bd 30 a7 4b bd 87 d3 00 3e
       -0.1081899 -0.09959401 -0.04971999 0.12580691
0003b0 ad 52 74 3d 2e d4 09 3e 40 7e 13 3c 12 93 2a bd
       0.05964916 0.13459846 0.009002268 -0.041644163
0003c0 7b 70 36 3d 4b a0 df 3d 3d bb 2b 3e c8 94 52 3c
       0.044540863 0.10919245 0.16770644 0.012852855
0003d0 f2 09 a2 bd 06 32 56 3d 16 7b 51 be 6f 43 ae bd
       -0.07912053 0.0522938 -0.2045711 -0.08508956
0003e0 90 3c 28 bd 64 cf c0 bd 22 6c c0 3c 61 3a 11 3e
       -0.041073382 -0.094145566 0.023489062 0.14182426
0003f0 12 61 a7 bd 96 2e e0 bc b2 49 cf bc d5 cf 4a bc
       -0.081728116 -0.027365964 -0.025303695 -0.012378653

network_body._body_endoder.seq_layers.2.bias f4 [128]
000000 00 00 00 00 00 00 00 00 00 00 00 00 00 00 00 00
       0.0 0.0 0.0 0.0
000010 00 00 00 00 00 00 00 00 00 00 00 00 00 00 00 00
       0.0 0.0 0.0 0.0
000020 00 00 00 00 00 00 00 00 00 00 00 00 00 00 00 00
       0.0 0.0 0.0 0.0
000030 00 00 00 00 00 00 00 00 00 00 00 00 00 00 00 00
       0.0 0.0 0.0 0.0
000040 00 00 00 00 00 00 00 00 00 00 00 00 00 00 00 00
       0.0 0.0 0.0 0.0
000050 00 00 00 00 00 00 00 00 00 00 00 00 00 00 00 00
       0.0 0.0 0.0 0.0
000060 00 00 00 00 00 00 00 00 00 00 00 00 00 00 00 00
       0.0 0.0 0.0 0.0
000070 00 00 00 00 00 00 00 00 00 00 00 00 00 00 00 00
       0.0 0.0 0.0 0.0
000080 00 00 00 00 00 00 00 00 00 00 00 00 00 00 00 00
       0.0 0.0 0.0 0.0
000090 00 00 00 00 00 00 00 00 00 00 00 00 00 00 00 00
       0.0 0.0 0.0 0.0
0000a0 00 00 00 00 00 00 00 00 00 00 00 00 00 00 00 00
       0.0 0.0 0.0 0.0
0000b0 00 00 00 00 00 00 00 00 00 00 00 00 00 00 00 00
       0.0 0.0 0.0 0.0
0000c0 00 00 00 00 00 00 00 00 00 00 00 00 00 00 00 00
       0.0 0.0 0.0 0.0
0000d0 00 00 00 00 00 00 00 00 00 00 00 00 00 00 00 00
       0.0 0.0 0.0 0.0
0000e0 00 00 00 00 00 00 00 00 00 00 00 00 00 00 00 00
       0.0 0.0 0.0 0.0
0000f0 00 00 00 00 00 00 00 00 00 00 00 00 00 00 00 00
       0.0 0.0 0.0 0.0
000100 00 00 00 00 00 00 00 00 00 00 00 00 00 00 00 00
       0.0 0.0 0.0 0.0
000110 00 00 00 00 00 00 00 00 00 00 00 00 00 00 00 00
       0.0 0.0 0.0 0.0
000120 00 00 00 00 00 00 00 00 00 00 00 00 00 00 00 00
       0.0 0.0 0.0 0.0
000130 00 00 00 00 00 00 00 00 00 00 00 00 00 00 00 00
       0.0 0.0 0.0 0.0
000140 00 00 00 00 00 00 00 00 00 00 00 00 00 00 00 00
       0.0 0.0 0.0 0.0
000150 00 00 00 00 00 00 00 00 00 00 00 00 00 00 00 00
       0.0 0.0 0.0 0.0
000160 00 00 00 00 00 00 00 00 00 00 00 00 00 00 00 00
       0.0 0.0 0.0 0.0
000170 00 00 00 00 00 00 00 00 00 00 00 00 00 00 00 00
       0.0 0.0 0.0 0.0
000180 00 00 00 00 00 00 00 00 00 00 00 00 00 00 00 00
       0.0 0.0 0.0 0.0
000190 00 00 00 00 00 00 00 00 00 00 00 00 00 00 00 00
       0.0 0.0 0.0 0.0
0001a0 00 00 00 00 00 00 00 00 00 00 00 00 00 00 00 00
       0.0 0.0 0.0 0.0
0001b0 00 00 00 00 00 00 00 00 00 00 00 00 00 00 00 00
       0.0 0.0 0.0 0.0
0001c0 00 00 00 00 00 00 00 00 00 00 00 00 00 00 00 00
       0.0 0.0 0.0 0.0
0001d0 00 00 00 00 00 00 00 00 00 00 00 00 00 00 00 00
       0.0 0.0 0.0 0.0
0001e0 00 00 00 00 00 00 00 00 00 00 00 00 00 00 00 00
       0.0 0.0 0.0 0.0
0001f0 00 00 00 00 00 00 00 00 00 00 00 00 00 00 00 00
       0.0 0.0 0.0 0.0

value_heads.value_heads.extrinsic.weight f4 [1, 128]
000000 96 0f f5 3d c5 e3 3e be 4c 84 f0 3b 98 e7 28 bd
       0.119658634 -0.18641575 0.0073399898 -0.04123649
000010 72 62 2e 3d 7c fd 8d bd a9 95 da 3d 9c 08 37 be
       0.042574354 -0.06933114 0.10673077 -0.17874378
000020 b8 5f 37 3e 38 88 99 bd cf 9c 2e bd 85 85 64 bd
       0.17907608 -0.07496685 -0.042630013 -0.055791397
000030 69 4c 33 be 73 3b 1f 3e aa 7d 4b be 73 3d 85 bb
       -0.17509617 0.15550022 -0.19872156 -0.004066163
000040 43 6f d8 bd 23 ee 32 bd 7d ae 2f 3e c9 a1 c9 3d
       -0.105680965 -0.043684136 0.17156406 0.09845311
000050 fc 1d b1 3d b8 fa f7 3d 94 15 3d bd 5e 70 25 3e
       0.08648297 0.12108368 -0.046163157 0.16156146
000060 ba 6d e7 bd 58 58 ca bd df 6b b5 bc 4e 44 27 be
       -0.113002256 -0.098801315 -0.022146164 -0.1633465
000070 36 40 13 be d3 fb 4c bd 9d 54 21 be 4e ad af 3d
       -0.14379963 -0.050044846 -0.15754934 0.08577977
000080 54 7f 86 3d 52 ee 3a 3e ef 72 8d bd a7 09 9f 3d
       0.06567255 0.18254974 -0.069066875 0.07765513
000090 26 4a 8a 3d 09 15 01 3e 43 c5 33 be c0 f9 29 be
       0.06752424 0.1260568 -0.17555718 -0.16599178
0000a0 86 0a 2b 3d fd 1d 25 3e 13 16 b3 bc e0 87 a9 3d
       0.041758083 0.16124721 -0.021861112 0.08277869
0000b0 ee 3d 3b be 71 38 83 3d 3c 12 10 3d 67 8c 31 3d
       -0.18285343 0.0640725 0.03517364 0.04334679
0000c0 40 c3 2f be d2 f4 26 3e b0 27 cc 3c b3 92 6f bd
       -0.17164326 0.16304329 0.024921268 -0.058489513
0000d0 99 ac 9a 3d 79 96 7a 3c de 94 52 be 10 61 52 be
       0.07552452 0.015294665 -0.20564601 -0.20544839
0000e0 26 83 90 bd 99 ff 22 3e 94 6c 52 3e 9f 57 46 be
       -0.070562646 0.15917815 0.20549232 -0.19369362
0000f0 40 09 c6 bd e2 e5 f1 3d 91 10 f8 3d d8 d4 e6 bd
       -0.09669733 0.11811425 0.12112535 -0.112710655
000100 9b 61 78 bd 45 c2 43 3e b5 c3 37 be cc ea b9 3b
       -0.06063996 0.19117077 -0.1794575 0.005673742
000110 50 7f 89 3d 9a ea 07 be 25 c8 a7 bd c4 de 47 3e
       0.06713736 -0.13273087 -0.081924714 0.19518572
000120 24 98 aa 3d 39 06 aa bd 89 f0 27 bd bc fa 02 3d
       0.083298 -0.08301968 -0.041000877 0.0319774
000130 24 57 5b 3e c8 ce 5c 3e c7 1e d2 3d a9 94 4c 3e
       0.2141996 0.21563256 0.102597766 0.19978584
000140 e3 d8 07 3e f0 69 21 3e 32 e2 d9 bd 1e e8 b6 3d
       0.1326633 0.15763068 -0.106388465 0.089309916
000150 f0 02 87 3c 57 da 1d 3e b5 5f c1 3c e8 a3 54 3e
       0.016480893 0.15415321 0.023605207 0.2076565
000160 40 4d 5b be 4d fa 80 3d f0 39 96 bd 24 1b b1 bd
       -0.21416187 0.06297741 -0.073352695 -0.08647755
000170 d6 de 32 3d b8 a5 34 be 71 84 c3 3d 68 09 3b be
       0.043669544 -0.17641342 0.095467456 -0.18265307
000180 6e 07 9d bd 5c 6b 1a 3d 59 b8 0f be 2b d5 98 3d
       -0.07667433 0.037700042 -0.14035167 0.074625336
000190 ac 90 3a 3d 00 5d a3 3b 01 bc 85 bd f3 df 0e be
       0.045548126 0.0049854517 -0.065299995 -0.13952617
0001a0 f1 ec 4c 3e 04 3a 10 3e fd e6 3b 3e f0 ec 11 3c
       0.20012261 0.14084631 0.18349834 0.008906588
0001b0 a2 77 df 3d 81 2a cb bd 91 18 77 3d 1b e2 46 3e
       0.1091149 -0.09920216 0.060326163 0.1942219
0001c0 c2 78 49 be a4 c4 f9 bd 4a c4 59 bd 35 4e 20 3e
       -0.19674972 -0.12195709 -0.05316571 0.15654834
0001d0 3f ab 31 be f3 65 dc 3d 2c a5 d3 3d af e8 1f be
       -0.17350481 0.10761633 0.103342384 -0.15616105
0001e0 f6 d6 55 3e ef 62 71 bd a9 fa 42 3e 06 16 bd 3c
       0.20882782 -0.05893224 0.19040932 0.02308179
0001f0 32 fd b7 3c 58 fd 94 bc e5 14 2a 3e 8b 62 b0 bc
       0.0224596 -0.01818721 0.16609533 -0.021531364
