results/ppo/EatFood/EatFood-1472.onnx (onnx, 70079 bytes, 7 tensors)

action_model._continuous_distribution.log_sigma f4 [1, 2]
0	0x00000000	0.0
1	0x00000000	0.0

action_model._continuous_distribution.mu.bias f4 [2]
0	0x00000000	0.0
1	0x00000000	0.0

action_model._continuous_distribution.mu.weight f4 [2, 128]
0	0xbbfc1662	-0.007693098
1	0x3c8fbddc	0.017546587
2	0x3cf13e27	0.029448582
3	0xbc0e6155	-0.008690198
4	0x3a4a3ba5	0.0007714576
5	0xbc637cad	-0.0138847055
6	0xb77db7a2	-1.51227305e-05
7	0xbc13e35c	-0.009026375
8	0xb9e5e54b	-0.0004384912
9	0x3c0d898b	0.00863875
10	0x3c6802fb	0.014160867
11	0x3b188b6a	0.0023276457
12	0xbc9e2f15	-0.01930956
13	0x3b491367	0.003068173
14	0xbca3cd7b	-0.019995442
15	0x3c6d8aeb	0.014498453
16	0x3cb22c3e	0.021749612
17	0x3c433e0b	0.011916648
18	0x3b0006ae	0.0019535231
19	0xbc2a635d	-0.010399667
20	0xbc18447a	-0.00929367
21	0x3c53cb88	0.012926944
22	0xbcd379cb	-0.025814911
23	0xbc98762b	-0.018611034
24	0x3c7ed00d	0.015552533
25	0x3c3af945	0.01141197
26	0xbcf85800	-0.0303154
27	0xbc9c06ac	-0.01904615
28	0xbc0ec12c	-0.008713048
29	0x3ca55f47	0.020187033
30	0xbd041c61	-0.032253627
31	0xbcf02c35	-0.029317955
32	0x3d053e3d	0.03253006
33	0xbc7bc157	-0.01536592
34	0x3bbe7a07	0.0058128866
35	0xbcada426	-0.021196436
36	0xba7ad6e2	-0.0009568763
37	0xbc8d99c1	-0.01728523
38	0x3cc10b6f	0.023565022
39	0xbc9ed7d4	-0.019390024
40	0x3cb8378d	0.022487426
41	0x3c73b940	0.01487571
42	0x3c612eed	0.013744098
43	0xbc3bd52e	-0.0114644
44	0x3b5b9090	0.0033502914
45	0x3c95b7e4	0.018276162
46	0xbcc548df	-0.0240826
47	0xbcbb7d24	-0.02288682
48	0xbba99823	-0.005175607
49	0x3d29a5a3	0.04141773
50	0xbc2b156e	-0.010442121
51	0x3c3c7249	0.011501857
52	0xbc810108	-0.015747562
53	0x3ca9e2ba	0.020737994
54	0x3b00c888	0.0019650776
55	0xbc974842	-0.018467072
56	0xbc94b6f7	-0.01815365
57	0x3b8a3d6f	0.0042187492
58	0xbc457a97	-0.0120531535
59	0x3c27d30c	0.010243189
60	0xbb37db28	-0.0028054211
61	0x3cbcbdf2	0.023039792
62	0x3b15ed70	0.002287712
63	0x3c490096	0.012268206
64	0xbccf9452	-0.02533928
65	0x3bd81e88	0.0065954365
66	0x3a81caf1	0.00099024
67	0x3c056ceb	0.008143644
68	0x3ca88344	0.020570405
69	0x3c48fd3d	0.012267408
70	0x3c12a55b	0.008950557
71	0x3d016df8	0.031599015
72	0xbc398ef7	-0.011325589
73	0x3c27f1ef	0.010250553
74	0xbb8e7870	-0.0043478534
75	0xbbc3b710	-0.0059727505
76	0xbc080dd5	-0.008304079
77	0xbaae8dc3	-0.0013317395
78	0xba39e946	-0.00070919504
79	0x3c8c2ef8	0.01711224
80	0x3b29e293	0.0025922402
81	0xbd02231f	-0.031771775
82	0xbc65dc85	-0.014029627
83	0x3bfbb20a	0.007681136
84	0x3bb2e039	0.0054588583
85	0xbca57cd3	-0.020201122
86	0xbcb45e74	-0.022017695
87	0x3c0b130e	0.00848843
88	0x3b9cfd39	0.0047909287
89	0xbc4e66cd	-0.012597752
90	0xbc4c3fb7	-0.012466363
91	0x3ce3f777	0.027827961
92	0xbc86d4c1	-0.01645887
93	0x3c8cc973	0.017185902
94	0x3bc3b695	0.005972693
95	0xbc88b6df	-0.016688762
96	0xbc613255	-0.01374491
97	0xbd065a92	-0.03280122
98	0x3aecd998	0.0018070219
99	0x3c66004a	0.014038155
100	0x3b35a20c	0.0027714996
101	0xbb7de05f	-0.0038738472
102	0xbd4be263	-0.049776446
103	0xbb7deb6f	-0.0038745066
104	0x3c58a8bf	0.013223826
105	0x3ca1741a	0.019708682
106	0x3c81236f	0.015763966
107	0x3bbf3cc4	0.0058361012
108	0x3c9d8a5f	0.01923102
109	0x39644d88	0.00021772657
110	0x3ce1ae95	0.027549068
111	0x3d2db5ea	0.042409815
112	0xbc1bc3f2	-0.009507166
113	0x3d11885c	0.035530433
114	0x3c319524	0.010838781
115	0x3c6c9fcf	0.014442398
116	0xbd03e5c8	-0.03220156
117	0x3c0d70fd	0.008632896
118	0x3c73f475	0.014889826
119	0xbb33e69c	-0.0027450686
120	0xbca1a948	-0.01973404
121	0x3cdb066f	0.026736466
122	0xbc253216	-0.010082742
123	0xbc3e9af3	-0.011633622
124	0x3af376d7	0.0018574846
125	0xbbaa2c4a	-0.005193268
126	0xbc92c403	-0.017915731
127	0xbc319385	-0.010838394
128	0x3d6c4598	0.057683557
129	0xbc60ef82	-0.013728978
130	0xbbd6960d	-0.006548649
131	0xbc3ed02c	-0.011646312
132	0xbcbcb645	-0.023036132
133	0xbc1ec6e8	-0.009690978
134	0x3b98062b	0.004639407
135	0x3c9b901b	0.018989613
136	0x3c56fc3f	0.013121664
137	0x3bb83a7c	0.0056222063
138	0x3bf4f828	0.0074758716
139	0x3d325c80	0.043545246
140	0xbc81aa1f	-0.01582819
141	0x3c28373f	0.010267078
142	0x3c4a9f4f	0.012367084
143	0xbb7c4555	-0.0038493474
144	0xbc4e4e5d	-0.012591925
145	0x3c606093	0.0136949
146	0x3c18dde1	0.009330244
147	0x3ab2faa2	0.0013655017
148	0x3bc7b55b	0.0060946173
149	0x3c4adccf	0.012381746
150	0x3cce8f27	0.025214745
151	0xb81c6ae5	-3.729285e-05
152	0xbc9981f3	-0.018738722
153	0x3bf5fd98	0.0075070374
154	0xbaf08f03	-0.0018353168
155	0x3d429baa	0.047511734
156	0x3baa7e48	0.005203042
157	0xbcc38274	-0.023865916
158	0xbb7ac318	-0.0038263258
159	0xbcb5ad07	-0.022177232
160	0xbc7549e7	-0.014971233
161	0x3c0ab2cb	0.008465479
162	0x3c969303	0.018380648
163	0x3bcce433	0.0062527894
164	0x3b56eaab	0.0032793682
165	0xbbc98243	-0.0061495616
166	0x3c82bfbc	0.015960567
167	0xbcd25b47	-0.02567829
168	0x3c068527	0.008210457
169	0xbc401bb6	-0.011725357
170	0x3c58df93	0.013236898
171	0xbcc171f9	-0.023613917
172	0x3c8295df	0.015940605
173	0x3c278ff3	0.010227191
174	0x3cb13d09	0.02163555
175	0x3cd33c6a	0.025785644
176	0x3d101690	0.035177767
177	0x3c6a04db	0.014283384
178	0x3b820977	0.0039684135
179	0xbd04317f	-0.032273766
180	0xbc8cedb0	-0.017203182
181	0x3c54ea45	0.012995307
182	0x3b797027	0.0038061233
183	0xbc8c90c7	-0.017158879
184	0x3bd84c5d	0.0066009
185	0xba4e82a0	-0.0007877741
186	0x3c6f9617	0.014623187
187	0x3b0fdcec	0.0021951748
188	0xbb7c2d35	-0.0038479094
189	0xbd2146c7	-0.03937414
190	0x3d12365e	0.03569638
191	0xbb74f9e2	-0.0037380387
192	0xba0da813	-0.0005403768
193	0xbc34d4a1	-0.011037023
194	0xbb346412	-0.0027525467
195	0xbc6acd87	-0.014331228
196	0xbc229c23	-0.009924921
197	0x3cba34be	0.022730228
198	0x3cbdd4df	0.023172794
199	0x3c7bb125	0.015362059
200	0x3c12b6d8	0.008954726
201	0x3b678a2a	0.0035330155
202	0x3d01820b	0.03161816
203	0xbb8a1036	-0.0042133583
204	0x3caa3c2d	0.020780647
205	0xba0c3fcb	-0.0005350082
206	0x3c4cd96b	0.012503008
207	0x3c187e82	0.009307506
208	0xbc7fbc0f	-0.0156088015
209	0xbc07275e	-0.008249132
210	0x3c0853df	0.008320778
211	0x3ca3f1a3	0.020012682
212	0xbbac6294	-0.005260775
213	0x3b57922b	0.003289352
214	0xbb4cafa8	-0.003123263
215	0x3c5ad560	0.013356537
216	0x3c860101	0.0163579
217	0x3c023eb3	0.007949519
218	0x3d21a1be	0.03946089
219	0x3ba15704	0.004923703
220	0x3b9d03ef	0.0047917287
221	0x3c9c7ccc	0.019102477
222	0x3aed1432	0.0018087684
223	0x3cb031c1	0.0215081
224	0xbd0c3775	-0.034232575
225	0xbb89c808	-0.004204754
226	0x3bf28c68	0.0074019916
227	0xbcb6f1c8	-0.022332087
228	0x3c9f21d5	0.019425312
229	0x3bed065d	0.0072334246
230	0x3baf98a5	0.005358773
231	0xbc98ba54	-0.018643536
232	0x3c3908f9	0.011293643
233	0xbccdebf5	-0.025136927
234	0xbcbc07b3	-0.02295289
235	0xbcc346ba	-0.023837436
236	0x3bdc6067	0.0067253592
237	0xbd000119	-0.031251047
238	0x3c96265c	0.018328838
239	0xbd153267	-0.03642502
240	0xbd151353	-0.036395382
241	0x3c74ef1a	0.014949584
242	0x3c0adaec	0.008475047
243	0xbd16a23b	-0.03677581
244	0x3bb75170	0.005594425
245	0x3c98dcaf	0.018659918
246	0x3bc99c70	0.006152682
247	0x3c098839	0.008394294
248	0x3cbb9a43	0.022900706
249	0x3cbbc6d1	0.022921951
250	0xbba45617	-0.0050151455
251	0x3cc5470a	0.024081726
252	0x3d0c84d7	0.034306373
253	0xbaa3bf3f	-0.0012492909
254	0xbc8ceb15	-0.01720194
255	0x3ca1212a	0.019669134

network_body._body_endoder.seq_layers.0.bias f4 [128]
0	0x00000000	0.0
1	0x00000000	0.0
2	0x00000000	0.0
3	0x00000000	0.0
4	0x00000000	0.0
5	0x00000000	0.0
6	0x00000000	0.0
7	0x00000000	0.0
8	0x00000000	0.0
9	0x00000000	0.0
10	0x00000000	0.0
11	0x00000000	0.0
12	0x00000000	0.0
13	0x00000000	0.0
14	0x00000000	0.0
15	0x00000000	0.0
16	0x00000000	0.0
17	0x00000000	0.0
18	0x00000000	0.0
19	0x00000000	0.0
20	0x00000000	0.0
21	0x00000000	0.0
22	0x00000000	0.0
23	0x00000000	0.0
24	0x00000000	0.0
25	0x00000000	0.0
26	0x00000000	0.0
27	0x00000000	0.0
28	0x00000000	0.0
29	0x00000000	0.0
30	0x00000000	0.0
31	0x00000000	0.0
32	0x00000000	0.0
33	0x00000000	0.0
34	0x00000000	0.0
35	0x00000000	0.0
36	0x00000000	0.0
37	0x00000000	0.0
38	0x00000000	0.0
39	0x00000000	0.0
40	0x00000000	0.0
41	0x00000000	0.0
42	0x00000000	0.0
43	0x00000000	0.0
44	0x00000000	0.0
45	0x00000000	0.0
46	0x00000000	0.0
47	0x00000000	0.0
48	0x00000000	0.0
49	0x00000000	0.0
50	0x00000000	0.0
51	0x00000000	0.0
52	0x00000000	0.0
53	0x00000000	0.0
54	0x00000000	0.0
55	0x00000000	0.0
56	0x00000000	0.0
57	0x00000000	0.0
58	0x00000000	0.0
59	0x00000000	0.0
60	0x00000000	0.0
61	0x00000000	0.0
62	0x00000000	0.0
63	0x00000000	0.0
64	0x00000000	0.0
65	0x00000000	0.0
66	0x00000000	0.0
67	0x00000000	0.0
68	0x00000000	0.0
69	0x00000000	0.0
70	0x00000000	0.0
71	0x00000000	0.0
72	0x00000000	0.0
73	0x00000000	0.0
74	0x00000000	0.0
75	0x00000000	0.0
76	0x00000000	0.0
77	0x00000000	0.0
78	0x00000000	0.0
79	0x00000000	0.0
80	0x00000000	0.0
81	0x00000000	0.0
82	0x00000000	0.0
83	0x00000000	0.0
84	0x00000000	0.0
85	0x00000000	0.0
86	0x00000000	0.0
87	0x00000000	0.0
88	0x00000000	0.0
89	0x00000000	0.0
90	0x00000000	0.0
91	0x00000000	0.0
92	0x00000000	0.0
93	0x00000000	0.0
94	0x00000000	0.0
95	0x00000000	0.0
96	0x00000000	0.0
97	0x00000000	0.0
98	0x00000000	0.0
99	0x00000000	0.0
100	0x00000000	0.0
101	0x00000000	0.0
102	0x00000000	0.0
103	0x00000000	0.0
104	0x00000000	0.0
105	0x00000000	0.0
106	0x00000000	0.0
107	0x00000000	0.0
108	0x00000000	0.0
109	0x00000000	0.0
110	0x00000000	0.0
111	0x00000000	0.0
112	0x00000000	0.0
113	0x00000000	0.0
114	0x00000000	0.0
115	0x00000000	0.0
116	0x00000000	0.0
117	0x00000000	0.0
118	0x00000000	0.0
119	0x00000000	0.0
120	0x00000000	0.0
121	0x00000000	0.0
122	0x00000000	0.0
123	0x00000000	0.0
124	0x00000000	0.0
125	0x00000000	0.0
126	0x00000000	0.0
127	0x00000000	0.0

network_body._body_endoder.seq_layers.0.weight f4 [128, 1]
0	0xbd2c799d	-0.042108167
1	0xbf3ec0e0	-0.74513054
2	0x3f1617c5	0.5863002
3	0x3c92d7c2	0.017925147
4	0xbee14962	-0.440013
5	0x3fdc727b	1.7222437
6	0xbf43ed1c	-0.76533675
7	0x3ecee73c	0.40410793
8	0xbc8f1fe5	-0.017471263
9	0x3e22f815	0.15914948
10	0xbf9d1119	-1.2270843
11	0x3f72e81b	0.94885415
12	0x3fcdc102	1.6074526
13	0xbf6b5df3	-0.9194023
14	0x3f14ffdb	0.58202904
15	0x3ce2b3df	0.02767366
16	0xbe8faf75	-0.2806355
17	0x3f774a86	0.9659809
18	0xbfcb6046	-1.5888755
19	0xbfb19180	-1.3872528
20	0x3d2c76cc	0.04210548
21	0xbe7a0fde	-0.24420115
22	0xbf783efa	-0.96971095
23	0x3f06c067	0.5263733
24	0x3f12b47e	0.5730666
25	0xbfd72d6b	-1.6810735
26	0xbfb3597e	-1.4011686
27	0xbf1abaf3	-0.6044151
28	0x3fed7590	1.8551502
29	0xbe29d2ed	-0.16584368
30	0xbf3e2994	-0.74282193
31	0x3fb46b8a	1.4095318
32	0xbf05b192	-0.52224076
33	0xbf8f1ce0	-1.1180687
34	0x4004cc81	2.074982
35	0x3f6ae3c6	0.91753805
36	0xbf90598f	-1.1277331
37	0xbff99e7f	-1.9501494
38	0x3effcd8b	0.49961504
39	0xbfe0f30c	-1.7574172
40	0x3fe6d232	1.8032897
41	0x403f8209	2.9923117
42	0x3e2f1a4c	0.17099875
43	0x3de4fa4b	0.11180552
44	0x3f63d363	0.88994426
45	0x3ef16ece	0.4715485
46	0xbf45180a	-0.76989806
47	0x3fac4b89	1.3460552
48	0xbf25e0c5	-0.64796096
49	0x3d83804a	0.064209536
50	0x3f46ecd8	0.77705145
51	0xbf516242	-0.81790555
52	0xbf3bfe72	-0.7343513
53	0x3f6d18fb	0.9261624
54	0x3f327670	0.6971197
55	0xbe31aeeb	-0.17351882
56	0xbd88cb81	-0.0667944
57	0x3f90948f	1.1295336
58	0x3fb1c9b7	1.3889683
59	0x3faac226	1.3340499
60	0x3f12fcfc	0.57417274
61	0xbe12c573	-0.14333133
62	0x3ed94561	0.42435744
63	0xbfa0f567	-1.2574891
64	0x3fa10606	1.2579963
65	0x3f973e72	1.1815932
66	0xbf2d3568	-0.67659616
67	0x3fb364c0	1.4015121
68	0xbeee75d1	-0.46574262
69	0x3ff18e87	1.8871621
70	0xbf10bb01	-0.56535345
71	0x3f55ca41	0.8351174
72	0xbe7bd821	-0.24594165
73	0xbf195776	-0.5989908
74	0xbf5d6679	-0.86484486
75	0xbec4cf87	-0.3843958
76	0x3de6fd15	0.1127874
77	0x3cdafb1e	0.02673107
78	0xbf0053c8	-0.5012784
79	0x3f74abbb	0.9557454
80	0x3e666235	0.224984
81	0x3da981a1	0.08276678
82	0xbf41511d	-0.75514394
83	0xbf611b36	-0.87932146
84	0x3dd558b9	0.10417313
85	0xc001143d	-2.0168602
86	0xbef8cf4f	-0.48595664
87	0x3f522aee	0.82096756
88	0x3fd9a9dc	1.7004962
89	0xbf984542	-1.1896136
90	0x3f1ee5f0	0.62069607
91	0x3d9a720e	0.075412855
92	0xbd50b547	-0.05095413
93	0x3f4cca24	0.7999594
94	0x3c322790	0.01087369
95	0x3fcf8a82	1.6214144
96	0xbdfc55ab	-0.12321027
97	0x3ed78931	0.42096856
98	0x3ce70106	0.02819873
99	0x3f44ff09	0.7695165
100	0x3e5b884e	0.21438715
101	0xbe6927a2	-0.22769025
102	0xbee7e2a7	-0.4529011
103	0x3f8afd18	1.0858488
104	0xbe8c325e	-0.27382177
105	0x3e177f8f	0.14794753
106	0x3f8c7385	1.0972754
107	0xc0245ed9	-2.568289
108	0x3f5b89e9	0.8575731
109	0x3e88e156	0.26734418
110	0x3f9dde47	1.2333459
111	0x3e21edf6	0.15813431
112	0xbe4c612d	-0.19958945
113	0xbcf4e85c	-0.029895954
114	0xbf029ede	-0.5102366
115	0xbea3bea8	-0.31981397
116	0xbf19ebe1	-0.6012555
117	0xbf91de22	-1.1395915
118	0x3dc804c8	0.09766537
119	0x3eb1ad88	0.34702706
120	0xbdf70125	-0.12060765
121	0x3f9e4692	1.2365286
122	0xbf682784	-0.90685296
123	0x3f7d438a	0.9893118
124	0x3f4dbcf1	0.80366427
125	0xbfadc90c	-1.357698
126	0x3fd23858	1.6423445
127	0xbf1bb027	-0.6081566

network_body._body_endoder.seq_layers.2.bias f4 [128]
0	0x00000000	0.0
1	0x00000000	0.0
2	0x00000000	0.0
3	0x00000000	0.0
4	0x00000000	0.0
5	0x00000000	0.0
6	0x00000000	0.0
7	0x00000000	0.0
8	0x00000000	0.0
9	0x00000000	0.0
10	0x00000000	0.0
11	0x00000000	0.0
12	0x00000000	0.0
13	0x00000000	0.0
14	0x00000000	0.0
15	0x00000000	0.0
16	0x00000000	0.0
17	0x00000000	0.0
18	0x00000000	0.0
19	0x00000000	0.0
20	0x00000000	0.0
21	0x00000000	0.0
22	0x00000000	0.0
23	0x00000000	0.0
24	0x00000000	0.0
25	0x00000000	0.0
26	0x00000000	0.0
27	0x00000000	0.0
28	0x00000000	0.0
29	0x00000000	0.0
30	0x00000000	0.0
31	0x00000000	0.0
32	0x00000000	0.0
33	0x00000000	0.0
34	0x00000000	0.0
35	0x00000000	0.0
36	0x00000000	0.0
37	0x00000000	0.0
38	0x00000000	0.0
39	0x00000000	0.0
40	0x00000000	0.0
41	0x00000000	0.0
42	0x00000000	0.0
43	0x00000000	0.0
44	0x00000000	0.0
45	0x00000000	0.0
46	0x00000000	0.0
47	0x00000000	0.0
48	0x00000000	0.0
49	0x00000000	0.0
50	0x00000000	0.0
51	0x00000000	0.0
52	0x00000000	0.0
53	0x00000000	0.0
54	0x00000000	0.0
55	0x00000000	0.0
56	0x00000000	0.0
57	0x00000000	0.0
58	0x00000000	0.0
59	0x00000000	0.0
60	0x00000000	0.0
61	0x00000000	0.0
62	0x00000000	0.0
63	0x00000000	0.0
64	0x00000000	0.0
65	0x00000000	0.0
66	0x00000000	0.0
67	0x00000000	0.0
68	0x00000000	0.0
69	0x00000000	0.0
70	0x00000000	0.0
71	0x00000000	0.0
72	0x00000000	0.0
73	0x00000000	0.0
74	0x00000000	0.0
75	0x00000000	0.0
76	0x00000000	0.0
77	0x00000000	0.0
78	0x00000000	0.0
79	0x00000000	0.0
80	0x00000000	0.0
81	0x00000000	0.0
82	0x00000000	0.0
83	0x00000000	0.0
84	0x00000000	0.0
85	0x00000000	0.0
86	0x00000000	0.0
87	0x00000000	0.0
88	0x00000000	0.0
89	0x00000000	0.0
90	0x00000000	0.0
91	0x00000000	0.0
92	0x00000000	0.0
93	0x00000000	0.0
94	0x00000000	0.0
95	0x00000000	0.0
96	0x00000000	0.0
97	0x00000000	0.0
98	0x00000000	0.0
99	0x00000000	0.0
100	0x00000000	0.0
101	0x00000000	0.0
102	0x00000000	0.0
103	0x00000000	0.0
104	0x00000000	0.0
105	0x00000000	0.0
106	0x00000000	0.0
107	0x00000000	0.0
108	0x00000000	0.0
109	0x00000000	0.0
110	0x00000000	0.0
111	0x00000000	0.0
112	0x00000000	0.0
113	0x00000000	0.0
114	0x00000000	0.0
115	0x00000000	0.0
116	0x00000000	0.0
117	0x00000000	0.0
118	0x00000000	0.0
119	0x00000000	0.0
120	0x00000000	0.0
121	0x00000000	0.0
122	0x00000000	0.0
123	0x00000000	0.0
124	0x00000000	0.0
125	0x00000000	0.0
126	0x00000000	0.0
127	0x00000000	0.0

network_body._body_endoder.seq_layers.2.weight f4 [128, 128]
0	0x3de5abb1	0.11214388
1	0x3b26c485	0.0025446725
2	0x3e75181f	0.23934983
3	0x3d3716fd	0.044699658
4	0xbdd33a30	-0.10313833
5	0xbdf81a93	-0.12114444
6	0xbd2bde5e	-0.041960113
7	0x3e5fd949	0.21860231
8	0x3c794cbd	0.01521605
9	0x3e076d53	0.13225298
10	0xbdb9ef2e	-0.09078823
11	0xbd6df9b5	-0.058099467
12	0xbdcbdaa9	-0.099538155
13	0xbd982507	-0.074289374
14	0xbdbb9c4e	-0.09160672
15	0x3e1291c1	0.14313413
16	0x3dbe6ffc	0.09298703
17	0x3c5937e6	0.013257956
18	0xbb0d4344	-0.0021554986
19	0x3d3ab82e	0.045585804
20	0xbe0d803b	-0.13818447
21	0xbdcbb389	-0.09946353
22	0x3d059ee4	0.032622233
23	0xb97d0dc2	-0.00024133085
24	0x3ca4dbcf	0.020124344
25	0xbd81d6e1	-0.06339813
26	0xbd970e60	-0.07375789
27	0xbd1ad055	-0.037796337
28	0x3e198d1b	0.14995234
29	0xbbc72a7f	-0.006078064
30	0x3d410561	0.04712427
31	0x3d48b33f	0.048999067
32	0xbd1ba57e	-0.037999623
33	0x3dfd384e	0.12364255
34	0xbd950778	-0.07276815
35	0xbe026030	-0.12732005
36	0x3d59b639	0.053152297
37	0xbe1db477	-0.15400873
38	0x3e047a2f	0.12937234
39	0xbdcf3e78	-0.10119337
40	0x3e1a745d	0.15083452
41	0x3cc1608e	0.023605611
42	0x3dee6201	0.116397865
43	0xbd2fccf3	-0.042920064
44	0xbd0dc4e9	-0.034611616
45	0x3b5ecf85	0.0033998203
46	0xbe09aae3	-0.13444094
47	0xbd577c0e	-0.052608542
48	0xbd0e09da	-0.034677364
49	0x3cea4840	0.028598905
50	0xbc87887d	-0.016544575
51	0x3cae6087	0.021286262
52	0x3d8ddcad	0.06926856
53	0xbc6bce05	-0.014392381
54	0xbda0ff7b	-0.07861229
55	0x3dd1a218	0.10235995
56	0xbcc48960	-0.023991287
57	0xbe242414	-0.16029388
58	0xbd6a918a	-0.057267703
59	0x3c37012c	0.011169713
60	0xbdfc8ea8	-0.12331897
61	0xbd17a800	-0.03702545
62	0x3dd66619	0.10468692
63	0x3d219f2e	0.039458446
64	0x3bb83588	0.005621616
65	0x3d212501	0.03934193
66	0x3da80e63	0.08205869
67	0x3dd09fe2	0.10186745
68	0xbdd141eb	-0.10217651
69	0xbbb716e9	-0.005587448
70	0xbd442177	-0.047883477
71	0x3dad8ad0	0.08473742
72	0x3c612453	0.0137415705
73	0xbe363e82	-0.17797282
74	0xbe1dc7a0	-0.15408182
75	0xbde999ff	-0.114063255
76	0xbe123c01	-0.14280702
77	0xbc1d215d	-0.009590474
78	0x3ded8b7c	0.1159887
79	0x3da12d63	0.07869985
80	0x3ce67d7c	0.028136007
81	0x3de7a640	0.113110065
82	0x3d1d0d06	0.0383425
83	0x3d8d8ef8	0.06912035
84	0x3db92717	0.09040659
85	0xbd74a03d	-0.059723128
86	0x3c83db18	0.016095683
87	0x3dd10d18	0.102075756
88	0xbd850061	-0.06494213
89	0x3da454d9	0.08023996
90	0xbdb421be	-0.08795498
91	0x3df6154d	0.120157816
92	0xbcc3ce65	-0.023902128
93	0x3b91e5cd	0.004452443
94	0xbd8d368a	-0.06895168
95	0x3d0148e6	0.031563662
96	0xbc9766eb	-0.018481692
97	0x3d38e919	0.045144174
98	0xbd98e5ba	-0.07465692
99	0xbd96153a	-0.073282674
100	0xbd97476a	-0.07386668
101	0x3d8023dc	0.0625684
102	0x3cc678c2	0.024227504
103	0x3de192fb	0.110143624
104	0xbda23501	-0.07920266
105	0x3e178dba	0.14800158
106	0x3badf77d	0.005309044
107	0x3cf0d6df	0.029399334
108	0xbd0c562e	-0.034261875
109	0xbd70e9d7	-0.058816757
110	0xbd4e76e3	-0.050406348
111	0xbdab5d37	-0.08367389
112	0x3d8c6cbc	0.06856677
113	0x3deac35a	0.114630416
114	0x3e0707ce	0.13186571
115	0x3d985e98	0.07439917
116	0x3e006fca	0.12542644
117	0x3c099090	0.008396283
118	0x3d9966a3	0.074902795
119	0x3d9455ac	0.07242903
120	0xbd5622fa	-0.05227945
121	0x3c96e5ef	0.018420188
122	0xbdb94c21	-0.090477236
123	0xbdac0f60	-0.0840137
124	0xbda4339b	-0.080176555
125	0xbe1f8e02	-0.15581515
126	0x3dbac739	0.0912003
127	0xbd100a9a	-0.03516636
128	0xbdec06da	-0.11524744
129	0xbae616d0	-0.0017554406
130	0x3d09751e	0.033558957
131	0x3c9c8668	0.019107059
132	0xbdade9ad	-0.08491836
133	0x3da67f9f	0.081298105
134	0xbc529e6d	-0.012855154
135	0x3c9b2a86	0.018941175
136	0xbd902da2	-0.07039954
137	0x3d8986a4	0.06715134
138	0x3da1d8d0	0.07902682
139	0xbd15ab86	-0.03654053
140	0x3e355bc6	0.1771079
141	0xbdb8372a	-0.08994897
142	0xbccf2932	-0.025288198
143	0x3c031d91	0.008002655
144	0x39502e5f	0.000198537
145	0xbd1eb2b8	-0.03874466
146	0x3bea52da	0.00715099
147	0x3d796ceb	0.060894888
148	0xbd8de153	-0.06927743
149	0xbd32550d	-0.043538142
150	0x3d41ad32	0.047284313
151	0xbdc4b547	-0.096048884
152	0xbe564874	-0.20926076
153	0x3de17503	0.11008646
154	0xbd1754e0	-0.036946177
155	0xbe2c4b88	-0.16825688
156	0xbdb6717b	-0.089083634
157	0xbc67141f	-0.014103918
158	0x3e317382	0.17329219
159	0x3d2c21af	0.04202431
160	0xbd3f648b	-0.046726745
161	0x3db55014	0.08853164
162	0xbd661eba	-0.056181647
163	0x3cbeb752	0.023280773
164	0x3da87e27	0.08227187
165	0x3db90aef	0.090352885
166	0xbae2163a	-0.0017249056
167	0xbe6edcd8	-0.23326433
168	0x3cf20596	0.02954368
169	0x3d1906ca	0.03735999
170	0x3da13c0c	0.07872781
171	0xbd870658	-0.06593007
172	0xbb5e1764	-0.0033888454
173	0xbdeb4a36	-0.11488764
174	0x3dbec198	0.09314269
175	0xbd5cfcdf	-0.053952094
176	0x3d35de87	0.04440167
177	0x3cc9c599	0.024630355
178	0x3d08dc1a	0.03341303
179	0xbe54e6da	-0.20791188
180	0xbdad87e8	-0.08473188
181	0xbc607ee0	-0.013702124
182	0x3c1322fa	0.008980507
183	0xbc71660e	-0.014733804
184	0x3d65a2a1	0.056063298
185	0x3cdcb63f	0.02694237
186	0x3e06a8f1	0.13150384
187	0x3bff5d8c	0.007793134
188	0xbda15cce	-0.07879029
189	0xbc7eb631	-0.0155463675
190	0xbd20174d	-0.03908472
191	0x3c83d026	0.016090464
192	0xbdafec23	-0.085899614
193	0xbd9df83f	-0.07713365
194	0xbd581cb9	-0.052761767
195	0x3cac6d1b	0.02104812
196	0xbd98f4f1	-0.07468594
197	0x3ce5a6e9	0.02803369
198	0xbcc0b90b	-0.023525735
199	0xbdbf5ae5	-0.09343509
200	0xbe12998c	-0.14316386
201	0xbd977168	-0.073946774
202	0x3d9d4384	0.07678893
203	0xbc4d71f2	-0.012539374
204	0xbc80c7ce	-0.015720274
205	0x3d14883c	0.036262736
206	0x3cd098da	0.02546351
207	0xbe26afa5	-0.1627794
208	0x3e52cbb4	0.20585519
209	0xbd90fce3	-0.07079484
210	0xbdc389c2	-0.095477596
211	0x3e096325	0.13416727
212	0x3d6fcc71	0.05854458
213	0x3caa140d	0.020761514
214	0xba93c994	-0.0011275285
215	0x3d72b785	0.05925705
216	0x3c5253fb	0.012837405
217	0xbd9e7c53	-0.07738557
218	0xbdc9b4fb	-0.098489724
219	0x3e055f3a	0.13024607
220	0x3d89e6b3	0.067334555
221	0x3d159201	0.036516193
222	0x3cef7484	0.029230364
223	0x3d6ff5fc	0.0585842
224	0x3c6c19b8	0.014410429
225	0xbd0947ba	-0.03351567
226	0xbda0b718	-0.07847422
227	0xbd472d4f	-0.048627194
228	0x3cf8151f	0.030283509
229	0xbdede6ee	-0.11616312
230	0x3c6faae6	0.014628148
231	0xbe00075e	-0.1250281
232	0xbd57ee52	-0.052717514
233	0x3d980892	0.0742351
234	0xbd830179	-0.06396765
235	0xbd552fc8	-0.05204752
236	0xbe28b99a	-0.16477051
237	0x3d7de223	0.06198324
238	0xbded01ad	-0.11572585
239	0xbdc03c36	-0.09386484
240	0x3dfb73b9	0.12277932
241	0x3c955dc0	0.01823318
242	0x3ddca8ea	0.10774405
243	0x3cfce5fc	0.030871384
244	0xbe769cad	-0.24083205
245	0xbd55d6f5	-0.052206952
246	0x3d83ae6e	0.06429754
247	0xbc849d33	-0.01618824
248	0xbb86f217	-0.004118215
249	0x3d5f4c8b	0.054516356
250	0x3dfbe186	0.122988746
251	0x3d12585f	0.03572881
252	0x3cdea18d	0.027176643
253	0xbd9b7f21	-0.07592607
254	0x3dbbcca2	0.0916989
255	0xbd7ce2f5	-0.06173988
