results/ppo/EatFood/EatFood-3549.onnx (onnx, 90049 bytes, 7 tensors)

action_model._continuous_distribution.log_sigma f4 [1, 2]
00000000: 0000 0000 0000 0000
0.0 0.0

action_model._continuous_distribution.mu.bias f4 [2]
00000000: 0000 0000 0000 0000
0.0 0.0

action_model._continuous_distribution.mu.weight f4 [2, 128]
00000000: 7bd5 083d 8c4f 05bc ce89 0f3c 0701 303c
00000010: 538f b7bc 2116 c93a eb22 52bc fc89 10bc
00000020: b1e6 32bd 71a3 b13c e783 01bd 6234 0bbc
00000030: e2d7 e53b 9342 66bb 4730 813b a792 35bc
00000040: f59f 40bc 82d2 67bc 6504 fa3c d77a 2eba
00000050: bfbd 4e3c fdc4 29bc 6a1e e53c 15d4 c83c
00000060: 1366 9d3c a59f 0cbb cfbd e33b 5754 ff3c
00000070: cf49 9ebc d1fd 443c 2d65 a33c daae 683c
00000080: 62f3 7b3c 392c 87bb 8d38 70bb 0b75 12bb
00000090: f7d5 873a e316 903b 7055 513c c754 4c3c
000000a0: a19d 33bc befc a5bb e769 cf3c 9739 b0bc
000000b0: 867a a1bc 4f86 af3b 7264 2c3c 0f7a d6bb
000000c0: ef01 38ba 146a 3abd fd2f 5b3c 5b6e 64bc
000000d0: cd4d e03c f754 dabb d131 a83b 974a 6cbb
000000e0: 07fa 6a3c 917b 413d f838 4fbb 0f48 803c
000000f0: 1fdd ef3b 8d94 bb3c cf64 b1bb 9345 8abb
00000100: a19d 8abc 3214 673c 43d8 0cbd 4366 4cbc
00000110: f8e4 bcbb a10e 043c 8c9c 1dbd af3c e539
00000120: 8f68 c3bc 33cf 973b 07fa db3b 8968 9dbb
00000130: 9c9f 3b3d 48f1 ce3a a2ba 70bc 85c2 5bba
00000140: 0701 b0bb adfb fa3c ce54 b1bb 678f 9f3b
00000150: 3c1c 093c ca7c 58bc 879f 6c3c cef4 41ba
00000160: 5573 603c 7195 ab3b a7a9 cfbc 9573 393c
00000170: 8d6f 8f3c bf1c 023d 4faf f73a 63b1 24bd
00000180: 1ae7 77bc f298 f13b 3e29 403b 6eac 813c
00000190: 5035 6fb9 4eb6 3bbc 8daf eabc eb27 153d
000001a0: 7b36 f73c 5bed 54bc 2d22 a9bc 98a0 723c
000001b0: 65e9 5dbc 7735 a93b d264 17bc c1c9 ad3b
000001c0: a452 a2bb cf23 fabb 356a c4bc 9305 cf3c
000001d0: 0131 803c bb75 a13a f742 3cba b7b1 0f3a
000001e0: ad76 e1bb 8e26 17bd 29e5 3f3b 1362 62bc
000001f0: 5be2 923c 3b7b 98bc 5b06 2b3d 099c 22bb
00000200: 5fce f23c a3eb a53c 4ea0 4bbc 7ee0 acbc
00000210: d706 e83b 47f5 3cbc 6032 e93a 076b 983b
00000220: 5bb3 0b3a e323 2dbc f372 953c 2ab4 853b
00000230: d3b5 9cbc 9601 40bb bfb1 083b d13b 97bb
00000240: 5d7f 3e3c e8c9 aabc bfd9 a63c e36a ecbc
00000250: 1b14 6abc 9354 7fba f107 203d 670e 6fba
00000260: bcd0 9d3c 363f a73b 9741 49bc ffe3 ef3c
00000270: f3d6 9bbc 2fc3 55bc 8d26 b1bc 8751 b23c
00000280: 5f0d 6e3b cb59 1fbd 19f1 133b 4c59 ccbc
00000290: 07a9 81bc 74ea b73c 23f9 e53b 5344 69bb
000002a0: bc94 a1bc 7bf4 6aba 13b4 aebb 6b69 6cbc
000002b0: 1721 7cbb e2de fa3c ca43 ff3c 99d4 883c
000002c0: e3b8 c63b d43e 9e3c 94cc 953a bf52 c0bc
000002d0: be21 2a3c 46d0 2d3c 52cd 543c 1782 b73c
000002e0: 6e01 453c afe5 42bb 6dd9 e03c b4f9 9fbc
000002f0: db28 62ba 72ab 82bc cfaf ab3c f58a 62bc
00000300: e5ab 6fba c1a5 3c3c 5237 783c 5a1e 133d
00000310: d602 17bc 5260 283c 4b64 0d3a 9a55 efbb
00000320: 090c 40bd 45c2 c6b9 cb70 483c 8f20 42bb
00000330: 2f6e dbbc 1127 183c ab7e 40bc 2a40 973c
00000340: a2d2 88bb 87f7 733b ff4d 1bbc ed50 733b
00000350: ecc4 c1bb 3d94 31bc 036e cb3b c7cb 30bc
00000360: 82b4 953c a2a5 6bbc e765 2ebb a366 d53c
00000370: b71f 0b3d 5d28 24bc 814b 0a3c 59c5 41b8
00000380: b4e0 91bb f046 47bc 1325 03bd 6334 aabc
00000390: ffbd 1d3b 3da8 dc3c 03f8 6d3c d11c 193b
000003a0: 3a78 0abc fa75 923c 3b7b c23c 0a95 bf3c
000003b0: 1aa3 8fbb cb0c 4abc 4704 0e3c 2ebf 323c
000003c0: eb70 2f3d 61b3 843c 57bd 5ebc 538e 26bb
000003d0: 762f 873c ef72 8e3c 272f a2bc 8af4 e13c
000003e0: c5e5 50bc b117 483c 530c 31bb 1907 2b3c
000003f0: 363f 85bc 7bf1 ddbc aa65 2d3c a0e8 853b
0.033406716 -0.008136641 0.008760883 0.010742432 -0.02240721 0.0015341678 -0.012825708 -0.008821961
-0.043677036 0.02168438 -0.031619933 -0.008496376 0.0070142606 -0.0035134896 0.0039425227 -0.011082328
-0.011756887 -0.01414931 0.030519674 -0.0006655878 0.012618481 -0.010361907 0.027968604 0.024515191
0.019213712 -0.002145746 0.006950117 0.031168146 -0.019322304 0.012023405 0.019945705 0.014201844
0.015377851 -0.004125145 -0.00366548 -0.0022347595 0.0010363449 0.0043972596 0.012776718 0.012471384
-0.010962875 -0.0050655296 0.025319053 -0.021511836 -0.019711744 0.005356587 0.010521995 -0.0065453122
-0.0007019331 -0.04551132 0.0133781405 -0.013942326 0.027380848 -0.0066629606 0.0051328917 -0.0036055201
0.014341838 0.047236983 -0.003161965 0.01565936 0.007320061 0.022897983 -0.0054136286 -0.0042197197
-0.016920866 0.014103936 -0.03438593 -0.012475553 -0.0057646 0.008060128 -0.038479373 0.00043723496
-0.023853568 0.0046328544 0.006713155 -0.0048037213 0.045806512 0.001578846 -0.014692934 -0.00083831727
-0.005371216 0.030637586 -0.005411721 0.00486939 0.008368548 -0.013213346 0.014442331 -0.00073988445
0.013699372 0.0052363207 -0.025349451 0.011319061 0.017509246 0.031765696 0.001889685 -0.04020823
-0.0151307825 0.007372969 0.0029321457 0.015829291 -0.00022812677 -0.011457039 -0.028648162 0.036415022
0.030177345 -0.012996043 -0.02064618 0.014808796 -0.013544415 0.005163844 -0.009240346 0.005303592
-0.004953699 -0.0076336632 -0.023976425 0.025271213 0.015648367 0.0012318412 -0.00071816094 0.00054814987
-0.0068806023 -0.036902003 0.0029280877 -0.013817328 0.0179302 -0.018613448 0.041754108 -0.0024812242
0.029639421 0.020253962 -0.012428356 -0.02110314 0.0070808935 -0.011533088 0.0017791502 0.0046514305
0.0005329155 -0.010567638 0.018243289 0.004080315 -0.01912967 -0.002929782 0.0020857898 -0.004615285
0.011627045 -0.02084823 0.020367501 -0.028859561 -0.01428702 -0.00097400806 0.039070074 -0.00091192726
0.019264571 0.005103971 -0.012283704 0.029283522 -0.019023394 -0.013047024 -0.021624828 0.02176739
0.0036323888 -0.038903993 0.0022574125 -0.024944924 -0.015827669 0.022450663 0.007018225 -0.0035593703
-0.019724242 -0.0008962822 -0.005331525 -0.0144294305 -0.0038471872 0.030623857 0.031160254 0.016702937
0.0060645207 0.019317068 0.0011428767 -0.023476956 0.010384021 0.010608738 0.012988405 0.022400899
0.012024267 -0.0029738953 0.027447427 -0.019528247 -0.0008627304 -0.015950892 0.020957856 -0.013827075
-0.0009142741 0.011514128 0.015149908 0.035917617 -0.009216985 0.010276871 0.0005393668 -0.0073039057
-0.046886478 -0.00037910245 0.012233923 -0.0029621457 -0.026785938 0.009286658 -0.01174895 0.018463213
-0.0041755 0.0037226395 -0.009479045 0.0037127093 -0.0059133675 -0.010838565 0.006208183 -0.010790772
0.01827455 -0.014382752 -0.0026611031 0.026049918 0.033965793 -0.010019389 0.008440853 -4.619858e-05
-0.0044518355 -0.012162909 -0.03201778 -0.020776933 0.0024069545 0.026935691 0.014524463 0.0023363123
-0.008451516 0.017878521 0.023740401 0.023386497 -0.004383457 -0.012332152 0.008668012 0.010909839
0.042832296 0.016198816 -0.013594947 -0.0025414422 0.016502123 0.017388789 -0.019797875 0.027582426
-0.012750094 0.01221268 -0.0027015402 0.010438704 -0.016265493 -0.027092686 0.010583321 0.004086569

network_body._body_endoder.seq_layers.0.bias f4 [128]
00000000: 0000 0000 0000 0000 0000 0000 0000 0000
00000010: 0000 0000 0000 0000 0000 0000 0000 0000
00000020: 0000 0000 0000 0000 0000 0000 0000 0000
00000030: 0000 0000 0000 0000 0000 0000 0000 0000
00000040: 0000 0000 0000 0000 0000 0000 0000 0000
00000050: 0000 0000 0000 0000 0000 0000 0000 0000
00000060: 0000 0000 0000 0000 0000 0000 0000 0000
00000070: 0000 0000 0000 0000 0000 0000 0000 0000
00000080: 0000 0000 0000 0000 0000 0000 0000 0000
00000090: 0000 0000 0000 0000 0000 0000 0000 0000
000000a0: 0000 0000 0000 0000 0000 0000 0000 0000
000000b0: 0000 0000 0000 0000 0000 0000 0000 0000
000000c0: 0000 0000 0000 0000 0000 0000 0000 0000
000000d0: 0000 0000 0000 0000 0000 0000 0000 0000
000000e0: 0000 0000 0000 0000 0000 0000 0000 0000
000000f0: 0000 0000 0000 0000 0000 0000 0000 0000
00000100: 0000 0000 0000 0000 0000 0000 0000 0000
00000110: 0000 0000 0000 0000 0000 0000 0000 0000
00000120: 0000 0000 0000 0000 0000 0000 0000 0000
00000130: 0000 0000 0000 0000 0000 0000 0000 0000
00000140: 0000 0000 0000 0000 0000 0000 0000 0000
00000150: 0000 0000 0000 0000 0000 0000 0000 0000
00000160: 0000 0000 0000 0000 0000 0000 0000 0000
00000170: 0000 0000 0000 0000 0000 0000 0000 0000
00000180: 0000 0000 0000 0000 0000 0000 0000 0000
00000190: 0000 0000 0000 0000 0000 0000 0000 0000
000001a0: 0000 0000 0000 0000 0000 0000 0000 0000
000001b0: 0000 0000 0000 0000 0000 0000 0000 0000
000001c0: 0000 0000 0000 0000 0000 0000 0000 0000
000001d0: 0000 0000 0000 0000 0000 0000 0000 0000
000001e0: 0000 0000 0000 0000 0000 0000 0000 0000
000001f0: 0000 0000 0000 0000 0000 0000 0000 0000
0.0 0.0 0.0 0.0 0.0 0.0 0.0 0.0
0.0 0.0 0.0 0.0 0.0 0.0 0.0 0.0
0.0 0.0 0.0 0.0 0.0 0.0 0.0 0.0
0.0 0.0 0.0 0.0 0.0 0.0 0.0 0.0
0.0 0.0 0.0 0.0 0.0 0.0 0.0 0.0
0.0 0.0 0.0 0.0 0.0 0.0 0.0 0.0
0.0 0.0 0.0 0.0 0.0 0.0 0.0 0.0
0.0 0.0 0.0 0.0 0.0 0.0 0.0 0.0
0.0 0.0 0.0 0.0 0.0 0.0 0.0 0.0
0.0 0.0 0.0 0.0 0.0 0.0 0.0 0.0
0.0 0.0 0.0 0.0 0.0 0.0 0.0 0.0
0.0 0.0 0.0 0.0 0.0 0.0 0.0 0.0
0.0 0.0 0.0 0.0 0.0 0.0 0.0 0.0
0.0 0.0 0.0 0.0 0.0 0.0 0.0 0.0
0.0 0.0 0.0 0.0 0.0 0.0 0.0 0.0
0.0 0.0 0.0 0.0 0.0 0.0 0.0 0.0

network_body._body_endoder.seq_layers.0.weight f4 [128, 40]
00000000: 115d 84bd 378a 5d3e 6141 c6bd 4835 b3be
00000010: 060b 573d 901e 7cbe d38c 61bd f920 f8bd
00000020: 84d9 0a3d 465f 263e 83e3 903d 577d 37be
00000030: 5943 083e 64f1 bf3d 07b9 9dbb a5b2 db3d
00000040: ed29 1cbe 5336 87be 0cb2 63be a5b0 b83c
00000050: 0084 b8bd 23d4 f6bd 80ce 64bd 0503 d3bd
00000060: 9426 613d 7e2f 653e d70c 353e 55d3 b7bd
00000070: 42f1 1ebe 05b4 053e 486b b2bd eb1b a93e
00000080: 90ed 293c ce76 243e 7011 013e 462f 373e
00000090: b905 573e ccd7 683d 24d2 3b3e d015 35bd
000000a0: eccd 083c 1fe5 93be ea63 023e 42be a2bc
000000b0: 9fe3 c3bd 2f73 653d 9b99 233c 2dc8 913e
000000c0: 5a50 b7bd cd6a f23c e9f0 74bd be5e 54be
000000d0: 32fe e8bd f325 323e 2137 1d3e 0fc4 023e
000000e0: 1c3a 35be 4975 bebc b40d cb3d 636a 9439
000000f0: 08df 8f3d 1bcf 943d fc6c 45ba 5f72 2ebe
00000100: 820c e33d 8880 66be 3107 88be bd17 95bd
00000110: 3f52 5ebe d4f3 ee3d 8254 c7be 16ac d0bd
00000120: ae9c 2f3e 88b8 8cbe be10 0abd 20c1 03be
00000130: 5f88 2a3e 1351 1d3e c6c8 1f3e 4c9d 58bd
00000140: 79b6 5dbe 682a 8b3e c26b 8c3e a6c3 70bd
00000150: 750d b53d 696b ccbd aedc 54bd a51f b73e
00000160: 28f0 74bc de23 f93e 1763 cc3d f449 a63d
00000170: d551 dd3d ddb1 cd3a fedf 853e b836 f9bd
00000180: 68bf ea3c adab c53e a83b e03d ea50 59be
00000190: efa3 0d3e 388b 85bd 18dc ac3a 7ae0 36be
000001a0: df26 2ebd 5dea 0a3e bb9b 24be 7e58 6abe
000001b0: 9aa7 07bd c46b 6f3e 0dfb 1c3e 4011 71be
000001c0: a344 5ebe 2148 363e b450 94be 6046 e5bd
000001d0: 37c1 e6bd de62 01bd 2abe 09be 93a0 8bbe
000001e0: a75c b4bd 17ce 733e 31fb 7ebd 86f9 13be
000001f0: 2c32 353e 24e3 daba 8b2a 8bbe eef4 78bd
00000200: 1f13 673c fb0d 0b3d a127 2fbe 1621 53bd
00000210: 3a13 403d 2a07 7fbb 9001 be3e 77ff afbe
00000220: d378 4e3d e09d d23e 5b01 083e f171 c13d
00000230: e164 9d3e f757 24bc 2ff8 fc3d ee87 4abd
00000240: 0d90 7abe 1bb2 dcbd 2286 31bd e550 5a3c
00000250: 25de 1abf c383 5abe b4ac f7bd 9fa0 323e
00000260: 9135 7d3d 0a0d 98be da7a 9dbc 83ab 033e
00000270: eaf3 663b 7410 4bbe d339 983d c08a 773d
00000280: 2739 70bd 6e1a 6c3e a2e8 97be 4b7c 10be
00000290: 9299 933d 5fe7 4abd 5659 423e db56 b3bd
000002a0: 2219 383b 7f67 84be 02c3 743d 07ac 513e
000002b0: 4691 d23e b801 ad3e d0d2 debd a5dc f1be
000002c0: 6348 833d 2a91 6d3e 20fe f93c 2c00 4ebe
000002d0: b85c ea3d b136 943e 542f c0bb ef0c 523c
000002e0: a553 28be ae3b d03c 8967 89bd b756 253d
000002f0: 7b62 573e 7538 cfbc 8bc4 903d 6bae debd
00000300: 7f00 83bd a4f7 b13e cd96 2cbe 0f86 273e
00000310: ae12 aebb 3d51 e8bd eae4 553d c896 9a3d
00000320: f341 71be 5af3 ef3d 9d8e 733e 55f7 79be
00000330: 9cc3 ccbc 7105 6cbd 58e4 2fbe 532f 37bd
00000340: 522a 83be 6c52 c23c fb7d 5e3c d2e5 ee3d
00000350: d52b 363e b61b 4b3e cfa6 1cbe 0912 5bbe
00000360: a38b f23d 5d70 31be 5536 01be d9b6 893e
00000370: 12ba 063e 3f21 69bd 7f97 debd 7dc6 973d
00000380: 5e29 77bd a6ef f43d ce47 e83c b4c4 6cbe
00000390: aecf 0f3e 709f 743d 1df5 1c3e cc59 943d
000003a0: a3e2 8dbd 40c2 ed3c 3a24 b03d fcbb 9b3c
000003b0: c4d1 683e c29f 7dbe e583 bcbd 5dc1 a8bc
000003c0: 7473 253e 19a7 d4bd 34fa 173e 40f6 533d
000003d0: 06be 5cbe d6c2 8cbe 843b af3c 299e 073e
000003e0: 5fc6 aa3d b971 3cbe 1692 1a3d 0cfa f8bd
000003f0: 3fbe d33d 5f0f 113e 23f5 2bbe 7d2d 47be
-0.064630635 0.21634756 -0.09680439 -0.35001588 0.052500747 -0.24621034 -0.05506594 -0.12115664
0.033898845 0.16247281 0.070746444 -0.17918907 0.13306941 0.093722135 -0.0048133167 0.10727433
-0.15250368 -0.26408634 -0.22235888 0.022545168 -0.09009552 -0.120521806 -0.055860996 -0.1030331
0.05496843 0.22381398 0.1768068 -0.08975855 -0.1552172 0.13056953 -0.087118685 0.33029112
0.010371581 0.16060945 0.12604308 0.17889127 0.20998277 0.056846425 0.18341881 -0.044210255
0.008349877 -0.28885743 0.12733427 -0.019866113 -0.095649 0.05601805 0.009985353 0.28473035
-0.08950873 0.029591942 -0.059800062 -0.20739266 -0.11376609 0.17397289 0.15353061 0.12770103
-0.17697948 -0.023249285 0.09914723 0.00028308024 0.07024962 0.07266065 -0.00075311936 -0.17035817
0.1108637 -0.22509968 -0.26567987 -0.07279918 -0.21711062 0.116676 -0.38931662 -0.10189073
0.17149612 -0.27484536 -0.033707373 -0.1286664 0.16653584 0.15362959 0.15603933 -0.052884385
-0.21651639 0.2718079 0.27425963 -0.058780335 0.08840457 -0.09981424 -0.05196827 0.3576633
-0.014949836 0.48660177 0.099798374 0.08119574 0.10806624 0.0015693266 0.26147455 -0.1216864
0.028655723 0.3860754 0.109488785 -0.21222273 0.13832067 -0.065206945 0.0013188152 -0.17859069
-0.04251754 0.13565965 -0.16075031 -0.2288532 -0.03311882 0.23380953 0.15330143 -0.23541737
-0.2170587 0.17800952 -0.28967822 -0.111950636 -0.112673216 -0.031588428 -0.13451448 -0.27270946
-0.088067345 0.23809086 -0.062251274 -0.14450654 0.1769492 -0.0016699773 -0.27180895 -0.06078046
0.01410368 0.03394888 -0.17104961 -0.051545225 0.046893336 -0.0038914182 0.37110567 -0.34374592
0.050408196 0.41136074 0.13281767 0.09445561 0.30741027 -0.010030738 0.12352025 -0.04944604
-0.24469014 -0.107761584 -0.04334081 0.013324951 -0.60495216 -0.21339326 -0.120934874 0.17444085
0.061818663 -0.29697448 -0.01922362 0.12858395 0.00352406 -0.19830495 0.07432904 0.060435057
-0.058648255 0.23056957 -0.29669672 -0.14109914 0.072070256 -0.04953706 0.18979391 -0.08756801
0.0028091152 -0.2586021 0.059756286 0.2047578 0.4112646 0.33790374 -0.10880053 -0.4723865
0.06410291 0.23199907 0.030516684 -0.20117253 0.11443466 0.28947976 -0.005865017 0.012820466
-0.16438158 0.025419082 -0.06709201 0.0403659 0.21033661 -0.025295475 0.070687376 -0.10873111
-0.06396579 0.34759247 -0.16854401 0.16359733 -0.0053122854 -0.1134362 0.052220263 0.075482905
-0.23560314 0.117163375 0.23784871 -0.24410756 -0.024995618 -0.057622377 -0.1717695 -0.044722866
-0.25618225 0.023720942 0.013579841 0.116649285 0.17790158 0.1983479 -0.15298007 -0.21393599
0.1184304 -0.1732802 -0.12618382 0.26897314 0.13156918 -0.05691647 -0.10868739 0.074109055
-0.060342185 0.11959772 0.028354552 -0.23121911 0.14044067 0.059722364 0.15327878 0.0724369
-0.06927993 0.02902329 0.0860066 0.019010536 0.22736269 -0.24767974 -0.092048444 -0.020600015
0.16157323 -0.10383434 0.14841539 0.051748514 -0.21556863 -0.27492398 0.021390684 0.13243927
0.083386175 -0.18402757 0.037736975 -0.12157068 0.10339021 0.1416602 -0.16792731 -0.19450946

network_body._body_endoder.seq_layers.2.bias f4 [128]
00000000: 0000 0000 0000 0000 0000 0000 0000 0000
00000010: 0000 0000 0000 0000 0000 0000 0000 0000
00000020: 0000 0000 0000 0000 0000 0000 0000 0000
00000030: 0000 0000 0000 0000 0000 0000 0000 0000
00000040: 0000 0000 0000 0000 0000 0000 0000 0000
00000050: 0000 0000 0000 0000 0000 0000 0000 0000
00000060: 0000 0000 0000 0000 0000 0000 0000 0000
00000070: 0000 0000 0000 0000 0000 0000 0000 0000
00000080: 0000 0000 0000 0000 0000 0000 0000 0000
00000090: 0000 0000 0000 0000 0000 0000 0000 0000
000000a0: 0000 0000 0000 0000 0000 0000 0000 0000
000000b0: 0000 0000 0000 0000 0000 0000 0000 0000
000000c0: 0000 0000 0000 0000 0000 0000 0000 0000
000000d0: 0000 0000 0000 0000 0000 0000 0000 0000
000000e0: 0000 0000 0000 0000 0000 0000 0000 0000
000000f0: 0000 0000 0000 0000 0000 0000 0000 0000
00000100: 0000 0000 0000 0000 0000 0000 0000 0000
00000110: 0000 0000 0000 0000 0000 0000 0000 0000
00000120: 0000 0000 0000 0000 0000 0000 0000 0000
00000130: 0000 0000 0000 0000 0000 0000 0000 0000
00000140: 0000 0000 0000 0000 0000 0000 0000 0000
00000150: 0000 0000 0000 0000 0000 0000 0000 0000
00000160: 0000 0000 0000 0000 0000 0000 0000 0000
00000170: 0000 0000 0000 0000 0000 0000 0000 0000
00000180: 0000 0000 0000 0000 0000 0000 0000 0000
00000190: 0000 0000 0000 0000 0000 0000 0000 0000
000001a0: 0000 0000 0000 0000 0000 0000 0000 0000
000001b0: 0000 0000 0000 0000 0000 0000 0000 0000
000001c0: 0000 0000 0000 0000 0000 0000 0000 0000
000001d0: 0000 0000 0000 0000 0000 0000 0000 0000
000001e0: 0000 0000 0000 0000 0000 0000 0000 0000
000001f0: 0000 0000 0000 0000 0000 0000 0000 0000
0.0 0.0 0.0 0.0 0.0 0.0 0.0 0.0
0.0 0.0 0.0 0.0 0.0 0.0 0.0 0.0
0.0 0.0 0.0 0.0 0.0 0.0 0.0 0.0
0.0 0.0 0.0 0.0 0.0 0.0 0.0 0.0
0.0 0.0 0.0 0.0 0.0 0.0 0.0 0.0
0.0 0.0 0.0 0.0 0.0 0.0 0.0 0.0
0.0 0.0 0.0 0.0 0.0 0.0 0.0 0.0
0.0 0.0 0.0 0.0 0.0 0.0 0.0 0.0
0.0 0.0 0.0 0.0 0.0 0.0 0.0 0.0
0.0 0.0 0.0 0.0 0.0 0.0 0.0 0.0
0.0 0.0 0.0 0.0 0.0 0.0 0.0 0.0
0.0 0.0 0.0 0.0 0.0 0.0 0.0 0.0
0.0 0.0 0.0 0.0 0.0 0.0 0.0 0.0
0.0 0.0 0.0 0.0 0.0 0.0 0.0 0.0
0.0 0.0 0.0 0.0 0.0 0.0 0.0 0.0
0.0 0.0 0.0 0.0 0.0 0.0 0.0 0.0

network_body._body_endoder.seq_layers.2.weight f4 [128, 128]
00000000: 5e98 7c3e 3d80 fdbd 95e8 f7bc 308c 803d
00000010: db10 2bbe b5ba 013c f3ea 203e eb88 4c3d
00000020: a513 4fbe b380 31bd c2e0 c7bd f5a8 06be
00000030: d539 82bc 4c51 3fbd c1e5 a3bd 868a c63d
00000040: 9220 1bbd ce00 15be e4d5 18be 87ff 54bc
00000050: d9d0 92bc c379 563d c1a2 45bd bfa4 cdbd
00000060: 8763 64bb 7749 d4bd 07dc b8bc 6524 bdbc
00000070: 8468 f73d a211 44bc 768e bf3d f886 293e
00000080: 796b 88bd 7e86 a6ba 092e 863d afac 993b
00000090: 6426 9cbd 419d c7bb cbaa 0e3d 9116 483d
000000a0: 2f18 573c 1138 97bd 1946 1fbe 20d6 00be
000000b0: 9c8e 883d 10d5 24be 5ade 873c 8f6a 793c
000000c0: 89cd 073e 95e1 5b3c ac0c ffbd 01d0 8a3d
000000d0: 696f a03d 89b3 033e f6b5 d43d e276 4ebd
000000e0: e499 403c c4b2 dcbc 94ac 66be 90b9 12bd
000000f0: 9f50 b23d 801e aa3d f32a ed3d 07fb 07be
00000100: d3db 5a3d e553 3d3d 2ec5 383d ce97 3dbd
00000110: 518a 51bd fe6f 2d3d fb4c e33d 3ddb 4ebd
00000120: c4de 8a3c 60b0 54bd a626 77bc c397 dfbd
00000130: d7af 4dbd 7202 333c 9d9a bebd eda1 1c3e
00000140: 9850 213d 862d 403d 6023 0a3d 9b43 e33d
00000150: 7085 22be 3b73 11bc d0dc a63d 9b19 70bd
00000160: 63dc 7a3d 00ba de3d eab0 a2be 8daf 4c3d
00000170: 6017 22bd 27a2 ae3c 75c8 69bd b19e 533b
00000180: 53d9 b8bd 1d2b adbd 8fd1 bd3d 8893 0a3d
00000190: 308a 0c3e e10c 253d 59a3 54be 48dd 1c3e
000001a0: 5242 54bd 2d44 17bd ebdc 41bc 8f76 fcbc
000001b0: d94c 3abe 094a 4a3d a929 f73c ca1e 92bd
000001c0: 6906 a13d 625c 4c3d 5ee2 d73d b6a7 8e3d
000001d0: 15a5 a93d 81af 7cbd 7c54 753d a2b1 1d3c
000001e0: ebd3 acbd ebf6 bc3d a03b 19be 61d4 e8bd
000001f0: 1080 83bd 5c7a 33bd 1c8d 33bd b4fa dcbd
00000200: 03f3 b73d 4502 df3d 1d10 adbb 35fb 433d
00000210: 1d7c 09bd b4ab db3d 51ab 063d 8da2 87bc
00000220: de13 2fbd 46a0 13be 93f1 8abd b709 d5bd
00000230: a991 a2bb d4c0 21bd 8539 48bd eb0d e93d
00000240: f119 f03d 327a dbbd 790c 27bd b567 45bc
00000250: 5a4c a8bc cfdb 5dbe b47f 94bd eb72 543d
00000260: 2e07 833d 8f41 4fbc a421 9fbd ff77 813d
00000270: 8ed7 983b 58a5 42bd 6529 ebbd 8609 ec3d
00000280: f70b a13d a2cd 153d e994 dabd e0cd a7bd
00000290: 9a6e da3d 38e6 133c cbfa d0bd 213b 6bbd
000002a0: d920 943c 4897 063e 046b a8bd 1360 d1bc
000002b0: 52a1 5ebd 6d2f 5cbc b962 113d 47d9 29bd
000002c0: 74ed a3bd 5e92 9d3d f52d aebb 5d96 123e
000002d0: 4bc5 ad3c 1312 413e c8d8 abbb c601 2c3d
000002e0: 5330 25bd 5a6f 413e 303b 13bc f689 e8bd
000002f0: dd8a 44bd 8c1a 7abd 964c 2dbd 46ad 233d
00000300: 4cca 093c a38a 293d cb91 4ebc b337 c53c
00000310: a836 6abd b782 f0bd 4e9e 02be bb5b 203e
00000320: 66ed 973c c226 87bd 1dc1 1fbd bd37 f0bd
00000330: c325 a93d b516 a43b 63c6 973c cb43 ae3d
00000340: 92e6 a4bd 8f60 4e3c b511 85bd 116c 8c3d
00000350: fb4f 933c dacb 53bd 68dc 313c f138 923d
00000360: bf5e 0bbe d6ca 89be 131a 1e3d a34d efbd
00000370: 0f10 81bc d71c 723d 5076 983d 538d 07be
00000380: 1044 f23c f3a6 34be 668c acbc 8046 aebd
00000390: e9d5 883c 7abd 04bd ad87 76bc 4264 323c
000003a0: 95e5 063e e87d 23be 0b21 69bd 3ed5 5ebd
000003b0: 1510 66bb 19e9 bdbd 7d89 87bc b8d7 cebd
000003c0: 9bbc b7bb 444c 323d 0401 37be c512 c23d
000003d0: 865c 2a3c 3b69 90bd e564 b03d aba6 a3bd
000003e0: 3d84 f4bd d909 55bd 20d6 6dbe 479b 8b3d
000003f0: 7cea 35bd d012 08bd 78c1 1d3e e727 c03d
0.24667498 -0.12377975 -0.030262271 0.06276739 -0.16705649 0.00791805 0.15714626 0.049935263
-0.20222338 -0.043335628 -0.09759666 -0.1315039 -0.015896717 -0.04670839 -0.080028065 0.0969439
-0.03787286 -0.14551088 -0.14925343 -0.013000376 -0.017921852 0.052362215 -0.048250917 -0.100411884
-0.0034849362 -0.10365575 -0.022565855 -0.023088643 0.12080482 -0.011967095 0.09353344 0.16555393
-0.06661124 -0.0012704877 0.06551749 0.004689775 -0.0762451 -0.006091744 0.03483085 0.048849646
0.013128324 -0.07383741 -0.15554084 -0.12581682 0.066678256 -0.16096902 0.016585518 0.015223159
0.13261999 0.013420482 -0.12453589 0.06777955 0.0783375 0.12861456 0.10386269 -0.050406344
0.01175544 -0.02694071 -0.22526771 -0.035821497 0.087067835 0.08306599 0.115804575 -0.13279353
0.053432297 0.046222586 0.04510992 -0.04628735 -0.0511573 0.042343132 0.11098667 -0.05050205
0.016951926 -0.051926017 -0.015084898 -0.10917618 -0.050216522 0.010925876 -0.09306834 0.15296145
0.0393835 0.046918415 0.033725142 0.11096879 -0.15871215 -0.008877571 0.081475854 -0.05861817
0.061245333 0.108753204 -0.317756 0.049972106 -0.039573073 0.021317555 -0.057075936 0.0032290632
-0.09025826 -0.08455489 0.09268486 0.033832103 0.1372459 0.040295485 -0.20765437 0.15318787
-0.05182106 -0.036930252 -0.011832456 -0.030818252 -0.18193378 0.04938701 0.030171232 -0.07134779
0.07862551 0.04989279 0.10541223 0.06965582 0.0828344 -0.06169081 0.059895024 0.0096248705
-0.08438858 0.09226783 -0.14964151 -0.11368633 -0.0642091 -0.043817863 -0.043835744 -0.10790005
0.08981898 0.10889105 -0.005281462 0.04784699 -0.03356563 0.10726109 0.032878224 -0.016557002
-0.042743556 -0.14416608 -0.06784358 -0.104022436 -0.0049612117 -0.039490536 -0.04888298 0.11379608
0.11723698 -0.10716666 -0.04078338 -0.012048651 -0.02054422 -0.21665882 -0.0725092 0.051867407
0.06397854 -0.012649908 -0.07770088 0.063217156 0.004664368 -0.047520965 -0.11482505 0.11525254
0.0786361 0.03657306 -0.106729336 -0.081935644 0.10665627 0.009027056 -0.10204085 -0.057429437
0.01808207 0.13143647 -0.082235366 -0.025558507 -0.054353066 -0.013439042 0.03549454 -0.041466977
-0.08004275 0.07693933 -0.005315537 0.14315172 0.02121224 0.18854551 -0.005244348 0.04199388
-0.04032929 0.18890134 -0.008986279 -0.11354439 -0.047983993 -0.061060473 -0.042309366 0.03996017
0.008410048 0.04139198 -0.012608002 0.024074411 -0.05718103 -0.11743682 -0.12755701 0.15659992
0.018545818 -0.06599189 -0.039002527 -0.11729381 0.082591556 0.0050075897 0.018527215 0.08509024
-0.0805179 0.012596264 -0.06497518 0.068565495 0.017982474 -0.05170808 0.010855772 0.07139767
-0.13610362 -0.26912564 0.038599085 -0.1168473 -0.015754728 0.059109535 0.07444441 -0.13237505
0.02957347 -0.17641811 -0.021063041 -0.085095406 0.016703563 -0.03240726 -0.015046996 0.010888161
0.13173516 -0.15965998 -0.056916278 -0.054402582 -0.00351048 -0.092729755 -0.016545052 -0.10099739
-0.0056072003 0.043529764 -0.17871481 0.09476236 0.010398036 -0.07051321 0.08612994 -0.07990774
-0.11939285 -0.052011345 -0.23226213 0.06816726 -0.044413075 -0.033221066 0.15405834 0.09382611
