results/ppo/EatFood/EatFood-2274.pt (torch, 184335 bytes, 12 tensors)

network_body._body_endoder.seq_layers.0.weight f4 [128, 40]
0	0xbd47e7e3	-0.04880513
1	0x3e2133cd	0.15742417
2	0x3eaf5387	0.34243414
3	0x3e3858ff	0.180027
4	0x3d3a7fd8	0.045532078
5	0xbea9d588	-0.33170724
6	0xbd2ef7ae	-0.042716675
7	0xbe254cb7	-0.16142546
8	0x3d3a9f40	0.04556203
9	0x3e6df260	0.2323699
10	0x3d38d0fd	0.04512118
11	0x3e48a218	0.19593084
12	0xbdd3f47d	-0.10349367
13	0xbe190f79	-0.14947309
14	0x3ecb7dc2	0.39744383
15	0x3c818eb1	0.01581511
16	0xbdbe142b	-0.092811905
17	0x3c4a84af	0.012360736
18	0x3e069eff	0.1314659
19	0xbe0e3629	-0.13887848
20	0xbe714e09	-0.23564924
21	0x3e4ffc49	0.20311083
22	0xbe81f36b	-0.25381026
23	0x3dba72a5	0.09103898
24	0xbdd0bf22	-0.10192706
25	0x3dde683c	0.10859725
26	0xbddf8619	-0.10914249
27	0x3e253e7d	0.16137119
28	0xbe3b66d1	-0.1830094
29	0xbdcb3dfd	-0.09923933
30	0xbd006154	-0.03134282
31	0xbd80cb92	-0.06288828
32	0xbdace16a	-0.08441432
33	0xbea636e8	-0.32463765
34	0xbd08e20f	-0.03341871
35	0x3c92a73f	0.017902015
36	0x3ccd136f	0.02503368
37	0x3dc5fabc	0.096669644
38	0x3da18c4d	0.078880884
39	0x3ec3f9a6	0.38276404
40	0x3dee3796	0.11631696
41	0xbc465f29	-0.012107649
42	0xbde1ae9d	-0.11019633
43	0xbea17390	-0.3153348
44	0xbca598c5	-0.020214448
45	0x3d647e22	0.055784352
46	0x3df8c188	0.12146288
47	0xbbd26eb7	-0.0064218896
48	0xbdb163f0	-0.0866164
49	0x3e20c515	0.15700181
50	0xbe1858c9	-0.14877619
51	0x3d68da08	0.056848556
52	0xbdbfdd5e	-0.09368394
53	0xbe4f2b96	-0.2023147
54	0x3ea235b3	0.31681594
55	0x3d8a3030	0.06747472
56	0xbe02081a	-0.12698403
57	0xbd87fa01	-0.06639481
58	0xbe1e0f1c	-0.15435451
59	0x3da22ab0	0.07918298
60	0x3e8d4c56	0.27597302
61	0xbe9a87bb	-0.3018168
62	0xbe1dc0ad	-0.15405531
63	0xbe0bf8fd	-0.136692
64	0xbc1efbf7	-0.009703628
65	0x3dfa7246	0.12228827
66	0x3d5e3fd8	0.054260105
67	0x3e598e3b	0.21245663
68	0xbe441168	-0.19147265
69	0xbe1b57c7	-0.15170203
70	0x3b2b0c95	0.0026100029
71	0x3d16c819	0.03681192
72	0xbe4aab09	-0.19791807
73	0x3dbe91a5	0.09305123
74	0xbe8ce3d0	-0.27517557
75	0xbe46db03	-0.19419484
76	0xbdcddbea	-0.10051711
77	0xbe8220e6	-0.25415725
78	0x3cc85f22	0.024459425
79	0xbd97cb0a	-0.074117735
80	0xbdb856bd	-0.09000919
81	0xbe6536c5	-0.22384174
82	0xbd9cd105	-0.07657055
83	0xbe4a21d5	-0.19739468
84	0xbc0f7d02	-0.0087578315
85	0x3e8f4b18	0.2798698
86	0xbdd0f1b0	-0.10202348
87	0x3d5770bc	0.052597746
88	0x3de95d24	0.11394718
89	0xbdf940ba	-0.12170549
90	0x3e0b5ba7	0.13609181
91	0x3d3fb0b3	0.046799373
92	0xbdb15aae	-0.08659874
93	0x3e12b95c	0.14328521
94	0xbde29add	-0.11064694
95	0x3ea272ba	0.31728154
96	0xbe0f5cf8	-0.14000309
97	0x3c711bed	0.014716131
98	0x3d2890e4	0.041153803
99	0x3d939710	0.07206547
100	0xbdbdc1bf	-0.0926547
101	0xbe37f6f1	-0.17965294
102	0xbd993ded	-0.074825145
103	0xbd6b617f	-0.057466026
104	0xbcf88247	-0.030335559
105	0x3e079b6a	0.1324288
106	0x3e070fa4	0.1318956
107	0x3ef2a2a6	0.47389716
108	0xbcce2885	-0.025165806
109	0xbe7b832f	-0.24561761
110	0x3e8017b5	0.25018087
111	0xbdbb0b5b	-0.09133025
112	0xbe016c76	-0.12639031
113	0x3df0ed3c	0.11763999
114	0x3df07a5b	0.117420875
115	0x3c76cbdb	0.015063251
116	0xbd4dcb0b	-0.050242465
117	0xbe43bf3d	-0.1911592
118	0xbb96768a	-0.0045917677
119	0x3e8b7287	0.27235815
120	0x3e899306	0.26869982
121	0x3e89c056	0.26904553
122	0xbe2fe5c0	-0.17177486
123	0xbd765991	-0.06014401
124	0xbd576e33	-0.05259533
125	0x3dc3de82	0.09563924
126	0x3d44392d	0.04790609
127	0x3e2c547f	0.16829108
128	0xbb807950	-0.0039207116
129	0x3db247b8	0.087050855
130	0xbe6877c8	-0.22701943
131	0x3ba56737	0.0050477046
132	0x3dd42488	0.1035853
133	0x3d2d293c	0.042275652
134	0xbbdbac30	-0.006703876
135	0xbc83636a	-0.016038615
136	0x3d66421c	0.05621539
137	0x3ea77563	0.32706746
138	0xbdb1044c	-0.08643398
139	0x3d4c4ba4	0.049876824
140	0xbe49b250	-0.19696927
141	0x3d1d28fa	0.038369156
142	0xbd8c3fce	-0.06848107
143	0xbd59dcd7	-0.053189125
144	0xbba9fd33	-0.0051876544
145	0x3dbc4431	0.09192694
146	0x3d5749c9	0.0525606
147	0xbd97ad14	-0.07406059
148	0xbe39306c	-0.18084878
149	0xbd52a161	-0.051423434
150	0xbdd0b7a5	-0.101912774
151	0xbe862ff0	-0.26208448
152	0xbde5b6cc	-0.11216506
153	0xbc8ce7d0	-0.01720038
154	0xbcef1e77	-0.029189331
155	0x3e383be7	0.17991601
156	0x3e94330d	0.289452
157	0xbdda18f6	-0.10649292
158	0xbdbaaaa4	-0.09114578
159	0xbddf4ed8	-0.1090371
160	0x3d965f8b	0.07342442
161	0x3d6f25ea	0.058385767
162	0x3ec10e21	0.37706092
163	0xbe20b5d1	-0.15694357
164	0x3ec1dab1	0.3786216
165	0x3dd43773	0.103621386
166	0x3e0831e6	0.13300285
167	0x3ead1151	0.33802274
168	0x3eb57f8a	0.35448867
169	0xbbadee29	-0.005307932
170	0x3db5929b	0.088658534
171	0xbd91af8f	-0.07113563
172	0x3d99818c	0.07495412
173	0xbd71772d	-0.058951546
174	0xbd3e0696	-0.046393
175	0xbe7930f3	-0.24335079
176	0x3ded473f	0.11585855
177	0xbde09205	-0.10965351
178	0xbd7db351	-0.061938588
179	0xbe7ba8a6	-0.24576053
180	0xbe8d71b7	-0.2762582
181	0x3d1dd062	0.038528807
182	0xbb868113	-0.0041047423
183	0x3e365ac0	0.17808056
184	0x3e49a805	0.19693
185	0x3e0f5877	0.1399859
186	0x3c72d4ee	0.014821274
187	0x3e142cc7	0.14470206
188	0x3db2867f	0.08717059
189	0x3d3bbf5d	0.045836795
190	0x3e14ad9c	0.14519352
191	0x3d7c7044	0.061630502
192	0x3daeeac8	0.08540875
193	0xbdf5a37e	-0.11994074
194	0xbd1fca55	-0.03901132
195	0x3db72023	0.089416765
196	0xbd512e4b	-0.05106954
197	0xbdac1c48	-0.08403832
198	0x3e82efbe	0.25573534
199	0xbea040ba	-0.31299382
200	0xbe4b569e	-0.1985726
201	0xbd5fe460	-0.054661155
202	0x3d9d9573	0.07694521
203	0x3e06ba73	0.13157062
204	0x3d654588	0.055974513
205	0x3dd860b9	0.105653234
206	0x3de3c8fc	0.11122319
207	0xbdcf9309	-0.101354666
208	0xbdcd0198	-0.100100696
209	0xbdb626d8	-0.088941276
210	0xbc325eec	-0.010886889
211	0x3dae7b19	0.08519573
212	0x3e965b9f	0.29366776
213	0x3e9e3239	0.30897692
214	0x3e3f36cb	0.18673246
215	0xbdfd42fd	-0.123662926
216	0xbdafc54e	-0.08582555
217	0xbdf15461	-0.11783672
218	0x3d79f66f	0.061026033
219	0x3ca6826a	0.020325858
220	0x3dafe9ab	0.085894905
221	0xbe519f2e	-0.20470878
222	0xbe21c0aa	-0.15796152
223	0x3cb5e178	0.022202238
224	0xbecddc15	-0.40206972
225	0xbc8a9b7f	-0.01691985
226	0x3ed0e5a5	0.40800205
227	0x3dd1abf6	0.10237877
228	0xbd52b8a4	-0.05144562
229	0xbc3170ce	-0.010830117
230	0xbda468d9	-0.080278106
231	0x3e97313b	0.29529747
232	0xbc603d1c	-0.013686445
233	0x3d1ed3c4	0.038776174
234	0xbd6d5074	-0.057938054
235	0xbcbaa5ee	-0.0227842
236	0x3d8ccdb9	0.06875176
237	0x3da3eb40	0.08003855
238	0x3e902fb4	0.28161395
239	0x3eb60744	0.35552418
240	0xbd1251cc	-0.03572254
241	0xbeb9edfa	-0.36314374
242	0x3d9d23ce	0.07672845
243	0x3eb338c1	0.35004237
244	0x3d8b4150	0.06799567
245	0x3d953188	0.07284838
246	0xbe756411	-0.23963954
247	0xbe0494bc	-0.12947363
248	0xbe056502	-0.13026813
249	0x3e0d32e4	0.13788944
250	0x3ded3560	0.11582446
251	0x3d1411dd	0.03614985
252	0xbd1b6d76	-0.037946187
253	0x3db06b45	0.0861421
254	0xbd2b7b51	-0.04186565
255	0x3d1992da	0.037493564

network_body._body_endoder.seq_layers.0.bias f4 [128]
0	0x00000000	0.0
1	0x00000000	0.0
2	0x00000000	0.0
3	0x00000000	0.0
4	0x00000000	0.0
5	0x00000000	0.0
6	0x00000000	0.0
7	0x00000000	0.0
8	0x00000000	0.0
9	0x00000000	0.0
10	0x00000000	0.0
11	0x00000000	0.0
12	0x00000000	0.0
13	0x00000000	0.0
14	0x00000000	0.0
15	0x00000000	0.0
16	0x00000000	0.0
17	0x00000000	0.0
18	0x00000000	0.0
19	0x00000000	0.0
20	0x00000000	0.0
21	0x00000000	0.0
22	0x00000000	0.0
23	0x00000000	0.0
24	0x00000000	0.0
25	0x00000000	0.0
26	0x00000000	0.0
27	0x00000000	0.0
28	0x00000000	0.0
29	0x00000000	0.0
30	0x00000000	0.0
31	0x00000000	0.0
32	0x00000000	0.0
33	0x00000000	0.0
34	0x00000000	0.0
35	0x00000000	0.0
36	0x00000000	0.0
37	0x00000000	0.0
38	0x00000000	0.0
39	0x00000000	0.0
40	0x00000000	0.0
41	0x00000000	0.0
42	0x00000000	0.0
43	0x00000000	0.0
44	0x00000000	0.0
45	0x00000000	0.0
46	0x00000000	0.0
47	0x00000000	0.0
48	0x00000000	0.0
49	0x00000000	0.0
50	0x00000000	0.0
51	0x00000000	0.0
52	0x00000000	0.0
53	0x00000000	0.0
54	0x00000000	0.0
55	0x00000000	0.0
56	0x00000000	0.0
57	0x00000000	0.0
58	0x00000000	0.0
59	0x00000000	0.0
60	0x00000000	0.0
61	0x00000000	0.0
62	0x00000000	0.0
63	0x00000000	0.0
64	0x00000000	0.0
65	0x00000000	0.0
66	0x00000000	0.0
67	0x00000000	0.0
68	0x00000000	0.0
69	0x00000000	0.0
70	0x00000000	0.0
71	0x00000000	0.0
72	0x00000000	0.0
73	0x00000000	0.0
74	0x00000000	0.0
75	0x00000000	0.0
76	0x00000000	0.0
77	0x00000000	0.0
78	0x00000000	0.0
79	0x00000000	0.0
80	0x00000000	0.0
81	0x00000000	0.0
82	0x00000000	0.0
83	0x00000000	0.0
84	0x00000000	0.0
85	0x00000000	0.0
86	0x00000000	0.0
87	0x00000000	0.0
88	0x00000000	0.0
89	0x00000000	0.0
90	0x00000000	0.0
91	0x00000000	0.0
92	0x00000000	0.0
93	0x00000000	0.0
94	0x00000000	0.0
95	0x00000000	0.0
96	0x00000000	0.0
97	0x00000000	0.0
98	0x00000000	0.0
99	0x00000000	0.0
100	0x00000000	0.0
101	0x00000000	0.0
102	0x00000000	0.0
103	0x00000000	0.0
104	0x00000000	0.0
105	0x00000000	0.0
106	0x00000000	0.0
107	0x00000000	0.0
108	0x00000000	0.0
109	0x00000000	0.0
110	0x00000000	0.0
111	0x00000000	0.0
112	0x00000000	0.0
113	0x00000000	0.0
114	0x00000000	0.0
115	0x00000000	0.0
116	0x00000000	0.0
117	0x00000000	0.0
118	0x00000000	0.0
119	0x00000000	0.0
120	0x00000000	0.0
121	0x00000000	0.0
122	0x00000000	0.0
123	0x00000000	0.0
124	0x00000000	0.0
125	0x00000000	0.0
126	0x00000000	0.0
127	0x00000000	0.0

network_body._body_endoder.seq_layers.2.weight f4 [128, 128]
0	0xbce3b63f	-0.027796863
1	0x391f8e8e	0.00015216527
2	0xbdb9f766	-0.09080391
3	0xbb05131d	-0.0020305582
4	0xbdbba4fa	-0.09162326
5	0x3d497a2a	0.04918877
6	0x3d1facb8	0.038983077
7	0x3c0a99f7	0.00845956
8	0xbc1331c1	-0.00898403
9	0x3dbb41cd	0.0914341
10	0x3c9ec80d	0.019382501
11	0xba05a534	-0.00050981645
12	0x3d247fbb	0.040160876
13	0x3ccfe8d7	0.025379581
14	0xbe26cfc5	-0.16290195
15	0x3dc12dd9	0.09432573
16	0xbba45852	-0.0050154114
17	0xbc64ba07	-0.013960368
18	0xbcd4dfaa	-0.025985558
19	0xbccd9e23	-0.02509982
20	0x3be0b69c	0.0068577062
21	0x3d034c4b	0.03205518
22	0x3d3de277	0.04635855
23	0xbd5159d6	-0.051111065
24	0x3d91db03	0.07121851
25	0x3e1fa936	0.15591893
26	0xbc6e2269	-0.014534571
27	0x3d5002d3	0.050783943
28	0x3b8fe9b1	0.004391872
29	0x3d378557	0.044804897
30	0x3e63187b	0.22177307
31	0x3d2f2f93	0.04276998
32	0x3c5d3b3c	0.013502892
33	0xbd649758	-0.055808395
34	0xbc942eb2	-0.018088672
35	0xbd809bfe	-0.06279753
36	0xbdbcc4ad	-0.092172004
37	0xbdf3ed58	-0.11910504
38	0xbdf15aae	-0.11784874
39	0xbe112067	-0.14172517
40	0x39e4b624	0.00043623254
41	0x3d85aa52	0.06526627
42	0x3d890b71	0.066916354
43	0xbd215661	-0.039389018
44	0xbdebd26c	-0.11514744
45	0xbdb32c0d	-0.087486364
46	0x3b45fbb3	0.003020984
47	0x3da1b8cf	0.078965776
48	0x3d53117e	0.051530354
49	0xbe8aba63	-0.27095327
50	0xba8a7d0f	-0.0010565835
51	0x3d08ebd9	0.033428047
52	0x3de72668	0.11286622
53	0xbe288e2e	-0.16460487
54	0xbd21a6f3	-0.039465856
55	0xbd71d8c4	-0.059044614
56	0x3d13c4df	0.036076423
57	0xbd59ec44	-0.053203836
58	0x3da6568b	0.081219755
59	0xbdbfc20c	-0.093631834
60	0x3d8b96b9	0.068158574
61	0xbdf6f97a	-0.12059303
62	0x3c8f9bad	0.017530287
63	0x3d84a1b3	0.06476154
64	0x3e18d5a0	0.14925241
65	0xbd8b1ca1	-0.0679257
66	0x3c707a23	0.014677557
67	0xbdf374a1	-0.118874796
68	0xbce0c07a	-0.02743553
69	0xbd8082c6	-0.06274943
70	0xbdc010f1	-0.09378231
71	0x3d782805	0.06058504
72	0x3e454bda	0.19267216
73	0xbd88c888	-0.06678873
74	0xbcfc3cb4	-0.030790664
75	0xbdf20bb0	-0.118186355
76	0x3df95994	0.12175289
77	0xbcef7c8a	-0.02923419
78	0x3b9c128d	0.0047629536
79	0xbd8d2168	-0.06891137
80	0x3aa3277f	0.0012447684
81	0x3d2cd8d4	0.04219897
82	0xbde55c0b	-0.111991964
83	0x3d8fd113	0.070222996
84	0x3d1044ed	0.035221983
85	0xbd321239	-0.04347441
86	0xbc994ddd	-0.018713886
87	0xbd55fea2	-0.05224479
88	0x3c438763	0.011934134
89	0x3b9412df	0.004518851
90	0x3db7e97c	0.089800805
91	0x3e10e8fd	0.14151378
92	0x3d0080eb	0.031372946
93	0xbd5f0272	-0.05444569
94	0x3d8e3382	0.06943418
95	0x3d3fb46d	0.046802927
96	0x3e4b70ed	0.19867297
97	0x3dbc48e6	0.09193592
98	0x3c0af045	0.008480136
99	0x3e3f481b	0.1867985
100	0xbd708229	-0.05871788
101	0x3c577322	0.013150008
102	0xbcf6383b	-0.03005611
103	0x3de43aee	0.111440524
104	0xbe0774c6	-0.1322814
105	0x3d906ac4	0.07051614
106	0x3cece11f	0.02891594
107	0xbdc1852c	-0.09449229
108	0x3d7a3eb2	0.061094947
109	0xbcf15606	-0.029459964
110	0xbb27eaf6	-0.0025622225
111	0x3d0c7a2d	0.034296203
112	0xbdc31409	-0.09525306
113	0xbb55534e	-0.0032550874
114	0xbd9c9e7a	-0.076474145
115	0xbdcc4024	-0.09973171
116	0x3da03414	0.07822433
117	0x3d505702	0.050864227
118	0x3c542a64	0.01294956
119	0xbda0d79b	-0.078536235
120	0x3c2dc513	0.010606068
121	0x3dd0d922	0.10197665
122	0x3e536056	0.20642218
123	0xbd019b30	-0.03164214
124	0xbdd175d8	-0.10227555
125	0x3c5350a1	0.012897641
126	0xbda5101a	-0.08059712
127	0xbc84d4f2	-0.016214821
128	0xbdb7dd7b	-0.08977791
129	0x3d8ee55f	0.06977343
130	0x3d833a61	0.06407619
131	0x3d9b30c6	0.07577662
132	0x3d18b519	0.037282083
133	0xbc06feef	-0.008239492
134	0x3e1cb21a	0.15302315
135	0x3d4a975f	0.049460765
136	0xbc4a2673	-0.012338269
137	0xbd49b38e	-0.049243502
138	0x3c25d362	0.010121198
139	0x3d83fd93	0.0644485
140	0xbc0bfa1e	-0.008543519
141	0x3e1832e2	0.1486316
142	0x3e7f8388	0.24952519
143	0xbc9a94c5	-0.018869767
144	0xbb045358	-0.0020191278
145	0x3e15c52b	0.14625995
146	0xbe0bef52	-0.13665512
147	0x3d5dcbc9	0.054149423
148	0x3dc7c906	0.09755139
149	0xbdf27c4d	-0.11840115
150	0xbd00019a	-0.031251527
151	0x3d8faf0e	0.07015811
152	0x3dc6cadb	0.0970666
153	0xbde529d8	-0.11189622
154	0xbdaa1692	-0.08305086
155	0xbd238f2e	-0.03993147
156	0x3ddd5b5f	0.10808443
157	0x3bfdf7e3	0.0077504977
158	0xbcde5cd6	-0.027143877
159	0x3d71fb63	0.05907763
160	0x3d608716	0.054816328
161	0xbdc15e5b	-0.09441825
162	0xbd179835	-0.03701039
163	0xbcceaa83	-0.02522779
164	0x3ca6974a	0.020335812
165	0x3d424810	0.047432005
166	0x3d3086be	0.04309725
167	0x3ce0a311	0.027421506
168	0x3e17f0ba	0.14837924
169	0xbe1d7fa6	-0.15380725
170	0x3eb124da	0.34598428
171	0xbcdac2e9	-0.026704269
172	0x3c1aa3d5	0.009438475
173	0x3cb89bef	0.022535292
174	0xbc428270	-0.011871919
175	0xbc9b440d	-0.018953348
176	0x3d9191f2	0.07107915
177	0xbde8643d	-0.11347244
178	0xbddcf31c	-0.10788557
179	0xbd2d5574	-0.042317823
180	0x3ba7cc75	0.0051208087
181	0xbe4c8cc6	-0.19975576
182	0x3dcc0b6e	0.099631175
183	0x3dcbb026	0.09945707
184	0x3de5c91b	0.112199984
185	0xbd83a160	-0.06427264
186	0xb96a03d2	-0.00022317402
187	0xbbd5bcc6	-0.0065227477
188	0x3def0808	0.11671454
189	0x3e10ed8b	0.14153115
190	0xbdd38de5	-0.103297986
191	0x3db4fa1d	0.08836768
192	0x3cecd134	0.02890835
193	0x3e064d59	0.13115443
194	0x3d549623	0.051900994
195	0xbd0bb182	-0.03410483
196	0x3e6e9b45	0.23301418
197	0xbb07a62f	-0.0020698418
198	0x3d1d1262	0.03834761
199	0xbe3750c4	-0.17901903
200	0xbbe1c6cd	-0.006890154
201	0xbc5b3294	-0.013378758
202	0x3e077da6	0.13231525
203	0x3d3a7946	0.04552581
204	0xbda88fa8	-0.08230525
205	0xbd1e3d84	-0.038632885
206	0x3c5ecbb5	0.013598372
207	0xbd4d3370	-0.050097883
208	0xbddc6bf1	-0.10762776
209	0x3d8843ed	0.06653581
210	0x3d1ee749	0.03879479
211	0xbd328707	-0.043585803
212	0x3c7ea9ea	0.01554344
213	0xbdea3dc1	-0.1143756
214	0x3d0334bb	0.03203271
215	0x3c5cc0b9	0.013473683
216	0xbddf3e79	-0.109005876
217	0xbce4a50e	-0.027910735
218	0x3d22f3e1	0.039783362
219	0xbe168b99	-0.1470169
220	0x3ca5e786	0.020252
221	0x3d3ae241	0.04562593
222	0x3dc1a998	0.094561756
223	0xbd59eeaf	-0.053206142
224	0xbd07da76	-0.033167325
225	0xbe0204b0	-0.126971
226	0x3d0d6074	0.034515813
227	0x3cd90380	0.026490927
228	0x3d1c7336	0.03819581
229	0xbdc031f7	-0.0938453
230	0x3c23f248	0.010006495
231	0x3dac01d6	0.08398788
232	0x3d0a84a7	0.033817913
233	0xbd0134d6	-0.03154453
234	0x3da82d44	0.08211759
235	0xbd0d1e01	-0.034452442
236	0xbd832eaa	-0.06405385
237	0x3d821359	0.063513465
238	0xbc488ac2	-0.012240114
239	0x3de78748	0.113051
240	0x3e0142f8	0.12623203
241	0x3d9834fa	0.074319795
242	0x3cb94c15	0.022619287
243	0xbd49db65	-0.049281497
244	0xbcb4cea2	-0.022071186
245	0x3d9480d0	0.072511315
246	0x3ce8da6f	0.02842447
247	0x3bc567e6	0.0060243485
248	0xbdf5b7f8	-0.1199798
249	0x3d657096	0.056015573
250	0x3d834161	0.064089544
251	0xbd0e00e9	-0.034668837
252	0x3dca4f0f	0.098783605
253	0x3e2ab905	0.16672142
254	0x3c92905f	0.017891107
255	0xbd19ec86	-0.037579082

network_body._body_endoder.seq_layers.2.bias f4 [128]
0	0x00000000	0.0
1	0x00000000	0.0
2	0x00000000	0.0
3	0x00000000	0.0
4	0x00000000	0.0
5	0x00000000	0.0
6	0x00000000	0.0
7	0x00000000	0.0
8	0x00000000	0.0
9	0x00000000	0.0
10	0x00000000	0.0
11	0x00000000	0.0
12	0x00000000	0.0
13	0x00000000	0.0
14	0x00000000	0.0
15	0x00000000	0.0
16	0x00000000	0.0
17	0x00000000	0.0
18	0x00000000	0.0
19	0x00000000	0.0
20	0x00000000	0.0
21	0x00000000	0.0
22	0x00000000	0.0
23	0x00000000	0.0
24	0x00000000	0.0
25	0x00000000	0.0
26	0x00000000	0.0
27	0x00000000	0.0
28	0x00000000	0.0
29	0x00000000	0.0
30	0x00000000	0.0
31	0x00000000	0.0
32	0x00000000	0.0
33	0x00000000	0.0
34	0x00000000	0.0
35	0x00000000	0.0
36	0x00000000	0.0
37	0x00000000	0.0
38	0x00000000	0.0
39	0x00000000	0.0
40	0x00000000	0.0
41	0x00000000	0.0
42	0x00000000	0.0
43	0x00000000	0.0
44	0x00000000	0.0
45	0x00000000	0.0
46	0x00000000	0.0
47	0x00000000	0.0
48	0x00000000	0.0
49	0x00000000	0.0
50	0x00000000	0.0
51	0x00000000	0.0
52	0x00000000	0.0
53	0x00000000	0.0
54	0x00000000	0.0
55	0x00000000	0.0
56	0x00000000	0.0
57	0x00000000	0.0
58	0x00000000	0.0
59	0x00000000	0.0
60	0x00000000	0.0
61	0x00000000	0.0
62	0x00000000	0.0
63	0x00000000	0.0
64	0x00000000	0.0
65	0x00000000	0.0
66	0x00000000	0.0
67	0x00000000	0.0
68	0x00000000	0.0
69	0x00000000	0.0
70	0x00000000	0.0
71	0x00000000	0.0
72	0x00000000	0.0
73	0x00000000	0.0
74	0x00000000	0.0
75	0x00000000	0.0
76	0x00000000	0.0
77	0x00000000	0.0
78	0x00000000	0.0
79	0x00000000	0.0
80	0x00000000	0.0
81	0x00000000	0.0
82	0x00000000	0.0
83	0x00000000	0.0
84	0x00000000	0.0
85	0x00000000	0.0
86	0x00000000	0.0
87	0x00000000	0.0
88	0x00000000	0.0
89	0x00000000	0.0
90	0x00000000	0.0
91	0x00000000	0.0
92	0x00000000	0.0
93	0x00000000	0.0
94	0x00000000	0.0
95	0x00000000	0.0
96	0x00000000	0.0
97	0x00000000	0.0
98	0x00000000	0.0
99	0x00000000	0.0
100	0x00000000	0.0
101	0x00000000	0.0
102	0x00000000	0.0
103	0x00000000	0.0
104	0x00000000	0.0
105	0x00000000	0.0
106	0x00000000	0.0
107	0x00000000	0.0
108	0x00000000	0.0
109	0x00000000	0.0
110	0x00000000	0.0
111	0x00000000	0.0
112	0x00000000	0.0
113	0x00000000	0.0
114	0x00000000	0.0
115	0x00000000	0.0
116	0x00000000	0.0
117	0x00000000	0.0
118	0x00000000	0.0
119	0x00000000	0.0
120	0x00000000	0.0
121	0x00000000	0.0
122	0x00000000	0.0
123	0x00000000	0.0
124	0x00000000	0.0
125	0x00000000	0.0
126	0x00000000	0.0
127	0x00000000	0.0

action_model._continuous_distribution.log_sigma f4 [1, 2]
0	0x00000000	0.0
1	0x00000000	0.0

action_model._continuous_distribution.mu.weight f4 [2, 128]
0	0xbc310676	-0.010804763
1	0xbca27748	-0.019832268
2	0xbb915903	-0.00443566
3	0x3c16f67e	0.009214042
4	0x3ce072cb	0.027398488
5	0xbbdb77f3	-0.0066976487
6	0x3bb3382b	0.005469342
7	0xbc17755f	-0.009244292
8	0x3c39c048	0.011337347
9	0xbba6444f	-0.005074061
10	0x3c4acb06	0.012377506
11	0x3b840451	0.004028835
12	0x3be6b430	0.007040523
13	0xbb0d1846	-0.002152936
14	0x3c50b1d0	0.012737706
15	0xbb8ab93b	-0.004233507
16	0x3c79b648	0.015241213
17	0x3baa1417	0.005190383
18	0x3ce9fe4d	0.028563643
19	0xbcb53fb9	-0.022125112
20	0xbcca9f0e	-0.024734046
21	0x3c01dc69	0.007926085
22	0xbc0cd2c9	-0.008595177
23	0x3c177a96	0.009245535
24	0xbb967ce3	-0.0045925244
25	0x3acd1960	0.0015647821
26	0xbbef3f4a	-0.007301246
27	0x3b93cd68	0.0045105703
28	0xbcf92cd8	-0.030416891
29	0x3cd1382f	0.025539486
30	0x3cda242b	0.026628574
31	0xbbf9273b	-0.0076035536
32	0x3c0059bf	0.007833897
33	0xbbfb433f	-0.0076679285
34	0xbc6c2dbb	-0.0144152
35	0xbc66b1e3	-0.014080497
36	0xbc720482	-0.014771583
37	0xbc7d7e35	-0.015471985
38	0x3c283c80	0.010268331
39	0x3a04e7db	0.00050699495
40	0x3c4f9245	0.012669151
41	0x3ba3e388	0.005001489
42	0xbc3739d5	-0.011183222
43	0xbd49bf1a	-0.049254514
44	0x3c865e71	0.016402455
45	0xbc23af34	-0.009990502
46	0x3bf918b3	0.0076018213
47	0xbb4fe0db	-0.0031719718
48	0x3c7f6c57	0.015589795
49	0x3cd463e0	0.02592653
50	0xbcab96bb	-0.020945897
51	0xbcbd57f7	-0.023113234
52	0x3cf9ca9f	0.030492125
53	0x3ade68e0	0.0016968511
54	0xbc939a0e	-0.018017795
55	0x3ba698c0	0.005084127
56	0x39fe1cb5	0.00048468044
57	0xbc14b910	-0.009077325
58	0xbc5df52d	-0.013547224
59	0x3cc0d763	0.023540204
60	0x3c271805	0.010198598
61	0x3b82b147	0.0039884183
62	0xbcefad68	-0.029257491
63	0x3bad6570	0.0052916333
64	0xbcadef91	-0.021232398
65	0xbcd3d1fa	-0.02585696
66	0xbba9aba8	-0.0051779337
67	0x3d0d7c37	0.03454229
68	0xbc5c3c1a	-0.013442064
69	0x3c6fef0f	0.014644398
70	0xbcd98d93	-0.026556766
71	0xbc154030	-0.009109542
72	0xbb8f846a	-0.0043797987
73	0xbb6fd262	-0.0036593904
74	0xba77b2a8	-0.0009448924
75	0x3cf0c103	0.02938891
76	0xbb8a3708	-0.004217986
77	0xbb46f21d	-0.0030356713
78	0xbc3f5570	-0.011678085
79	0xba6c596f	-0.0009016012
80	0x3ad1b4ed	0.0015999355
81	0xbba0dd95	-0.004909227
82	0xbad04f87	-0.0015892842
83	0x3c4c3a4b	0.01246507
84	0x3c408c54	0.011752207
85	0xbbf71f0a	-0.007541542
86	0xba2a875f	-0.0006505157
87	0x3c7b0708	0.015321501
88	0xbc6fc720	-0.014634877
89	0xb9930dc3	-0.00028048278
90	0x3ca39d41	0.019972445
91	0x3c26f748	0.010190792
92	0x3c6d0563	0.014466616
93	0x3c107b0a	0.008818397
94	0xbce8fc9a	-0.028440762
95	0xbbc4cd71	-0.006005936
96	0xbc062332	-0.008187102
97	0xbd0356d1	-0.032065216
98	0xbc87f3ce	-0.016595747
99	0xbccdac1f	-0.025106488
100	0x3b489fa0	0.0030612722
101	0x3c8ef5fd	0.01745128
102	0x3c1877b2	0.009305881
103	0x3c25808a	0.010101447
104	0xbc8f2d82	-0.017477755
105	0x3d2d7f13	0.042357516
106	0x3c57a60d	0.013162148
107	0x3bd7d4d0	0.0065866485
108	0x3be9d0b8	0.007135477
109	0xbc0d0be5	-0.008608793
110	0xbafe1b0d	-0.0019386724
111	0x3bcd4dba	0.0062653692
112	0x3d02908a	0.031876124
113	0x3c9ba317	0.018998666
114	0xbb0ada57	-0.002118727
115	0x3ba3cade	0.004998549
116	0xbc8cea27	-0.017201496
117	0x3ba68ed6	0.0050829453
118	0xbb49cfeb	-0.0030794095
119	0xbbbfa82d	-0.0058489055
120	0x3b9d7c56	0.0048060818
121	0x3c54f10d	0.012996924
122	0xbb310c02	-0.0027015214
123	0xbb921108	-0.0044575967
124	0xbc6ce4c5	-0.01445884
125	0xbc476728	-0.01217059
126	0xbb06108b	-0.0020456638
127	0x3c936185	0.017990837
128	0xbc9515ff	-0.018198965
129	0x3bbc8757	0.0057534385
130	0xbcd06565	-0.025438974
131	0x3c90cf3a	0.017676938
132	0xbc86164a	-0.01636805
133	0x3d0c95b0	0.03432244
134	0x3bc5b647	0.006033692
135	0x3bc3e2fa	0.0059779854
136	0xbba239e3	-0.0049507483
137	0xbcc7f7d1	-0.02441016
138	0xbc15f687	-0.009153015
139	0x3a5f4272	0.0008516676
140	0xbd2f2f81	-0.042769913
141	0xbb23d75d	-0.0025000193
142	0x3cab50e4	0.020912595
143	0xbc7eb833	-0.015546846
144	0xbcde2bfb	-0.02712058
145	0xbd2c1c4f	-0.042019185
146	0xbc420461	-0.011841864
147	0xbb8f6bca	-0.004376863
148	0x3ca1a926	0.019733977
149	0xbb188944	-0.0023275176
150	0x3d4925fb	0.049108487
151	0x3ca30557	0.019900007
152	0x3c2544bf	0.010087191
153	0x3c33c3a1	0.010971935
154	0xbbdb0993	-0.006684491
155	0xba629adb	-0.0008644291
156	0x3cf09900	0.029369831
157	0x3c8f837b	0.01751875
158	0x3bdc6005	0.0067253136
159	0x3cd2c577	0.025728924
160	0x3c47de2c	0.012198966
161	0xba8549eb	-0.0010169124
162	0xbbf854a5	-0.00757845
163	0x3c8b8958	0.017033264
164	0xbbacf006	-0.0052776365
165	0xbc6e6b3f	-0.014551937
166	0x3d1d9b05	0.038477916
167	0x3b11c563	0.0022242896
168	0xbc44af9a	-0.012004757
169	0xbc713f2a	-0.014724532
170	0xbc2d9f86	-0.010597115
171	0xbbc76d53	-0.0060860305
172	0x3c40f479	0.011777037
173	0x3c1e2a64	0.009653661
174	0x3cbb96d1	0.022899063
175	0x3d1cfde3	0.038328063
176	0xbc8dba2d	-0.01730069
177	0x3c6ec603	0.014573577
178	0x3b83134f	0.0040001045
179	0xbbc5fe67	-0.00604229
180	0x3c88eb16	0.01671366
181	0x3d09673b	0.033545714
182	0x3c076685	0.008264189
183	0xbc7a1f9a	-0.015266323
184	0xbcf4bd95	-0.029875556
185	0xbcf1c28d	-0.029511714
186	0xba17ce2f	-0.00057909166
187	0xbcb036ed	-0.021510566
188	0xbce4da45	-0.02793611
189	0xbc81d8b3	-0.0158504
190	0x3c860b43	0.016362792
191	0x3d200b68	0.039073378
192	0xbc2cb1df	-0.010540455
193	0x3c0dbbea	0.008650759
194	0x3c55d960	0.0130523145
195	0x3bf3cd05	0.0074402117
196	0x3c571a18	0.01312878
197	0xbd27dd3f	-0.04098248
198	0xbca9b97f	-0.020718334
199	0xbbcb9f6d	-0.0062140734
200	0x3c1172e4	0.00887749
201	0x3c039cff	0.008033036
202	0x3c98fa09	0.018673914
203	0xbbd1ec7a	-0.006406364
204	0xbbeafdf8	-0.0071713887
205	0xbc1aeafa	-0.009455437
206	0xbcad1d20	-0.021132052
207	0xbc923ec0	-0.017852187
208	0xbc5ddd90	-0.013541594
209	0xbc1e76b7	-0.0096718585
210	0x3c5cc5d0	0.013474897
211	0x3c338c14	0.01095869
212	0xbcce0745	-0.02514995
213	0x3c8e78b3	0.017391538
214	0x3b505660	0.0031789765
215	0x3b2a14a8	0.0025952253
216	0x3c9924bc	0.018694274
217	0x3d2a8939	0.041634772
218	0x3c1befc5	0.009517615
219	0xbcc774de	-0.024347719
220	0xbc093ce3	-0.008376333
221	0x3bea4a08	0.0071499385
222	0xbc17b372	-0.009259092
223	0xbb0b6f86	-0.002127619
224	0x3cee6c62	0.029104415
225	0x3bde3993	0.0067817657
226	0xbc17a4ae	-0.009255571
227	0xbc3a41e5	-0.01136825
228	0x3accf84a	0.0015637961
229	0xbcbe4d1e	-0.023230132
230	0xbca5c467	-0.020235253
231	0x3d08a043	0.033355962
232	0x3c1c9ed1	0.009559349
233	0xbcd7e297	-0.026353164
234	0x3d15b190	0.03654629
235	0x3ce355fd	0.027750963
236	0x3d1a9dc4	0.037748113
237	0x3a5a9bcb	0.0008339255
238	0xbc2ab1e7	-0.010418392
239	0x3ce74ed3	0.028235829
240	0x3c195514	0.009358663
241	0x3c30387b	0.0107556535
242	0x3c1f619b	0.009727861
243	0x3cce211f	0.025162278
244	0xba96e2a0	-0.0011511631
245	0xbcd8b612	-0.026454005
246	0x3c8c24a1	0.01710731
247	0x3c824b19	0.01590495
248	0x39a0799b	0.0003060818
249	0x3c349518	0.011021875
250	0x3c6c230a	0.014412651
251	0x3b6b10d8	0.0035868194
252	0x3d39f39e	0.045398347
253	0x3c23a695	0.009988447
254	0xbbc2be15	-0.0059430697
255	0x3d4f9f8b	0.05068926

action_model._continuous_distribution.mu.bias f4 [2]
0	0x00000000	0.0
1	0x00000000	0.0

network_body._body_endoder.seq_layers.0.weight f4 [128, 40]
0	0xbea8a828	-0.32940793
1	0xbcdd50f3	-0.027016139
2	0xbd3e3df5	-0.046445806
3	0xbe010999	-0.12601317
4	0x3ebd9182	0.37025076
5	0xbe2b8275	-0.16748984
6	0xbda23149	-0.07919557
7	0xbe27d2a5	-0.16388948
8	0xbdc0f914	-0.09422508
9	0x3d16e8f5	0.03684326
10	0x3d63636d	0.05551474
11	0xbe03fb13	-0.12888746
12	0x3cc0e240	0.023545384
13	0xbe1a16fd	-0.15047832
14	0xbdadb0b9	-0.08480973
15	0xbdbece74	-0.093167216
16	0xbe1a6e5a	-0.15081158
17	0xbdc51474	-0.09623042
18	0xbe14a9b8	-0.14517868
19	0xbe013b23	-0.12620215
20	0x3d1b6625	0.03793921
21	0x3bcbca0c	0.006219154
22	0x3e1c2346	0.15247831
23	0xbdb18f32	-0.086698905
24	0x3e59e40c	0.21278399
25	0xbe8dda53	-0.2770563
26	0xbdb6c1b1	-0.089236625
27	0x3edb4ad3	0.42830524
28	0x3e531773	0.20614414
29	0x3d02d2d8	0.031939358
30	0xbe588fe4	-0.2114864
31	0x3dbb2069	0.09137041
32	0xbe2c2f6a	-0.16814962
33	0xbd67bfaa	-0.05657927
34	0x3e5a627d	0.21326633
35	0x3e3daefa	0.1852378
36	0x3e859389	0.26089123
37	0xbde48328	-0.111578286
38	0x3cf77c72	0.030210707
39	0x3e092192	0.13391712
40	0xbda6bb14	-0.08141151
41	0xb9032d50	-0.00012510014
42	0xbe038fcc	-0.12847823
43	0xbcf69657	-0.030100984
44	0x3d243c5e	0.040096633
45	0xbcb0f67f	-0.021601913
46	0x3cbc9806	0.02302171
47	0xbd3919ef	-0.045190748
48	0x3c830465	0.015993306
49	0xbc8baf35	-0.017051319
50	0xbea8b3eb	-0.32949767
51	0xbde94442	-0.11389972
52	0xbdb7754d	-0.0895792
53	0x3d110df3	0.035413694
54	0xbd0a6566	-0.033788107
55	0x3c788370	0.015168056
56	0xbe018512	-0.12648419
57	0xbdd97dc2	-0.106196895
58	0xbcbd821a	-0.023133326
59	0x3d7c2191	0.06155545
60	0xbda63c69	-0.08116991
61	0xbd1c9633	-0.03822918
62	0xbb8b8c2d	-0.0042586536
63	0x3ea19778	0.31560874
64	0x3cab3a77	0.020901902
65	0xbe86f115	-0.26355806
66	0xbe6c4852	-0.23074463
67	0x3d66637a	0.056247212
68	0x3e18475d	0.14870973
69	0xbd8ec6c7	-0.069715075
70	0xbdb97ab0	-0.09056604
71	0xbe0736db	-0.1320452
72	0xbe175013	-0.1477664
73	0xbd3afdd4	-0.045652226
74	0xbe2d978b	-0.1695234
75	0x3e2f2fd2	0.17108086
76	0x3e8dbb49	0.2768195
77	0x3db2e120	0.087343454
78	0xbd9ec334	-0.07752076
79	0xbebddd35	-0.3708283
80	0xbddadd22	-0.10686709
81	0xbe08936a	-0.13337484
82	0x3d9e412b	0.077272736
83	0xbeb2db1d	-0.34932795
84	0x3def228b	0.116765104
85	0xbda7a4b5	-0.08185712
86	0xbe782247	-0.24231826
87	0xbe9a6465	-0.3015472
88	0x3d1dff5d	0.03857361
89	0xbd9016e7	-0.07035618
90	0x3d884d94	0.06655422
91	0xbdc2c19f	-0.095095865
92	0xbcd97dcf	-0.026549248
93	0x3e167772	0.14694002
94	0x3e2d4231	0.16919781
95	0xbdd81940	-0.10551691
96	0x3c9e1e50	0.019301564
97	0x3e01b7b4	0.12667733
98	0xbe654432	-0.22389296
99	0x3e7f28de	0.24917933
100	0x3cb57f4e	0.02215543
101	0xbaddb07d	-0.001691356
102	0xbe1ea55e	-0.1549277
103	0x3d96a3d3	0.07355466
104	0x3e1d80c4	0.15381151
105	0xbd1b6566	-0.037938498
106	0xbd41a830	-0.047279537
107	0xbda93dbc	-0.08263728
108	0x3c821b8b	0.015882274
109	0xbd4a29b6	-0.049356185
110	0x3bacea8d	0.005276984
111	0x3d78782a	0.060661472
112	0x3da246e3	0.07923677
113	0x3e11e1f3	0.14246349
114	0x3e3d498d	0.18485089
115	0xbcb6a676	-0.022296172
116	0xbe1b4d4a	-0.15166202
117	0x3e4016db	0.18758719
118	0x3df1731e	0.11789535
119	0x3b9f301e	0.004858031
120	0xbd8369ea	-0.06416686
121	0x3df0415b	0.117312156
122	0xbea383a3	-0.31936368
123	0x3d538bff	0.051647183
124	0xbc1baaeb	-0.009501199
125	0xbcf20ef4	-0.029548146
126	0x3d07c0d8	0.033142895
127	0xbdc1db71	-0.09465683
128	0x3e33cdc1	0.17558958
129	0xbe4bbced	-0.19896288
130	0xbc163be6	-0.009169554
131	0xbda7a42d	-0.08185611
132	0xbefa5691	-0.4889417
133	0xbe1fab9e	-0.1559281
134	0xbe64c2a4	-0.22339875
135	0xbd8b40e9	-0.0679949
136	0xbd71dfa5	-0.059051175
137	0x3db87de9	0.090083905
138	0xbd0b5a57	-0.0340217
139	0xbe1426ba	-0.14467898
140	0xba5be352	-0.00083880604
141	0x3d9a665f	0.07539057
142	0xbdc7a63e	-0.09748505
143	0x3e3ae247	0.1825038
144	0xbd9bca18	-0.07606906
145	0xbd8dc2dd	-0.06921933
146	0x3dedda6d	0.11613927
147	0xbe8d400d	-0.2758793
148	0x3e453208	0.19257367
149	0xbe410ae2	-0.18851808
150	0xbd50fbff	-0.051021572
151	0x3e6b81c4	0.2299872
152	0x3ea38187	0.3193476
153	0xbe1dcc6f	-0.15410016
154	0xbd3c1c90	-0.045925677
155	0x3d67a32c	0.056552097
156	0x3eab220c	0.33424413
157	0xbd6fd0c1	-0.058548693
158	0x3d4a0669	0.04932252
159	0xbbeccabd	-0.0072263167
160	0xbbdc5f22	-0.006725208
161	0xbe37049a	-0.17872849
162	0x3dd370fa	0.10324283
163	0xbea4e75b	-0.3220776
164	0x3e30333d	0.17207046
165	0x3e795356	0.24348196
166	0xbe280bd8	-0.16410768
167	0x3e65d59c	0.22444767
168	0xbdea45f3	-0.11439123
169	0xbe43268e	-0.19057676
170	0xbda0b96a	-0.07847865
171	0x3dbe41b9	0.09289879
172	0xbca658e8	-0.020306066
173	0x3d72963e	0.059225313
174	0x3dbb8dc4	0.09157899
175	0xbe0d1848	-0.13778794
176	0xbd5b55f6	-0.053548776
177	0xbe0b2ed8	-0.13592088
178	0x3e6d859e	0.23195502
179	0x3d314d90	0.04328686
180	0xb95129b2	-0.00019947326
181	0xbd887d79	-0.06664557
182	0x3e7857eb	0.24252288
183	0xbea2bdd4	-0.31785452
184	0x3e0ffe56	0.14061865
185	0x3dfea3f9	0.12433619
186	0x3e3ae7a1	0.18252422
187	0x3e5ef2e7	0.21772347
188	0xbb48a450	-0.0030615516
189	0xbbbb8958	-0.0057231598
190	0xbe5377f2	-0.20651224
191	0x3dac6a13	0.084186696
192	0xbc249261	-0.010044665
193	0xbcf9ed93	-0.030508792
194	0x3e2ba97f	0.16763876
195	0xbd47d5fd	-0.04878806
196	0xbd829740	-0.06376505
197	0x3e0a4991	0.13504626
198	0x3dbfe0d4	0.093690544
199	0xbe3eeb37	-0.18644415
200	0x3ce5489f	0.02798873
201	0x3aadd6ed	0.0013262905
202	0xbbecb44d	-0.007223642
203	0xbe831421	-0.25601295
204	0xbe411589	-0.18855871
205	0x3deb33f6	0.1148452
206	0xbd9774b9	-0.0739531
207	0x3e9c576e	0.30535454
208	0xbe1f1bc2	-0.15537933
209	0xbd8b436c	-0.06799969
210	0x3e2cd269	0.1687714
211	0x3d0a8e65	0.033827204
212	0x3e301b05	0.17197807
213	0x3e577f1d	0.21044584
214	0x3df94dc4	0.12173036
215	0x3d1c11ef	0.03810304
216	0x3e426b0c	0.18986148
217	0x3da60958	0.08107251
218	0x3dc715cc	0.09720954
219	0xbe7782e6	-0.24171028
220	0x3d977f52	0.07397331
221	0xbe9139b3	-0.28364334
222	0xbc067508	-0.008206613
223	0x3e36e251	0.1785977
224	0xbd5e0356	-0.0542024
225	0x3c2b2571	0.010445938
226	0x3d0581b7	0.03259441
227	0x3e2fbec5	0.17162617
228	0x3e0d374c	0.13790625
229	0x3e81a586	0.25321597
230	0x3ca9d869	0.020733075
231	0xbe1a54c2	-0.15071395
232	0x3e1435b8	0.14473617
233	0xbd783073	-0.06059308
234	0x3bc6d6b7	0.0060680765
235	0xbe06b474	-0.13154775
236	0x3e18fb34	0.14939576
237	0x3e2f641c	0.17128032
238	0xbdee3f91	-0.11633218
239	0xbc90dbca	-0.017682929
240	0x3cb4c37e	0.022065874
241	0x3e948edc	0.29015243
242	0xbd6adff1	-0.057342473
243	0x3e43c5c3	0.19118409
244	0xbe95c9d4	-0.29255545
245	0xbe598e8c	-0.21245784
246	0xbe1a7735	-0.15084536
247	0xbe5270f9	-0.20550908
248	0xbcf57e57	-0.02996747
249	0xbaf33686	-0.0018555678
250	0x3b9c0b57	0.004762094
251	0x3dbf19f1	0.0933112
252	0x3e2df723	0.16988806
253	0xbe011d16	-0.12608752
254	0x3e06031a	0.1308712
255	0xb8a8ddce	-8.0521786e-05

network_body._body_endoder.seq_layers.0.bias f4 [128]
0	0x00000000	0.0
1	0x00000000	0.0
2	0x00000000	0.0
3	0x00000000	0.0
4	0x00000000	0.0
5	0x00000000	0.0
6	0x00000000	0.0
7	0x00000000	0.0
8	0x00000000	0.0
9	0x00000000	0.0
10	0x00000000	0.0
11	0x00000000	0.0
12	0x00000000	0.0
13	0x00000000	0.0
14	0x00000000	0.0
15	0x00000000	0.0
16	0x00000000	0.0
17	0x00000000	0.0
18	0x00000000	0.0
19	0x00000000	0.0
20	0x00000000	0.0
21	0x00000000	0.0
22	0x00000000	0.0
23	0x00000000	0.0
24	0x00000000	0.0
25	0x00000000	0.0
26	0x00000000	0.0
27	0x00000000	0.0
28	0x00000000	0.0
29	0x00000000	0.0
30	0x00000000	0.0
31	0x00000000	0.0
32	0x00000000	0.0
33	0x00000000	0.0
34	0x00000000	0.0
35	0x00000000	0.0
36	0x00000000	0.0
37	0x00000000	0.0
38	0x00000000	0.0
39	0x00000000	0.0
40	0x00000000	0.0
41	0x00000000	0.0
42	0x00000000	0.0
43	0x00000000	0.0
44	0x00000000	0.0
45	0x00000000	0.0
46	0x00000000	0.0
47	0x00000000	0.0
48	0x00000000	0.0
49	0x00000000	0.0
50	0x00000000	0.0
51	0x00000000	0.0
52	0x00000000	0.0
53	0x00000000	0.0
54	0x00000000	0.0
55	0x00000000	0.0
56	0x00000000	0.0
57	0x00000000	0.0
58	0x00000000	0.0
59	0x00000000	0.0
60	0x00000000	0.0
61	0x00000000	0.0
62	0x00000000	0.0
63	0x00000000	0.0
64	0x00000000	0.0
65	0x00000000	0.0
66	0x00000000	0.0
67	0x00000000	0.0
68	0x00000000	0.0
69	0x00000000	0.0
70	0x00000000	0.0
71	0x00000000	0.0
72	0x00000000	0.0
73	0x00000000	0.0
74	0x00000000	0.0
75	0x00000000	0.0
76	0x00000000	0.0
77	0x00000000	0.0
78	0x00000000	0.0
79	0x00000000	0.0
80	0x00000000	0.0
81	0x00000000	0.0
82	0x00000000	0.0
83	0x00000000	0.0
84	0x00000000	0.0
85	0x00000000	0.0
86	0x00000000	0.0
87	0x00000000	0.0
88	0x00000000	0.0
89	0x00000000	0.0
90	0x00000000	0.0
91	0x00000000	0.0
92	0x00000000	0.0
93	0x00000000	0.0
94	0x00000000	0.0
95	0x00000000	0.0
96	0x00000000	0.0
97	0x00000000	0.0
98	0x00000000	0.0
99	0x00000000	0.0
100	0x00000000	0.0
101	0x00000000	0.0
102	0x00000000	0.0
103	0x00000000	0.0
104	0x00000000	0.0
105	0x00000000	0.0
106	0x00000000	0.0
107	0x00000000	0.0
108	0x00000000	0.0
109	0x00000000	0.0
110	0x00000000	0.0
111	0x00000000	0.0
112	0x00000000	0.0
113	0x00000000	0.0
114	0x00000000	0.0
115	0x00000000	0.0
116	0x00000000	0.0
117	0x00000000	0.0
118	0x00000000	0.0
119	0x00000000	0.0
120	0x00000000	0.0
121	0x00000000	0.0
122	0x00000000	0.0
123	0x00000000	0.0
124	0x00000000	0.0
125	0x00000000	0.0
126	0x00000000	0.0
127	0x00000000	0.0

network_body._body_endoder.seq_layers.2.weight f4 [128, 128]
0	0xbb0b1a56	-0.0021225414
1	0x3acec67b	0.0015775705
2	0xbdeb1ef2	-0.11480512
3	0xbb1e4c49	-0.0024154356
4	0xbdad142b	-0.08451112
5	0x3e7fa72e	0.24966118
6	0xbd3788fc	-0.044808373
7	0xbdf6fd5f	-0.120600455
8	0x3d981e92	0.07427706
9	0x3cfe92d6	0.031075876
10	0x3d844301	0.064580925
11	0x3db2ff0d	0.08740053
12	0xbde9bbc0	-0.114127636
13	0x3d836fe2	0.06417824
14	0xbe0addfa	-0.1356124
15	0xbd0dc8d1	-0.03461534
16	0x3ce8517b	0.028359165
17	0xbbb91c45	-0.005649122
18	0xbe0a3dc1	-0.1350012
19	0x3e19d7bf	0.15023707
20	0x3e397d38	0.18114173
21	0xbd2ebce9	-0.042660628
22	0xbbb50300	-0.0055240393
23	0xbda54eca	-0.080716684
24	0xbdc4f62f	-0.09617268
25	0xbca0a0b8	-0.019607887
26	0xbdd03faa	-0.10168393
27	0xbd7abe8b	-0.061216872
28	0x3d11dbf8	0.03561017
29	0x3d239f04	0.03994657
30	0xbd445a66	-0.047937773
31	0xbd407bb9	-0.04699299
32	0x3c8d0779	0.017215477
33	0x3db03e7e	0.086056694
34	0x3d4bcbf9	0.04975507
35	0xbe3aefb3	-0.182555
36	0xbb45e6ab	-0.0030197303
37	0xbe75a7a9	-0.23989739
38	0x3e0a651f	0.13515137
39	0xbdf72119	-0.1206686
40	0x3c3319bc	0.0109314285
41	0x3da7d020	0.081939936
42	0xbbb568ec	-0.0055361893
43	0x3c9c5939	0.019085513
44	0x3c1256e7	0.008931852
45	0xbde8ec33	-0.113731764
46	0xbd68351d	-0.056691278
47	0x3d6a399b	0.057183843
48	0xbddcc855	-0.10780398
49	0xbe4c64bf	-0.19960307
50	0x3ba1a25f	0.004932686
51	0x3ba52d25	0.005040782
52	0x3dca0d6f	0.098658435
53	0xbd495f29	-0.049163017
54	0x3da221be	0.07916592
55	0x3b88260d	0.0041549266
56	0xbc5fa59d	-0.013650325
57	0x3dc8df2b	0.09808191
58	0x3beb9a75	0.0071900436
59	0xbdbeb2e6	-0.09311466
60	0xbd890f4e	-0.06692372
61	0xbc8fbd1f	-0.017546235
62	0xbd82ad6d	-0.063807346
63	0x3e2c7ead	0.16845198
64	0xbccf5ac9	-0.025311844
65	0x3c4b126a	0.012394527
66	0xbc90ad6f	-0.017660825
67	0xbc6791f1	-0.014133916
68	0x3cac8ff8	0.021064743
69	0x3e0430dd	0.12909265
70	0xbdbdc5b3	-0.09266224
71	0x3ca32e76	0.019919615
72	0xbe8f71fd	-0.28016654
73	0x3db2c48f	0.08728897
74	0x3df6b25d	0.12045739
75	0xbe47c8a1	-0.19510128
76	0x3cb46a70	0.02202341
77	0x3e1b0100	0.151371
78	0xbc3a1fc7	-0.011360115
79	0xbcbbe160	-0.022934616
80	0x3cf0fa34	0.029416181
81	0x3d6478a0	0.0557791
82	0x3dac8781	0.08424283
83	0xbd55f45a	-0.052234985
84	0xbd9258b7	-0.07145827
85	0x3dcc477f	0.09974574
86	0x3e3e002f	0.18554758
87	0xbdaeb23c	-0.08530089
88	0x3de33330	0.110937476
89	0xb8bb55e9	-8.932857e-05
90	0xbe2b731a	-0.16743127
91	0x3ca0babd	0.019620294
92	0x3ddbd449	0.107338496
93	0x3dc791fd	0.09744642
94	0x3ca81d19	0.020521687
95	0x3e2e0412	0.1699374
96	0x3dfec5e9	0.12440092
97	0xbd2098a6	-0.039208077
98	0x3d034f7e	0.03205823
99	0x3c298d70	0.010348663
100	0x3decf374	0.115698725
101	0x3d80a463	0.06281354
102	0x3e358b3c	0.17728895
103	0x3e17d966	0.14829025
104	0xbc1fddb1	-0.009757445
105	0x3d97b811	0.07408155
106	0x3d6a4e00	0.057203293
107	0x3d93cfc9	0.07217366
108	0x3cb66266	0.022263717
109	0xbc4273a9	-0.011868396
110	0x3d3e5d75	0.046475846
111	0xbdda8971	-0.10670746
112	0xbd227f2a	-0.039672054
113	0xbc2d7a7c	-0.010588285
114	0x3d3885a2	0.045049317
115	0x3d431f52	0.04763729
116	0x3d6334f2	0.055470414
117	0x3dc96a22	0.09834696
118	0xbdb2c0c2	-0.08728172
119	0xbd31e5e8	-0.043432146
120	0xbd42510a	-0.047440566
121	0xbae1bfc4	-0.0017223288
122	0xbce99d1e	-0.028517302
123	0x3d4a9f37	0.049468245
124	0x3d8e4207	0.069461875
125	0x3de1fb81	0.11034299
126	0xbd68a96a	-0.05680219
127	0xbda90140	-0.082521915
128	0x3d328ada	0.04358945
129	0x3c8fd8ad	0.017559374
130	0xbc1b54fe	-0.009480713
131	0xbd96ff1a	-0.073728755
132	0xbb4248a4	-0.0029645348
133	0x3e0b61ac	0.13611478
134	0xbdcad02f	-0.09902989
135	0xbd8d9e1b	-0.06914922
136	0xbddb0f81	-0.106963165
137	0x3d1e641f	0.0386697
138	0xbd4eb9f1	-0.050470296
139	0x3df8cf88	0.121489584
140	0x3d7bc24a	0.061464585
141	0x3d8a6a03	0.067585014
142	0xbd7777a7	-0.060416844
143	0xbc8ccccc	-0.017187499
144	0xbd9954bc	-0.07486865
145	0xbd0b569a	-0.034018137
146	0x3b7d9ce7	0.0038698257
147	0x3d616618	0.055029005
148	0x3e052fc8	0.13006508
149	0xbd02c357	-0.03192457
150	0x3e09a19d	0.13440557
151	0x3d4132e4	0.047167674
152	0xbce03363	-0.027368253
153	0xbc8d2318	-0.017228648
154	0x3e199953	0.14999895
155	0xbd9977e5	-0.07493571
156	0xbc6f0545	-0.014588659
157	0x3d6ff6fd	0.058585156
158	0xbda97024	-0.08273342
159	0x3d94cb8f	0.07265388
160	0x3d102e31	0.0352003
161	0x3df7ef83	0.1210623
162	0xbda47684	-0.080304176
163	0xbe067e78	-0.13134181
164	0xbe3cd430	-0.18440318
165	0x3d89ad1a	0.0672247
166	0x3e4a983b	0.19784634
167	0xbd57c46d	-0.05267756
168	0x3df739e2	0.12071587
169	0x3e57a7a0	0.21060038
170	0xbdc8d21b	-0.098056994
171	0x3dc1fb42	0.09471752
172	0x3e12fb67	0.14353715
173	0x3a02a96e	0.00049843534
174	0x3d068a76	0.03284689
175	0xbe4468ee	-0.19180652
176	0xbd2bc494	-0.04193552
177	0x3d83387b	0.06407257
178	0x3d89347d	0.066994645
179	0xbda929cb	-0.082599245
180	0x3d2e1f4f	0.042510327
181	0x3d7ddd17	0.061978426
182	0x3dea9200	0.114536285
183	0x3cb63df6	0.022246342
184	0x3c14fbad	0.009093207
185	0xbdd8d69f	-0.10587811
186	0x3da406a3	0.08009078
187	0x3e25873b	0.16164868
188	0x3e189296	0.14899668
189	0x3bc8986a	0.006121685
190	0x3cd91610	0.026499778
191	0x3d09699a	0.033547975
192	0x3b3a909b	0.002846754
193	0x3e004b10	0.12528634
194	0xbe27d7c5	-0.16390903
195	0x3dc9e99b	0.0985901
196	0xbd2a8609	-0.041631732
197	0xbd62b319	-0.055346582
198	0x3d21a29e	0.039461724
199	0x3d9a23b9	0.07526345
200	0xbdae96bb	-0.08524843
201	0xbd77fc0f	-0.060543116
202	0xbd821f2e	-0.06353603
203	0x3d793e43	0.060850393
204	0x3d5dff7a	0.05419872
205	0x3d7f8df4	0.062391236
206	0xbbec1640	-0.007204801
207	0xbe1469ca	-0.1449348
208	0xbdea3883	-0.1143656
209	0xbd4dab87	-0.05021241
210	0x3d5b679d	0.05356561
211	0xbdd74de4	-0.10512903
212	0x3d63a206	0.05557444
213	0xbe0565f3	-0.13027172
214	0xbd5d2eaa	-0.05399958
215	0x3cf084ef	0.029360263
216	0xbdcb97a8	-0.099410355
217	0xbd94a05a	-0.07257147
218	0xbc14e0b9	-0.009086781
219	0xbd51705e	-0.051132552
220	0x3c00787a	0.007841224
221	0x3e062847	0.13101302
222	0xbdc2b6fa	-0.09507556
223	0x3d0cddcd	0.034391213
224	0xbe1b433b	-0.15162365
225	0xbdc7a264	-0.097477704
226	0x3cd55e05	0.026045809
227	0x3e04de1e	0.12975356
228	0xbd4b292e	-0.04959982
229	0xbd335aef	-0.043787893
230	0xbc3fb9a7	-0.011701978
231	0xbd138c70	-0.036022604
232	0xbd992dc3	-0.074794315
233	0xbda56b61	-0.080771215
234	0x3cf10bb3	0.029424524
235	0x3d0c00ab	0.034180325
236	0x3e655764	0.22396618
237	0xbde4a051	-0.111633904
238	0xbc9a18a4	-0.018810578
239	0xbdf8d8ca	-0.12150724
240	0xbd86dd37	-0.06585162
241	0xbc76e7a4	-0.015069876
242	0xbd823863	-0.06358411
243	0xbd2ac521	-0.041691903
244	0x3daa4842	0.08314563
245	0x3d4be4cb	0.04977874
246	0xbdb445d1	-0.08802379
247	0x3d999969	0.07499964
248	0x3d81d1d2	0.06338848
249	0x3db428b2	0.087968245
250	0xbe301c02	-0.17198184
251	0xbc9ecab9	-0.019383775
252	0x3d85365a	0.06504507
253	0xbda06c48	-0.07833153
254	0x3de746d7	0.112928085
255	0x3b963cd7	0.0045848894

network_body._body_endoder.seq_layers.2.bias f4 [128]
0	0x00000000	0.0
1	0x00000000	0.0
2	0x00000000	0.0
3	0x00000000	0.0
4	0x00000000	0.0
5	0x00000000	0.0
6	0x00000000	0.0
7	0x00000000	0.0
8	0x00000000	0.0
9	0x00000000	0.0
10	0x00000000	0.0
11	0x00000000	0.0
12	0x00000000	0.0
13	0x00000000	0.0
14	0x00000000	0.0
15	0x00000000	0.0
16	0x00000000	0.0
17	0x00000000	0.0
18	0x00000000	0.0
19	0x00000000	0.0
20	0x00000000	0.0
21	0x00000000	0.0
22	0x00000000	0.0
23	0x00000000	0.0
24	0x00000000	0.0
25	0x00000000	0.0
26	0x00000000	0.0
27	0x00000000	0.0
28	0x00000000	0.0
29	0x00000000	0.0
30	0x00000000	0.0
31	0x00000000	0.0
32	0x00000000	0.0
33	0x00000000	0.0
34	0x00000000	0.0
35	0x00000000	0.0
36	0x00000000	0.0
37	0x00000000	0.0
38	0x00000000	0.0
39	0x00000000	0.0
40	0x00000000	0.0
41	0x00000000	0.0
42	0x00000000	0.0
43	0x00000000	0.0
44	0x00000000	0.0
45	0x00000000	0.0
46	0x00000000	0.0
47	0x00000000	0.0
48	0x00000000	0.0
49	0x00000000	0.0
50	0x00000000	0.0
51	0x00000000	0.0
52	0x00000000	0.0
53	0x00000000	0.0
54	0x00000000	0.0
55	0x00000000	0.0
56	0x00000000	0.0
57	0x00000000	0.0
58	0x00000000	0.0
59	0x00000000	0.0
60	0x00000000	0.0
61	0x00000000	0.0
62	0x00000000	0.0
63	0x00000000	0.0
64	0x00000000	0.0
65	0x00000000	0.0
66	0x00000000	0.0
67	0x00000000	0.0
68	0x00000000	0.0
69	0x00000000	0.0
70	0x00000000	0.0
71	0x00000000	0.0
72	0x00000000	0.0
73	0x00000000	0.0
74	0x00000000	0.0
75	0x00000000	0.0
76	0x00000000	0.0
77	0x00000000	0.0
78	0x00000000	0.0
79	0x00000000	0.0
80	0x00000000	0.0
81	0x00000000	0.0
82	0x00000000	0.0
83	0x00000000	0.0
84	0x00000000	0.0
85	0x00000000	0.0
86	0x00000000	0.0
87	0x00000000	0.0
88	0x00000000	0.0
89	0x00000000	0.0
90	0x00000000	0.0
91	0x00000000	0.0
92	0x00000000	0.0
93	0x00000000	0.0
94	0x00000000	0.0
95	0x00000000	0.0
96	0x00000000	0.0
97	0x00000000	0.0
98	0x00000000	0.0
99	0x00000000	0.0
100	0x00000000	0.0
101	0x00000000	0.0
102	0x00000000	0.0
103	0x00000000	0.0
104	0x00000000	0.0
105	0x00000000	0.0
106	0x00000000	0.0
107	0x00000000	0.0
108	0x00000000	0.0
109	0x00000000	0.0
110	0x00000000	0.0
111	0x00000000	0.0
112	0x00000000	0.0
113	0x00000000	0.0
114	0x00000000	0.0
115	0x00000000	0.0
116	0x00000000	0.0
117	0x00000000	0.0
118	0x00000000	0.0
119	0x00000000	0.0
120	0x00000000	0.0
121	0x00000000	0.0
122	0x00000000	0.0
123	0x00000000	0.0
124	0x00000000	0.0
125	0x00000000	0.0
126	0x00000000	0.0
127	0x00000000	0.0

value_heads.value_heads.extrinsic.weight f4 [1, 128]
0	0xbe30af53	-0.17254381
1	0x3cdbc459	0.026827024
2	0xbdaea987	-0.085284285
3	0x3daf4e51	0.085598595
4	0x3e2443c7	0.1604148
5	0x3e2bed6b	0.16789787
6	0xbdfe7639	-0.12424893
7	0xbd27d81d	-0.040977586
8	0x3e03b2a5	0.12861116
9	0x3e59cd9e	0.21269843
10	0x3b20d601	0.0024541619
11	0x3d935669	0.07194216
12	0x3dba62c3	0.091008686
13	0x3e58d8f2	0.21176508
14	0x3db5fac0	0.088857174
15	0x3d2faf76	0.042891942
16	0xbdba92d4	-0.091100365
17	0x3dd7021c	0.10498449
18	0x3dd5dc24	0.10442379
19	0x3d80bc15	0.06285874
20	0x3dc8283f	0.09773301
21	0xbda67f3c	-0.08129737
22	0x3e08b314	0.13349563
23	0x3d05636f	0.03256553
24	0x3e265114	0.16241866
25	0x3e056986	0.13028535
26	0xbd293b0b	-0.041316073
27	0x3e3cffd0	0.1845696
28	0xbe1f1aa2	-0.15537503
29	0xbc55003b	-0.013000543
30	0xbe1f94fd	-0.15584178
31	0x3e27c873	0.16385059
32	0xbc93ebbe	-0.018056747
33	0xbe274024	-0.16333061
34	0xbe2a1e68	-0.16613162
35	0x3e1fe2e5	0.15613897
36	0xbdddde98	-0.10833472
37	0xbdd69710	-0.10478032
38	0xbdf134fc	-0.11777684
39	0xbe4d7ec9	-0.20067896
40	0x3d98f10b	0.0746785
41	0x3c8b60a0	0.017013848
42	0x3e0a29af	0.13492464
43	0x3d13b062	0.036056884
44	0xbc165d11	-0.009177462
45	0xbe1ee5a2	-0.15517285
46	0xbe2d09d8	-0.16898286
47	0xbb8db4ac	-0.0043245163
48	0xbdce8793	-0.100844525
49	0x3dbfffd6	0.09374969
50	0xbd77aa4d	-0.060465146
51	0x3d7b6aee	0.061381273
52	0x3ca31f97	0.019912524
53	0x3ca5b9ba	0.020230163
54	0xbc0c8f87	-0.008579141
55	0x3d976f49	0.07394273
56	0xbc85b486	-0.016321432
57	0x3e501b2b	0.20322864
58	0x3d2ef2ff	0.042712208
59	0x3db7d13a	0.08975454
60	0xbb8fecd7	-0.004392247
61	0xbd7ede67	-0.06222382
62	0xbcd391ae	-0.025826301
63	0x3dae25c0	0.08503294
64	0xbdc4ae10	-0.09603512
65	0xbcf8f246	-0.030388962
66	0xbe5a848e	-0.21339628
67	0x3cd692e1	0.026193084
68	0x3e28ed26	0.16496715
69	0x3b7bb3b1	0.0038406665
70	0x3d037c53	0.032100987
71	0x3c78896f	0.0151694855
72	0x3dd6079d	0.10450671
73	0x3e56c231	0.20972516
74	0xbe0aaa65	-0.13541563
75	0x3d2fab8d	0.042888213
76	0xbd93cc34	-0.07216683
77	0x3d9eb951	0.0775019
78	0xbe4890d4	-0.19586498
79	0xbe58480a	-0.2112123
80	0x3deac4c6	0.11463313
81	0xbcfc9f77	-0.030837758
82	0x3e2a6da7	0.16643392
83	0x3c594bcd	0.013262701
84	0x3df1cf39	0.11807103
85	0xbe4c2ad1	-0.19938208
86	0x3d82a29c	0.063786715
87	0xbe486f28	-0.19573653
88	0x3dbb9fd8	0.09161347
89	0xbc9c1fbc	-0.0190581
90	0x3d4c8397	0.04993018
91	0x3c929f06	0.017898094
92	0x3d83ac72	0.06429376
93	0x3d2b4f89	0.041823898
94	0xbcfd5fae	-0.030929413
95	0xbe0d688a	-0.1380941
96	0xbda5195f	-0.0806148
97	0x3df73aca	0.1207176
98	0x3c83efec	0.016105615
99	0x3e230c5b	0.15922682
100	0xbe3735c9	-0.17891611
101	0xbe3de1cd	-0.18543167
102	0xbe3639d9	-0.17795505
103	0x3d69aa74	0.057047322
104	0x3e4958d6	0.19662794
105	0xbe0b0ebb	-0.13579838
106	0x3e516856	0.20449957
107	0xbd1f55cc	-0.03890018
108	0xbe05fef1	-0.13085534
109	0x3e289d98	0.16466367
110	0xbcdd8396	-0.027040284
111	0x3ddb80b2	0.10717906
112	0xbe136e25	-0.14397486
113	0xbdf67686	-0.12034325
114	0x3dec672d	0.11543117
115	0xbdd45912	-0.10368551
116	0x3df7268b	0.12067898
117	0xbc70a9e1	-0.01468894
118	0x3e037f77	0.12841593
119	0xbdd8403c	-0.10559127
120	0x3d4f5ffd	0.05062865
121	0x3e246bbc	0.16056722
122	0xbe4e056d	-0.20119257
123	0xba52c335	-0.00080399524
124	0xbe041b5e	-0.12901065
125	0xbdc0e8c7	-0.09419399
126	0x3d039c98	0.03213176
127	0x3e166cb4	0.14689904
