results/ppo/EatFood/EatFood-24673.pt (torch, 727903 bytes, 36 tensors)

network_body._body_endoder.seq_layers.0.weight f4 [128, 100]
-0.1790493 -0.057399627 0.13257816 -0.022956157 -0.027779525 -0.055321798 -0.006859422 0.09233335
-0.01114982 0.05406818 -0.053402007 0.16509092 0.05530198 0.119608074 0.117702544 0.14700182
0.16098069 -0.26818883 0.028516313 0.061642904 -0.025199853 0.124255165 -0.055659194 -0.005936321
0.20904893 0.16716793 0.074669115 -0.16461742 -0.09829845 0.14396039 -0.09636973 -0.036391173
0.06114993 -0.028329624 0.09681792 -0.070483476 -0.082750835 -0.093109235 -0.21438114 0.122509785
-0.050321404 0.067280635 0.035617664 -0.010795832 -0.022116255 0.085342474 -0.07442626 -0.0855108
-0.0611151 0.031138763 -0.142601 -0.028499812 -0.12158314 0.02130959 0.0049458044 -0.10346699
-0.13988619 -0.11330282 -0.30501172 -0.10216927 -0.09073031 0.052868646 0.09894644 -0.041488886
-0.0013523614 0.095493905 0.057507176 -0.1042285 -0.0077523375 -0.021981029 -0.034735657 -0.00549195
-0.061015964 -0.0836449 0.1474414 0.028648851 -0.041895818 -0.027340448 0.039637964 0.13552473
-0.13372546 0.07423518 -0.13281527 -0.08227465 0.10247152 -0.1538677 0.043334514 -0.1023679
-0.11784136 0.035043504 0.12181612 0.107668236 0.2382764 -0.16286363 -0.006567078 -0.116262965
0.06901842 -0.006012649 0.081996046 -0.061612714 0.03555305 -0.09001513 0.12201861 -0.028300824
0.10103046 0.03258166 -0.022381075 0.11382062 -0.14138967 -0.22717202 0.0049272976 -0.15585598
0.04205935 0.00019257107 -0.04409791 -0.034104217 0.022967316 -0.102547586 -0.065615445 -0.025793135
0.12174177 -0.02741272 -0.056299537 -0.15402552 -0.02815954 0.028723901 0.037430383 -0.09400567
-0.09411177 -0.13359264 0.049644195 0.11712414 0.022115663 -0.0073433677 -0.025465291 0.12243269
0.040852558 -0.015041026 0.00020952724 -0.08062525 0.096564665 -0.026154246 0.016302366 -0.14470573
-0.08414057 0.13572533 0.09726619 0.21158412 0.03078761 -0.1058896 0.111166485 0.04635402
-0.12900646 0.035654433 0.035110615 0.21002768 0.0217051 -0.032377534 -0.018860012 0.04140117
-0.120075285 0.22615623 0.1938985 0.049888995 0.039912213 0.0068236995 0.30213287 0.04168158
0.11927058 0.06356337 0.013621606 0.00083255087 -0.00025674733 0.038622495 -0.10348151 0.1030057
0.031300984 0.0390372 -0.11929696 -0.009085404 0.012939952 0.053419393 0.020716174 0.017191013
0.08341025 0.025782255 0.030211193 -0.066533186 0.06599929 -0.14426605 -0.0016767316 -0.03729145
0.11763799 -0.1432454 0.0012610664 0.05071426 -0.13019393 0.0060134167 -0.1634167 -0.0006962818
-0.10496159 0.09082752 0.1196971 0.12332475 -0.10142427 -0.043218117 0.049722426 -0.25076568
-0.010866999 -0.06733339 -0.04883287 -0.044983134 -0.08545143 0.11711169 0.05212118 -0.108865194
0.12882918 -0.11514263 0.059325103 0.044658 -0.18780404 0.0051533002 -0.09035269 -0.012358813
0.1427606 0.0027602657 -0.033887375 -0.13958155 0.2307373 0.24887371 -0.032680966 -0.1109686
-0.11818064 -0.15108973 -0.09281638 -0.010296626 -0.13073239 -0.17826954 0.10088161 0.2810421
-0.28213948 0.009052833 -0.053154096 -0.056964137 -0.17248015 0.18338326 0.029580122 -0.017730983
-0.024660839 0.047910754 0.004745296 -0.09528637 0.1502071 -0.054650445 -0.08059815 0.012636623
00000000: b358 37be df1b 6bbd 92c2 073e 8d0e bcbc
00000010: e391 e3bc 1c99 62bd 01c5 e0bb 4419 bd3d
00000020: bcad 36bc 9976 5d3d 10bc 5abd 980d 293e
00000030: 5484 623d 14f5 f43d 080e f13d a587 163e
00000040: 1fd8 243e 0c50 89be 0b9b e93c 457d 7c3d
00000050: ec6f cebc 7e79 fe3d e5fa 63bd 7885 c2bb
00000060: ec10 563e 122e 2b3e 1fec 983d 7891 28be
00000070: b350 c9bd 5a6a 133e 7e5d c5bd e90e 15bd
00000080: 5978 7a3d 8713 e8bc 7948 c63d a459 90bd
00000090: 4579 a9bd 0eb0 bebd bb86 5bbe 69e6 fa3d
000000a0: d11d 4ebd 6eca 893d d4e3 113d 00e1 30bc
000000b0: 262d b5bc 09c8 ae3d cc6c 98bd 4920 afbd
000000c0: d453 7abd b816 ff3c ff05 12be 7078 e9bc
000000d0: 9500 f9bd 7391 ae3c 6a10 a23b 80e6 d3bd
000000e0: 533e 0fbe 4f0b e8bd 7f2a 9cbe 1f3e d1bd
000000f0: d0d0 b9bd cb8c 583d 6ea4 ca3d 40f0 29bd
00000100: b841 b1ba 4f92 c33d a58c 6b3d c075 d5bd
00000110: 5207 febb 8f11 b4bc fa46 0ebd d1f5 b3bb
00000120: e0eb 79bd 044e abbd e1fa 163e ffb0 ea3c
00000130: f39a 2bbd 13f9 dfbc 6b5b 223d ffc6 0a3e
00000140: 54ef 08be 9d08 983d ba00 08be 9d7f a8bd
00000150: 97dc d13d 7f8f 1dbe 887f 313d 43a6 d1bd
00000160: d056 f1bd c789 0f3d bb7a f93d 2a81 dc3d
00000170: bbfe 733e b9c5 26be a530 d7bb 471b eebd
00000180: 8859 8d3d c105 c5bb 8bed a73d 9d5d 7cbd
00000190: 13a0 113d da59 b8bd e5e4 f93d 21d7 e7bc
000001a0: 0fe9 ce3d 5974 053d 8458 b7bc c91a e93d
000001b0: 74c8 10be c89f 68be 2b75 a13b b698 1fbe
000001c0: 6d46 2c3d e7ec 4939 03a0 34bd ddb0 0bbd
000001d0: f425 bc3c 7804 d2bd 6461 86bd 204c d3bc
000001e0: c053 f93d a490 e0bc 589a 66bd deb8 1dbe
000001f0: d6ae e6bc 634e eb3c 9a50 193d 0b86 c0bd
00000200: acbd c0bd 82cc 08be b657 4b3d c8de ef3d
00000210: e82b b53c a2a0 f0bb 969c d0bc fdbd fa3d
00000220: 0355 273d a36e 76bc 8ab4 5b39 da1e a5bd
00000230: b2c3 c53d 6e41 d6bc 8a8c 853c bd2d 14be
00000240: e451 acbd 95fb 0a3e 7f33 c73d 82a9 583e
00000250: 4c36 fc3c a6dc d8bd 41ab e33d b6dd 3d3d
00000260: 451a 04be 620a 123d 26d0 0f3d 7f11 573e
00000270: e5ce b13c 4e9e 04bd 5080 9abc 4694 293d
00000280: 08ea f5bd 8095 673e 548d 463e 6758 4c3d
00000290: fd7a 233d 5799 df3b 29b1 9a3e 4eba 2a3d
000002a0: 2244 f43d 832d 823d 282d 5f3c 8b3f 5a3a
000002b0: 0b9c 86b9 9f32 1e3d 1dee d3bd a7f4 d23d
000002c0: 7635 003d 79e5 1f3d f751 f4bd f2da 14bc
000002d0: 1802 543c 4bce 5a3d f7b4 a93c 2bd4 8c3c
000002e0: fed2 aa3d 4f35 d33c 777d f73c 8d42 88bd
000002f0: a32a 873d 7bba 13be c7c5 dbba ebbe 18bd
00000300: 30ec f03d ecae 12be 5e4a a53a c2b9 4f3d
00000310: 8f51 05be 320c c53b b556 27be ae86 36ba
00000320: 1af6 d6bd c703 ba3d c123 f53d b091 fc3d
00000330: 87b7 cfbd 7b05 31bd bea9 4b3d 5c64 80be
00000340: 7f0b 32bc 17e6 89bd fa04 48bd 3c40 38bd
00000350: 2901 afbd 41d8 ef3d 057d 553d b7f4 debd
00000360: cceb 033e e6cf ebbd e1fe 723d 4feb 363d
00000370: b44f 40be 04dd a83b d50a b9bd 9e7c 4abc
00000380: d62f 123e 93e5 343b 7dcd 0abd 77ee 0ebe
00000390: 6646 6c3e c0d8 7e3e 7adc 05bd 8143 e3bd
000003a0: b108 f2bd 44b7 1abe 8416 bebd 2eb3 28bc
000003b0: b6de 05be 4a8c 36be 049b ce3d c0e4 8f3e
000003c0: 9674 90be 5552 143c 1cb8 59bd 3a53 69bd
000003d0: a39e 30be d2c8 3b3e 0352 f23c 9140 91bc
000003e0: 8705 cabc 113e 443d 6e7e 9b3b 8025 c3bd
000003f0: e4cf 193e 25d9 5fbd a510 a5bd d709 4f3c

network_body._body_endoder.seq_layers.0.bias f4 [128]
0.0015798899 0.0031145466 0.0015440462 0.0045327586 2.5065536e-05 -0.0003654583 -0.0034859828 0.0002247192
-0.00051331206 0.0006926358 -0.0044438727 0.0055068033 0.0030176367 2.9861847e-05 0.0002584043 -0.0019329148
-0.005250923 -0.0063727456 -0.005949127 -0.0028141104 0.0064802156 0.003975562 -0.00449143 0.00027319492
0.005193025 -0.0032034498 -0.0049917316 -6.752199e-05 -0.005814462 -0.0015708244 -0.0049155327 0.0031168843
0.00013927372 0.0021589417 0.0059098434 0.0030593672 0.0008532924 0.0013693759 -0.0062473454 0.0026867294
0.0064609335 0.0035946998 0.0010053723 -0.0062533985 0.006918927 0.0031647405 -0.003172322 0.0050122924
-0.006272593 -0.0063446206 0.002541533 -0.0062158117 -0.0031005775 -0.0058479565 0.0024734405 -0.004569992
0.004018684 -0.005945887 -0.008526636 -0.007367365 0.005509677 -0.008104106 -0.0004552703 -0.0045460192
-0.0003523002 -0.002376219 -0.004818601 -0.000254944 0.0011883791 0.0058011366 0.0017210912 0.005760663
0.0044580186 -0.00048547657 -0.006964431 0.004694677 -0.005747668 0.001676662 0.0052434616 -0.0048385332
0.0060633556 -0.0071309987 -0.0060621635 0.0009584555 0.0052998066 -0.005598009 -0.005508986 0.002463385
-0.0049750404 -0.0058693197 0.004576217 0.0040167584 0.0039789095 0.004417669 0.004946959 0.008805024
-0.0020425178 -0.0034480488 -0.0020854615 -0.0012091427 -0.0019957926 0.0029654924 -0.000425225 -0.00456148
-0.0036578598 0.0041814456 -0.0034623377 -0.0048388722 -0.0075068506 0.001266637 -0.0011364996 -0.0038424688
0.004691536 0.00484097 0.002660791 0.003182357 -0.0026118981 -0.0076565905 -0.004236867 0.0054279054
0.004177389 0.0026783764 0.0054541137 0.0025389683 -0.0015653091 0.0010134849 0.002313731 -0.0032889282
00000000: 4f14 cf3a 6c1d 4c3b 9861 ca3a 8987 943b
00000010: d443 d237 fc9a bfb9 1675 64bb 9aa2 6b39
00000020: ca8f 06ba 0092 353a e89d 91bb 6a72 b43b
00000030: 8bc3 453b d47f fa37 707a 8739 dc59 fdba
00000040: ef0f acbb 77d2 d0bb e5f0 c2bb f06c 38bb
00000050: fd57 d43b 6e45 823b d82c 93bb 9a3b 8f39
00000060: 402a aa3b f8f0 51bb ae91 a3bb 989a 8db8
00000070: 3e87 bebb 1fe4 cdba 7a12 a1bb a444 4c3b
00000080: 010a 1239 087d 0d3b 5ca7 c13b aa7f 483b
00000090: 7caf 5f3a a17c b33a 88b6 ccbb d713 303b
000000a0: 3db6 d33b 0e95 6b3b b2c6 833a 4fe9 ccbb
000000b0: 2bb8 e23b 8967 4f3b bbe6 4fbb 283e a43b
000000c0: 538a cdbb 89e6 cfbb d98f 263b 02ae cbbb
000000d0: 0f33 4bbb 37a0 bfbb 7219 223b dfbf 95bb
000000e0: 2aaf 833b b7d5 c2bb 4eb3 0bbc f069 f1bb
000000f0: 858a b43b 16c7 04bc 58b1 eeb9 c6f6 94bb
00000100: efb4 b8b9 57ba 1bbb 5be5 9dbb 01aa 85b9
00000110: 63c3 9b3a 7617 be3b 3d96 e13a f2c3 bc3b
00000120: 9214 923b 9087 feb9 e235 e4bb ced5 993b
00000130: ef56 bcbb 71c3 db3a 58d1 ab3b 8f8c 9ebb
00000140: 1daf c63b 27ab e9bb 1da5 c6bb dc40 7b3a
00000150: 00aa ad3b 816f b7bb b984 b4bb be70 213b
00000160: aa05 a3bb 6c53 c0bb 17f4 953b 039f 833b
00000170: 8361 823b 18c2 903b 1a1a a23b f342 103c
00000180: c3db 05bb a9f8 61bb 3dac 08bb 197c 9eba
00000190: d8cb 02bb b558 423b bcf0 deb9 7878 95bb
000001a0: b4b8 6fbb 8204 893b 63e8 62bb 678f 9ebb
000001b0: 07fc f5bb 4905 a63a 99f6 94ba eed1 7bbb
000001c0: 75bb 993b 00a1 9e3b aa60 2e3b 178f 503b
000001d0: 612c 2bbb 23e4 fabb 6bd5 8abb 92dc b13b
000001e0: 7be2 883b b387 2f3b 6cb8 b23b d264 263b
000001f0: 0f2b cdba e9d6 843a f7a1 173b 0f8b 57bb

network_body._body_endoder.seq_layers.2.weight f4 [128, 128]
-0.15167879 -0.15273635 0.0051655443 0.02232202 0.012557672 0.24283196 0.18771684 -0.012638574
-0.0075225784 0.15778302 -0.06621178 0.07425819 -0.08446473 -0.04482328 0.033668697 0.08554926
0.075634226 -0.095649384 -0.1444488 0.09663559 -0.08669824 0.043273933 -0.013163092 -0.027781935
0.2411549 0.019392543 0.0429119 -0.115044095 0.031871304 0.06084424 -0.050322995 0.11863957
-0.056838516 0.060071256 0.12816764 -0.03616617 0.11007298 -0.024012662 0.06754613 -0.0037949802
0.14083673 0.08113026 0.07374631 -0.14553945 -0.018000996 -0.09831663 0.084039114 -0.09896547
0.06079859 -0.1563573 0.01898488 0.064958744 -0.1332321 -0.010116142 -0.19038565 -0.067025535
0.040851735 0.060350135 -0.02575788 0.0036607233 0.027609149 -0.15671733 -0.2361032 -0.11255847
-0.09780843 -0.04490071 0.11282899 0.0819132 -0.010552149 -0.031040343 -0.10878371 -0.026694626
0.1851957 -0.07717615 0.0035930225 0.025336126 0.007807159 -0.14569505 0.050803877 -0.008920487
0.05781291 0.04069409 0.079719685 -0.072175965 0.10976817 0.10005847 0.037832163 -0.05835493
-0.15011345 -0.14034684 0.09136055 -0.055265218 0.0652274 0.15111019 -0.13252008 0.07999117
-0.013796791 -0.23432735 0.08199009 0.080928765 -0.19150394 0.0020174298 -0.013184757 -0.08307973
-0.15073307 0.17293592 -0.049784936 -0.031307332 -0.08293042 -0.06973635 -0.05742536 -0.102016054
-0.012508354 -0.100494914 -0.0037144888 -0.08063248 -0.008802962 -0.108938634 -0.016058613 -0.037727956
-0.08521879 0.03312941 -0.01970016 0.07113194 0.0561214 -0.0055768536 -0.0090174135 0.06096581
-0.09986798 0.06587178 0.08009404 -0.045665894 -0.09837215 0.07312161 -0.007841362 0.039981678
0.1311754 -0.061357375 0.049613275 0.13551803 0.120371945 0.12057201 0.087390974 -0.10495274
-0.11929563 -0.00034578267 -0.09020076 -0.060440857 -0.087898046 -0.13793406 0.07521329 0.079673454
0.08101709 0.07604955 0.03794131 -0.06929396 0.17205754 0.021613654 -0.025541099 -0.06544811
-0.09952997 -0.02657751 -0.078965425 0.02185699 -0.05611089 0.014596974 0.061933298 0.017678132
0.16852504 -0.066410154 0.2362453 0.0025498527 -0.13972147 -0.0010248398 0.06908329 -0.032365926
0.020163529 -0.03680881 -0.009303369 0.0636426 0.058011163 -0.06775304 -0.07039337 0.022685722
-0.056152727 -0.01965793 0.09843566 0.09528293 -0.13869356 0.025788676 0.095678516 -0.04089517
0.123862065 -0.030477736 -0.012805967 0.038515907 -0.026049303 0.04116121 -0.1263415 0.04780722
-0.022936236 0.017342867 0.029495314 -0.17617813 0.01404483 -0.033457324 0.13147591 -0.035383873
0.05852292 -0.06648544 0.049438007 -0.036171407 -0.051058754 -0.10831392 -0.01989154 -0.106152944
-0.0470862 -0.14255582 -0.04996151 0.100047365 -0.06331765 -0.034466285 -0.06305298 0.07060526
0.028614577 0.025013173 -0.060248263 0.08856121 0.024751717 -0.105495386 0.048826247 0.08104236
-0.011118256 -0.032030057 0.08201463 0.024467956 -0.1587976 -0.09477555 0.07729904 0.12660792
0.07994185 0.11403837 0.075087875 0.010571788 0.053582635 -0.048393816 -0.06350222 -0.048454024
0.04760761 0.03947833 -0.15857501 -0.11798642 -0.061729033 0.010353836 0.027162043 -0.03131095
00000000: af51 1bbe eb66 1cbe ba43 a93b abdc b63c
00000010: b2be 4d3c f1a8 783e d838 403e 0512 4fbc
00000020: f67f f6bb df91 213e 0b9a 87bd ae14 983d
00000030: d8fb acbd 9e98 37bd 30e8 093d 7334 af3d
00000040: 1ee6 9a3d d3e3 c3bd 63ea 13be e1e8 c53d
00000050: d98e b1bd 0240 313d 02aa 57bc f196 e3bc
00000060: 4ff1 763e 1cdd 9e3c 63c4 2f3d 3d9c ebbd
00000070: 7c8b 023d cf37 793d 7c1f 4ebd 4ef9 f23d
00000080: 81cf 68bd 470d 763d 613e 033e fa22 14bd
00000090: f16d e13d 34b6 c4bc a055 8a3d 34b5 78bb
000000a0: 8137 103e 9f27 a63d 4e08 973d 4b08 15be
000000b0: d376 93bc 3b5a c9bd b31c ac3d 69ae cabd
000000c0: f107 793d 211c 20be 2e86 9b3c 1709 853d
000000d0: ff6d 08be 2dbe 25bc 75f4 42be af44 89bd
000000e0: 2654 273d b431 773d 3102 d3bc bfe8 6f3b
000000f0: 952c e23c 827a 20be 0ac5 71be 0e85 e6bd
00000100: c94f c8bd cfe9 37bd e312 e73d 1cc2 a73d
00000110: ece2 2cbc 5148 febc fec9 debd b0ae dabc
00000120: f1a3 3d3e 880e 9ebd ea78 6b3b b58d cf3c
00000130: 32d3 ff3b 1531 15be ba17 503d 3c27 12bc
00000140: 3bcd 6c3d d9ae 263d 1344 a33d fed0 93bd
00000150: 22ce e03d 75eb cc3d e6f5 1a3d 9405 6fbd
00000160: 57b7 19be 15b7 0fbe 3d1b bb3d c85d 62bd
00000170: f195 853d a1bc 1a3e 58b3 07be 69d2 a33d
00000180: f00b 62bc 82f3 6fbe 6cea a73d fbbd a53d
00000190: 9c19 44be db36 043b e104 58bc b525 aabd
000001a0: c559 1abe 1d16 313e 4aeb 4bbd 1e3c 00bd
000001b0: 6dd7 a9bd eed1 8ebd db36 6bbd cbed d0bd
000001c0: d7ef 4cbc 47d0 cdbd c86e 73bb a422 a5bd
000001d0: 4c3a 10bc 381b dfbd 5a8d 83bc a188 1abd
000001e0: 3087 aebd b4b2 073d 3b62 a1bc 9fad 913d
000001f0: 8edf 653d 0abe b6bb c6bd 13bc 49b7 793d
00000200: 9587 ccbd c9e7 863d 5808 a43d 290c 3bbd
00000210: 5677 c9bd c8c0 953d 0e79 00bc d4c3 233d
00000220: d852 063e df51 7bbd 4a37 4b3d 3dc5 0a3e
00000230: 9185 f63d 75ee f63d 0afa b23d 76f1 d6bd
00000240: 4451 f4bd 2a4a b5b9 2dbb b8bd d590 77bd
00000250: e403 b4bd 963e 0dbe 6d09 9a3d d62b a33d
00000260: 4aec a53d debf 9b3d 5968 1b3d fee9 8dbd
00000270: da2f 303e 1e0f b13c 913b d1bc a909 86bd
00000280: 5ed6 cbbd 14b9 d9bc a0b8 a1bd 6e0d b33c
00000290: 88d4 65bd 2528 6f3c c5ad 7d3d bbd1 903c
000002a0: d491 2c3e 0c02 88bd 4aea 713e 6e1b 273b
000002b0: 2513 0fbe eb53 86ba 8a7b 8d3d 2292 04bd
000002c0: fc2d a53c d6c4 16bd 286d 18bc 0d57 823d
000002d0: 1d9d 6d3d 1bc2 8abd 662a 90bd 68d7 b93c
000002e0: 6700 66bd ab09 a1bc a398 c93d b223 c33d
000002f0: af05 0ebe c642 d33c 19f3 c33d b281 27bd
00000300: 65ab fd3d 72ac f9bc 1ed0 51bc dbc2 1d3d
00000310: 5965 d5bc a898 283d ab5f 01be 81d1 433d
00000320: c6e4 bbbc a112 8e3c 28a0 f13c 0a68 34be
00000330: 491c 663c 8c0a 09bd 9fa1 063e aeee 10bd
00000340: bbb5 6f3d 8529 88bd 827f 4a3d 7828 14bd
00000350: fc22 51bd b0d3 ddbd 95f3 a2bc b766 d9bd
00000360: 76dd 40bd 27fa 11be 71a4 4cbd a2e5 cc3d
00000370: afac 81bd 852c 0dbd ec21 81bd 7e99 903d
00000380: 1e69 ea3c 6de8 cc3c e2c6 76bd 945f b53d
00000390: 1dc4 ca3c f70d d8bd 08fe 473d 89f9 a53d
000003a0: 5829 36bc f331 03bd 49f7 a73d 0671 c83c
000003b0: d79b 22be af19 c2bd f64e 9e3d 82a5 013e
000003c0: 8db8 a33d f38c e93d acc7 993d 4b35 2d3c
000003d0: 7779 5b3d 9838 46bd 740d 82bd ba77 46bd
000003e0: 3200 433d 08b4 213d 7d61 22be dda2 f1bd
000003f0: 95d7 7cbd 23a3 293c ef82 de3c e93f 00bd

network_body._body_endoder.seq_layers.2.bias f4 [128]
0.005722725 -0.0065330067 0.004035347 0.004511254 -0.005097429 -0.00023514243 0.0059463396 0.006428088
-0.0063876742 0.006783051 -0.006377536 0.0051935976 0.00620603 0.0028498557 0.00052055717 -0.004595874
-0.0026081172 0.004525118 0.00497653 0.0055654873 0.0023488745 0.0046700654 -0.0054321922 -0.00070730766
0.0038030974 -0.0028598097 -0.006013694 -0.0014075511 -0.0048972564 0.005654675 0.00503606 0.004045737
0.0060084187 0.0044538667 0.005298386 -0.005128321 -0.002676036 -0.0023721561 0.004406295 0.006706886
0.0056264964 0.004719887 -0.0060713915 0.0064189993 0.00072560745 0.005285795 -0.0026847054 0.003993122
-0.003656271 0.003314006 0.0038615868 0.0044137305 0.0005948969 -0.001218567 -0.0040873433 -0.0020431587
0.0050025904 -0.005930028 0.0048832083 0.0062853694 0.0024742046 -0.005752304 0.0030651893 -0.006202421
0.0008373291 -0.0040963935 -0.0048944512 -0.0048680427 0.0057631894 -0.0013675232 0.005735477 0.0026374045
0.0037957134 0.0013375592 -0.0057833707 -0.0047113164 -0.0037432485 -0.0032148077 -0.005110062 -0.0060641044
-0.0054017403 0.0051042694 -0.0059201377 0.0060033104 -0.0047004167 0.0067988285 0.0043788445 -0.0067863124
-0.00016983827 0.00125406 0.0010027196 0.0055649094 0.0012330012 0.0032120713 -0.005636481 0.005575448
0.0039278525 0.0061208364 0.0033608535 0.0020961482 -0.006158418 0.0010726154 0.0034421682 0.0045272647
-0.0034403384 0.0015162904 -0.002037139 -0.0006638275 -0.0065771723 -0.0016379488 -0.0017270545 -0.0002622525
-0.005543445 -0.0022788343 -0.005288449 0.0059347088 0.005797127 0.005436164 -0.0062335664 0.005366874
0.0034204256 0.0015635908 0.004393213 -0.004843447 -0.0066897213 0.0009015891 0.0030634776 0.0034759121
00000000: b285 bb3b d512 d6bb f23a 843b 24d3 933b
00000010: 5508 a7bb 9190 76b9 83d9 c23b b6a2 d23b
00000020: b24f d1bb 5b44 de3b a6fa d0bb 0e2f aa3b
00000030: f45b cb3b a5c4 3a3b 0076 083a fc98 96bb
00000040: f2ec 2abb 7147 943b 2912 a33b b15e b63b
00000050: 93ef 193b 5907 993b 8800 b2bb 9d6a 39ba
00000060: 633d 793b a56b 3bbb 860e c5bb 947d b8ba
00000070: 2a79 a0bb da4a b93b 8905 a53b 1a92 843b
00000080: 45e2 c43b bef1 913b 159e ad3b 790b a8bb
00000090: 6f60 2fbb 2d76 1bbb ae62 903b 70c5 db3b
000000a0: 795e b83b 48a9 9a3b 86f2 c6bb 7856 d23b
000000b0: b136 3e3a 7634 ad3b e2f1 2fbb bcd8 823b
000000c0: 0c9e 6fbb cb2f 593b ad12 7d3b 0ea1 903b
000000d0: dbf2 1b3a 53b8 9fba 1fef 85bb 84e6 05bb
000000e0: c5ec a33b ae50 c2bb 5203 a03b 80f5 cd3b
000000f0: 4426 223b d37d bcbb 58e1 483b ae3d cbbb
00000100: 3480 5b3a 0a3b 86bb a261 a0bb 1a84 9fbb
00000110: 23d9 bc3b 773e b3ba abf0 bb3b 4ed8 2c3b
00000120: 81c1 783b 0a51 af3a 6e82 bdbb 6361 9abb
00000130: 4a51 75bb 86af 52bb 4f72 a7bb 65b5 c6bb
00000140: 1501 b1bb b741 a73b b7fd c1bb 6bb7 c43b
00000150: f405 9abb b5c8 de3b 697c 8f3b b75f debb
00000160: 9d16 32b9 455f a43a b06d 833a d859 b63b
00000170: a89c a13a 9d81 523b 3bb2 b8bb 3fb2 b63b
00000180: 37b5 803b 4c91 c83b c441 5c3b 885f 093b
00000190: 8ecc c9bb 0097 8c3a 0096 613b 7359 943b
000001a0: 4d77 61bb 43be c63a 8581 05bb b604 2eba
000001b0: 5285 d7bb 71b0 d6ba 555e e2ba ef7e 89b9
000001c0: c9a5 b5bb 7f58 15bb ba4a adbb f277 c23b
000001d0: d3f5 bd3b d921 b23b f242 ccbb 9adc af3b
000001e0: 3829 603b 67f1 cc3a f1f4 8f3b c7b5 9ebb
000001f0: 7335 dbbb 9f58 6c3a a0c4 483b 21cc 633b

action_model._continuous_distribution.log_sigma f4 [1, 2]
-0.0028049045 0.007550693
00000000: 7dd2 37bb ce6b f73b

action_model._continuous_distribution.mu.weight f4 [2, 128]
0.039820164 -0.007515517 0.021124598 0.0061878115 -0.007521313 -0.034687363 0.023668338 0.016528673
-0.02117436 0.020367702 -0.018592408 0.0010867566 0.0008399987 0.019515712 -0.0012609693 -0.00389844
0.012435804 0.033168264 0.004066334 -0.0026208768 -0.010574421 -0.0018548445 -0.008828794 0.000929093
-0.01603414 -0.018887157 -0.030752424 0.0141529525 -0.0033343774 0.014535115 0.013852111 -0.0065041655
0.02351894 -0.005235004 0.013403973 -0.007412877 0.010844058 0.0014031935 0.0066722063 0.012077197
0.015388729 0.014187249 -0.009989875 0.01183243 0.033052243 0.034010805 0.008885398 -0.0021542711
-0.01940333 -0.009284319 0.005783435 0.00870176 -0.011540099 0.011034794 0.0023275432 -0.020658443
0.0035428922 -0.017507056 0.00836023 0.02853463 0.015785417 -0.017198091 0.007684089 -0.021667015
0.023714453 0.004128749 0.00034277275 -0.003805837 0.028680664 -0.018108683 0.02590125 0.0064611603
-0.0151001355 0.00051827595 -0.012778781 -0.0008718227 0.0016386849 0.0008166308 -0.008382207 -0.011930482
-0.006256965 -0.0021795793 -0.03211711 0.021606257 -0.0032998926 0.0018349749 0.027632827 -0.0049512135
-0.019885486 0.018140381 0.029043602 0.009442922 -0.009062757 -0.01028577 -0.017488321 0.025418574
-0.009615502 0.010983446 0.02226513 0.049697325 -0.04174015 -0.0049844086 0.0029365278 0.009967427
-0.012884377 -0.0026788441 0.018725619 -0.025410201 -0.010457273 0.01571315 0.0055528875 -0.012558328
-0.0107183065 -0.061228197 -0.01464959 0.03407544 0.017892368 0.013104784 -0.021402545 0.015732883
-0.0073725968 0.042533554 0.0018264499 -0.0026764642 -0.008652245 -0.032422427 0.029261405 -0.010567081
0.026288126 -0.006556412 0.0034651025 0.003879613 -0.024218043 0.028364936 0.030561794 0.02132864
-0.01816478 0.008529895 -0.027654294 0.0047118207 0.008235824 -0.0023236088 0.0010864934 -0.022276701
-0.023462696 0.0022364215 0.010684166 0.051506877 0.029964061 0.00086637633 -0.0012540976 0.0059793997
0.03689204 -0.0014766813 -0.01977243 -0.015104361 -0.019487742 0.0481541 0.0010856496 0.013533503
0.017374692 0.021498244 0.008229949 -0.01829134 -0.019046852 -0.008823008 0.0034772058 0.021835977
0.010083991 0.003083847 -0.014193374 0.042325493 -0.010572081 0.013278635 -0.013396096 -0.0001257782
0.0027177336 0.005341089 0.029804477 0.04261315 0.00883302 -0.0033662345 -0.010197023 0.005300416
0.013096081 -0.010352416 0.0036040214 0.018956522 0.0008159928 -0.035793874 -0.0022662866 -0.03412067
-0.009447722 -0.03149591 -0.017713394 -0.045052603 0.022667227 0.0016721395 0.02394277 0.0028040772
0.03949548 -0.0052398806 -0.0066781095 -0.004915301 -0.019075558 -0.018079467 -0.033205647 -0.0066613546
-0.0033406205 0.020821858 -0.031989187 0.021580124 -0.017540205 0.017933695 -0.0027720428 -0.018144498
0.013779416 -0.0077268407 -0.020470869 0.019529685 0.021025276 0.041210353 -0.0016169576 0.011636421
0.011336089 0.010364988 -0.0046134004 -0.015578694 -0.01774316 0.013064862 0.015000275 0.0053759026
2.7006748e-05 0.011366653 -0.026558403 0.01389622 -0.0186237 -0.013007582 -0.016547184 0.0041638017
-0.0048184926 0.022478828 -0.043008897 0.031476874 0.015948126 0.032191284 -0.01284524 0.02423351
0.010912459 -0.011820612 0.035949964 -0.017705748 -0.0070928987 0.020862654 -0.004448384 0.01601253
00000000: 781a 233d ba44 f6bb 7e0d ad3c 20c3 ca3b
00000010: 5975 f6bb 5614 0ebd 1ae4 c13c 2467 873c
00000020: da75 adbc 2bda a63c 1b4f 98bc 8071 8e3a
00000030: 5c33 5c3a 6adf 9f3c 1c47 a5ba f87c 7fbb
00000040: 8bbf 4b3c 72db 073d e23e 853b 04c3 2bbb
00000050: 5640 2dbc 411e f3ba a5a6 10bc 608e 733a
00000060: 075a 83bc 3db9 9abc 82ec fbbc c9e1 673c
00000070: 9285 5abb b124 6e3c f7f3 623c e520 d5bb
00000080: cbaa c03c 658a abbb 569c 5b3c b8e7 f2bb
00000090: 47ab 313c 5ceb b73a 86a2 da3b 70df 453c
000000a0: 0221 7c3c a371 683c 93ac 23bc cfdc 413c
000000b0: ca61 073d ea4e 0b3d 0f94 113c ac2e 0dbb
000000c0: bbf3 9ebc 421d 18bc f882 bd3b d491 0e3c
000000d0: af12 3dbc 48cb 343c b289 183b e53b a9bc
000000e0: de2f 683b f56a 8fbc 59f9 083c 75c1 e93c
000000f0: 6b50 813c 03e3 8cbc cfca fb3b 067f b1bc
00000100: d044 c23c 754a 873b 2eb6 b339 596b 79bb
00000110: b6f3 ea3c a958 94bc dc2e d43c 24b8 d33b
00000120: 8f66 77bc e9dc 073a 185e 51bc 088b 64ba
00000130: 24c9 d63a 2a13 563a 8655 09bc 1278 43bc
00000140: 3a07 cdbb 46d7 0ebb 3b8d 03bd 9bff b03c
00000150: 0343 58bb 8a83 f03a 3d5e e23c ca3d a2bb
00000160: e3e6 a2bc 239b 943c d9ec ed3c 7cb6 1a3c
00000170: f57b 14bc a585 28bc ab43 8fbc 9d3a d03c
00000180: 578a 1dbc e9f3 333c 5d65 b63c 6c8f 4b3d
00000190: b8f7 2abd 4054 a3bb c372 403b 6b4e 233c
000001a0: fe18 53bc 8c8f 2fbb 7866 993c 0e29 d0bc
000001b0: fb54 2bbc ddb8 803c fff4 b53b 72c1 4dbc
000001c0: d69b 2fbc 6bca 7abd d504 70bc b092 0b3d
000001d0: 0493 923c 73b5 563c 6454 afbc 3fe2 803c
000001e0: d395 f1bb aa37 2e3d 7d65 ef3a 9e67 2fbb
000001f0: 25c2 0dbc 61cd 04bd 9db5 ef3c 8d21 2dbc
00000200: 325a d73c 2cd7 d6bb c616 633b 1b41 7e3b
00000210: eb64 c6bc 955d e83c ba5c fa3c 66b9 ae3c
00000220: 4ece 94bc f9c0 0b3c 428b e2bc 9e65 9a3b
00000230: 8def 063c b047 18bb ab68 8e3a a17d b6bc
00000240: d734 c0bc ed90 123b a40c 2f3c e0f8 523d
00000250: 3177 f53c 881d 633a 8860 a4ba d7ee c33b
00000260: 1c1c 173d 348d c1ba cbf9 a1bc 4878 77bc
00000270: c2a4 9fbc 3c3d 453d 5b4c 8e3a a0bb 5d3c
00000280: 5f55 8e3c 161d b03c e8d6 063c b8d7 95bc
00000290: 2508 9cbc 618e 10bc d5e1 633b 5de1 b23c
000002a0: 5337 253c 5e1a 4a3b 538b 68bc 7f5d 2d3d
000002b0: 8636 2dbc a28e 593c 4d7b 5bbc 54e3 03b9
000002c0: 011c 323b 4d04 af3b 8528 f43c 208b 2e3d
000002d0: 5fb8 103c 0b9c 5cbb 6a11 27bc 1daf ad3b
000002e0: f290 563c 2e9d 29bc 7231 6c3b b54a 9b3c
000002f0: 5ae8 553a 999c 12bd fb85 14bb 1ec2 0bbd
00000300: 9eca 1abc db01 01bd ae1b 91bc 1489 38bd
00000310: 9fb0 b93c b12b db3a a123 c43c 9cc4 373b
00000320: 03c6 213d 4eb3 abbb 0bd4 dabb 8910 a1bb
00000330: 5844 9cbc 641b 94bc a502 08bd 7e47 dabb
00000340: 50ee 5abb 9a92 aa3c 1807 03bd cdc8 b03c
00000350: 7ab0 8fbc afe9 923c 29ab 35bb c5a3 94bc
00000360: 0fc3 613c 7031 fdbb 86b2 a7bc b8fc 9f3c
00000370: 333d ac3c 30cc 283d 18f0 d3ba b0a6 3e3c
00000380: 01bb 393c e9d1 293c 022c 97bb c73d 7fbc
00000390: 1a5a 91bc 010e 563c b7c3 753c 5728 b03b
000003a0: 8d8c e237 333b 3a3c 0291 d9bc f9ac 633c
000003b0: bb90 98bc c11d 55bc f68d 87bc 8070 883b
000003c0: 72e4 9dbb 8525 b83c 192a 30bd e5ed 003d
000003d0: a5a5 823c 02db 033d d774 52bc 5b85 c63c
000003e0: 2cca 323c 3dab 41bc 4540 133d a50b 91bc
000003f0: 8c6b e8bb 28e8 aa3c c0c3 91bb b62c 833c

action_model._continuous_distribution.mu.bias f4 [2]
0.004342497 0.004525891
00000000: 814b 8e3b ed4d 943b

exp_avg f4 [128, 100]
0.0 0.0 2.886376e-06 -8.8860825e-06 1.885265e-06 -8.300826e-06 6.0254524e-06 -3.2130417e-06
2.22797e-05 -3.126811e-05 1.1234013e-06 -1.2184651e-05 -2.8821898e-07 -1.3889044e-05 1.4431196e-06 -1.10352985e-05
3.5563112e-06 -7.775305e-06 6.366537e-06 -1.0711632e-05 1.1141419e-06 -9.597398e-06 5.8025857e-06 -4.1847566e-06
4.9941905e-06 -7.096681e-06 6.109243e-06 -3.8045848e-06 2.9736708e-07 -2.0808318e-05 4.44989e-06 -9.2097e-06
7.043792e-06 -8.472771e-06 1.9816853e-06 -8.70908e-06 4.14421e-06 -8.373684e-06 6.7944347e-06 -7.3705937e-06
3.1827474e-06 -1.6402655e-05 1.8746665e-06 -8.288766e-06 -7.125471e-07 -1.532027e-05 -7.810412e-06 -2.0476202e-05
5.1192264e-06 -5.839718e-06 -1.9279626e-06 -1.3128014e-05 0.0 0.0 0.0 0.0
0.0 0.0 0.0 0.0 0.0 0.0 0.0 0.0
0.0 0.0 0.0 0.0 0.0 0.0 0.0 0.0
0.0 0.0 0.0 0.0 0.0 0.0 0.0 0.0
0.0 0.0 0.0 0.0 0.0 0.0 0.0 0.0
0.0 0.0 0.0 0.0 0.0 0.0 0.0 0.0
0.0 0.0 0.0 0.0 0.0 0.0 1.5761287e-05 7.344439e-07
1.578997e-05 -1.475966e-06 1.306277e-05 9.426615e-06 2.0023494e-06 2.3184508e-05 1.5129156e-05 -1.1795601e-06
1.43986545e-05 -2.536972e-06 1.5393767e-05 -1.1023384e-06 1.5779204e-05 1.8984573e-06 1.3913187e-05 7.1787904e-06
1.5511183e-05 -2.2916743e-06 1.3892533e-05 8.092382e-06 1.5146877e-05 4.9238183e-06 1.33455715e-05 8.98382e-06
9.963374e-06 -2.2820743e-06 1.5288384e-05 3.7016437e-06 1.3538608e-05 8.3317145e-06 1.5769408e-05 -1.0960665e-06
1.5514015e-05 3.1141833e-06 1.3716041e-05 8.117536e-06 1.31584675e-05 2.769597e-06 1.5788892e-05 -1.5036513e-06
1.1510305e-05 1.0683465e-05 8.538358e-06 -5.6407075e-06 1.4997635e-05 5.6032204e-06 1.3938559e-05 -4.8032834e-06
0.0 0.0 0.0 0.0 0.0 0.0 0.0 0.0
0.0 0.0 0.0 0.0 0.0 0.0 0.0 0.0
0.0 0.0 0.0 0.0 0.0 0.0 0.0 0.0
0.0 0.0 0.0 0.0 0.0 0.0 0.0 0.0
0.0 0.0 0.0 0.0 0.0 0.0 0.0 0.0
0.0 0.0 0.0 0.0 0.0 0.0 0.0 0.0
0.0 0.0 -2.8392806e-05 8.304875e-06 -2.6346972e-05 1.1510839e-05 -2.482716e-05 -1.4001044e-05
-1.6951206e-05 -4.805898e-05 -2.7161646e-05 1.7969338e-05 -2.445866e-05 2.4923633e-05 -2.7150125e-05 1.5525642e-05
-2.859892e-05 4.616309e-06 -3.33329e-05 -5.453544e-06 -2.5580424e-05 1.5189722e-05 -2.6445994e-05 -1.0689033e-05
-2.932857e-05 -2.170844e-06 -2.5722433e-05 -1.2931678e-05 -2.2374546e-05 4.510698e-05 -3.0588795e-05 2.5328468e-06
-3.1066524e-05 -1.0236497e-05 -2.6769685e-05 1.14724135e-05 -2.9643474e-05 2.883908e-06 -2.992457e-05 -9.990997e-06
-3.593767e-05 1.634886e-05 -2.6319827e-05 1.1540955e-05 -3.1434596e-05 -2.0221834e-05 4.5945094e-06 4.9288356e-05
-2.8322142e-05 -4.5079464e-06 -1.9494752e-05 2.8058528e-05 0.0 0.0 0.0 0.0
00000000: 0000 0000 0000 0000 90b3 4136 6f15 15b7
00000010: 3609 fd35 c743 0bb7 3e2e ca36 a39f 57b6
00000020: 4be5 ba37 e125 03b8 c6c7 9635 ad6c 4cb7
00000030: 84bc 9ab4 fd04 69b7 36b1 c135 3f24 39b7
00000040: f6a8 6e36 ae72 02b7 23a0 d536 1cb6 33b7
00000050: a089 9535 8304 21b7 d5b3 c236 c96a 8cb6
00000060: c593 a736 0720 eeb6 fffd cc36 4552 7fb6
00000070: d2a5 9f34 868d aeb7 4450 9536 5c83 1ab7
00000080: b659 ec36 4626 0eb7 18fd 0436 371d 12b7
00000090: 7e0e 8b36 b37c 0cb7 c0fb e336 eb50 f7b6
000000a0: 2f97 5536 6f98 89b7 0d9d fb35 fb0f 0bb7
000000b0: dd45 3fb5 0884 80b7 7709 03b7 4fc4 abb7
000000c0: d2c5 ab36 ccf2 c3b6 2562 01b6 6440 5cb7
000000d0: 0000 0000 0000 0000 0000 0000 0000 0000
000000e0: 0000 0000 0000 0000 0000 0000 0000 0000
000000f0: 0000 0000 0000 0000 0000 0000 0000 0000
00000100: 0000 0000 0000 0000 0000 0000 0000 0000
00000110: 0000 0000 0000 0000 0000 0000 0000 0000
00000120: 0000 0000 0000 0000 0000 0000 0000 0000
00000130: 0000 0000 0000 0000 0000 0000 0000 0000
00000140: 0000 0000 0000 0000 0000 0000 0000 0000
00000150: 0000 0000 0000 0000 0000 0000 0000 0000
00000160: 0000 0000 0000 0000 0000 0000 0000 0000
00000170: 0000 0000 0000 0000 0000 0000 0000 0000
00000180: 0000 0000 0000 0000 0000 0000 0000 0000
00000190: 0000 0000 0000 0000 1b37 8437 9a26 4535
000001a0: b474 8437 ce19 c6b5 2c28 5b37 0127 1e37
000001b0: 1a60 0636 5a7c c237 3bd3 7d37 6051 9eb5
000001c0: c091 7137 d940 2ab6 dd21 8137 0ff4 93b5
000001d0: 955d 8437 7fce fe35 af6c 6937 57e1 f036
000001e0: 031e 8237 aaca 19b6 fa13 6937 84c4 0737
000001f0: 571f 7e37 4737 a536 cbe6 5f37 37b9 1637
00000200: 5e28 2737 bd25 19b6 8e3f 8037 c169 7836
00000210: e123 6337 71c8 0b37 8c48 8437 8f1c 93b5
00000220: 1824 8237 43fd 5036 f31d 6637 8d30 0837
00000230: 30c3 5c37 50dd 3936 6372 8437 11d1 c9b5
00000240: 621c 4137 223d 3337 f83f 0f37 4f45 bdb6
00000250: 5a9e 7b37 4c03 bc36 a8d9 6937 e42b a1b6
00000260: 0000 0000 0000 0000 0000 0000 0000 0000
00000270: 0000 0000 0000 0000 0000 0000 0000 0000
00000280: 0000 0000 0000 0000 0000 0000 0000 0000
00000290: 0000 0000 0000 0000 0000 0000 0000 0000
000002a0: 0000 0000 0000 0000 0000 0000 0000 0000
000002b0: 0000 0000 0000 0000 0000 0000 0000 0000
000002c0: 0000 0000 0000 0000 0000 0000 0000 0000
000002d0: 0000 0000 0000 0000 0000 0000 0000 0000
000002e0: 0000 0000 0000 0000 0000 0000 0000 0000
000002f0: 0000 0000 0000 0000 0000 0000 0000 0000
00000300: 0000 0000 0000 0000 0000 0000 0000 0000
00000310: 0000 0000 0000 0000 0000 0000 0000 0000
00000320: 0000 0000 0000 0000 162d eeb7 2b55 0b37
00000330: b103 ddb7 ad1e 4137 ec43 d0b7 07e6 6ab7
00000340: 7032 8eb7 f092 49b8 31d9 e3b7 dcbc 9637
00000350: 932c cdb7 1813 d137 73c0 e3b7 103d 8237
00000360: b7e7 efb7 cbe5 9a36 eece 0bb8 96fd b6b6
00000370: 8b95 d6b7 5cd7 7e37 57d8 ddb7 0c55 33b7
00000380: a006 f6b7 d1ae 11b6 81c6 d7b7 22f5 58b7
00000390: f9b0 bbb7 4031 3d38 784c 00b8 faf9 2936
000003a0: 6d4d 02b8 6bbd 2bb7 768f e0b7 a479 4037
000003b0: e0aa f8b7 2a89 4136 8606 fbb7 019f 27b7
000003c0: c8bb 16b8 e924 8937 66c9 dcb7 06a0 4137
000003d0: a4d8 03b8 0fa2 a9b7 892a 9a36 f8ba 4e38
000003e0: 5695 edb7 f742 97b6 a988 a3b7 3b5f eb37
000003f0: 0000 0000 0000 0000 0000 0000 0000 0000

exp_avg_sq f4 [128, 100]
0.0 0.0 2.3472195e-09 9.2958014e-10 2.1569297e-09 1.1221795e-09 3.0805125e-09 1.8848983e-10
1.1471701e-09 1.5164575e-09 1.4104078e-09 1.8786046e-09 9.008737e-10 2.401606e-09 1.6584553e-09 1.6261542e-09
2.6745128e-09 6.0010014e-10 2.463955e-09 7.485842e-10 1.7654291e-09 1.5173566e-09 3.1770577e-09 9.208165e-11
2.983819e-09 2.8486333e-10 3.1312155e-09 1.367964e-10 1.9027589e-10 3.1697935e-09 2.5855296e-09 6.8194483e-10
2.8370155e-09 3.768989e-10 2.1332847e-09 1.1460484e-09 2.6840918e-09 5.873357e-10 2.9874376e-09 2.5258223e-10
7.0133405e-10 2.5903073e-09 2.1551032e-09 1.1240149e-09 1.2259541e-09 1.8391869e-09 9.4583376e-11 3.2565008e-09
3.134632e-09 1.3566533e-10 6.9993794e-10 2.6044613e-09 0.0 0.0 0.0 0.0
0.0 0.0 0.0 0.0 0.0 0.0 0.0 0.0
0.0 0.0 0.0 0.0 0.0 0.0 0.0 0.0
0.0 0.0 0.0 0.0 0.0 0.0 0.0 0.0
0.0 0.0 0.0 0.0 0.0 0.0 0.0 0.0
0.0 0.0 0.0 0.0 0.0 0.0 0.0 0.0
0.0 0.0 0.0 0.0 0.0 0.0 8.348993e-11 2.0642706e-11
7.870611e-11 2.591367e-11 8.8577236e-11 1.5925983e-11 3.0905264e-11 5.1107597e-11 5.724305e-11 4.607248e-11
4.171481e-11 6.130388e-11 6.46699e-11 3.903644e-11 9.152049e-11 1.2812962e-11 8.218931e-11 1.754195e-11
6.790858e-11 3.6431764e-11 9.474927e-11 9.699098e-12 9.670466e-11 7.227741e-12 9.125205e-11 1.3079311e-11
1.4110883e-11 8.580724e-11 8.8187325e-11 1.5046091e-11 8.878857e-11 1.1725045e-11 7.807278e-11 2.6385807e-11
9.108559e-11 1.2743243e-11 9.206995e-11 9.883339e-12 3.066965e-11 6.80951e-11 7.865567e-11 2.597036e-11
4.9005747e-11 3.815136e-11 1.2782861e-11 8.784339e-11 9.907078e-11 5.2808352e-12 3.590828e-11 6.774222e-11
0.0 0.0 0.0 0.0 0.0 0.0 0.0 0.0
0.0 0.0 0.0 0.0 0.0 0.0 0.0 0.0
0.0 0.0 0.0 0.0 0.0 0.0 0.0 0.0
0.0 0.0 0.0 0.0 0.0 0.0 0.0 0.0
0.0 0.0 0.0 0.0 0.0 0.0 0.0 0.0
0.0 0.0 0.0 0.0 0.0 0.0 0.0 0.0
0.0 0.0 1.7925131e-09 6.0866795e-10 1.6631768e-09 7.3664785e-10 2.0639574e-09 3.2880426e-10
8.4702617e-10 1.5532127e-09 1.1066104e-09 1.3103177e-09 7.269029e-10 1.7016462e-09 1.2962958e-09 1.1142677e-09
2.012638e-09 3.853891e-10 1.836551e-09 5.363955e-10 1.3820942e-09 1.0225221e-09 2.1960966e-09 1.9694946e-10
2.18647e-09 2.0884106e-10 2.1236837e-09 2.6925792e-10 2.1277435e-10 2.2678899e-09 1.942634e-09 4.5617154e-10
2.0343434e-09 3.283906e-10 1.6459158e-09 7.5517137e-10 2.0126245e-09 3.858368e-10 2.1199615e-09 2.5778568e-10
4.5991097e-10 2.007029e-09 1.6619035e-09 7.378861e-10 1.1441933e-09 1.3047571e-09 2.4587354e-10 2.1822855e-09
2.2608844e-09 1.3345659e-10 6.0013944e-10 1.8238835e-09 0.0 0.0 0.0 0.0
00000000: 0000 0000 0000 0000 b94c 2131 6385 7f30
00000010: 1c39 1431 2e3b 9a30 f3b0 5331 2c3f 4f2f
00000020: 76aa 9d30 9b6b d030 50d8 c130 c318 0131
00000030: 5aa1 7730 8009 2531 b5ef e330 377f df30
00000040: 87ca 3731 4bf4 2430 5b52 2931 eec4 4d30
00000050: 84a3 f230 3d8b d030 6453 5a31 5c7d ca2e
00000060: e60b 4d31 f39a 9c2f ed2c 5731 c368 162f
00000070: e735 512f 99d3 5931 1ead 3131 9a73 3b30
00000080: 4ef5 4231 ce33 cf2f 2499 1231 fe82 9d30
00000090: 0b73 3831 1372 2130 8f4b 4d31 cadb 8a2f
000000a0: ffc7 4030 2b01 3231 fa18 1431 c27b 9a30
000000b0: 6d7e a830 a3c6 fc30 b5fd cf2e f8c8 5f31
000000c0: 0869 5731 652a 152f c165 4030 2bfa 3231
000000d0: 0000 0000 0000 0000 0000 0000 0000 0000
000000e0: 0000 0000 0000 0000 0000 0000 0000 0000
000000f0: 0000 0000 0000 0000 0000 0000 0000 0000
00000100: 0000 0000 0000 0000 0000 0000 0000 0000
00000110: 0000 0000 0000 0000 0000 0000 0000 0000
00000120: 0000 0000 0000 0000 0000 0000 0000 0000
00000130: 0000 0000 0000 0000 0000 0000 0000 0000
00000140: 0000 0000 0000 0000 0000 0000 0000 0000
00000150: 0000 0000 0000 0000 0000 0000 0000 0000
00000160: 0000 0000 0000 0000 0000 0000 0000 0000
00000170: 0000 0000 0000 0000 0000 0000 0000 0000
00000180: 0000 0000 0000 0000 0000 0000 0000 0000
00000190: 0000 0000 0000 0000 a798 b72e 3e93 b52d
000001a0: 9a13 ad2e 66f0 e32d 8dc8 c22e 2016 8c2d
000001b0: 3cec 072e 0ac6 602e f2c1 7b2e 00a1 4a2e
000001c0: b376 372e 04cf 862e eb35 8e2e 20af 2b2e
000001d0: 7541 c92e 7368 612d 78bc b42e f64c 9a2d
000001e0: 2255 952e 853a 202e 195b d02e dba0 2a2d
000001f0: e2a7 d42e b44d fe2c 56aa c82e fb17 662d
00000200: c43d 782d 2fb1 bc2e 0ded c12e c958 842d
00000210: 853f c32e e944 4e2d 11af ab2e 8e17 e82d
00000220: a14c c82e 772e 602d c676 ca2e 9ade 2d2d
00000230: f5e2 062e 22be 952e 35f7 ac2e 0d70 e42d
00000240: 9187 572e 9dca 272e e3e0 602d 6f2b c12e
00000250: e4db d92e 89cd b92c 21ed 1d2e 7bf7 942e
00000260: 0000 0000 0000 0000 0000 0000 0000 0000
00000270: 0000 0000 0000 0000 0000 0000 0000 0000
00000280: 0000 0000 0000 0000 0000 0000 0000 0000
00000290: 0000 0000 0000 0000 0000 0000 0000 0000
000002a0: 0000 0000 0000 0000 0000 0000 0000 0000
000002b0: 0000 0000 0000 0000 0000 0000 0000 0000
000002c0: 0000 0000 0000 0000 0000 0000 0000 0000
000002d0: 0000 0000 0000 0000 0000 0000 0000 0000
000002e0: 0000 0000 0000 0000 0000 0000 0000 0000
000002f0: 0000 0000 0000 0000 0000 0000 0000 0000
00000300: 0000 0000 0000 0000 0000 0000 0000 0000
00000310: 0000 0000 0000 0000 0000 0000 0000 0000
00000320: 0000 0000 0000 0000 735c f630 334f 2730
00000330: d595 e430 fc7c 4a30 86d5 0d31 16c3 b42f
00000340: 2bd4 6830 d078 d530 6417 9830 b516 b430
00000350: 3fcf 4730 5adf e930 5b29 b230 cf24 9930
00000360: b44e 0a31 b2de d32f e569 fc30 7a71 1330
00000370: 1ef4 bd30 cc88 8c30 24ea 1631 588c 582f
00000380: c940 1631 889f 652f 3df0 1131 af06 942f
00000390: a8f2 692f 24d9 1b31 2e7f 0531 70c8 fa2f
000003a0: 8ccc 0b31 de88 b42f 8436 e230 7694 4f30
000003b0: 774e 0a31 b41d d42f c2ae 1131 1cb8 8d2f
000003c0: b7d6 fc2f 07ec 0931 0869 e430 1ed4 4a30
000003d0: b941 9d30 0f53 b330 a02b 872f 2cf7 1531
000003e0: e65d 1b31 b1bc 122f 0ff7 2430 32ac fa30
000003f0: 0000 0000 0000 0000 0000 0000 0000 0000

exp_avg f4 [128]
-3.2382636e-06 -1.627046e-05 2.5370538e-05 -1.3336695e-05 3.491971e-05 3.4765624e-05 8.1832525e-08 -7.4940726e-06
-1.0595496e-05 2.9852228e-05 8.935601e-06 7.50106e-05 -1.8536528e-05 -8.187208e-06 -2.2720253e-06 1.6100073e-05
-3.7082752e-06 -2.3710605e-05 -1.7617087e-05 3.9718498e-06 5.8946494e-05 1.5311607e-05 1.1568283e-05 2.4376366e-05
4.4998367e-05 -1.27482035e-05 -3.393456e-05 -1.2498596e-05 -7.0045753e-06 3.0593492e-05 8.137011e-06 6.1054807e-06
1.0357189e-05 3.9500166e-05 -4.9282053e-06 5.0998784e-05 1.8573508e-05 2.8050572e-06 -3.632012e-07 2.1335985e-05
-6.15943e-06 -6.4408114e-06 6.746011e-05 6.027146e-06 5.3007716e-06 4.601512e-06 -1.2680533e-05 4.0218787e-05
-1.5311509e-05 -2.334825e-05 2.0764937e-05 5.663838e-07 4.3077403e-06 5.3447366e-06 4.1097617e-05 -1.1955316e-05
2.4701494e-05 -1.4892041e-05 -3.7303748e-06 -6.356567e-06 6.0951974e-05 1.0135887e-05 1.663019e-05 -3.4426575e-05
1.2016575e-05 6.496818e-07 -1.1595446e-05 5.2150142e-05 9.570214e-06 2.1182143e-05 2.3115146e-05 5.1578417e-07
2.439568e-05 -6.6645237e-07 1.0060662e-05 3.279535e-05 -4.877138e-06 -7.826233e-06 2.7828668e-05 -1.953579e-05
3.7806345e-05 2.8619634e-06 -9.779494e-06 -9.880306e-07 2.3751127e-06 1.4978183e-06 8.31624e-06 3.1939617e-05
-8.510636e-06 -1.1657029e-06 4.6975856e-05 1.3751934e-05 6.620205e-05 2.1149714e-05 3.498293e-05 1.1934621e-05
-1.51480035e-05 -1.51798495e-05 -2.2292413e-06 5.3670447e-06 -4.9281186e-07 5.4646192e-05 1.9067915e-05 5.1887505e-06
-1.004767e-05 2.2359767e-05 -1.7132175e-05 -8.411832e-06 2.0484542e-05 -1.3727637e-06 1.1322558e-05 -3.9954393e-06
1.6498076e-05 1.450314e-06 1.4849751e-05 3.558904e-06 -8.355954e-06 -1.8745706e-05 -1.7640401e-05 1.6197915e-05
1.5233278e-05 1.8721446e-05 5.2007555e-05 3.1149215e-05 1.3480026e-05 1.4453192e-05 1.9470232e-05 -2.1016124e-06
00000000: f250 59b6 8c7c 88b7 d1d2 d437 abc0 5fb7
00000010: c176 1238 4ed1 1138 e8bb af33 9875 fbb6
00000020: 4fc3 31b7 2c6b fa37 1dea 1537 024f 9d38
00000030: e47e 9bb7 ca5b 09b7 1979 18b6 a50e 8737
00000040: afdb 78b6 23e6 c6b7 68c8 93b7 ee45 8536
00000050: 513d 7738 6d71 8037 6615 4237 d97b cc37
00000060: a1bc 3c38 1ee1 55b7 f554 0eb8 10b1 51b7
00000070: d808 ebb6 8351 0038 3284 0837 aedd cc36
00000080: cac3 2d37 fbac 2538 f65c a5b6 87e7 5538
00000090: 4ece 9b37 843e 3c36 fefd c2b4 aefa b237
000000a0: 1aad ceb6 261e d8b6 5f79 8d38 ca3c ca36
000000b0: 48dd b136 b066 9a36 79be 54b7 98b0 2838
000000c0: 3771 80b7 fcdb c3b7 5d30 ae37 9909 1835
000000d0: 358b 9036 f056 b336 3b60 2c38 b193 48b7
000000e0: 0e36 cf37 d4d8 79b7 5a57 7ab6 7f4a d5b6
000000f0: afa6 7f38 4e0d 2a37 1081 8b37 4165 10b8
00000100: cc9a 4937 cb65 2e35 108a 42b7 cabb 5a38
00000110: c28f 2037 4eb0 b137 66e7 c137 6b74 0a35
00000120: 53a5 cc37 42e6 32b5 37ca 2837 bd8d 0938
00000130: 4ca6 a3b6 6a4d 03b7 9c71 e937 cae0 a3b7
00000140: 4192 1e38 2810 4036 9b12 24b7 799c 84b5
00000150: 2064 1f36 a508 c935 fb85 0b37 e7f6 0538
00000160: e7c8 0eb7 3f75 9cb5 f107 4538 1bb8 6637
00000170: f4d5 8a38 aa6a b137 a3ba 1238 cf3a 4837
00000180: 2e24 7eb7 f5ac 7eb7 139a 15b6 9016 b436
00000190: c649 04b5 e733 6538 09f4 9f37 071b ae36
000001a0: 6a92 28b7 3c91 bb37 11b7 8fb7 8b20 0db7
000001b0: 38d6 ab37 cd3f b8b5 04f6 3d37 9010 86b6
000001c0: 5965 8a37 69a8 c235 3223 7937 81d5 6e36
000001d0: 8d30 0cb7 1940 9db7 79fa 93b7 c2e0 8737
000001e0: 6e92 7f37 000c 9d37 b022 5a38 37a6 0238
000001f0: 4528 6237 fd7b 7237 0154 a337 6d09 0db6

exp_avg_sq f4 [128]
3.289724e-09 1.07417436e-10 2.4075384e-09 1.8094075e-10 1.6346885e-09 1.477133e-09 6.5638905e-10 2.780824e-10
4.4801743e-10 1.2282599e-09 2.70964e-09 8.197412e-09 1.1654583e-10 6.4850285e-11 1.5020378e-09 4.199634e-10
6.2464695e-10 8.214802e-10 7.770434e-10 4.608722e-10 7.776367e-10 1.3223331e-09 1.9115241e-10 2.25659e-09
5.6475757e-09 2.0035637e-10 1.0933225e-09 1.9674386e-10 8.6283947e-10 5.582699e-09 3.3573694e-10 2.1780351e-10
1.3330113e-09 2.8709508e-09 2.821376e-10 4.4199924e-09 2.1710622e-09 3.4323097e-10 1.1435196e-09 1.5076987e-09
8.302664e-10 1.9276539e-11 5.0882076e-09 2.484318e-10 4.5159854e-10 2.7225666e-10 2.5184907e-10 1.2090146e-09
1.7669276e-09 1.1465611e-09 9.806944e-10 5.7550387e-10 2.2824798e-10 2.2449646e-11 4.5012208e-10 1.0652129e-09
1.0891485e-09 2.9714478e-09 4.62669e-10 2.2297512e-10 5.140693e-09 3.7730313e-10 1.3706756e-09 1.0026141e-09
1.8289376e-09 1.0188317e-10 1.609492e-10 1.4148287e-09 6.97348e-11 4.6189952e-10 9.353693e-10 5.479431e-11
2.1351028e-09 2.4879232e-09 1.3956662e-10 6.8264694e-10 1.3807334e-09 1.3107043e-10 9.771491e-10 2.1180386e-09
1.7934978e-09 6.449506e-10 4.659503e-10 1.02653414e-10 8.020256e-10 3.1401205e-11 2.61034e-10 8.6167407e-10
6.180997e-10 4.2123716e-10 9.755727e-10 4.734745e-10 4.815385e-09 1.7276947e-09 1.0583716e-09 9.4470466e-11
8.350728e-11 4.2479344e-09 2.8518804e-10 1.4709133e-09 2.9347286e-10 9.847655e-09 2.9660232e-09 8.046947e-10
1.3706933e-09 4.409886e-10 4.6171747e-10 1.8044154e-10 1.1057646e-09 6.048691e-10 3.868127e-11 9.020767e-11
1.7582955e-10 1.8676986e-10 2.593141e-09 1.557832e-09 1.139669e-09 4.6687243e-10 6.431366e-10 5.2183685e-10
2.6088829e-09 6.401204e-10 2.8170115e-09 2.1152688e-09 1.967237e-09 2.697462e-09 5.7567956e-10 2.9304642e-10
00000000: 7011 6231 a436 ec2e dd71 2531 4bf2 462f
00000010: 7dab e030 ff03 cb30 466d 3430 9ee0 982f
00000020: d94c f62f 8ecf a830 7e34 3a31 99d4 0c32
00000030: bc24 002f 779b 8e2e 4270 ce30 98e0 e62f
00000040: 9fb3 2b30 88ce 6130 9197 5530 ff5d fd2f
00000050: 51c1 5530 76bd b530 9f2c 522f 5a12 1b31
00000060: 9a0c c231 4e4b 5c2f de43 9630 7952 582f
00000070: ee2c 6d30 f1d1 bf31 c692 b82f 3d7a 6f2f
00000080: 2a35 b730 4d4a 4531 561b 9b2f aade 9731
00000090: bb31 1531 77b1 bc2f 052a 9d30 6f37 cf30
000000a0: ce38 6430 e88e a92d 59d4 ae31 ab93 882f
000000b0: d844 f82f b8ac 952f 9b74 8a2f 6b2a a630
000000c0: 3dd8 f230 0895 9d30 1ec9 8630 7c31 1e30
000000d0: 18f6 7a2f 1c78 c52d 0d75 f72f d966 9230
000000e0: 02b1 9530 4332 4c31 df5a fe2f eb29 752f
000000f0: 04a2 b031 b26c cf2f 5c62 bc30 59cc 8930
00000100: 055e fb30 200b e02e 2cf7 302f dc73 c230
00000110: 3459 992e 94ee fd2f 628e 8030 e9fc 702e
00000120: 20b9 1231 02f8 2a31 8374 192f 02a5 3b30
00000130: 3dc4 bd30 0c1d 102f 614c 8630 ee8c 1131
00000140: 187f f630 5d48 3130 5614 0030 bcbc e12e
00000150: 8975 5c30 9d1a 0a2e 4581 8f2f ecda 6c30
00000160: e6e6 2930 dc93 e72f ea14 8630 ce25 0230
00000170: 9374 a531 da73 ed30 2476 9130 25be cf2e
00000180: 6ba2 b72e 3af5 9131 a6c8 9c2f 2929 ca30
00000190: a256 a12f 722e 2932 d5d2 4b31 5b31 5d30
000001a0: fc62 bc30 a16f f22f f5d4 fd2f c765 462f
000001b0: a2f9 9730 e143 2630 3d1f 2a2e 675e c62e
000001c0: 9e53 412f 0b5b 4d2f 0533 3231 571b d630
000001d0: 8aa2 9c30 3a55 0030 b7c8 3030 0171 0f30
000001e0: f447 3331 78f4 2f30 6495 4131 345c 1131
000001f0: 0030 0731 415e 3931 d93d 1e30 9e1a a12f
