results/ppo/EatFood/EatFood-1327.pt (torch, 145423 bytes, 12 tensors)

network_body._body_endoder.seq_layers.0.weight f4 [128, 2]
000000 cd 4f 0b 3f 9b 79 88 3e 71 a7 d4 3a 8f c7 7a 3d
       0.5441864 0.26655278 0.0016224218 0.06122547
000010 d6 41 dc bd 4b e9 8e bf 0a 39 2b bf e4 92 52 3e
       -0.10754745 -1.1164945 -0.6688391 0.20563847
000020 ba 4b aa be 9b 4e c8 be 91 bd 89 3f d6 7a 34 bf
       -0.332609 -0.3912247 1.0760976 -0.7049993
000030 9e 8b 91 be 2a 4a 80 3e a0 3c 2e bf d9 85 e2 be
       -0.28426832 0.25056583 -0.68061256 -0.44242743
000040 33 91 6b 3e c5 ce 81 bf 27 5d 78 bd 84 cd 24 3f
       0.23004608 -1.0141226 -0.060635712 0.6437609
000050 42 76 a4 bf 6c 5d 19 3f 08 a8 c4 be 6a 09 8a 3e
       -1.284859 0.59908175 -0.38409448 0.26960307
000060 94 89 a1 3f cc 90 9e 3e 45 18 31 bf 28 52 b3 bf
       1.262011 0.30969846 -0.6917766 -1.4009447
000070 45 9f 8b 3f 09 6c 24 3f 97 ef e8 bd ff 31 28 3f
       1.090798 0.6422735 -0.11373823 0.6570129
000080 ff 4d c1 be ad 01 1b 3d bc 56 7f 3e cf c2 1d 3f
       -0.3775482 0.037843395 0.2493543 0.6162538
000090 23 10 be be 6d f4 86 3f ad 70 7b be 11 52 52 bf
       -0.37121686 1.0543343 -0.24554701 -0.82156473
0000a0 ab c6 8f 3f a4 08 40 3f 6d 71 1d 3f 1a ce 97 bf
       1.1232504 0.75013185 0.615012 -1.1859772
0000b0 09 0b d6 be 07 d1 33 bf 6f 4d e2 3f 27 a4 1e bf
       -0.41805294 -0.70240825 1.7679881 -0.61969227
0000c0 1b 72 9f bf 0a dd 2a bf 21 7a 97 3d a6 73 2d 3f
       -1.2456697 -0.6674353 0.07396341 0.6775459
0000d0 5b d9 ed be b6 0a 5c be 2c aa a2 3d c0 27 34 3f
       -0.46454892 -0.21488461 0.07942614 0.70373154
0000e0 82 d5 de 3e e8 c3 44 3f 54 02 9f bf 0a 8b 76 bf
       0.4352227 0.7686143 -1.2422585 -0.96305907
0000f0 f6 66 99 3e df 04 0d 3f bc 65 5d be 3e 6a 75 3e
       0.29961365 0.5508556 -0.2162084 0.2396631
000100 ec 05 df bd f2 37 66 bd d6 e9 34 3e 5c 7f 11 3f
       -0.108898014 -0.056205697 0.17667326 0.5683496
000110 bb f8 2d bf 24 d3 c4 bb 10 19 22 3e 35 a8 ab bf
       -0.6795766 -0.0060066152 0.15829873 -1.3410708
000120 0a 4c d6 3e 45 79 62 bf f1 86 ed bd a1 f3 9f bf
       0.41854888 -0.8846629 -0.11598004 -1.2496225
000130 08 d7 14 bf 96 97 4a 3f f4 c3 f6 3d bd 15 14 3f
       -0.5814061 0.7913755 0.12049094 0.5784567
000140 1c 9b d7 be 55 0b 96 bf 3b 5b 96 3f 2b ca a1 3e
       -0.42110527 -1.1722208 1.1746591 0.31599554
000150 ea d2 5b bd f8 61 df be 0c 0e c6 bc 42 ef 53 3f
       -0.05366794 -0.43629432 -0.02417662 0.82786953
000160 be c0 e7 3f a2 f6 ad be 4e 04 2d 3f c3 e9 87 3e
       1.8105695 -0.33977228 0.67584693 0.26545534
000170 99 c7 37 bf d9 95 85 be a7 a0 92 bc a0 1d 4a bf
       -0.71788937 -0.26090887 -0.01789887 -0.78951454
000180 ae f5 55 bf ef ca da bd 4c ee 2b bf 98 4f 51 bf
       -0.83578 -0.10683238 -0.6716049 -0.81762075
000190 98 13 9c 3e 77 d0 f1 3e c8 af f6 be 7c 59 0c 3f
       0.304837 0.4722936 -0.48180985 0.5482404
0001a0 18 65 cd be 8b 34 7c 3e c5 50 4b be 5d 4f a9 3e
       -0.4011619 0.24629419 -0.1985503 0.33068362
0001b0 78 86 27 bf cb 02 02 3e 6d 83 82 3f 98 2b 67 3f
       -0.6543956 0.12696378 1.0196358 0.90300894
0001c0 c5 ca 61 3f 34 b5 bd be c6 57 95 bd 14 81 c9 3e
       0.88200027 -0.3705231 -0.07292132 0.3935629
0001d0 3a 57 69 bf f7 d2 4c 3e c7 92 bb be 15 0a 78 3f
       -0.9114872 0.20002352 -0.3663542 0.96890384
0001e0 29 eb b2 bb ec 7b 10 bf e3 24 3d 3d 13 b5 87 be
       -0.005460162 -0.5643909 0.046177756 -0.26505336
0001f0 b4 e8 6a 3f 30 35 f4 bd be 2f b7 be af d5 ae 3e
       0.91761327 -0.11924207 -0.35778612 0.34147403
000200 b9 80 3e bf 35 8b 82 3f 33 d3 24 bf 78 3b a7 3e
       -0.74415165 1.0198733 -0.64384764 0.3266256
000210 fd 18 a0 bf 00 76 d6 3c 7a b9 42 3f 7e e7 52 3f
       -1.2507626 0.026179314 0.76064265 0.8238448
000220 eb 8c 2f be f9 c5 39 3d d6 10 02 3f 2e d1 43 bf
       -0.171436 0.045354817 0.5080694 -0.7649106
000230 c2 33 2b bf f1 8d 40 bf aa 91 df 3e a6 82 6e 3e
       -0.6687585 -0.75216585 0.4366582 0.23292026
000240 17 80 2b bf e9 f8 6c 3f 76 b8 90 be e2 a9 e1 3e
       -0.66992325 0.92567307 -0.28265733 0.44074923
000250 a1 a7 ae 3e d8 c8 9c bc 69 f6 e6 3e e4 a6 83 bd
       0.34112266 -0.019138739 0.4510987 -0.06428316
000260 03 45 5b 3f bf 23 80 be eb a8 fe 3d 04 63 7e 3f
       0.8565218 -0.25027272 0.12434562 0.99369836
000270 54 63 37 3e e2 fb 55 3e 85 e6 c4 3e 34 79 c7 3e
       0.17908984 0.20896867 0.38457122 0.38959658
000280 74 53 7a bf 5d e3 11 be 69 2d cb 3f 48 11 52 be
       -0.9778359 -0.14246888 1.5873233 -0.20514405
000290 3e ed ef 3e 5c cd bc bf 8f 9e d2 3d 92 61 b8 bf
       0.4686069 -1.4750171 0.10284149 -1.4404776
0002a0 9b b7 92 3e b2 97 05 be 73 80 11 bf 5d 33 d7 be
       0.28655705 -0.13046148 -0.5683662 -0.42031375
0002b0 5d f3 51 3f ec 13 15 be 36 c0 36 bd 1b 33 09 3f
       0.8201197 -0.14558381 -0.0446169 0.53593606
0002c0 24 ae 8c bd 8a 4d 73 3e eb 95 dc bf d3 69 b8 bf
       -0.06869152 0.23760048 -1.7233251 -1.4407295
0002d0 39 1f f0 be f0 37 95 bd 7c b2 9d bf 72 5a 3b 3f
       -0.4689882 -0.0728606 -1.2320094 0.73184884
0002e0 61 ca 47 3f a0 3e f5 bc 1c 9f 9b 3f e7 54 e2 3e
       0.7804318 -0.029937088 1.2157931 0.442054
0002f0 0b c3 fa bd fb 9a a7 3f 55 e5 1d 3f 2e 10 ad 3f
       -0.12244233 1.3094171 0.6167806 1.3520563
000300 59 4d 19 bf 94 6f a2 3f 64 ab 7a 3d e2 bd 8e 3d
       -0.5988365 1.2690301 0.061198607 0.06969811
000310 44 5e ae 3e a2 11 91 3c 49 32 d5 3f 04 20 d8 bd
       0.34056294 0.017708603 1.6655971 -0.105529815
000320 84 c9 4f 3f 22 49 28 bf 5f 30 20 bf e0 5e c0 bf
       0.81166863 -0.6573659 -0.6257381 -1.5028954
000330 87 83 9d bf ca c3 fd 3c a0 ea c1 bf 18 97 ad be
       -1.2305764 0.030977149 -1.5149727 -0.33904338
000340 b7 7a c9 bc d2 2b 1c be 04 f6 01 bf 83 43 e3 be
       -0.024594648 -0.15251091 -0.50766015 -0.44387445
000350 56 7c a5 bf 89 72 dc 3e 38 c7 8a 3e f0 5e 85 bf
       -1.2928569 0.43056133 0.27105117 -1.0419598
000360 13 e1 f4 bd f8 ee cf 3e 0b b4 af 3e a2 fa 39 bf
       -0.11956992 0.40612006 0.3431705 -0.7264806
000370 42 f8 33 3f 10 98 72 3f 36 52 21 bf 54 36 3b 3f
       0.70300686 0.9476328 -0.6301607 0.73129773
000380 70 23 0b 3f f4 b7 1f 3e e9 b7 02 3f f9 70 a3 3f
       0.5435095 0.15597516 0.51061875 1.2768852
000390 49 8f 3d 3f 8c d1 28 bf 41 b1 91 3d 0d d5 0e 3f
       0.7404676 -0.65944743 0.071138866 0.5579384
0003a0 70 90 18 bf 9f f6 0f 3f 31 16 1d bb a5 eb 0b bf
       -0.59595394 0.5623569 -0.0023969526 -0.5465644
0003b0 8d f7 9d 3f f5 97 ea 3e aa 20 ad be 7d 68 58 3f
       1.2341172 0.4581906 -0.33813983 0.84534436
0003c0 1b 70 9e 3e fd 9e 5b be a9 1a fa bf 03 17 95 3e
       0.30944905 -0.21447368 -1.9539386 0.2911912
0003d0 1b 8f 99 3f 63 ec e5 3e 8f 81 d1 bf 01 6c af be
       1.1996797 0.4490691 -1.6367663 -0.34262088
0003e0 9f 67 4d 3e 23 8e 3b 3f 5e b2 89 3f 02 0f 21 3f
       0.2005906 0.7326376 1.0757558 0.62913525
0003f0 6d 66 23 3f f9 5e e2 be c6 5c eb 3e f6 93 7d be
       0.63828164 -0.44213083 0.45969218 -0.24763474

network_body._body_endoder.seq_layers.0.bias f4 [128]
000000 00 00 00 00 00 00 00 00 00 00 00 00 00 00 00 00
       0.0 0.0 0.0 0.0
000010 00 00 00 00 00 00 00 00 00 00 00 00 00 00 00 00
       0.0 0.0 0.0 0.0
000020 00 00 00 00 00 00 00 00 00 00 00 00 00 00 00 00
       0.0 0.0 0.0 0.0
000030 00 00 00 00 00 00 00 00 00 00 00 00 00 00 00 00
       0.0 0.0 0.0 0.0
000040 00 00 00 00 00 00 00 00 00 00 00 00 00 00 00 00
       0.0 0.0 0.0 0.0
000050 00 00 00 00 00 00 00 00 00 00 00 00 00 00 00 00
       0.0 0.0 0.0 0.0
000060 00 00 00 00 00 00 00 00 00 00 00 00 00 00 00 00
       0.0 0.0 0.0 0.0
000070 00 00 00 00 00 00 00 00 00 00 00 00 00 00 00 00
       0.0 0.0 0.0 0.0
000080 00 00 00 00 00 00 00 00 00 00 00 00 00 00 00 00
       0.0 0.0 0.0 0.0
000090 00 00 00 00 00 00 00 00 00 00 00 00 00 00 00 00
       0.0 0.0 0.0 0.0
0000a0 00 00 00 00 00 00 00 00 00 00 00 00 00 00 00 00
       0.0 0.0 0.0 0.0
0000b0 00 00 00 00 00 00 00 00 00 00 00 00 00 00 00 00
       0.0 0.0 0.0 0.0
0000c0 00 00 00 00 00 00 00 00 00 00 00 00 00 00 00 00
       0.0 0.0 0.0 0.0
0000d0 00 00 00 00 00 00 00 00 00 00 00 00 00 00 00 00
       0.0 0.0 0.0 0.0
0000e0 00 00 00 00 00 00 00 00 00 00 00 00 00 00 00 00
       0.0 0.0 0.0 0.0
0000f0 00 00 00 00 00 00 00 00 00 00 00 00 00 00 00 00
       0.0 0.0 0.0 0.0
000100 00 00 00 00 00 00 00 00 00 00 00 00 00 00 00 00
       0.0 0.0 0.0 0.0
000110 00 00 00 00 00 00 00 00 00 00 00 00 00 00 00 00
       0.0 0.0 0.0 0.0
000120 00 00 00 00 00 00 00 00 00 00 00 00 00 00 00 00
       0.0 0.0 0.0 0.0
000130 00 00 00 00 00 00 00 00 00 00 00 00 00 00 00 00
       0.0 0.0 0.0 0.0
000140 00 00 00 00 00 00 00 00 00 00 00 00 00 00 00 00
       0.0 0.0 0.0 0.0
000150 00 00 00 00 00 00 00 00 00 00 00 00 00 00 00 00
       0.0 0.0 0.0 0.0
000160 00 00 00 00 00 00 00 00 00 00 00 00 00 00 00 00
       0.0 0.0 0.0 0.0
000170 00 00 00 00 00 00 00 00 00 00 00 00 00 00 00 00
       0.0 0.0 0.0 0.0
000180 00 00 00 00 00 00 00 00 00 00 00 00 00 00 00 00
       0.0 0.0 0.0 0.0
000190 00 00 00 00 00 00 00 00 00 00 00 00 00 00 00 00
       0.0 0.0 0.0 0.0
0001a0 00 00 00 00 00 00 00 00 00 00 00 00 00 00 00 00
       0.0 0.0 0.0 0.0
0001b0 00 00 00 00 00 00 00 00 00 00 00 00 00 00 00 00
       0.0 0.0 0.0 0.0
0001c0 00 00 00 00 00 00 00 00 00 00 00 00 00 00 00 00
       0.0 0.0 0.0 0.0
0001d0 00 00 00 00 00 00 00 00 00 00 00 00 00 00 00 00
       0.0 0.0 0.0 0.0
0001e0 00 00 00 00 00 00 00 00 00 00 00 00 00 00 00 00
       0.0 0.0 0.0 0.0
0001f0 00 00 00 00 00 00 00 00 00 00 00 00 00 00 00 00
       0.0 0.0 0.0 0.0

network_body._body_endoder.seq_layers.2.weight f4 [128, 128]
000000 05 3d 91 3d bb 51 c4 bc 84 aa 84 bd ae aa 92 3d
       0.07091717 -0.023964753 -0.06477836 0.07161461
000010 ad 6f a2 bd ca 3b 44 bd ef f4 8f ba f5 3f 23 be
       -0.07931457 -0.04790858 -0.001098303 -0.15942366
000020 55 a6 24 3e 59 55 da 3c 0f d8 b5 bd c8 a5 41 3c
       0.16079076 0.026652025 -0.088791005 0.0118193105
000030 f5 ab 1a be 7d 29 76 bd 6f 29 51 bd bb 9a 05 3a
       -0.15104659 -0.06009816 -0.051064905 0.0005096604
000040 6d 8f 8d bd 76 d4 d6 bc 8d 73 90 bd 7a 02 98 bd
       -0.06912122 -0.026224356 -0.070532896 -0.07422347
000050 ee 0d 1b be ea 3b 8e bc 5b c4 d2 bd 49 07 48 3c
       -0.15142033 -0.017362554 -0.10291358 0.012208768
000060 f3 0d e8 3d af a9 15 3e 1f b1 37 bd fa 00 1a bd
       0.113307856 0.1461551 -0.04484665 -0.037598588
000070 bd 4c b4 3c fe e8 47 bc 60 42 b7 bd 4c 53 ed bd
       0.022009248 -0.012201546 -0.08948207 -0.11588153
000080 1b 4b db bd af 16 f3 bc 62 4e 56 bc a2 b0 24 bb
       -0.107076846 -0.029673902 -0.013080211 -0.0025129695
000090 cc fe d3 3c 39 27 dd bd 83 83 3e bd f7 47 2a be
       0.025878333 -0.10798497 -0.046512138 -0.16629015
0000a0 f0 f6 62 3d e3 82 3d bc 2d 46 3c 3d 64 ed d6 3d
       0.05541128 -0.01156685 0.045965362 0.104944974
0000b0 2e 23 84 bc 97 01 5c be d2 1c 97 3c b9 9d 26 bd
       -0.016130056 -0.21484981 0.01844636 -0.04067776
0000c0 3a 4d bb bc 68 59 ec ba 5d 1a 2f 3d b5 90 95 3b
       -0.022863973 -0.0018032016 0.04274975 0.0045643696
0000d0 c4 50 3f 3e 05 b2 62 be f8 4e 4a 3c 1d 3b 36 bd
       0.18683153 -0.22138222 0.012347929 -0.04448997
0000e0 0e c2 12 be 41 cc 12 bc 26 37 2f bc c3 7d 36 3d
       -0.14331838 -0.008959831 -0.010694301 0.04455353
0000f0 bd 63 bf bd ff 1f 31 bd 13 07 ec 3d fd 4a 39 bd
       -0.093451954 -0.043243404 0.11524787 -0.04523753
000100 b6 a0 a5 3d b4 68 ae bc 45 ea 09 3d 63 91 c3 bd
       0.08087294 -0.02129016 0.033670682 -0.09549215
000110 11 ca 37 bd e3 69 a8 3d 1f 66 76 bd b1 d7 04 bd
       -0.04487044 0.08223321 -0.060155984 -0.03243226
000120 bd 08 8b bd a0 31 30 be 91 4c f5 bc 2a e8 9d bd
       -0.06788776 -0.1720643 -0.029943736 -0.077102974
000130 cc 06 6a 3d 73 6a 2d be 19 be 82 3c 5e 00 19 bc
       0.05713539 -0.16935138 0.015959786 -0.009338466
000140 f2 4e 2f bd bc a2 a0 3d be 53 59 3e d5 1b 80 3c
       -0.042799897 0.07843539 0.21223351 0.015638271
000150 52 2e a8 bd 2d ee 4f 3d 79 c6 ee bc 47 a7 07 bd
       -0.0821196 0.05076425 -0.029147374 -0.033118512
000160 86 2f 0a 3d e0 3e 41 bc c6 ff ed 3c e5 05 0b be
       0.033736728 -0.011794776 0.029052626 -0.13576467
000170 80 32 96 bd 0b 10 f2 3c f4 6a 06 be 8a d7 a8 3d
       -0.07333851 0.029548666 -0.13126737 0.08244236
000180 c8 c7 14 bd 4e 48 29 3d c7 5a a5 3c cb fb 98 3d
       -0.03632334 0.04132872 0.020184888 0.07469901
000190 06 33 4c 3b d8 4f 5e 3d 07 bc 58 3e 4a e8 c8 3d
       0.0031158342 0.054275364 0.21165477 0.098099306
0001a0 86 f0 e5 3d 98 98 79 bc 0f a4 12 be e8 6e 9a bd
       0.11227517 -0.015234135 -0.14320396 -0.07540685
0001b0 dd 24 80 3b 80 57 03 3d 68 60 b2 3d c5 95 9d 3c
       0.0039106444 0.03206587 0.08709794 0.019236455
0001c0 66 3e 7b 3d 64 be 1f 3d 0c f9 ea 3c d2 15 d0 bd
       0.061338805 0.03899993 0.028683208 -0.10160412
0001d0 94 7e 8e bc 05 e5 37 be 83 48 c9 3c 09 70 50 3c
       -0.017394342 -0.17958458 0.02457071 0.012722024
0001e0 04 bc 14 bd 1a 03 14 3e 86 04 05 be d5 6d 69 bd
       -0.03631212 0.14454308 -0.12990007 -0.05698951
0001f0 7b f1 de bc 4c 2d ef 3c 3d 71 e6 ba ba ee 06 bd
       -0.027214756 0.029196404 -0.0017581355 -0.03294251
000200 3f 89 b5 bd 07 05 bf bc a6 88 64 bc ea bf dc 3b
       -0.08864068 -0.023317827 -0.013948595 0.006736745
000210 97 75 5d bd b9 17 d3 bd 2e 13 a4 3d 13 a5 29 be
       -0.05406722 -0.10307259 0.08011471 -0.16566877
000220 bd 33 28 bd d4 ac 80 3c 88 2f 49 3d 56 29 03 3e
       -0.041064966 0.01570741 0.049117595 0.12808737
000230 e6 a2 12 bd 8e b2 9b 3d 5d 81 bf 3d 7c cf de bd
       -0.035799883 0.07602416 0.09350846 -0.10879418
000240 b8 07 e0 bc c4 1b cc 3c 62 54 4d 3b c4 02 6f be
       -0.02734743 0.024915583 0.0031330814 -0.23340899
000250 6b a3 0b be 66 c1 25 be 90 5d 5f bd 87 60 0c be
       -0.13636558 -0.16187057 -0.054532588 -0.13708697
000260 3e 78 c0 3d 08 64 25 bc d9 ba d3 3d 38 47 ba bc
       0.093979344 -0.01009465 0.10338373 -0.022739038
000270 07 22 84 bd be 9e 42 3d 0d d6 4c bd 28 4d b3 3c
       -0.06451803 0.04751467 -0.050008822 0.021887377
000280 c3 51 f9 bc bd 9f 03 3e 60 c7 97 bc 9e 1a fc 3d
       -0.030434495 0.12853904 -0.018527687 0.12309764
000290 ee e4 ae bc a7 31 5b 3d 7d 5f 23 be ba 89 67 bc
       -0.021349397 0.05351415 -0.15954395 -0.014131958
0002a0 5f 32 9f 3d 00 c5 f1 3d 58 92 f2 3d fa 12 33 3d
       0.077732794 0.11805153 0.11844319 0.04371927
0002b0 b9 54 5b 3d 75 e1 15 bd 04 d4 44 3b d0 85 00 bd
       0.053547595 -0.036591966 0.0030033598 -0.031377614
0002c0 8b 89 cf bd 37 54 7e 3c 95 1f 4b bd 9a 6f f9 bc
       -0.10133656 0.015523008 -0.049590666 -0.030448724
0002d0 82 bb c6 3d 01 12 0e bd 85 53 8b bd d8 95 93 3d
       0.09703733 -0.03468514 -0.068030395 0.07206315
0002e0 d2 57 4c be f3 a1 b9 bd fc b8 df 3b 31 34 14 bd
       -0.19955376 -0.090640925 0.006827472 -0.036182586
0002f0 5d 13 79 bd 58 57 ba bd d6 ab 52 3c e1 ab e7 3c
       -0.060809482 -0.09098691 0.012858352 0.0282802
000300 3a a2 74 be ea c5 28 be 35 55 28 bd 4f a5 f4 3d
       -0.2389001 -0.16481748 -0.041096885 0.119455926
000310 9d ca c7 bd a7 ea 2c be 44 10 9f ba f9 70 f5 3d
       -0.09755442 -0.16886388 -0.0012135585 0.119844384
000320 12 ec 15 3e 47 97 70 bd d4 b9 06 3d 08 23 20 3e
       0.14640835 -0.05873802 0.032892063 0.15638363
000330 70 f2 91 bb f4 d6 5c 3d 99 01 16 be 95 04 f9 bd
       -0.0044539496 0.053915933 -0.14649047 -0.12159077
000340 c9 cd 09 3d 11 a7 85 3d 0f 77 e3 3c e2 be 12 bd
       0.033643518 0.06526006 0.027766732 -0.03582657
000350 82 3a a3 bd 9b 34 0e be af f5 f7 3c d9 18 f6 bd
       -0.07970144 -0.13887255 0.030268518 -0.12016458
000360 ab 6f 64 bd 31 25 f5 3d 21 eb ff 3c 5e 43 44 bc
       -0.055770557 0.11969984 0.031240048 -0.011978952
000370 bf 58 0c 3d 51 62 a2 3d c7 53 21 be e7 3c 85 bd
       0.034264322 0.079289086 -0.15754615 -0.06505757
000380 d3 fd 89 3d b1 db 2f 3d 99 2b b8 bd b7 c7 d0 bc
       0.06737866 0.042934123 -0.089926906 -0.025485856
000390 6a 00 09 3d 2e ba 82 3c 70 d2 36 3e d2 56 02 3e
       0.03344766 0.015957918 0.17853713 0.12728432
0003a0 02 94 10 bd 53 48 0b be d8 df 5e 3e 93 50 97 3d
       -0.0352974 -0.13601808 0.21765077 0.07388415
0003b0 f5 61 01 3d 74 e0 d3 bd 67 d9 39 3d a8 64 0e 3d
       0.03158756 -0.103455454 0.045373347 0.034763962
0003c0 69 89 44 bc 30 64 96 3d f5 8c 94 3d 61 7d 8a bd
       -0.011995652 0.07343328 0.07253448 -0.067621954
0003d0 ff 11 5d 3d 53 8a fa bd d2 05 15 3c ab 3d 03 bc
       0.05397224 -0.122334145 0.009095626 -0.008010308
0003e0 6f f0 64 3d a4 10 be 3c b9 24 0a 3d 33 1c ca 3c
       0.055893358 0.023201294 0.033726428 0.02467165
0003f0 5e 4b 50 bd 68 7d 0a be 0f e8 88 3d c6 ea 1f be
       -0.050853126 -0.13524401 0.06684887 -0.15616903

network_body._body_endoder.seq_layers.2.bias f4 [128]
000000 00 00 00 00 00 00 00 00 00 00 00 00 00 00 00 00
       0.0 0.0 0.0 0.0
000010 00 00 00 00 00 00 00 00 00 00 00 00 00 00 00 00
       0.0 0.0 0.0 0.0
000020 00 00 00 00 00 00 00 00 00 00 00 00 00 00 00 00
       0.0 0.0 0.0 0.0
000030 00 00 00 00 00 00 00 00 00 00 00 00 00 00 00 00
       0.0 0.0 0.0 0.0
000040 00 00 00 00 00 00 00 00 00 00 00 00 00 00 00 00
       0.0 0.0 0.0 0.0
000050 00 00 00 00 00 00 00 00 00 00 00 00 00 00 00 00
       0.0 0.0 0.0 0.0
000060 00 00 00 00 00 00 00 00 00 00 00 00 00 00 00 00
       0.0 0.0 0.0 0.0
000070 00 00 00 00 00 00 00 00 00 00 00 00 00 00 00 00
       0.0 0.0 0.0 0.0
000080 00 00 00 00 00 00 00 00 00 00 00 00 00 00 00 00
       0.0 0.0 0.0 0.0
000090 00 00 00 00 00 00 00 00 00 00 00 00 00 00 00 00
       0.0 0.0 0.0 0.0
0000a0 00 00 00 00 00 00 00 00 00 00 00 00 00 00 00 00
       0.0 0.0 0.0 0.0
0000b0 00 00 00 00 00 00 00 00 00 00 00 00 00 00 00 00
       0.0 0.0 0.0 0.0
0000c0 00 00 00 00 00 00 00 00 00 00 00 00 00 00 00 00
       0.0 0.0 0.0 0.0
0000d0 00 00 00 00 00 00 00 00 00 00 00 00 00 00 00 00
       0.0 0.0 0.0 0.0
0000e0 00 00 00 00 00 00 00 00 00 00 00 00 00 00 00 00
       0.0 0.0 0.0 0.0
0000f0 00 00 00 00 00 00 00 00 00 00 00 00 00 00 00 00
       0.0 0.0 0.0 0.0
000100 00 00 00 00 00 00 00 00 00 00 00 00 00 00 00 00
       0.0 0.0 0.0 0.0
000110 00 00 00 00 00 00 00 00 00 00 00 00 00 00 00 00
       0.0 0.0 0.0 0.0
000120 00 00 00 00 00 00 00 00 00 00 00 00 00 00 00 00
       0.0 0.0 0.0 0.0
000130 00 00 00 00 00 00 00 00 00 00 00 00 00 00 00 00
       0.0 0.0 0.0 0.0
000140 00 00 00 00 00 00 00 00 00 00 00 00 00 00 00 00
       0.0 0.0 0.0 0.0
000150 00 00 00 00 00 00 00 00 00 00 00 00 00 00 00 00
       0.0 0.0 0.0 0.0
000160 00 00 00 00 00 00 00 00 00 00 00 00 00 00 00 00
       0.0 0.0 0.0 0.0
000170 00 00 00 00 00 00 00 00 00 00 00 00 00 00 00 00
       0.0 0.0 0.0 0.0
000180 00 00 00 00 00 00 00 00 00 00 00 00 00 00 00 00
       0.0 0.0 0.0 0.0
000190 00 00 00 00 00 00 00 00 00 00 00 00 00 00 00 00
       0.0 0.0 0.0 0.0
0001a0 00 00 00 00 00 00 00 00 00 00 00 00 00 00 00 00
       0.0 0.0 0.0 0.0
0001b0 00 00 00 00 00 00 00 00 00 00 00 00 00 00 00 00
       0.0 0.0 0.0 0.0
0001c0 00 00 00 00 00 00 00 00 00 00 00 00 00 00 00 00
       0.0 0.0 0.0 0.0
0001d0 00 00 00 00 00 00 00 00 00 00 00 00 00 00 00 00
       0.0 0.0 0.0 0.0
0001e0 00 00 00 00 00 00 00 00 00 00 00 00 00 00 00 00
       0.0 0.0 0.0 0.0
0001f0 00 00 00 00 00 00 00 00 00 00 00 00 00 00 00 00
       0.0 0.0 0.0 0.0

action_model._continuous_distribution.log_sigma f4 [1, 2]
000000 00 00 00 00 00 00 00 00
       0.0 0.0

action_model._continuous_distribution.mu.weight f4 [2, 128]
000000 d9 1f 9a bc 81 65 08 bc 4f ff 1e 3c a1 b5 8f 3b
       -0.018814014 -0.008324982 0.009704425 0.0043856655
000010 9b f3 39 bc 80 36 bf 3b d8 32 1d bb 6b 93 28 3b
       -0.011349584 0.0058353543 -0.0023986604 0.0025722634
000020 53 83 69 bc 82 af 98 3c d8 db be bc f2 5e d0 bc
       -0.014252502 0.018638376 -0.023298189 -0.025435898
000030 fa 5b f7 bc 73 33 17 bc 73 ed 34 3d 87 38 02 bd
       -0.030195225 -0.009228575 0.04417176 -0.03179219
000040 13 fd 42 bb f5 b4 a7 3c 62 b3 71 bc 12 16 91 bc
       -0.0029752895 0.02047203 -0.014752241 -0.01771072
000050 e0 28 87 bc 3f 12 58 3b b4 41 33 bc 8f 33 11 bd
       -0.016498983 0.003296986 -0.010940958 -0.03544956
000060 6a 38 7e 3c a3 7c 0e bd d3 6c 9a 3b 4b 63 a5 bc
       0.01551638 -0.03478683 0.00471268 -0.020188948
000070 30 ee 3c bc 20 f5 2b bc d6 1e 2e bb 74 df 90 3a
       -0.011531398 -0.010495454 -0.0026568673 0.0011052922
000080 4b d4 9d ba 2f 0d 78 3a 93 2e 4b 3c d8 43 c4 3a
       -0.0012041418 0.0009462414 0.012401241 0.0014973832
000090 7a 97 57 3c b8 40 13 3c 37 18 36 bc 5c 9d cc bb
       0.013158673 0.008987598 -0.011114172 -0.0062443446
0000a0 85 10 8f bc a7 3a b0 3a 73 da 07 3b eb 92 07 bd
       -0.017463932 0.0013445214 0.002072957 -0.033099096
0000b0 ca 76 79 3c 4c b9 a1 3c ab 13 30 3a d8 dc d9 3c
       0.015226075 0.019741677 0.0006716798 0.026594564
0000c0 d5 47 ef 3b 03 5a fe 3c 87 2e 9e 3c fa 51 e6 bc
       0.007302264 0.03104878 0.019309295 -0.028115261
0000d0 fa a2 56 3c 77 6a a1 bc 4a a1 d6 3c 16 cf a6 3c
       0.01310038 -0.019704087 0.026199955 0.020362418
0000e0 e4 ba 03 3d db b8 3b 3c c5 4c 72 39 31 15 84 bb
       0.032160655 0.011457647 0.00023107517 -0.0040308465
0000f0 93 62 f3 bc f6 bc ad bc 3f 07 a4 bc 11 ae 38 3c
       -0.02971009 -0.021208268 -0.020022986 0.011271969
000100 88 ef b6 3a 90 40 a9 bc d2 27 4e 3d 4b eb 09 3c
       0.0013956884 -0.020660669 0.050330944 0.008417915
000110 9a 56 82 3a dc 53 c9 bc cd fc 0b 3c 2b d6 3f bc
       0.0009944022 -0.02457612 0.008544159 -0.0117087765
000120 22 4b 22 bc c9 2f 21 3c b1 1d 99 3b e9 e3 16 bc
       -0.009905608 0.009838053 0.004672729 -0.009209611
000130 72 f0 c7 3c df 72 c6 3c 13 86 15 bc 1b 8d 8d bc
       0.024406645 0.024224697 -0.009126204 -0.017279198
000140 6d 78 3e bc 67 a2 dd 3a 88 3d 3a 3c 97 12 bc 3b
       -0.011625391 0.0016909362 0.011367209 0.005739521
000150 c5 ec c7 bb c5 9f 64 3c 49 e7 21 3c 43 32 7a bb
       -0.006101223 0.013954108 0.009881803 -0.003817693
000160 d4 5d a6 3c 70 19 34 3c e7 71 d4 3c 3c c0 11 bb
       0.020308413 0.010992393 0.02593322 -0.0022239825
000170 df e4 83 3c b7 94 5e bb 0d fb de bc f3 9f 83 3c
       0.016100345 -0.0033963153 -0.02721932 0.01606748
000180 37 f7 4b 3a ce 39 31 bb 28 20 85 bc 96 6a 1c 3a
       0.00077806733 -0.002704251 -0.016250685 0.000596681
000190 3d e3 bb ba 83 ad 07 3b 23 bc 4e bc b0 2e c7 3b
       -0.001433469 0.0020702786 -0.0126180975 0.0060785636
0001a0 2f 20 7b 3c 98 ad a5 3b f8 b3 72 3c 11 b5 be 39
       0.015327497 0.0050560944 0.014813416 0.0003637453
0001b0 df 57 13 3c 7f 14 78 3c 27 49 dd bb 18 82 3c 3d
       0.008993118 0.015141605 -0.006753105 0.046022505
0001c0 c6 84 8c 3c 2e 4a 0f bd be ae 2d 3d 2d c7 18 3d
       0.017153155 -0.034982853 0.042402975 0.037299324
0001d0 6f 3b a1 bc 9f 8a 6b 3c 35 90 a9 3b f0 a0 c4 bc
       -0.01968166 0.014376312 0.0051746615 -0.024002522
0001e0 fb bd a9 bc 6f 48 92 bc 63 e6 02 bc b2 c8 92 3c
       -0.020720473 -0.017856805 -0.007989499 0.017917965
0001f0 62 2d 5f 3c 05 18 f0 39 1f d7 e2 bb 33 cc e0 3c
       0.01362166 0.00045794263 -0.006922617 0.02744112
000200 e6 77 81 3c 04 c3 07 39 f5 de 70 3b 3b 53 59 3b
       0.015804242 0.00012947252 0.0036753986 0.0033161181
000210 07 75 93 bb ca ff fc ba 63 e8 d0 3b 3a 54 b6 3c
       -0.0045000347 -0.0019302305 0.006375359 0.02225696
000220 93 bc 81 bc 0a d5 c0 bb 6c 98 2e bc 2b 43 8a bc
       -0.01583699 -0.0058847712 -0.010656457 -0.016877731
000230 0c 30 a2 3b 01 54 9b 3c 53 d7 cb bc 9a 9f b4 bc
       0.0049495753 0.018960955 -0.024882948 -0.02204876
000240 37 1d 31 3c 5f bb d6 bc 11 f8 8a 3b 1b 5d 60 3c
       0.010810188 -0.026212392 0.0042409976 0.013694073
000250 dd b0 8c bc 6e a7 17 3d 7b 3e eb bc f8 52 17 bd
       -0.017174179 0.037024908 -0.028716316 -0.03694436
000260 60 e8 9d 3b 1f bd f8 bc 59 1a a6 3c 96 af 0a bb
       0.004818961 -0.030363617 0.020276235 -0.0021161786
000270 99 7f 34 3c 70 bf c3 bc 63 79 d0 3c f4 56 a8 3a
       0.01101675 -0.023894995 0.025448507 0.0012843297
000280 35 f2 c8 bc 99 6d 0a bd a0 08 f7 3a 4b 12 0f bd
       -0.024529556 -0.033795927 0.0018847175 -0.034929555
000290 87 35 e2 bb 1f 86 30 3d 6f 35 bf bc 7f 8b ca 3c
       -0.0069033536 0.043096658 -0.023340909 0.02472472
0002a0 80 cc 7c 3c c7 53 44 bc 2d 99 4e 38 13 eb 5f bc
       0.015429616 -0.011982865 4.9256883e-05 -0.013666886
0002b0 d8 da 6b 3c 3e d8 92 3b b8 c6 fd bb 57 5e 67 bc
       0.014395438 0.0044813445 -0.0077446364 -0.014121613
0002c0 f0 52 92 bb 57 83 a8 ba 64 28 8c bc 9b 50 8c 3c
       -0.0044654533 -0.0012856525 -0.017109104 0.01712828
0002d0 28 54 65 3c f2 7a 59 3c 0a 9f e3 3c 40 c4 21 bc
       0.013997115 0.013273941 0.027785797 -0.00987345
0002e0 a1 da c6 bb 25 9c da bc d3 c7 d0 ba 58 38 18 3c
       -0.006068543 -0.026685784 -0.0015928693 0.009290777
0002f0 f3 bd b0 3c d8 7b 9a bc 0f d8 00 3d 17 14 c1 bc
       0.02157495 -0.018857881 0.03145605 -0.02356915
000300 4b c9 85 bc 15 22 4d 3c c2 0b 54 3c 65 47 e9 b8
       -0.016331336 0.012520333 0.012942256 -0.00011123604
000310 2a ec 5e 3c 7b 4f 96 3c e9 86 88 bc a0 da a7 3c
       0.013606111 0.018348446 -0.016665893 0.02048999
000320 fc b0 83 3b 2b 16 f2 3a 2f c5 44 bc cf ee 54 3c
       0.004018901 0.0018469741 -0.012009903 0.0129963895
000330 8b 3f a6 3b de 7f 21 bc da 0a 52 bc b3 6e d0 bc
       0.005073493 -0.009857146 -0.01281997 -0.02544341
000340 40 46 ce bb 45 1d 58 3c d6 42 91 bc 2f fc 92 3b
       -0.0062949955 0.013190572 -0.017732065 0.004485629
000350 20 12 b5 3c ee 1b 1e 3a f0 34 d4 b8 6f e5 2c bd
       0.02210337 0.00060313835 -0.00010118808 -0.042210992
000360 32 cf 0f 3d ea 64 15 bd fa 56 d8 bc 3a 59 de 3a
       0.035109706 -0.036473192 -0.026408661 0.0016963847
000370 53 61 43 3b cb f2 dd 3c bf e9 45 3d b8 37 0a bd
       0.0029812648 0.027093312 0.04831862 -0.033744544
000380 9a 8d 1e 3c 4f d5 a9 3c df 10 c5 3c 0f f7 b9 bb
       0.009677315 0.020731596 0.024055896 -0.0056752036
000390 20 f6 4c bb 13 d2 05 bc c6 ad 2a bc 1c 0f 16 bd
       -0.0031274632 -0.008167761 -0.010417407 -0.036635503
0003a0 5e 0e 32 3d 08 a1 bd 3b bb 66 75 bc 28 e5 a0 bc
       0.043470733 0.0057870187 -0.014978106 -0.01964052
0003b0 06 9f a2 bc 51 72 21 3d 8b 28 96 ba ab 9d b1 bc
       -0.019851219 0.03941566 -0.0011456175 -0.021681627
0003c0 03 8d 60 3c 8e d4 b4 bc 8b 3c d0 3b 4b e4 22 bc
       0.013705495 -0.02207401 0.0063548735 -0.009942125
0003d0 91 64 1c bd 13 c3 10 bc 9b 2d c5 3c 3d d9 75 bc
       -0.038181845 -0.008835572 0.024069598 -0.015005407
0003e0 45 2c b0 bc 1e 32 ba bb 8f d2 49 bc b5 28 cd bb
       -0.021505484 -0.005682244 -0.0123182675 -0.006260956
0003f0 22 9e ec 3b d2 1b 46 bc 0b d2 08 bd 44 cf 2c 3d
       0.0072209993 -0.012091594 -0.033403438 0.04218985

action_model._continuous_distribution.mu.bias f4 [2]
000000 00 00 00 00 00 00 00 00
       0.0 0.0

network_body._body_endoder.seq_layers.0.weight f4 [128, 2]
000000 62 51 ae 3f 17 6a 0b 3f 0e 9b 42 3e 29 02 b6 bf
       1.3618586 0.54458755 0.19004461 -1.4219409
000010 fc a6 4f 3c ec b9 cf 3e 55 d5 63 bf f8 55 2e bf
       0.0126740895 0.40571535 -0.88997394 -0.6809993
000020 ad 60 14 40 c4 43 4e 3f dc 03 2c bf 7f e6 f3 3f
       2.3184006 0.8057215 -0.6719339 1.9054717
000030 87 0d 36 3f 10 f7 b2 3d 01 69 f1 bd c1 dc b0 3e
       0.7111439 0.0873853 -0.11787606 0.34543422
000040 19 9f b0 3f db 93 0f bf 00 ff 39 3f fc 94 93 be
       1.3798553 -0.56084985 0.72654724 -0.28824604
000050 0b 1e 6e 3f be ec ec 3d 79 d3 f1 3d c7 a4 dc be
       0.9301459 0.115685925 0.11807913 -0.43094465
000060 6e 51 93 3f bb 2f 91 3e 74 7d c6 be 5f 10 78 bd
       1.1509225 0.28356728 -0.38767588 -0.060562488
000070 18 d3 a3 3e ee be 6e bd ad 0d 8c bf d2 2e b4 3e
       0.3199699 -0.058287553 -1.0941674 0.3519197
000080 09 a2 53 bf 7d a1 63 bc a8 f1 10 bd 0e de 97 be
       -0.8266912 -0.013893482 -0.03538671 -0.29661602
000090 96 c5 ae 3f d5 7d cf be 30 9c 61 bf 29 8b 6c 3f
       1.3654048 -0.4052569 -0.8812895 0.9239984
0000a0 ec 25 81 bf ce a2 06 3e 80 d3 b2 bf 17 c6 0c 3f
       -1.0089698 0.13148043 -1.3970795 0.5498976
0000b0 f5 03 33 3f 62 72 50 bf c7 56 b4 be 32 60 53 3f
       0.6992791 -0.81424534 -0.35222456 0.8256866
0000c0 51 d4 4f 3f 14 e8 9f bd 5c 15 a5 3d ee 88 63 3d
       0.81183344 -0.07807937 0.080607146 0.05555051
0000d0 bd c7 6d be ba 18 2f 3e 99 c8 07 3f 27 15 45 3e
       -0.23220725 0.17099276 0.5304046 0.1924635
0000e0 93 83 d1 3e 12 97 2a 3f d6 a2 6a 3f 27 18 f1 3e
       0.40920696 0.66636765 0.9165472 0.4708874
0000f0 07 98 5f 3d 4b 7f 28 3f 5b a0 8b be 89 11 5f 3f
       0.054588344 0.65819234 -0.2727078 0.8713613
000100 e0 76 02 bf 80 2c b8 be 1c e3 9c 3f ad fc 8a 3e
       -0.5096264 -0.3597145 1.2256808 0.271459
000110 f7 5c 7c 3f ef db 1d be 2c bc 5d 3f 62 a3 26 be
       0.98579353 -0.1541593 0.8661525 -0.16273263
000120 3f b3 34 bf 63 ec 80 3f 74 49 af 3f ad 5c 7d 3f
       -0.7058601 1.007214 1.3694291 0.98969537
000130 63 19 41 bd 98 90 2e bf 5b 00 88 be 93 c6 5b 3f
       -0.04714335 -0.6818938 -0.2656277 0.85849875
000140 2c e8 7f bf 93 4b 44 3f b3 b7 72 3f 7e a6 09 3f
       -0.9996364 0.7667782 0.9481155 0.5376967
000150 55 49 90 be c3 c5 20 3f ec bc 0e 3f fc 35 98 bf
       -0.28180948 0.6280176 0.5575702 -1.1891475
000160 cc fa dd 3e 58 b1 18 bf e5 7e 75 3e e0 fe f7 3e
       0.43355405 -0.59645605 0.23974188 0.48436642
000170 de 30 89 3f 05 ff 9d bf 27 fb 16 3e 69 5c 3c 3f
       1.0718038 -1.2343451 0.14744245 0.73578507
000180 b4 af a0 3f 3f 60 59 be 37 f9 4c 3f bc 56 a3 3e
       1.255362 -0.21228121 0.8006777 0.3190211
000190 b2 13 80 bf ab 9a b0 3d 0c c8 20 3e 5c 7a 42 bf
       -1.000601 0.086232506 0.15701312 -0.75967956
0001a0 66 b8 1e 3e 2c 8b 9b 3e 27 07 4c 3d 28 18 68 bd
       0.1550003 0.30379617 0.04981151 -0.056663662
0001b0 ad 4a f0 be 74 9d 50 be 89 fb 35 bf dc 39 fc 3d
       -0.46931973 -0.20372564 -0.7108694 0.12315723
0001c0 99 97 b1 3f dc 0a 2a bf 16 db 48 3f 93 54 c5 be
       1.3874389 -0.6642282 0.784593 -0.38541088
0001d0 ba 74 56 3f 9c 88 d0 bf ab 7f ab 3e 8d f4 6a bf
       0.8377186 -1.629169 0.3349584 -0.91779405
0001e0 8f 64 d3 be 0b a4 99 bf 36 6b bc be 82 2a 27 bf
       -0.41287658 -1.2003187 -0.36800545 -0.65299237
0001f0 bb 2f 9b be 46 31 41 3e 87 ba 16 3f d8 8d b3 3e
       -0.30309853 0.18866453 0.5887837 0.35069156
000200 cc 2e 68 be e3 27 79 3e 0b 46 71 3f 6b 01 48 bf
       -0.22674102 0.24331622 0.942475 -0.78127164
000210 a7 8c 01 3e f3 bb f9 3f df b6 69 3e d0 24 8d 3e
       0.12651311 1.9510483 0.22823666 0.27567148
000220 60 bb 00 bd 19 7a c8 3e 4b 7c ba bf d5 1a 64 bd
       -0.031428695 0.39155653 -1.4569181 -0.05568965
000230 32 83 c5 bf 4e 0f 9e 3e 34 30 37 bf 5b da 10 3f
       -1.5430663 0.30871052 -0.7155793 0.56583184
000240 cd 23 2a 3f aa 35 20 3f ec 3e 74 bf 94 a4 6a 3e
       0.6646088 0.62581885 -0.9540851 0.22914344
000250 3f 5f 59 3f f2 a0 a3 3e ee 2b fc 3c b4 19 1d be
       0.8491096 0.3195873 0.030782666 -0.15341836
000260 af 31 8f be b3 cd 7a bf 19 83 74 be 79 03 b3 ba
       -0.27967593 -0.9797012 -0.23878135 -0.0013657651
000270 24 08 66 3d 12 70 b1 be 46 b9 b6 be b0 e9 f2 be
       0.056160107 -0.34655815 -0.35688227 -0.47443914
000280 01 e5 e2 be 05 8e 2c 3f 86 c6 ff be 07 68 1d bd
       -0.4431534 0.67404205 -0.4995615 -0.038429286
000290 69 d5 0c 3f e9 d1 ff 3e 3a 3e 05 be eb b1 8a 3e
       0.5501314 0.49964836 -0.13012019 0.27088866
0002a0 28 04 38 be 5f 2b c6 be e3 22 0f bf 9a 9c 45 bf
       -0.17970335 -0.38704965 -0.5591261 -0.7719208
0002b0 3d 6d 49 bf 0e 6e 4a 3e 9d 90 41 3e 14 79 dc 3d
       -0.7868231 0.19768545 0.18902822 0.10765281
0002c0 fd 9f c9 be 54 8f 31 3f d8 9d f2 3b 76 8e e6 be
       -0.39379874 0.69359326 0.0074040703 -0.45030564
0002d0 6e 63 0c bd 31 91 30 bf 39 c4 9f 3f ca f1 41 bf
       -0.03427451 -0.68971545 1.2481757 -0.75759566
0002e0 ce ac 82 3f 22 fb 06 bf e5 55 c2 3f b5 69 0e bf
       1.0208986 -0.5272695 1.5182463 -0.55630046
0002f0 4e 44 a3 3f 81 75 20 bf 33 16 0c bf 77 2d f6 be
       1.275522 -0.62679297 -0.54721373 -0.48081562
000300 f2 24 c2 bf c1 00 eb bf 10 4f 27 3f 52 c1 af 3d
       -1.5167525 -1.8359605 0.65355015 0.08581795
000310 23 21 6d 3f f0 9d 5b 3f 61 d7 d8 3e 94 17 22 3f
       0.9262869 0.8578787 0.4235182 0.6331723
000320 e9 c8 5b bf 9d 3a e7 bc 42 dd dd 3e 03 2a f9 3d
       -0.8585344 -0.028226191 0.4333287 0.12166216
000330 b2 de 82 3c d5 35 3e 3e 74 ac 12 bf 63 09 e4 3d
       0.01597533 0.18575223 -0.5729439 0.11134603
000340 38 b3 09 bd 58 1a 8b 3c 24 de 7e 3e f8 f7 f1 3d
       -0.033618182 0.016980335 0.24889427 0.118148744
000350 8b 3b 83 3f 1f 18 28 bf fe d4 22 bf 80 fb f8 3e
       1.0252546 -0.65661806 -0.6360625 0.4862938
000360 71 3d 14 3f 2d 12 cb 3d 31 7a 4c bf d0 49 17 be
       0.5790625 0.09915576 -0.7987395 -0.14774251
000370 91 eb e0 bd 5d c2 42 3c bc 46 18 bf c9 65 12 3f
       -0.10982431 0.01188716 -0.5948293 0.5718656
000380 6c 9e 7a be 48 83 fe 3e a4 a4 95 3d d5 ae de bf
       -0.24474496 0.49709535 0.07306793 -1.7397105
000390 bd 4e af bf f4 60 91 bf 20 70 b5 3d bd 67 55 3d
       -1.3695904 -1.1357713 0.08859277 0.052100886
0003a0 a6 d6 e8 bd c1 1e 8f be be 7d 06 bd 9c 4c 89 3e
       -0.11369066 -0.2795315 -0.03283476 0.2681626
0003b0 bd ca 26 3f 6e d2 9f bf f2 1f a4 3f 03 f1 80 be
       0.65153104 -1.2486093 1.2822249 -0.25183877
0003c0 4a ae e9 be ca 5e 6c bf 7a 4c 80 bf 6b b3 81 3e
       -0.45640785 -0.92332137 -1.0023339 0.25332198
0003d0 55 84 20 bf 09 7f 31 be f8 14 b8 3e 08 48 31 3e
       -0.6270192 -0.17333616 0.35953498 0.17312634
0003e0 eb 80 06 be 6a 44 75 3f 70 4d 5d bf e8 6d 98 3f
       -0.13135116 0.95807517 -0.86446285 1.1908541
0003f0 a3 f5 be 3f fb 4f 9d bf 48 7a 76 3e 33 d7 3e 3f
       1.4918712 -1.2290033 0.24070084 0.7454712

network_body._body_endoder.seq_layers.0.bias f4 [128]
000000 00 00 00 00 00 00 00 00 00 00 00 00 00 00 00 00
       0.0 0.0 0.0 0.0
000010 00 00 00 00 00 00 00 00 00 00 00 00 00 00 00 00
       0.0 0.0 0.0 0.0
000020 00 00 00 00 00 00 00 00 00 00 00 00 00 00 00 00
       0.0 0.0 0.0 0.0
000030 00 00 00 00 00 00 00 00 00 00 00 00 00 00 00 00
       0.0 0.0 0.0 0.0
000040 00 00 00 00 00 00 00 00 00 00 00 00 00 00 00 00
       0.0 0.0 0.0 0.0
000050 00 00 00 00 00 00 00 00 00 00 00 00 00 00 00 00
       0.0 0.0 0.0 0.0
000060 00 00 00 00 00 00 00 00 00 00 00 00 00 00 00 00
       0.0 0.0 0.0 0.0
000070 00 00 00 00 00 00 00 00 00 00 00 00 00 00 00 00
       0.0 0.0 0.0 0.0
000080 00 00 00 00 00 00 00 00 00 00 00 00 00 00 00 00
       0.0 0.0 0.0 0.0
000090 00 00 00 00 00 00 00 00 00 00 00 00 00 00 00 00
       0.0 0.0 0.0 0.0
0000a0 00 00 00 00 00 00 00 00 00 00 00 00 00 00 00 00
       0.0 0.0 0.0 0.0
0000b0 00 00 00 00 00 00 00 00 00 00 00 00 00 00 00 00
       0.0 0.0 0.0 0.0
0000c0 00 00 00 00 00 00 00 00 00 00 00 00 00 00 00 00
       0.0 0.0 0.0 0.0
0000d0 00 00 00 00 00 00 00 00 00 00 00 00 00 00 00 00
       0.0 0.0 0.0 0.0
0000e0 00 00 00 00 00 00 00 00 00 00 00 00 00 00 00 00
       0.0 0.0 0.0 0.0
0000f0 00 00 00 00 00 00 00 00 00 00 00 00 00 00 00 00
       0.0 0.0 0.0 0.0
000100 00 00 00 00 00 00 00 00 00 00 00 00 00 00 00 00
       0.0 0.0 0.0 0.0
000110 00 00 00 00 00 00 00 00 00 00 00 00 00 00 00 00
       0.0 0.0 0.0 0.0
000120 00 00 00 00 00 00 00 00 00 00 00 00 00 00 00 00
       0.0 0.0 0.0 0.0
000130 00 00 00 00 00 00 00 00 00 00 00 00 00 00 00 00
       0.0 0.0 0.0 0.0
000140 00 00 00 00 00 00 00 00 00 00 00 00 00 00 00 00
       0.0 0.0 0.0 0.0
000150 00 00 00 00 00 00 00 00 00 00 00 00 00 00 00 00
       0.0 0.0 0.0 0.0
000160 00 00 00 00 00 00 00 00 00 00 00 00 00 00 00 00
       0.0 0.0 0.0 0.0
000170 00 00 00 00 00 00 00 00 00 00 00 00 00 00 00 00
       0.0 0.0 0.0 0.0
000180 00 00 00 00 00 00 00 00 00 00 00 00 00 00 00 00
       0.0 0.0 0.0 0.0
000190 00 00 00 00 00 00 00 00 00 00 00 00 00 00 00 00
       0.0 0.0 0.0 0.0
0001a0 00 00 00 00 00 00 00 00 00 00 00 00 00 00 00 00
       0.0 0.0 0.0 0.0
0001b0 00 00 00 00 00 00 00 00 00 00 00 00 00 00 00 00
       0.0 0.0 0.0 0.0
0001c0 00 00 00 00 00 00 00 00 00 00 00 00 00 00 00 00
       0.0 0.0 0.0 0.0
0001d0 00 00 00 00 00 00 00 00 00 00 00 00 00 00 00 00
       0.0 0.0 0.0 0.0
0001e0 00 00 00 00 00 00 00 00 00 00 00 00 00 00 00 00
       0.0 0.0 0.0 0.0
0001f0 00 00 00 00 00 00 00 00 00 00 00 00 00 00 00 00
       0.0 0.0 0.0 0.0

network_body._body_endoder.seq_layers.2.weight f4 [128, 128]
000000 ad 36 f7 bc 0d 68 b4 3c e8 65 73 3e d6 40 9e 3d
       -0.030177439 0.022022272 0.23769343 0.0772721
000010 f7 95 23 3e 7d cd fb 3b da 21 b4 3d 08 e6 08 be
       0.15975176 0.007684408 0.08795519 -0.13369
000020 d9 1c 27 3d 6f 39 4a ba e6 ba b9 3d 50 56 b7 bc
       0.040798996 -0.0007714247 0.09068851 -0.022380024
000030 9f 04 19 be b3 5b b3 bd 85 2d 43 3d 9b b6 5c 3d
       -0.14943169 -0.087577246 0.047650833 0.053885084
000040 8f b3 46 be a5 8d cf bd 2e d8 6a 3d 34 4f 22 be
       -0.19404434 -0.101344384 0.05733507 -0.15850526
000050 8f 94 62 3d 61 7b 28 3d 69 5e 5f bd f2 15 02 be
       0.055317458 0.04113329 -0.054533396 -0.12703684
000060 1d bc 0d be b0 51 c8 3c 0a 45 01 3e 07 46 95 3c
       -0.13841291 0.024453014 0.12623993 0.018221868
000070 51 ea 33 3e cf 1f 13 3e e0 e5 18 bc e2 fd fe bc
       0.17569853 0.14367603 -0.00933215 -0.03112692
000080 85 aa 53 bd 34 5b 31 3d 5b d2 d2 bc 47 40 7b bc
       -0.051676292 0.04329987 -0.02573507 -0.015335149
000090 52 df 13 bd 0c 97 77 3c 2f bc 28 3d 7a d5 6b bd
       -0.036101647 0.015111696 0.04119509 -0.057576634
0000a0 f0 98 c1 bb cd 10 99 3d 34 0a 17 3e ee 5b 6e bd
       -0.005908124 0.074739076 0.14749986 -0.05819314
0000b0 3d 05 4e bc aa 45 d9 3d a1 38 e3 3d 92 df 24 bd
       -0.012574491 0.106089905 0.110947855 -0.040252276
0000c0 17 b9 1a be 5d a4 61 3d 6f 8c ff 3d 8c 69 2b bd
       -0.15109669 0.05508839 0.124779575 -0.041848704
0000d0 81 d7 fe 3d 22 0c 62 3c fb d3 15 be fc e9 97 bd
       0.12443448 0.013796838 -0.14631645 -0.07417676
0000e0 6f d6 3e bd 34 41 c7 3c b9 c3 5a 3d da 05 b2 3b
       -0.04659122 0.024323083 0.053409312 0.0054328265
0000f0 17 5b c7 bd ef 71 be bd 28 e5 ef 3b c6 b2 68 3d
       -0.09734171 -0.09299075 0.0073210187 0.056811117
000100 4e af 08 3d 15 7f 04 3e 46 20 ac 3d 9a d4 3b 3c
       0.03337031 0.12939103 0.08404593 0.011464262
000110 ca d3 01 bd b9 60 36 3d 40 eb c7 3c 10 04 99 3b
       -0.03169612 0.044525836 0.024404168 0.0046696737
000120 f3 98 dc bc 62 e6 6e 3d c0 30 ad 3c 58 a3 3b bd
       -0.0269284 0.05832518 0.02114141 -0.045810074
000130 4a 6f db bc 8d 32 74 3e a7 11 ec bd 90 2b e9 3d
       -0.026786465 0.23847409 -0.115268044 0.11385262
000140 f3 76 1e 3e dd ef 3b 3d a5 02 83 bb 21 33 a2 bc
       0.15475063 0.04588305 -0.003998118 -0.01979977
000150 19 19 2c bd 4d bd a4 bd 31 81 bb bb 53 2a bf bd
       -0.042016122 -0.08043919 -0.005722188 -0.093342446
000160 fa 23 47 3d d7 21 a8 bd 40 3f 85 3e 7b 5b 74 bd
       0.048618294 -0.082095794 0.26024818 -0.059657555
000170 91 ca ef 3d c9 3b d6 3d 79 b9 86 bd 27 d9 af bb
       0.11708558 0.10460622 -0.06578345 -0.0053664627
000180 44 dc 7a 3c ec dd c1 bc 6b 9b 5b bd 1c e8 fa 3c
       0.0153113045 -0.02366539 -0.053615015 0.030628256
000190 5f bd 1a 3e 27 59 c4 3d 4a 43 00 bc 21 ea 7f 3d
       0.15111302 0.09587317 -0.007828543 0.062479142
0001a0 17 86 b8 bc e1 29 92 bc 2f f9 9d bd 38 78 0f bc
       -0.022524877 -0.017842235 -0.077135436 -0.00875669
0001b0 69 53 d6 bc 09 7f 85 bd 02 54 52 bd b9 59 33 3e
       -0.02616282 -0.06518371 -0.051349647 0.17514695
0001c0 c2 63 4d bc b5 fd 89 3c 5f df 0b bd bb 94 d1 3c
       -0.012535991 0.01684461 -0.03414857 0.025583616
0001d0 21 f0 ef bc c5 6c 04 3d d3 ce 40 3d d9 8e 22 3e
       -0.029289307 0.032330293 0.047072243 0.15874805
0001e0 bc 80 a9 3b 8f 63 79 3c 43 e7 47 3a 01 a1 d9 bd
       0.005172817 0.0152214905 0.0007625708 -0.10626412
0001f0 4a d3 11 be c0 ec e3 bd af dc 4a 3e b3 2c 04 3d
       -0.14240757 -0.11129141 0.19810747 0.03226919
000200 e6 b3 f2 bb 80 4f f7 3d a5 63 9e 3d ee 31 c1 3d
       -0.0074066995 0.1207571 0.077338494 0.094333515
000210 fd 20 13 3e e7 0c 2a 3d 62 76 02 be c5 6e 14 3e
       0.14368053 0.04151621 -0.12740472 0.1449538
000220 48 ed 7c bd ce b1 04 bc 65 a6 d2 3d 40 da 3c bd
       -0.061749727 -0.008099033 0.102856435 -0.046106577
000230 a7 b0 fc 3c cd 6b 1a 3e 54 8d e6 bd 17 8d 92 bc
       0.030845953 0.15080185 -0.11257425 -0.017889543
000240 14 73 86 bc 50 19 62 3d 5a 2e a0 bd 4a 74 da 3c
       -0.016412295 0.05519992 -0.07821341 0.02666678
000250 46 65 fa bd 53 b6 03 bd 22 f0 dd bd 03 1a 89 bc
       -0.122263476 -0.0321563 -0.10836817 -0.016736036
000260 08 04 0e 3d 9f 1c 9c bd 7f 7e 85 3d 12 9c e9 bd
       0.034671813 -0.076226465 0.06518268 -0.11406721
000270 89 52 93 ba b5 28 d4 3d 2f ef ea 3c 61 fd 46 bd
       -0.0011239807 0.10359327 0.028678505 -0.048581485
000280 44 6b 27 be e2 7f 2e 3e b5 83 00 3d 9e 9a 45 be
       -0.16349512 0.17040971 0.031375606 -0.19297263
000290 cf f0 ed bd d7 24 d4 3d e8 66 06 3e c8 b4 59 bc
       -0.11618196 0.10358589 0.13125193 -0.0132877305
0002a0 16 59 91 bc a3 47 5b bc bb 02 0c be 2a 1e 4b bd
       -0.017742675 -0.013383779 -0.13672917 -0.049589314
0002b0 d6 1c a9 bc 7d 3e 7b bc 96 f7 88 3c 6d 1c 13 3e
       -0.020643633 -0.015334723 0.01671962 0.14366312
0002c0 53 bd 94 3c 0e a6 83 3d 14 8f 6e 3d 21 2a 1a 3d
       0.018156683 0.06428157 0.05824192 0.037637834
0002d0 c6 89 fe 3c 22 57 80 bd f0 67 c1 3d 50 cc 1e 3e
       0.031071555 -0.06266619 0.09443653 0.15507627
0002e0 ce fd 8d bd ea bf 11 3c a3 0e 1f 3d ce 36 06 be
       -0.06933175 0.008895854 0.038832318 -0.13106844
0002f0 f9 8b fe bb c1 be 49 3c be b3 84 bd 5e c5 4f 3e
       -0.007768151 0.012313546 -0.064795956 0.20290133
000300 c2 57 db 3c c7 86 2d bd 3c 90 96 bd 60 5b e6 bb
       0.026775245 -0.04236486 -0.07351729 -0.0070299357
000310 d0 e1 ef bd aa 1b 8c 3d 0c 36 07 3e dd 10 14 ba
       -0.11712992 0.06841214 0.13204211 -0.0005648265
000320 85 4e 28 bd 19 4a ba 3d 16 7d 4e bd b8 19 03 bc
       -0.041090507 0.09096164 -0.05041226 -0.008001737
000330 b2 60 05 3d 32 b0 86 bb b6 0d a8 3d b9 bb 32 3e
       0.03256292 -0.0041103596 0.0820574 0.17454423
000340 bd 7f 66 3d d7 ee 13 3b 00 54 46 3d d2 ea be bd
       0.056274164 0.002257278 0.048419952 -0.09322132
000350 ca 06 11 b9 87 5c 21 be 3e c7 5b be 91 fa 92 3b
       -0.00013830807 -0.15757953 -0.21462724 0.0044854362
000360 c1 15 a2 bd 1c 68 f4 bd 8b 51 cd bd db 3b 82 bc
       -0.079143055 -0.1193392 -0.10025319 -0.015897682
000370 5a a8 9e bc 08 ee 05 be a7 15 d5 3d ad fd 24 bd
       -0.019367386 -0.13079083 0.104045205 -0.040280987
000380 10 24 13 be 70 15 79 bb d5 a3 b6 3d de fb 24 3d
       -0.14369226 -0.0038007163 0.08917967 0.04027926
000390 d6 c9 e8 bd 2e 3f 83 bc a4 4b 97 3d a2 2f ad bd
       -0.11366622 -0.016021337 0.07387474 -0.08456351
0003a0 58 96 d4 bd 6d 36 7d 3d d1 d2 c8 3c fc 58 6f 3d
       -0.10380238 0.061819483 0.024514588 0.05843447
0003b0 b0 02 3b bc 52 02 80 3c 68 3a f1 ba 52 a2 34 bd
       -0.011414215 0.015626106 -0.0018404247 -0.044100113
0003c0 58 36 8f 3c ca 58 fa 3c f7 a0 85 3d a0 94 0d 3d
       0.017481968 0.030559916 0.06524842 0.034565568
0003d0 9d 41 a6 bc 5f c5 28 3c b9 93 db 3c 24 54 df bc
       -0.020294959 0.010300963 0.026803838 -0.027261801
0003e0 85 a2 17 be 55 9d 86 bb f9 89 ac 3d 6e 90 d0 3d
       -0.1480809 -0.004108111 0.08424754 0.10183798
0003f0 d3 76 90 ba bd f5 05 bd 79 a4 c1 3b b4 2f 35 be
       -0.001102174 -0.032705057 0.0059094992 -0.17693979

network_body._body_endoder.seq_layers.2.bias f4 [128]
000000 00 00 00 00 00 00 00 00 00 00 00 00 00 00 00 00
       0.0 0.0 0.0 0.0
000010 00 00 00 00 00 00 00 00 00 00 00 00 00 00 00 00
       0.0 0.0 0.0 0.0
000020 00 00 00 00 00 00 00 00 00 00 00 00 00 00 00 00
       0.0 0.0 0.0 0.0
000030 00 00 00 00 00 00 00 00 00 00 00 00 00 00 00 00
       0.0 0.0 0.0 0.0
000040 00 00 00 00 00 00 00 00 00 00 00 00 00 00 00 00
       0.0 0.0 0.0 0.0
000050 00 00 00 00 00 00 00 00 00 00 00 00 00 00 00 00
       0.0 0.0 0.0 0.0
000060 00 00 00 00 00 00 00 00 00 00 00 00 00 00 00 00
       0.0 0.0 0.0 0.0
000070 00 00 00 00 00 00 00 00 00 00 00 00 00 00 00 00
       0.0 0.0 0.0 0.0
000080 00 00 00 00 00 00 00 00 00 00 00 00 00 00 00 00
       0.0 0.0 0.0 0.0
000090 00 00 00 00 00 00 00 00 00 00 00 00 00 00 00 00
       0.0 0.0 0.0 0.0
0000a0 00 00 00 00 00 00 00 00 00 00 00 00 00 00 00 00
       0.0 0.0 0.0 0.0
0000b0 00 00 00 00 00 00 00 00 00 00 00 00 00 00 00 00
       0.0 0.0 0.0 0.0
0000c0 00 00 00 00 00 00 00 00 00 00 00 00 00 00 00 00
       0.0 0.0 0.0 0.0
0000d0 00 00 00 00 00 00 00 00 00 00 00 00 00 00 00 00
       0.0 0.0 0.0 0.0
0000e0 00 00 00 00 00 00 00 00 00 00 00 00 00 00 00 00
       0.0 0.0 0.0 0.0
0000f0 00 00 00 00 00 00 00 00 00 00 00 00 00 00 00 00
       0.0 0.0 0.0 0.0
000100 00 00 00 00 00 00 00 00 00 00 00 00 00 00 00 00
       0.0 0.0 0.0 0.0
000110 00 00 00 00 00 00 00 00 00 00 00 00 00 00 00 00
       0.0 0.0 0.0 0.0
000120 00 00 00 00 00 00 00 00 00 00 00 00 00 00 00 00
       0.0 0.0 0.0 0.0
000130 00 00 00 00 00 00 00 00 00 00 00 00 00 00 00 00
       0.0 0.0 0.0 0.0
000140 00 00 00 00 00 00 00 00 00 00 00 00 00 00 00 00
       0.0 0.0 0.0 0.0
000150 00 00 00 00 00 00 00 00 00 00 00 00 00 00 00 00
       0.0 0.0 0.0 0.0
000160 00 00 00 00 00 00 00 00 00 00 00 00 00 00 00 00
       0.0 0.0 0.0 0.0
000170 00 00 00 00 00 00 00 00 00 00 00 00 00 00 00 00
       0.0 0.0 0.0 0.0
000180 00 00 00 00 00 00 00 00 00 00 00 00 00 00 00 00
       0.0 0.0 0.0 0.0
000190 00 00 00 00 00 00 00 00 00 00 00 00 00 00 00 00
       0.0 0.0 0.0 0.0
0001a0 00 00 00 00 00 00 00 00 00 00 00 00 00 00 00 00
       0.0 0.0 0.0 0.0
0001b0 00 00 00 00 00 00 00 00 00 00 00 00 00 00 00 00
       0.0 0.0 0.0 0.0
0001c0 00 00 00 00 00 00 00 00 00 00 00 00 00 00 00 00
       0.0 0.0 0.0 0.0
0001d0 00 00 00 00 00 00 00 00 00 00 00 00 00 00 00 00
       0.0 0.0 0.0 0.0
0001e0 00 00 00 00 00 00 00 00 00 00 00 00 00 00 00 00
       0.0 0.0 0.0 0.0
0001f0 00 00 00 00 00 00 00 00 00 00 00 00 00 00 00 00
       0.0 0.0 0.0 0.0

value_heads.value_heads.extrinsic.weight f4 [1, 128]
000000 8a 4a 2a bd 17 b5 e6 3c 05 f5 d3 3c db e2 37 3e
       -0.041574992 0.028162522 0.02587367 0.17957632
000010 a2 55 c8 bd cd ea 20 be 86 55 ad 3d 1d 5e 9f 3d
       -0.09781958 -0.1571457 0.08463578 0.077816226
000020 e3 96 ec bd 25 e2 df bc e9 c0 d3 bd 8e 21 ef bc
       -0.11552217 -0.027329514 -0.10339529 -0.029190805
000030 9a 75 20 bb c2 ac 46 be b0 2e 01 3e 70 7d 10 3e
       -0.0024484158 -0.1940184 0.12615466 0.1411035
000040 89 79 39 3e 89 1d 23 3e 44 d8 49 be 52 cc e2 bc
       0.18112768 0.15929236 -0.19711405 -0.027685318
000050 cb 36 2a b8 93 49 8e 3d 92 40 07 3e 4c ef cf 3d
       -4.058219e-05 0.06947627 0.13208225 0.10153064
000060 03 9f b4 bd 57 52 8d 3d ed a5 5a be 4a de 9e 3d
       -0.088193916 0.06900471 -0.21352358 0.07757242
000070 d2 90 58 3e 60 e1 1d be 5e f5 31 3e 92 2b 0d be
       0.21148995 -0.15418005 0.17378756 -0.13786152
000080 65 81 b6 3d 94 2f e9 3b 5d 95 a4 3d 93 9b 82 3d
       0.08911399 0.0071162675 0.08036301 0.0637733
000090 e2 74 11 be 4a 7e c2 3d 3a e3 00 bd ce 18 03 be
       -0.14204744 0.09496744 -0.0314667 -0.12802431
0000a0 98 df 31 be c5 29 56 bd 2b 19 ac bd 1c c2 c3 3d
       -0.1737045 -0.05228593 -0.08403238 0.09558508
0000b0 2b 86 14 3e fc 3a 4d 3e f7 41 7e bc d7 c6 c3 3d
       0.14504306 0.20042032 -0.015518657 0.0955941
0000c0 70 63 52 3e dd 72 ae bd ca ad 98 bd 8b 8c 53 3e
       0.20545745 -0.08518002 -0.07455023 0.20659082
0000d0 d9 f0 f8 bc 0e 05 0c be 3c 8f 92 bd f5 bd 9b bd
       -0.030388283 -0.13673803 -0.07156226 -0.07604591
0000e0 b0 e5 8c 3c 67 04 03 3e 28 88 5a 3d 59 cc b4 3d
       0.017199367 0.12794648 0.053352505 0.08828039
0000f0 19 b3 84 bb f8 e1 a6 3d 42 f0 d7 3b 45 ef 15 be
       -0.0040496704 0.08148569 0.0065899203 -0.14642055
000100 3e 19 15 be 1b d9 ff bd 99 ed f1 bd 3e 67 fa bc
       -0.1456041 -0.124925815 -0.11812896 -0.030566808
000110 68 6d 40 bd bc e7 43 3e 61 96 f7 3b d9 80 1f 3e
       -0.046979338 0.19131368 0.0075557684 0.15576495
000120 2d 4e 25 3e 6e 34 a8 3d 17 c4 12 be af 5c f8 bd
       0.16143103 0.08213125 -0.14332615 -0.12127053
000130 5f 2e 49 be 32 1f bc bd fa a5 3f 3e 6d 36 09 be
       -0.19646595 -0.091856375 0.18715659 -0.13399668
000140 2a f4 b7 3d f6 6c a3 3d c8 74 92 bc a1 54 a6 3d
       0.089821175 0.07979767 -0.017877951 0.081216104
000150 9a e2 39 3b 81 d0 b6 3b 20 27 3b 3e 40 76 b4 bd
       0.0028363825 0.005579055 0.18276644 -0.08811617
000160 b3 f7 8b 3d 5e 52 e1 bc ad e1 1b 3e b9 94 0b 3e
       0.06834354 -0.027505096 0.15222807 0.13630952
000170 7b 4d cf 3d 5b 62 aa bd 0c f6 d8 bc 61 a9 50 3e
       0.101222 -0.08319541 -0.026484512 0.20377113
000180 c1 e8 9d bc f8 a6 ea bc 5e 9a a1 3c e7 d4 29 3e
       -0.019276025 -0.02864407 0.019726928 0.16585122
000190 95 72 13 be 17 ec 0e bb 5e d1 19 3e 7d 48 39 3e
       -0.14399178 -0.00218082 0.15021273 0.18094058
0001a0 66 f0 4b 3e af ae a2 bd 19 a6 ce 3d d3 11 24 3e
       0.19915923 -0.079434745 0.10090274 0.16022424
0001b0 80 0b 36 3e ad f9 20 be 20 df 47 be c8 f8 21 3e
       0.17777824 -0.15720244 -0.19518709 0.15817559
0001c0 a9 aa 03 3e 47 9b 1a 3e a4 16 4e bd 0f 05 e3 bd
       0.1285807 0.15098296 -0.05031456 -0.11084949
0001d0 b5 34 40 3e 7e 2c 48 be 7c 2a 36 be 6d 10 1f be
       0.18770106 -0.19548222 -0.17789644 -0.1553361
0001e0 ad c0 26 bd a8 b6 3d 3e a0 e3 da 3c 6f cc 46 3e
       -0.040711094 0.18526709 0.026719868 0.19413923
0001f0 e7 73 9b 3d e6 c0 b9 bd 31 dd 0f 3e 22 de 09 3e
       0.07590466 -0.090699956 0.14049222 0.13463643
