results/ppo/EatFood/EatFood-1396.pt (torch, 145423 bytes, 12 tensors)

network_body._body_endoder.seq_layers.0.weight f4 [128, 2]
-0.87320065 0.7787707 0.12799539 -0.6836753 -0.2745392 0.534184 0.21305522 0.12269194
-0.23279531 -0.6858592 0.7376845 0.6431159 1.2964803 -0.53809536 0.2349301 -1.1654797
0.63636917 1.1537353 -0.08758988 -0.5422788 -0.03583275 1.3261182 0.14392674 -0.6648413
-0.16934375 0.5328463 -1.0172397 -0.49616048 0.78028464 0.36029816 0.9741969 -0.7886942
-0.09978609 0.3505715 0.37822413 0.6134715 0.62502974 -0.53142726 -0.66649735 0.60585636
-0.071017995 -1.1550677 -0.7858488 0.30628562 0.025132004 -0.017283099 0.6318938 -0.14645362
0.12804042 -0.15991078 0.3566791 0.5763783 -0.40306658 1.5053388 -0.2485211 -0.31880593
-0.4929223 0.027364047 0.032158166 -0.9442982 -0.5559646 0.061009243 0.013471656 -0.0058188564
0.341651 -0.44716346 0.22015838 0.71659106 -0.8550805 -2.456761 0.21859372 0.6161231
-0.91378665 0.69186556 0.43398267 0.0627906 -0.13003924 0.29077086 -1.2013668 0.14509504
-0.008126537 -0.021833444 0.7375439 0.73303145 0.22477262 -0.16021919 0.6272793 0.43169093
-0.42725888 1.5241674 1.4079437 -0.22587366 0.20955655 0.5792571 0.97470325 0.68689024
0.5384439 0.6513884 -1.2331752 -0.61844766 -1.0865057 -0.89974743 0.22476886 0.6786571
0.11308081 0.9171407 -0.055398285 -0.17798673 -0.9760692 -1.1487604 0.12847325 -0.98872477
0.51732457 -1.6774749 -0.94497037 -0.90779144 -0.6479923 0.29223812 0.014871983 -0.30986804
0.008376991 -1.3584569 -0.583783 1.1552825 0.63619274 0.03459438 0.1603941 -0.046046175
0.2517694 -0.19187021 0.42006326 0.8103573 -0.91365075 1.4146042 -0.62585163 -0.61690176
-0.2306312 -0.7529554 0.18781893 -0.19326404 0.677864 0.13370708 -0.8549821 -0.44494972
1.1498059 0.36296976 0.9428318 -0.020947058 1.0874417 -0.4793932 0.46923944 -0.8496592
-1.1289204 -0.40312895 1.1486818 0.88139594 -0.58594805 0.3698881 -0.067580506 0.44777936
-0.6922003 0.29090044 1.3010978 0.25613424 -0.51934624 0.08374611 -0.083331026 0.83841115
0.43113902 0.2748093 0.4806764 -0.49267507 -0.61243916 0.27188167 0.25597462 0.59597623
-0.10794198 -0.047308765 -0.8309394 0.18910006 0.19882701 -1.6831096 1.5146941 0.23378277
-1.3189293 0.18363367 -1.6211617 -0.5691138 -1.1914505 0.83591914 0.44288206 0.3456244
0.56308174 -0.35370207 -0.67594534 -0.12510918 -0.2968621 0.9044996 -1.0252419 0.45621106
1.0951993 0.79675 0.14298023 -1.2790052 -0.9274097 0.22084948 0.74266297 -0.63381594
-1.1856604 0.24590757 -0.40504453 0.51400465 -1.6153047 -0.16689111 1.3801547 -0.76488614
-0.18946221 0.42286012 0.91153646 -0.74350375 0.98767024 0.7101325 -0.1820469 0.21255434
0.79402894 -0.7557969 -1.1831164 -0.19966593 0.1741303 0.55691165 -0.37720948 -0.2852494
-1.3127812 -0.3266399 -0.10198346 0.5471655 -0.49307925 -0.03736453 0.0018939078 -0.13696748
-0.37932032 0.36675116 0.13884382 -0.46775568 0.47766328 0.20984042 -0.55246735 0.5143881
-0.6095846 -0.49179104 -0.5021849 0.11030551 0.24885531 -1.0578628 -0.3455262 -0.73128635
00000000: 148a 5fbf 845d 473f 3911 033e 5805 2fbf
00000010: 6790 8cbe 48c0 083f 262b 5a3e e945 fb3d
00000020: e561 6ebe 7894 2fbf e4d8 3c3f 3ea3 243f
00000030: 11f3 a53f 9ec0 09bf 8491 703e 702e 95bf
00000040: 17e9 223f 99ad 933f 5362 b3bd c9d2 0abf
00000050: 5dc5 12bd 3ebe a93f 8861 133e 0a33 2abf
00000060: 7368 2dbe 9d68 083f e934 82bf bf08 febe
00000070: bcc0 473f 0079 b83e f864 793f dde7 49bf
00000080: a65c ccbd 1c7e b33e 98a6 c13e 780c 1d3f
00000090: f301 203f 9e0b 08bf 929f 2abf 6719 1b3f
000000a0: e271 91bd 42d9 93bf 632d 49bf 78d1 9c3e
000000b0: a2e1 cd3c 4995 8dbc cbc3 213f f0f7 15be
000000c0: 071d 033e a7bf 23be a59e b63e 878d 133f
000000d0: be5e cebe f1ae c03f 517c 7ebe 883a a3be
000000e0: 5060 fcbe 912a e03c 48b8 033d 87bd 71bf
000000f0: b253 0ebf d4e4 793d 38b8 5c3c 1bac bebb
00000100: e1ec ae3e 9cf2 e4be 3371 613e 8372 373f
00000110: 8ee6 5abf 923b 1dc0 08d7 5f3e 3eba 1d3f
00000120: eced 69bf 1a1e 313f fa32 de3e 5c98 803d
00000130: 0229 05be ebdf 943e 63c6 99bf cb93 143e
00000140: 2b25 05bc 0ddc b2bc adcf 3c3f f3a7 3b3f
00000150: cb2a 663e 8010 24be 6095 203f 9806 dd3e
00000160: adc1 dabe eb17 c33f 8037 b43f 6d4b 67be
00000170: fe95 563e 314a 143f 2786 793f 0ad8 2f3f
00000180: 76d7 093f 64c1 263f afd8 9dbf 9652 1ebf
00000190: 9e12 8bbf d955 66bf cf29 663e 79bc 2d3f
000001a0: e996 e73d bcc9 6a3f 50e9 62bd 2742 36be
000001b0: acdf 79bf 950a 93bf 7e8e 033e 111d 7dbf
000001c0: 626f 043f 7fb7 d6bf 94e9 71bf 0565 68bf
000001d0: d3e2 25bf 3ca0 953e 9ea9 733c 06a7 9ebe
000001e0: a63f 093c eae1 adbf cd72 15bf 4ce0 933f
000001f0: 87dd 223f d6b2 0d3d 5a3e 243e ea9a 3cbd
00000200: ebe7 803e a079 44be 8812 d73e 9373 4f3f
00000210: 04e5 69bf c011 b53f d037 20bf 46ed 1dbf
00000220: 962a 6cbe afc1 40bf 9b53 403e 02e7 45be
00000230: 7f88 2d3f 82ea 083e 1be0 5abf 73d0 e3be
00000240: d72c 933f 2cd7 b93e 6d5d 713f 2a99 abbc
00000250: 4a31 8b3f 0773 f5be 2740 f03e 4483 59bf
00000260: 7780 90bf eb66 cebe 0108 933f 2aa3 613f
00000270: b100 16bf f961 bd3e a667 8abd 5643 e53e
00000280: 0a34 31bf e7f0 943e 5f8a a63f 0724 833e
00000290: e0f3 04bf 1583 ab3d 75a9 aabd 1da2 563f
000002a0: 41be dc3e ceb3 8c3e 381b f63e e83f fcbe
000002b0: d0c8 1cbf 1334 8b3e 1b0f 833e e691 183f
000002c0: af10 ddbd d6c6 41bd 72b8 54bf 72a3 413e
000002d0: 4f99 4b3e 2370 d7bf 7fe1 c13f c064 6f3e
000002e0: add2 a8bf 770a 3c3e 3a82 cfbf 71b1 11bf
000002f0: 7381 98bf ccfe 553f 70c1 e23e aef5 b03e
00000300: 2026 103f 7018 b5be c10a 2dbf 9f1c 00be
00000310: 4ffe 97be 498d 673f 203b 83bf 7f94 e93e
00000320: 7e2f 8c3f cff7 4b3f 6969 123e 71b6 a3bf
00000330: b96a 6dbf 5e26 623e 291f 3e3f c341 22bf
00000340: b8c3 97bf 32cf 7b3e ff61 cfbe cf95 033f
00000350: 4ec2 cebf 81e5 2abe e9a8 b03f 94cf 43bf
00000360: 6202 42be 1f81 d83e 745a 693f 4356 3ebf
00000370: f5d7 7c3f 3ecb 353f 816a 3abe d8a7 593e
00000380: 7b45 4b3f e87b 41bf 5c70 97bf 3a75 4cbe
00000390: 374f 323e c391 0e3f 9a21 c1be 360c 92be
000003a0: 3709 a8bf 583d a7be b4dc d0bd 0a13 0c3f
000003b0: e274 fcbe 8d0b 19bd 003d f83a 3441 0cbe
000003c0: 4636 c2be cfc6 bb3e 132d 0e3e ac7d efbe
000003d0: 4890 f43e 68e0 563e 806e 0dbf f0ae 033f
000003e0: bd0d 1cbf 09cc fbbe 318f 00bf dbe7 e13d
000003f0: edd3 7e3e 0c68 87bf cfe8 b0be 9535 3bbf

network_body._body_endoder.seq_layers.0.bias f4 [128]
0.0 0.0 0.0 0.0 0.0 0.0 0.0 0.0
0.0 0.0 0.0 0.0 0.0 0.0 0.0 0.0
0.0 0.0 0.0 0.0 0.0 0.0 0.0 0.0
0.0 0.0 0.0 0.0 0.0 0.0 0.0 0.0
0.0 0.0 0.0 0.0 0.0 0.0 0.0 0.0
0.0 0.0 0.0 0.0 0.0 0.0 0.0 0.0
0.0 0.0 0.0 0.0 0.0 0.0 0.0 0.0
0.0 0.0 0.0 0.0 0.0 0.0 0.0 0.0
0.0 0.0 0.0 0.0 0.0 0.0 0.0 0.0
0.0 0.0 0.0 0.0 0.0 0.0 0.0 0.0
0.0 0.0 0.0 0.0 0.0 0.0 0.0 0.0
0.0 0.0 0.0 0.0 0.0 0.0 0.0 0.0
0.0 0.0 0.0 0.0 0.0 0.0 0.0 0.0
0.0 0.0 0.0 0.0 0.0 0.0 0.0 0.0
0.0 0.0 0.0 0.0 0.0 0.0 0.0 0.0
0.0 0.0 0.0 0.0 0.0 0.0 0.0 0.0
00000000: 0000 0000 0000 0000 0000 0000 0000 0000
00000010: 0000 0000 0000 0000 0000 0000 0000 0000
00000020: 0000 0000 0000 0000 0000 0000 0000 0000
00000030: 0000 0000 0000 0000 0000 0000 0000 0000
00000040: 0000 0000 0000 0000 0000 0000 0000 0000
00000050: 0000 0000 0000 0000 0000 0000 0000 0000
00000060: 0000 0000 0000 0000 0000 0000 0000 0000
00000070: 0000 0000 0000 0000 0000 0000 0000 0000
00000080: 0000 0000 0000 0000 0000 0000 0000 0000
00000090: 0000 0000 0000 0000 0000 0000 0000 0000
000000a0: 0000 0000 0000 0000 0000 0000 0000 0000
000000b0: 0000 0000 0000 0000 0000 0000 0000 0000
000000c0: 0000 0000 0000 0000 0000 0000 0000 0000
000000d0: 0000 0000 0000 0000 0000 0000 0000 0000
000000e0: 0000 0000 0000 0000 0000 0000 0000 0000
000000f0: 0000 0000 0000 0000 0000 0000 0000 0000
00000100: 0000 0000 0000 0000 0000 0000 0000 0000
00000110: 0000 0000 0000 0000 0000 0000 0000 0000
00000120: 0000 0000 0000 0000 0000 0000 0000 0000
00000130: 0000 0000 0000 0000 0000 0000 0000 0000
00000140: 0000 0000 0000 0000 0000 0000 0000 0000
00000150: 0000 0000 0000 0000 0000 0000 0000 0000
00000160: 0000 0000 0000 0000 0000 0000 0000 0000
00000170: 0000 0000 0000 0000 0000 0000 0000 0000
00000180: 0000 0000 0000 0000 0000 0000 0000 0000
00000190: 0000 0000 0000 0000 0000 0000 0000 0000
000001a0: 0000 0000 0000 0000 0000 0000 0000 0000
000001b0: 0000 0000 0000 0000 0000 0000 0000 0000
000001c0: 0000 0000 0000 0000 0000 0000 0000 0000
000001d0: 0000 0000 0000 0000 0000 0000 0000 0000
000001e0: 0000 0000 0000 0000 0000 0000 0000 0000
000001f0: 0000 0000 0000 0000 0000 0000 0000 0000

network_body._body_endoder.seq_layers.2.weight f4 [128, 128]
-0.03639296 0.08790156 0.06966038 -0.081119336 -0.049064673 -0.07973317 0.14508474 -0.017212056
-0.09683807 -0.027171781 -0.07340102 -0.042910658 -0.15544942 -0.063226685 0.072230645 -0.07205444
0.17189868 0.17099528 -0.08437882 -0.0051619136 0.043944146 -0.07139277 -0.0033472953 0.0040997933
0.15244797 0.008056148 -0.059400607 -0.06804609 -0.09737412 -0.03997057 0.057611495 -0.0387139
0.010800796 0.1960144 -0.102326274 -0.08069936 0.079463 0.075617716 0.02057844 -0.090842664
-0.15419263 0.17637163 -0.09995746 -0.11189719 0.01048548 -0.015620101 0.00903809 -0.031189606
0.03497508 0.047224943 0.06722044 0.0058429316 -0.04605764 -0.15534195 -0.046677027 -0.05133299
0.035439856 0.050590426 -0.08331435 0.017726826 -0.11195931 0.016106557 -0.10239581 -0.04020874
-0.1271476 -0.037092738 0.06750387 0.006674428 -0.06831834 0.1381135 -0.076927066 0.033766143
0.06899557 -0.1353744 0.07232349 0.056263074 0.15877834 0.011144629 -0.10838241 -0.036513712
0.0549803 0.12913705 -0.118901044 0.00655324 0.10753502 0.07057252 0.07873871 0.09685023
-0.057177436 -0.12058285 -0.049600217 -0.1945073 0.032471985 -0.109408535 0.06428533 0.037123945
-0.13018121 0.1458453 -0.018578706 0.036524728 -0.048014812 -0.14255968 -0.03402966 -0.05627929
-0.10084787 0.04331662 0.121296376 0.0037732879 -0.07770786 -0.019721944 0.18485047 -0.14343518
0.057065904 -0.09914459 0.04265696 0.0008319352 0.09362499 -0.14386642 -0.08975575 0.015758622
0.16160311 -0.072892286 -0.09571969 0.10590314 0.0022691009 -0.08680188 0.039370883 0.12495213
0.0010940765 -0.07328875 -0.03230479 -0.17461626 -0.039678562 0.0088651655 -0.02863955 -0.076452814
0.069693804 -0.059573643 -0.026400696 -0.05736252 0.029291058 0.08106751 0.0076194108 -0.13655747
0.005793468 -0.15739453 -0.002788701 0.0013033708 0.08766131 -0.00988275 -0.028180154 -0.14608687
-0.1315328 0.060660537 0.009199083 -0.038344897 0.09838704 -0.1721285 -0.105818756 -0.0006169642
-0.06336434 -0.07493493 -0.0019429639 0.058018666 -0.052044965 0.034452215 0.060550116 0.13598098
0.070520915 0.108566195 0.030221926 0.22828503 -0.0129435565 0.03754093 0.048623785 -0.00507654
0.032600354 -0.002425805 -0.18955275 0.06646561 0.19814822 0.07065845 0.029530989 0.12460323
-0.055677045 -0.04700712 -0.03218392 -0.021937817 -0.06965683 -0.022672184 -0.02329443 0.0028870166
-0.07615928 -0.0055218535 -0.01872985 -0.027025044 -0.0920106 0.05359211 0.15097328 0.030754583
-0.009212324 -0.011255274 0.11877241 -0.025912035 -0.13259925 0.0053596073 -0.0570848 -0.06386646
0.039447054 0.01734133 -0.08907871 0.029842708 0.0659171 0.15536077 0.0037664182 0.2401983
-0.0322649 -0.10969522 -0.055989336 -0.052997608 0.101898804 -0.014163643 0.13736752 0.02088375
-0.029998116 -0.13637067 0.06076524 -0.02113885 0.007714694 -0.1085719 0.048151813 -0.03771943
0.07931315 -0.14157148 -0.095717385 0.05412475 0.029966421 0.06529909 0.04209322 0.017940212
-0.106687866 0.008426778 0.058474243 -0.1615605 -0.010068005 0.09005696 0.19801766 -0.12283125
-0.11245791 0.004936738 -0.035586692 0.014674753 -0.05040619 -0.03329777 0.10970485 0.030702582
00000000: c910 15bd bc05 b43d 1aaa 8e3d e521 a6bd
00000010: 0af8 48bd 254b a3bd 1891 143e 4c00 8dbc
00000020: 0a53 c6bd 5b97 debc 4653 96bd 16c3 2fbd
00000030: 222e 1fbe fe7c 81bd a9ed 933d 4791 93bd
00000040: 3506 303e 6319 2f3e cece acbd 4525 a9bb
00000050: c7fe 333d 5f36 92bd 4c5e 5bbb 8f57 863b
00000060: 521b 1c3e effd 033c 0d4e 73bd c05b 8bbd
00000070: 156c c7bd 2eb8 23bd 08fa 6b3d 7792 1ebd
00000080: d2f5 303c 00b8 483e 7090 d1bd b545 a5bd
00000090: 7fbd a23d 76dd 9a3d 1e94 a83c b80b babd
000000a0: ace4 1dbe c49a 343e 7fb6 ccbd 5b2a e5bd
000000b0: 4acb 2b3c 74eb 7fbc 7f14 143c 5881 ffbc
000000c0: 0842 0f3d f16e 413d dfaa 893d 1076 bf3b
000000d0: f0a6 3cbd f611 1fbe 6930 3fbd 8b42 52bd
000000e0: 6229 113d e837 4f3d b7a0 aabd d937 913c
000000f0: ec4a e5bd e6f1 833c e5b4 d1bd ebb1 24bd
00000100: fb32 02be 8eee 17bd 783f 8a3d 29b5 da3b
00000110: 7cea 8bbd a06d 0d3e f08b 9dbd 5e4e 0a3d
00000120: 8d4d 8d3d 969f 0abe 571e 943d 1c74 663d
00000130: ca96 223e f697 363c 99f7 ddbd 678f 15bd
00000140: 0633 613d 813c 043e 6482 f3bd 90bc d63b
00000150: 523b dc3d 5388 903d c341 a13d 6a59 c63d
00000160: e332 6abd 24f4 f6bd 9929 4bbd ec2c 47be
00000170: 5801 053d 9511 e0bd 07a8 833d 470f 183d
00000180: 394e 05be 7858 153e 5f32 98bc f49a 153d
00000190: 2eab 44bd 2afb 11be af62 0bbd 1d85 66bd
000001a0: 5489 cebd c56c 313d 3c6a f83d 4449 773b
000001b0: 4c25 9fbd ea8f a1bc 7149 3d3e ace0 12be
000001c0: f0bd 693d 520c cbbd 11b9 2e3d 3a16 5a3a
000001d0: 75be bf3d b851 13be ddd1 b7bd 3a18 813c
000001e0: 497b 253e 8d48 95bd af08 c4bd bfe3 d83d
000001f0: 32b5 143b 2fc5 b1bd 5d43 213d e7e6 ff3d
00000200: 1e67 8f3a 6a18 96bd 0752 04bd 9bce 32be
00000210: fd85 22bd 333f 113c 7d9d eabc 4b93 9cbd
00000220: a0bb 8e3d 7e03 74bd 4646 d8bc f6f4 6abd
00000230: cdf3 ef3c b906 a63d 40ac f93b b9d5 0bbe
00000240: 22d7 bd3b 082c 21be a4c2 36bb ded5 aa3a
00000250: c687 b33d 42eb 21bc 11da e6bc cc97 15be
00000260: 89b0 06be 2f77 783d c0b7 163c 8a0f 1dbd
00000270: 257f c93d 7442 30be 81b7 d8bd c4bb 21ba
00000280: 2ac5 81bd 7c77 99bd 0dab feba fba4 6d3d
00000290: 1a2d 55bd c41d 0d3d 6603 783d 993e 0b3e
000002a0: 456d 903d f457 de3d f993 f73c 8dc3 693e
000002b0: 3611 54bc 85c4 193d bc29 473d 1b59 a6bb
000002c0: f387 053d 41fa 1ebb 1e1a 42be 1f1f 883d
000002d0: 5ee7 4a3e 61b5 903d f9ea f13c fa2f ff3d
000002e0: 9d0d 64bd 8a8a 40bd 49d3 03bd f0b6 b3bc
000002f0: 3da8 8ebd 04bb b9bc f6d3 bebc 1a34 3d3b
00000300: 66f9 9bbd aaf0 b4bb 586f 99bc a063 ddbc
00000310: 0e70 bcbd 6683 5b3d bd98 1a3e 09f1 fb3c
00000320: 4aef 16bc 0a68 38bc f33e f33d 7a45 d4bc
00000330: 19c8 07be a59f af3b c0d1 69bd 6bcc 82bd
00000340: 3c93 213d 680f 8e3c e66e b6bd b278 f43c
00000350: 8bff 863d e516 1f3e 03d6 763b 8bf6 753e
00000360: 3328 04bd e3a7 e0bd 1355 65bd 0514 59bd
00000370: 52b0 d03d a00e 68bc 12aa 0c3e 6614 ab3c
00000380: 9cbe f5bc c1a4 0bbe f9e4 783d 622b adbc
00000390: 8bcb fc3b f25a debd d63a 453d b07f 1abd
000003a0: ef6e a23d 1df8 10be 7a07 c4bd eab1 5d3d
000003b0: 247c f53c 88bb 853d f169 2c3d 5af7 923c
000003c0: 2b7f dabd 7810 0a3c b082 6f3d 1e70 25be
000003d0: 46f4 24bc c96f b83d 24c5 4a3e f38e fbbd
000003e0: 5550 e6bd 5cc4 a13b 5ac3 11bd 606e 703c
000003f0: b976 4ebd 3e63 08bd f0ac e03d fb83 fb3c

network_body._body_endoder.seq_layers.2.bias f4 [128]
0.0 0.0 0.0 0.0 0.0 0.0 0.0 0.0
0.0 0.0 0.0 0.0 0.0 0.0 0.0 0.0
0.0 0.0 0.0 0.0 0.0 0.0 0.0 0.0
0.0 0.0 0.0 0.0 0.0 0.0 0.0 0.0
0.0 0.0 0.0 0.0 0.0 0.0 0.0 0.0
0.0 0.0 0.0 0.0 0.0 0.0 0.0 0.0
0.0 0.0 0.0 0.0 0.0 0.0 0.0 0.0
0.0 0.0 0.0 0.0 0.0 0.0 0.0 0.0
0.0 0.0 0.0 0.0 0.0 0.0 0.0 0.0
0.0 0.0 0.0 0.0 0.0 0.0 0.0 0.0
0.0 0.0 0.0 0.0 0.0 0.0 0.0 0.0
0.0 0.0 0.0 0.0 0.0 0.0 0.0 0.0
0.0 0.0 0.0 0.0 0.0 0.0 0.0 0.0
0.0 0.0 0.0 0.0 0.0 0.0 0.0 0.0
0.0 0.0 0.0 0.0 0.0 0.0 0.0 0.0
0.0 0.0 0.0 0.0 0.0 0.0 0.0 0.0
00000000: 0000 0000 0000 0000 0000 0000 0000 0000
00000010: 0000 0000 0000 0000 0000 0000 0000 0000
00000020: 0000 0000 0000 0000 0000 0000 0000 0000
00000030: 0000 0000 0000 0000 0000 0000 0000 0000
00000040: 0000 0000 0000 0000 0000 0000 0000 0000
00000050: 0000 0000 0000 0000 0000 0000 0000 0000
00000060: 0000 0000 0000 0000 0000 0000 0000 0000
00000070: 0000 0000 0000 0000 0000 0000 0000 0000
00000080: 0000 0000 0000 0000 0000 0000 0000 0000
00000090: 0000 0000 0000 0000 0000 0000 0000 0000
000000a0: 0000 0000 0000 0000 0000 0000 0000 0000
000000b0: 0000 0000 0000 0000 0000 0000 0000 0000
000000c0: 0000 0000 0000 0000 0000 0000 0000 0000
000000d0: 0000 0000 0000 0000 0000 0000 0000 0000
000000e0: 0000 0000 0000 0000 0000 0000 0000 0000
000000f0: 0000 0000 0000 0000 0000 0000 0000 0000
00000100: 0000 0000 0000 0000 0000 0000 0000 0000
00000110: 0000 0000 0000 0000 0000 0000 0000 0000
00000120: 0000 0000 0000 0000 0000 0000 0000 0000
00000130: 0000 0000 0000 0000 0000 0000 0000 0000
00000140: 0000 0000 0000 0000 0000 0000 0000 0000
00000150: 0000 0000 0000 0000 0000 0000 0000 0000
00000160: 0000 0000 0000 0000 0000 0000 0000 0000
00000170: 0000 0000 0000 0000 0000 0000 0000 0000
00000180: 0000 0000 0000 0000 0000 0000 0000 0000
00000190: 0000 0000 0000 0000 0000 0000 0000 0000
000001a0: 0000 0000 0000 0000 0000 0000 0000 0000
000001b0: 0000 0000 0000 0000 0000 0000 0000 0000
000001c0: 0000 0000 0000 0000 0000 0000 0000 0000
000001d0: 0000 0000 0000 0000 0000 0000 0000 0000
000001e0: 0000 0000 0000 0000 0000 0000 0000 0000
000001f0: 0000 0000 0000 0000 0000 0000 0000 0000

action_model._continuous_distribution.log_sigma f4 [1, 2]
0.0 0.0
00000000: 0000 0000 0000 0000

action_model._continuous_distribution.mu.weight f4 [2, 128]
0.004632504 0.0026656496 -0.005407343 -0.028628742 -0.011586548 0.008159811 -0.02860613 -0.018615339
-0.0075121038 -0.020400194 -0.012994654 -0.0017849408 0.027955348 0.010953695 -0.024847455 0.036936533
0.01985825 -0.014226496 -0.013542463 -0.02120827 -0.018737461 0.015581146 0.028002415 -0.0155704785
0.019477889 0.017609388 -0.0073674307 -0.0017905955 -0.004609903 -0.015649064 0.018228559 0.022950796
0.015565725 0.01405738 -0.001538361 0.009197165 -0.01969147 -0.042892553 -0.027074626 0.0016972425
-0.015585658 0.020513969 0.011352724 -0.009114227 -0.0016412344 -0.025475312 0.015615033 0.015836446
0.0060630306 0.008814429 -0.0051337755 0.0020001628 0.0021811342 0.0008413509 -0.0011534394 -0.021390151
0.028143963 0.03119052 -0.025454266 -0.008023276 0.013629488 -0.0074351327 -0.005838153 0.021487433
0.002869817 0.00915025 0.0032131448 0.04233637 0.02514398 0.022139182 0.017425252 0.017291492
0.020768449 -0.0001696634 -0.006596321 -0.0024513137 0.0024363752 -0.0064090886 -0.0071253083 -0.018258763
-0.008671374 -0.02878934 -0.0071621137 -0.015830765 -0.023860415 -0.007790772 -0.018470965 -0.012229877
0.011197382 0.02579467 0.019332016 0.016933994 -0.014648241 0.0072424854 -0.021768862 0.014240193
-0.013963808 -0.012231234 -0.030251501 0.010681189 -0.03272041 -0.008751629 0.03386975 0.02252815
-0.005924201 -0.014969881 -0.031097291 -0.0064049736 0.03512732 -0.00944605 -0.0059675425 0.020581845
-0.03693772 0.0026291024 -0.012052177 0.02094317 0.0075106933 -0.005916345 0.020691127 -0.011468078
-0.026974762 -0.012310751 -0.03216621 0.003357036 -0.023764193 0.012382489 0.019269237 -0.008255921
-0.025178293 -0.021934351 0.0019115007 0.01604945 -0.00769396 0.00034007334 -0.019791782 0.0054215537
0.0010556583 0.0030443831 0.01281033 0.018381236 0.017431742 -0.010524222 -0.004216582 0.028855694
-0.0045465245 0.008390161 0.021248128 0.02379728 -0.015458009 0.0071006417 -0.012945115 0.008920389
0.0005908655 -0.003955817 -0.0044903136 0.025027854 0.017924946 0.033755004 0.0010509734 -0.040830445
-0.015428227 0.025709895 -0.0022970706 0.023230204 0.006703939 -0.020600345 0.0014008742 -0.003453434
0.031612482 -0.0056115407 -0.011420069 -0.008517295 0.008010483 -0.011220006 0.01394135 0.008139964
0.008122539 0.017099107 0.019104047 0.017405562 0.007543914 9.0266236e-05 0.020566665 0.0027021412
0.0029555957 -0.001183085 0.03697754 -0.010297911 -0.011345798 -0.0011927325 0.00920172 -0.005000848
-0.01152731 -0.0036461062 0.0044145277 -0.0041011157 -0.02207472 -0.00047291708 0.00586102 0.0051069884
0.0041952715 -0.020085616 0.012757513 0.0016264245 0.0027055938 0.014522378 0.012109629 -0.008325901
0.009098693 0.022077115 -0.0142036965 -0.0071591088 -0.0009120417 0.028310388 -0.042561665 -0.008130977
-0.002476811 -0.04062121 -0.00508024 -0.00394611 0.018166384 -0.024470747 0.0053781136 -0.0191112
-0.013645452 -0.010304762 0.0025160315 0.010827791 -0.0039277505 -0.0061106826 -0.02652349 -0.0042976323
0.005267331 -0.003990017 -0.020816598 0.0077157007 -0.0064289565 -0.03756018 -2.6768577e-05 -0.007457239
-0.0043062456 -0.004487524 -0.0036165514 -0.0030480146 0.0003990031 -0.0014542983 0.01650199 0.022924488
-0.013961457 0.024431586 -0.025723303 0.0064626387 0.009654889 -0.017404495 0.03950804 0.012082454
00000000: 43cc 973b 2eb2 2e3b 1530 b1bb d386 eabc
00000010: 81d5 3dbc bab0 053c 6757 eabc 327f 98bc
00000020: 1828 f6bb 4f1e a7bc 87e7 54bc adf4 e9ba
00000030: 9d02 e53c 2077 333c e48c cbbc c34a 173d
00000040: c5ad a23c 4016 69bc 35e1 5dbc f7bc adbc
00000050: 4e7f 99bc 1048 7f3c 5265 e53c 521b 7fbc
00000060: 1890 9f3c 9041 903c 7d6a f1bb 6ab2 eaba
00000070: ab0e 97bb 7732 80bc 0f54 953c 4f03 bc3c
00000080: 6207 7f3c ed50 663c d4a2 c9ba b5af 163c
00000090: 0150 a1bc 1ab0 2fbd 9bcb ddbc 0276 de3a
000000a0: fd5a 7fbc e90c a83c c700 3a3c d753 15bc
000000b0: b01e d7ba 9ab1 d0bc 32d6 7f3c 6fbb 813c
000000c0: 63ac c63b 656a 103c 3b39 a8bb 2a15 033b
000000d0: 5cf1 0e3b 1a8e 5c3a 012f 97ba 663a afbc
000000e0: 2b8e e63c 4383 ff3c 7785 d0bc 0f74 03bc
000000f0: 374e 5f3c 6aa2 f3bb fa4d bfbb 6a06 b03c
00000100: 8a13 3c3b eeea 153c a093 523b e768 2d3d
00000110: bffa cd3c 3b5d b53c 67bf 8e3c e3a6 8d3c
00000120: 9822 aa3c ace7 31b9 f325 d8bb 38a6 20bb
00000130: 98ab 1f3b 5503 d2bb 6b7b e9bb 6793 95bc
00000140: 6112 0ebc 9fd7 ebbc 2ab0 eabb 85af 81bc
00000150: eb76 c3bc bb49 ffbb 6c50 97bc d25f 48bc
00000160: 3975 373c 584f d33c 2d5e 9e3c 29b9 8a3c
00000170: 2dff 6fbc 5f52 ed3b 9d54 b2bc b34f 693c
00000180: 75c8 64bc 8465 48bc ffd1 f7bc 2700 2f3c
00000190: d605 06bd fe62 0fbc 02bb 0a3d f48c b83c
000001a0: cd1f c2bb 3b44 75bc bfbf febc d0e0 d1bb
000001b0: aae1 0f3d 9bc3 1abc 608b c3bb 429b a83c
000001c0: 024c 17bd 054d 2c3b 7f76 45bc 0391 ab3c
000001d0: 431c f63b e6dd c1bb 7080 a93c 9be4 3bbc
000001e0: 2dfa dcbc 08b3 49bc b7c0 03bd b801 5c3b
000001f0: 20ad c2bc ecdf 4a3c 85da 9d3c d843 07bc
00000200: b542 cebc abaf b3bc 528b fa3a 237a 833c
00000210: 9d1d fcbb df4b b239 6022 a2bc 4aa7 b13b
00000220: 045e 8a3a 4684 473b 6be2 513c 3f94 963c
00000230: 03cd 8e3c c96d 2cbc 412b 8abb c762 ec3c
00000240: 03fb 94bb e376 093c 8e10 ae3c 83f2 c23c
00000250: 9743 7dbc 80ac e83b bf17 54bc d326 123c
00000260: 50e4 1a3a cc9f 81bb 7b23 93bb 3707 cd3c
00000270: 56d7 923c b042 0a3d d1c0 893a d33d 27bd
00000280: adc6 7cbc 8f9d d23c 738a 16bb 454d be3c
00000290: b7ac db3b 0ec2 a8bc 8a9d b73a 0253 62bb
000002a0: 177c 013d 04e1 b7bb 3e1b 3bbc 208c 0bbc
000002b0: 673e 033c 1ed4 37bc 436a 643c 7c5d 053c
000002c0: 6614 053c 6d13 8c3c 1780 9c3c 1c96 8e3c
000002d0: f032 f73b 514d bd38 6c7b a83c 6816 313b
000002e0: abb2 413b bf11 9bba c375 173d 92b8 28bc
000002f0: bae3 39bc 7655 9cba d0c2 163c 27de a3bb
00000300: 0bdd 3cbc 83f3 6ebb bea7 903b a762 86bb
00000310: 0bd6 b4bc dbf1 f7b9 cd0d c03b 8658 a73b
00000320: 7d78 893b 978a a4bc e304 513c c02d d53a
00000330: 5550 313b 45ef 6d3c 7767 463c 5c69 08bc
00000340: af12 153c 11db b43c 9fb6 68bc f596 eabb
00000350: 1516 6fba 30eb e73c 2455 2ebd ca37 05bc
00000360: fe51 22bb 6d62 26bd 2478 a6bb 5f4e 81bb
00000370: abd1 943c e076 c8bc e33a b03b 178f 9cbc
00000380: 2d91 5fbc 4ed5 28bc 01e4 243b 0c67 313c
00000390: 5cb4 80bb 1f3c c8bb ca47 d9bc 27d3 8cbb
000003a0: 9399 ac3b b0be 82bb 9287 aabc fdd3 fc3b
000003b0: ffa9 d2bb b4d8 19bd 158d e0b7 db5b f4bb
000003c0: 681b 8dbb 140c 93bb aa03 6dbb 33c1 47bb
000003d0: 4a31 d139 279e beba 2e2f 873c 23cc bb3c
000003e0: 98be 64bc c024 c83c adb9 d2bc 8bc4 d33b
000003f0: 8a2f 1e3c df93 8ebc 2fd3 213d 7cf5 453c

action_model._continuous_distribution.mu.bias f4 [2]
0.0 0.0
00000000: 0000 0000 0000 0000

network_body._body_endoder.seq_layers.0.weight f4 [128, 2]
0.9670691 -1.3359338 -0.2555859 0.9959021 1.0853722 -1.1836382 0.03231853 1.0050462
0.8106369 0.1717402 -0.18902569 0.055729914 -0.014835896 -0.5916055 0.19333589 0.8394926
0.51898277 0.54736173 0.42722806 -0.49232927 0.105100326 1.4362131 0.33659324 0.49306515
0.41753015 -0.54871523 -0.61297107 -0.33936834 -0.144129 0.27426234 -0.10164723 -0.3032937
-0.5106118 0.2296308 -0.3054855 1.2115415 0.2914434 0.95785785 -0.33081257 1.135438
-0.27962062 -0.79537517 0.9425376 -1.5168221 0.18196994 0.6955233 0.05366851 -0.5751737
1.1675487 0.073558785 -0.3259085 0.8725368 -0.71879196 -0.28680694 0.3756514 -0.9173527
-0.25595394 0.7087926 -0.62483376 -0.26107156 0.42200458 -0.8362691 -0.16077593 -0.4596239
0.8267268 0.07693779 -0.18729536 0.2087926 0.21771728 0.40183023 -0.4150754 -0.6456268
0.4926213 0.13850833 0.17465751 0.5276476 -0.2158621 -0.13425219 -0.43797326 -0.4239649
0.04822611 0.90430385 0.477537 0.33960932 0.7992358 -1.2541182 -0.7267778 0.09652208
0.6132377 0.8727181 -0.100593396 -0.7999 0.7391917 -1.0479913 1.6096357 0.6260212
-1.4113917 0.66244274 -0.40931734 -0.49934703 -0.27525976 0.028790593 -0.67274994 1.1107315
-0.40335986 0.76886845 1.1755396 0.27984884 -1.6408845 -0.062244494 -0.4589259 -0.24958275
-0.04732873 0.16602054 0.9854449 -0.14220136 0.7142 -0.09265352 -1.203239 0.1236622
0.27606344 1.5979655 0.2367007 0.5741344 1.1696652 0.24705285 -0.3206925 0.30945694
0.970433 0.4683147 -1.3524828 -0.009848467 -0.3047148 -0.879299 0.8194016 1.4506934
0.17261735 0.34680882 -0.8783188 0.7613652 0.34953925 0.25496474 0.08271996 1.0567098
-0.16015106 1.0705956 0.7573069 0.7955066 1.3155055 -0.5071472 0.2622499 0.011751732
-0.9286743 0.47654706 -0.519223 0.25665864 0.15881076 0.0022165251 0.861718 0.9136709
-0.33187705 1.0505705 -0.75913537 -1.1135356 0.4388447 -0.08467756 -0.5592101 1.1168704
-0.9455764 -1.0308781 0.7696367 0.41493937 1.2585241 -0.17660482 -1.3293839 -0.18945847
-1.5156326 -1.2540866 0.7775632 1.3678634 0.23115401 0.35932687 -0.54725116 -0.79448545
0.7840981 0.5354407 -0.46820453 0.23872586 0.39955303 -1.1529213 0.72335446 0.8870366
0.09570245 0.039302144 -0.60027933 0.6764742 0.9576816 -0.4765638 -0.26658797 0.28548643
0.2456458 1.1738229 -0.82095975 0.2757209 -0.033648003 1.626864 0.44918415 1.0860652
-1.1462579 -0.74662197 -0.23663396 0.797356 0.040024642 1.3345938 0.26565853 0.7654546
-1.2795839 0.61680156 0.47928455 0.44387534 1.0013753 -0.6476813 -0.11815414 0.34334564
-0.33134106 -0.22698744 -0.45250037 0.70042735 0.4027653 0.933444 1.0376202 0.9792725
-0.885249 1.0375537 -0.8153387 1.4291148 0.9604135 0.3449075 -0.86655587 -0.2147599
-0.55661273 -1.5705323 -0.5620971 1.2333019 -0.60434175 0.50160134 -0.55543524 -0.32517105
-0.10226234 1.391695 -0.010445853 0.6279924 1.0024978 0.28422442 -0.5183915 0.08296736
00000000: d791 773f e1ff aabf 28dc 82be 71f3 7e3f
00000010: 7aed 8a3f 7581 97bf 6f60 043d 5ba5 803f
00000020: e685 4f3f aadc 2f3e f38f 41be 0d45 643d
00000030: 4212 73bc 7573 17bf d8f9 453e fde8 563f
00000040: 0edc 043f e61f 0c3f a3bd da3e 9512 fcbe
00000050: d73e d73d d5d5 b73f f355 ac3e 0973 fc3e
00000060: 83c6 d53e 9a78 0cbf aceb 1cbf b0c1 adbe
00000070: 8d96 13be 1d6c 8c3e 6c2c d0bd 5049 9bbe
00000080: 74b7 02bf 5624 6b3e 9868 9cbe cb13 9b3f
00000090: 1238 953e 2c36 753f 4460 a9be 0856 913f
000000a0: 6f2a 8fbe b59d 4bbf 254a 713f 3a27 c2bf
000000b0: 5456 3a3e d10d 323f 83d3 5b3d 953e 13bf
000000c0: 3c72 953f fda5 963d 7bdd a6be 925e 5f3f
000000d0: c002 38bf 5cd8 92be 6155 c03e a0d7 6abf
000000e0: 650c 83be 6f73 353f 1bf5 1fbf 2cab 85be
000000f0: fc10 d83e bb15 56bf 72a2 24be d353 ebbe
00000100: 5ea4 533f 8f91 9d3d 5bca 3fbe bacd 553e
00000110: 47f1 5e3e b1bc cd3e c384 d4be cc47 25bf
00000120: dc38 fc3e 21d5 0d3e 6bd9 323e ea13 073f
00000130: f40a 5dbe 6879 09be 083e e0be ed11 d9be
00000140: be88 453d 7580 673f bb7f f43e 46e1 ad3e
00000150: b89a 4c3f f286 a0bf 1c0e 3abf 5ead c53d
00000160: 25fd 1c3f 746a 5f3f e903 cebd 3fc6 4cbf
00000170: ab3b 3d3f 9424 86bf 8b08 ce3f ed42 203f
00000180: 7ca8 b4bf d995 293f 0b92 d1be 6aaa ffbe
00000190: d9ee 8cbe 40da eb3c 5739 2cbf 732c 8e3f
000001a0: 2f85 cebe 90d4 443f 1578 963f 5948 8f3e
000001b0: 8108 d2bf 15f4 7ebd 56f8 eabe 9f92 7fbe
000001c0: c5db 41bd 4a01 2a3e 1e46 7c3f 3c9d 11be
000001d0: d0d5 363f 21c1 bdbd bc03 9abf 9c42 fd3d
000001e0: 3058 8d3e 228a cc3f ab61 723e 79fa 123f
000001f0: 97b7 953f 6cfb 7c3e cf31 a4be 2471 9e3e
00000200: 4c6e 783f f2c6 ef3e 281e adbf 775b 21bc
00000210: 9403 9cbe bd19 61bf 4ec4 513f 52b0 b93f
00000220: 9ac2 303e ed90 b13e 80d9 60bf d4e8 423f
00000230: cff6 b23e bd8a 823e 1569 a93d 4442 873f
00000240: a4fe 23be 4709 893f ddde 413f 52a6 4b3f
00000250: 7c62 a83f 66d4 01bf 9e45 863e 568a 403c
00000260: 99bd 6dbf fafd f33e cceb 04bf c368 833e
00000270: 4a9f 223e 1f43 113b 8d99 5c3f 56e6 693f
00000280: caeb a9be 1879 863f b256 42bf 5688 8ebf
00000290: 41b0 e03e 6e6b adbd 6528 0fbf 9cf5 8e3f
000002a0: 4c11 72bf d0f3 83bf e906 453f ef72 d43e
000002b0: 5117 a13f e5d7 34be 4029 aabf 6701 42be
000002c0: 4000 c2bf e985 a0bf 620e 473f 2616 af3f
000002d0: a3b3 6c3e b1f9 b73e a718 0cbf 6663 4bbf
000002e0: a7ba 483f a412 093f 81b8 efbe 8d74 743e
000002f0: 3792 cc3e ed92 93bf c22d 393f d514 633f
00000300: a5ff c33d 49fb 203d e8ab 19bf 6a2d 2d3f
00000310: 9f2a 753f 2c00 f4be 387e 88be 472b 923e
00000320: 938a 7b3e d43f 963f 6b2a 52bf 4a2b 8d3e
00000330: 7dd2 09bd 143d d03f 77fb e53e 2f04 8b3f
00000340: 94b8 92bf 9e22 3fbf 2c50 72be 861f 4c3f
00000350: e1f0 233d f8d3 aa3f 6504 883e d5f4 433f
00000360: 68c9 a3bf b5e6 1d3f c964 f53e a143 e33e
00000370: 112d 803f 71ce 25bf ccfa f1bd 00cb af3e
00000380: 89a5 a9be 656f 68be 21ae e7be 354f 333f
00000390: 4137 ce3e 30f6 6e3f bdd0 843f 9ab1 7a3f
000003a0: ae9f 62bf 8fce 843f 09ba 50bf 3ced b63f
000003b0: a9dd 753f b797 b03e 9bd6 5dbf 05ea 5bbe
000003c0: 2c7e 0ebf 3407 c9bf 98e5 0fbf d6dc 9d3f
000003d0: 24b6 1abf f268 003f 0131 0ebf d27c a6be
000003e0: eb6e d1bd 1023 b23f 1525 2bbc 1cc4 203f
000003f0: d951 803f dd85 913e 4eb5 04bf cbea a93d

network_body._body_endoder.seq_layers.0.bias f4 [128]
0.0 0.0 0.0 0.0 0.0 0.0 0.0 0.0
0.0 0.0 0.0 0.0 0.0 0.0 0.0 0.0
0.0 0.0 0.0 0.0 0.0 0.0 0.0 0.0
0.0 0.0 0.0 0.0 0.0 0.0 0.0 0.0
0.0 0.0 0.0 0.0 0.0 0.0 0.0 0.0
0.0 0.0 0.0 0.0 0.0 0.0 0.0 0.0
0.0 0.0 0.0 0.0 0.0 0.0 0.0 0.0
0.0 0.0 0.0 0.0 0.0 0.0 0.0 0.0
0.0 0.0 0.0 0.0 0.0 0.0 0.0 0.0
0.0 0.0 0.0 0.0 0.0 0.0 0.0 0.0
0.0 0.0 0.0 0.0 0.0 0.0 0.0 0.0
0.0 0.0 0.0 0.0 0.0 0.0 0.0 0.0
0.0 0.0 0.0 0.0 0.0 0.0 0.0 0.0
0.0 0.0 0.0 0.0 0.0 0.0 0.0 0.0
0.0 0.0 0.0 0.0 0.0 0.0 0.0 0.0
0.0 0.0 0.0 0.0 0.0 0.0 0.0 0.0
00000000: 0000 0000 0000 0000 0000 0000 0000 0000
00000010: 0000 0000 0000 0000 0000 0000 0000 0000
00000020: 0000 0000 0000 0000 0000 0000 0000 0000
00000030: 0000 0000 0000 0000 0000 0000 0000 0000
00000040: 0000 0000 0000 0000 0000 0000 0000 0000
00000050: 0000 0000 0000 0000 0000 0000 0000 0000
00000060: 0000 0000 0000 0000 0000 0000 0000 0000
00000070: 0000 0000 0000 0000 0000 0000 0000 0000
00000080: 0000 0000 0000 0000 0000 0000 0000 0000
00000090: 0000 0000 0000 0000 0000 0000 0000 0000
000000a0: 0000 0000 0000 0000 0000 0000 0000 0000
000000b0: 0000 0000 0000 0000 0000 0000 0000 0000
000000c0: 0000 0000 0000 0000 0000 0000 0000 0000
000000d0: 0000 0000 0000 0000 0000 0000 0000 0000
000000e0: 0000 0000 0000 0000 0000 0000 0000 0000
000000f0: 0000 0000 0000 0000 0000 0000 0000 0000
00000100: 0000 0000 0000 0000 0000 0000 0000 0000
00000110: 0000 0000 0000 0000 0000 0000 0000 0000
00000120: 0000 0000 0000 0000 0000 0000 0000 0000
00000130: 0000 0000 0000 0000 0000 0000 0000 0000
00000140: 0000 0000 0000 0000 0000 0000 0000 0000
00000150: 0000 0000 0000 0000 0000 0000 0000 0000
00000160: 0000 0000 0000 0000 0000 0000 0000 0000
00000170: 0000 0000 0000 0000 0000 0000 0000 0000
00000180: 0000 0000 0000 0000 0000 0000 0000 0000
00000190: 0000 0000 0000 0000 0000 0000 0000 0000
000001a0: 0000 0000 0000 0000 0000 0000 0000 0000
000001b0: 0000 0000 0000 0000 0000 0000 0000 0000
000001c0: 0000 0000 0000 0000 0000 0000 0000 0000
000001d0: 0000 0000 0000 0000 0000 0000 0000 0000
000001e0: 0000 0000 0000 0000 0000 0000 0000 0000
000001f0: 0000 0000 0000 0000 0000 0000 0000 0000

network_body._body_endoder.seq_layers.2.weight f4 [128, 128]
0.008592926 0.02761647 0.05819818 -0.112256534 0.05336409 0.11306865 0.0932164 0.010595031
0.100999676 -0.02181623 0.07469086 0.026620572 -0.038044922 0.08546158 0.04592475 0.08492604
0.06730673 -0.18385276 0.035487853 0.025335409 -0.043732412 -0.1949377 -0.015546237 0.08096614
-0.11346549 -0.057529904 0.01786846 0.006859678 -0.039954975 0.23075654 -0.17315497 0.057293657
0.04325302 0.20972383 -0.036102675 0.042019203 -0.042133525 -0.059941493 0.0029659872 -0.057915796
0.07048209 0.049769137 0.078105256 0.07395771 0.003218391 -0.0016407762 -0.024746729 -0.05992671
-0.04430506 -0.07931487 0.010580508 -0.11898088 -0.1316735 0.049158644 0.06598638 -0.06767736
-0.08601267 0.00114558 0.01152094 0.058736358 -0.06515962 0.07692969 -0.13476382 0.02595587
0.08896009 -0.04916078 -0.014739359 -0.094551824 0.15008925 0.008233014 0.105672866 0.00844683
0.015220109 -0.028115759 0.043652162 -0.094521694 -0.038924687 -0.04315446 0.19523288 -0.22305302
0.059486397 0.046434656 0.12237903 -0.04272255 0.15268078 -0.026383061 -0.00015552012 -0.04770304
-0.11063095 -0.026341045 0.049003925 0.017886218 -0.07211171 -0.041042496 0.014155925 -0.1334698
-0.030480184 -0.114828035 0.086082295 0.06640297 -0.113300376 0.09777037 0.020203412 -0.03256463
-0.009976461 0.056714322 0.0807904 0.01562569 0.044006437 -0.037021983 0.11043971 0.021566153
-0.1012486 0.11808526 -0.06416715 0.05351228 0.0177741 0.0070228926 0.059257925 0.07151568
0.0129468925 -0.05996525 0.19676699 -0.0006191738 -0.047034714 0.017361844 0.015749304 0.09587413
-0.0008355889 0.042469442 0.063528515 -0.057982367 -0.07539943 -0.040969342 0.0085968785 -0.20272921
-0.14142355 -0.06469855 0.041773975 -0.02890456 -0.029736426 -0.04054671 0.0697065 0.088689096
-0.151649 0.021670971 -0.093519285 -0.068519235 0.12353049 -0.069600925 -0.06709929 -0.036111604
-0.018934468 0.029832298 0.016321138 -0.03716595 -0.1712117 0.110783085 0.090180196 0.11830293
-0.05708914 -0.114015065 -0.12064866 0.0015274597 0.021606771 0.06818051 -0.0619056 0.12572728
-0.11170216 -0.16465563 0.09455487 0.052703667 -0.09033631 0.036470253 0.0377327 -0.068583824
-0.14054699 0.06309462 -0.06722774 0.19357422 -0.045124322 0.022902848 -0.004187593 -0.012251669
-0.004979087 0.07779765 -0.011634984 -0.02378526 -0.10785093 -0.078993864 0.1100486 -0.057298046
0.06935869 0.011193342 -0.056708224 -0.06208486 0.036398917 -0.041155815 0.15010564 0.033306956
-0.047516994 0.07440687 -0.08515535 0.04705951 -0.08757364 0.08424553 -0.03172252 0.14436185
0.04139807 0.031887036 -0.0021158403 0.0038659049 -0.012312994 -0.088759355 -0.05877478 0.024014916
-0.041604497 -0.07131978 0.052748725 0.16115049 0.04948434 -0.0477823 0.11306129 -0.043407664
-0.08739641 0.013876818 0.03865283 -0.051119536 0.104072504 -0.049282726 -0.046892155 0.10886917
-0.12386152 0.10224607 -0.036785662 -0.04976683 0.08025388 0.018432429 -0.093465954 0.018305274
-0.16284302 0.035062704 -0.049008302 -0.0052045067 0.031386163 0.05713395 0.010238778 0.022738043
-0.17240533 0.024446344 -0.045983456 -0.020536635 -0.031875078 -0.05249955 0.072995916 -0.13245733
00000000: 58c9 0c3c ef3b e23c 3761 6e3d c1e6 e5bd
00000010: 4e94 5a3d 8990 e73d 3de8 be3d c896 2d3c
00000020: ebd8 ce3d f3b7 b2bc 86f7 983d 6313 da3c
00000030: fed4 1bbd 7b06 af3d 971b 3c3d b4ed ad3d
00000040: 1cd8 893d e643 3cbe b65b 113d 348c cf3c
00000050: c220 33bd c09d 47be a5b5 7ebc 93d1 a53d
00000060: 9860 e8bd 7aa4 6bbd e060 923c 26c7 e03b
00000070: d4a7 23bd 714b 6c3e 894f 31be c1ac 6a3d
00000080: 142a 313d d8c1 563e 66e0 13bd 541c 2c3d
00000090: 3494 2cbd 3685 75bd 0261 423b 1d39 6dbd
000000a0: ea58 903d b9da 4b3d a6f5 9f3d 2477 973d
000000b0: a4eb 523b 500f d7ba a7b9 cabc b675 75bd
000000c0: 3979 35bd d66f a2bd de59 2d3c 3fac f3bd
000000d0: 6bd5 06be 935a 493d de23 873d 6d9a 8abd
000000e0: 6927 b0bd 4927 963a 53c2 3c3c 8995 703d
000000f0: 6872 85bd 508d 9d3d 87ff 09be 68a1 d43c
00000100: b530 b63d d05c 49bd 5a7d 71bc 63a4 c1bd
00000110: ffb0 193e c3e3 063c 046b d83d 9364 0a3c
00000120: c45d 793c 0553 e6bc 9ccc 323d 9794 c1bd
00000130: 7e6f 1fbd bbc2 30bd 21eb 473e 0368 64be
00000140: 02a8 733d 4432 3e3d dba1 fa3d d7fd 2ebd
00000150: 5a58 1c3e 4a21 d8bc 1d13 23b9 4364 43bd
00000160: 7b92 e2bd 2dc9 d7bc 57b8 483d 1e86 923c
00000170: 4eaf 93bd 2d1c 28bd 41ee 673c 4fac 08be
00000180: 94b1 f9bc f62a ebbd ea4b b03d 48fe 873d
00000190: 070a e8bd d53b c83d a081 a53c 7d62 05bd
000001a0: 4f74 23bc 474d 683d 7075 a53d 7201 803c
000001b0: 1840 343d 5da4 17bd 372e e23d 80ab b03c
000001c0: 6d5b cfbd afd6 f13d 116a 83bd b12f 5b3d
000001d0: fd9a 913c 4b20 e63b 70b8 723d d076 923d
000001e0: 341f 543c 1f9e 75bd 497d 493e 0d50 22ba
000001f0: 79a7 40bd 6d3a 8e3c af04 813c a859 c43d
00000200: 6c0b 5bba 70f4 2d3d 3d1b 823d eb7e 6dbd
00000210: 046b 9abd 78cf 27bd ecd9 0c3c 3f98 4fbe
00000220: 56d1 10be ac80 84bd 301b 2b3d 41c9 ecbc
00000230: ce99 f3bc 4f14 26bd 48c2 8e3d a1a2 b53d
00000240: e049 1bbe 5287 b13c 0a87 bfbd d053 8cbd
00000250: 8efd fc3d ee8a 8ebd 5a6b 89bd c3e9 13bd
00000260: 751c 9bbc dd62 f43c e8b3 853c 533b 18bd
00000270: 1f52 2fbe 3ee2 e23d 65b0 b83d ce48 f23d
00000280: 4dd6 69bd bb80 e9bd a516 f7bd 0b35 c83a
00000290: af00 b13c 39a2 8b3d ba90 7dbd a7be 003e
000002a0: 1ac4 e4bd 7c9b 28be fca5 c13d cddf 573d
000002b0: 3e02 b9bd d561 153d 9b8d 1a3d ad75 8cbd
000002c0: 8deb 0fbe c137 813d b3ae 89bd 5238 463e
000002d0: 48d4 38bd c19e bb3c 1338 89bb 39bb 48bc
000002e0: 9c27 a3bb 6054 9f3d a9a0 3ebc 4ed9 c2bc
000002f0: f3e0 dcbd 89c7 a1bd 2961 e13d 5bb1 6abd
00000300: ee0b 8e3d 4764 373c e246 68bd b24c 7ebd
00000310: 0817 153d 0093 28bd 4bb5 193e e06c 083d
00000320: 2ea1 42bd a162 983d ee65 aebd 79c1 403d
00000330: cf59 b3bd ec88 ac3d 79ef 01bd 98d3 133e
00000340: 0691 293d fb9b 023d e9a9 0abb 1f5b 7d3b
00000350: 71bc 49bc 77c7 b5bd d3bd 70bd eeba c43c
00000360: 7a69 2abd 1b10 92bd 0c0f 583d a204 253e
00000370: 17b0 4a3d 5fb7 43bd ad8c e73d 3ccc 31bd
00000380: e4fc b2bd 985b 633c 6e52 1e3d b862 51bd
00000390: f723 d53d afdc 49bd fd11 40bd cdf6 de3d
000003a0: 1cab fdbd 6366 d13d 90ac 16bd 4ed8 4bbd
000003b0: 255c a43d 9bff 963c 146b bfbd f1f4 953c
000003c0: 52c0 26be e99d 0f3d eebc 48bd 918a aabb
000003d0: c78e 003d 4a05 6a3d 8cc0 273c 2245 ba3c
000003e0: 068b 30be b343 c83c 2659 3cbd 723c a8bc
000003f0: 718f 02bd c509 57bd e27e 953d e5a2 07be

network_body._body_endoder.seq_layers.2.bias f4 [128]
0.0 0.0 0.0 0.0 0.0 0.0 0.0 0.0
0.0 0.0 0.0 0.0 0.0 0.0 0.0 0.0
0.0 0.0 0.0 0.0 0.0 0.0 0.0 0.0
0.0 0.0 0.0 0.0 0.0 0.0 0.0 0.0
0.0 0.0 0.0 0.0 0.0 0.0 0.0 0.0
0.0 0.0 0.0 0.0 0.0 0.0 0.0 0.0
0.0 0.0 0.0 0.0 0.0 0.0 0.0 0.0
0.0 0.0 0.0 0.0 0.0 0.0 0.0 0.0
0.0 0.0 0.0 0.0 0.0 0.0 0.0 0.0
0.0 0.0 0.0 0.0 0.0 0.0 0.0 0.0
0.0 0.0 0.0 0.0 0.0 0.0 0.0 0.0
0.0 0.0 0.0 0.0 0.0 0.0 0.0 0.0
0.0 0.0 0.0 0.0 0.0 0.0 0.0 0.0
0.0 0.0 0.0 0.0 0.0 0.0 0.0 0.0
0.0 0.0 0.0 0.0 0.0 0.0 0.0 0.0
0.0 0.0 0.0 0.0 0.0 0.0 0.0 0.0
00000000: 0000 0000 0000 0000 0000 0000 0000 0000
00000010: 0000 0000 0000 0000 0000 0000 0000 0000
00000020: 0000 0000 0000 0000 0000 0000 0000 0000
00000030: 0000 0000 0000 0000 0000 0000 0000 0000
00000040: 0000 0000 0000 0000 0000 0000 0000 0000
00000050: 0000 0000 0000 0000 0000 0000 0000 0000
00000060: 0000 0000 0000 0000 0000 0000 0000 0000
00000070: 0000 0000 0000 0000 0000 0000 0000 0000
00000080: 0000 0000 0000 0000 0000 0000 0000 0000
00000090: 0000 0000 0000 0000 0000 0000 0000 0000
000000a0: 0000 0000 0000 0000 0000 0000 0000 0000
000000b0: 0000 0000 0000 0000 0000 0000 0000 0000
000000c0: 0000 0000 0000 0000 0000 0000 0000 0000
000000d0: 0000 0000 0000 0000 0000 0000 0000 0000
000000e0: 0000 0000 0000 0000 0000 0000 0000 0000
000000f0: 0000 0000 0000 0000 0000 0000 0000 0000
00000100: 0000 0000 0000 0000 0000 0000 0000 0000
00000110: 0000 0000 0000 0000 0000 0000 0000 0000
00000120: 0000 0000 0000 0000 0000 0000 0000 0000
00000130: 0000 0000 0000 0000 0000 0000 0000 0000
00000140: 0000 0000 0000 0000 0000 0000 0000 0000
00000150: 0000 0000 0000 0000 0000 0000 0000 0000
00000160: 0000 0000 0000 0000 0000 0000 0000 0000
00000170: 0000 0000 0000 0000 0000 0000 0000 0000
00000180: 0000 0000 0000 0000 0000 0000 0000 0000
00000190: 0000 0000 0000 0000 0000 0000 0000 0000
000001a0: 0000 0000 0000 0000 0000 0000 0000 0000
000001b0: 0000 0000 0000 0000 0000 0000 0000 0000
000001c0: 0000 0000 0000 0000 0000 0000 0000 0000
000001d0: 0000 0000 0000 0000 0000 0000 0000 0000
000001e0: 0000 0000 0000 0000 0000 0000 0000 0000
000001f0: 0000 0000 0000 0000 0000 0000 0000 0000

value_heads.value_heads.extrinsic.weight f4 [1, 128]
0.017442808 -0.17735597 0.18491505 -0.07008632 -0.15630524 -0.17109805 0.07513803 -0.123737186
0.101055175 -0.028998679 0.01735933 0.011328768 -0.0069885305 -0.18432027 -0.03933486 0.11401533
-0.0063263993 0.01889613 -0.07554326 -0.14668587 -0.12927587 0.03762703 0.19311827 -0.060591675
0.036696635 0.12985185 0.20654385 0.16768442 -0.1622574 0.17997204 -0.023340182 0.12347032
-0.060180996 0.07007692 -0.13460356 -0.18293889 -0.16143654 0.10696125 -0.058251947 -0.034262847
-0.20295097 -0.044114254 -0.059324488 -0.09578367 -0.056618463 -0.031983957 -0.059717968 0.17229441
-0.15996449 0.036818728 0.03243372 0.1540959 -0.15647201 0.017286856 0.18435374 0.009528112
0.048902657 0.12826557 0.12283633 0.1611871 -0.013961802 -0.190848 0.072500974 0.19295606
-0.034386624 0.11344391 -0.13108476 0.02558439 -0.208674 -0.01806653 -0.11620338 -0.13656317
0.13511176 -0.096033655 0.12614782 0.123821154 -0.16847377 -0.12426635 0.20195605 0.14873002
0.11061902 -0.17116067 0.10558177 0.14781195 0.17398329 -0.14756167 -0.06901111 0.19776951
0.10330184 -0.14502902 0.17793718 0.002644051 -0.18466446 -0.08045465 0.070345685 -0.03942348
-0.08070305 0.16782176 0.19222511 -0.1940906 0.18318519 -0.08250264 -0.089174315 0.2082182
-0.01834959 -0.011373515 0.16469812 -0.05999815 0.12743817 -0.013475151 0.11764006 0.024772849
0.020220162 -0.003058987 -0.07774762 -0.08592489 0.123438805 0.14487211 0.18349713 -0.06527965
0.084084086 -0.023169152 -0.15362795 -0.038797896 0.1125509 0.12066045 0.12265619 0.19855954
00000000: 38e4 8e3c ce9c 35be 5f5a 3d3e 6b89 8fbd
00000010: 7b0e 20be 5434 2fbe f8e1 993d ec69 fdbd
00000020: 04f6 ce3d a38e edbc 2735 8e3c 4c9c 393c
00000030: 0b00 e5bb 74be 3cbe 971d 21bd df80 e93d
00000040: af4d cfbb 0fcc 9a3c 6db6 9abd d234 16be
00000050: e560 04be cd1e 1a3d ccc0 453e fa2e 78bd
00000060: 364f 163d e2f7 043e 3b80 533e 77b5 2b3e
00000070: ce26 26be 974a 383e e933 bfbc 02de fc3d
00000080: 5980 76bd 7d84 8f3d 84d5 09be 5554 3bbe
00000090: 9f4f 25be 800e db3d 9899 6ebd 3357 0cbd
000000a0: 61d2 4fbe 26b1 34bd 3cfe 72bd 3b2a c4bd
000000b0: c3e8 67bd 9c01 03bd d49a 74bd f26d 303e
000000c0: bbcd 23be 3ccf 163d 38d9 043d 51cb 1d3e
000000d0: 333a 20be 2a9d 8d3c 3ac7 3c3e cc1b 1c3c
000000e0: 274e 483d 0d58 033e 9d91 fb3d 3b0e 253e
000000f0: 0bc0 64bc a86d 43be 647b 943d 4696 453e
00000100: fdd8 0cbd 4855 e83d 153b 06be 5b96 d13c
00000110: a3ae 55be 4200 94bc 0afc edbd 37d7 0bbe
00000120: bd5a 0a3e 4bad c4bd e52c 013e f295 fd3d
00000130: 6384 2cbe 5b7f febd 91cd 4e3e af4c 183e
00000140: 3a8c e23d be44 2fbe 413b d83d 045c 173e
00000150: ad28 323e 681a 17be b255 8dbd 1784 4a3e
00000160: ea8f d33d 7d82 14be 2a35 363e d147 2d3b
00000170: ae18 3dbe 68c5 a4bd 6611 903d 847a 21bd
00000180: a447 a5bd 78d9 2b3e a9d6 443e b0bf 46be
00000190: e694 3b3e 25f7 a8bd 06a1 b6bd 2737 553e
000001a0: e151 96bc fb57 3abc a0a6 283e 9fc0 75bd
000001b0: 277f 023e e1c6 5cbc 46ed f03d 6ef0 ca3c
000001c0: c1a4 a53c 4979 48bb 253a 9fbd 64f9 afbd
000001d0: 7ccd fc3d 5b59 143e ace6 3b3e 56b1 85bd
000001e0: 4734 ac3d 3ccd bdbc a550 1dbe 8bea 1ebd
000001f0: 1681 e63d d31c f73d 2b33 fb3d 3153 4b3e
