results/ppo/EatFood/EatFood-1754.pt (torch, 145423 bytes, 12 tensors)

network_body._body_endoder.seq_layers.0.weight f4 [128, 2]
-0.9923864 -0.85949516 0.8667351 -0.019279957 -0.37715396 -1.6120404 -0.15573592 -0.563464
0.14112088 -0.20881107 0.15982719 0.19865099 0.8875144 -1.2113972 0.29361373 0.4305174
0.4573964 -0.011781087 0.07530976 -0.53497666 0.8272889 -0.7702317 0.4976385 0.6582599
-1.8029503 -0.042839564 -1.122823 -0.015850006 -0.536855 -0.57946026 -0.115315676 -2.2771766
0.00030162808 0.56558645 0.047909614 0.93193156 -0.38197857 0.6919713 0.11131369 -0.41696307
-0.5993914 -0.2752241 0.20575777 -0.073368296 -0.13170604 -1.377717 -0.36578414 0.8131163
-0.5003057 0.13455665 -1.3407148 0.112606525 1.0510064 0.5249354 -0.42878067 -0.21395281
0.89148986 -0.14117531 0.42389753 -0.06632452 -0.8866099 0.026732357 1.02529 -1.3760408
-0.9496954 -1.4087634 0.8772045 -1.5818536 1.276077 0.5294035 0.25923654 0.8027988
0.47249296 1.1991401 -0.5916673 -0.15561692 -0.4925241 0.2795673 -0.3861855 1.6548865
0.72069633 0.1562609 -0.31236568 -0.1282262 -0.95509493 -1.8346381 0.15521644 0.7115214
-0.74554163 -0.6274861 -0.21078585 -0.14044917 -1.2414701 -0.1369151 0.43168968 -0.48446795
0.24360332 0.45768487 -1.0238098 -0.026176946 0.38367003 -0.10068873 -0.5810383 -0.55530643
-0.30335584 -1.1432419 0.39548638 -0.9803816 1.1106825 -0.25717494 0.67557853 -0.65118986
0.06449504 -0.1822097 0.29727027 0.43427673 -1.0046782 0.43565747 -0.8621941 0.7730709
-0.5170298 -0.1721757 0.22263578 -0.98855543 0.1001965 -1.117793 0.22802322 0.22420882
-0.14333111 -0.060014874 0.105932444 0.18869643 1.071673 -0.72214764 -0.76338047 0.8443201
-0.6834786 0.4829193 0.5201082 -1.4465021 -1.031817 0.14134943 0.37322268 0.7251366
0.41868022 -1.4791903 0.42993912 -0.2785288 -0.15985534 -0.958072 -0.1997904 0.21964957
-0.013637225 0.023546344 0.4675986 0.33989117 0.34344602 0.8207469 -1.0738518 -0.16618639
0.66308457 -1.2611116 -0.9470211 0.8744285 -0.3471852 0.54190075 -0.40405193 -0.3084034
-0.5448423 -0.056832585 0.39854056 2.276157 1.3104438 -0.13120277 -0.085418954 -0.95062906
-0.64384776 -0.0904406 0.2267884 -0.46649167 0.8258762 -0.5303214 0.43497735 1.0894257
-0.33508328 0.058946274 -1.3797684 0.045215987 -0.6502747 -0.48922452 0.56707543 -1.1522765
-0.4705135 0.7580757 0.5604632 -0.7032777 0.16332382 0.23328301 -0.55487657 -0.43117806
0.858455 0.9777534 -1.1707244 -0.16107532 -0.8076469 -0.34015685 0.6276249 -0.16628508
0.42711714 -1.4321129 -1.3466957 0.25845775 0.81244373 0.63758624 0.11841121 0.26189625
0.41495574 0.6543325 0.24083377 0.41528356 0.60516787 0.52205056 1.1229063 0.12681052
-1.2146802 -0.37212667 0.8840316 1.3018398 -0.20792174 0.05299031 0.8897869 0.44774777
0.134221 -0.12708911 0.7232783 -0.3842942 0.042186927 -0.34019193 0.75809693 0.6814279
0.97984743 1.0752969 -0.384518 1.4133439 0.109317586 0.0036152704 -0.7446114 0.39815298
-0.72511846 -0.4236901 -0.8627096 -0.08129188 -1.6009889 -0.34301028 -0.48527375 -1.9698998
00000000: 090d 7ebf e007 5cbf 5ae2 5d3f 00f1 9dbc
00000010: 531a c1be 5757 cebf 3d79 1fbe 2d3f 10bf
00000020: fe81 103e 92d2 55be bda9 233e 2a6b 4b3e
00000030: 2534 633f 100f 9bbf 8a54 963e c76c dc3e
00000040: dc2f ea3e 7605 41bc 013c 9a3d 3bf4 08bf
00000050: 35c9 533f e82d 45bf 79ca fe3e b983 283f
00000060: 13c7 e6bf 8a78 2fbd aab8 8fbf dfd7 81bc
00000070: 546f 09bf 8257 14bf a02a ecbd 43bd 11c0
00000080: d623 9e39 46ca 103f df3c 443d 1193 6e3f
00000090: b292 c3be 0825 313f 6ff8 e33d 2f7c d5be
000000a0: b771 19bf 2cea 8cbe 2ab2 523e 1e42 96bd
000000b0: f3dd 06be 0859 b0bf 0f48 bbbe 6428 503f
000000c0: 0914 00bf 38c9 093e 8b9c abbf 409e e63d
000000d0: 6187 863f 2b62 063f 2489 dbbe 7216 5bbe
000000e0: ae38 643f 4390 10be 1909 d93e 26d5 87bd
000000f0: def8 62bf d1fd da3c b43c 833f 1b22 b0bf
00000100: 3d1f 73bf 5c52 b4bf 7990 603f 2e7a cabf
00000110: 7e56 a33f fd86 073f a7ba 843e 3984 4d3f
00000120: 99ea f13e 6c7d 993f 8277 17bf 0b5a 1fbe
00000130: 1e2c fcbe 7223 8f3e 1bba c5be 52d3 d33f
00000140: 8e7f 383f db02 203e 65ee 9fbe bb4d 03be
00000150: 1a81 74bf 6cd5 eabf 0ff1 1e3e 4426 363f
00000160: d1db 3ebf eea2 20bf 3fd8 57be e8d1 0fbe
00000170: 7ee8 9ebf 7933 0cbe 6e06 dd3e 2f0c f8be
00000180: 2673 793e ac55 ea3e 330c 83bf 0971 d6bc
00000190: 6670 c43e e535 cebd edbe 14bf 9028 0ebf
000001a0: 7551 9bbe c055 92bf 317d ca3e 4afa 7abf
000001b0: d82a 8e3f 6fac 83be b7f2 2c3f 61b4 26bf
000001c0: fa15 843d 2e95 3abe cf33 983e 8559 de3e
000001d0: 4c99 80bf 7f0e df3e c1b8 5cbf f9e7 453f
000001e0: 115c 04bf d44e 30be a2fa 633e f811 7dbf
000001f0: d333 cd3d d713 8fbf eb7e 693e ff96 653e
00000200: 64c5 12be 28d2 75bd 1cf3 d83d a339 413e
00000210: 952c 893f abde 38bf e76c 43bf 5d25 583f
00000220: 74f8 2ebf 3341 f73e d025 053f fb26 b9bf
00000230: 9412 84bf e8bd 103e 0b17 bf3e 8da2 393f
00000240: 415d d63e 1c56 bdbf fb20 dc3e 549b 8ebe
00000250: 1eb1 23be 3544 75bf db95 4cbe d1eb 603e
00000260: ab6e 5fbc 43e4 c03c 1569 ef3e 3706 ae3e
00000270: 28d8 af3e 781c 523f fa73 89bf c42c 2abe
00000280: e9bf 293f 1b6c a1bf fa6f 72bf 8cda 5f3f
00000290: 42c2 b1be 02ba 0a3f e5df cebe 0de7 9dbe
000002a0: c97a 0bbf 49c9 68bd 820d cc3e 8eac 1140
000002b0: 9fbc a73f 055a 06be 22f0 aebd 6d5c 73bf
000002c0: 35d3 24bf ec38 b9bd 383b 683e ffd7 eebe
000002d0: 9f6c 533f 25c3 07bf 5ab5 de3e 4d72 8b3f
000002e0: 0990 abbe a671 713d 409c b0bf 6634 393d
000002f0: 6778 26bf a37b fabe db2b 113f cc7d 93bf
00000300: 25e7 f0be 4011 423f 847a 0f3f 020a 34bf
00000310: 5c3e 273e bee1 6e3e 640c 0ebf 5fc3 dcbe
00000320: b5c3 5b3f 0c4e 7a3f 4cda 95bf eef0 24be
00000330: f2c1 4ebf 0a29 aebe 07ac 203f a346 2abe
00000340: 19af da3e 7a4f b7bf 8660 acbf 9354 843e
00000350: 50fc 4f3f da38 233f 9481 f23d 4417 863e
00000360: 1475 d43e 5682 273f 219d 763e 0ca0 d43e
00000370: 48ec 1a3f 1ba5 053f 65bb 8f3f 9eda 013e
00000380: a47a 9bbf 6387 bebe e54f 623f b0a2 a63f
00000390: 70e9 54be 5e0c 593d 13c9 633f 323f e53e
000003a0: 3b71 093e a623 02be c428 393f 36c2 c4be
000003b0: 33cc 2c3d a32d aebe a412 423f 0f72 2e3f
000003c0: 48d7 7a3f 54a3 893f 8bdf c4be 74e8 b43f
000003d0: e6e1 df3d 2cee 6c3b da9e 3ebf b5da cb3e
000003e0: 5da1 39bf e9ed d8be 89da 5cbf 5b7c a6bd
000003f0: 34ed ccbf 0b9f afbe cd75 f8be ad25 fcbf

network_body._body_endoder.seq_layers.0.bias f4 [128]
0.0 0.0 0.0 0.0 0.0 0.0 0.0 0.0
0.0 0.0 0.0 0.0 0.0 0.0 0.0 0.0
0.0 0.0 0.0 0.0 0.0 0.0 0.0 0.0
0.0 0.0 0.0 0.0 0.0 0.0 0.0 0.0
0.0 0.0 0.0 0.0 0.0 0.0 0.0 0.0
0.0 0.0 0.0 0.0 0.0 0.0 0.0 0.0
0.0 0.0 0.0 0.0 0.0 0.0 0.0 0.0
0.0 0.0 0.0 0.0 0.0 0.0 0.0 0.0
0.0 0.0 0.0 0.0 0.0 0.0 0.0 0.0
0.0 0.0 0.0 0.0 0.0 0.0 0.0 0.0
0.0 0.0 0.0 0.0 0.0 0.0 0.0 0.0
0.0 0.0 0.0 0.0 0.0 0.0 0.0 0.0
0.0 0.0 0.0 0.0 0.0 0.0 0.0 0.0
0.0 0.0 0.0 0.0 0.0 0.0 0.0 0.0
0.0 0.0 0.0 0.0 0.0 0.0 0.0 0.0
0.0 0.0 0.0 0.0 0.0 0.0 0.0 0.0
00000000: 0000 0000 0000 0000 0000 0000 0000 0000
00000010: 0000 0000 0000 0000 0000 0000 0000 0000
00000020: 0000 0000 0000 0000 0000 0000 0000 0000
00000030: 0000 0000 0000 0000 0000 0000 0000 0000
00000040: 0000 0000 0000 0000 0000 0000 0000 0000
00000050: 0000 0000 0000 0000 0000 0000 0000 0000
00000060: 0000 0000 0000 0000 0000 0000 0000 0000
00000070: 0000 0000 0000 0000 0000 0000 0000 0000
00000080: 0000 0000 0000 0000 0000 0000 0000 0000
00000090: 0000 0000 0000 0000 0000 0000 0000 0000
000000a0: 0000 0000 0000 0000 0000 0000 0000 0000
000000b0: 0000 0000 0000 0000 0000 0000 0000 0000
000000c0: 0000 0000 0000 0000 0000 0000 0000 0000
000000d0: 0000 0000 0000 0000 0000 0000 0000 0000
000000e0: 0000 0000 0000 0000 0000 0000 0000 0000
000000f0: 0000 0000 0000 0000 0000 0000 0000 0000
00000100: 0000 0000 0000 0000 0000 0000 0000 0000
00000110: 0000 0000 0000 0000 0000 0000 0000 0000
00000120: 0000 0000 0000 0000 0000 0000 0000 0000
00000130: 0000 0000 0000 0000 0000 0000 0000 0000
00000140: 0000 0000 0000 0000 0000 0000 0000 0000
00000150: 0000 0000 0000 0000 0000 0000 0000 0000
00000160: 0000 0000 0000 0000 0000 0000 0000 0000
00000170: 0000 0000 0000 0000 0000 0000 0000 0000
00000180: 0000 0000 0000 0000 0000 0000 0000 0000
00000190: 0000 0000 0000 0000 0000 0000 0000 0000
000001a0: 0000 0000 0000 0000 0000 0000 0000 0000
000001b0: 0000 0000 0000 0000 0000 0000 0000 0000
000001c0: 0000 0000 0000 0000 0000 0000 0000 0000
000001d0: 0000 0000 0000 0000 0000 0000 0000 0000
000001e0: 0000 0000 0000 0000 0000 0000 0000 0000
000001f0: 0000 0000 0000 0000 0000 0000 0000 0000

network_body._body_endoder.seq_layers.2.weight f4 [128, 128]
0.11551075 -0.084953755 -0.040370382 0.048320696 0.06632613 -0.11814687 -0.16595085 0.24849674
-0.14339018 -0.1602651 -0.0415411 0.09251989 -0.018860128 -0.06265223 -0.03961813 -0.0516085
0.04154439 -0.028944792 -0.075696066 0.17355657 -0.02739659 -0.021028671 0.024779541 0.030090703
-0.06864045 -0.062020466 -0.0014942159 0.060317013 -0.08188998 0.043772034 -0.108816735 -0.076245815
-0.09505366 -0.08585322 0.21665007 0.08388388 -0.01853417 -0.016585391 -0.09242668 -0.12457354
0.049861275 0.009856938 -0.1486824 0.21280691 0.01591596 0.07849617 0.12277526 0.042874757
0.019192 -0.037979297 0.22862133 -0.062996164 0.051154625 0.018572887 0.023035275 -0.0334347
0.13525866 0.0025497656 0.13510646 -0.056573436 -0.013626768 -0.13749404 0.0042550154 0.07373122
-0.089016356 -0.19254667 -0.008761913 -0.07735213 0.13114205 0.0643818 0.0139255645 0.06804042
0.022221178 -0.09209156 -0.18666942 0.05200768 -0.02510766 -0.0539373 -0.029612998 0.025220783
0.029910807 0.14516959 0.21710992 0.076427504 -0.048551403 -0.1300343 0.1495946 -0.0065358616
0.13980596 0.019842694 0.08848354 -0.12792741 0.03609706 -0.0763331 -0.00709625 -0.06396165
-0.024510767 -0.03452669 -0.08929442 0.02651151 -0.022318497 -0.082734555 -0.023215583 -0.025287645
0.087110944 0.12408934 0.10829468 -0.068677 0.010069105 -0.051050566 0.011431267 -0.16645052
0.036628433 -0.0396072 -0.005679916 0.039403003 -0.052720375 -0.12874302 -0.007795014 -0.038409874
-0.13133839 0.0071414826 -0.08532609 0.06553028 -0.040302403 -0.038676582 -0.036772065 -0.051280003
-0.016956616 0.005092661 -0.015301898 -0.13968258 -0.055232115 -0.040984333 0.0283096 0.029067166
-0.045246117 -0.2243013 0.044288468 -0.014990892 -0.015459401 -0.09699069 0.10529769 -0.20992477
-0.020493567 0.05867331 -0.061457258 0.057564016 -0.027946487 -0.104090974 0.11728195 0.03350594
0.017770743 0.061322927 0.16160925 0.14628446 0.004664748 0.027714347 0.0374114 -0.10428678
0.009272902 0.026295086 0.06834337 -0.0555319 0.03904132 -0.08041173 0.055988073 0.05242985
0.025637792 0.040470447 -0.0026730855 0.09729268 0.21473663 0.0069216597 -0.115106635 0.0941614
0.057279162 -0.07529773 0.0040108003 0.15397158 0.07703648 0.15797055 0.03473819 -0.04413803
0.056371376 -0.090106055 -0.07913967 0.092303894 -0.09139042 0.04380981 0.08878411 0.1406872
-0.08000595 0.044062614 -0.026872003 0.06474446 -0.009111469 0.11415304 0.025968859 -0.07832172
0.034911223 -0.0868837 -0.13178745 -0.07552008 0.039171617 0.09413107 0.060823284 -0.10520042
0.11896296 -0.013247422 0.19693963 0.055017814 -0.0062397155 -0.039169237 0.06810916 -0.0054408666
0.19682789 0.10094817 0.015896253 -0.07006526 -0.01102983 -0.088770024 0.016356606 0.026529433
0.033070117 0.10630825 -0.07833571 -0.06119126 0.12265735 -0.041529752 -0.006606527 0.1096264
0.077361755 -0.09204978 -0.014611448 -0.13002709 0.004221627 -0.0458545 -0.007651617 -0.08408736
-0.2623416 0.068569206 -0.011313998 -0.018731633 -0.031610012 0.054319263 -0.0423325 0.03507815
-0.16173318 0.10504637 -0.058024492 -0.07472026 0.12620217 0.024312917 -0.09846951 -0.14562358
00000000: e690 ec3d 3cfc adbd 6a5b 25bd eceb 453d
00000010: fed5 873d fcf6 f1bd 05ef 29be ee75 7e3e
00000020: e0d4 12be 891c 24be 0027 2abd 117b bd3d
00000030: 8e80 9abc d04f 80bd 9f46 22bd 6f63 53bd
00000040: 732a 2a3d a11d edbc 8a06 9bbd d0b8 313e
00000050: d06e e0bc 5244 acbc 77fe ca3c c780 f63c
00000060: 5d93 8cbd 2c09 7ebd 91d9 c3ba f90e 773d
00000070: efb5 a7bd 4e4a 333d 4fdb debd c426 9cbd
00000080: 7eab c2bd d0d3 afbd 84d9 5d3e 50cb ab3d
00000090: f9d4 97bc 16de 87bc 334a bdbd 6a20 ffbd
000000a0: 563b 4c3d ff7e 213c 3340 18be 0eea 593e
000000b0: 3062 823c 9ac2 a03d 9871 fb3d 719d 2f3d
000000c0: 8b38 9d3c 2e90 1bbd b61b 6a3e 2204 81bd
000000d0: 8387 513d 2b26 983c 79b4 bc3c d3f2 08bd
000000e0: 3f81 0a3e f819 273b 5959 0a3e 8cb9 67bd
000000f0: cf42 5fbc 3dcb 0cbe a86d 8b3b 6500 973d
00000100: 354e b6bd f42a 45be 208e 0fbc cb6a 9ebd
00000110: 1a4a 063e 9bda 833d 0d28 643c c758 8b3d
00000120: 3009 b63c 809a bcbd 4526 3fbe 0106 553d
00000130: 94ae cdbc 5ced 5cbd f596 f2bc d19b ce3c
00000140: 8207 f53c 56a7 143e 1052 5e3e 0686 9c3d
00000150: d6dd 46bd b627 05be 542f 193e c82a d6bb
00000160: 4b29 0f3e 258d a23c dc36 b53d 67ff 02be
00000170: 83da 133d 8754 9cbd a987 e8bb 53fe 82bd
00000180: ceca c8bc dc6b 0dbd fedf b6bd ab2e d93c
00000190: 48d5 b6bc bc70 a9bd 9b2e bebc 0928 cfbc
000001a0: 3967 b23d 8d22 fe3d 9ac9 dd3d 87a6 8cbd
000001b0: e3f8 243c 661a 51bd 354a 3b3c 0172 2abe
000001c0: b207 163d 293b 22bd 971e babb 0b65 213d
000001d0: 52f1 57bd 36d5 03be 516d ffbb ac53 1dbd
000001e0: 927d 06be 1903 ea3b 72bf aebd bd34 863d
000001f0: 2214 25bd 566b 1ebd 4e9e 16bd fb0a 52bd
00000200: 9ae8 8abc 56e0 a63b d0b4 7abc f308 0fbe
00000210: 123b 62bd 30df 27bd 89e9 e73c 441e ee3c
00000220: fe53 39bd 3daf 65be d367 353d 5c9c 75bc
00000230: 6d49 7dbc 0ea3 c6bd 51a6 d73d 85f6 56be
00000240: 20e2 a7bc 6d53 703d 9bba 7bbd 3fc8 6b3d
00000250: 08f0 e4bc a62d d5bd 8531 f03d 863d 093d
00000260: f393 913c c02d 7b3d e57c 253e 98cb 153e
00000270: beda 983b 3309 e33c b23c 193d 4f94 d5bd
00000280: 5fed 173c cb68 d73c 9cf7 8b3d 6b75 63bd
00000290: cbe9 1f3d e8ae a4bd c053 653d afc0 563d
000002a0: 5906 d23c 57c4 253d ef2e 2fbb 6241 c73d
000002b0: ebe3 5b3e 17cf e23b 07bd ebbd b1d7 c03d
000002c0: 8e9d 6a3d b235 9abd 086d 833b baaa 1d3e
000002d0: 4dc5 9d3d 08c3 213e a249 0e3d 14ca 34bd
000002e0: ace5 663d 8689 b8bd fb13 a2bd d309 bd3d
000002f0: e72a bbbd ea71 333d 72d4 b53d 4e10 103e
00000300: 29da a3bd 007b 343d ad22 dcbc be98 843d
00000310: 4548 15bc 12c9 e93d a5bc d43c 2367 a0bd
00000320: 12ff 0e3d 15f0 b1bd 4af3 06be 46aa 9abd
00000330: 6b72 203d cac7 c03d d621 793d 5173 d7bd
00000340: daa2 f33d b70b 59bc 8baa 493e 5c5a 613d
00000350: 8776 ccbb ec6f 20bd d17c 8b3d 4c49 b2bb
00000360: 408d 493e eabd ce3d dc38 823c 607e 8fbd
00000370: 76b6 34bc 0fcd b5bd 4afe 853c 4154 d93c
00000380: 8874 073d 24b8 d93d 796e a0bd b0a3 7abd
00000390: c733 fb3d 1a1b 2abd 917b d8bb ce83 e03d
000003a0: d76f 9e3d 9884 bcbd db64 6fbc d225 05be
000003b0: 9355 8a3b eed1 3bbd 6aba fabb fe35 acbd
000003c0: a351 86be 036e 8c3d 595e 39bc 1573 99bc
000003d0: 8079 01bd e07d 5e3d d864 2dbd 1bae 0f3d
000003e0: 629d 25be 8d22 d73d 17ab 6dbd f006 99bd
000003f0: 243b 013e e22b c73c 62aa c9bd 591e 15be

network_body._body_endoder.seq_layers.2.bias f4 [128]
0.0 0.0 0.0 0.0 0.0 0.0 0.0 0.0
0.0 0.0 0.0 0.0 0.0 0.0 0.0 0.0
0.0 0.0 0.0 0.0 0.0 0.0 0.0 0.0
0.0 0.0 0.0 0.0 0.0 0.0 0.0 0.0
0.0 0.0 0.0 0.0 0.0 0.0 0.0 0.0
0.0 0.0 0.0 0.0 0.0 0.0 0.0 0.0
0.0 0.0 0.0 0.0 0.0 0.0 0.0 0.0
0.0 0.0 0.0 0.0 0.0 0.0 0.0 0.0
0.0 0.0 0.0 0.0 0.0 0.0 0.0 0.0
0.0 0.0 0.0 0.0 0.0 0.0 0.0 0.0
0.0 0.0 0.0 0.0 0.0 0.0 0.0 0.0
0.0 0.0 0.0 0.0 0.0 0.0 0.0 0.0
0.0 0.0 0.0 0.0 0.0 0.0 0.0 0.0
0.0 0.0 0.0 0.0 0.0 0.0 0.0 0.0
0.0 0.0 0.0 0.0 0.0 0.0 0.0 0.0
0.0 0.0 0.0 0.0 0.0 0.0 0.0 0.0
00000000: 0000 0000 0000 0000 0000 0000 0000 0000
00000010: 0000 0000 0000 0000 0000 0000 0000 0000
00000020: 0000 0000 0000 0000 0000 0000 0000 0000
00000030: 0000 0000 0000 0000 0000 0000 0000 0000
00000040: 0000 0000 0000 0000 0000 0000 0000 0000
00000050: 0000 0000 0000 0000 0000 0000 0000 0000
00000060: 0000 0000 0000 0000 0000 0000 0000 0000
00000070: 0000 0000 0000 0000 0000 0000 0000 0000
00000080: 0000 0000 0000 0000 0000 0000 0000 0000
00000090: 0000 0000 0000 0000 0000 0000 0000 0000
000000a0: 0000 0000 0000 0000 0000 0000 0000 0000
000000b0: 0000 0000 0000 0000 0000 0000 0000 0000
000000c0: 0000 0000 0000 0000 0000 0000 0000 0000
000000d0: 0000 0000 0000 0000 0000 0000 0000 0000
000000e0: 0000 0000 0000 0000 0000 0000 0000 0000
000000f0: 0000 0000 0000 0000 0000 0000 0000 0000
00000100: 0000 0000 0000 0000 0000 0000 0000 0000
00000110: 0000 0000 0000 0000 0000 0000 0000 0000
00000120: 0000 0000 0000 0000 0000 0000 0000 0000
00000130: 0000 0000 0000 0000 0000 0000 0000 0000
00000140: 0000 0000 0000 0000 0000 0000 0000 0000
00000150: 0000 0000 0000 0000 0000 0000 0000 0000
00000160: 0000 0000 0000 0000 0000 0000 0000 0000
00000170: 0000 0000 0000 0000 0000 0000 0000 0000
00000180: 0000 0000 0000 0000 0000 0000 0000 0000
00000190: 0000 0000 0000 0000 0000 0000 0000 0000
000001a0: 0000 0000 0000 0000 0000 0000 0000 0000
000001b0: 0000 0000 0000 0000 0000 0000 0000 0000
000001c0: 0000 0000 0000 0000 0000 0000 0000 0000
000001d0: 0000 0000 0000 0000 0000 0000 0000 0000
000001e0: 0000 0000 0000 0000 0000 0000 0000 0000
000001f0: 0000 0000 0000 0000 0000 0000 0000 0000

action_model._continuous_distribution.log_sigma f4 [1, 2]
0.0 0.0
00000000: 0000 0000 0000 0000

action_model._continuous_distribution.mu.weight f4 [2, 128]
0.0069612204 0.011705727 0.033392258 0.016556168 -0.024545543 -0.0022225848 0.0042912597 -0.015253814
-0.01642724 0.018231614 -0.010607406 -0.02016699 0.010234567 0.0062803947 -0.013675136 0.013220462
-0.004680119 0.003080992 0.02756542 -0.0017304393 0.0017827417 0.00048062668 -0.01866508 0.0010637537
-0.027160738 -0.0138118835 0.013501415 0.002764615 -0.0142236715 -0.004596826 -0.012216004 0.010719172
0.0065994705 -0.004821749 0.029017974 0.0035916183 0.013125822 -0.014797774 -0.030655041 0.017227037
0.02236203 -0.010568786 -0.0013691498 0.04322968 0.0066561843 0.018568287 -0.011916089 -0.0022381484
0.0039037776 -0.014117466 -0.04715652 -0.018431341 -0.002220692 0.0021118924 0.01205149 0.006614774
0.01444443 0.028219266 0.0293337 -0.013506693 -0.01797502 -0.012554116 0.0038162672 -0.00013935044
0.00870144 0.026199235 0.00015016315 -0.0141916545 0.010450649 -0.0014904978 -0.008670124 -0.024002817
0.035800472 0.015132635 -0.015311926 -0.0059125777 0.017773302 0.0049246023 -0.01339933 0.0031624087
0.00934454 0.0010828594 0.013004425 0.044248704 0.009752851 -0.01989659 -0.008555359 0.0083712535
0.003064989 0.006460331 0.044189956 -0.008290384 -0.0015831117 0.0072450167 0.019154118 -0.01729633
-0.002148221 0.005186859 -0.0050157704 0.011688701 -0.009338075 0.012976381 -0.029205818 0.0012815644
0.0040993965 0.0121869985 0.022384785 -0.031074453 -0.011718464 -0.01769091 0.000993583 0.016509688
0.015268435 0.008368558 -0.027088732 0.0056577767 0.0046314998 0.002626966 -0.039195493 0.014255531
-0.011865529 -0.0103456555 -0.004089411 0.03127871 -0.025602726 -0.01236992 -0.03228866 0.02253134
-0.0028666449 0.0015500467 -0.013958203 0.020155238 0.010844684 0.023308558 0.025585948 -0.03358428
-0.004003835 -0.019296145 0.014490661 -0.014598754 0.010298847 -0.024394771 -0.005645463 -0.050538003
0.010495851 0.0021710398 -0.0027911346 -0.031359527 -0.0095259985 0.0068217525 -0.0054032905 -0.0016838862
-0.0026358408 0.041833352 0.0114781335 0.01842428 0.005541448 -0.009859799 -0.011888691 0.011113061
0.016861549 0.022333018 0.0125440005 -0.011281771 0.014552811 0.022526383 -0.019055858 0.021864865
0.002820299 -0.006096805 0.0057071866 -0.011946322 0.007664375 0.051262803 -0.0067864642 -0.0146334935
-0.020356616 0.0101708 -0.027627075 0.003559629 0.012898551 0.024756363 0.023189334 -0.035850443
-0.011219626 0.01221117 0.01964551 -0.015918663 0.003522163 -0.036898747 -0.011993245 0.02472778
0.025720838 -0.04043877 0.023897814 -0.02004437 0.0028911256 -0.0016646279 0.012787334 -0.004126558
0.004677636 -0.012980531 0.0053070653 0.010938208 0.021351596 -0.0011011293 0.0078718355 0.011005299
-0.029212356 0.0065544085 -0.00057305687 -0.0008200506 0.018088644 0.009763515 0.013942286 -0.0027919763
0.0125157535 -0.021106673 0.034907695 -0.016321337 -0.02902077 -0.022085631 -0.030984128 -0.004754288
-0.025329271 0.013828131 -0.027123181 0.0067355908 0.017180117 0.0070505287 0.00016741417 0.027157584
0.01695857 -0.029064817 -0.011266819 0.007603896 0.017020633 0.0028972654 0.0034719196 0.0016076403
0.011996161 -0.020966193 0.017170556 0.008368197 -0.010451994 -0.0019066383 0.021975623 0.018838223
0.015827745 0.025886921 -0.0097549595 0.0072719567 0.004609316 0.013123079 -0.011118104 -0.005667513
00000000: f31a e43b 61c9 3f3c 52c6 083d cda0 873c
00000010: bc13 c9bc c9a8 11bb b29d 8c3b 22eb 79bc
00000020: 6b92 86bc 775a 953c afca 2dbc 3e35 a5bc
00000030: e3ae 273c c5cb cd3b ad0d 60bc a39a 583c
00000040: af5b 99bb 78ea 493b e0d0 e13c e8cf e2ba
00000050: e3aa e93a 9ffc fb39 83e7 98bc a76d 8b3a
00000060: 3280 debc 3d4b 62bc 0a35 5d3c 8b2e 353b
00000070: 670a 69bc f9a0 96bb a225 48bc 779f 2f3c
00000080: 5f40 d83b c3ff 9dbb 1ab7 ed3c 5b61 6b3b
00000090: b00d 573c 5d72 72bc 4820 fbbc b71f 8d3c
000000a0: 9330 b73c b428 2dbc 0b75 b3ba 9b11 313d
000000b0: 1f1c da3b 851c 983c b33b 43bc e6ad 12bb
000000c0: 85d6 7f3b f24c 67bc 3227 41bd 53fd 96bc
000000d0: 0889 11bb ad67 0a3b 9d73 453c bfc0 d83b
000000e0: 55a8 6c3c 172c e73c 3a4d f03c 2d4b 5dbc
000000f0: 5940 93bc c7af 4dbc 571a 7a3b 991e 12b9
00000100: 7c90 0e3c c79f d63c 1d75 1d39 1d84 68bc
00000110: 3339 2b3c cf5c c3ba 230d 0ebc 8ea1 c4bc
00000120: 84a3 123d dfee 773c dfde 7abc 4cbe c1bb
00000130: 5199 913c 8f5e a13b dd88 5bbc 6a40 4f3b
00000140: d719 193c bbee 8d3a 8310 553c 213e 353d
00000150: 6cca 1f3c 2cfe a2bc c72b 0cbc 9527 093c
00000160: fcdd 483b 2fb1 d33b 8700 353d 64d4 07bc
00000170: 6a80 cfba 9b67 ed3b 19e9 9c3c 08b1 8dbc
00000180: 2bc9 0cbb 87f6 a93b 555b a4bb f781 3f3c
00000190: bafe 18bc e39a 543c 0a41 efbc 2afa a73a
000001a0: 3b54 863b faab 473c 4c60 b73c da8f febc
000001b0: cdfe 3fbc 87ec 90bc 1d3b 823a 533f 873c
000001c0: 7528 7a3c 471c 093c 30e9 ddbc df64 b93b
000001d0: d6c3 973b 2d29 2c3b 748b 20bd 0890 693c
000001e0: a367 42bc d380 29bc 7700 86bb 1b1e 003d
000001f0: cfbc d1bc 34ab 4abc 1d41 04bd a593 b83c
00000200: 52de 3bbb f02a cb3a f2b0 64bc 991c a53c
00000210: e7ad 313c 97f1 be3c 9f99 d13c ac8f 09bd
00000220: 9a32 83bb f312 9ebc 3d6a 6d3c 9d2f 6fbc
00000230: 7fbc 283c 8bd7 c7bc 93fd b8bb f000 4fbd
00000240: caf6 2b3c 0148 0e3b 78eb 36bb d972 00bd
00000250: ef12 1cbc 0289 df3b 160e b1bb d8b5 dcba
00000260: 12be 2cbb 7359 2b3d c80e 3c3c 84ee 963c
00000270: 0995 b53b ff8a 21bc c9c8 42bc 8e13 363c
00000280: 3b21 8a3c bcf3 b63c 5a85 4d3c 2dd7 38bc
00000290: ea6e 6e3c 4089 b83c 081b 9cbc f21d b33c
000002a0: c4d4 383b b5c7 c7bb 5a03 bb3b 82ba 43bc
000002b0: 7025 fb3b f2f8 513d fd60 debb 52c1 6fbc
000002c0: ebc2 a6bc 6da3 263c 2d52 e2bc aa48 693b
000002d0: 7254 533c dbcd ca3c 8ff7 bd3c ead7 12bd
000002e0: 86d2 37bc 5c11 483c 9fef a03c db67 82bc
000002f0: 17d4 663b 2423 17bd 517f 44bc ea91 ca3c
00000300: 82b4 d23c 20a3 25bd 59c5 c33c 1734 a4bc
00000310: 0a79 3d3b a52f daba f781 513c 1438 87bb
00000320: db46 993b 4bac 54bc e4e6 ad3b 2b36 333c
00000330: 8be9 ae3c c553 90ba dff8 003c 924f 343c
00000340: c04e efbc 5dc6 d63b 3239 16ba aaf8 56ba
00000350: a32e 943c 26f7 1f3c 306e 643c 97f9 36bb
00000360: e00e 4d3c e7e7 acbc 5ffb 0e3d 53b4 85bc
00000370: f7bc edbc edec b4bc 6dd2 fdbc dcc9 9bbb
00000380: 557f cfbc 638f 623c 6f31 debc 3bb6 dc3b
00000390: 51bd 8c3c 1f08 e73b e68b 2f39 9579 de3c
000003a0: b3ec 8a3c 5719 eebc 7798 38bc 1a2a f93b
000003b0: db6e 8b3c 0ce0 3d3b 2589 633b 75b7 d23a
000003c0: 8c8b 443c 4bc1 abbc 44a9 8c3c c31a 093c
000003d0: d73e 2bbc 2ae8 f9ba 3906 b43c 9e52 9a3c
000003e0: 30a9 813c cf10 d43c 44d3 1fbc 9849 ee3b
000003f0: bf09 973b 2f02 573c b528 36bc 8bb6 b9bb

action_model._continuous_distribution.mu.bias f4 [2]
0.0 0.0
00000000: 0000 0000 0000 0000

network_body._body_endoder.seq_layers.0.weight f4 [128, 2]
-0.40865517 -0.37073782 0.7607042 -1.5781302 -1.257289 -0.09567012 0.35442984 -1.0078723
0.26092657 -0.9561607 -0.9177409 1.3928574 -0.0059018503 -0.87148917 -0.13257566 0.40056702
-0.6312282 -1.0305344 0.20317267 -1.0812398 -0.37173203 -0.63509965 -0.85901177 0.31041571
0.021873252 -0.5364357 -1.7199905 -0.91701984 0.7940443 -0.28848568 -0.4174121 -0.33547154
-0.3529671 -0.9460573 0.8217194 -0.36722267 -0.782941 -0.8701065 0.8346313 -0.6093733
0.67715365 -0.16866547 0.5247574 -0.4879532 -0.35618305 0.47753942 0.27993634 0.3210611
0.45179152 0.46711794 0.2602691 0.5232356 0.052252818 -0.72294277 -1.2012807 -0.7266345
0.48007986 -0.31383955 0.52589744 0.090353884 0.5615029 0.3325234 1.1087071 -0.07733263
-0.0964088 -0.9394638 -0.7454384 -0.22428794 0.2726688 0.07558169 0.5090995 -0.8678436
0.42981887 -0.75901586 -0.5099365 -0.07095691 -0.07111059 0.17454766 -0.19432093 0.06963895
0.29883593 0.56000847 0.11117205 0.021006 -0.52307135 1.0600859 0.26534402 0.21620475
-1.1724313 -0.9536476 -0.68550247 0.61356026 -0.4438584 0.04349108 0.4213207 0.027679157
0.7739017 -0.4846845 -0.11176662 -0.990033 -0.6603955 1.1694714 0.4765087 -0.10968146
0.19627039 0.64033556 -0.6472926 -0.39072716 0.05922624 -0.7231196 0.65957236 -0.7614001
0.6252362 -1.611618 -0.7945314 0.79363436 -1.3908794 -1.235648 0.62024635 0.45943755
-0.20206742 0.68783605 0.51767975 -0.5482888 0.08269691 0.5944611 -0.67662376 0.3957179
0.48941663 -0.3374659 -1.5920084 1.4657654 0.34498724 -0.41561723 0.12917072 0.5239509
-0.89967245 0.12473055 -0.34255958 -0.18268067 0.61611176 -1.180452 -0.15897673 -0.9805462
1.4027991 0.7155406 -0.8447522 0.48778975 -0.0019496339 -0.42836934 -0.21371041 -0.49049392
-0.016199451 -0.41110402 0.5129076 -0.63471603 0.003910414 -0.67054945 0.02076594 0.82358736
1.4954792 0.6220324 -0.7020513 0.12666872 -2.0565004 0.21304509 0.033271566 0.45688874
0.15726094 -0.13511176 -0.7533995 -0.10270975 -0.8471782 0.4898955 0.24945156 0.6534045
0.42793182 1.3399609 1.2424394 -0.062354606 -0.4406241 -0.10420097 1.0052803 -0.022026591
1.1341867 0.352161 0.5397869 0.4399158 0.820543 0.11773269 0.011298594 0.2313965
-0.069956414 0.32847893 -0.69843143 0.68951565 -0.10345919 -0.19635464 -0.58210164 0.5785438
-1.3054035 -0.06507712 0.56272876 -0.4560951 1.0161752 -0.65656215 0.9004407 -0.65843314
0.826401 -0.45242885 0.19484663 -1.3233668 0.8787251 -0.32150072 0.59683853 -0.4029811
-0.41907954 1.3237972 -0.1997737 -0.47695118 -0.2072233 -0.8545589 1.4020131 -0.4982489
0.18633446 -0.10133071 0.25305843 0.75056136 0.28964904 -0.18481256 0.26077014 -0.52596587
-0.03246708 0.1159368 -1.0453509 -0.4717398 0.7484631 -0.74138343 -0.25626495 -0.99223214
0.38502318 -1.2166631 0.48550734 -0.6185859 0.21344125 0.3940589 0.34282544 -1.48261
-0.8061499 -0.44418812 -0.22480334 0.079235464 -0.816727 -0.082094274 -0.24438268 1.0839595
00000000: 403b d1be 59d1 bdbe 83bd 423f 2c00 cabf
00000010: d9ee a0bf b2ee c3bd d477 b53e f601 81bf
00000020: 2b98 853e f3c6 74bf 11f1 6abf 2749 b23f
00000030: 4f64 c1bb ea19 5fbf eac1 07be 1f17 cd3e
00000040: 2c98 21bf 8de8 83bf 7f0c 503e 1166 8abf
00000050: a953 bebe e495 22bf 32e8 5bbf cfee 9e3e
00000060: 892f b33c da53 09bf a628 dcbf d0c1 6abf
00000070: 7d46 4b3f 65b4 93be 0ab7 d5be edc2 abbe
00000080: 1bb8 b4be d030 72bf 345c 523f 9c04 bcbe
00000090: d26e 48bf 4dbf 5ebf 66aa 553f e3ff 1bbf
000000a0: f159 2d3f a4b6 2cbe 8056 063f 00d5 f9be
000000b0: a05d b6be 0c80 f43e d153 8f3e 1f62 a43e
000000c0: 3851 e73e 152a ef3e fe41 853e c5f2 053f
000000d0: 0d07 563d c712 39bf 91c3 99bf b804 3abf
000000e0: 07cd f53e 94af a0be 37a1 063f 750b b93d
000000f0: a7be 0f3f 8240 aa3e 1dea 8d3f 9260 9ebd
00000100: fa71 c5bd b380 70bf 0dd5 3ebf bdab 65be
00000110: 3f9b 8b3e 93ca 9a3d 5854 023f 002b 5ebf
00000120: 3811 dc3e dd4e 42bf 338b 02bf db51 91bd
00000130: 6ea2 91bd 9fbc 323e 11fc 46be de9e 8e3d
00000140: 0601 993e b75c 0f3f 2cae e33d c614 ac3c
00000150: 01e8 05bf e5b0 873f 2cdb 873e c764 5d3e
00000160: 3b12 96bf 4022 74bf 177d 2fbf 4912 1d3f
00000170: 6941 e3be b423 323d 59b7 d73e 66bf e23c
00000180: 6c1e 463f 9128 f8be e6e5 e4bd cd72 7dbf
00000190: ae0f 29bf 3db1 953f f3f8 f33e aca0 e0bd
000001a0: 1bfb 483e 08ed 233f f8b4 25bf 640d c8be
000001b0: 3797 723d 5e1e 39bf bcd9 283f 1eeb 42bf
000001c0: 7b0f 203f 8049 cebf 6966 4bbf 9f2b 4b3f
000001d0: 5608 b2bf b729 9ebf 77c8 1e3f 663b eb3e
000001e0: c3ea 4ebe 0616 303f a986 043f a85c 0cbf
000001f0: ff5c a93d 9a2e 183f 3737 2dbf 899b ca3e
00000200: d194 fa3e 55c8 acbe eec6 cbbf 339e bb3f
00000210: 2ba2 b03e c8cb d4be 5445 043e a521 063f
00000220: ef50 66bf bb72 ff3d f863 afbe a410 3bbe
00000230: 80b9 1d3f 0d19 97bf ccca 22be 1305 7bbf
00000240: ec8e b33f ab2d 373f ae41 58bf 94bf f93e
00000250: dc8a ffba 3a53 dbbe e7d6 5abe 0522 fbbe
00000260: b6b4 84bc 3a7c d2be ea4d 033f c07c 22bf
00000270: ee22 803b 21a9 2bbf 551d aa3c 9fd6 523f
00000280: dd6b bf3f 843d 1f3f a2b9 33bf 72b5 013e
00000290: b49d 03c0 7e28 5a3e c447 083d 52ed e93e
000002a0: 0309 213e bd5a 0abe cade 40bf 7d59 d2bd
000002b0: ace0 58bf 95d3 fa3e 3b70 7f3e 8445 273f
000002c0: e119 db3e d783 ab3f 4108 9f3f 8b67 7fbd
000002d0: 7b99 e1be 5167 d5bd 06ad 803f 1c71 b4bc
000002e0: 082d 913f 724e b43e 792f 0a3f a53c e13e
000002f0: 1b0f 523f d61d f13d bd1d 393c 34f3 6c3e
00000300: 4f45 8fbd 642e a83e 67cc 32bf 1984 303f
00000310: 69e2 d3bd 3111 49be 9d04 15bf 721b 143f
00000320: 7617 a7bf 2747 85bd fe0e 103f 4c85 e9be
00000330: 0712 823f 7514 28bf 4883 663f 138f 28bf
00000340: 048f 533f c1a4 e7be e085 473e 1564 a9bf
00000350: 21f4 603f be9b a4be 69ca 183f 8a53 cebe
00000360: 9891 d6be 3072 a93f 7a91 4cbe f232 f4be
00000370: 5832 54be 5fc4 5abf 2a75 b33f 7b1a ffbe
00000380: 76ce 3e3e 7a86 cfbd e090 813e ca24 403f
00000390: e14c 943e 813f 3dbe aa83 853e b3a5 06bf
000003a0: 33fc 04bd 4670 ed3d 0fce 85bf e187 f1be
000003b0: 479b 3f3f 4ecb 3dbf 2935 83be ed02 7ebf
000003c0: c221 c53e 9ebb 9bbf 6b94 f83e a55b 1ebf
000003d0: 5890 5a3e 17c2 c93e d186 af3e 2ac6 bdbf
000003e0: d75f 4ebf a06c e3be d932 66be 3446 a23d
000003f0: 0515 51bf 0b21 a8bd 743f 7abe 2fbf 8a3f

network_body._body_endoder.seq_layers.0.bias f4 [128]
0.0 0.0 0.0 0.0 0.0 0.0 0.0 0.0
0.0 0.0 0.0 0.0 0.0 0.0 0.0 0.0
0.0 0.0 0.0 0.0 0.0 0.0 0.0 0.0
0.0 0.0 0.0 0.0 0.0 0.0 0.0 0.0
0.0 0.0 0.0 0.0 0.0 0.0 0.0 0.0
0.0 0.0 0.0 0.0 0.0 0.0 0.0 0.0
0.0 0.0 0.0 0.0 0.0 0.0 0.0 0.0
0.0 0.0 0.0 0.0 0.0 0.0 0.0 0.0
0.0 0.0 0.0 0.0 0.0 0.0 0.0 0.0
0.0 0.0 0.0 0.0 0.0 0.0 0.0 0.0
0.0 0.0 0.0 0.0 0.0 0.0 0.0 0.0
0.0 0.0 0.0 0.0 0.0 0.0 0.0 0.0
0.0 0.0 0.0 0.0 0.0 0.0 0.0 0.0
0.0 0.0 0.0 0.0 0.0 0.0 0.0 0.0
0.0 0.0 0.0 0.0 0.0 0.0 0.0 0.0
0.0 0.0 0.0 0.0 0.0 0.0 0.0 0.0
00000000: 0000 0000 0000 0000 0000 0000 0000 0000
00000010: 0000 0000 0000 0000 0000 0000 0000 0000
00000020: 0000 0000 0000 0000 0000 0000 0000 0000
00000030: 0000 0000 0000 0000 0000 0000 0000 0000
00000040: 0000 0000 0000 0000 0000 0000 0000 0000
00000050: 0000 0000 0000 0000 0000 0000 0000 0000
00000060: 0000 0000 0000 0000 0000 0000 0000 0000
00000070: 0000 0000 0000 0000 0000 0000 0000 0000
00000080: 0000 0000 0000 0000 0000 0000 0000 0000
00000090: 0000 0000 0000 0000 0000 0000 0000 0000
000000a0: 0000 0000 0000 0000 0000 0000 0000 0000
000000b0: 0000 0000 0000 0000 0000 0000 0000 0000
000000c0: 0000 0000 0000 0000 0000 0000 0000 0000
000000d0: 0000 0000 0000 0000 0000 0000 0000 0000
000000e0: 0000 0000 0000 0000 0000 0000 0000 0000
000000f0: 0000 0000 0000 0000 0000 0000 0000 0000
00000100: 0000 0000 0000 0000 0000 0000 0000 0000
00000110: 0000 0000 0000 0000 0000 0000 0000 0000
00000120: 0000 0000 0000 0000 0000 0000 0000 0000
00000130: 0000 0000 0000 0000 0000 0000 0000 0000
00000140: 0000 0000 0000 0000 0000 0000 0000 0000
00000150: 0000 0000 0000 0000 0000 0000 0000 0000
00000160: 0000 0000 0000 0000 0000 0000 0000 0000
00000170: 0000 0000 0000 0000 0000 0000 0000 0000
00000180: 0000 0000 0000 0000 0000 0000 0000 0000
00000190: 0000 0000 0000 0000 0000 0000 0000 0000
000001a0: 0000 0000 0000 0000 0000 0000 0000 0000
000001b0: 0000 0000 0000 0000 0000 0000 0000 0000
000001c0: 0000 0000 0000 0000 0000 0000 0000 0000
000001d0: 0000 0000 0000 0000 0000 0000 0000 0000
000001e0: 0000 0000 0000 0000 0000 0000 0000 0000
000001f0: 0000 0000 0000 0000 0000 0000 0000 0000

network_body._body_endoder.seq_layers.2.weight f4 [128, 128]
0.009193018 -0.034279406 0.015251685 -0.17935985 0.11790986 0.06292362 -0.07451508 -0.07886698
0.033249594 0.04266909 0.02095919 0.030597089 0.13392398 -0.114604525 -0.079414494 0.17985117
0.08420643 0.019924639 0.00868002 -0.027444955 -0.1815623 -0.09476822 -0.108061664 0.0038360688
0.026648153 0.05011325 -0.12657902 0.05460855 0.04217979 -0.007080014 0.024349717 -0.031440504
0.027928313 0.02939607 0.05035398 -0.093035616 -0.00938025 0.08252662 -0.038988195 -0.016661175
-0.029093666 -0.010644527 -0.09303323 -0.16149104 -0.15201594 0.07050096 -0.11991697 0.11378373
-0.05305688 0.078854986 0.24276365 0.08534978 0.00067437714 -0.07342464 0.016151642 -0.18055081
0.079272315 -0.0003465022 0.06955731 0.07570683 0.1376242 0.13624832 0.21069947 0.09995693
0.12350955 -0.05592321 0.07002117 0.10896319 -0.14173844 -0.06896512 -0.05673346 -0.18291034
0.17061317 0.15343787 -0.07406721 0.031203529 0.022818545 -0.17775144 -0.034059417 -0.0065292045
0.043488745 -0.039966665 -0.07999074 0.13436624 0.060392655 0.09650618 -0.14955802 -0.1015323
0.013735142 -0.16448186 -0.2199478 0.05829417 -0.012538338 0.11340296 -0.15367825 0.05963402
0.10541867 -0.014854618 -0.058846988 -0.004649852 -0.055158444 0.030996546 0.048558578 -0.037689086
-0.02786734 -0.021475218 -0.06849242 -0.008421475 0.015650487 -0.17988293 -0.0231088 -0.009321212
-0.05224648 -0.048925515 -0.12530047 0.043893766 0.074368164 0.0011146611 0.042937618 -0.07229877
0.1358783 0.08509515 0.14283684 0.26612887 -0.0757641 0.007728935 0.052562587 -0.0811306
-0.010715275 0.069323376 0.11295838 -0.10872452 0.07714472 0.17040789 0.14138441 -0.016201375
0.023424238 -0.07142069 -0.070268065 -0.21062833 0.047122978 0.12162204 0.0264777 0.080587626
-0.014782105 0.0076357457 0.0131353745 -0.051259134 -0.042338017 -0.010666519 0.108858794 0.09866767
0.079358086 0.09431576 0.0137615 0.04532234 0.021895995 0.081148975 -0.028382927 0.04222541
0.06389432 0.025810095 0.13563631 -0.059683207 0.008969676 -0.059390705 0.076037504 0.14891608
0.086184375 0.016215924 -0.20512481 -0.10905657 0.0030400646 -0.056626014 -0.0039782594 -0.038871545
-0.05789019 0.101466395 -0.10680479 0.020658342 -0.0943653 -0.17510164 -0.05483276 0.026207084
-0.068653814 -0.11611367 0.034630664 0.07574615 -0.1253896 0.10464762 0.123079024 0.109040156
-0.09284001 0.038191527 -0.08289468 -0.12574176 -0.03242107 -0.15405239 -0.014696252 0.24226177
-0.12109314 -0.05204251 0.024879653 0.05367664 -0.07833726 -0.08434875 0.014546719 -0.010525115
-0.014490411 -0.035767153 0.048159033 0.07899906 -0.036090076 0.18140408 0.0721958 -0.12228073
0.036063228 0.10271859 0.10907786 -0.033515185 0.057669643 0.043501437 0.07762212 0.113924816
0.0864122 0.12191348 0.051862836 0.13823579 0.0005184769 0.118084006 0.13350937 -0.041756865
0.1924424 -0.008630115 -0.08457749 -0.0816585 0.03123593 0.1632075 -0.070210055 0.19629732
0.019118939 -0.02671745 -0.09602846 -0.016120706 -0.008980558 -0.037686754 0.05540326 0.17450285
0.020248419 -0.1492837 0.0564653 -0.17225944 0.15519045 -0.14909126 -0.10292769 -0.10442713
00000000: 509e 163c 9068 0cbd 34e2 793c 1caa 37be
00000010: ba7a f13d 19de 803d 5d9b 98bd 0385 a1bd
00000020: ba30 083d c9c5 2e3d 9bb2 ab3c bfa6 fa3c
00000030: 5e23 093e c7b5 eabd 11a4 a2bd e82a 383e
00000040: 6c74 ac3d ff38 a33c a536 0e3c 3ed4 e0bc
00000050: 78eb 39be d715 c2bd 6f4f ddbd 8e66 7b3b
00000060: 3a4d da3c 8d43 4d3d ee9d 01be 37ad 5f3d
00000070: b7c4 2c3d 76ff e7bb 0f79 c73c c2c7 00bd
00000080: ebc9 e43c 07d0 f03c fa3f 4e3d 7589 bebd
00000090: 9faf 19bc b703 a93d 16b2 1fbd 047d 88bc
000000a0: d755 eebc 6266 2ebc 3588 bebd e85d 25be
000000b0: 11aa 1bbe cf62 903d 0797 f5bd 7207 e93d
000000c0: 2c52 59bd b97e a13d 0997 783e decb ae3d
000000d0: afc8 303a a85f 96bd 7350 843c 50e2 38be
000000e0: 8659 a23d bdaa b5b9 1074 8e3d 2f0c 9b3d
000000f0: 5ced 0c3e ae84 0b3e 9ac1 573e 38b6 cc3d
00000100: 93f2 fc3d bc0f 65bd 4267 8f3d 1828 df3d
00000110: e223 11be 963d 8dbd 5861 68bd d94c 3bbe
00000120: 38b5 2e3e d11e 1d3e 8db0 97bd 8b9e ff3c
00000130: f5ed ba3c 7904 36be e381 0bbd f0f2 d5bb
00000140: 4121 323d 16b4 23bd 2fd2 a3bd 4e97 093e
00000150: 4a5e 773d 08a5 c53d bd25 19be 2bf0 cfbd
00000160: 5c09 613c ef6d 28be ff39 61be dec5 6e3d
00000170: 9a6d 4dbc d03f e83d d55d 1dbe cd42 743d
00000180: bee5 d73d c960 73bc 8a09 71bd c95d 98bb
00000190: d2ed 61bd 78ec fd3c 5ce5 463d df5f 1abd
000001a0: 0c4a e4bc ccec afbc c145 8cbd 3afa 09bc
000001b0: 7335 803c 3b33 38be ab4e bdbc ffb7 18bc
000001c0: 6800 56bd 1f66 48bd c44e 00be f3c9 333d
000001d0: 564e 983d d219 923a 5bdf 2f3d 6111 94bd
000001e0: ae23 0b3e 5e46 ae3d d243 123e 0b42 883e
000001f0: 352a 9bbd 0243 fd3b de4b 573d cd27 a6bd
00000200: 1f8f 2fbc 6af9 8d3d b956 e73d f6aa debd
00000210: 0dfe 9d3d 687f 2e3e 13c7 103e bfb8 84bc
00000220: 30e4 bf3c 0345 92bd b4e8 8fbd f4ae 57be
00000230: 0604 413d fa14 f93d c3e7 d83c 200b a53d
00000240: a430 72bc 4735 fa3b c135 573c 19f5 51bd
00000250: a16a 2dbd a0c2 2ebc 5cf1 de3d 4612 ca3d
00000260: 7e86 a23d 9f28 c13d ea77 613c eba3 393d
00000270: 3b5f b33c 6f31 a63d 5083 e8bc 8df4 2c3d
00000280: 06db 823d b16f d33c 3fe4 0a3e 6176 74bd
00000290: 8cf5 123c ab43 73bd 8db9 9b3d 757d 183e
000002a0: 6f81 b03d 42d7 843c 3d0c 52be 0d59 dfbd
000002b0: d23b 473b aef0 67bd 0f5c 82bb c537 1fbd
000002c0: 441e 6dbd 9dcd cf3d 78bc dabd af3b a93c
000002d0: 9842 c1bd d84d 33be 5198 60bd 3db0 d63c
000002e0: 5f9a 8cbd 01cd edbd e2d8 0d3d cc20 9b3d
000002f0: 2266 00be 7e51 d63d db10 fc3d 7250 df3d
00000300: e722 bebd b86e 1c3d b0c4 a9bd 73c2 00be
00000310: f5cb 04bd e9bf 1dbe 8cc8 70bc 7813 783e
00000320: aeff f7bd 872a 55bd 6ad0 cb3c 09dc 5b3d
00000330: 496f a0bd 0abf acbd 5d55 6e3c 8871 2cbc
00000340: 3069 6dbc 9480 12bd 6842 453d 42ca a13d
00000350: 30d3 13bd fec1 393e 64db 933d 526e fabd
00000360: 09b7 133d 205e d23d 3764 df3d 3847 09bd
00000370: 0137 6c3d 902e 323d 59f8 9e3d 6a51 e93d
00000380: e1f8 b03d c6ad f93d 206e 543d af8d 0d3e
00000390: 65ea 073a 07d6 f13d aeb6 083e 3f09 2bbd
000003a0: 9f0f 453e 5365 0dbc f736 adbd 923c a7bd
000003b0: 7ee2 ff3c de1f 273e 4aca 8fbd 2a02 493e
000003c0: 529f 9c3c 8ede dabc 92aa c4bd 920f 84bc
000003d0: 3123 13bc 6d5d 1abd 87ee 623d e0b0 323e
000003e0: 03e0 a53c d4dd 18be 2948 673d c764 30be
000003f0: 3fea 1e3e 61ab 18be c1cb d2bd e4dd d5bd

network_body._body_endoder.seq_layers.2.bias f4 [128]
0.0 0.0 0.0 0.0 0.0 0.0 0.0 0.0
0.0 0.0 0.0 0.0 0.0 0.0 0.0 0.0
0.0 0.0 0.0 0.0 0.0 0.0 0.0 0.0
0.0 0.0 0.0 0.0 0.0 0.0 0.0 0.0
0.0 0.0 0.0 0.0 0.0 0.0 0.0 0.0
0.0 0.0 0.0 0.0 0.0 0.0 0.0 0.0
0.0 0.0 0.0 0.0 0.0 0.0 0.0 0.0
0.0 0.0 0.0 0.0 0.0 0.0 0.0 0.0
0.0 0.0 0.0 0.0 0.0 0.0 0.0 0.0
0.0 0.0 0.0 0.0 0.0 0.0 0.0 0.0
0.0 0.0 0.0 0.0 0.0 0.0 0.0 0.0
0.0 0.0 0.0 0.0 0.0 0.0 0.0 0.0
0.0 0.0 0.0 0.0 0.0 0.0 0.0 0.0
0.0 0.0 0.0 0.0 0.0 0.0 0.0 0.0
0.0 0.0 0.0 0.0 0.0 0.0 0.0 0.0
0.0 0.0 0.0 0.0 0.0 0.0 0.0 0.0
00000000: 0000 0000 0000 0000 0000 0000 0000 0000
00000010: 0000 0000 0000 0000 0000 0000 0000 0000
00000020: 0000 0000 0000 0000 0000 0000 0000 0000
00000030: 0000 0000 0000 0000 0000 0000 0000 0000
00000040: 0000 0000 0000 0000 0000 0000 0000 0000
00000050: 0000 0000 0000 0000 0000 0000 0000 0000
00000060: 0000 0000 0000 0000 0000 0000 0000 0000
00000070: 0000 0000 0000 0000 0000 0000 0000 0000
00000080: 0000 0000 0000 0000 0000 0000 0000 0000
00000090: 0000 0000 0000 0000 0000 0000 0000 0000
000000a0: 0000 0000 0000 0000 0000 0000 0000 0000
000000b0: 0000 0000 0000 0000 0000 0000 0000 0000
000000c0: 0000 0000 0000 0000 0000 0000 0000 0000
000000d0: 0000 0000 0000 0000 0000 0000 0000 0000
000000e0: 0000 0000 0000 0000 0000 0000 0000 0000
000000f0: 0000 0000 0000 0000 0000 0000 0000 0000
00000100: 0000 0000 0000 0000 0000 0000 0000 0000
00000110: 0000 0000 0000 0000 0000 0000 0000 0000
00000120: 0000 0000 0000 0000 0000 0000 0000 0000
00000130: 0000 0000 0000 0000 0000 0000 0000 0000
00000140: 0000 0000 0000 0000 0000 0000 0000 0000
00000150: 0000 0000 0000 0000 0000 0000 0000 0000
00000160: 0000 0000 0000 0000 0000 0000 0000 0000
00000170: 0000 0000 0000 0000 0000 0000 0000 0000
00000180: 0000 0000 0000 0000 0000 0000 0000 0000
00000190: 0000 0000 0000 0000 0000 0000 0000 0000
000001a0: 0000 0000 0000 0000 0000 0000 0000 0000
000001b0: 0000 0000 0000 0000 0000 0000 0000 0000
000001c0: 0000 0000 0000 0000 0000 0000 0000 0000
000001d0: 0000 0000 0000 0000 0000 0000 0000 0000
000001e0: 0000 0000 0000 0000 0000 0000 0000 0000
000001f0: 0000 0000 0000 0000 0000 0000 0000 0000

value_heads.value_heads.extrinsic.weight f4 [1, 128]
-0.09030874 0.13592182 -0.040335968 0.009220139 -0.047648657 -0.14449862 -0.12987378 0.15627606
0.18526457 -0.02620639 -0.08784898 -0.051541384 -0.103152275 -0.20860177 0.17423382 0.10456643
0.07235792 -0.09050832 0.06531478 0.07663133 0.07489927 -0.17028713 -0.0089240065 0.11208181
0.05958517 0.19087061 0.0069168145 -0.065720715 -0.16747323 0.049295187 -0.10247614 0.02696912
-0.16513658 -0.060294308 0.057120852 -0.13646485 0.14094213 0.12967403 -0.13987207 0.07028738
-0.14564146 0.13919634 -0.014502212 0.07124916 0.10260054 -0.09762648 0.12214786 -0.14721693
0.19871058 0.029556405 0.016450427 0.20974505 -0.1545141 0.085178375 -0.1008791 -0.16641045
0.13259095 0.048733026 -0.116291285 -0.08948232 -0.095050015 -0.13293813 0.10691274 0.14702219
0.21119817 0.17361896 -0.14215562 -0.17504957 -0.10878389 0.21319196 -0.085314095 -0.07402956
-0.017642068 -0.02328253 -0.19373867 -0.1811404 -0.18314552 -0.056502387 -0.07390984 -0.15515515
-0.09911655 -0.16523321 -0.019368475 0.07287005 0.040632706 -0.1543537 -0.16865785 0.07501743
-0.21097483 0.13801299 0.08589836 0.08642325 0.12420029 -0.17964606 -0.13078524 -0.17086948
0.010818591 -0.0008078388 -0.17607594 -0.2019562 -0.13645943 -0.029106054 0.14170606 0.04116916
-0.03182997 0.16989128 -0.21088459 0.06644791 -0.20513013 0.21530117 0.06441487 -0.14227091
0.034179714 -0.030446514 -0.11419061 0.057016626 0.038803924 0.16702028 0.19569243 0.028703883
0.12280764 0.19698428 -0.20288534 -0.0084880665 0.06368725 -0.21172604 -0.1885591 0.12388751
00000000: caf3 b8bd 172f 0b3e 5437 25bd 1110 173c
00000010: 3d2b 43bd 72f7 13be a2fd 04be d506 203e
00000020: ffb5 3d3e c8ae d6bc 2bea b3bd 0f1d 53bd
00000030: 8041 d3bd b49b 55be 5a6a 323e ed26 d63d
00000040: 6430 943d 6d5c b9bd c1c3 853d e3f0 9c3d
00000050: ca64 993d c05f 2ebe ff35 12bc 268b e53d
00000060: 940f 743d 9673 433e 72a6 e23b 9598 86bd
00000070: 1a7e 2bbe c0e9 493d 03df d1bd 58ee dc3c
00000080: 9019 29be 2af7 76bd 8ef7 693d 71bd 0bbe
00000090: 2253 103e 45c9 043e a03a 0fbe d4f2 8f3d
000000a0: 0923 15be 7c89 0e3e b09a 6dbc 14eb 913d
000000b0: 3b20 d23d 64f0 c7bd a828 fa3d 09c0 16be
000000c0: c97a 4b3e 4620 f23c 0cc3 863c 68c7 563e
000000d0: f238 1ebe 0072 ae3d b499 cebd 8067 2abe
000000e0: ecc5 073e 489c 473d 202a eebd 8242 b7bd
000000f0: 95a9 c2bd ef20 08be 11f5 da3d fc8c 163e
00000100: 5544 583e 2bc9 313e 3e91 11be 3240 33be
00000110: 17ca debd fe4e 5a3e 28b9 aebd cf9c 97bd
00000120: 1986 90bc 01bb bebc 6e63 46be de7c 39be
00000130: 808a 3bbe 0c6f 67bd 0b5e 97bd fee0 1ebe
00000140: 9efd cabd e532 29be a3aa 9ebc e53c 953d
00000150: 7b6e 263d e50e 1ebe a5b4 2cbe bda2 993d
00000160: c909 58be 4753 0d3e 7beb af3d acfe b03d
00000170: b95c fe3d 23f5 37be 91ec 05be 69f8 2ebe
00000180: 7640 313c 25c5 53ba 404d 34be 9bcd 4ebe
00000190: 05bc 0bbe d26f eebc 651b 113e fea0 283d
000001a0: 2560 02bd fbf7 2d3e 21f2 57be d815 883d
000001b0: a20d 52be e977 5c3e f2eb 833d 77af 11be
000001c0: 0700 0c3d f86a f9bc c4dc e9bd 448a 693d
000001d0: ddf0 1e3d 5d07 2b3e 9963 483e 6824 eb3c
000001e0: 9282 fb3d 3fb6 493e 2dc1 4fbe 8811 0bbc
000001f0: 766e 823d b6ce 58be a315 41be bcb8 fd3d
